trained_models/checkpoint_ep3400.pth (torch, 416160 bytes, 14 tensors)

fc1.weight f4 [256, 8]
0	0xbe52f984	-0.20602995
1	0x3e55ea6c	0.20890206
2	0x3ed15834	0.40887606
3	0x3f8ed7c3	1.1159595
4	0x3dede155	0.11615244
5	0xbf0db717	-0.553575
6	0x3e81a933	0.253244
7	0x3e1bf8a0	0.15231562
8	0xbdd2f39e	-0.103003725
9	0x3e4758ca	0.19467464
10	0x3f026141	0.5092965
11	0x3f9de72d	1.2336174
12	0x3cb62c08	0.022237793
13	0xbef5e579	-0.48026636
14	0x3e7c557a	0.24641982
15	0x3e150ba7	0.14555226
16	0xbeec77a3	-0.46185026
17	0x3dddeb19	0.10835857
18	0x3f2e22c8	0.6802182
19	0x3f663bee	0.89935195
20	0xbcaeda34	-0.021344282
21	0x3d7baa5d	0.061441768
22	0x3e43ec22	0.19133046
23	0x3db29fc8	0.08721882
24	0xbf05af7e	-0.52220905
25	0x3dd8e27a	0.10590072
26	0x3e0b8b3e	0.13627335
27	0x3e6d8b7f	0.23197745
28	0xbbf862fc	-0.007580159
29	0xbca36057	-0.0199434
30	0x3e9f8b60	0.31161022
31	0xbd873f7f	-0.06603908
32	0xbeee1290	-0.46498537
33	0x3e4f02ab	0.20215861
34	0x3f046b8f	0.5172662
35	0x3f7cafd5	0.987058
36	0x3e0a7066	0.13519439
37	0xbecdac55	-0.4017054
38	0x3e69b12d	0.22821493
39	0xbd38113d	-0.044938315
40	0xbed7760b	-0.42082247
41	0x3e8dc850	0.2769189
42	0x3f27e294	0.65580106
43	0x3f93e646	1.1554649
44	0x3d2ce87e	0.04221391
45	0xbf07b713	-0.53013724
46	0x3e5822ba	0.21106997
47	0x3dafd7de	0.08586095
48	0x3dda0f29	0.10647423
49	0x3e910acd	0.28328553
50	0x3e9104e1	0.28324035
51	0x3faed6a1	1.365925
52	0x3e88bc21	0.2670603
53	0xbfa4eefd	-1.2885433
54	0x3e84ac38	0.25912642
55	0x3e7cb642	0.24678901
56	0xbf497f0b	-0.7870948
57	0xbd376895	-0.04477747
58	0x3f5ebff1	0.8701163
59	0x3f0a9b9c	0.5414369
60	0xbd489bed	-0.048976827
61	0x3eb9e721	0.3630915
62	0x3e802bac	0.2503332
63	0xbce6bdf8	-0.028166756
64	0xbea99b70	-0.33126402
65	0x3e0f959d	0.14021917
66	0x3f1d96fa	0.61558497
67	0x3f759708	0.9593358
68	0x3d93d274	0.07217875
69	0xbee68e61	-0.450305
70	0x3e734c9c	0.23759693
71	0x3d674357	0.056460705
72	0xbed2aad8	-0.41145968
73	0x3e48d53a	0.1961259
74	0x3f19c8af	0.60071844
75	0x3f85c5b4	1.0450959
76	0x3dbbae65	0.091641225
77	0xbeda1042	-0.4259053
78	0x3e64ef47	0.22356902
79	0x3d4bb872	0.049736448
80	0xbe3fd166	-0.18732223
81	0x3e68e37d	0.2274303
82	0x3f0d6976	0.55239046
83	0x3f99a5d7	1.2003735
84	0x3de25635	0.11051599
85	0xbf44f3e8	-0.7693467
86	0x3e809233	0.2511154
87	0x3dfa0ecf	0.12209856
88	0xbf0b3fc0	-0.5439415
89	0xbceab963	-0.028652852
90	0x3f32e207	0.6987614
91	0x3f41e926	0.7574638
92	0xbdc8c337	-0.09802859
93	0x3f58038f	0.8438043
94	0x3e0d2bf9	0.13786305
95	0xbe10bbe8	-0.1413418
96	0xbec044d0	-0.375525
97	0x3da9bf01	0.08288384
98	0x3f253681	0.6453629
99	0x3f93b3db	1.1539263
100	0x3d9b7835	0.07591287
101	0xbe041a19	-0.1290058
102	0x3e5763e0	0.21034193
103	0x3d02add8	0.03190407
104	0xbeb955b4	-0.361982
105	0xbbc9ced7	-0.0061586904
106	0x3f3942cc	0.7236755
107	0x3f525ea6	0.8217567
108	0x3c8858e5	0.01664395
109	0x3e883ffd	0.2661132
110	0x3e32bbd5	0.17454465
111	0x3dc4dcb0	0.09612405
112	0xbdd3e7dd	-0.10346959
113	0x3ead5b71	0.33858827
114	0x3eb7913c	0.35852993
115	0x3fad6249	1.3545619
116	0x3e04b02e	0.12957832
117	0xbf96a4df	-1.1769065
118	0x3e86083c	0.26178157
119	0x3ea3802b	0.31933722
120	0xbdcd0a1f	-0.10011696
121	0xbd28ae80	-0.04118204
122	0xbf45ac12	-0.77215683
123	0xbe40e1a5	-0.18836077
124	0xbd75d323	-0.06001581
125	0xbec298e0	-0.3800726
126	0x3f359c1c	0.7094133
127	0xbd8ee8f1	-0.06978024
128	0x3e85f64a	0.26164466
129	0x3eb1ce3a	0.3472765
130	0x3e58eb9b	0.21183626
131	0x3f9bea1a	1.2180817
132	0x3e576b93	0.2103713
133	0xbfa5c5ba	-1.2950966
134	0x3e8a33e2	0.26992708
135	0x3e1cf519	0.15327872
136	0xbf0ab6ac	-0.54184985
137	0x3dd38fe9	0.10330183
138	0x3f21dad4	0.6322453
139	0x3f8e928c	1.1138473
140	0x3df300db	0.118653975
141	0xbea5fcce	-0.32419437
142	0x3e666834	0.22500688
143	0x3dc791c2	0.09744598
144	0xbe0042fd	-0.12525554
145	0x3e90ca6a	0.2827943
146	0x3eb18722	0.3467341
147	0x3fa19a97	1.2625302
148	0x3e6c1e91	0.23058535
149	0xbf823f70	-1.017561
150	0x3e87a1bf	0.2649059
151	0x3e29601c	0.16540569
152	0xbf1c0a1b	-0.6095292
153	0x3e18ee4e	0.14934656
154	0x3f1f2500	0.6216583
155	0x3f782634	0.96933293
156	0x3db9c21e	0.09070228
157	0x3f16eeb7	0.58958
158	0xbf147111	-0.57985026
159	0x3db8c63b	0.090221845
160	0xbecefc55	-0.4042689
161	0x3df328b4	0.11872998
162	0x3f228420	0.63482857
163	0x3f61fb2c	0.8827388
164	0xbd30ba16	-0.043146215
165	0x3e3c8dd5	0.1841348
166	0x3e3d818c	0.1850645
167	0xbd87cc12	-0.0663072
168	0xbeab2327	-0.33425257
169	0x3e3d1ded	0.18468447
170	0x3f05a653	0.52206916
171	0x3eaa7a70	0.33296537
172	0x3c7ebf17	0.015548489
173	0xbed4a9e0	-0.41535854
174	0x3e905b43	0.28194627
175	0x3dff0c16	0.12453477
176	0xbe8cf7ed	-0.27532902
177	0x3e570705	0.20998771
178	0x3f22f3c3	0.636532
179	0x3f95911e	1.1684911
180	0x3d10a456	0.035312973
181	0xbecee8ff	-0.40412137
182	0x3e63b6f1	0.22237755
183	0x3d5cbf96	0.053893648
184	0xbe9f7a59	-0.3114803
185	0x3e0b2ece	0.13592073
186	0x3ee9d933	0.45673522
187	0x3e63b667	0.2223755
188	0x3d61c7b8	0.055122107
189	0xbef4cf1d	-0.47814265
190	0x3eb3ea7c	0.35139835
191	0x3d6ee477	0.05832335
192	0xbee9f94d	-0.45698014
193	0x3e0f2dc5	0.13982303
194	0x3f19bd9f	0.60054964
195	0x3f0e0cef	0.55488485
196	0xbe00d3db	-0.12580816
197	0xbea08459	-0.31350973
198	0x3f000b52	0.50017273
199	0xbe3ce5d5	-0.18447049
200	0x3ee2eea1	0.44322684
201	0x3e0febc1	0.14054777
202	0xbfa2e93c	-1.2727427
203	0x3d4fb62a	0.050710835
204	0x3e70b94e	0.23508188
205	0xbf30f45f	-0.6912288
206	0x3dde46e0	0.10853362
207	0x3d5d80af	0.0540778
208	0x3e8043b3	0.2505165
209	0x3ddd95d9	0.10819597
210	0xc011c198	-2.277441
211	0x3ed682c7	0.4189665
212	0x3ca57ecd	0.020202065
213	0xbed7dde0	-0.42161465
214	0x3e75dc9c	0.24009937
215	0x3d6af93c	0.057366595
216	0xbecf8e9b	-0.40538487
217	0x3e184afb	0.14872353
218	0x3f344fb1	0.704341
219	0x3f9bb85c	1.2165637
220	0x3dbfb173	0.09360018
221	0xbea602a0	-0.32423878
222	0x3e5bcfa2	0.21465924
223	0x3c3f0819	0.0116596455
224	0x3c9fe0f3	0.019516444
225	0x3e6b1ca4	0.22960144
226	0x3e0520f4	0.13000852
227	0x3f61e398	0.88237906
228	0x3dda550b	0.10660752
229	0xbe944072	-0.28955418
230	0x3e83a240	0.25709724
231	0x3ce7083d	0.02820217
232	0x3cff47ea	0.031162221
233	0x3ea14df1	0.31504777
234	0x3ec16d52	0.37778717
235	0x3f9f4663	1.2443355
236	0x3dd5104d	0.104035
237	0xbf6cfb89	-0.9257131
238	0x3e85b3fa	0.26113874
239	0x3d8fa3f0	0.070136905
240	0xbf4a67c5	-0.7906459
241	0xbdb869d0	-0.09004557
242	0x3e04d4d9	0.1297182
243	0x3e328294	0.17432624
244	0xbdd317c0	-0.10307264
245	0x400ddf4e	2.2167544
246	0x3c72fd2a	0.014830867
247	0xbdb3e0ae	-0.087830886
248	0xbe9b07d6	-0.30279416
249	0x3e6a1f7c	0.22863573
250	0x3f11a1da	0.5688759
251	0x3f8abda6	1.0839126
252	0x3d96c2db	0.073613845
253	0xbf0db2fa	-0.5535122
254	0x3e6d6c75	0.23185904
255	0x3e1b6d81	0.15178491

fc1.bias f4 [256]
0	0x3ddf04f6	0.10889618
1	0x3e06466e	0.13112804
2	0x3c3cd052	0.011524277
3	0xbcf2841f	-0.029604016
4	0x3dab39f7	0.08360665
5	0x3da154a7	0.07877474
6	0x3e863ee6	0.26219863
7	0xbda61831	-0.08110083
8	0x3de7ae20	0.113125086
9	0x3d928751	0.07154716
10	0x3e11793c	0.14206403
11	0xbcc8a300	-0.024491787
12	0x3d3de025	0.04635634
13	0xbd20b62a	-0.039236225
14	0x3e7c91b0	0.2466495
15	0xbdbec05f	-0.093140356
16	0x3e92f0ed	0.28699437
17	0x3d84c1ed	0.06482301
18	0x3e2e5e48	0.17028153
19	0x3daeee20	0.085415125
20	0x3d1dadce	0.03849583
21	0x3d4b78e8	0.049675852
22	0x3d9abe32	0.07555808
23	0x3d31a649	0.043371473
24	0xbdbb034e	-0.0913149
25	0x3e006f0b	0.1254236
26	0x3d0e4c67	0.03474083
27	0x3d25940a	0.040424384
28	0x3dac58b6	0.08415358
29	0x3e629755	0.22128041
30	0xbe30d19c	-0.1726746
31	0x3daca82b	0.08430513
32	0xbdc87b12	-0.09789099
33	0x3d8d841d	0.06909964
34	0x3d89d86a	0.06730731
35	0x3ca1b521	0.01973969
36	0x3d39caf8	0.04535958
37	0x3d6fe029	0.058563385
38	0x3ed50419	0.4160469
39	0x3db6c54d	0.08924351
40	0xbdbc8e45	-0.09206823
41	0x3db674d7	0.08909004
42	0x3d15247e	0.036411755
43	0x3dde5362	0.10855748
44	0x3e9c0e05	0.30479446
45	0xbe48489d	-0.1955895
46	0xbd57a779	-0.05264995
47	0xbc513d3f	-0.01277095
48	0x3e958f3b	0.2921084
49	0xbc1b9600	-0.009496212
50	0x3d7a2716	0.06107243
51	0x3d7309e9	0.059335623
52	0xbd351970	-0.044213712
53	0x3d987fb6	0.07446234
54	0x3dc985f1	0.098400004
55	0x3e1c498c	0.15262431
56	0x3e789577	0.24275766
57	0x3dcaa769	0.09895212
58	0xbd8e3238	-0.06943172
59	0xbdbdcafb	-0.09267231
60	0xbd82b4e3	-0.06382158
61	0x3e2fff14	0.17187148
62	0x3cca658d	0.024706626
63	0x3e3ba376	0.18324074
64	0xbbe09dca	-0.0068547474
65	0xbdca45d4	-0.098766
66	0x3e01ea62	0.12687066
67	0x3d05087f	0.032478806
68	0xbd849430	-0.06473577
69	0x3db11b7a	0.08647819
70	0x3c0291f6	0.00796937
71	0x3df0b456	0.11753146
72	0x3b5ef241	0.0034018906
73	0x3d18b320	0.037280202
74	0x3dcd7fea	0.10034163
75	0x3e670e65	0.22564085
76	0x3dc15bc9	0.09441335
77	0x3d7a9823	0.061180245
78	0x3dc847d3	0.097793244
79	0x3e551189	0.2080747
80	0x3de88543	0.11353543
81	0x3d57304f	0.052536305
82	0x3c62b3a2	0.013836773
83	0xbce61331	-0.028085323
84	0x3d22d60c	0.039754912
85	0x3d9e5175	0.077303804
86	0x3c86b44c	0.016443394
87	0x3e46e9c1	0.19425108
88	0x3de45a2c	0.111500114
89	0x3e870d52	0.2637735
90	0xbe13ae17	-0.14421879
91	0x3dfc329f	0.12314343
92	0x3dab0d5f	0.0835216
93	0x3bd711cd	0.0065634013
94	0x3df4201a	0.119201854
95	0xbc3342b4	-0.010941196
96	0x3e295170	0.16534972
97	0x3cc1ee6a	0.023673255
98	0x3e42ddc3	0.19029908
99	0x3e013b00	0.12620163
100	0x3dbd8240	0.09253359
101	0xbcb9b0dc	-0.022667341
102	0xbd819cb1	-0.06328715
103	0x3d4d68a5	0.050148625
104	0x3d18b350	0.03728038
105	0x3df0cc22	0.11757685
106	0x3d4660de	0.048432223
107	0x3dbf4c5c	0.09340736
108	0x3be09d13	0.006854662
109	0xbd7b7fdd	-0.061401237
110	0x3ce397a2	0.027782265
111	0xbda6227d	-0.08112047
112	0xbc8f0d5b	-0.017462423
113	0x3dc169d9	0.09444017
114	0x3db504fb	0.088388406
115	0x3dab1ffd	0.08355711
116	0x3dfb7043	0.122772716
117	0x3d4ad4e6	0.049519442
118	0x3c9f14dc	0.019419126
119	0x3ecda237	0.40162823
120	0x3e0a0bdd	0.13481088
121	0x3ddb5c4b	0.10710963
122	0xbdb5b23f	-0.08871888
123	0xbe04dafb	-0.1297416
124	0x3dc84e6f	0.09780585
125	0x3d03d745	0.03218772
126	0x3ef33eee	0.4750895
127	0x3d2b4dd8	0.041822284
128	0x3d84b720	0.06480241
129	0x3d8dea2e	0.06929432
130	0x3f0c2382	0.5474168
131	0x3ec3764f	0.381762
132	0x3edec091	0.43506292
133	0x3e249b0e	0.16074774
134	0x3dbbb8b8	0.09166092
135	0x3e80fe0b	0.2519382
136	0x3dddf80d	0.108383276
137	0x3db60899	0.088883586
138	0x3ebc3b03	0.36763772
139	0x3d66414c	0.056214616
140	0xbbc93d55	-0.0061413446
141	0x3de647f5	0.112441935
142	0x3e964cb9	0.2935541
143	0x3e6aea7f	0.22941016
144	0x3d35b2b9	0.044359896
145	0x3e29ff9b	0.16601412
146	0x3d51ef48	0.051253587
147	0x3d8edd03	0.069757484
148	0x3d2e0f5d	0.04249512
149	0x3d9f3160	0.077730894
150	0x3dcbe7ea	0.099563435
151	0xbe4f92d1	-0.2027085
152	0x3df2bb84	0.11852172
153	0x3d5107c3	0.051032793
154	0x3d92c6a9	0.07166798
155	0x3d956952	0.07295479
156	0xbda45205	-0.080234565
157	0x3d9942cd	0.07483444
158	0x3dc2648a	0.094918326
159	0x3df81b82	0.12114622
160	0x3d5fe6a0	0.0546633
161	0x3eb2818e	0.34864467
162	0x3e02daed	0.12778826
163	0x3ea629e9	0.3245385
164	0x3d30b2bb	0.0431392
165	0x3dab17bb	0.083541356
166	0x3db7ec40	0.08980608
167	0x3e380e2b	0.17974155
168	0x3d78f03f	0.06077599
169	0x3e0511ed	0.1299512
170	0x3de30a93	0.11086001
171	0x3e618ff8	0.22027576
172	0x3d307eb4	0.043089584
173	0x3db7e0f2	0.08978452
174	0x3dffc50d	0.12488756
175	0x3dde31bc	0.1084933
176	0x3e01aaa5	0.12662752
177	0x3da2c2cb	0.0794731
178	0xbe33ea64	-0.17569882
179	0x3dcac344	0.09900525
180	0x3da3338a	0.07968815
181	0x3e8c57fe	0.27410883
182	0x3dc9c975	0.09852878
183	0x3df4e47e	0.11957644
184	0x3d2b4b42	0.04181982
185	0x3da4ca31	0.080463775
186	0x3dd05573	0.10172548
187	0x3d2b0d09	0.04176048
188	0x3f24f3be	0.6443442
189	0x3ec4fb4e	0.3847298
190	0x3d9b75cb	0.075908266
191	0x3dc48d9a	0.09597321
192	0xbd0e18ac	-0.034691498
193	0xbe014da1	-0.1262727
194	0xbc02b4e1	-0.007977695
195	0xbe16e150	-0.14734387
196	0x3e93218c	0.28736532
197	0x3d0c80c2	0.03430248
198	0x3dd24b6f	0.10268294
199	0xb995f105	-0.00028599068
200	0x3dee7f85	0.11645416
201	0x3e0386f3	0.12844448
202	0x3eb1c705	0.34722152
203	0x3dd57524	0.104227334
204	0x3d442ce1	0.047894362
205	0x3e055240	0.13019657
206	0x3da27201	0.07931901
207	0x3d17d071	0.03706402
208	0xbf5256b0	-0.82163525
209	0x3de92293	0.11383548
210	0x3d9ee5d8	0.07758683
211	0x3e096a38	0.13419425
212	0xbc1e336b	-0.009655814
213	0xbcab7df0	-0.020934075
214	0x3e06d662	0.13167718
215	0x3df0de5a	0.1176116
216	0x3e08d927	0.13364087
217	0x3cc8d49e	0.024515446
218	0x3d9a7a6f	0.075428836
219	0xbddda57d	-0.1082258
220	0x3d2aa49f	0.0416609
221	0x3eec68fd	0.4617385
222	0x3d805348	0.06265885
223	0x3c845455	0.016153494
224	0x3e142a3b	0.14469235
225	0x3dda18a7	0.10649233
226	0xbd231d71	-0.039823
227	0x3bf12368	0.007358957
228	0xbee99f46	-0.45629328
229	0xbcad0c74	-0.021124102
230	0x3e12172c	0.14266652
231	0xbdcd1780	-0.10014248
232	0x3f4a27eb	0.7896716
233	0x3dcdc08e	0.100464925
234	0x3d69bda7	0.057065632
235	0xbcc03bca	-0.02346601
236	0x3dc26e83	0.09493735
237	0xbd23c450	-0.03998214
238	0x3e3ec87b	0.18631165
239	0x3e12f028	0.14349425
240	0x3e748725	0.23879679
241	0x3d60c59e	0.054875962
242	0x3d304c2e	0.0430414
243	0x3eac41dd	0.33644
244	0x3de876fd	0.1135082
245	0x3d867254	0.06564775
246	0x3d482c2d	0.048870254
247	0x3e25bca6	0.16185245
248	0x3dd7e90b	0.10542496
249	0x3dfb4e10	0.122707486
250	0xbd01c0fc	-0.031678185
251	0xbca8209c	-0.020523362
252	0x3c94d22c	0.018166624
253	0x3d02e6f3	0.03195853
254	0x3e1623b4	0.14662057
255	0x3c006cee	0.007838471

fc2.weight f4 [256, 256]
0	0x3ca0f769	0.019649224
1	0x3e451b36	0.19248661
2	0x3c9bafb8	0.019004688
3	0xbdbdb4ba	-0.092629865
4	0xbc16ca5f	-0.0092035225
5	0x3cc15d55	0.023604074
6	0x3ea5b8d9	0.3236759
7	0xbe953a07	-0.29145834
8	0x3e759914	0.23984176
9	0x3d239c69	0.039944086
10	0x3d1168d0	0.035500348
11	0x3dc2e945	0.09517149
12	0x3e06a03b	0.1314706
13	0xbbf7ff74	-0.007568294
14	0x3d841db5	0.06450979
15	0xbf6b1aec	-0.91837955
16	0x3e82f4e5	0.25577465
17	0xbe09e7bd	-0.13467307
18	0x3db5fe0e	0.08886348
19	0x3ee54868	0.44781804
20	0xbe92fdca	-0.2870925
21	0xbec40daf	-0.3829169
22	0x3e0d344d	0.13789482
23	0xbe1ae6cd	-0.15127106
24	0xbee05994	-0.43818343
25	0xbf9dee84	-1.2338414
26	0xbf4daf5c	-0.803457
27	0x3cc6b5fc	0.024256699
28	0xbde5af6c	-0.112151
29	0x3cd2b5f5	0.02572153
30	0xbe354817	-0.17703281
31	0xbdfe9b28	-0.124319375
32	0x3e522260	0.20520926
33	0x3e9b1dbc	0.30296123
34	0xbe62db5f	-0.22153996
35	0xbd33ccc7	-0.043896463
36	0x3dda0ed4	0.106473595
37	0xbd67fc1d	-0.05663692
38	0x3f9ea3e1	1.2393762
39	0xbdb37c9f	-0.08764004
40	0x3e4e468d	0.201441
41	0xbd57f913	-0.05272777
42	0xbe93a20f	-0.28834578
43	0x3e6144f6	0.21998963
44	0xbebc8a77	-0.3682439
45	0xbed511e0	-0.416152
46	0xbdb1fbcf	-0.08690607
47	0xbd95089e	-0.07277034
48	0xbe7b7556	-0.24556479
49	0xbee07f5b	-0.43847165
50	0xbdd47780	-0.10374355
51	0xbd3a2580	-0.04544592
52	0xbedaf101	-0.42761996
53	0xbd13a008	-0.03604129
54	0x3de800be	0.113282666
55	0x3cddf603	0.027094847
56	0x3cd115c0	0.025523067
57	0x3dd90cb0	0.10598123
58	0xbcda5f04	-0.026656635
59	0xbeaeceb9	-0.34142092
60	0x3c8755c5	0.01652039
61	0x3de77c30	0.11302984
62	0x3d042c66	0.032268904
63	0xbd5f2192	-0.054475375
64	0x3c539b21	0.012915404
65	0xbe232358	-0.15931451
66	0x3e195be8	0.14976466
67	0x3e0158dd	0.12631555
68	0xbd10aef6	-0.035323106
69	0xbd454e05	-0.04817011
70	0x3cbb4a8b	0.022862693
71	0x3e35b99b	0.17746584
72	0xbeb71c27	-0.35763666
73	0xbe11cee8	-0.14239085
74	0xbceb6d57	-0.02873866
75	0xbe0df9a3	-0.1386476
76	0x3e9f6e90	0.3113904
77	0x3cc2fdaa	0.023802597
78	0xbd120cb4	-0.035656646
79	0xbd79b931	-0.060967628
80	0xbd907bd2	-0.07054867
81	0xbd292378	-0.04129359
82	0xbfa3ef95	-1.280749
83	0xbf3ab005	-0.72924834
84	0xbdf40f43	-0.119169734
85	0xbcc498a6	-0.02399857
86	0xbde1a6f9	-0.11018176
87	0x3e188399	0.1489395
88	0x3e329a1c	0.174416
89	0x3dc58e75	0.09646312
90	0xbf0da5bd	-0.5533102
91	0x3cdd621f	0.027024327
92	0xbdc07086	-0.09396462
93	0x3ac7ebde	0.0015252789
94	0x3d0fcb1d	0.035105813
95	0xbd981b01	-0.074270256
96	0x3e6b6c3f	0.22990511
97	0xbde855ad	-0.11344466
98	0xbe33280b	-0.17495744
99	0x3e810782	0.2520104
100	0x3e8b6a58	0.2722957
101	0x3f039c42	0.51410306
102	0xbda95bd4	-0.08269468
103	0xbd8760c4	-0.066102535
104	0x3d8d4ea4	0.06899765
105	0xbdb126e4	-0.08649996
106	0xbe77694c	-0.24161261
107	0xbe5d76d8	-0.21627367
108	0xbdbb09f2	-0.09132756
109	0xbe88fccf	-0.26755378
110	0xbec9b795	-0.39397874
111	0xbeff5f13	-0.49877223
112	0x3e9b576b	0.30340132
113	0xbe0daaa3	-0.13834624
114	0x3d86dac4	0.06584695
115	0x3e3751e4	0.17902333
116	0x3e09538c	0.13410777
117	0xbe8f4f45	-0.27990165
118	0xbde3a665	-0.111157216
119	0xbe75e901	-0.24014665
120	0x3da5558e	0.08072959
121	0x3e10dc17	0.14146458
122	0x3df190d6	0.117952034
123	0xbdbaa4bb	-0.09113451
124	0xbe0a5d03	-0.13512044
125	0xbc84c815	-0.016208688
126	0xbf0b660b	-0.5445258
127	0x3f005b5b	0.501394
128	0x3d2bbb32	0.04192657
129	0x3dc021bc	0.09381434
130	0xbf546208	-0.82962084
131	0x3fa285d8	1.2697096
132	0x3ed577fa	0.41693097
133	0x3c80bba2	0.01571447
134	0xbe3cb593	-0.1842864
135	0xbeb5907d	-0.35461798
136	0xbfafdb2c	-1.3738761
137	0xbe14c5e9	-0.14528622
138	0x3f5f3d7e	0.87203205
139	0x3de3d28d	0.11124144
140	0xbf52d133	-0.8235046
141	0x3de46d0a	0.1115361
142	0x3f04ecc1	0.5192376
143	0xbf80aebe	-1.0053327
144	0x3de1b117	0.11020105
145	0xbd19ed09	-0.03757957
146	0xbc95ce8c	-0.018286966
147	0x3e45f743	0.19332604
148	0x3e79e91a	0.24405327
149	0x3dad885f	0.08473276
150	0xbc4249b5	-0.011858393
151	0xbefb3b04	-0.49068463
152	0x3e16f9c5	0.14743717
153	0x3e2cece0	0.16887236
154	0x3d381569	0.044942293
155	0x3dc6762e	0.0969051
156	0xbd5d92ab	-0.05409495
157	0x3d018913	0.031624865
158	0xbd2d1882	-0.0422597
159	0xbc608616	-0.013703844
160	0xbe0d2489	-0.13783468
161	0x3fb0fc02	1.3826907
162	0xbdb78a96	-0.0896198
163	0x3fd2c83a	1.6467354
164	0xbdeeea8c	-0.1166583
165	0x3f13a0a2	0.5766698
166	0xbf866f52	-1.0502722
167	0x3e25f5dd	0.1620707
168	0xbe73d8c4	-0.23813158
169	0xbf0afd46	-0.54292715
170	0x3c16824d	0.00918634
171	0x3d35409b	0.044251066
172	0xbd9476d2	-0.07249226
173	0x3e0f6388	0.14002812
174	0xbed9fce6	-0.4257576
175	0xbc054f99	-0.008136653
176	0xbd713537	-0.05888864
177	0xbf287ca5	-0.6581519
178	0x3dcbc7ce	0.09950219
179	0xbe2c660f	-0.16835807
180	0x3e2863b0	0.16444278
181	0x3f894a18	1.0725737
182	0xbe49255c	-0.19643158
183	0x3ec49f3b	0.38402733
184	0x3eb72f21	0.35778144
185	0xbb9cde6c	-0.004787257
186	0x3e07fe4a	0.13280597
187	0xbe0a8a37	-0.13529287
188	0xbf320422	-0.69537556
189	0x3f7f9ff7	0.9985346
190	0xbda3fc33	-0.080070876
191	0x3d2965af	0.04135674
192	0xbe2a0a05	-0.16605385
193	0xbe7b0a63	-0.24515681
194	0xbd9abb38	-0.075552404
195	0xbe3620fe	-0.17786023
196	0x3f854277	1.0410908
197	0xbdc3fe2f	-0.09569966
198	0x3d1b5897	0.037926283
199	0x3da07900	0.07835579
200	0x3d14d230	0.036333263
201	0xbda0857b	-0.078379594
202	0x3fb1a15b	1.3877367
203	0x3c177cfc	0.009246107
204	0xbf6a78a4	-0.91590333
205	0x3ba2f8be	0.0049735
206	0x3f4d1390	0.80107975
207	0x3c704433	0.014664697
208	0xbed17dea	-0.40916377
209	0x3cf4bd4b	0.029875418
210	0xbf74c646	-0.9561504
211	0x3d95a560	0.073069334
212	0xbda02bc0	-0.07820845
213	0xbdf9bbea	-0.12194045
214	0xbec0d08c	-0.3765911
215	0xbfa4b38e	-1.2867296
216	0x3e54be12	0.20775631
217	0xbb570b4b	-0.0032813128
218	0x3c412e14	0.011790771
219	0xbdd74df3	-0.105129145
220	0xbed6c2a7	-0.41945383
221	0x3dac7354	0.084204346
222	0xbc0d1476	-0.008610835
223	0xbd8bf153	-0.06833138
224	0x3d7cdbf7	0.061733212
225	0xbe5c7f97	-0.21533047
226	0x3c9460cf	0.018112568
227	0xbc52012e	-0.012817664
228	0xbd315d66	-0.043301962
229	0xbdd2bc29	-0.10289795
230	0x3d08d7ab	0.033408802
231	0xbdbc48ec	-0.09193596
232	0x3cef1436	0.029184442
233	0x3e90dab3	0.28291854
234	0x3d515b27	0.05111232
235	0xbe55c840	-0.2087717
236	0xbdd34785	-0.10316376
237	0x3d60008c	0.05468802
238	0x3cb6d920	0.02232033
239	0xbe0d9f03	-0.1383019
240	0x3f1eb9b1	0.6200209
241	0x3d03c414	0.032169417
242	0xbdb60644	-0.08887914
243	0x3e07ab57	0.13248955
244	0x3cf2f807	0.029659284
245	0xbb399fbd	-0.0028323971
246	0x3e9cc3d0	0.30618143
247	0x3ea48b75	0.32137647
248	0x3cd23f3c	0.025664918
249	0xbe13edb2	-0.14446142
250	0xbee0054d	-0.43754044
251	0xbea15c0d	-0.31515542
252	0x3d54b9ae	0.05193489
253	0xb978365d	-0.00023671375
254	0x3d59534d	0.053057957
255	0x3c5bdcc0	0.01341933

fc2.bias f4 [256]
0	0x3e23f2bb	0.16010563
1	0xbd2dbd6b	-0.04241697
2	0xbe52c735	-0.20583804
3	0x3f5e9537	0.86946434
4	0xbf09e0c1	-0.5385857
5	0xbef741d6	-0.48292416
6	0xbe509c54	-0.20372134
7	0xbe4b4484	-0.19850355
8	0xbf1fc079	-0.62403065
9	0xbe3a4710	-0.1819117
10	0x3e7d3e77	0.2473086
11	0xbe429ed0	-0.19005895
12	0xbd3a29a9	-0.045449886
13	0xbe7fd4e7	-0.2498356
14	0xbe856ea5	-0.26060978
15	0x3dbda877	0.09260648
16	0x3dba6047	0.09100395
17	0xbdf19f14	-0.1179792
18	0xbf15db06	-0.5853733
19	0xbeaf2ee5	-0.34215465
20	0x3ee7d994	0.45283186
21	0x3e8ff587	0.2811701
22	0xbe1e4faa	-0.15460077
23	0xbe8bbdd4	-0.27293265
24	0xbe70b280	-0.23505592
25	0xbe92ef62	-0.2869826
26	0xbe6bc03f	-0.23022555
27	0xbe1d646c	-0.15370339
28	0x3c72c574	0.014817584
29	0xbb1e3847	-0.002414243
30	0xbf077e15	-0.5292676
31	0xbd966bd1	-0.07344783
32	0xbe6d1333	-0.23151855
33	0xbf478fba	-0.77953684
34	0xbe6f1bc8	-0.23350441
35	0xbecc9025	-0.39953724
36	0xbde1afcf	-0.11019861
37	0xbf11ee19	-0.57003933
38	0xbe2b0f38	-0.16705024
39	0xbe7fb25b	-0.24970381
40	0xbe87c59f	-0.2651796
41	0xbe16ea59	-0.14737834
42	0x3e219dfd	0.15782924
43	0xbeb97e38	-0.3622911
44	0xbe108099	-0.14111556
45	0xbea138a1	-0.31488517
46	0xbe3d1f6f	-0.18469022
47	0xbd98dbcd	-0.07463799
48	0xbe74916e	-0.23883602
49	0xbe576685	-0.21035202
50	0xbe2d27ff	-0.16909789
51	0xbf21f0aa	-0.6325785
52	0xbe7c5281	-0.24640848
53	0xbf144901	-0.57923895
54	0xbf1ae07d	-0.6049879
55	0xbe6c3ada	-0.23069325
56	0xbef4c465	-0.47806087
57	0x3f20c075	0.62793666
58	0xbe7568a1	-0.23965694
59	0xbeb36b77	-0.35042927
60	0xbe77731c	-0.24165004
61	0x3dbda523	0.09260013
62	0xbe8d2c4b	-0.27572855
63	0xbd4d5f36	-0.05013963
64	0xbe4e66fe	-0.20156476
65	0xbe80f13d	-0.2518405
66	0xbf3ad6a7	-0.72983783
67	0xbe21eb1b	-0.15812342
68	0xbe51dacb	-0.20493619
69	0x3e84b240	0.25917244
70	0xbe963ff0	-0.29345655
71	0xbe5137c5	-0.2043143
72	0x3e0c2465	0.13685758
73	0xbe70c450	-0.23512387
74	0xbe60f60a	-0.21968856
75	0x3c460e4b	0.012088369
76	0xbf4a8805	-0.791138
77	0xbe93cb1a	-0.28865892
78	0xbe3e77db	-0.18600409
79	0xbe73bdf8	-0.23802936
80	0x3d80d79e	0.06291126
81	0x3dfcee26	0.12350111
82	0x3eb45c40	0.3522663
83	0xbe493694	-0.19649726
84	0xbe4c2499	-0.19935836
85	0xbe0f0704	-0.1396752
86	0xbf2097eb	-0.6273181
87	0x3e9bd6ad	0.30437222
88	0x3df47225	0.11935834
89	0x3dcf7677	0.10130017
90	0xbe8edc11	-0.27902272
91	0x3df5c364	0.120001584
92	0xbe42134f	-0.18952678
93	0x3d39e333	0.04538269
94	0xbe69f605	-0.22847755
95	0xbe648f78	-0.22320354
96	0xbe84370b	-0.25823244
97	0xbd932311	-0.07184423
98	0xbefc9cfd	-0.49338523
99	0xbf283628	-0.65707636
100	0xbeac4f96	-0.3365447
101	0x3e40425e	0.18775317
102	0xbc1beece	-0.009517385
103	0xbded7a66	-0.11595611
104	0x3ef5a220	0.47975254
105	0xbe5395e9	-0.20662655
106	0xbe46895c	-0.19388336
107	0xbe42c9ad	-0.19022246
108	0xbf0ffeb4	-0.5624802
109	0x3e7f88bc	0.24954504
110	0xbf3062be	-0.6890067
111	0x3d8c3603	0.068462394
112	0xbd21f4af	-0.03953999
113	0xbd91c7bc	-0.071181744
114	0xbe86f654	-0.26359808
115	0xbe447b57	-0.19187675
116	0xbd9d1cc2	-0.07671501
117	0x3c425b8e	0.011862649
118	0xbe8e1663	-0.27751455
119	0xbe24575e	-0.16048953
120	0xbd9d2ee0	-0.07674956
121	0xbe864ebe	-0.2623195
122	0x3ea530b8	0.32263732
123	0xbf01cf2e	-0.50706756
124	0xbd5117de	-0.051048152
125	0xbea19a3a	-0.31562978
126	0xbe73f171	-0.23822571
127	0xbdf1debf	-0.118100636
128	0xbf6f685c	-0.93518615
129	0x3dbf8a5f	0.09352564
130	0xbe98d841	-0.2985249
131	0xbdb2244b	-0.086983286
132	0x3e669ffd	0.22521968
133	0xbe6b7d2e	-0.22996971
134	0xbe7a559a	-0.24446717
135	0xbe856b39	-0.26058367
136	0xbf03019b	-0.51174325
137	0xbe815428	-0.2525952
138	0xbef493b4	-0.4776894
139	0xbe3be9db	-0.18350928
140	0xbe472e46	-0.19451246
141	0xbe805ebe	-0.25072283
142	0xbe19fb2e	-0.15037224
143	0xbe34968f	-0.17635559
144	0xbe29c287	-0.16578113
145	0x3e8c2bc3	0.27377138
146	0xbea06f0e	-0.31334728
147	0xbe6e9179	-0.23297681
148	0x3e9a0caa	0.30087787
149	0xbe8fae17	-0.28062508
150	0xbe8849ec	-0.26618898
151	0xbe6aa1a9	-0.22913231
152	0xbe9b0612	-0.3027807
153	0xbf326c30	-0.6969633
154	0xbe8c8209	-0.2744296
155	0x3e2e000f	0.1699221
156	0xbe9056b2	-0.28191143
157	0xbe2c2abd	-0.16813178
158	0xbe809ef0	-0.2512126
159	0xbf774c29	-0.96600586
160	0xbe0df053	-0.13861208
161	0xbe481aa6	-0.19541416
162	0x3d07847e	0.03308534
163	0xbe8fe0e7	-0.28101274
164	0xbf15ec53	-0.5856373
165	0xbf1cade4	-0.61202836
166	0x3e0654a3	0.13118224
167	0x3c468faa	0.012119213
168	0xbe6f581f	-0.2337346
169	0x3df6961a	0.12040348
170	0x3f0ae525	0.54255897
171	0x3e8c7291	0.27431157
172	0x3e9a547f	0.3014259
173	0xbf8439fb	-1.0330194
174	0xbe6532c2	-0.22382644
175	0x3c572d47	0.013133354
176	0xbe60c657	-0.2195066
177	0xbe63fbf3	-0.2226408
178	0xbe68707c	-0.2269916
179	0xbd413c5f	-0.047176715
180	0xbe110e57	-0.14165626
181	0x3f82ecf1	1.0228559
182	0xbe50d657	-0.20394264
183	0xbefcf4ab	-0.49405417
184	0xbe8748c3	-0.264227
185	0xbe9e914e	-0.30970234
186	0x3ce47abb	0.027890554
187	0xbca40052	-0.020019684
188	0x3dc99404	0.09842685
189	0xbe11ae9e	-0.14226767
190	0xbe06b2bf	-0.13154124
191	0x3ed046aa	0.40678912
192	0xbe35daa5	-0.17759188
193	0xbd4c872c	-0.049933597
194	0x3e68a2f9	0.22718419
195	0xbd8158b5	-0.06315748
196	0x3e9e533f	0.30922887
197	0xbd24e43f	-0.040256735
198	0x3e325d3f	0.17418383
199	0xbea5b0dc	-0.32361495
200	0xbdd822bf	-0.10553502
201	0xbf282bbc	-0.65691733
202	0xbdeb25b2	-0.11481799
203	0xbe627262	-0.22113946
204	0xbe495fd2	-0.19665459
205	0xbe7a3a85	-0.24436386
206	0xbdb9c70b	-0.090711676
207	0xbe714a47	-0.23563491
208	0xbe511cb3	-0.20421104
209	0xbea38880	-0.3194008
210	0xbcfdc56f	-0.030977933
211	0xbc7ffb1a	-0.015623832
212	0xbe786117	-0.24255787
213	0xbe34ab91	-0.17643572
214	0xbe80e67e	-0.25175852
215	0xbe848e13	-0.25889644
216	0xbec4c1ae	-0.38429016
217	0xbe0a696a	-0.13516775
218	0x3e250412	0.16114834
219	0xbee2dbc2	-0.44308287
220	0xbe7e6781	-0.24844171
221	0xbf002fd7	-0.50073
222	0x3bf9d980	0.007624805
223	0xbe3d1fa3	-0.184691
224	0xbe8ac515	-0.27103487
225	0xbe2ee859	-0.17080821
226	0xbf4c17ce	-0.79723823
227	0xbe842033	-0.25805816
228	0x3d4749b1	0.048654262
229	0xbe67d2ae	-0.22638962
230	0xbe53c95d	-0.20682283
231	0xbe33ccbf	-0.17558573
232	0xbe90e138	-0.28296828
233	0xbdb6d9c8	-0.08928257
234	0xbe993af1	-0.2992778
235	0xbe6ed727	-0.23324262
236	0x3f1ca026	0.6118187
237	0x3eda95db	0.42692456
238	0x3d37c0d9	0.04486165
239	0xbe8232df	-0.25429437
240	0xbe838078	-0.2568395
241	0xbe6362ec	-0.22205704
242	0xbe8630a4	-0.26208985
243	0xbe83475b	-0.25640377
244	0x3e3eb460	0.18623495
245	0xbe6fc8cf	-0.23416446
246	0xbdd08cbc	-0.10183093
247	0xbe531d12	-0.20616558
248	0xbea876c5	-0.32903114
249	0xbf83a079	-1.0283347
250	0xbe414973	-0.18875675
251	0x3e0d337d	0.13789172
252	0xbe1150d2	-0.14190987
253	0xbe3bd535	-0.18343051
254	0xbe56da1d	-0.20981641
255	0xbdd63271	-0.1045884

fc3.weight f4 [128, 256]
0	0x3dc69fdc	0.096984595
1	0x3c8ce7f9	0.017200457
2	0x3ca5f0ba	0.020256389
3	0x3f018be5	0.5060409
4	0x3d1ea5ef	0.038732465
5	0xbf0d5454	-0.552068
6	0x3e106e2c	0.14104527
7	0x3d02223e	0.031770937
8	0xbf2624e2	-0.6490003
9	0xbdb03ea6	-0.08605699
10	0xbdbb3545	-0.0914102
11	0xbd9385e5	-0.07203273
12	0xbd84490c	-0.06459245
13	0xbc95c3bf	-0.018281816
14	0xbda0defa	-0.078550294
15	0x3f0a5ae4	0.5404494
16	0xbf8cf603	-1.1012577
17	0x401ac9ec	2.4185743
18	0xc0017e5d	-2.0233376
19	0xbdda39b1	-0.10655535
20	0xbf86768e	-1.050493
21	0x3e8b9c55	0.2726771
22	0x3d974431	0.07386053
23	0xbefcafb2	-0.49352795
24	0x3e2806b5	0.16408809
25	0xbe48d5ac	-0.1961276
26	0xbe33061b	-0.17482798
27	0x3efab865	0.48968807
28	0xbc399f41	-0.011329473
29	0xbe1aa001	-0.15100099
30	0xbf24729c	-0.6423738
31	0xbe337816	-0.17526278
32	0xbce5814a	-0.028015751
33	0xbf0cbce4	-0.54975724
34	0x3de4071f	0.11134171
35	0xbecb6499	-0.39725187
36	0xbe7621e8	-0.24036372
37	0x3e45c7a6	0.19314441
38	0xbedf26b5	-0.4358422
39	0x3d4b29dd	0.04960047
40	0xbe88be2c	-0.2670759
41	0xbd922e73	-0.07137766
42	0xbe998f13	-0.2999197
43	0xbea3edcb	-0.3201736
44	0x3f2dac72	0.67841256
45	0xbe4172e9	-0.18891491
46	0x3ed71e10	0.42015123
47	0xbe561f36	-0.20910344
48	0x3e2060d7	0.15661941
49	0x3e3ffadf	0.18748043
50	0x3ece849b	0.40335545
51	0xbfbab0c4	-1.4585195
52	0xbe6ff7c2	-0.23434356
53	0xbe5932f7	-0.21210848
54	0xbeedb01b	-0.4642342
55	0xbdb1b42e	-0.08676945
56	0xbf8616dc	-1.0475726
57	0xbedf8083	-0.43652734
58	0xbf729428	-0.9475732
59	0xbef25e91	-0.47337773
60	0xbd0fd07e	-0.035110943
61	0xbfe2556c	-1.7682319
62	0xbee61a2a	-0.44941837
63	0x3eba712f	0.36414477
64	0xbedf3c34	-0.4360062
65	0x3de42cfd	0.11141393
66	0xbf9acdcb	-1.2094053
67	0xbcfe6b97	-0.031057162
68	0xbf17d71f	-0.59312624
69	0xbcf19c6b	-0.029493531
70	0x3e3b0210	0.18262506
71	0xbea157b6	-0.3151223
72	0x3e219d92	0.15782765
73	0x3ea85c64	0.32882988
74	0xbe4c9d13	-0.19981794
75	0xbd6016a1	-0.05470908
76	0x3f20c5d8	0.62801886
77	0x3e124ce7	0.14287148
78	0x3e372319	0.17884482
79	0xbaa82d7b	-0.0012830937
80	0x3e9c105e	0.30481237
81	0xbd4124bc	-0.047154173
82	0xbed71f66	-0.42016143
83	0xbf488ec0	-0.7834282
84	0xbf95bbae	-1.16979
85	0xbe2a1f89	-0.16613592
86	0x3c86f9a4	0.01647646
87	0x3e930740	0.2871647
88	0xbf0d1a6a	-0.5511843
89	0x3f6909e2	0.91030705
90	0x3e11fda4	0.14256912
91	0x3d9d676b	0.07685741
92	0xbe7a5e14	-0.2444995
93	0xbe476bd7	-0.19474731
94	0x3d98cc9a	0.074609
95	0xbe750a10	-0.2392962
96	0xbdc31180	-0.09524822
97	0x3b9fc160	0.004875347
98	0xbceb366c	-0.028712474
99	0xbf9256c8	-1.1432734
100	0xbee8a530	-0.45438528
101	0xbebb42dc	-0.36574447
102	0xbe70d272	-0.23517779
103	0xbddc7143	-0.107637905
104	0x3e3934b9	0.18086518
105	0xbd9e20bc	-0.07721087
106	0xbba1d2f4	-0.0049384777
107	0x3dfdb415	0.123878635
108	0xc0311f7f	-2.7675474
109	0xbf865fdd	-1.0498005
110	0xbf36bac3	-0.71378726
111	0xbf2eadc7	-0.68233913
112	0xbf8fb45b	-1.1226915
113	0x3e9abd6c	0.30222642
114	0xbe8df2a6	-0.2772419
115	0xbda582c7	-0.080815844
116	0xbdd9c87f	-0.10633945
117	0xbf1d0485	-0.6133502
118	0x3e68036c	0.22657555
119	0xbe391c7b	-0.1807727
120	0x3d5a093c	0.053231463
121	0x3b63d057	0.0034761631
122	0x3fe20c92	1.7660086
123	0xbf772380	-0.96538544
124	0x3e0f03df	0.1396632
125	0xbe26f6bd	-0.1630506
126	0x3e1c4f84	0.15264708
127	0xbf325a96	-0.69669473
128	0x3e43eefe	0.19134137
129	0x3e77bc7f	0.24193
130	0xbdffb6cc	-0.124860376
131	0xbf1163d9	-0.5679298
132	0x3ef58bb3	0.47958145
133	0x3dbbf349	0.09177262
134	0x3cae1fa2	0.021255318
135	0xbf0ba917	-0.54554886
136	0xbf44a378	-0.76811934
137	0x3de242f5	0.11047927
138	0xbfe23e07	-1.7675179
139	0xbf02bb68	-0.5106721
140	0x3d9ee5e2	0.077586904
141	0x3d36727b	0.04454277
142	0x3dcf3e03	0.1011925
143	0x3c96a9b0	0.01839146
144	0xbd45eb47	-0.04832008
145	0x3d4b9485	0.049702186
146	0xbdc96231	-0.09833182
147	0xbe3d17dc	-0.18466133
148	0xbf532c93	-0.8248989
149	0xbd88c0e6	-0.066774175
150	0x3e251366	0.16120681
151	0xbdc4106e	-0.09573446
152	0x3cff174a	0.031139035
153	0xbec95c3c	-0.39328182
154	0xbcc08735	-0.023501972
155	0xbeb61eb4	-0.355703
156	0xbda19bcc	-0.07891044
157	0xbdae9514	-0.08524528
158	0xbe8b882c	-0.27252328
159	0xbe302ed0	-0.17205358
160	0xbd5da271	-0.054109994
161	0xbd9a1741	-0.075239666
162	0xbe124643	-0.14284615
163	0xbe4e120d	-0.20124073
164	0x3cadfc12	0.02123836
165	0x3eba75cc	0.36417997
166	0x3de725e6	0.112865254
167	0xbd6d6452	-0.057957
168	0xbecb9578	-0.39762473
169	0xbe42aaa0	-0.19010401
170	0xbd7d24f8	-0.061802834
171	0x3e8eb4d2	0.2787233
172	0x3f4a73df	0.79083055
173	0xbf2a8a85	-0.66617614
174	0x3d03c581	0.032170776
175	0xbe470a2a	-0.19437471
176	0xbbdfb5bd	-0.006827085
177	0x3e594878	0.21219051
178	0x3dd4d9f4	0.10393134
179	0xbf32c568	-0.6983247
180	0x3e56e3ec	0.20985383
181	0xbf75170a	-0.9573828
182	0x3d7d7cca	0.061886586
183	0x3b866ffe	0.004102706
184	0x3defac09	0.11702735
185	0x3e1b284b	0.1515209
186	0x3ef2ec4f	0.47445914
187	0x3daae487	0.083443694
188	0x3f36bb4f	0.7137956
189	0x3db7891c	0.089616984
190	0xbe549d0f	-0.20763038
191	0x3d97b64d	0.07407818
192	0x3a0e03a2	0.00054174114
193	0x3ef0f0fb	0.47058854
194	0xbfa7f2a7	-1.3120927
195	0x3d709e99	0.058745
196	0x3f4e84d6	0.8067144
197	0x3e9b2c36	0.30307168
198	0xbea53afc	-0.32271564
199	0xbeb77d31	-0.358377
200	0xbe39c01c	-0.1813969
201	0xbf2a1b48	-0.6644788
202	0x3eb475fa	0.3524626
203	0x3d5d9ba4	0.05410351
204	0xbd597d6a	-0.05309812
205	0x3e9fe91b	0.31232533
206	0x3f1e3cfd	0.6181181
207	0xbd90c4d9	-0.07068796
208	0x3decea8f	0.11568176
209	0xbebace01	-0.36485294
210	0xbf738fbf	-0.95141214
211	0x3f294bee	0.66131485
212	0x3f05a9d5	0.5221227
213	0xbda6e4c8	-0.08149105
214	0x3e8f3ffc	0.27978504
215	0xbd10a1f6	-0.035310708
216	0xbf21fa05	-0.63272125
217	0xbe2877cb	-0.16451947
218	0xbf1138f8	-0.5672755
219	0xbfa44ef7	-1.2836598
220	0x3dd4719b	0.10373231
221	0xbf145b5a	-0.5795189
222	0x3e10b3fd	0.1413116
223	0xbdcb47ce	-0.09925805
224	0xbebfcca5	-0.3746082
225	0xbe9353ea	-0.2877496
226	0x3e85d1b5	0.26136556
227	0x3e078e07	0.13237773
228	0xbffe52eb	-1.9869055
229	0x3c0a9c0d	0.008460057
230	0xbe2420f3	-0.16028194
231	0x3e5bc760	0.21462774
232	0xbcfd3792	-0.030910287
233	0x3ef0f87b	0.47064576
234	0x3e82a0ea	0.25513393
235	0x3e31701d	0.17327924
236	0xbec0dff8	-0.37670875
237	0x3f69219e	0.9106692
238	0x3d1c2e0a	0.038129844
239	0xbe3417a1	-0.17587139
240	0x3e722b27	0.23649274
241	0x3e3ce627	0.18447171
242	0xbe344d28	-0.17607558
243	0x3df69c4a	0.120415285
244	0x3f720cf0	0.9455099
245	0xbce544bf	-0.027986882
246	0x3e924389	0.2856715
247	0xbd4e885d	-0.050423015
248	0x3d1a66a1	0.03769553
249	0xbfa079c7	-1.2537163
250	0xbf478b00	-0.7794647
251	0xbcc9344d	-0.024561072
252	0x3de75c06	0.11296849
253	0x3c18a1ea	0.009315947
254	0x3d06b0eb	0.032883566
255	0xbf989f00	-1.1923523

fc3.bias f4 [128]
0	0xbee1eef5	-0.44127622
1	0xbf268b7d	-0.6505659
2	0xbefce793	-0.49395427
3	0xbf2534bd	-0.645336
4	0xbf8f1a8e	-1.1179979
5	0xbd5b2ad9	-0.05350766
6	0xbf056a01	-0.52114874
7	0x3e0bb20b	0.13642137
8	0x3cd6bf20	0.026214182
9	0xbeed480a	-0.46344024
10	0xbeb7bb52	-0.35885102
11	0xbf870ea6	-1.0551345
12	0xbf45d987	-0.77285045
13	0xbf160035	-0.58594066
14	0x3cddb002	0.027061466
15	0xbeecb9af	-0.46235415
16	0xbf2c638a	-0.67339385
17	0xbf615b19	-0.8802963
18	0xbefcb7ad	-0.49358884
19	0xbf28a3cd	-0.6587494
20	0x3eb35759	0.35027578
21	0xbf26751a	-0.6502243
22	0x3ed8b89d	0.4232835
23	0x3c34a4a7	0.011025584
24	0x3e2859fb	0.16440575
25	0xbf815409	-1.010377
26	0xbcd95c89	-0.026533382
27	0x3c43a495	0.011941095
28	0xbf1504f1	-0.58210665
29	0xbed75276	-0.420551
30	0x3ea51d84	0.3224908
31	0x3e3f10a1	0.18658687
32	0xbed777f3	-0.42083701
33	0x3dcb97bd	0.09941051
34	0x3e841db5	0.25803915
35	0x3f0335bb	0.5125386
36	0x3da66332	0.08124389
37	0xbd0ad667	-0.033895876
38	0xbf9abad3	-1.2088264
39	0xbf5b2dd9	-0.8561683
40	0xbedcabe0	-0.4309988
41	0xbec87507	-0.39151785
42	0xbedb1149	-0.42786625
43	0xbf926268	-1.1436281
44	0xbf50f563	-0.8162443
45	0xbf9d77d4	-1.2302194
46	0xbf04be27	-0.5185265
47	0xbf232b6e	-0.63738143
48	0xbf28b133	-0.65895385
49	0xbf3716a6	-0.71518934
50	0xbdb4323a	-0.087986425
51	0x3ef8f192	0.48621804
52	0xbf01e0d6	-0.507337
53	0xbf865701	-1.0495301
54	0xbf2e0f2a	-0.6799189
55	0xbf64a330	-0.89311504
56	0xbe82fe73	-0.25584754
57	0xbf1dc56c	-0.61629367
58	0xbe94ad8d	-0.2903866
59	0xbf51ea7a	-0.8199841
60	0xbf6e2c22	-0.9303609
61	0xbe90f57b	-0.28312287
62	0xbe562c81	-0.20915414
63	0xbf2added	-0.6674488
64	0xbe25f13b	-0.16205303
65	0xbf640d31	-0.8908263
66	0x3c80d8bd	0.015728349
67	0x3e29812f	0.16553186
68	0xbe54b154	-0.2077077
69	0xbe66befb	-0.22533791
70	0x3ea1c977	0.31599018
71	0xbecbf344	-0.39834034
72	0xbe02492f	-0.1272323
73	0xbf8934a6	-1.0719192
74	0x3dcb7756	0.09934871
75	0xbf407d46	-0.7519115
76	0xbf326bf2	-0.6969596
77	0xbf6130d1	-0.8796511
78	0x3edc3382	0.43008047
79	0xbec00c52	-0.375094
80	0xbe4e0876	-0.20120415
81	0xbf2e8a4e	-0.68179786
82	0xbf0f795f	-0.5604457
83	0x3f159ad1	0.58439356
84	0x3e59ed6a	0.21281973
85	0xbe89f9b5	-0.26948324
86	0xbebabe97	-0.36473534
87	0xbe6c27f1	-0.23062111
88	0x3e92eeb7	0.2869775
89	0xbf5331bc	-0.82497764
90	0xbf985b83	-1.1902927
91	0x3d147108	0.036240608
92	0xbf4251c5	-0.7590602
93	0x3e9a1b2e	0.3009886
94	0xbf66e6bc	-0.9019582
95	0x3e9970a4	0.2996875
96	0xbf832847	-1.0246667
97	0xbf8a2c96	-1.0794857
98	0xbf8d58cf	-1.1042727
99	0x3e37b1c6	0.17938909
100	0xbe051c98	-0.12999189
101	0x3e4981fb	0.1967849
102	0x3edfae56	0.43687695
103	0xbe1882fb	-0.14893715
104	0x3e3f90f2	0.18707636
105	0xbf1424a7	-0.5786843
106	0xbf34a2d6	-0.7056097
107	0x3f456f81	0.77123266
108	0xbbf11c89	-0.007358138
109	0xbef999ae	-0.4875006
110	0xbf40e74b	-0.75352925
111	0x3de8d374	0.113684565
112	0xbe14da41	-0.14536382
113	0x3eb63335	0.35585943
114	0x3eb96dd5	0.36216608
115	0xbe16c8ea	-0.1472508
116	0xbebe1205	-0.37123123
117	0xbf92495e	-1.142864
118	0xbf8c29d3	-1.0950264
119	0xbf3ef753	-0.74596137
120	0xbecfa4b0	-0.40555334
121	0x3f453d4c	0.77046657
122	0xbf9d5c1e	-1.2293737
123	0xbf7e7e70	-0.9941168
124	0xbf17eaab	-0.5934245
125	0xbe91c198	-0.28468013
126	0xbe29909b	-0.16559069
127	0x3f9d3bc4	1.2283864

fc4.weight f4 [4, 128]
0	0xbf3f87d3	-0.74816626
1	0x3e6e72b6	0.23285946
2	0x3f18493d	0.5948675
3	0x3d5540f5	0.0520639
4	0x3e8b52c1	0.27211574
5	0x3f22ebd4	0.63641095
6	0x3dce7434	0.10080758
7	0x3f98e3c8	1.1944513
8	0x3efd552d	0.49479046
9	0xbfb680d8	-1.425807
10	0x3ec11704	0.37712872
11	0x3cccb69b	0.024989417
12	0x3dafe517	0.08588617
13	0xbc9f38c9	-0.019436257
14	0x3fcdf154	1.6089272
15	0x3ebe16ff	0.3712692
16	0xbe3439df	-0.17600201
17	0xbd0b5650	-0.03401786
18	0x3e7bb399	0.2458023
19	0xbe8fb51a	-0.28067857
20	0x3f8a009c	1.0781436
21	0x3cd9f499	0.026605891
22	0x3f96ec3e	1.1790845
23	0x3f6de3d6	0.92925775
24	0x3f478a5a	0.7794548
25	0x3e97ffbf	0.29687306
26	0x3f54d7a3	0.83141536
27	0x3f7e2f19	0.99290615
28	0xc00adb1a	-2.169623
29	0x3ef7bf35	0.48388067
30	0x3f837adf	1.0271872
31	0x3ed26e26	0.41099662
32	0x3f650e8a	0.8947531
33	0x3fa5cdfe	1.2953489
34	0x3f5398a9	0.82654816
35	0x3f95b291	1.1695119
36	0xbd72035a	-0.059085228
37	0x3f9603fd	1.1719967
38	0x3ef0cff1	0.47033647
39	0x3f0bddb2	0.54635155
40	0x3f10777f	0.56432337
41	0x3de54808	0.111953795
42	0x3ee64faa	0.44982654
43	0x3da6464b	0.08118876
44	0x3e6ccb51	0.23124434
45	0xbd92d6b5	-0.07169858
46	0x3f81d32c	1.014257
47	0x3e90668a	0.2820323
48	0x3f33c8ee	0.7022847
49	0x3de0e7c7	0.10981708
50	0x3f952f5d	1.1655079
51	0x3f7c27d7	0.9849829
52	0xbf86ce0d	-1.0531632
53	0x3dfab358	0.12241238
54	0x3e04d318	0.12971151
55	0x3e845420	0.25845432
56	0x3efa3823	0.48870954
57	0xbeacb332	-0.33730465
58	0x3f5a4e50	0.85275745
59	0x3e82b2a8	0.2552693
60	0xbce57b09	-0.02801277
61	0x3f90c5d1	1.1310369
62	0x3f3430ab	0.7038676
63	0x3dc52d38	0.096277654
64	0x3fa1f99c	1.26543
65	0x3e6be998	0.23038328
66	0x3f5341eb	0.8252246
67	0x3fa948e8	1.3225374
68	0x3f3b4592	0.7315303
69	0x3ee610ec	0.44934785
70	0x3f8ca4a1	1.0987741
71	0x3bf2e99a	0.0074131014
72	0x3eefe09b	0.46851048
73	0x3e031afd	0.12803264
74	0x3f26c8b2	0.65149987
75	0xbd60a71a	-0.05484686
76	0x3f935529	1.1510364
77	0xbdefe3be	-0.1171336
78	0x3f7774df	0.96662706
79	0x4004dac3	2.0758522
80	0x3f86f4a4	1.0543408
81	0x3f1fe3a4	0.6245673
82	0x3f1c5cb1	0.61078936
83	0x3f80752c	1.0035758
84	0x3f906275	1.1280047
85	0x3f21bb70	0.6317663
86	0x3fb8b8fc	1.4431453
87	0x3db44822	0.08802821
88	0x3f631c46	0.88715017
89	0x3ef1059c	0.47074592
90	0x3ede95f6	0.43473786
91	0xbbbc93e1	-0.005754933
92	0x3cc527e9	0.024066882
93	0x3f9757e9	1.1823703
94	0x3f3913f9	0.722961
95	0x3f84854d	1.035318
96	0x3dbef9d7	0.09324997
97	0xbd62b004	-0.055343643
98	0xbe2ddd56	-0.16978964
99	0x3f287954	0.6581013
100	0x3f171f84	0.59032464
101	0x3f64e32d	0.8940914
102	0x3f6e11b6	0.92995775
103	0x3f280ff4	0.6564934
104	0x3d9b7ba7	0.07591944
105	0x3d25e28c	0.040499255
106	0xbeb3cbd4	-0.35116446
107	0x3f9b34de	1.2125509
108	0x3d16bee7	0.036803152
109	0xbfb0f136	-1.3823612
110	0x3d3c0bf4	0.045909837
111	0x3e6fcbe2	0.23417619
112	0x3f3c8fa7	0.73656696
113	0x3f8372b8	1.0269384
114	0x3f8f8dcb	1.1215147
115	0x3f6f5dbd	0.9350241
116	0x3d69da11	0.05709273
117	0xbcc9a55e	-0.024614986
118	0x3e0e2a21	0.13883258
119	0x3df86dde	0.121303305
120	0x3f0ec4f7	0.55769295
121	0x3fcbb8d3	1.5915779
122	0xbca4c3c7	-0.020112885
123	0x3e75417e	0.23950765
124	0x3ed97f5d	0.42479983
125	0xbcfc0c17	-0.030767484
126	0x3f2ab348	0.6667981
127	0x3faa5e95	1.3310114
128	0x3f1881eb	0.5957324
129	0xbbda4e1b	-0.006662143
130	0x3fa02f7b	1.251449
131	0xbe5149eb	-0.20438354
132	0xbdd8b3f8	-0.10581201
133	0x3f2ac079	0.6669994
134	0x3f071b9f	0.5277652
135	0x3f85b8f3	1.0447067
136	0x3f3bde34	0.7338593
137	0xbfc44404	-1.5333257
138	0x3f467708	0.7752538
139	0x3d55cc45	0.05219676
140	0xbcd9183f	-0.02650082
141	0x3e82ffac	0.25585687
142	0x3f891611	1.0709859
143	0x3eadd215	0.33949342
144	0x3e66a25f	0.22522877
145	0xbd19f7de	-0.0375899
146	0x3c1527f3	0.009103763
147	0x3e92f528	0.28702664
148	0x3f85d8b1	1.0456754
149	0x3cb2ebc8	0.021840945
150	0x3fa2fc4d	1.2733246
151	0x3f44d1d5	0.7688268
152	0x3f3c275a	0.73497546
153	0x3e43228e	0.1905615
154	0x3f1d3d15	0.6142133
155	0x3f5aacfa	0.8542019
156	0xc00945c8	-2.144884
157	0x3ed73661	0.42033675
158	0x3f8b2266	1.0869873
159	0x3e558b38	0.20853889
160	0x3f2b2d38	0.66865873
161	0x3fac87c0	1.3478928
162	0x3f66c448	0.9014325
163	0x3f38d3dc	0.7219827
164	0xbc7feacb	-0.015619944
165	0x3f1ed6f8	0.62046766
166	0x3e30a187	0.17249118
167	0x3f119519	0.5686813
168	0x3f1da992	0.6158687
169	0x3e18cc8f	0.14921783
170	0x3ef00c15	0.46884218
171	0x3da633f3	0.08115377
172	0x3e0f8b71	0.14018036
173	0x3d9464c3	0.07245781
174	0x3ed7d94e	0.42157978
175	0x3f3cbc32	0.73724663
176	0x3e9bed8e	0.30454677
177	0x3cc2972a	0.023753721
178	0x3f6df85c	0.9295709
179	0x3f7dd07c	0.99146247
180	0xbfb3a3ee	-1.4034402
181	0xbda16f98	-0.07882613
182	0xbd5046e5	-0.05084886
183	0x3eaa2c67	0.33237
184	0x3f34e7d7	0.7066626
185	0x3e94076c	0.28911912
186	0x3ec3f05b	0.38269314
187	0x3ea4d862	0.32196337
188	0xbc05fb79	-0.008177632
189	0x3f5f3385	0.8718799
190	0x3ef86817	0.48516914
191	0xbf095e01	-0.53659064
192	0x3fa58d92	1.2933829
193	0x3e8f007b	0.27930054
194	0x3f13dad0	0.57755756
195	0x3f7e09d2	0.99233735
196	0x3f4a5586	0.7903675
197	0x3f17879f	0.59191316
198	0x3f8828a9	1.0637408
199	0x3ed04a47	0.4068167
200	0x3ea6b33d	0.32558623
201	0xbdbd1afb	-0.09233662
202	0x3f4dfcc9	0.80463845
203	0xbd242045	-0.040069837
204	0x3ecd9d99	0.401593
205	0x3eb31292	0.34975106
206	0x3f8b4eb2	1.0883391
207	0x3fb2d095	1.3969904
208	0x3f726952	0.94691956
209	0x3e76b75a	0.2409338
210	0xbc4a6674	-0.012353528
211	0x3f838737	1.0275639
212	0x3f9df99a	1.2341797
213	0x3f260f9a	0.64867556
214	0x3f39e7a6	0.7261909
215	0xbd0944d3	-0.0335129
216	0x3f58f8b8	0.84754515
217	0x3eb45555	0.35221353
218	0xbe963cb5	-0.2934319
219	0x3d97204f	0.07379209
220	0x3ca96057	0.020675821
221	0x3f92e398	1.1475706
222	0x3f143b0d	0.57902604
223	0x3f922964	1.1418881
224	0x3cbc33b2	0.022973869
225	0x3e8ea976	0.27863663
226	0x3db2411a	0.087038234
227	0x3f6d59d6	0.92715204
228	0x3f42a7e5	0.76037437
229	0x3f708dd0	0.9396639
230	0x3f879407	1.0592049
231	0x3f737605	0.9510196
232	0x3f064c9e	0.5246066
233	0xbee49a38	-0.4464891
234	0x3efd0fae	0.49426025
235	0x3fb3d8cd	1.4050537
236	0x3e7be589	0.2459928
237	0x3f38fdb1	0.722621
238	0x3e111085	0.14166458
239	0x3e2ee281	0.17078592
240	0x3f317172	0.6931373
241	0x3f97f2f8	1.1871023
242	0x3f8202e3	1.0157131
243	0x3f0108d2	0.50404084
244	0x3f944e5a	1.1586411
245	0xbe410709	-0.1885034
246	0xbe7e12c9	-0.24811853
247	0xbe029329	-0.1275145
248	0x3e82374f	0.25432822
249	0x3fdb77b9	1.7145911
250	0x3da6920f	0.08133327
251	0x3f028cf8	0.5099635
252	0x3e936ee9	0.28795555
253	0x3f647f49	0.8925672
254	0x3f0635cd	0.52425843
255	0x3fc70255	1.5547587

fc4.bias f4 [4]
0	0x3f8f7457	1.1207379
1	0x3f8efe82	1.117142
2	0x3f878d66	1.0590026
3	0x3f907600	1.1286011

ln1.weight f4 [256]
0	0x3ef4ba30	0.477983
1	0x3ed700ab	0.41992697
2	0x3e6abb7a	0.22923079
3	0x3ef0afd7	0.47009155
4	0x3ecec337	0.40383312
5	0x3ec3adb6	0.38218468
6	0x3ea665ed	0.32499638
7	0x3ee5fbd7	0.449187
8	0x3eced242	0.4039479
9	0x3edc3dcb	0.43015894
10	0x3edda51d	0.43290034
11	0x3e669ff0	0.22521949
12	0x3ea4c2b9	0.32179812
13	0x3f070bf4	0.52752614
14	0x3ec0d02e	0.37658828
15	0x3f8d4a4b	1.1038297
16	0x3ef6bfb0	0.4819312
17	0x3ea76914	0.32697356
18	0x3ee6b87c	0.45062625
19	0x3fbee292	1.4912894
20	0x3e983df0	0.29734755
21	0x3f0a3453	0.5398609
22	0x3eeabbe3	0.4584647
23	0x3f277894	0.6541836
24	0x4025d58b	2.5911586
25	0x3fa3a8a9	1.2785846
26	0x3fb665f1	1.424986
27	0x3edce93c	0.43146694
28	0x3f352a56	0.70767725
29	0x3ecbdc2e	0.3981642
30	0x3bf31086	0.007417741
31	0x3ebcfccf	0.36911628
32	0x3e2aacab	0.1666743
33	0x3f0add4a	0.5424391
34	0x3ee4dc10	0.44699144
35	0x3ea7ceb0	0.32774878
36	0x3f24332d	0.6414059
37	0x3ec5047e	0.3847999
38	0x3f3d7686	0.7400898
39	0x3eeabdbe	0.45847887
40	0x3e58de46	0.2117854
41	0x3ef0cdcb	0.47032008
42	0x3ede6d5e	0.43442816
43	0x3ee1bc64	0.44089043
44	0x3ec349dd	0.3814229
45	0x3dc30280	0.09521961
46	0x3ebb18b8	0.36542296
47	0x3e9eacd4	0.30991232
48	0x3f4c9849	0.7991987
49	0x3fc3d69c	1.5299869
50	0x3ecb076e	0.39654106
51	0x3e9e3b58	0.3090465
52	0x3ebac4cf	0.36478278
53	0x3eec6657	0.4617183
54	0x3ee50787	0.44732305
55	0x3f34f6d8	0.70689154
56	0x3ec299f1	0.38008073
57	0x3ee22d84	0.4417535
58	0x3e3dd069	0.18536533
59	0x3e39fc30	0.18162608
60	0x3ea02bfe	0.31283563
61	0x3ee25ce0	0.44211483
62	0x3ef60244	0.48048604
63	0x3ed24d24	0.4107448
64	0x3e28785c	0.16452163
65	0x3d0be817	0.034156885
66	0x3ed9f061	0.42566207
67	0x3ef5813e	0.47950166
68	0x3d5f6512	0.054539748
69	0x3ed899af	0.4230475
70	0x3f6ebb8d	0.9325493
71	0x3ec4a169	0.38404396
72	0x3efd429a	0.49464875
73	0x3f1baf25	0.60814124
74	0x3edbb5cf	0.42912146
75	0x3ece350e	0.40274853
76	0x3f530d66	0.8244232
77	0x3ece8c9c	0.4034165
78	0x3ec33b1f	0.38131043
79	0x3ecc6a72	0.3992496
80	0x3eb2bcb5	0.34909597
81	0x3ef4a144	0.47779286
82	0x3ff64715	1.9240443
83	0x3ee6ffa3	0.4511691
84	0x3edaf60d	0.42765847
85	0x3eedb0bd	0.46423903
86	0x3ea80099	0.32812956
87	0x3ee9e6ab	0.45683798
88	0x3ec0052b	0.37503943
89	0x3ebaad09	0.3646014
90	0x3f905212	1.1275046
91	0x3ed400ee	0.4140696
92	0x3eb23fd6	0.34814328
93	0x3f1ce91f	0.61293215
94	0x3eeb15bf	0.45915028
95	0x3e8aed34	0.27134097
96	0x3ed18407	0.4092104
97	0x3e953b8b	0.2914699
98	0x3f05d8c6	0.52283895
99	0x3ee15daa	0.44016773
100	0x3ef95193	0.4869505
101	0x3f514fb7	0.8176226
102	0x3eb5eb51	0.35531095
103	0x3edb8e3c	0.42881954
104	0x3ec45ac9	0.38350514
105	0x3ec34ed8	0.3814609
106	0x3e790ca0	0.24321222
107	0x3ebda48b	0.370396
108	0x3d9ab243	0.07553532
109	0x3e4afe43	0.19823556
110	0x3ecb56b7	0.39714596
111	0x3f02ec68	0.5114198
112	0x3e680872	0.22659472
113	0x3efdb93f	0.49555394
114	0x3eb4163a	0.35173208
115	0x3ef7daf4	0.48409235
116	0x3ef47e0d	0.4775242
117	0x3f7d0833	0.98840636
118	0x3ea5ff1d	0.32421198
119	0x3f8e3de9	1.1112643
120	0x3ee4afd8	0.44665408
121	0x3f176620	0.59140205
122	0x3ec8c11f	0.3920984
123	0x3de476d1	0.11155475
124	0x3ec1cc9d	0.3785142
125	0x3ea78d82	0.3272515
126	0x3f9f455d	1.2443043
127	0x3f1736b7	0.59067863
128	0x3ed11913	0.40839443
129	0x3eb81859	0.35956076
130	0x3fb82d36	1.4388797
131	0x3f83a64d	1.0285126
132	0x3faeb733	1.3649658
133	0x3ef4599f	0.47724625
134	0x3eea3726	0.457452
135	0x3f78f782	0.97252667
136	0x3f400d81	0.75020605
137	0x3ee57940	0.4481907
138	0x3f54262e	0.8287076
139	0x3eb939e0	0.36176968
140	0x3ed884b3	0.4228874
141	0x3ed51fd0	0.41625834
142	0x3ef9ceba	0.48790532
143	0x3f87cf2c	1.0610099
144	0x3ec85b82	0.39132315
145	0x3f64ba11	0.89346415
146	0x3eba852f	0.36429736
147	0x3ee18be6	0.44052047
148	0x3ed6fdc7	0.41990492
149	0x3eec6a52	0.46174866
150	0x3ee5030f	0.44728896
151	0x3ebf1f4a	0.3732856
152	0x3ed89985	0.42304626
153	0x3eb66407	0.3562319
154	0x3ed08cd1	0.40732434
155	0x3ece9a9c	0.40352333
156	0x3e46b294	0.1940406
157	0x3edba5a9	0.42899826
158	0x3ef0d700	0.47039032
159	0x3ee3b21a	0.44471818
160	0x3eb7530b	0.35805544
161	0x3f45b23c	0.7722509
162	0x3ed12312	0.4084707
163	0x3fe7c04b	1.8105558
164	0x3e2fbb5e	0.17161319
165	0x3f436713	0.76329154
166	0x3f84ea69	1.0384036
167	0x3ee5a140	0.44849586
168	0x3e82dc97	0.25558922
169	0x3ef32def	0.47495982
170	0x3ebdfbdb	0.37106213
171	0x3ebed7b2	0.37273937
172	0x3ef6895e	0.48151678
173	0x3ec441b5	0.3833138
174	0x3ecc343f	0.3988361
175	0x3ebaa77f	0.36455914
176	0x3eecffc7	0.46288893
177	0x3f04aa3d	0.51822263
178	0x3d9c352b	0.076273285
179	0x3ed9e78a	0.42559463
180	0x3ed62906	0.41828173
181	0x3f56e70d	0.83946306
182	0x3e986d3b	0.29770836
183	0x3eede0bf	0.4646053
184	0x3e9db038	0.30798507
185	0x3ecff1d0	0.40614176
186	0x3eda32dd	0.4261693
187	0x3eea92a7	0.45815012
188	0x3f732e1d	0.9499224
189	0x3f50a59d	0.81502706
190	0x3ed991da	0.42494088
191	0x3ecbe9de	0.39826864
192	0x3e8d314a	0.27576667
193	0x3edbde78	0.42943168
194	0x3eae23d1	0.340117
195	0x3f9f4ec4	1.2445912
196	0x3ea71bbc	0.32638347
197	0x3ea4fe19	0.3222511
198	0x3effec31	0.49984887
199	0x3e52490c	0.20535678
200	0x3ee7738a	0.45205337
201	0x3ed01847	0.40643522
202	0x3f91115d	1.1333424
203	0x3ed13977	0.40864155
204	0x3ec7ac3a	0.38998586
205	0x3f8fcf05	1.1235052
206	0x3f6d91b5	0.92800456
207	0x3ec77624	0.38957322
208	0x3ebf942e	0.3741774
209	0x3ee69d6b	0.45041975
210	0x3fc26d69	1.5189639
211	0x3eee0e20	0.46495152
212	0x3e885e97	0.26634666
213	0x3de80be5	0.11330394
214	0x3ecf6f55	0.40514627
215	0x3f7d3e9b	0.98923653
216	0x3ee6ab0e	0.4505238
217	0x3eb6711d	0.35633174
218	0x3ed9cfce	0.42541355
219	0x3e0c0118	0.13672292
220	0x3e9b0b22	0.3028193
221	0x3fe41746	1.7819602
222	0x3ef782be	0.48341936
223	0x3ecaa872	0.3958164
224	0x3ef3532b	0.4752439
225	0x3f3e3e75	0.7431405
226	0x3dbca1b6	0.092105314
227	0x3ecf3d42	0.40476424
228	0x40127c18	2.288824
229	0x3ed08dd1	0.40733197
230	0x3edd7f03	0.43260965
231	0x3dc1d64a	0.094647005
232	0x3fc56c20	1.5423622
233	0x3ed1b260	0.40956402
234	0x3ec2b7ab	0.38030753
235	0x3ea64312	0.32473046
236	0x3edb7398	0.4286163
237	0x3ef75bba	0.4831217
238	0x3ecef101	0.40418246
239	0x3ee3668e	0.4441418
240	0x3f252ef3	0.64524764
241	0x3ecfca39	0.4058397
242	0x3eb1247f	0.34598157
243	0x3ecdf415	0.40225282
244	0x3ef36681	0.47539142
245	0x3ea073cf	0.31338355
246	0x3ef26107	0.4733965
247	0x3ee16d2f	0.44028613
248	0x3eedd7f9	0.46453837
249	0x3eed2ec0	0.4632473
250	0x3eae7eaa	0.34081012
251	0x3fa11325	1.2583967
252	0x3e89f63d	0.26945677
253	0x3ecf4fd3	0.4049059
254	0x3ef8643e	0.4851398
255	0x3e898608	0.2686007
