trained_models/checkpoint_ep8600.pth (torch, 416160 bytes, 14 tensors)

fc1.weight f4 [256, 8]
0.19422027 -0.06896831 0.5587235 0.27513343 0.34407902 0.0843515 -1.1757791 0.28548595
0.14883296 -0.087682605 0.43983427 1.0833685 0.087791614 0.022604 -0.8720538 0.06817971
0.11794561 -0.12568541 0.9722141 0.041052572 0.25625232 0.6338544 -1.1816077 0.15317957
0.0854585 -0.0024933864 0.35143816 1.045028 0.06142698 -0.16634393 -0.81421757 0.046687752
0.22198442 -0.06963721 0.5711951 0.40121523 0.21444954 0.08893902 -1.1503617 0.37178254
1.0002804 0.62296134 0.64409447 0.20532453 0.66065264 -0.9800628 0.6351873 0.72724646
0.25190315 -0.0025590968 0.85582143 -0.3956382 0.35135278 0.33575004 -1.293216 0.22477908
0.10656156 0.027706528 0.38315728 0.70292306 0.14322488 -0.1877196 -0.98361754 0.2198507
0.5101818 -0.053316116 -0.10609905 0.14545886 -0.1270337 -0.55609643 -0.17065196 -0.14332364
0.29682794 0.04731137 0.4376372 0.4189063 0.19304512 -0.030568114 -1.0268754 0.016162362
1.014251 0.5170573 0.031188851 0.40662035 0.5412475 -1.5285847 0.6442142 0.47111678
0.034889366 0.061409596 0.3750506 0.556605 0.114532374 -0.17932017 -0.911272 0.07427962
0.21109742 -0.03130979 0.8864411 -0.17734998 0.4595449 0.42701092 -1.3918643 0.43873325
0.224518 -0.15299948 -0.0851675 -0.07930501 -0.27524042 -1.1020528 0.37608346 -0.30482894
-0.32039073 -0.018489327 0.8465147 0.16056691 -0.096658714 0.29661652 -0.66536856 -0.04637023
0.02228529 -0.3008966 -0.2303049 1.6678361 -0.25721428 -1.144735 0.44235954 -0.24518026
0.12116324 -0.04110966 0.7352448 0.4539535 0.20189677 0.3818027 -1.1443073 0.23267029
1.0901861 0.23668446 0.22279525 0.9349162 0.3443118 -1.8801777 -0.5094568 0.39644763
1.5461099 -0.01049245 0.62104696 -0.95382905 0.6341674 0.24565332 -1.7546558 0.56372494
0.39294225 -0.046943396 0.40668446 0.06627731 0.11683845 0.048588663 -0.965214 0.23505029
0.032360967 -0.007938301 0.77880585 0.8106866 0.22823414 0.30962622 -1.2129526 0.16939498
0.0297076 -0.052542444 0.4405893 0.8207587 -0.03819955 -0.026364658 -0.68413514 0.033224422
0.14570433 -0.08688671 0.6484817 0.85044956 0.3356283 0.18592589 -1.2451173 0.34022003
-0.018316042 0.04016264 0.35328057 1.1491883 0.12927106 -0.23909964 -0.9088223 0.09498691
0.86383784 -0.07055066 -1.2726194 1.0537202 -0.2197429 -1.2298082 0.54705226 -0.19546635
-0.21022913 -0.07126165 -2.2063448 -1.1787432 -0.2675794 1.6179804 0.30043355 -0.32709834
0.039956704 -0.27349475 0.26749986 0.04815234 -0.41589203 -0.89220077 0.54871047 -0.4078446
0.60025924 -0.3599868 -1.2708815 1.3014395 -0.4770483 -1.7647109 1.0221862 -0.45367604
0.0653956 -0.061363216 0.5667237 0.626366 0.293595 0.043799896 -1.1653637 0.30564958
0.20439485 -0.01699679 0.63076264 0.501198 0.23509626 0.19793364 -1.1738575 0.23612702
0.25282833 -0.006902868 0.6941705 0.3829027 0.1983748 0.27942005 -1.2478205 0.35870057
0.20886944 -0.004528587 0.33154225 0.6004132 0.13719974 -0.213549 -0.93631166 0.21507153
00000000: aee1 463e 423f 8dbd 8108 0f3f 4ade 8c3e
00000010: 202b b03e 7bc0 ac3d ee7f 96bf 372b 923e
00000020: ab67 183e f092 b3bd f531 e13e d2ab 8a3f
00000030: 17cc b33d 062c b93c eb3e 5fbf cea1 8b3d
00000040: 788d f13d adb3 00be 06e3 783f be26 283d
00000050: 8133 833e 4844 223f ec3e 97bf 1bdb 1c3e
00000060: de04 af3d 1568 23bb b4ef b33e 7ac3 853f
00000070: db9a 7b3d 1056 2abe 9070 50bf a83b 3f3d
00000080: e24f 633e f49d 8ebd d839 123f 156c cd3e
00000090: a998 5b3e a925 b63d 0d3f 93bf 485a be3e
000000a0: 3009 803f 657a 1f3f 60e3 243f 9840 523e
000000b0: 8820 293f 65e5 7abf a39b 223f d32c 3a3f
000000c0: 73f9 803e 85b6 27bb 1d17 5b3f 1791 cabe
000000d0: 83e4 b33e 6ee7 ab3e 1a88 a5bf 7d2c 663e
000000e0: f23c da3d cdf8 e23c 312d c43e c4f2 333f
000000f0: 8ba9 123e 9139 40be 5cce 7bbf 8b20 613e
00000100: 469b 023f 0062 5abd 754a d9bd 2bf3 143e
00000110: 1f15 02be 565c 0ebf 63bf 2ebe 6fc3 12be
00000120: d5f9 973e 91c9 413d fc11 e03e e37a d63e
00000130: 9fad 453e fb69 fabc a770 83bf ee66 843c
00000140: fad2 813f de5d 043f c37f ff3c 8b30 d03e
00000150: 328f 0a3f aaa8 c3bf 39eb 243f 3836 f13e
00000160: 27e8 0e3d a188 7b3d a206 c03e aa7d 0e3f
00000170: f38f ea3d b59f 37be 1f49 69bf ea1f 983d
00000180: ec29 583e b23e 00bd ceed 623f 3c9b 35be
00000190: 7849 eb3e 2da1 da3e 9c28 b2bf a5a1 e03e
000001a0: 0ce8 653e e5ab 1cbe 4c6c aebd aa6a a2bd
000001b0: 50ec 8cbe 1110 8dbf 038e c03e 8a12 9cbe
000001c0: 410a a4be ee76 97bc 30b5 583f a76b 243e
000001d0: 01f5 c5bd 1fde 973e 9855 2abf b6ee 3dbd
000001e0: a48f b63c 1f0f 9abe 0cd5 6bbe a77b d53f
000001f0: 97b1 83be ad86 92bf f37c e23e 8910 7bbe
00000200: 6f24 f83d 9a62 28bd 0139 3c3f 986c e83e
00000210: 07be 4e3e a57b c33e a978 92bf 1f41 6e3e
00000220: 388b 8b3f 695d 723e 7024 643e ab56 6f3f
00000230: a349 b03e aaa9 f0bf c36b 02bf 2ffb ca3e
00000240: eee6 c53f 86e8 2bbc effc 1e3f 242e 74bf
00000250: cb58 223f 8b8c 7b3e 9098 e0bf 4750 103f
00000260: ba2f c93e b847 40bd f238 d03e 66bc 873d
00000270: ff48 ef3d e804 473d 4418 77bf 06b1 703e
00000280: ef8c 043d a60f 02bc d25f 473f 2889 4f3f
00000290: 36b6 693e 5487 9e3e 0842 9bbf e175 2d3e
000002a0: 5a5d f33c bf36 57bd ec94 e13e 3e1d 523f
000002b0: 2277 1cbd b2fa d7bc 7b23 2fbf 5516 083d
000002c0: 8433 153e a9f1 b1bd e602 263f 10b7 593f
000002d0: 79d7 ab3e 5b63 3e3e 0160 9fbf 5231 ae3e
000002e0: 860b 96bc 9581 243d 31e1 b43e 9a18 933f
000002f0: a25f 043e 89d6 74be 94a8 68bf 7f88 c23d
00000300: 7a24 5d3f dd7c 90bd 31e5 a2bf 4ee0 863f
00000310: 4804 61be 5b6a 9dbf 9e0b 0c3f 5528 48be
00000320: 4e46 57be a1f1 91bd c134 0dc0 0fe1 96bf
00000330: 2b00 89be fb19 cf3f 6dd2 993e 6f79 a7be
00000340: a4a9 233d 8107 8cbe bef5 883e 633b 453d
00000350: cdef d4be 4567 64bf 4a78 0c3f 02d1 d0be
00000360: 97aa 193f 3150 b8be 3fac a2bf 9295 a63f
00000370: ad3f f4be 0ce2 e1bf ffd6 823f 3a48 e8be
00000380: 21ee 853d ff57 7bbd ce14 113f 8659 203f
00000390: 1552 963e 8567 333d a32a 95bf 1a7e 9c3e
000003a0: e24c 513e da3c 8bbc a979 213f 834e 003f
000003b0: 13bd 703e 1eaf 4a3e f640 96bf 48cb 713e
000003c0: b772 813e 7431 e2bb 28b5 313f d30b c43e
000003d0: c322 4b3e 2510 8f3e 95b8 9fbf 9aa7 b73e
000003e0: dfe1 553e 8b64 94bb e8bf a93e aeb4 193f
000003f0: 177e 0c3e 97ac 5abe 1fb2 6fbf b63b 5c3e

fc1.bias f4 [256]
0.25548106 0.10738018 0.2089583 0.083174355 0.27346703 0.680329 0.3151383 0.15595934
-0.11443372 0.15583716 0.5244821 0.1307629 0.32737827 -0.3147725 -0.10060488 -0.28678447
0.1737979 0.43945932 0.58156806 0.1895856 0.20382006 0.025512991 0.2523826 0.10882159
-0.20128739 -0.23434529 -0.4352056 -0.4650709 0.24489124 0.22634542 0.3154438 0.1487972
0.10176655 0.18401784 0.2009264 0.10830268 0.46717292 0.32241675 0.18801838 0.18050273
0.28004038 -0.21846525 0.2264411 0.13911071 0.054618005 -0.431498 0.29677242 0.28304282
0.14879952 -0.00895032 0.2940569 0.1564817 -0.47696066 0.19617109 0.3898261 0.19637959
0.05620073 0.18570963 0.18398093 0.17054135 0.29585868 0.842044 0.5288172 -0.3317052
0.20704615 -0.29692793 0.08062521 -0.20421134 0.012182179 0.23651342 0.20025972 0.2983343
-0.5242675 0.4490375 0.2255268 0.3171518 0.17093037 0.17409797 -0.009053945 0.23685661
-0.40992188 0.24674605 -0.24894895 0.17747658 -0.58206075 0.17102087 -0.43089512 0.17325707
0.26371297 0.21349315 0.21594636 -0.26345894 0.17202623 0.21592698 0.17736176 0.58731943
0.005355364 -0.039052185 0.16527148 -0.41342238 -0.32202426 0.09509259 0.16690592 0.33176088
0.2565714 0.20369864 0.13836282 0.29189384 0.24245301 -0.10988959 0.15817441 0.24909917
0.1198763 0.1526844 0.052296273 0.5969031 -0.30738384 0.2702073 0.2802985 -0.14929
0.2624335 0.31191775 0.26397786 0.50902396 0.2931981 0.18809408 0.19687037 -0.43883166
0.35549095 0.271625 0.3803654 -0.06756963 0.040262956 0.2920127 0.30003402 0.27163285
-0.1726439 -0.05223548 -0.032370143 -0.0193666 0.193961 0.18687738 0.20051293 0.25799763
0.20192318 0.16208097 0.16801567 -0.15172243 0.12901935 0.15937398 0.1966446 0.12843324
0.31189832 0.2830488 0.2742294 0.15901877 0.18243264 -0.5569887 0.18971379 0.21397835
0.26270732 0.20944777 -0.31945774 0.21256189 -0.27980706 0.28518957 0.11829225 0.30240428
0.28348228 -0.012120065 0.18642576 0.13689977 -0.20157865 -0.4307438 -0.19804259 0.24459726
0.11830855 0.16376548 -0.13550547 -0.2289593 0.16243054 0.12173932 -0.27961388 0.13716355
0.21806835 0.18041229 0.59402174 0.16837834 0.0072096395 0.22809157 0.2358293 0.21122545
0.034629073 0.24615753 0.18535656 0.19335824 0.20247939 0.20625062 -0.41322267 0.13664281
0.28216642 0.16786437 0.0673739 0.1845329 -0.36331078 0.19364189 -0.46110955 0.5412862
0.13539638 0.123560034 0.20222344 0.3026824 -0.5820583 0.02426527 0.2298995 0.40816614
-0.33435354 -0.28190285 0.030238543 0.18010274 0.22578768 0.20865686 0.12747002 -0.03856507
-0.06290677 0.22905973 -0.24495216 0.20528558 0.17494778 -0.5297791 0.22181474 0.23663361
0.22238435 0.533466 0.28193572 0.15482223 0.20308506 0.26474467 0.29701766 -0.67493767
0.25447088 0.0895022 0.16234758 0.18736617 -0.22404636 0.24331708 0.31300545 0.2395468
-0.06451329 -0.26446888 -0.165009 -0.049480576 0.256003 0.016859427 0.2694841 0.24864739
00000000: 6ace 823e 24ea db3d 2af9 553e 5157 aa3d
00000010: df03 8c3e 0b2a 2e3f cf59 a13e ceb3 1f3e
00000020: 3a5c eabd c793 1f3e 7544 063f b6e6 053e
00000030: 209e a73e dc29 a1be ee09 cebd 6ad5 92be
00000040: 14f8 313e d000 e13e a5e1 143f ba22 423e
00000050: 35b6 503e 9f00 d13c 4b38 813e dbdd de3d
00000060: 481e 4ebe 36f8 6fbe 45d3 debe c61d eebe
00000070: c5c4 7a3e 18c7 673e da81 a13e 4b5e 183e
00000080: fb6a d03d 2c6f 3c3e a6bf 4d3e cccd dd3d
00000090: 4a31 ef3e cf13 a53e e487 403e b5d5 383e
000000a0: 7461 8f3e 5bb5 5fbe 2de0 673e 0a73 0e3e
000000b0: 21b7 5f3d 4eed dcbe 8ef2 973e fdea 903e
000000c0: e75e 183e 5da4 12bc a08e 963e bd3c 203e
000000d0: 3034 f4be 13e1 483e 4997 c73e bb17 493e
000000e0: bd32 663d aa2a 3e3e 7f65 3c3e 64a2 2e3e
000000f0: ca7a 973e 3290 573f 9060 073f 44d5 a9be
00000100: e803 543e f006 98be d51e a53d c71c 51be
00000110: c397 473c 9330 723e e210 4d3e 46bf 983e
00000120: 6536 06bf 3ee8 e53e 7ff0 663e b961 a23e
00000130: 5f08 2f3e bd46 323e ff56 14bc 8a8a 723e
00000140: 48e1 d1be ffaa 7c3e 79ec 7ebe 6cbc 353e
00000150: ef01 15bf 1820 2f3e 499e dcbe 4d6a 313e
00000160: 6305 873e f39d 5a3e 0b21 5d3e 17e4 86be
00000170: a527 303e f61b 5d3e 529e 353e 915a 163f
00000180: 0d7c af3b 2ff5 1fbd ed3c 293e 19ac d3be
00000190: 5de0 a4be e7bf c23d 63e9 2a3e 90dc a93e
000001a0: 545d 833e 6096 503e fcae 0d3e 1c73 953e
000001b0: 9a45 783e cb0d e1bd 79f8 213e da13 7f3e
000001c0: b581 f53d 4d59 1c3e 9e34 563d a4ce 183f
000001d0: 6a61 9dbe 9c58 8a3e 4983 8f3e 7adf 18be
000001e0: af5d 863e afb3 9f3e 1b28 873e 654f 023f
000001f0: 101e 963e bc9b 403e 6398 493e 8bae e0be
00000200: e902 b63e 6f12 8b3e 41bf c23e f261 8abd
00000210: c5ea 243d b082 953e 0f9e 993e 7613 8b3e
00000220: 90c9 30be dff4 55bd 8e96 04bd b4a6 9ebc
00000230: b69d 463e c95c 3f3e 4353 4d3e 4418 843e
00000240: f3c4 4e3e 8ef8 253e 4d0c 2c3e 205d 1bbe
00000250: a61d 043e ef32 233e 345d 493e 0184 033e
00000260: 23b1 9f3e c6eb 903e cc67 8c3e d1d5 223e
00000270: 9fcf 3a3e d096 0ebf 5544 423e 241d 5b3e
00000280: 9381 863e 7a79 563e f78f a3be d3a9 593e
00000290: df42 8fbe 5e04 923e 3543 f23d bcd4 9a3e
000002a0: 9724 913e 3d93 46bc 65e6 3e3e 742f 0c3e
000002b0: a26a 4ebe 748a dcbe adcb 4abe b477 7a3e
000002c0: c14b f23d 23b2 273e f2c1 0abe 4f74 6abe
000002d0: 3154 263e 7752 f93d 8d29 8fbe 9a74 0c3e
000002e0: 4f4d 5f3e 00be 383e cf11 183f 5f6b 2c3e
000002f0: d73e ec3b d690 693e 3c7d 713e 7c4b 583e
00000300: 37d7 0d3d b810 7c3e 1cce 3d3e b4ff 453e
00000310: c256 4f3e 5d33 533e ec91 d3be 18ec 0b3e
00000320: 1e78 903e a3e4 2b3e 54fb 893d 31f6 3c3e
00000330: df03 babe 0f4a 463e 8d16 ecbe bb91 0a3f
00000340: 59a5 0a3e 0b0d fd3d a913 4f3e 30f9 9a3e
00000350: c601 15bf f6c7 c63c c66a 6b3e 27fb d03e
00000360: 6330 abbe 9255 90be d2b6 f73c da6c 383e
00000370: e334 673e 25aa 553e 8087 023e 68f6 1dbd
00000380: 44d5 80bd a28e 6a3e bdd4 7abe 6236 523e
00000390: 8325 333e 9a9f 07bf 6723 633e 1550 723e
000003a0: b9b8 633e 3a91 083f e159 903e b889 1e3e
000003b0: 88f5 4f3e 9d8c 873e b312 983e b7c8 2cbf
000003c0: 024a 823e ee4c b73d 723e 263e ebdc 3f3e
000003d0: 696c 65be 1d28 793e 4042 a03e c24b 753e
000003e0: 8b1f 84bd 7768 87be 1ff8 28be 25ac 4abd
000003f0: d312 833e c81c 8a3c d2f9 893e 6c9d 7e3e

fc2.weight f4 [256, 256]
-0.0870493 -0.008813044 0.011729299 0.04003218 -0.0001120832 -0.99651414 -0.3737285 0.17621472
0.048953667 0.20937699 -0.8068498 0.18102632 0.059259966 0.4070138 0.9533045 0.3012732
-0.010797619 0.13974734 -0.14446531 -0.033144258 0.13998917 0.69360363 0.2502825 0.24065936
0.22809476 -1.0577564 -0.43368697 0.114416525 0.015633998 0.04662316 0.09674633 -0.041315876
-0.08356589 -0.017940514 -0.045751523 0.002387013 0.6563373 0.2704848 0.29041666 0.12107988
0.0960092 -0.1163361 0.38590616 0.14767846 0.55914915 0.44578025 0.010820245 0.056031685
-0.05050889 -0.07837414 0.109456114 0.299018 0.2140693 0.11743694 0.30932662 -0.048095193
-0.063861676 0.08414753 0.17998911 -0.031234458 0.6729206 -0.4736163 0.1645213 0.7363408
-0.002866697 0.31207454 0.72187144 0.12116573 -0.21550287 0.060336087 0.20511098 0.25333107
-0.0026437694 0.9813742 0.014976522 0.45435622 0.034752797 0.18211737 0.090788476 -0.06993467
-0.6189468 -0.009843238 1.2987272 0.33078158 -0.31124946 0.24393085 0.36098665 0.14866471
-0.018512687 0.15896653 0.13017812 0.74846 -0.015335564 0.10771452 0.19973749 0.25699463
0.25597835 -0.22663553 0.42602342 0.0018165879 0.63874346 0.27501506 -0.11161435 0.701264
0.08915 0.078898005 0.2620285 0.092503384 -0.19026451 -0.20464362 -0.17004673 0.1732093
0.13705993 -0.14886653 0.077304035 -0.8433171 0.63570905 0.73924965 0.24034835 -0.23120986
0.13579921 0.06443899 0.019298272 2.4057755 0.11802764 -0.14359513 -0.22994122 -1.4603639e-05
0.6774128 -0.027660318 0.61559606 -0.021227032 0.5901092 0.15040603 0.097548865 -0.04605962
2.0331807 0.3910848 0.20743169 0.14096925 -0.031870425 -0.0379071 0.065809175 0.13672173
0.120322846 0.040929914 -0.09557642 -0.8980129 0.13260934 0.107190825 0.063461386 0.124668665
0.13468313 -0.20116274 0.043046653 0.032751102 0.014158687 -0.07840966 0.19714324 0.2507938
0.09064911 0.37122145 0.4115163 0.07528307 0.2714975 0.034212586 0.06772121 0.1754308
0.19719496 0.42580065 -0.18049625 0.07569647 0.5198689 0.5241739 0.4518607 0.14954881
0.12996739 0.036148306 0.15595639 0.3619374 0.0748379 -0.102849044 0.5111329 -0.026731716
-0.11500565 -0.086863674 0.61279744 0.25013736 0.0011538395 -0.036447514 0.08400077 0.06302145
0.18910371 0.121462636 0.04988949 0.042764805 0.3762683 0.16778718 -0.39104092 0.39255592
0.19833879 0.041080467 -0.058875028 0.074881874 0.42989916 0.43471104 0.11677156 0.43885323
0.10568794 0.04626393 0.08242243 0.22076502 0.76430035 0.5179788 -0.08428789 0.32563356
-0.021248817 0.13731013 0.5170185 0.4939152 0.6303625 0.21528931 0.3633774 0.3044861
0.83006316 -0.06397528 -0.35889137 -0.11958652 0.78391975 -0.09914964 0.07350754 0.046137515
0.19665952 1.0182564 0.091229014 0.6491399 0.081339225 0.0224885 -0.050988864 -0.22369193
0.339464 0.05279721 0.25924885 -0.028464817 0.4400619 0.10716777 0.26908395 0.011442989
0.09607987 0.43304193 1.289941 0.115344465 -0.14778583 -0.035484396 0.11769846 0.055394117
00000000: e746 b2bd 9664 10bc 3f2c 403c c8f8 233d
00000010: 360e ebb8 8d1b 7fbf 5859 bfbe a271 343e
00000020: a483 483d ec66 563e b58d 4ebf f75e 393e
00000030: 94ba 723d 1d64 d03e c40b 743f 7b40 9a3e
00000040: 7fe8 30bc ed19 0f3e b7ee 13be 46c2 07bd
00000050: 5259 0f3e 0290 313f 0725 803e 686f 763e
00000060: ac91 693e 9064 87bf 380c debe 3653 ea3d
00000070: df12 803c edf7 3e3d f122 c63d d63a 29bd
00000080: 9824 abbd fcf7 92bc f365 3bbd 6f6f 1c3b
00000090: b905 283f fc7c 8a3e 7eb1 943e baf8 f73d
000000a0: 79a0 c43d 9f41 eebd 7e95 c53e 0639 173e
000000b0: 6624 0f3f 4f3d e43e 6647 313c 7b81 653d
000000c0: 69e2 4ebd 9f82 a0bd 872a e03d e318 993e
000000d0: fc34 5b3e c782 f03d 0f60 9e3e 77ff 44bd
000000e0: e9c9 82bd 8a55 ac3d 114f 383e 68df ffbc
000000f0: 8644 2c3f d67d f2be 4678 283e d580 3c3f
00000100: 32df 3bbb 3cc8 9f3e 91cc 383f bd25 f83d
00000110: c9ac 5cbe f922 773d 9d08 523e 9cb4 813e
00000120: 1743 2dbb 573b 7b3f 1660 753c 61a1 e83e
00000130: f358 0e3d fa7c 3a3e 4fef b93d e939 8fbd
00000140: 4c73 1ebf 8845 21bc b13c a63f 345c a93e
00000150: 175c 9fbe 02c9 793e 3ed3 b83e 903b 183e
00000160: eba7 97bc 1fc8 223e 6a4d 053e 139b 3f3f
00000170: 0442 7bbc 6e99 dc3d fc87 4c3e cd94 833e
00000180: 980f 833e 2513 68be be1f da3e 931a ee3a
00000190: b184 233f c6ce 8c3e 1096 e4bd 0a86 333f
000001a0: 4694 b63d 4795 a13d 9928 863e 6a72 bd3d
000001b0: b3d4 42be 198e 51be bb20 2ebe c75d 313e
000001c0: 7059 0c3e 7870 18be 9451 9e3d a1e3 57bf
000001d0: d4bd 223f 773f 3d3f e11d 763e 47c2 6cbe
000001e0: f30e 0b3e 97f8 833d 6917 9e3c 3af8 1940
000001f0: 7ab8 f13d 9a0a 13be b675 6bbe 2702 75b7
00000200: ed6a 2d3f e497 e2bc b497 1d3f 50e4 adbc
00000210: 6611 173f 0a04 1a3e b3c7 c73d 03a9 3cbd
00000220: a21f 0240 443c c83e f968 543e 3e5a 103e
00000230: 908a 02bd 7a44 1bbd f6c6 863d c800 0c3e
00000240: d36b f63d 20a6 273d 92bd c3bd 2ce4 65bf
00000250: beca 073e dd86 db3d 0bf8 813d 4952 ff3d
00000260: 60ea 093e 9bfd 4dbe b051 303d 0526 063d
00000270: d6f9 673c 3e95 a0bd ebdf 493e 0c68 803e
00000280: 3ea6 b93d bd10 be3e 44b2 d23e 032e 9a3d
00000290: b801 8b3e 7f22 0c3d 6bb1 8a3d 22a4 333e
000002a0: 7aed 493e 8b02 da3e 02d4 38be c006 9b3d
000002b0: 2116 053f 4330 063f 495a e73e 5323 193e
000002c0: 2c16 053e 3f10 143d 08b3 1f3e dc4f b93e
000002d0: 9d44 993d 85a2 d2bd 9bd9 023f 79fc dabc
000002e0: 1588 ebbd 95e5 b1bd 4be0 1c3f 0112 803e
000002f0: 6e3c 973a fd49 15bd 9808 ac3d 6411 813d
00000300: 67a4 413e 67c1 f83d ec58 4c3d 262a 2f3d
00000310: 3da6 c03e 67d0 2b3e 8436 c8be 17fd c83e
00000320: 5319 4b3e fe43 283d f126 71bd ab5b 993d
00000330: be1b dc3e 7292 de3e ed25 ef3d 5fb1 e03e
00000340: eb72 d83d 3f7f 3d3d 17cd a83d 3a10 623e
00000350: 30a9 433f 429a 043f 219f acbd 71b9 a63e
00000360: 0012 aebc 079b 0c3e 535b 043f 74e2 fc3e
00000370: 705f 213f cd74 5c3e 9a0c ba3e 9ae5 9b3e
00000380: 057f 543f 7905 83bd 9cc0 b7be c7e9 f4bd
00000390: f7ae 483f f70e cbbd 1f8b 963d b1fa 3c3d
000003a0: 1d61 493e 3a56 823f 47d6 ba3d 082e 263f
000003b0: 2e95 a63d ce39 b83c b3d9 50bd 7f0f 65be
000003c0: 3ace ad3e e341 583d 44bc 843e 0c2f e9bc
000003d0: cb4f e13e c77a db3d 5fc5 893e 607b 3b3c
000003e0: 86c5 c43d acb7 dd3e c91c a53f b839 ec3d
000003f0: 2b55 17be 1658 11bd e40b f13d f1e4 623d

fc2.bias f4 [256]
-0.6599839 -0.7789821 -0.6940544 -0.92314434 -1.5426476 -1.3144274 -1.2548546 0.26604316
-0.6769068 -0.7524527 0.6721008 1.0469929 1.0770564 0.94961727 -0.7760787 -0.80253583
-0.5326512 -0.2592442 -0.76703453 -0.20304067 -1.1340235 -0.053001188 -0.74124134 0.65643096
0.51849025 -0.6723575 1.7034405 -0.42372024 -0.46124074 -0.9340812 0.823644 0.39897028
-0.63746566 0.7768387 -0.68173766 0.5186404 -0.4171859 0.2318655 0.20407352 -0.42629012
0.21169445 -0.678744 -0.7563468 -0.3737242 -0.39135504 0.4730083 -0.275849 -0.9507281
-0.5571867 0.17837533 -0.4662419 0.30618352 0.784542 -0.92911255 0.3754666 1.0287868
-0.45107222 -0.8550805 -0.61002284 -0.42800668 -0.601334 -0.6556619 -0.80873823 -0.35328558
-0.37772828 -0.4163678 -0.68729013 -1.5080299 -0.5785366 -0.7053443 -0.8351404 -0.63507545
-0.2341003 -0.6516941 -0.88223106 -0.26437637 -0.45951125 -0.50082934 -0.5717092 0.43742496
0.8610534 -0.65296906 -0.7382042 0.36507285 0.13136443 -0.6737255 0.50382775 -0.6988273
-0.6833728 -0.7531755 -0.33400786 -0.5304265 -0.62105006 -0.6622978 -0.25971496 -0.7608836
-0.78654206 -0.5457149 -0.74759173 0.2581756 0.3130389 -0.18124129 -0.9097768 -0.5214818
0.8397091 -0.6069639 -0.57894963 -0.9206206 -0.62847894 -0.41133583 -0.5331944 -0.12684958
-0.22155581 -0.5843839 -0.9383017 -0.3083451 -0.80367756 0.8245806 -0.47066414 0.3586074
-0.5673499 -0.29512835 0.78329766 -0.6423603 0.85501313 -0.6324357 -0.6925637 0.27480066
-0.41540247 -0.63117 -1.0477294 -0.6752034 -0.6574349 -0.26601186 -0.80939364 -0.59311706
-0.5814338 -1.4742746 -0.3203355 -0.2926821 0.8252373 -0.8434138 0.9797371 -0.55475533
0.91620207 -0.5765382 0.7196029 -0.25328743 -0.6199739 -0.5514096 -0.38086936 -0.70826554
-0.6862649 -0.6304922 0.7397695 -1.0316355 0.5171882 -0.63759834 -0.5458255 -0.57318443
0.44878358 -0.7213616 -0.7959323 -0.5397265 -1.1020391 -0.24747778 -0.5693909 -0.51093566
-0.3693869 -0.71468747 -0.66564935 -0.74227154 -0.37365595 -0.82968724 -0.5290198 0.9141615
0.8223593 -0.78789055 -0.84569573 -0.7287028 -0.67354846 -0.6730731 0.6427021 -0.2678158
-0.64633656 -1.393106 0.06910823 -0.4012825 0.5832949 -0.17176336 -0.85137546 -0.7306209
0.5216084 -0.81777036 -0.70537996 -0.17264035 -0.81745297 -0.70330435 0.4381721 -0.7273986
-0.3452631 -0.6838824 -0.53034115 -0.6632139 0.44401848 -0.65903187 -0.47311333 -0.6306756
-0.79872173 0.048949305 -0.75209326 -0.50454897 -0.99068284 0.81069213 -0.6245856 0.2463289
-0.78645116 -0.95912886 -1.009137 -0.21570951 -0.8558194 -0.5206775 1.2598193 -0.7989203
-0.94674516 -1.0250608 -0.6342133 -0.61018056 -1.0441586 -0.11064953 -0.8707893 -0.52218664
-0.6662807 -0.44933543 -0.34892294 -0.35217205 -1.3901566 0.3489184 -0.39960358 -0.010010863
0.00042460638 -0.05081826 -0.63708884 -0.61181116 -1.3699367 -0.51935047 0.5158026 -0.5624864
-0.1861436 -0.5953777 -0.38452575 -0.27583253 -0.9188146 -0.074216165 0.07463306 0.9720871
00000000: b4f4 28bf 5f6b 47bf 8dad 31bf 3053 6cbf
00000010: 7a75 c5bf 283f a8bf 139f a0bf cf36 883e
00000020: c449 2dbf bda0 40bf cc0e 2c3f dd03 863f
00000030: fcdc 893f 1e1a 733f 18ad 46bf fd72 4dbf
00000040: d45b 08bf a8bb 84be 605c 44bf e5e9 4fbe
00000050: af27 91bf c617 59bd fec1 3dbf dc0b 283f
00000060: c7bb 043f 9f1f 2cbf 570a da3f dcf1 d8be
00000070: bf27 ecbe f21f 6fbf 55da 523f d545 cc3e
00000080: f330 23bf e7de 463f 5c86 2ebf 9ec5 043f
00000090: 6499 d5be 266e 6d3e a6f8 503e b342 dabe
000000a0: 6ec6 583e 2bc2 2dbf f29f 41bf c758 bfbe
000000b0: b05f c8be 252e f23e 153c 8dbe eb62 73bf
000000c0: caa3 0ebf 06a8 363e 42b7 eebe 16c4 9c3e
000000d0: bfd7 483f 52da 6dbf 283d c03e 49af 833f
000000e0: f0f2 e6be 8ee6 5abf 752a 1cbf b123 dbbe
000000f0: 06f1 19bf 75d9 27bf 7809 4fbf d9e1 b4be
00000100: 9a65 c1be 292e d5be 3ff2 2fbf 2007 c1bf
00000110: fa1a 14bf 7291 34bf c3cb 55bf 4e94 22bf
00000120: fdb7 6fbe 6dd5 26bf e5d9 61bf 575c 87be
00000130: 0f45 ebbe 5a36 00bf 895b 12bf 2af6 df3e
00000140: ff6d 5c3f fb28 27bf f3fa 3cbf d4ea ba3e
00000150: 6684 063e 4679 2cbf dbfa 003f 59e6 32bf
00000160: 85f1 2ebf 1cd0 40bf 1403 abbe 08ca 07bf
00000170: 23fd 1ebf 598c 29bf 5cf9 84be 45c9 42bf
00000180: d25a 49bf f9b3 0bbf 2c62 3fbf 982f 843e
00000190: a246 a03e 5197 39be 22e7 68bf d57f 05bf
000001a0: 2df7 563f fc61 1bbf 0b36 14bf cbad 6bbf
000001b0: ffe3 20bf 9c9a d2be 6e7f 08bf dbe4 01be
000001c0: 87df 62be 2f9a 15bf 8a34 70bf 69df 9dbe
000001d0: d0bd 4dbf b717 533f e4fa f0be 649b b73e
000001e0: d83d 11bf 101b 97be 3286 483f ba71 24bf
000001f0: 24e2 5a3f 4ee7 21bf db4b 31bf acb2 8c3e
00000200: a2af d4be 5b94 21bf ff1b 86bf 21da 2cbf
00000210: a74d 28bf b532 88be 6c34 4fbf 85d6 17bf
00000220: d8d8 14bf 08b5 bcbf 0403 a4be 6eda 95be
00000230: c042 533f f7e9 57bf 0dd0 7a3f 7204 0ebf
00000240: 388c 6a3f 0298 13bf e537 383f e4ae 81be
00000250: 9cb6 1ebf 2e29 0dbf 4f01 c3be e450 35bf
00000260: 0eaf 2fbf f067 21bf 8961 3d3f a20c 84bf
00000270: 7266 043f a539 23bf 38bb 0bbf 37bc 12bf
00000280: f6c6 e53e 27ab 38bf 38c2 4bbf 842b 0abf
00000290: 9e0f 8dbf d16a 7dbe 9ac3 11bf aecc 02bf
000002a0: 4820 bdbe c2f5 36bf ff67 2abf 8205 3ebf
000002b0: d54f bfbe 6266 54bf d76d 07bf 7d06 6a3f
000002c0: 2486 523f 32b3 49bf 847f 58bf 448c 3abf
000002d0: ac6d 2cbf 854e 2cbf 2088 243f 271f 89be
000002e0: 5076 25bf 4c51 b2bf 9e88 8d3d e674 cdbe
000002f0: d152 153f bce2 2fbe bef3 59bf f909 3bbf
00000300: 2188 053f 6659 51bf c893 34bf a2c8 30be
00000310: 9944 51bf c10b 34bf 1858 e03e cb36 3abf
00000320: 53c6 b0be eb12 2fbf 70c4 07bf 63c8 29bf
00000330: 6456 e33e 50b6 28bf e93b f2be f573 21bf
00000340: 0779 4cbf 117f 483d 2f89 40bf 1f2a 01bf
00000350: 649d 7dbf 8589 4f3f d8e4 1fbf a53d 7c3e
00000360: dd54 49bf 7889 75bf 672b 81bf f4e2 5cbe
00000370: fb16 5bbf 1f4b 05bf c241 a13f 0a86 4cbf
00000380: e45d 72bf 3135 83bf ce5b 22bf cb34 1cbf
00000390: fda6 85bf 399c e2bd 0cec 5ebf 06ae 05bf
000003a0: 5f91 2abf 4b0f e6be 07a6 b2be e54f b4be
000003b0: a7f0 b1bf 6fa5 b23e d798 ccbe 9a04 24bc
000003c0: b49d de39 cf26 50bd 4118 23bf a89f 1cbf
000003d0: 165a afbf 27f4 04bf a40b 043f 1cff 0fbf
000003e0: 6e9c 3ebe ac6a 18bf 8fe0 c4be ec39 8dbe
000003f0: 6f37 6bbf a5fe 97bd 38d9 983d b3da 783f

fc3.weight f4 [128, 256]
-0.2903588 0.06457735 0.19673435 -0.15417917 0.5881068 0.5249419 1.9360329 -0.18438713
0.0155297965 0.11187579 -0.5407909 -0.24411711 -1.0266633 -0.9059183 0.12176649 -0.14847146
0.050847083 0.5074771 0.32446402 -1.6244131 0.008767455 1.4049971 0.6039595 -0.9725749
-0.38261944 -0.025678331 -0.93877125 0.456297 0.37026992 -0.008553556 -0.52489495 -0.73305464
0.12895465 -1.420437 0.5534967 -0.5666807 1.4064703 -0.5997491 -2.324588 -0.45636466
-0.9976451 0.92512244 -0.13814916 0.835385 0.73541236 -0.5245225 0.9216008 0.37362072
0.50854033 -1.1564561 0.13292865 -0.27868003 -1.4624021 -0.6096511 1.0620488 -0.7116137
1.0220073 -0.34428713 0.43115026 0.7627243 0.00531445 -0.26887006 1.2888049 -1.5739373
-3.4587605 -0.041433334 -0.20122822 -0.8622555 0.25026146 -0.2695202 0.07050833 -0.051304214
-0.0059796297 0.17333949 0.25424773 -1.5117368 0.9642705 0.98184764 0.075170904 -0.26708907
-0.3821808 -0.2544447 -0.06920238 -1.0756661 0.08247732 -0.082657024 -0.8352003 -0.28995287
0.040689796 -0.47513813 0.07499055 0.2171943 -0.097967006 -0.18611696 0.613835 3.5931942
-0.037646145 -0.5917729 -0.16374634 0.09420911 0.9830872 -0.6887897 0.15720183 0.2871716
-0.55149865 -0.05758881 0.9544183 1.4215887 0.04160551 -0.050525136 1.6944814 -0.028716158
0.64831626 -0.13496308 0.7652562 0.4024226 0.08003012 -0.70987564 0.26000196 -0.3127899
0.045179628 0.07474082 -0.5166194 0.8272762 -0.40015805 -0.33460706 -0.13602409 -0.67639846
-0.6300761 -0.22298819 -0.21711653 0.038281996 0.9080403 -1.226319 -0.9909523 -0.4089279
-0.17689492 -0.08271209 -0.016224116 -0.8299921 -1.2404959 0.14080712 -0.8070914 -0.7572965
-0.9452184 0.9507635 -0.6970211 -0.26398525 -0.02036121 0.16942762 0.22583543 0.19307272
-0.0012880904 1.6547432 0.14307402 0.3538167 -0.86632204 0.34758967 -0.465119 -0.014548001
-0.10551146 -0.077244475 0.5064602 -0.072605796 0.6639642 -0.16854373 -0.28769112 0.0255674
0.90184164 0.036007006 -0.042736657 -1.5230113 2.4133456 -1.252589 -0.06711173 -0.5369479
-0.6405511 0.021379396 0.25961867 -0.026582506 0.3110263 0.17823553 -0.36097673 -0.71426624
0.3749904 -1.3426032 -0.019874496 -0.06613756 -0.40771917 -0.07661187 -0.119329564 -0.2213714
-0.8769599 -0.3829042 -1.1027669 0.8715735 0.1462179 -0.18725437 -0.63851327 -0.10929476
0.79037136 -0.7119214 0.041954186 0.025089407 -0.3892247 -0.81784934 -0.041491907 0.08324413
1.004376 0.4643284 0.26322347 0.04105931 0.515561 -0.049389396 -0.010086496 2.2219622
-0.050955497 0.4459233 0.3929005 0.0108442865 -0.1366041 0.61644405 -1.0272045 0.22849691
0.58612776 1.3209637 0.078736946 0.16783522 0.6298862 -0.5116935 -0.25205305 -0.17127931
-0.14094424 -0.3497585 0.8776595 -0.10622833 0.59675825 0.08110446 -0.46443912 0.9809367
-0.48204628 -0.4009336 -0.14324114 0.20132726 0.6200248 0.1625472 -0.5100189 -0.22175097
-0.78954107 0.046482574 1.4127206 0.5913498 0.24852377 0.740805 0.1460673 -1.975927
00000000: e9a9 94be 2141 843d bb74 493e 25e1 1dbe
00000010: 2b8e 163f 9862 063f edcf f73f fbcf 3cbe
00000020: b070 7e3c 221f e53d 4671 0abf d6f9 79be
00000030: b469 83bf 43ea 67bf b660 f93d e708 18be
00000040: 0845 503d 05ea 013f 2620 a63e c5ec cfbf
00000050: 5fa5 0f3c f2d6 b33f 179d 1a3f abfa 78bf
00000060: b2e6 c3be 5d5b d2bc 5053 70bf c39f e93e
00000070: 0594 bd3e 3724 0cbc 845f 06bf 78a9 3bbf
00000080: b00c 043e e1d0 b5bf f6b1 0d3f fd11 11bf
00000090: 3807 b43f 2889 19bf 0dc6 14c0 a1a8 e9be
000000a0: ab65 7fbf d3d4 6c3f f976 0dbe cbdb 553f
000000b0: fc43 3c3f 1b47 06bf 08ee 6b3f 374b bf3e
000000c0: b32f 023f c106 94bf 731e 083e 26af 8ebe
000000d0: fe2f bbbf 1812 1cbf 37f1 873f 512c 36bf
000000e0: 23d1 823f 6746 b0be babf dc3e e641 433f
000000f0: d624 ae3b 56a9 89be 8ff7 a43f c776 c9bf
00000100: 555c 5dc0 00b6 29bd c50e 4ebe c7bc 5cbf
00000110: 4522 803e 8dfe 89be ac66 903d 5e24 52bd
00000120: c5f0 c3bb e87f 313e c22c 823e 9780 c1bf
00000130: 6eda 763f 5e5a 7b3f 34f3 993d e6bf 88be
00000140: 34ad c3be 9346 82be fab9 8dbd 6daf 89bf
00000150: dfe9 a83d 1648 a9bd b0cf 55bf b474 94be
00000160: 58aa 263d 4e45 f3be a594 993d 2f68 5e3e
00000170: eda2 c8bd 7295 3ebe 4a24 1d3f e5f6 6540
00000180: d832 1abd 6e7e 17bf 1fad 27be b5f0 c03d
00000190: 9aab 7b3f 8654 30bf 84f9 203e 2808 933e
000001a0: 042f 0dbf 3ee2 6bbd c254 743f 9ef6 b53f
000001b0: 8a6a 2a3d 72f3 4ebd c4e4 d83f 263e ebbc
000001c0: 0ef8 253f c333 0abe d5e7 433f 560a ce3e
000001d0: d5e6 a33d 69ba 35bf fa1e 853e ff25 a0be
000001e0: 460e 393d b711 993d 2b41 04bf 5fc8 533f
000001f0: 84e1 ccbe 9e51 abbe e649 0bbe 7328 2dbf
00000200: ab4c 21bf 0457 64be cc53 5ebe 95cd 1c3d
00000210: 5475 683f 05f8 9cbf 0daf 7dbf ff5e d1be
00000220: f123 35be f564 a9bd 70e8 84bc 5d7a 54bf
00000230: 92c8 9ebf be2f 103e 8b9d 4ebf 2fde 41bf
00000240: d5f9 71bf 3d65 733f fa6f 32bf 1329 87be
00000250: 8dcc a6bc 6f7e 2d3e 6741 673e dbb4 453e
00000260: 24d5 a8ba a0ce d33f ff81 123e 7627 b53e
00000270: 48c7 5dbf 46f7 b13e 1424 eebe bd5a 6ebc
00000280: 6416 d8bd 5a32 9ebd 60a7 013f 59b2 94bd
00000290: 8ff9 293f ba96 2cbe 404c 93be b972 d13c
000002a0: 18df 663f 157c 133d a20c 2fbd 09f2 c2bf
000002b0: 4174 1a40 d654 a0bf e071 89bd 6b75 09bf
000002c0: 28fb 23bf d823 af3c bdec 843e 8ec3 d9bc
000002d0: d73e 9f3e 6083 363e f1d1 b8be 27da 36bf
000002e0: befe bf3e 6cda abbf d7cf a2bc 2173 87bd
000002f0: 91c0 d0be afe6 9cbd 0f63 f4bd 2faf 62be
00000300: 7280 60bf 050c c4be 7727 8dbf 711f 5f3f
00000310: 25ba 153e 9cbf 3fbe 9b75 23bf eed5 dfbd
00000320: c755 4a3f 7b40 36bf 27d8 2b3d 4d88 cd3c
00000330: 7648 c7be 935e 51bf 6bf3 29bd e67b aa3d
00000340: 658f 803f 74bc ed3e 3ac5 863e cf2d 283d
00000350: cefb 033f 894c 4abd d541 25bc a134 0e40
00000360: b6b6 50bd 0f50 e43e 412a c93e 3cac 313c
00000370: f2e1 0bbe 47cf 1d3f 707b 83bf 18fb 693e
00000380: 780c 163f 5715 a93f d640 a13d ffdc 2b3e
00000390: 3940 213f 58fe 02bf 190d 81be d863 2fbe
000003a0: b053 10be 8c13 b3be 4bae 603f 3d8e d9bd
000003b0: 26c5 183f 181a a63d f7ca edbe ab1e 7b3f
000003c0: c5ce f6be 2b47 cdbe cead 12be bc28 4e3e
000003d0: f2b9 1e3f c672 263e 9990 02bf b012 63be
000003e0: 5d1f 4abf 8364 3e3d 07d4 b43f b362 173f
000003f0: 047d 7e3e 65a5 3d3f ab92 153e 2deb fcbf

fc3.bias f4 [128]
-0.34650606 -1.0370569 -0.4697095 -0.79042333 -0.59239423 -0.0060757548 -0.76667213 -0.6959473
0.25442874 0.6385737 0.72835726 -1.009928 -1.0992624 -1.0336568 0.43622676 -0.5831657
-1.1129196 -0.619115 0.5800468 0.4947011 0.5436737 -0.568614 1.2650311 -0.8162141
-0.14206198 -0.8891094 -0.24290867 -0.62181574 -1.0262618 -0.51744545 -0.4938178 -0.1626825
-0.44019824 -0.3726439 -1.0251818 0.008269405 -0.51852214 -0.49082392 -0.18011719 -1.2104516
-0.7625445 -0.6708381 -0.5801961 -1.2289288 -0.45117036 -0.5793217 -1.119782 -0.75529253
0.94767916 -0.3463374 -0.95899206 -0.4530602 -0.6174685 -0.77256995 -1.0824614 -1.1916007
-0.93832093 -0.17116171 -0.08789716 -0.6818411 -0.30255562 -0.9422847 0.22965784 -0.51681405
-0.4833193 -0.94349366 -0.42857885 0.7042337 -1.15358 0.0027075359 0.7456681 -0.34012446
-0.6965268 -0.55364627 0.18350363 -0.23797871 -0.7248609 -0.5764221 -0.36693197 -0.90884614
-0.34766248 -0.59263986 -0.8305992 0.6499351 -0.7644446 -0.41932854 0.7442117 -0.3588801
-1.1470267 0.44161493 -0.13027577 -0.9608519 -0.5542453 0.6627337 -1.3673718 -0.749567
-0.099730626 -0.68789035 -1.1560549 -1.1050106 -0.8434942 -1.0596466 -0.38893777 0.51279193
-0.8380045 -0.011147494 -0.4354276 1.1126916 -1.065545 0.6348693 -0.26409653 -0.6715808
-0.4073855 0.5492587 -0.050696697 -0.9286771 -1.0099663 -0.86189336 0.6937578 0.22362772
0.33970112 0.934513 -0.22540858 0.55704767 -0.9316835 1.0942211 -1.0560977 -0.82631415
00000000: 3e69 b1be 48be 84bf c37d f0be 2f59 4abf
00000010: 26a7 17bf 2017 c7bb a044 44bf 9a29 32bf
00000020: 7c44 823e 9179 233f 9f75 3a3f 5245 81bf
00000030: a1b4 8cbf de4e 84bf 1d59 df3e 594a 15bf
00000040: 2674 8ebf 527e 1ebf f27d 143f 7649 fd3e
00000050: 332e 0b3f b090 11bf 8aec a13f 68f3 50bf
00000060: b278 11be ac9c 63bf 0dbd 78be 512f 1fbf
00000070: 8c5c 83bf 4e77 04bf b0d5 fcbe 3e96 26be
00000080: aa61 e1be 2ecb bebe 2839 83bf 667c 073c
00000090: debd 04bf 464d fbbe a470 38be 14f0 9abf
000000a0: 1e36 43bf 0cbc 2bbf bb87 14bf 8a4d 9dbf
000000b0: cdff e6be 6d4e 14bf 0455 8fbf da5a 41bf
000000c0: 1a9b 723f 2353 b1be 8180 75bf 82f7 e7be
000000d0: 6a12 1ebf 25c7 45bf 188e 8abf 5f86 98bf
000000e0: cd35 70bf 0445 2fbe 6d03 b4bd 238d 2ebf
000000f0: 92e8 9abe 9239 71bf 6d2b 6b3e ed4d 04bf
00000100: a175 f7be cd88 71bf b06e dbbe a948 343f
00000110: 82a8 93bf ea70 313b 1be4 3e3f cb24 aebe
00000120: 954f 32bf c3bb 0dbf 60e8 3b3e b1b0 73be
00000130: 7c90 39bf 6690 13bf 82de bbbe 24aa 68bf
00000140: d100 b2be 3fb7 17bf 26a2 54bf 2662 263f
00000150: a4b2 43bf 3bb2 d6be a884 3e3f 22bf b7be
00000160: c5d1 92bf 5a1b e23e 0367 05be 64fa 75bf
00000170: 05e3 0dbf eaa8 293f 0a06 afbf 9fe3 3fbf
00000180: 923f ccbd 9519 30bf 9bf9 93bf fd70 8dbf
00000190: 3cef 57bf 80a2 87bf da22 c7be 5546 033f
000001a0: 7787 56bf fba3 36bc 5ef0 debe ae6c 8e3f
000001b0: c763 88bf cb86 223f a937 87be b8ec 2bbf
000001c0: d594 d0be 389c 0c3f 57a7 4fbd c8bd 6dbf
000001d0: 9346 81bf 0ba5 5cbf 1c9a 313f aafe 643e
000001e0: 4eed ad3e 3e3c 6f3f 82d1 66be ad9a 0e3f
000001f0: cf82 6ebf 700f 8c3f 362e 87bf 5389 53bf

fc4.weight f4 [4, 128]
-0.064828016 0.08767105 -6.082427 -0.08654628 -0.24047813 -0.014209929 0.62595826 -0.12398235
0.005438948 1.1466701 1.0481013 0.46285787 0.13568617 0.33666617 0.97440577 1.354726
-0.10088546 1.2597697 1.1060822 1.1705958 0.9961594 0.676265 1.1665643 0.251024
0.9596486 1.1518264 0.44504225 -0.5092376 -0.07751307 1.4274167 0.6508188 1.3677831
-0.048162214 0.41031063 -0.17997175 1.0386996 0.4188339 1.0584782 0.34168655 0.47698256
-1.9122307 0.3662543 1.1671791 0.11410633 0.38145223 0.7004499 -0.13097596 1.0560557
0.93888146 0.3371034 -0.16098288 -1.7789502 0.77446055 0.6114367 1.0466071 -0.6251707
0.9779928 0.30403632 1.301994 -0.6958978 0.9306402 0.55223626 0.5346091 0.9941413
0.5258027 0.10229498 -2.9483101 1.1674516 0.46264827 2.1703904 1.1107532 0.68979794
0.58259946 0.59876275 0.8294145 1.04584 0.32726994 0.6151107 0.5765147 0.7098159
1.0045905 -0.8034726 0.808313 1.1129931 -0.032861076 -4.646874 1.0007573 0.49143156
0.13054688 1.095088 1.4185334 0.6894917 1.3518292 1.0957427 1.2682618 0.83875936
0.92012537 0.78636247 0.6142049 -0.054084145 0.4766893 0.12542419 0.38389167 1.2546414
0.31790718 -1.0272567 0.2557658 1.435309 0.3032414 1.1210203 1.162113 0.48469037
-2.843881 1.0238016 -0.40897307 0.4811527 0.6775162 0.9512084 1.1439619 1.5856655
1.2534747 1.121824 1.5424848 1.0779408 0.33360526 1.6515558 -0.2040021 0.62586427
0.5517024 0.16279997 -6.124674 -0.034837734 0.018949077 -0.059232645 0.6268565 -0.7333557
0.31431594 1.2793516 1.1513218 0.55211544 -0.18661377 -0.10695069 1.0897144 0.8789727
0.07739618 1.1716064 1.1207986 1.1492258 1.1177049 0.62974775 1.4025794 0.031408638
0.88983196 1.1739215 0.50328547 0.22703429 0.048346665 0.7079803 0.635086 1.3317984
0.17073111 0.5931139 0.28196725 0.9415405 0.7856424 1.007325 0.5295936 -0.1655863
-4.3336396 0.9430978 -0.39758462 0.14688274 0.533766 0.4794656 0.09293275 0.72257054
1.1114914 0.42179522 -0.008370778 0.5199186 0.3820091 0.44859332 1.0286651 -1.6342156
0.6071925 0.0075611444 1.0899475 -0.72483903 0.45361573 0.9602227 -0.16103938 0.52935106
0.56130713 0.49867177 -3.04117 1.106844 0.9130504 0.7133966 1.1539227 0.7569492
0.5546218 0.5120684 0.7682766 0.9271252 1.7245129 0.8565087 1.1027939 0.5137086
1.2848607 0.45385826 0.5463027 1.117446 0.8065363 -4.4534307 1.2231234 0.7778156
0.09384554 1.1757113 1.4548513 0.90380895 0.7226288 1.1056235 0.86908466 0.78357744
0.8539682 0.5291318 1.0768325 -1.0703691 0.7867491 0.029785462 0.7242642 1.3055296
0.80217683 -0.27058637 0.6471788 1.4002112 0.8891332 1.1239098 0.607847 1.4087282
-2.8065627 1.0969843 -0.2579098 0.99894506 0.5993336 1.2588327 1.1445694 1.7137324
0.7123393 1.1353428 0.84558326 1.1056696 0.595922 1.6997901 1.2418299 0.032550365
00000000: 8dc4 84bd e18c b33d 3ea3 c2c0 2d3f b1bd
00000010: e63f 76be c3d0 68bc cd3e 203f 75ea fdbd
00000020: 3439 b23b 16c6 923f 2f28 863f b5fb ec3e
00000030: 51f1 0a3e 825f ac3e a872 793f a967 ad3f
00000040: 099d cebd 2240 a13f 1a94 8d3f 15d6 953f
00000050: 4d04 7f3f b41f 2d3f fb51 953f 3886 803e
00000060: 88ab 753f 0c6f 933f 94dc e33e 655d 02bf
00000070: 2cbf 9ebd 97b5 b63f 109c 263f 8413 af3f
00000080: be45 45bd 3c14 d23e 844a 38be 1cf4 843f
00000090: 6671 d63e 377c 873f 8af1 ae3e 0f37 f43e
000000a0: fac3 f4bf af85 bb3e 2066 953f 94b0 e93d
000000b0: b54d c33e af50 333f 901e 06be d52c 873f
000000c0: 895a 703f d198 ac3e b2d8 24be a4b4 e3bf
000000d0: 0c43 463f 1e87 1c3f 39f7 853f 300b 20bf
000000e0: bc5d 7a3f a6aa 9b3e bda7 a63f 5c26 32bf
000000f0: 703e 6e3f 5b5f 0d3f 24dc 083f 0b80 7e3f
00000100: 019b 063f 0880 d13d 1db1 3cc0 0e6f 953f
00000110: 3ce0 ec3e ade7 0a40 292d 8e3f 9996 303f
00000120: 3d25 153f 8448 193f 8254 543f 16de 853f
00000130: ed8f a73e e577 1d3f 7896 133f 7fb6 353f
00000140: 6c96 803f 61b0 4dbf 9aed 4e3f 8f76 8e3f
00000150: 5699 06bd 31b3 94c0 d118 803f eb9c fb3e
00000160: 15ae 053e d82b 8c3f 8192 b53f 8782 303f
00000170: bd08 ad3f 4c41 8c3f 6756 a23f efb8 563f
00000180: 568d 6b3f 0d4f 493f 883c 1d3f 5687 5dbd
00000190: 9f10 f43e 336f 003e 738d c43e 1798 a03f
000001a0: bbc4 a23e 267d 83bf bcf3 823e 35b8 b73f
000001b0: 7542 9b3e 987d 8f3f 1ec0 943f 5629 f83e
000001c0: 2502 36c0 ee0b 833f eb64 d1be a659 f63e
000001d0: b471 2d3f 6582 733f 586d 923f 16f7 ca3f
000001e0: dc71 a03f ee97 8f3f 2470 c53f f7f9 893f
000001f0: 4fce aa3e 2e66 d33f ede5 50be a438 203f
00000200: 5e3c 0d3f 09b5 263e 54fd c3c0 03b2 0ebd
00000210: 183b 9b3c ee9d 72bd ab79 203f 33bd 3bbf
00000220: 05ee a03e cbc1 a33f 835e 933f 7057 0d3f
00000230: ae17 3fbe f708 dbbd c37b 8b3f 5b04 613f
00000240: e381 9e3d 33f7 953f 5476 8f3f d519 933f
00000250: f410 8f3f 2637 213f b987 b33f 58a6 003d
00000260: 07cc 633f 0f43 963f 51d7 003f ad7b 683e
00000270: 2707 463d 323e 353f ff94 223f 5f78 aa3f
00000280: 23d4 2e3e 50d6 173f 035e 903e cc08 713f
00000290: dc1f 493f 07f0 803f 7293 073f 748f 29be
000002a0: 2dad 8ac0 db6e 713f 3690 cbbe 6e68 163e
000002b0: e3a4 083f 847c f53e 8753 be3d 62fa 383f
000002c0: 5a45 8e3f 8bf5 d73e 9625 09bc 6319 053f
000002d0: b296 c33e 06ae e53e 4cab 833f fa2d d1bf
000002e0: f870 1b3f 7ac3 f73b 6683 8b3f 0d8f 39bf
000002f0: 5240 e83e 28d1 753f 82e7 24be 8d83 073f
00000300: d3b1 0f3f e851 ff3e 87a2 42c0 10ad 8d3f
00000310: acbd 693f 29a1 363f bdb3 933f 6cc7 413f
00000320: b2fb 0d3f ea16 033f c6ad 443f 1458 6d3f
00000330: d7bc dc3f 2744 5b3f 5a28 8d3f 6882 033f
00000340: 5176 a43f 1c60 e83e 7eda 0b3f 7808 8f3f
00000350: 2a79 4e3f 8182 8ec0 4f8f 9c3f ec1e 473f
00000360: 1732 c03d b57d 963f 9138 ba3f 0660 673f
00000370: 33fe 383f 1285 8d3f 557c 5e3f 8898 483f
00000380: a99d 5a3f 2f75 073f a6d5 893f db01 89bf
00000390: 6468 493f a400 f43c 6169 393f 981b a73f
000003a0: 765b 4d3f 4c8a 8abe 83ad 253f 1f3a b33f
000003b0: 3c9e 633f 47dc 8f3f dc9b 1b3f 3551 b43f
000003c0: b99e 33c0 fb69 8c3f c10c 84be ddba 7f3f
000003d0: ed6d 193f 6e21 a13f 4081 923f 955b db3f
000003e0: de5b 363f ea52 913f 2578 583f 9586 8d3f
000003f0: 588e 183f b992 d93f 48f4 9e3f 8853 053d

fc4.bias f4 [4]
1.2414706 1.1829193 1.1511236 1.1938742
00000000: 82e8 9e3f e669 973f 0558 933f dfd0 983f

ln1.weight f4 [256]
0.3756339 0.40807799 0.3932861 0.49627045 0.52201945 1.4009341 0.40081546 0.40993717
0.41900268 0.4651059 1.1648105 0.4023372 0.50669914 0.6584217 0.6343683 0.47844046
0.41773313 1.3514682 0.46550483 0.3080261 0.59288293 0.8394666 0.39728627 0.3759961
0.59322166 1.8149325 0.684405 1.0846763 0.44077715 0.46641105 0.4030103 0.4562289
0.4623648 0.72013724 0.25216097 0.43370765 0.29721314 0.37692636 0.4035962 0.45111015
0.39167762 0.6802086 0.3911303 0.4296326 0.25103658 0.8407949 0.36270005 0.44834515
0.46031025 0.43702075 0.20829746 0.37242526 0.5093409 0.3865842 1.1141735 0.38405895
0.6838476 0.2572793 0.30497506 0.3942212 0.7826351 0.36169475 1.8820071 1.4184344
0.45374987 0.5042584 1.7082176 0.6429575 0.35989794 0.3601745 0.38674223 0.5316521
0.58136845 0.37138486 0.2957351 0.5709885 0.4342947 0.49842384 0.80289984 0.4552869
0.788466 0.20082207 0.88965183 0.41763777 0.620004 0.38121262 0.75035447 0.10074126
0.5295175 0.30398345 0.42131224 1.0628434 0.525274 0.5688715 0.43205556 0.21841772
0.88095295 0.5992635 0.45726636 1.2577791 0.7372088 0.43634936 0.38151422 0.4265733
0.44492754 0.4310786 0.5764272 0.4377954 0.33741853 0.9195681 0.4578355 0.4603208
0.40326554 0.1559208 0.5543457 0.9191526 1.1554946 0.4177672 0.35162383 0.35933042
0.2673848 0.45746425 0.4901188 1.5037421 0.410195 0.41949654 0.41871133 0.96357495
0.30892175 0.44847456 0.24355716 0.3423526 0.46169153 0.37355363 0.402003 0.44025993
1.6081476 0.3628477 0.37452218 0.5011938 0.40729904 0.4218516 0.4435043 0.4723627
0.487309 0.5293961 0.20843878 1.1828421 0.45015776 0.19161385 0.48827922 0.32844412
0.44288442 0.26213896 0.39952627 0.35899812 0.16111065 0.8108047 0.41020542 0.46821815
0.4777366 0.73054767 1.0422146 0.4749303 0.43896 0.44113564 0.47295305 0.38278937
0.3849854 0.5671923 0.44926736 0.13926432 0.17315869 1.0800194 0.48241052 0.35980105
0.7763068 0.23988895 0.45672622 0.631194 0.32743895 0.26398864 0.583279 0.40243697
0.40914536 0.4144316 0.23050351 0.34653905 0.7500564 0.12794416 0.4123986 0.4119299
0.42901012 0.3947628 0.19453937 0.14836788 0.5116998 0.4254994 0.5210385 0.6033995
0.48597014 0.1641139 0.32696578 0.16469328 1.5547616 0.36592105 0.61170053 0.23227105
0.56762487 0.5477842 0.45951894 0.22239424 1.0970061 0.5868914 0.38493004 0.32507464
1.0311599 0.45490462 0.82097745 0.27312315 0.54154503 0.34052888 0.2485183 0.80125356
0.8815933 0.43212914 1.1057779 0.23483373 0.35498235 0.92864776 0.51400805 0.30000338
0.42091668 0.34244788 0.37312284 0.34964597 0.21974516 0.45755154 0.39988428 1.9480871
0.56251204 0.48343652 0.52091056 0.38193867 0.19575976 0.39244565 0.41089836 0.4303314
0.36923558 0.21522531 0.815697 0.25133705 0.4390005 0.48389864 0.53835374 0.35008997
00000000: 1653 c03e 99ef d03e cc5c c93e 2917 fe3e
00000010: 11a3 053f cf51 b33f af37 cd3e 49e3 d13e
00000020: 8587 d63e 5c22 ee3e 8318 953f 24ff cd3e
00000030: 09b7 013f 538e 283f f665 223f 26f6 f43e
00000040: 1ee1 d53e e9fc ac3f a656 ee3e 99b5 9d3e
00000050: 2dc7 173f 48e7 563f 1b69 cb3e 9082 c03e
00000060: 60dd 173f b54f e83f 2b35 2f3f acd6 8a3f
00000070: 8bad e13e 6ecd ee3e 5e57 ce3e d696 e93e
00000080: 14bb ec3e ea5a 383f 3e1b 813e ee0e de3e
00000090: 522c 983e 7efc c03e 29a4 ce3e e9f7 e63e
000000a0: f889 c83e 2722 2e3f 3b42 c83e cef8 db3e
000000b0: de87 803e 563e 573f d2b3 b93e 7f8d e53e
000000c0: c9ad eb3e 2fc1 df3e ee4b 553e 86ae be3e
000000d0: 2a64 023f 5dee c53e 3d9d 8e3f 60a3 c43e
000000e0: a310 2f3f 1dba 833e b125 9c3e 5cd7 c93e
000000f0: c65a 483f 0e30 b93e 9ce5 f03f 428f b53f
00000100: e751 e83e 1417 013f e0a6 da3f dd98 243f
00000110: 8b44 b83e cb68 b83e 1403 c63e 5a1a 083f
00000120: 90d4 143f 2826 be3e 976a 973e 4d2c 123f
00000130: e05b de3e 6931 ff3e d88a 4d3f 5d1b e93e
00000140: e8d8 493f 4da4 4d3e 39c0 633f 9ed4 d53e
00000150: 95b8 1e3f 4d2e c33e 3b17 403f 6f51 ce3d
00000160: 758e 073f b8a3 9b3e 3db6 d73e 410b 883f
00000170: 5b78 063f 90a1 113f 6336 dd3e e5a8 5f3e
00000180: 2286 613f 5569 193f d11e ea3e e8fe a03f
00000190: b7b9 3c3f 2f69 df3e d555 c33e d167 da3e
000001a0: 8bcd e33e 56b6 dc3e bc90 133f b826 e03e
000001b0: 1fc2 ac3e d168 6b3f 6a69 ea3e 2baf eb3e
000001c0: d278 ce3e b4a9 1f3e 9ae9 0d3f 964d 6b3f
000001d0: 3fe7 933f 95e5 d53e 0a08 b43e 28fa b73e
000001e0: a9e6 883e c138 ea3e daf0 fa3e 9f7a c03f
000001f0: 1405 d23e 40c8 d63e 5561 d63e d9ac 763f
00000200: fe2a 9e3e 759e e53e 0c67 793e d748 af3e
00000210: d562 ec3e 6c42 bf3e 56d3 cd3e c069 e13e
00000220: c8d7 cd3f 2cc7 b93e 5fc1 bf3e 3d4e 003f
00000230: 8089 d03e effc d73e ff12 e33e 86d9 f13e
00000240: 9180 f93e 8186 073f fa70 553e 5f67 973f
00000250: 147b e63e 6c36 443e bcff f93e d429 a83e
00000260: bfc1 e23e 1437 863e b58e cc3e 9ace b73e
00000270: 31fa 243e e690 4f3f 7206 d23e 4aba ef3e
00000280: e499 f43e 2c05 3b3f 4a67 853f 102a f33e
00000290: 5dbf e03e 88dc e13e e726 f23e f8fc c33e
000002a0: ce1c c53e 8433 113f 5f06 e63e 4e9b 0e3e
000002b0: 8350 313e 133e 8a3f 83fe f63e d837 b83e
000002c0: 0bbc 463f 73a5 753e 05d8 e93e ee95 213f
000002d0: 14a6 a73e 8529 873e c651 153f 380c ce3e
000002e0: 807b d13e 6130 d43e 1d09 6c3e 916d b13e
000002f0: b203 403f cb03 033e e925 d33e 7ae8 d23e
00000300: 37a7 db3e 5a1e ca3e 5435 473e c0ed 173e
00000310: c2fe 023f 0fdb d93e c762 053f 6478 1a3f
00000320: 14d1 f83e 790d 283e 0f68 a73e 5ba5 283e
00000330: 6e02 c73f 015a bb3e 6898 1c3f 76d8 6d3e
00000340: dd4f 113f 963b 0c3f 1146 eb3e 51bb 633e
00000350: b26a 8c3f 843e 163f 8d15 c53e 2f70 a63e
00000360: 0cfd 833f 42e9 e83e 942b 523f ccd6 8b3e
00000370: b2a2 0a3f cd59 ae3e 957b 7e3e f41e 4d3f
00000380: 19b0 613f 0840 dd3e 218a 8d3f 4178 703e
00000390: 3fc0 b53e dcbb 6d3f 0896 033f 0b9a 993e
000003a0: 6482 d73e 5455 af3e f509 bf3e cc04 b33e
000003b0: e004 613e 3244 ea3e a2bd cc3e eb5a f93f
000003c0: ca00 103f fe84 f73e 655a 053f 778d c33e
000003d0: 3f75 483e a3ee c83e 4561 d23e 6654 dc3e
000003e0: 720c bd3e 0664 5c3e 85d1 503f 40af 803e
000003f0: acc4 e03e 90c1 f73e 8dd1 093f fe3e b33e
