trained_models/checkpoint_ep6300.pth (torch, 416160 bytes, 14 tensors)

fc1.weight f4 [256, 8]
000000 7a f0 14 3e 63 b2 02 be ed 3b 24 3f 1c 99 01 3f
       0.1454486 -0.12763362 0.6415394 0.5062425
000010 83 ab 0e 3e 1d a4 01 bf 17 89 df be b3 5a a5 3d
       0.13932614 -0.5064104 -0.4365928 0.0807394
000020 15 83 53 3e 97 a1 0d be 89 fb 27 3f 1c 41 a1 3f
       0.20655473 -0.13831173 0.6561819 1.2597995
000030 89 fb a2 bc ac c0 bb be 25 57 ad be 76 d0 21 bd
       -0.019895332 -0.36670434 -0.33855549 -0.039505444
000040 d1 69 da 3d 28 8e 45 be 4b 02 82 3f 80 0c 82 3e
       0.10664714 -0.1929251 1.015695 0.25400162
000050 6d 01 fb 3c e6 3f e3 bd 5c d8 be be 79 57 94 bd
       0.030640328 -0.11096172 -0.37274444 -0.072432466
000060 ce b4 10 3e 23 c3 39 bd d4 a7 17 3f 6c 80 9b 3f
       0.14131472 -0.045352113 0.5924046 1.2148566
000070 1a 43 cc bc 74 e1 fb be 8f f3 b2 be 82 7e 22 bd
       -0.02493434 -0.49195445 -0.34951445 -0.03967143
000080 e2 fc 3e 3e 7c db 02 be 18 39 2c 3f c7 8d 21 3f
       0.18651155 -0.12779039 0.6727462 0.6310696
000090 a9 c6 a1 3c b1 6b f6 be 87 52 da be ec 54 35 3e
       0.019748049 -0.48129037 -0.42641088 0.17708176
0000a0 b9 78 95 3f 8d 5c 1b 3f 1e 2c 11 3f c7 92 12 3e
       1.1677467 0.60688096 0.5670794 0.14313804
0000b0 56 53 1e 3f c6 bb af bf e1 ab 0f 3f a1 5f 2f 3f
       0.6184591 -1.3729179 0.5612164 0.68505293
0000c0 b5 99 39 3e 6a 97 91 bd 97 26 59 3f d6 42 3b be
       0.18125041 -0.07108958 0.8482451 -0.18287215
0000d0 c1 a1 d1 3d 13 62 d2 be 15 44 f3 be 57 4a c6 bc
       0.1023593 -0.4109045 -0.4751288 -0.02420537
0000e0 4e 60 e2 3d 8c b1 c8 bc d0 f1 11 3f 2b 98 67 3f
       0.11053525 -0.024498723 0.570096 0.90466565
0000f0 c0 b2 2b 3c 7d b5 16 bf c3 4a c9 be f6 67 b2 3d
       0.010479629 -0.5887068 -0.3931485 0.08711235
000100 c0 6e f1 3e f1 f3 a1 bd a4 b3 9d 3e 55 2a 82 3d
       0.47154808 -0.07907856 0.30801117 0.063557304
000110 9d 02 7e bd 51 a1 e4 be 23 95 36 be 7d 5e a0 bd
       -0.06201421 -0.44654325 -0.17830329 -0.07830522
000120 18 fe 8d 3e 6b 92 2a bc d2 3a 18 3f 55 04 21 3f
       0.2773292 -0.010410885 0.5946475 0.62897235
000130 f6 dc 1b 3d 28 8f f0 be e1 ee c7 be 11 28 0e be
       0.03805252 -0.4698422 -0.39049438 -0.13882472
000140 45 a8 9c 3f f3 37 12 3f 8d e6 02 3e 83 1e 77 bd
       1.2238852 0.5711662 0.1278326 -0.060331833
000150 6e d0 15 3f 13 9e cc bf c2 48 21 3f c8 dc 03 3f
       0.58521163 -1.598574 0.63001645 0.5150876
000160 1a 41 55 3d 12 47 a5 3b 26 c0 14 3f e7 01 3e 3f
       0.05206404 0.0050438726 0.58105695 0.7422165
000170 4d 9a 28 bb 3e 99 0a bf ec e5 b4 be 9f 66 2f bd
       -0.0025726736 -0.5414008 -0.35331666 -0.042822476
000180 28 93 04 3e b5 8b d1 bd f9 95 58 3f 76 5d a9 3d
       0.1294676 -0.10231725 0.8460384 0.082697794
000190 de 75 41 3e 33 4d ce be 37 4a 0d bf 75 26 2c 3e
       0.18892619 -0.40293273 -0.5519137 0.16811545
0001a0 66 ce 8b 3d d1 4e 0b be 54 06 ec 3e be 70 cc be
       0.06826477 -0.13604285 0.46098578 -0.39929765
0001b0 3f ff 9a bd 62 9c 2f bf ca 87 8e bc 9a 99 d7 bd
       -0.075682156 -0.68597996 -0.017398734 -0.10527344
0001c0 73 35 33 be f4 e1 0f be bf c4 8c 3f 81 26 5b 3e
       -0.17500858 -0.14051038 1.0997542 0.21401407
0001d0 ab e5 3d be 19 9b 79 bd 15 23 23 be 27 66 0a be
       -0.18544643 -0.06093893 -0.15931351 -0.1351553
0001e0 d3 88 50 bd f5 4b 39 be 1b 14 a7 3e 73 3d c1 3f
       -0.050911736 -0.18095382 0.32632527 1.5096878
0001f0 5c e6 85 bd 48 27 42 bf 0c 8c 2b bd 26 8b 5a bd
       -0.06538078 -0.7584119 -0.041881606 -0.05335536
000200 80 d2 f9 3d 27 83 cf bd 7b 1c 55 3f d0 e3 2d 3f
       0.12198353 -0.10132437 0.8324658 0.6792574
000210 89 b9 d7 3b cd f7 80 be a4 06 ca be 00 09 19 3d
       0.006583397 -0.25189057 -0.3945819 0.0373621
000220 0e 37 7a 3f b2 11 84 3e c0 20 ae 3e 97 7a 81 3f
       0.97740257 0.2579475 0.3400936 1.0115536
000230 58 bd 9b 3e b0 60 f3 bf 42 9f b7 be de 6e b6 3e
       0.30417895 -1.9013882 -0.35863692 0.3563146
000240 d8 35 a5 3f 19 89 2d be f9 0e 28 3f 75 a3 09 bf
       1.2907057 -0.1694683 0.65647846 -0.5376504
000250 52 21 9d 3e 81 e9 02 bf 35 e7 68 bf 15 22 72 3e
       0.30689484 -0.5113755 -0.90977794 0.23645814
000260 31 5d b5 3e 90 c3 e9 bd de 4b 0e 3f 60 9d 6a 3e
       0.35422662 -0.11414254 0.55584514 0.22911596
000270 83 3e 1f bd c8 44 ba be ca d0 a6 be 8f 79 a2 3d
       -0.038877975 -0.363806 -0.32581168 0.07933342
000280 84 9b 2f 3d bf 0b 86 bd e5 78 60 3f b3 64 86 3f
       0.04287292 -0.06545209 0.8768447 1.0499481
000290 23 e9 fe 3c b6 dc b5 be a9 eb ea be a9 0f e3 bc
       0.031117028 -0.35519952 -0.4588292 -0.027717428
0002a0 ae bb f2 3d d3 00 d9 bd fc f2 35 3f 33 11 76 3f
       0.11852203 -0.1059586 0.7107389 0.96119994
0002b0 27 b9 d8 bd 28 8a a4 be 16 c8 85 be bd e2 0c bd
       -0.1058219 -0.32136655 -0.26129216 -0.034395922
0002c0 9d ee fa 3d f2 61 12 be 64 4f 3b 3f 76 c2 8c 3f
       0.12252543 -0.14295176 0.73168015 1.0996845
0002d0 7e 86 04 3e d7 3a f0 be b2 9a fd be 10 3c 09 3e
       0.1294193 -0.4691989 -0.49532086 0.13401818
0002e0 71 07 fa 3c e4 06 45 ba dd d1 12 3f 1d ed aa 3f
       0.030521126 -0.00075159804 0.57351476 1.3353611
0002f0 84 41 e8 3c 2a fc 1a bf a4 81 cc be 89 59 c2 bb
       0.028351553 -0.6054102 -0.39942658 -0.0059310836
000300 45 2e 12 3f 6a 62 03 3d 2f 8b 3a bf 3d 47 5b 3f
       0.5710185 0.032076277 -0.7286863 0.85655576
000310 9c 80 59 3b 55 54 1f bf 1b df 1d be 63 03 e2 3c
       0.003318823 -0.62238055 -0.15417139 0.027589506
000320 74 00 e9 be 0c 35 84 be f6 88 d3 bf d8 02 e4 be
       -0.45508158 -0.25821722 -1.6526172 -0.4453342
000330 bd 57 c6 be e0 a3 c9 3f c8 66 b3 3e 5b d0 e4 be
       -0.38738814 1.5753136 0.35039353 -0.44690213
000340 2d 37 93 bd a5 35 7e be 15 83 4f 3f 2d c1 9e be
       -0.07188258 -0.24825151 0.8105939 -0.31006756
000350 4d 4b 51 be 43 5c ef be 5b 38 cb 3d 98 0e 49 be
       -0.20438881 -0.46750078 0.09922858 -0.19634473
000360 85 ce f5 3e 3a 22 34 be b4 48 3b bf d1 8a 1e 3f
       0.48009124 -0.17591181 -0.7315781 0.6193057
000370 7b 6a 13 be e5 2b 4f bf e2 46 a4 3e d4 f9 f6 bd
       -0.14396088 -0.8092635 0.3208533 -0.1205937
000380 e5 52 3a 3d 42 2e ef bd 39 1f 2d 3f ea aa 5b 3f
       0.04548921 -0.11678745 0.67625767 0.8580767
000390 04 19 d6 3d e4 e9 08 bf 3d fb e2 be 48 cc ee 3d
       0.1045399 -0.5348189 -0.44332305 0.11660057
0003a0 4e 2a 3a 3e 85 50 98 bd 31 3e 3a 3f 10 aa 3c 3f
       0.181802 -0.07437233 0.72751147 0.73696995
0003b0 df c7 1c 3d 69 c4 cf be 22 56 e1 be 94 02 21 3d
       0.03827655 -0.40579537 -0.44011027 0.0393091
0003c0 da 1c 58 3e a7 81 87 bd 17 c1 40 3f eb 6c 22 3f
       0.21104756 -0.06616526 0.7529463 0.63447446
0003d0 b0 c2 b1 bc cf 46 c9 be 93 e2 f5 be 01 f4 0d 3e
       -0.02169928 -0.39311835 -0.48024425 0.13862611
0003e0 13 04 4e 3e e4 b5 6d bd 02 47 07 3f 36 81 4b 3f
       0.20118742 -0.058034793 0.52842724 0.79494035
0003f0 f7 25 3a 3c 33 0e 13 bf ac 32 be be a2 c2 b6 3d
       0.011361591 -0.5744354 -0.37148035 0.08923842

fc1.bias f4 [256]
000000 1e ca 4f 3d 1d 9d a1 b9 75 76 88 bc fa ee 50 bb
       0.050729863 -0.00030825372 -0.016658047 -0.0031880722
000010 c8 50 a1 3d e1 5c 23 3f 88 77 87 3d 52 2a be 3c
       0.07876736 0.63813597 0.06614596 0.02321354
000020 b3 67 4a bd 91 77 5d 3a a2 85 11 3f 46 bf 5f 3c
       -0.0494153 0.0008448298 0.5684453 0.013656443
000030 40 7c 68 3d 2a f6 eb bd 18 f0 41 be bc 75 c2 bd
       0.05675912 -0.115215614 -0.18939245 -0.09495112
000040 5f 40 b0 bc 94 74 cc 3e 58 33 82 3e 8a b8 0a 3d
       -0.02151507 0.39932692 0.25429797 0.033867396
000050 76 a7 db 3b c7 7a 2c bd a7 20 3d 3d e0 6f 01 3c
       0.0067033125 -0.042109277 0.046173718 0.007900208
000060 4a 60 b2 3c 17 54 b5 be 51 11 65 be 12 27 07 be
       0.02177443 -0.35415718 -0.22369887 -0.13198498
000070 95 b8 64 3d 3f de f1 3c 13 4c c3 3d 32 16 bc 3c
       0.055840094 0.02952492 0.095359944 0.022959802
000080 4a 5e 34 3c ca b0 19 bc e8 52 09 3d ae 42 1b bd
       0.011008808 -0.009380529 0.03352633 -0.037905388
000090 5e 29 20 3e 01 85 9e 3d 1d 82 38 3d ba ff 6a 3c
       0.1564078 0.07740212 0.04504596 0.0143431965
0000a0 66 18 9a 3d 37 8f 3d bd 26 48 71 3c 45 e8 6d 3c
       0.07524185 -0.04627916 0.014726674 0.014520709
0000b0 10 74 a6 bd 0d 1f 65 be 57 08 c7 3d b4 46 47 3d
       -0.08127606 -0.22375126 0.097183876 0.048651412
0000c0 dd ff a0 bc f3 2e b6 bc 2a 11 a1 3d d8 91 04 3d
       -0.019653255 -0.022239184 0.07864602 0.03236565
0000d0 64 f9 33 be ab 99 1f 3d 39 5e a8 3e 7d 31 85 3c
       -0.17575604 0.03896491 0.32884386 0.01625895
0000e0 1d 5f 35 3b 02 74 a8 bc a9 aa 78 3c 56 07 d3 3c
       0.00276751 -0.02056313 0.015177407 0.025760334
0000f0 26 9b 40 3d b3 c6 c7 3e 97 87 00 3f ae 0a 23 3c
       0.04702296 0.39018783 0.50206894 0.009951277
000100 1f 48 6f 3c d0 a0 e0 bd 4b fe 03 bd 0a 7d ff bc
       0.014604597 -0.109681726 -0.032224935 -0.031187553
000110 97 94 ce bc 24 0f 08 3d f4 a1 06 3d e7 35 be 3d
       -0.025217338 0.033217564 0.032869294 0.09287625
000120 45 3f 6d be 4e 4a 0f 3e f7 1a 41 3d 08 7b 77 3d
       -0.23168667 0.13993189 0.047144856 0.060420066
000130 15 5f 0a 3b 6d 32 a2 3c 0e 29 85 bd d5 22 42 3d
       0.0021113802 0.019799436 -0.06501971 0.0473965
000140 4d 79 30 be d0 82 6d 3d 0b 12 1b 3d 9c f1 2a 3d
       -0.17233773 0.05798608 0.037859004 0.041734323
000150 45 d9 85 be c3 65 67 3d a4 cb 64 be bc fd 35 b8
       -0.26142326 0.056493532 -0.22343308 -4.339007e-05
000160 5a b8 2b 3d e2 05 06 3d a8 66 c0 3c 56 9d 36 be
       0.04192386 0.032720454 0.02348645 -0.17833456
000170 e9 35 b6 3c 8d fb 11 3d 61 98 18 3c a0 3c 7a 3e
       0.022242503 0.03564029 0.009313674 0.24437189
000180 69 89 92 bd e0 3b 44 bd 12 ce 1c bc 28 04 51 be
       -0.07155115 -0.047908664 -0.009570615 -0.20411742
000190 5c 3e 40 bc fd df e9 bc 1a 4e b7 bc 48 68 68 3d
       -0.011733618 -0.028549189 -0.022376109 0.056740075
0001a0 9b c5 0d 3d 0f 32 47 3d 3b 45 af 3c 1e cc 73 3d
       0.03461228 0.048631724 0.021395316 0.059520833
0001b0 c0 2e 23 3d b4 0a 83 bd 61 e9 5c bc e0 3f 6f 3d
       0.039839506 -0.06398526 -0.013483376 0.058410525
0001c0 86 a9 8e 3c fd 35 98 3b f4 89 16 bd 66 3c 02 3f
       0.01741482 0.004645108 -0.036752656 0.5087341
0001d0 9b 3c 6b 3b 68 cd bb 3d e6 0f c5 3d 66 5f bf bd
       0.0035894278 0.091700375 0.09622173 -0.09344368
0001e0 b0 ed 65 3d bd 79 8c 3d 32 5c 24 3d 1b d5 c9 3e
       0.05613488 0.06859157 0.040126987 0.394204
0001f0 1c 81 c8 3d 2f a9 e8 3b 6d 98 8c 3c 57 16 60 be
       0.09790251 0.0071002464 0.017162526 -0.21883522
000200 19 d1 ef 3d dc 83 6d 3d 2b c8 af 3d a1 3d a7 bd
       0.11709804 0.05798708 0.08583101 -0.08166052
000210 62 7c a6 bd cb 98 9c 3d 06 13 aa 3d 67 59 90 3d
       -0.08129193 0.076463304 0.0830441 0.07048302
000220 ce 3e 71 be 39 af 3d bd 70 49 32 be 4d e4 94 bd
       -0.23559114 -0.046309683 -0.17410827 -0.072701074
000230 26 cf ab 3c 8f bc 13 3c 3b 7d 6c b8 33 a9 f2 3c
       0.0209728 0.009017124 -5.6383415e-05 0.029621696
000240 be 3d ce bb c1 42 64 39 89 be 48 3c d1 d7 92 bc
       -0.0062939813 0.00021768642 0.012252458 -0.017925175
000250 69 43 26 3d ea f7 69 bb 54 58 f3 3c e7 53 92 bc
       0.04059163 -0.0035700747 0.029705204 -0.017862273
000260 db 9a 80 3d db 61 97 3d 42 70 7f 3d 72 bc 4a 3d
       0.06279536 0.07391711 0.062362917 0.04949612
000270 01 7f d2 bb f6 52 46 be e7 07 ec 3c 33 08 8f 3c
       -0.0064238315 -0.19367585 0.028812362 0.017459964
000280 e7 ae 93 3d ab 7d e1 ba 7b 16 f9 bd 9c b4 6b 3c
       0.07211094 -0.001720359 -0.12162491 0.014386322
000290 0c b6 c9 bd a3 b7 79 3d ea a7 ff bb bb 56 77 3d
       -0.09849176 0.060966145 -0.0078019993 0.060385447
0002a0 a5 62 20 3d 93 dd b8 bd 6f 69 e8 3a 0d bc 0e bc
       0.039156575 -0.09026637 0.0017731617 -0.008711827
0002b0 2a 68 2b be e8 29 d2 bd e7 52 36 be af dc 51 3d
       -0.16738954 -0.10261899 -0.17805062 0.05123585
0002c0 cd c1 38 bd 83 2a 1b bd f8 6f 92 bd 6a 7b a6 bd
       -0.045106698 -0.03788234 -0.071502626 -0.08129008
0002d0 6e 21 05 3d 8a 9d 55 3d 05 bc fe bc ec b5 f7 bc
       0.032502584 0.052152194 -0.031095514 -0.030238114
0002e0 f5 0f 7a 3d 2f c6 36 3d 89 54 6f 3e e8 69 8d 3c
       0.061050374 0.044622596 0.23372091 0.017262414
0002f0 2d fe 5b bd a7 15 1c 3d 56 61 50 3d e5 86 02 3d
       -0.053709198 0.038106587 0.050874077 0.031866927
000300 81 26 c8 bc e1 f5 4a 3d 94 16 f1 bc 4f eb f5 3b
       -0.024432423 0.049550895 -0.029429711 0.0075048576
000310 8c 93 01 3d 5b f6 2f 3d 73 17 50 be 10 a4 88 bd
       0.031634852 0.042959552 -0.20321445 -0.066719174
000320 0c a0 9e 3d 0f 94 3d 3d d8 be bd bc 73 8a 8c 3c
       0.0774537 0.046283778 -0.02316229 0.017155861
000330 b1 2e 1d be 79 19 09 3d df 52 12 be 4b d8 37 3e
       -0.15349843 0.03347156 -0.14289425 0.17953603
000340 ea c3 ed bc d1 bb d8 34 79 89 9f 3c 87 c2 b7 3d
       -0.029024083 4.036979e-07 0.019474732 0.0897265
000350 97 9f bf be bb b9 46 bd 05 1e 09 3d e2 84 a1 3d
       -0.37426445 -0.04851697 0.033475894 0.078866735
000360 0b a9 25 bd 4e 24 08 be 50 c2 54 be 68 f2 0d bc
       -0.040444415 -0.13295099 -0.2077725 -0.008663751
000370 f5 85 f9 bc d6 79 e3 3c d1 99 b6 bd 1b 73 5a bd
       -0.030459384 0.027768057 -0.08916057 -0.05333243
000380 71 e8 0f 3c a8 6c cb 3c fb 81 ec bd 1f 0e e7 3c
       0.008783446 0.024832085 -0.11548229 0.028204976
000390 13 10 59 3d ed c0 3c be f2 b4 e3 3c 8c a6 77 3d
       0.052993845 -0.1843297 0.027796242 0.060461566
0003a0 1d ca 27 3d f1 c2 34 3e 51 09 a7 3d 95 4d a5 bb
       0.040964235 0.17652489 0.08156074 -0.005044649
0003b0 d7 f7 e8 3c 73 e6 3c 3d 8b ec 8d 3d 61 21 83 be
       0.028438492 0.04611821 0.069298826 -0.25611404
0003c0 6c f5 9f 3c d9 8b db bc 59 d7 02 3c 5c 26 b5 3c
       0.019526206 -0.026800083 0.007985913 0.022113018
0003d0 b0 81 20 3c ff f9 3f 3d 85 02 8c 3d a2 96 06 3d
       0.009796545 0.046869274 0.06836418 0.0328585
0003e0 a6 3d 5d bd 6e 5d 19 be 26 02 67 be 2b 2a 7d bd
       -0.05401387 -0.14977047 -0.22559413 -0.061807793
0003f0 84 39 25 3d ae f4 14 bd 95 54 b4 3d 50 97 ca 3c
       0.040338054 -0.036366157 0.08805195 0.024730355

fc2.weight f4 [256, 256]
000000 e7 46 b2 bd 96 64 10 bc eb b1 41 3c c8 f8 23 3d
       -0.0870493 -0.008813044 0.011822204 0.04003218
000010 36 0e eb b8 45 0a 61 bf 58 59 bf be a2 71 34 3e
       -0.0001120832 -0.87906295 -0.3737285 0.17621472
000020 a4 83 48 3d ec 66 56 3e 58 28 43 bf f7 5e 39 3e
       0.048953667 0.20937699 -0.76233435 0.18102632
000030 fd 6e 79 3d 1d 64 d0 3e 26 ad 6f 3f 7b 40 9a 3e
       0.060896862 0.4070138 0.9362358 0.3012732
000040 7f e8 30 bc 7b 46 8b 3e 30 ee 32 3f 46 c2 07 bd
       -0.010797619 0.2720221 0.69894695 -0.033144258
000050 52 59 0f 3e 02 90 31 3f 07 25 80 3e 68 6f 76 3e
       0.13998917 0.69360363 0.2502825 0.24065936
000060 ac 91 69 3e 6e 08 90 be 38 0c de be 36 53 ea 3d
       0.22809476 -0.2813143 -0.43368697 0.114416525
000070 df 12 80 3c ed f7 3e 3d f1 22 c6 3d d6 3a 29 bd
       0.015633998 0.04662316 0.09674633 -0.041315876
000080 98 24 ab bd fc f7 92 bc f3 65 3b bd 6f 6f 1c 3b
       -0.08356589 -0.017940514 -0.045751523 0.002387013
000090 b9 05 28 3f fc 7c 8a 3e 7e b1 94 3e ba f8 f7 3d
       0.6563373 0.2704848 0.29041666 0.12107988
0000a0 79 a0 c4 3d 9f 41 ee bd 7e 95 c5 3e 06 39 17 3e
       0.0960092 -0.1163361 0.38590616 0.14767846
0000b0 66 24 0f 3f 4f 3d e4 3e 66 47 31 3c 12 7d 6f 3d
       0.55914915 0.44578025 0.010820245 0.058468886
0000c0 69 e2 4e bd 9f 82 a0 bd 87 2a e0 3d e3 18 99 3e
       -0.05050889 -0.07837414 0.109456114 0.299018
0000d0 fc 34 5b 3e c7 82 f0 3d 5c d0 a5 3c 77 ff 44 bd
       0.2140693 0.11743694 0.020240955 -0.048095193
0000e0 e9 c9 82 bd 8a 55 ac 3d 11 4f 38 3e 68 df ff bc
       -0.063861676 0.08414753 0.17998911 -0.031234458
0000f0 8b a5 1b 3f ea 15 a5 3d 24 c3 b9 3e 80 f9 35 3f
       0.60799474 0.080608204 0.36281693 0.7108383
000100 32 df 3b bb 3c c8 9f 3e 4c 01 64 3f bd 25 f8 3d
       -0.002866697 0.31207454 0.8906448 0.12116573
000110 c9 ac 5c be f9 22 77 3d 9d 08 52 3e 9c b4 81 3e
       -0.21550287 0.060336087 0.20511098 0.25333107
000120 17 43 2d bb 57 3b 7b 3f 16 60 75 3c e4 cd e8 3e
       -0.0026437694 0.9813742 0.014976522 0.45469582
000130 f3 58 0e 3d fa 7c 3a 3e 5b 02 59 3e e9 39 8f bd
       0.034752797 0.18211737 0.21192305 -0.06993467
000140 4c 73 1e bf 88 45 21 bc b1 3c a6 3f 34 5c a9 3e
       -0.6189468 -0.009843238 1.2987272 0.33078158
000150 17 5c 9f be 02 c9 79 3e 3e d3 b8 3e 90 3b 18 3e
       -0.31124946 0.24393085 0.36098665 0.14866471
000160 eb a7 97 bc 1f c8 22 3e 6a 4d 05 3e 2c 97 37 3f
       -0.018512687 0.15896653 0.13017812 0.71715045
000170 04 42 7b bc 6e 99 dc 3d fc 87 4c 3e cd 94 83 3e
       -0.015335564 0.10771452 0.19973749 0.25699463
000180 98 0f 83 3e 25 13 68 be be 1f da 3e 4d 67 e1 3a
       0.25597835 -0.22663553 0.42602342 0.0017196924
000190 5b fa 25 3f c6 ce 8c 3e 10 96 e4 bd 0a 86 33 3f
       0.6483514 0.27501506 -0.11161435 0.701264
0001a0 46 94 b6 3d 47 95 a1 3d 99 28 86 3e 6a 72 bd 3d
       0.08915 0.078898005 0.2620285 0.092503384
0001b0 b3 d4 42 be 19 8e 51 be bb 20 2e be c7 5d 31 3e
       -0.19026451 -0.20464362 -0.17004673 0.1732093
0001c0 70 59 0c 3e 78 70 18 be 94 51 9e 3d 69 81 5b bf
       0.13705993 -0.14886653 0.077304035 -0.8574434
0001d0 d4 bd 22 3f 77 3f 3d 3f e1 1d 76 3e 47 c2 6c be
       0.63570905 0.73924965 0.24034835 -0.23120986
0001e0 f3 0e 0b 3e 97 f8 83 3d 69 17 9e 3c 0c 1d 1c 40
       0.13579921 0.06443899 0.019298272 2.4392729
0001f0 7a b8 f1 3d 9a 0a 13 be b6 75 6b be 27 02 75 b7
       0.11802764 -0.14359513 -0.22994122 -1.4603639e-05
000200 ed 6a 2d 3f e4 97 e2 bc 18 98 1d 3f 50 e4 ad bc
       0.6774128 -0.027660318 0.615602 -0.021227032
000210 66 11 17 3f 0a 04 1a 3e b3 c7 c7 3d 03 a9 3c bd
       0.5901092 0.15040603 0.097548865 -0.04605962
000220 21 19 e8 3f 44 3c c8 3e f9 68 54 3e 3e 5a 10 3e
       1.8132669 0.3910848 0.20743169 0.14096925
000230 90 8a 02 bd 7a 44 1b bd f6 c6 86 3d c8 00 0c 3e
       -0.031870425 -0.0379071 0.065809175 0.13672173
000240 d3 6b f6 3d 20 a6 27 3d 92 bd c3 bd 0d b5 21 bf
       0.120322846 0.040929914 -0.09557642 -0.63166887
000250 be ca 07 3e dd 86 db 3d 0b f8 81 3d 49 52 ff 3d
       0.13260934 0.107190825 0.063461386 0.124668665
000260 60 ea 09 3e 9b fd 4d be b0 51 30 3d 05 26 06 3d
       0.13468313 -0.20116274 0.043046653 0.032751102
000270 d6 f9 67 3c 42 c6 99 bd eb df 49 3e 0c 68 80 3e
       0.014158687 -0.07508518 0.19714324 0.2507938
000280 3e a6 b9 3d bd 10 be 3e 44 b2 d2 3e 03 2e 9a 3d
       0.09064911 0.37122145 0.4115163 0.07528307
000290 b8 01 8b 3e 7f 22 0c 3d 6b b1 8a 3d 22 a4 33 3e
       0.2714975 0.034212586 0.06772121 0.1754308
0002a0 7a ed 49 3e 8b 02 da 3e 02 d4 38 be c0 06 9b 3d
       0.19719496 0.42580065 -0.18049625 0.07569647
0002b0 21 16 05 3f 43 30 06 3f 49 5a e7 3e 53 23 19 3e
       0.5198689 0.5241739 0.4518607 0.14954881
0002c0 2c 16 05 3e 3f 10 14 3d 08 b3 1f 3e dc 4f b9 3e
       0.12996739 0.036148306 0.15595639 0.3619374
0002d0 9d 44 99 3d 85 a2 d2 bd 9b d9 02 3f 79 fc da bc
       0.0748379 -0.102849044 0.5111329 -0.026731716
0002e0 15 88 eb bd 95 e5 b1 bd 4b e0 1c 3f 01 12 80 3e
       -0.11500565 -0.086863674 0.61279744 0.25013736
0002f0 6e 3c 97 3a fd 49 15 bd 98 08 ac 3d 64 11 81 3d
       0.0011538395 -0.036447514 0.08400077 0.06302145
000300 67 a4 41 3e 67 c1 f8 3d ec 58 4c 3d 26 2a 2f 3d
       0.18910371 0.121462636 0.04988949 0.042764805
000310 3d a6 c0 3e 67 d0 2b 3e 84 36 c8 be 17 fd c8 3e
       0.3762683 0.16778718 -0.39104092 0.39255592
000320 53 19 4b 3e fe 43 28 3d f1 26 71 bd ab 5b 99 3d
       0.19833879 0.041080467 -0.058875028 0.074881874
000330 be 1b dc 3e 72 92 de 3e ed 25 ef 3d 5f b1 e0 3e
       0.42989916 0.43471104 0.11677156 0.43885323
000340 eb 72 d8 3d 3f 7f 3d 3d 17 cd a8 3d 3a 10 62 3e
       0.10568794 0.04626393 0.08242243 0.22076502
000350 7f 74 6f 3f 42 9a 04 3f 21 9f ac bd 71 b9 a6 3e
       0.93537134 0.5179788 -0.08428789 0.32563356
000360 af aa f7 3b 07 9b 0c 3e ab e2 b6 3f 74 e2 fc 3e
       0.007558189 0.13731013 1.4287924 0.4939152
000370 98 62 21 3f cd 74 5c 3e 9a 0c ba 3e 9a e5 9b 3e
       0.6304107 0.21528931 0.3633774 0.3044861
000380 d9 92 b0 3e 79 05 83 bd 9c c0 b7 be c7 e9 f4 bd
       0.34487036 -0.06397528 -0.35889137 -0.11958652
000390 f7 ae 48 3f b7 40 ce bd 1f 8b 96 3d b1 fa 3c 3d
       0.78391975 -0.10070937 0.07350754 0.046137515
0003a0 1d 61 49 3e 3a 56 82 3f 47 d6 ba 3d 08 2e 26 3f
       0.19665952 1.0182564 0.091229014 0.6491399
0003b0 2e 95 a6 3d ce 39 b8 3c b3 d9 50 bd ec 1c e5 bd
       0.081339225 0.0224885 -0.050988864 -0.11187157
0003c0 24 0b ba 3e e3 41 58 3d 44 bc 84 3e 0c 2f e9 bc
       0.36336625 0.05279721 0.25924885 -0.028464817
0003d0 cb 4f e1 3e c7 7a db 3d 5f c5 89 3e 60 7b 3b 3c
       0.4400619 0.10716777 0.26908395 0.011442989
0003e0 86 c5 c4 3d ac b7 dd 3e 47 c1 96 3f b8 39 ec 3d
       0.09607987 0.43304193 1.1777734 0.115344465
0003f0 2b 55 17 be 16 58 11 bd e4 0b f1 3d f1 e4 62 3d
       -0.14778583 -0.035484396 0.11769846 0.055394117

fc2.bias f4 [256]
000000 98 e6 00 bf 0d dd 13 bf e0 e3 0e bf ca 11 47 bf
       -0.5035186 -0.5775917 -0.5581646 -0.7776152
000010 9f f6 96 bf da 15 93 bf 5e 2e 44 bf 6b 94 4c 3d
       -1.1794013 -1.1491044 -0.7663325 0.04994623
000020 5b b6 08 bf a0 0e 21 bf 86 1b 00 3f 9f 48 f8 3e
       -0.5340325 -0.6291294 0.50042 0.48492905
000030 f2 db 5e 3f 1d c8 3f 3f 1f 39 22 bf 85 7d 27 bf
       0.8705436 0.74914724 -0.6336841 -0.654259
000040 d6 9e ca be 6e a6 4d be e3 3b 1e bf ec 25 ff bc
       -0.39574307 -0.20083019 -0.6181013 -0.031146012
000050 6e fe 7e bf e9 3f c3 be e5 2f 1e bf 9d 6c 39 3f
       -0.9960698 -0.38134697 -0.6179183 0.72431356
000060 f0 ad ae 3e 24 86 0a bf be 0c c1 3f 0b 2f 61 be
       0.3411708 -0.5411093 1.5082014 -0.21990602
000070 9d 66 ac be 29 d0 46 bf 50 a6 20 3f a3 7f 8d 3e
       -0.33672038 -0.7766138 0.6275377 0.27636442
000080 e4 e3 fa be c0 5d 15 3f 36 60 f6 be 89 73 bb 3e
       -0.49001992 0.58346176 -0.48120278 0.36611584
000090 05 d9 8b be b4 fc 8f 3e 7f 04 21 be 3e dc c0 be
       -0.2731401 0.28122485 -0.15724371 -0.3766803
0000a0 f5 cd 1a 3e 1e 90 0b bf 52 21 1c bf 87 f1 64 be
       0.15117629 -0.5451678 -0.6098834 -0.2235776
0000b0 6d af 92 be ff 7a 53 3e e0 23 ef be 63 b1 54 bf
       -0.28649464 0.20652388 -0.46707058 -0.8308317
0000c0 83 b5 eb be bc 0b bb 3d 28 e9 a4 be 99 8c 3a 3e
       -0.4603692 0.091330975 -0.32209134 0.18217696
0000d0 0c 18 16 3f 7b b2 3b bf cb 84 07 3f b8 e0 56 3f
       0.5863044 -0.73319215 0.52937 0.83936644
0000e0 3e 9e ae be 96 67 32 bf 3e 73 fd be e0 49 ad be
       -0.34105104 -0.6968931 -0.49501985 -0.33845425
0000f0 ad 20 ee be 26 b2 01 bf 11 7c cc be 28 59 0b be
       -0.46509305 -0.5066246 -0.39938405 -0.13608229
000100 de c6 9e be d7 4e a0 be c1 c1 07 bf af c2 b4 bf
       -0.310111 -0.3131015 -0.5303002 -1.4121913
000110 c2 7e f3 be 86 16 0f bf bd 65 2b bf 0d 7e fb be
       -0.47557646 -0.55893743 -0.66952115 -0.49119607
000120 a2 d0 a8 be 05 f3 03 bf c5 ce 45 bf 99 9e bb bd
       -0.32971674 -0.51542693 -0.7726863 -0.091611095
000130 9a 05 8a be ef 2e ad be 21 f6 de be ba 71 a7 3e
       -0.269574 -0.3382487 -0.43547156 0.32703954
000140 fe 21 2d 3f 03 78 08 bf 55 5c 14 bf 6e bb aa 3e
       0.6762999 -0.53308123 -0.5795339 0.33346123
000150 3f e0 1c be 09 ea 02 bf 44 cc ce 3e c4 05 0f bf
       -0.15319918 -0.5113836 0.40390217 -0.5586817
000160 88 83 0a bf 6e b9 17 bf eb 5a 64 be 3e fc c1 be
       -0.5410695 -0.5926732 -0.22300307 -0.37887758
000170 20 83 f8 be 12 f8 06 bf 0e 2c b2 bd 3f 05 2c bf
       -0.4853754 -0.52722275 -0.08699809 -0.67195505
000180 06 ad 1b bf 17 cb e6 be 75 80 18 bf 48 c6 a4 3e
       -0.6081089 -0.4507682 -0.5957101 0.32182527
000190 0c 15 1a 3e 66 62 d0 bc f3 e2 43 bf 01 df c2 be
       0.15047091 -0.025437545 -0.7651817 -0.38060763
0001a0 a4 f5 2b 3f 0f ab f3 be 17 73 fd be 6a 2b aa be
       0.6717169 -0.47591445 -0.4950187 -0.33236247
0001b0 17 ca fa be de b5 90 be 6c 58 c9 be 19 c3 82 bd
       -0.48982307 -0.28263754 -0.39325273 -0.06384868
0001c0 75 01 18 be b8 e8 ea be 81 1b 4f bf 56 f0 0b be
       -0.14844306 -0.45880675 -0.8090134 -0.136659
0001d0 72 ef 24 bf 49 92 23 3f 0c 6b b2 be e0 08 7d 3e
       -0.64427865 0.6389509 -0.34847295 0.24710417
0001e0 61 8c db be b7 07 5d be f7 db 1c 3f ae 25 05 bf
       -0.42880538 -0.21584974 0.6127314 -0.5201062
0001f0 ee cc 2d 3f 5e 2b 01 bf ff af 0c bf dd d2 9d 3e
       0.6789082 -0.504568 -0.5495605 0.30824938
000200 d0 8f 5b be 98 e2 f9 be 59 87 5f bf 03 7c 08 bf
       -0.21441579 -0.4880569 -0.873159 -0.53314227
000210 2b 4d cb be 7b 3e 52 be 5f 35 0d bf f4 c7 e9 be
       -0.39707312 -0.20531647 -0.5515956 -0.45660365
000220 ab 34 e2 be 44 57 a5 bf c9 b5 7a be a9 1c 6f be
       -0.44180807 -1.2917256 -0.24483408 -0.23350777
000230 e3 2a 24 3f 88 42 52 bf 46 2d 4c 3f 8e 4e f9 be
       0.6412794 -0.8213277 0.7975658 -0.48692745
000240 ba 0c 2f 3f fd bd d8 be 49 89 0d 3f c4 a8 3c be
       0.68378794 -0.4233245 0.55287606 -0.18423754
000250 56 ce f5 be f6 e1 d0 be 2a 03 83 be 3c be 0e bf
       -0.48008984 -0.40797395 -0.2558835 -0.55759025
000260 57 59 08 bf f1 de 28 bf 79 85 16 3f 80 01 62 bf
       -0.5326132 -0.6596518 0.58797413 -0.8828354
000270 ef 25 a4 3e 9c b1 fe be 0f b2 c4 be 66 e3 de be
       0.3206019 -0.4974488 -0.38417098 -0.43532866
000280 e8 5f d5 3e f9 16 15 bf 9b 85 28 bf 14 f0 d5 be
       0.41674733 -0.5823818 -0.65828866 -0.41784728
000290 d0 9c 6b bf be 3e 06 be 77 ff eb be 7a da cc be
       -0.9203615 -0.13109872 -0.46093342 -0.40010434
0002a0 b0 1b 87 be b2 4b 10 bf 6d 54 07 bf 85 92 18 bf
       -0.2638831 -0.563655 -0.528632 -0.5959857
0002b0 50 95 c2 be 6b 5a 3f bf ae ce c6 be 66 47 39 3f
       -0.3800454 -0.7474734 -0.3882956 0.7237457
0002c0 70 ba 2b 3f 89 1b 39 bf 9f fc 3a bf fe a8 12 bf
       0.67081356 -0.7230764 -0.7304172 -0.5728911
0002d0 e5 f2 07 bf 13 83 05 bf 68 83 cf 3e bd 25 c1 be
       -0.53105 -0.5215313 0.40529943 -0.37724105
0002e0 4d 24 0a bf 49 3b 72 bf 64 5f f0 bd 1d e4 99 3d
       -0.5396164 -0.9462171 -0.11736944 0.07514212
0002f0 68 ed b6 3e cb 65 91 bd 5b 8d 35 bf 02 dc 18 bf
       0.35728002 -0.070994936 -0.70918816 -0.59710705
000300 ac f0 79 3e ef cf 3a bf db 5b 00 bf b6 97 75 be
       0.24408215 -0.7297353 -0.5014016 -0.23983654
000310 a1 28 29 bf 9f 3f 23 bf ea 08 46 3e 00 c6 13 bf
       -0.6607762 -0.63768953 0.19339338 -0.57724
000320 0a ec b4 bc ef 94 ac be a4 d5 d0 be 3c 7e 04 bf
       -0.022085208 -0.33707377 -0.40787995 -0.5175512
000330 69 04 a1 3e 0b 0d 04 bf 91 26 c0 be b7 46 fb be
       0.31448677 -0.515824 -0.37529424 -0.4907739
000340 77 ab 26 bf fe af b3 3d 75 22 1a bf 30 8e bf be
       -0.65105385 0.08773802 -0.6020883 -0.37413168
000350 0e 28 51 bf 1a 78 26 3f 09 cc f1 be a5 c3 19 3d
       -0.81701744 0.6502701 -0.4722598 0.037540097
000360 93 9f 23 bf d1 9a 46 bf 16 63 5a bf d2 70 df bd
       -0.63915366 -0.7757998 -0.85307443 -0.10910191
000370 2f 9c 3b bf 88 88 2f bf 2e 1b 87 3f 57 45 28 bf
       -0.7328519 -0.68567705 1.055517 -0.65730804
000380 2d 7d 4c bf b3 df 64 bf 43 d9 f9 be b6 5a f1 be
       -0.79878503 -0.8940384 -0.4879857 -0.4713952
000390 cd 41 58 bf ff 5d 75 bc 96 a2 2f bf 62 4d d2 be
       -0.84475404 -0.014976024 -0.6860746 -0.41074663
0003a0 a7 ff f4 be d8 30 c2 be e3 51 4b be 79 54 54 be
       -0.47851297 -0.3792789 -0.19855456 -0.20735349
0003b0 b5 fd 98 bf f6 ac b5 3d 82 c2 c1 be 39 20 6b 3e
       -1.1952425 0.0887088 -0.3784371 0.2296151
0003c0 26 74 0c be 95 2e 08 be 75 80 00 bf 49 6c de be
       -0.13716182 -0.1329902 -0.5019601 -0.4344199
0003d0 58 cf 99 bf 0f 34 c3 be 27 c2 e1 3e d5 cb d4 be
       -1.2016401 -0.38125655 0.4409344 -0.41561761
0003e0 e2 11 e1 bd f6 ae eb be ff 05 82 be e1 78 3e be
       -0.10989739 -0.46031922 -0.253952 -0.18600799
0003f0 9a 19 3d bf 7a 87 d5 be 5c 48 01 be b2 02 1b 3f
       -0.7386719 -0.41704923 -0.12625259 0.6055099

fc3.weight f4 [128, 256]
000000 e9 a9 94 be 21 41 84 3d bb 74 49 3e 2d c8 63 be
       -0.2903588 0.06457735 0.19673435 -0.2224433
000010 62 45 6a 3e 98 62 06 3f 35 09 7d 3f 60 ef 18 be
       0.2287803 0.5249419 0.98842174 -0.14935064
000020 b0 70 7e 3c 22 1f e5 3d d2 1b de be c3 5e 38 be
       0.0155297965 0.11187579 -0.433806 -0.18004899
000030 b0 cc 6c bf 2c a2 4d bf b6 60 f9 3d e7 08 18 be
       -0.9249983 -0.8032558 0.12176649 -0.14847146
000040 08 45 50 3d d3 dc 7a 3e 26 20 a6 3e 51 b9 cc bf
       0.050847083 0.244983 0.32446402 -1.5994054
000050 5f a5 0f 3c 63 8a 3d bd 17 9d 1a 3f 20 50 55 bf
       0.008767455 -0.046274554 0.6039595 -0.83325386
000060 88 7c 91 be 5d 5b d2 bc a3 3f 59 bf 79 6f a7 3e
       -0.28415322 -0.025678331 -0.84862727 0.32702234
000070 c2 ca bb 3e ba 4c 71 bb b7 a7 e0 be b4 2a 17 bf
       0.3667813 -0.0036819414 -0.43877956 -0.59049535
000080 b0 0c 04 3e 5e 65 a0 bf f6 b1 0d 3f 71 e5 e9 be
       0.12895465 -1.2530935 0.5534967 -0.45682862
000090 22 38 92 3f 33 c6 09 bf 89 32 0d c0 a1 a8 e9 be
       1.142338 -0.53818053 -2.2062094 -0.45636466
0000a0 d1 66 66 bf 7a cc 2f 3f f9 76 0d be a6 84 81 3f
       -0.90000635 0.6867138 -0.13814916 1.0118606
0000b0 80 11 0e 3f 42 fb e8 be 71 6e 58 3e 37 4b bf 3e
       0.5549545 -0.45504194 0.2113588 0.37362072
0000c0 2f de aa 3e 54 80 4b bf 6a 40 48 be 58 39 6a be
       0.33372638 -0.7949269 -0.19555822 -0.22873437
0000d0 4f 0c b5 bf 18 12 1c bf b2 65 78 3f ce 8f 1c bf
       -1.4144381 -0.6096511 0.97030175 -0.6115693
0000e0 2e ab 76 3f 67 46 b0 be ba bf dc 3e 06 d4 3d 3f
       0.9635495 -0.34428713 0.43115026 0.7415165
0000f0 d6 24 ae 3b 56 a9 89 be 14 a5 1e be e2 53 c9 bf
       0.00531445 -0.26887006 -0.1549266 -1.5728724
000100 fb 54 58 c0 00 b6 29 bd 50 68 56 be 40 51 5c bf
       -3.3801868 -0.041433334 -0.2093823 -0.8606148
000110 20 7c 86 3e 8d fe 89 be ac 66 90 3d 5e 24 52 bd
       0.26266575 -0.2695202 0.07050833 -0.051304214
000120 68 58 0b 3e e8 7f 31 3e 4b dd 60 3e fe a4 b9 bf
       0.13607943 0.17333949 0.21959417 -1.4503477
000130 b6 19 9b 3f 68 5d a7 3f 34 f3 99 3d 66 a4 09 be
       1.2117221 1.307538 0.075170904 -0.1344162
000140 e2 e1 91 be 93 46 82 be fa b9 8d bd e3 9e 58 bf
       -0.28492647 -0.2544447 -0.06920238 -0.8461744
000150 43 f6 f2 3d 16 48 a9 bd b1 19 2d bf b4 74 94 be
       0.11863377 -0.082657024 -0.67617327 -0.28995287
000160 58 aa 26 3d 4e 45 f3 be 10 a3 29 3d 7a 9a 88 3e
       0.040689796 -0.47513813 0.041415274 0.26680356
000170 ed a2 c8 bd 72 95 3e be 4a 24 1d 3f 05 58 66 40
       -0.097967006 -0.18611696 0.613835 3.5991223
000180 d8 32 1a bd e3 83 db be 1f ad 27 be fa 4a fb bd
       -0.037646145 -0.4287406 -0.16374634 -0.1227016
000190 b4 1b 40 3e 82 70 20 3f 84 f9 20 3e 28 08 93 3e
       0.18760568 0.62671673 0.15720183 0.2871716
0001a0 c3 e6 e0 be 3e e2 6b bd c2 54 74 3f d9 31 33 3f
       -0.43926057 -0.05758881 0.9544183 0.69997936
0001b0 8a 6a 2a 3d 23 d1 72 bd 14 b0 da 3f 26 3e eb bc
       0.04160551 -0.05928148 1.7084985 -0.028716158
0001c0 10 8f 2a 3f c4 2b 1d be d5 e7 43 3f b1 9b d6 3e
       0.66624546 -0.15348727 0.7652562 0.41915658
0001d0 d5 e6 a3 3d ec 08 17 bf fa 1e 85 3e 01 f1 62 be
       0.08003012 -0.5899799 0.26000196 -0.22162248
0001e0 46 0e 39 3d c0 7c 87 3d b4 4f c6 be 5f c8 53 3f
       0.045179628 0.06615591 -0.38732684 0.8272762
0001f0 9e e6 92 be 9e 51 ab be e6 49 0b be 97 4c 09 bf
       -0.28691572 -0.33460706 -0.13602409 -0.5363249
000200 a8 44 88 3d 04 57 64 be cc 53 5e be 95 cd 1c 3d
       0.0665372 -0.22298819 -0.21711653 0.038281996
000210 7a ca 6d 3f 4c 14 93 3f 02 ed 72 bf ff 5e d1 be
       0.9288708 1.1490569 -0.94892895 -0.4089279
000220 f1 23 35 be ce 7f 10 3e 70 e8 84 bc f5 ae 4e bf
       -0.17689492 0.14111254 -0.016224116 -0.80735713
000230 e7 06 95 bf be 2f 10 3e 40 1c 32 bf 2f de 41 bf
       -1.1642731 0.14080712 -0.69574356 -0.7572965
000240 99 27 79 bf 8a ca 4d 3f 5c 5c 17 bf 3a 58 d2 3e
       -0.97326046 0.80387175 -0.59125304 0.41082937
000250 8d cc a6 bc 6f 7e 2d 3e 67 41 67 3e db b4 45 3e
       -0.02036121 0.16942762 0.22583543 0.19307272
000260 24 d5 a8 ba f2 f0 ce 3f 9c 58 6d 3e 76 27 b5 3e
       -0.0012880904 1.6167281 0.23178333 0.3538167
000270 8e e4 4b bf 46 f7 b1 3e 8e 20 7d bf 15 f6 bf bc
       -0.7964562 0.34758967 -0.988778 -0.02343277
000280 56 93 b2 bd 5a 32 9e bd 60 a7 01 3f 59 b2 94 bd
       -0.08719508 -0.077244475 0.5064602 -0.072605796
000290 8f f9 29 3f c6 5f 0a bf 40 4c 93 be b9 72 d1 3c
       0.6639642 -0.5405239 -0.28769112 0.0255674
0002a0 18 df 66 3f 15 7c 13 3d a2 0c 2f bd e7 29 b9 bf
       0.90184164 0.036007006 -0.042736657 -1.4465913
0002b0 aa 60 1b 40 39 6e a5 bf e0 71 89 bd fe f0 de be
       2.427775 -1.2924262 -0.06711173 -0.43543237
0002c0 63 ab 07 bf 04 1a 29 3d bd ec 84 3e 8e c3 d9 bc
       -0.5299589 0.041284576 0.25961867 -0.026582506
0002d0 d7 3e 9f 3e 60 83 36 3e 68 3c 38 be ac b2 a5 be
       0.3110263 0.17823553 -0.17991793 -0.32362878
0002e0 47 e6 ce 3e ef 51 cb bf 3d 86 f3 be c6 4a 46 bb
       0.40410063 -1.5884379 -0.47563353 -0.003025697
0002f0 d2 53 cd be af e6 9c bd 0f 63 f4 bd 2f af 62 be
       -0.40103012 -0.07661187 -0.119329564 -0.2213714
000300 95 e6 2d bf 6a 55 db be 42 79 91 bf 64 d6 1a be
       -0.67929965 -0.42838603 -1.136513 -0.15120846
000310 25 ba 15 3e 91 ae 5e be f3 85 b2 be ee d5 df bd
       0.1462179 -0.2174628 -0.3486782 -0.10929476
000320 0a 63 22 3f d6 ca 1e bf 27 d8 2b 3d 4d 88 cd 3c
       0.6343237 -0.62028253 0.041954186 0.025089407
000330 27 8c a3 be 93 5e 51 bf 6b f3 29 bd e6 7b aa 3d
       -0.31942865 -0.81784934 -0.041491907 0.08324413
000340 4d 79 43 3f 7a 6a 3b bd 3a c5 86 3e cf 2d 28 3d
       0.76356965 -0.04575584 0.26322347 0.04105931
000350 ce fb 03 3f 67 49 f7 3c d5 41 25 bc 48 d8 4f 3f
       0.515561 0.030186368 -0.010086496 0.81189394
000360 b6 b6 50 bd 0f 50 e4 3e 41 2a c9 3e 3c ac 31 3c
       -0.050955497 0.4459233 0.3929005 0.0108442865
000370 f2 e1 0b be c7 2b 0e 3f 93 13 68 bf 18 fb 69 3e
       -0.1366041 0.5553555 -0.9065487 0.22849691
000380 78 0c 16 3f 73 3e b6 3f d6 40 a1 3d ff dc 2b 3e
       0.58612776 1.4237808 0.078736946 0.16783522
000390 39 40 21 3f 40 7e 48 be 19 0d 81 be d8 63 2f be
       0.6298862 -0.1957941 -0.25205305 -0.17127931
0003a0 b0 53 10 be 8c 13 b3 be 0f f0 3d 3f 3d 8e d9 bd
       -0.14094424 -0.3497585 0.74194425 -0.10622833
0003b0 26 c5 18 3f ee c9 82 3d 89 56 fd be e9 8c 8e 3f
       0.59675825 0.06386171 -0.49480084 1.1136752
0003c0 6f c0 67 bf aa e8 31 bf ce ad 12 be c7 75 8e be
       -0.90528005 -0.6949564 -0.14324114 -0.27824232
0003d0 f2 b9 1e 3f c6 72 26 3e 8b 9e b5 be b0 12 63 be
       0.6200248 0.1625472 -0.3547252 -0.22175097
0003e0 5d 1f 4a bf 83 64 3e 3d 81 73 8e 3f b3 62 17 3f
       -0.78954107 0.046482574 1.1128999 0.5913498
0003f0 04 7d 7e 3e 18 0b 81 3e a1 45 18 3e ba b3 cf bf
       0.24852377 0.25203776 0.14870311 -1.6226723

fc3.bias f4 [128]
000000 68 28 ab be 6c 66 84 bf aa 46 11 bf d4 3e 36 bf
       -0.33429265 -1.0343757 -0.5674845 -0.7118962
000010 da 8e 10 bf d6 a9 02 bd d8 92 0e bf 45 00 2a bf
       -0.56467974 -0.03190025 -0.55692816 -0.6640666
000020 92 95 8d 3e 1f 8a 1f 3f dd ed 22 3f e1 6e 71 bf
       0.27653176 0.6232013 0.636442 -0.9430981
000030 7f 99 7d bf 09 46 59 bf b6 36 c6 3e 19 0e 14 bf
       -0.9906234 -0.8487249 0.38713616 -0.5783401
000040 db 02 88 bf b5 fb 28 bf 90 37 08 3f ad 62 f0 3e
       -1.0625871 -0.66009074 0.5320978 0.46950284
000050 49 6f fd 3e 81 39 19 bf b7 e4 98 3f 37 a8 40 bf
       0.49498966 -0.5985337 1.1944798 -0.75256675
000060 ed a2 5b be f9 96 5d bf b8 98 a7 be 5f c6 04 bf
       -0.2144887 -0.8655849 -0.32733703 -0.5186519
000070 32 62 58 bf 78 4a a4 be 04 1b df be 21 57 e8 bd
       -0.84524834 -0.32088065 -0.435753 -0.113447435
000080 65 55 d7 be ed 04 66 be e3 cc 75 bf f8 b4 3a bd
       -0.42057338 -0.22462817 -0.9601576 -0.04558274
000090 cd 3f f5 be 95 db bd be 37 38 0f be d4 38 8f bf
       -0.4790024 -0.3708159 -0.13986288 -1.1189218
0000a0 f7 54 36 bf a4 94 28 bf b8 6a 0e bf d8 47 91 bf
       -0.71223396 -0.6585181 -0.5563159 -1.135005
0000b0 ba d4 ca be 3c 68 0b bf f4 bc 86 bf c1 c4 43 bf
       -0.39615422 -0.54455924 -1.0526414 -0.764721
0000c0 ef 6c 56 3f 8e 32 9f be cb e8 5b bf f3 d0 c3 be
       0.8375997 -0.31093258 -0.8590209 -0.38245353
0000d0 ac f7 1a bf 6e 5e 1e bf 3a b3 79 bf b9 cf 79 bf
       -0.6053417 -0.6186284 -0.97539103 -0.97582585
0000e0 84 44 43 bf 67 f5 43 be a2 7f 22 be 13 fd 3e bf
       -0.7627642 -0.19136582 -0.15869 -0.7460491
0000f0 38 1b 20 be c2 5a 54 bf f9 e2 40 3e eb 7f 00 bf
       -0.15635383 -0.82950985 0.18836583 -0.5019519
000100 ca b0 83 be ff c4 50 bf 55 d3 ce be 0a e5 1e 3f
       -0.25720817 -0.8155059 -0.4039561 0.62068236
000110 15 67 89 bf 86 5a 70 3d 11 99 2b 3f d2 0e e2 be
       -1.0734583 0.05868008 0.67030436 -0.44151932
000120 fc 0c f0 be e0 0f 0b bf b9 3b 21 3e 3e 4b dc bd
       -0.46884906 -0.543211 0.15745439 -0.10756539
000130 e6 a4 1c bf d8 ef 24 bf df e5 a5 be 48 a1 60 bf
       -0.61189115 -0.6442847 -0.3240194 -0.87746096
000140 3c c7 8f be 82 56 e4 be 42 1d 4a bf fd b6 0f 3f
       -0.2808169 -0.4459725 -0.78950894 0.5613859
000150 c1 a6 f9 be ec 9c d8 be 59 71 2e 3f 33 39 8c be
       -0.48760036 -0.42307222 0.68141705 -0.2738739
000160 0e 27 86 bf 54 03 d1 3e 8f 34 26 be 9d 42 3e bf
       -1.0480669 0.40822852 -0.16230987 -0.74320394
000170 ad b5 0b bf 02 b2 14 3f 0f a3 87 bf 74 40 2d bf
       -0.5457409 0.5808412 -1.0596637 -0.6767647
000180 bb 23 08 bd 66 29 21 bf 34 9d 8e bf d0 6b 7d bf
       -0.0332372 -0.62953794 -1.1141725 -0.98992634
000190 6c 10 43 bf 2a 66 79 bf 45 5b 7c be f3 48 e9 3e
       -0.7619693 -0.97421515 -0.24644192 0.45563468
0001a0 8b 82 39 bf 7f a7 c6 3c c4 88 a3 be 35 42 8d 3f
       -0.7246482 0.02424979 -0.3194028 1.103583
0001b0 63 ae 7c bf 41 33 15 3f 5d 1e 4c be 52 33 16 bf
       -0.98703593 0.5828133 -0.19933458 -0.5867206
0001c0 56 50 c0 be d7 f0 ff 3e 3f b3 33 bc ab 8d 67 bf
       -0.3756129 0.49988434 -0.010968029 -0.90450543
0001d0 34 a8 5c bf 23 35 40 bf 5a 5b 1c 3f 07 d9 50 3e
       -0.8619416 -0.7508108 0.6107689 0.2039529
0001e0 65 79 a2 3e e7 4c 52 3f 21 7e 82 be 23 03 f8 3e
       0.31733242 0.82148594 -0.25486854 0.48439893
0001f0 78 26 49 bf 07 3b 8b 3f 8e 6f 79 bf 1e 56 40 bf
       -0.78574324 1.0877389 -0.97435844 -0.75131404

fc4.weight f4 [4, 128]
000000 96 27 72 3d e1 8c b3 3d 58 b5 cc 3d 2d 3f b1 bd
       0.059119783 0.08767105 0.09995526 -0.08654628
000010 a1 31 8b be c3 d0 68 bc 31 24 1d 3f 75 ea fd bd
       -0.271863 -0.014209929 0.6138335 -0.12398235
000020 47 d7 b5 3e 7f b6 8f 3f e8 d4 85 3f b5 fb ec 3e
       0.35515806 1.1227568 1.0455599 0.46285787
000030 51 f1 0a 3e 82 5f ac 3e 51 1a 76 3f a9 67 ad 3f
       0.13568617 0.33666617 0.96133906 1.354726
000040 09 9d ce bd be 7b 5d 3f 1b 13 8a 3f 94 73 91 3f
       -0.10088546 0.8651694 1.078708 1.1363397
000050 fe d4 7a 3f 05 f6 23 3f 93 01 94 3f 38 86 80 3e
       0.9798125 0.6404727 1.156298 0.251024
000060 89 34 6f 3f d1 11 92 3f 64 06 22 3f bb 34 d1 3f
       0.9343954 1.1411687 0.63291 1.6344217
000070 2c bf 9e bd 97 b5 b6 3f 3a ea 28 3f dc cd b6 3f
       -0.07751307 1.4274167 0.659824 1.4281573
000080 ec f6 d4 bd da 21 30 3f 84 4a 38 be 82 dc 21 3f
       -0.10398659 0.68801653 -0.17997175 0.63227093
000090 66 71 d6 3e 37 7c 87 3f aa bb 9e 3e 0f 37 f4 3e
       0.4188339 1.0584782 0.3100255 0.47698256
0000a0 fa c3 f4 bf c1 9b bf 3e 20 66 95 3f 94 b0 e9 3d
       -1.9122307 0.37423518 1.1671791 0.11410633
0000b0 2d a2 bb 3e 6a 66 33 3f 90 1e 06 be a4 3b 80 3f
       0.36647168 0.70078146 -0.13097596 1.0018201
0000c0 6f c3 6b 3f bf 98 a5 3e b2 d8 24 be a4 b4 e3 bf
       0.92095083 0.323431 -0.16098288 -1.7789502
0000d0 1c 18 31 3f ad e1 04 3f 78 97 56 3f 2c 2c cd ba
       0.69177413 0.51906854 0.8382487 -0.0015653423
0000e0 cc 60 9c 3f a6 aa 9b 3e 0c 81 a2 3f 72 ba 4b bf
       1.221704 0.30403632 1.2695632 -0.7958137
0000f0 89 31 59 3f 5b 5f 0d 3f d0 3f 36 3f 8a e9 1d 3f
       0.8484121 0.55223626 0.7119112 0.6168448
000100 be f7 28 3f f5 d7 4b 3f 1e c0 44 c0 17 0d 92 3f
       0.66003025 0.796264 -3.074226 1.1410245
000110 3c e0 ec 3e 86 97 f3 3f ce 55 8c 3f e4 b2 27 3f
       0.46264827 1.9030616 1.0963686 0.6550734
000120 0c 07 b5 3e 42 0a 31 3e 61 e4 74 3f cb 46 bd 3f
       0.3535694 0.1728907 0.9566098 1.4787229
000130 8f 12 08 3f a1 c5 02 3f 54 6f 38 3f 7f b6 35 3f
       0.5315332 0.5108281 0.72044873 0.7098159
000140 76 a4 84 3f 61 b0 4d bf b6 93 4c 3f 28 60 8b 3f
       1.036269 -0.8034726 0.7991289 1.088872
000150 88 95 d4 3e 93 17 99 c0 61 a4 7d 3f 2b 8d ef 3e
       0.41520333 -4.7841277 0.9907895 0.4678739
000160 15 ae 05 3e db 28 89 3f 33 42 b3 3f 5c 00 90 3f
       0.13054688 1.0715593 1.4004577 1.125011
000170 79 c7 94 3f eb f1 8a 3f 6c c0 a2 3f ef b8 56 3f
       1.1623374 1.0855078 1.2714972 0.83875936
000180 2c 60 81 3f 0d 4f 49 3f 88 3c 1d 3f 56 87 5d bd
       1.0107474 0.78636247 0.6142049 -0.054084145
000190 9f 10 f4 3e 33 6f 00 3e a6 57 b3 3e 8e 00 9e 3f
       0.4766893 0.12542419 0.35027808 1.2343919
0001a0 bb c4 a2 3e e0 9d 92 be 92 a6 e1 3e 66 71 b2 3f
       0.31790718 -0.28636074 0.44072396 1.3940856
0001b0 a2 1d a6 bd f9 7a 8b 3f e6 14 96 3f 56 29 f8 3e
       -0.08111121 1.0896903 1.1725128 0.48469037
0001c0 6f fe 38 c0 58 a8 81 3f 44 66 8e be 9c 2d 0e 3e
       -2.8905294 1.01295 -0.27812397 0.13884586
0001d0 7b 9c 22 3f 65 82 73 3f 28 5b 90 3f aa be c9 3f
       0.6352002 0.9512084 1.1277819 1.5761311
0001e0 bd c1 99 3f 81 0e 8d 3f 6e 81 c2 3f a1 15 87 3f
       1.2012249 1.1020051 1.5195749 1.0553476
0001f0 4f ce aa 3e 58 79 cc 3f ed e5 50 be a4 38 20 3f
       0.33360526 1.5974531 -0.2040021 0.62586427
000200 8a 73 37 3e 09 b5 26 3e ae 0a ed 3c 03 b2 0e bd
       0.17915168 0.16279997 0.028935757 -0.034837734
000210 12 94 29 3d ee 9d 72 bd 7b 94 1e 3f 52 95 50 bf
       0.041400976 -0.059232645 0.61945313 -0.81477845
000220 48 7b fc 3e f9 55 a2 3f a2 d0 90 3f 70 57 0d 3f
       0.49312806 1.2682487 1.131367 0.55211544
000230 ae 17 3f be f7 08 db bd a2 88 89 3f 02 43 44 3f
       -0.18661377 -0.10695069 1.0744822 0.76664746
000240 e3 81 9e 3d db ff 58 3f 1d 8e 8c 3f 4a a1 91 3f
       0.07739618 0.84765404 1.098087 1.1377347
000250 4b f6 8c 3f ca 90 25 3f cb 74 b0 3f 4c b1 b9 3d
       1.1012663 0.64674056 1.3785642 0.0906702
000260 13 f0 7d 3f 16 8b 66 3f ab cc 24 3f c7 97 aa 3f
       0.9919445 0.9005598 0.643748 1.3327569
000270 27 07 46 3d 32 3e 35 3f 6d 8b 0d 3f 04 08 c5 3f
       0.048346665 0.7079803 0.5529087 1.5393071
000280 39 1d 86 3e b3 bc 54 3f 03 5e 90 3e c3 d6 a2 3e
       0.2619417 0.8310043 0.28196725 0.31804475
000290 c2 48 50 3f 07 f0 80 3f ec ab e5 3e 74 8f 29 be
       0.8136102 1.007325 0.44857728 -0.1655863
0002a0 f7 a0 8c c0 a3 12 86 3f 36 90 cb be 6e 68 16 3e
       -4.394649 1.0474437 -0.39758462 0.14688274
0002b0 fe 5c f9 3e ae 47 d2 3e 87 53 be 3d 66 bb 3b 3f
       0.4870376 0.41070312 0.09293275 0.7333282
0002c0 8a da 8a 3f 5b ab c2 3e 96 25 09 bc 63 19 05 3f
       1.0847943 0.3802136 -0.008370778 0.5199186
0002d0 76 7c ce 3e 55 c0 76 3e 58 34 32 3f 63 3a 86 3c
       0.4032933 0.24096806 0.6961112 0.016385263
0002e0 b9 a3 76 3f 7a c3 f7 3b 68 d4 88 3f dd 55 56 bf
       0.9634357 0.0075611444 1.0689821 -0.83724767
0002f0 8d 72 34 3f 28 d1 75 3f 43 35 c9 bd 82 f2 c9 3e
       0.7048729 0.9602227 -0.09824612 0.3944283
000300 3f 49 27 3f 59 55 12 3f 2c 16 4d c0 0a 71 8a 3f
       0.6534614 0.5716148 -3.2044783 1.0815747
000310 ac bd 69 3f 0f ab 46 3f 76 54 90 3f 64 49 36 3f
       0.9130504 0.77604765 1.1275775 0.71205735
000320 0b ce 3a 3f 9c 69 c0 3d 38 6f 60 3f cb db e2 3f
       0.72970647 0.093951434 0.87669706 1.7723325
000330 d5 df c0 3e 9c eb e2 3e 96 b4 8b 3f 68 82 03 3f
       0.3767077 0.4432038 1.0914485 0.5137086
000340 f7 86 ac 3f 1c 60 e8 3e f9 9b 1b 3f 41 3f 8b 3f
       1.3478688 0.45385826 0.6078487 1.0878679
000350 9f 90 1f 3f db 81 91 c0 71 9c 99 3f d2 69 3f 3f
       0.6233005 -4.5471015 1.2000867 0.74770844
000360 17 32 c0 3d 2e a6 93 3f 91 81 b9 3f 00 4c 95 3f
       0.09384554 1.1535089 1.4492666 1.1663818
000370 55 66 79 3f d5 01 8b 3f f5 f7 88 3f 88 98 48 3f
       0.9742177 1.0859934 1.070067 0.78357744
000380 97 15 61 3f 2f 75 07 3f a6 d5 89 3f db 01 89 bf
       0.8792357 0.5291318 1.0768325 -1.0703691
000390 64 68 49 3f a4 00 f4 3c e7 94 2b 3f b0 99 a4 3f
       0.7867491 0.029785462 0.6702408 1.2859402
0003a0 76 5b 4d 3f b6 b2 d7 3d 34 3f 8e 3f 62 67 b1 3f
       0.80217683 0.10532133 1.1113038 1.3859675
0003b0 56 95 84 3e 16 e4 8c 3f c6 ed 0e 3f 35 51 b4 3f
       0.25895184 1.1007106 0.55831563 1.4087282
0003c0 24 4c 38 c0 79 7e 8a 3f 4e de a7 bb ec 1e 7f 3f
       -2.8796473 1.0819846 -0.0051229363 0.9965656
0003d0 a1 9e eb 3e 6e 21 a1 3f 74 5d 8f 3f 4b ce d9 3f
       0.46019462 1.2588327 1.1200395 1.7016081
0003e0 8a 5e 2d 3f cc 69 8d 3f 2f ab 55 3f 13 0d 8a 3f
       0.6772238 1.1047912 0.8346433 1.078524
0003f0 58 8e 18 3f 52 69 d5 3f 48 f4 9e 3f 88 53 05 3d
       0.595922 1.6672766 1.2418299 0.032550365

fc4.bias f4 [4]
000000 55 e6 9a 3f d5 22 93 3f d6 b4 8f 3f cf aa 94 3f
       1.2101542 1.1495005 1.1227062 1.1614627
