trained_models/checkpoint_ep1300.pth (torch, 416160 bytes, 14 tensors)

fc1.weight f4 [256, 8]
0.2883521 0.20613772 0.22040379 0.5438611 0.18779278 -0.9029378 0.1974054 0.22395657
0.384693 0.18282083 0.299317 0.70704764 0.07614125 -0.8578444 0.26222634 0.19945873
0.054388 0.13641417 0.49937433 0.32125863 0.08189315 -0.250726 0.13665849 0.19045475
0.07891103 0.17744564 0.27786514 -0.6727017 0.16888069 -0.23375802 -0.1510075 0.11042233
0.046645768 0.21398258 0.33606407 0.3894737 0.22385992 -0.73740786 0.1619607 0.043727018
0.09241379 0.2717049 0.46263063 0.58207333 0.10895661 -0.90756196 0.19329073 0.15260114
0.5190052 0.20412208 0.11537122 0.7487055 0.25774333 -1.6929092 0.16486543 0.23747095
-0.19874583 0.009687716 0.7651127 -0.028950566 0.08902642 0.062231958 -0.01202284 0.1098375
0.19739047 0.14665756 0.45009187 0.32266182 0.15899321 -0.8045857 0.15156454 0.14327429
0.105425954 0.20176715 0.418672 0.4518213 0.17348939 -0.7786427 0.1680118 0.1315876
0.321567 0.2081773 0.367991 0.6092971 0.16357361 -1.1681358 0.22139405 0.1751546
-0.046453837 0.029242106 0.51341915 0.24341296 0.028426336 0.59549695 0.119170256 -0.014886762
0.119459346 0.09209612 0.4423136 0.6407791 0.15452415 -0.46507517 0.20608445 0.11051237
0.16304427 0.03404886 0.5634761 0.2551361 0.1381513 -0.015200078 0.049768064 0.21763477
0.36257592 0.2958019 0.17454015 0.8022403 0.15274619 -1.5842134 0.24022645 0.342508
0.29090542 0.13631113 -0.52014846 -1.0393811 0.18966171 -0.27425572 0.395879 0.17989695
0.5460904 0.21314779 0.09762934 0.7184403 0.11046707 -1.7605491 0.19684163 0.053376157
-0.039519317 0.10945415 0.429995 0.5669692 0.19343306 -0.6777028 0.23079678 0.17222284
0.34804997 0.25073174 0.16829768 0.6851711 0.27128515 -1.3991339 0.20233628 0.20610812
-0.035053942 0.045310114 0.33485773 0.8419752 0.030082721 0.067083135 0.25779793 0.029602624
0.1059241 0.15171923 0.4518525 0.3181735 0.06466899 -0.11356081 0.12816116 0.041507598
0.14585687 0.20116888 0.4220576 -0.42212984 0.105068296 -0.7073216 0.15511183 0.21405593
0.22998343 0.20528536 0.43545675 0.61243314 0.099773265 -0.7789639 0.22487468 0.118352845
0.12046008 0.13667524 0.36758342 -0.6020719 0.117235236 -0.7804057 0.26097494 0.12043453
-0.1593167 0.16438295 0.55897814 -0.13801582 -0.045766357 -0.482991 0.39947772 -0.104428105
0.49610656 0.20059514 -0.5364233 -0.08678655 0.32264823 -0.4828681 0.11939473 0.14164865
0.6214352 0.28208643 -1.2500801 -0.17445244 0.22127675 -0.13405539 0.33233845 0.2584405
0.09143175 0.14441593 0.49201804 0.695594 0.15379624 -0.6987714 0.2579225 0.0718537
0.47214973 0.25067303 -0.05077144 0.28258175 0.2048849 -0.55463505 0.13868077 0.12647773
0.51456916 0.28552967 0.20058818 0.65440595 0.14733465 -1.3135093 0.20433469 0.11343937
-0.3117405 0.039131183 -0.028555524 -0.23686683 0.092656024 2.1240284 -0.03673813 0.10789751
0.21382405 0.2265826 0.39127865 0.48316687 0.1491584 -0.9166972 0.164516 0.22732863
00000000: e3a2 933e c415 533e 88b1 613e 7b3a 0b3f
00000010: c04c 403e ef26 67bf a424 4a3e df54 653e
00000020: 7bf6 c43e 6235 3b3e 1440 993e 1301 353f
00000030: f2ef 9b3d b19b 5bbf 8842 863e e93e 4c3e
00000040: f4c5 5e3d 28b0 0b3e fead ff3e 037c a43e
00000050: 99b7 a73d 295f 80be 34f0 0b3e 9206 433e
00000060: 1b9c a13d 4fb4 353e 5744 8e3e 2e36 2cbf
00000070: 0fef 2c3e 435e 6fbe b6a1 1abe 1a25 e23d
00000080: a20f 3f3d 401e 5b3e 9710 ac3e 1969 c73e
00000090: 893b 653e c3c6 3cbf 07d9 253e 1a1b 333d
000000a0: 7143 bd3d e81c 8b3e ecdd ec3e c202 153f
000000b0: a524 df3d fb55 68bf 01ee 453e 7943 1c3e
000000c0: 86dd 043f 6105 513e bf47 ec3d 2aab 3f3f
000000d0: eff6 833e 40b1 d8bf 7cd2 283e 962b 733e
000000e0: 0784 4bbe 3ab9 1e3c 6dde 433f bd29 edbc
000000f0: 7c53 b63d f0e6 7e3d 72fb 44bc 7cf2 e03d
00000100: ba20 4a3e 662d 163e 7172 e63e ee33 a53e
00000110: 1ecf 223e 54f9 4dbf bc33 1b3e 7fb6 123e
00000120: 90e9 d73d 0c9c 4e3e 2d5c d63e 1f55 e73e
00000130: 34a7 313e 2155 47bf 490b 2c3e e6be 063e
00000140: 6ea4 a43e 6e2c 553e 5169 bc3e e5fa 1b3f
00000150: d77f 273e 7985 95bf 1fb5 623e ba5b 333e
00000160: 6146 3ebd 248d ef3c 706f 033f 3f41 793e
00000170: 59de e83c 7d72 183f 890f f43d 9be7 73bc
00000180: 1aa7 f43d e49c bc3d ee76 e23e 190a 243f
00000190: 943b 1e3e 551e eebe cd07 533e 4f54 e23d
000001a0: 14f5 263e d176 0b3d f83f 103f 33a1 823e
000001b0: 8977 0d3e bf09 79bc 99d9 4b3d a6db 5e3e
000001c0: 8da3 b93e 5973 973e a7ba 323e 9f5f 4d3f
000001d0: 7f69 1c3e 81c7 cabf ecfd 753e 355d af3e
000001e0: 8ef1 943e 2595 0b3e 7328 05bf 710a 85bf
000001f0: ae36 423e 3f6b 8cbe a7b0 ca3e e836 383e
00000200: 95cc 0b3f 6a43 5a3e e4f1 c73d b4eb 373f
00000210: 8f3c e23d ac59 e1bf da90 493e f5a0 5a3d
00000220: 02df 21bd 7f29 e03d 4e28 dc3e e524 113f
00000230: 5113 463e ee7d 2dbf fe55 6c3e 2f5b 303e
00000240: 9b33 b23e e95f 803e 3a56 2c3e 6067 2f3f
00000250: e3e5 8a3e d216 b3bf 3e31 4f3e 020e 533e
00000260: b994 0fbd 1997 393d 7972 ab3e b08b 573f
00000270: 0a70 f63c e262 893d 17fe 833e 3481 f23c
00000280: bcee d83d 495c 1b3e 3659 e73e a3e7 a23e
00000290: 2d71 843d 9292 e8bd ae3c 033e df03 2a3d
000002a0: 815b 153e 37ff 4d3e ef17 d83e 6721 d8be
000002b0: 0c2e d73d 0713 35bf a3d5 1e3e 7a31 5b3e
000002c0: c780 6b3e 5336 523e 30f4 de3e 6bc8 1c3f
000002d0: ed55 cc3d 2e6a 47bf 8c45 663e fa62 f23d
000002e0: c6b3 f63d 98f4 0b3e e533 bc3e 6221 1abf
000002f0: 0719 f03d abc8 47bf 829e 853e 61a6 f63d
00000300: eb23 23be 0154 283e 3119 0f3f 0554 0dbe
00000310: 8175 3bbd 994a f7be 5888 cc3e 67de d5bd
00000320: ae01 fe3e d068 4d3e 0a53 09bf 26bd b1bd
00000330: 2632 a53e 7d3a f7be 3985 f43d 580c 113e
00000340: 6116 1f3f a26d 903e a002 a0bf a9a3 32be
00000350: 5f96 623e d145 09be 4428 aa3e 5052 843e
00000360: 9240 bb3d c5e1 133e cae9 fb3e 7312 323f
00000370: c37c 1d3e afe2 32bf 6b0e 843e 0828 933d
00000380: 9cbd f13e 3758 803e b7f5 4fbd 8eae 903e
00000390: 59cd 513e 90fc 0dbf 5502 0e3e 6183 013e
000003a0: ceba 033f f230 923e fd66 4d3e 2687 273f
000003b0: e5de 163e 1321 a8bf 1d3d 513e e752 e83d
000003c0: 739c 9fbe 0548 203d 46ed e9bc 388d 72be
000003d0: 71c2 bd3d 15f0 0740 b97a 16bd 5ff9 dc3d
000003e0: b1f4 5a3e 4505 683e ad55 c83e a661 f73e
000003f0: fbbc 183e abac 6abf e276 283e d6c8 683e

fc1.bias f4 [256]
0.18053648 0.18503277 0.11476175 0.14685689 0.1722729 0.14551772 0.25288135 0.056902695
0.19993776 0.15339614 0.19512232 0.10196402 0.12496568 0.08227077 0.26982424 0.15653464
0.18708754 0.13960217 0.21098602 0.024794718 0.14630988 0.13919602 0.14001662 0.10548329
-0.011273189 0.21299396 0.23581594 0.10061924 0.1824308 0.2645867 0.02305431 0.15984957
0.043999325 0.17221068 0.13227665 0.09718749 0.10946369 0.14655492 0.16780987 0.15234138
0.040965475 0.15343934 0.11434091 0.16980988 0.16919479 0.004685793 0.038179114 0.090259075
0.2409564 0.13960229 0.15033136 0.15600148 0.053186536 0.14673333 0.16397177 0.24606754
0.21312048 0.16402689 0.06806993 0.036011256 0.038701124 0.21848305 0.095858164 0.22581604
0.06112292 0.081037834 0.19496119 0.10798447 0.059752535 0.1574521 0.16132335 0.18813601
0.04819047 0.12990591 0.17615043 0.1990825 0.19808654 0.14757176 0.17426379 0.2408058
0.1697223 0.122647606 0.16515695 0.07267113 0.11966069 0.15193173 0.113457285 0.229853
0.16837393 0.2542922 0.07070405 0.17666797 0.16911918 0.096606106 0.18888816 0.10049681
0.19039255 0.11090073 0.2191654 0.17939667 0.17408885 0.10123455 0.023069715 0.12739123
0.11191911 0.20250878 0.18494163 0.16664997 0.16623972 0.07061842 0.116763204 0.062819
0.09802816 0.1646961 0.16760802 0.14247788 0.21198067 0.2801448 0.11317407 0.31934598
0.19814834 0.20613365 0.023082199 0.024574446 0.17331718 0.11917384 0.26580042 0.2601495
0.14674854 0.1605712 0.32263392 0.18789856 0.27955005 0.21896376 0.16417785 0.2199554
0.29440808 0.15830763 0.15196124 0.16075538 0.12445336 0.18299912 0.17372975 0.056645304
0.11904584 0.17714588 0.14776507 0.15730636 0.11151958 0.15848635 0.18051347 0.047917016
0.1908546 0.12345086 0.1343637 0.16003996 0.052340645 0.15067817 0.1638617 0.20140082
0.16826499 0.14670308 0.19323014 0.13955644 0.119131885 0.24933746 0.21556753 0.22834317
0.12924536 0.20386942 0.19454719 0.2547793 0.12464393 0.15318222 0.20911597 0.17195597
0.20433585 0.18181832 -0.008620961 0.16324869 0.17334898 0.19684176 0.18581489 0.17447028
0.101864114 0.16986935 0.16355585 0.12749851 0.34942123 0.18120228 0.1438355 0.17010552
0.057293914 0.046191074 0.101159684 0.14677982 0.17864192 0.13731162 0.17085697 0.11213111
0.17752452 0.19182572 0.17164595 0.16472328 0.22105876 0.08467504 0.09726586 0.12266375
-0.022067225 0.17293705 0.22672255 0.20296413 0.094961345 0.08153032 0.21630706 0.23334935
0.19418399 0.11856633 0.15813816 0.03881952 0.12327424 0.15380427 0.12871253 0.08312338
0.21929808 0.17481366 0.08564447 0.093203716 -0.021441046 0.07214399 0.1922451 0.0053138095
0.25975788 0.17168188 0.117614865 0.06529706 0.15038939 0.03690556 0.23640579 0.20987353
0.11061371 0.13999175 0.13202116 0.17939004 0.1791056 0.15924029 0.14770184 0.20713954
0.17160809 0.19071373 0.07616607 0.15986438 0.118065886 0.094358675 0.18990882 0.10971878
00000000: 8ede 383e 3b79 3d3e 3508 eb3d a761 163e
00000010: 4f68 303e 9902 153e aa79 813e cd12 693d
00000020: 7cbc 4c3e e113 1d3e 25ce 473e 83d2 d03d
00000030: 02ee ff3d 947d a83d 6726 8a3e 9e4a 203e
00000040: e093 3f3e dff3 0e3e b80c 583e 4b1e cb3c
00000050: 42d2 153e 6789 0e3e 8460 0f3e a007 d83d
00000060: 2fb3 38bc 171b 5a3e bc79 713e 7611 ce3d
00000070: 24cf 3a3e e877 873e 64dc bc3c 9baf 233e
00000080: a338 343d ff57 303e 8873 073e 3c0a c73d
00000090: 802e e03d 7e12 163e 5ad6 2b3e 61ff 1b3e
000000a0: 6acb 273d 341f 1d3e 912b ea3d a4e2 2d3e
000000b0: 6641 2d3e 488b 993b b461 1c3d c0d9 b83d
000000c0: 46bd 763e e7f3 0e3e 77f0 193e dabe 1f3e
000000d0: 20da 593d 4341 163e 37e8 273e 21f9 7b3e
000000e0: 413c 5a3e aaf6 273e 3f68 8b3d 8a80 133d
000000f0: 1285 1e3d 05ba 5f3e 4951 c43d 523c 673e
00000100: 075c 7a3d 2af7 a53d e8a3 473e f626 dd3d
00000110: 13bf 743d 203b 213e f331 253e baa6 403e
00000120: 5f63 453d 0e06 053e c760 343e 48dc 4b3e
00000130: 33d7 4a3e 0d1d 173e 3572 323e cc95 763e
00000140: afcb 2d3e ab2e fb3d e71e 293e 9ad4 943d
00000150: aa10 f53d fe93 1b3e 4b5c e83d 965e 6b3e
00000160: 376a 2c3e 9632 823e 49cd 903d 73e8 343e
00000170: 942d 2d3e 6cd9 c53d e66b 413e 46d1 cd3d
00000180: 44f6 423e ec1f e33d e56c 603e c3b3 373e
00000190: 5944 323e 0f54 cf3d b3fc bc3c d972 023e
000001a0: d935 e53d 765e 4f3e 5761 3d3e 4aa6 2a3e
000001b0: bf3a 2a3e 64a0 903d 8c21 ef3d 3fa7 803d
000001c0: fdc2 c83d 18a6 283e 70a1 2b3e b9e5 113e
000001d0: 7611 593e 246f 8f3e cfc7 e73d 5181 a33e
000001e0: 66e7 4a3e b314 533e e116 bd3c 5950 c93c
000001f0: 0f7a 313e 6a11 f43d fe16 883e 5132 853e
00000200: 4045 163e c76c 243e 4630 a53e 7b68 403e
00000210: 2f21 8f3e 0938 603e 3d1e 283e fd3b 613e
00000220: a8bc 963e 651b 223e ba9b 1b3e 0f9d 243e
00000230: 67e1 fe3d 1f64 3b3e 36e6 313e e804 683d
00000240: 4ece f33d bb65 353e ba4f 173e eb14 213e
00000250: 6164 e43d 3f4a 223e 86d8 383e a244 443d
00000260: 636f 433e ced3 fc3d a396 093e 84e1 233e
00000270: 2563 563d 614b 1a3e 5dcb 273e 043c 4e3e
00000280: a84d 2c3e 5539 163e 1fde 453e e2e7 0e3e
00000290: 6bfb f33d 5252 7f3e bcbd 5c3e cbd2 693e
000002a0: e558 043e 25c3 503e 6137 473e 6f72 823e
000002b0: 5145 ff3d cddb 1c3e 7f22 563e 3a15 303e
000002c0: 6b3d 513e 952e 3a3e ee3e 0dbc aa2a 273e
000002d0: 6582 313e e390 493e 4246 3e3e 56a8 323e
000002e0: 229e d03d 3bf2 2d3e 2f7b 273e f88e 023e
000002f0: 57e7 b23e 178d 393e 9d49 133e 2430 2e3e
00000300: 06ad 6a3d da32 3d3d cf2c cf3d 734d 163e
00000310: e8ed 363e 6b9b 0c3e 21f5 2e3e ffa4 e53d
00000320: fdc8 353e f66d 443e f5c3 2f3e 38ad 283e
00000330: 3a5d 623e 1b6a ad3d 5333 c73d 2237 fb3d
00000340: 53c6 b4bc 6916 313e f529 683e d4d5 4f3e
00000350: 187b c23d 5ef9 a63d 997f 5d3e 22f3 6e3e
00000360: 2bd8 463e e7d2 f23d f8ee 213e 3801 1f3d
00000370: 3477 fc3d de7e 1d3e 38cd 033e 973c aa3d
00000380: ad8f 603e 5a02 333e 5e66 af3d 97e1 be3d
00000390: 22a5 afbc 3ac0 933d e6db 443e 771f ae3b
000003a0: fcfe 843e 60cd 2f3e 10e0 f03d 77ba 853d
000003b0: adff 193e 492a 173d 5c14 723e 16e9 563e
000003c0: 7189 e23d ff59 0f3e 8e30 073e 06b2 373e
000003d0: 7567 373e e30f 233e 273f 173e 631c 543e
000003e0: 08ba 2f3e 764a 433e f5fc 9b3d 7db3 233e
000003f0: 87cc f13d 1f3f c13d 7577 423e 3db4 e03d

fc2.weight f4 [256, 256]
0.019649224 0.19248661 0.019004688 0.022171935 -0.0092035225 0.023604074 0.37883398 -0.66561663
0.23984176 0.039944086 0.035500348 0.09517149 0.1314706 -0.007568294 0.06450979 -0.57380474
-0.12812664 -0.13467307 0.08886348 0.32439145 -0.2870925 -0.3358393 0.13789482 -0.12727554
-0.44516942 0.20365119 0.42885882 0.024256699 0.08686552 0.02572153 -0.17703281 -0.124319375
0.20520926 0.30661646 -0.22153996 -0.043896463 0.10647177 -0.05663692 0.8749267 -0.08764004
0.201441 -0.05272777 -0.28834578 0.21998963 -0.5074456 -0.3667402 -0.24142443 -0.07277034
-0.15373392 -0.516811 -0.10374355 -0.04544592 -0.4072107 -0.03604129 0.113282666 -0.022163989
0.07177737 0.10598123 -0.026656635 -0.34142092 0.053205375 0.11302984 0.032268904 -0.054475375
0.012915404 -0.15931451 0.14976466 0.12631555 -0.035323106 -0.04817011 0.20697908 0.17746584
-0.33471397 -0.14239085 -0.02873866 -0.041571364 0.43939593 0.023802597 -0.035656646 -0.060967628
-0.07054867 -0.04129359 -0.4598551 -0.612972 -0.119169734 -0.02399857 -0.11018176 0.14957024
0.174416 0.09822925 -0.34151188 0.027024327 -0.09396462 0.0015252789 0.035105813 -0.074270256
0.23009506 -0.11344466 -0.02599752 0.2520104 0.2722957 0.27587345 -0.08269468 -0.066102535
0.06899765 -0.08649996 -0.24161261 -0.21627367 -0.09132756 -0.26755378 -0.3906397 -0.72703105
0.30340132 -0.13834624 0.06584695 0.17902333 0.11685835 0.224543 -0.111157216 -0.07058065
0.08072959 -0.051424738 0.117952034 -0.09113451 -0.13512044 -0.016208688 -0.36602256 0.35369164
0.04192657 0.09381434 -0.52232003 -0.70513535 -0.35208488 0.01571447 -0.1842864 0.06175071
-0.23090814 -0.14528622 0.044952855 0.11124144 -0.9661655 0.1115361 -0.0021529035 -1.1902668
0.11020105 -0.4782264 -0.018286966 0.19332604 0.24405327 0.08473276 -0.011858393 -0.31692886
0.14743717 0.16887236 0.044942293 0.0969051 -0.05409495 0.031624865 -0.0422597 -0.013703844
-0.13783468 1.0924939 -0.0896198 0.5060353 -0.1166583 0.5519479 0.1804086 0.1620707
-0.24072747 -0.54292715 0.00918634 0.044251066 -0.07249226 0.14002812 -0.4257576 -0.008136653
-0.05888864 -0.66459477 0.09950219 -0.16835807 0.16444278 0.590297 -0.19643158 0.38402733
0.35778144 -0.004787257 0.13280597 -0.13529287 -0.35304117 0.51162493 -0.080070876 0.04135674
-0.16605385 -0.55605334 -0.075552404 -0.26184887 0.5862241 -0.09569966 0.037926283 0.07835579
0.036333263 -0.078379594 0.99880624 0.009246107 -0.7237788 -0.49980247 0.017922403 0.014664697
-0.3279712 0.029875418 0.09222152 0.073069334 -0.07820845 -0.12194045 -0.3765911 -0.042901415
0.20775631 -0.0032813128 0.011790771 -0.105129145 -0.41945383 -0.7295913 -0.008610835 -0.06833138
0.061733212 -0.25079605 0.018112568 -0.012817664 -0.042182405 -0.10289795 0.033408802 -0.09193596
-0.39053094 0.28291854 0.05111232 -0.29911137 -0.10316376 0.053815994 0.02232033 -0.1383019
-0.07236238 0.032169417 -0.08887914 -0.3293014 0.029659284 -0.0028323971 0.30618143 0.32137647
0.025664918 -0.14446142 -0.43754044 -0.48294628 0.05193489 -0.00023671375 0.053057957 0.01341933
00000000: 69f7 a03c 361b 453e b8af 9b3c eba1 b53c
00000010: 5fca 16bc 555d c13c 87f6 c13e da65 2abf
00000020: 1499 753e 699c 233d d068 113d 45e9 c23d
00000030: 3ba0 063e 74ff f7bb b51d 843d dee4 12bf
00000040: a133 03be bde7 09be 0efe b53d a316 a63e
00000050: cafd 92be 21f3 abbe 4d34 0d3e 8554 02be
00000060: 3fed e3be f089 503e 6293 db3e fcb5 c63c
00000070: 8de6 b13d f5b5 d23c 1748 35be 289b febd
00000080: 6022 523e d5fc 9c3e 5fdb 62be c7cc 33bd
00000090: df0d da3d 1dfc 67bd 32fb 5f3f 9f7c b3bd
000000a0: 8d46 4e3e 13f9 57bd 0fa2 93be f644 613e
000000b0: f4e7 01bf 5fc5 bbbe f737 77be 9e08 95bd
000000c0: 6d6c 1dbe ba4d 04bf 8077 d4bd 8025 3abd
000000d0: ec7d d0be 08a0 13bd be00 e83d 4191 b5bc
000000e0: 0400 933d b00c d93d 045f dabc b9ce aebe
000000f0: e1ed 593d 307c e73d 662c 043d 9221 5fbd
00000100: 219b 533c 5823 23be e85b 193e dd58 013e
00000110: f6ae 10bd 054e 45bd 53f2 533e 9bb9 353e
00000120: a15f abbe e8ce 11be 576d ebbc bc46 2abd
00000130: 81f8 e03e aafd c23c b40c 12bd 31b9 79bd
00000140: d27b 90bd 7823 29bd 2172 ebbe bceb 1cbf
00000150: 430f f4bd a698 c4bc f9a6 e1bd f128 193e
00000160: 1c9a 323e 6b2c c93d a5da aebe 1f62 dd3c
00000170: 8670 c0bd deeb c73a 1dcb 0f3d 011b 98bd
00000180: 0a9e 6b3e ad55 e8bd c0f8 d4bc 8207 813e
00000190: 586a 8b3e 493f 8d3e d45b a9bd c460 87bd
000001a0: a44e 8d3d e426 b1bd 4c69 77be d876 5dbe
000001b0: f209 bbbd cffc 88be ed01 c8be b51e 3abf
000001c0: 6b57 9b3e a3aa 0dbe c4da 863d e451 373e
000001d0: 6e53 ef3d 9aee 653e 65a6 e3bd 968c 90bd
000001e0: 8e55 a53d bfa2 52bd d690 f13d bba4 babd
000001f0: 035d 0abe 15c8 84bc 4f67 bbbe 1217 b53e
00000200: 32bb 2b3d bc21 c03d c4b6 05bf c083 34bf
00000210: 7844 b4be a2bb 803c 93b5 3cbe 50ee 7c3d
00000220: 2f73 6cbe e9c5 14be 7c20 383d 8dd2 e33d
00000230: 9f56 77bf 0a6d e43d ba17 0dbb aa5a 98bf
00000240: 17b1 e13d 17da f4be 8cce 95bc 43f7 453e
00000250: 1ae9 793e 5f88 ad3d b549 42bc 8044 a2be
00000260: c5f9 163e e0ec 2c3e 6915 383d 2e76 c63d
00000270: ab92 5dbd 1389 013d 8218 2dbd 1686 60bc
00000280: 8924 0dbe d7d6 8b3f 968a b7bd 888b 013f
00000290: 8cea eebd 754c 0d3f 08bd 383e ddf5 253e
000002a0: 4381 76be 46fd 0abf 4d82 163c 9b40 353d
000002b0: d276 94bd 8863 0f3e e6fc d9be 994f 05bc
000002c0: 3735 71bd e222 2abf cec7 cb3d 0f66 2cbe
000002d0: b063 283e b41d 173f 5c25 49be 3b9f c43e
000002e0: 212f b73e 6cde 9cbb 4afe 073e 378a 0abe
000002f0: d0c1 b4be daf9 023f 33fc a3bd af65 293d
00000300: 050a 2abe 8359 0ebf 38bb 9abd 0e11 86be
00000310: c812 163f 2ffe c3bd 9758 1b3d 0079 a03d
00000320: 30d2 143d 7b85 a0bd c4b1 7f3f fc7c 173c
00000330: 9149 39bf 1ce6 ffbe 01d2 923c 3344 703c
00000340: d7eb a7be 4bbd f43c a3de bc3d 60a5 953d
00000350: c02b a0bd eabb f9bd 8cd0 c0be 65b9 2fbd
00000360: 12be 543e 4b0b 57bb 142e 413c f34d d7bd
00000370: a7c2 d6be 7fc6 3abf 7614 0dbc 53f1 8bbd
00000380: f7db 7c3d 5768 80be cf60 943c 2e01 52bc
00000390: 75c7 2cbd 29bc d2bd abd7 083d ec48 bcbd
000003a0: acf3 c7be b3da 903e 275b 513d 2025 99be
000003b0: 8547 d3bd 296e 5c3d 20d9 b63c 039f 0dbe
000003c0: ba32 94bd 14c4 033d 4406 b6bd 319a a8be
000003d0: 07f8 f23c bd9f 39bb d0c3 9c3e 758b a43e
000003e0: 3c3f d23c b2ed 13be 4d05 e0be bc44 f7be
000003f0: aeb9 543d 5d36 78b9 4d53 593d c0dc 5b3c

fc2.bias f4 [256]
0.18449327 -0.082223125 -0.08881642 0.5455242 -0.007226307 -0.5448547 -0.07401879 -0.06651434
-0.34540835 -0.11040904 0.2608366 -0.011309017 0.07672074 -0.109900504 -0.14128475 0.047667664
0.08347424 -0.020751243 -0.5201749 -0.15145333 0.4221297 0.36839628 -0.020815028 -0.21889351
-0.10669739 -0.16354576 -0.13428703 0.03170174 0.098838136 0.07557092 -0.26383314 -0.4667809
-0.062387504 -0.49680036 -0.10698031 -0.46460646 -0.0445742 -0.48464683 -0.049694184 -0.10271607
-0.16718578 -0.036425777 -0.040028553 -0.07771827 -0.06703017 -0.15676649 -0.0047041522 -0.103810966
-0.091354124 -0.11905626 -0.020064987 -0.08378973 -0.11104195 -0.41324538 -0.25805262 -0.10945661
-0.41774964 0.2588371 -0.046725728 -0.19359314 -0.100681305 -0.13720049 -0.16776727 -0.042900927
0.026266985 0.019015495 -0.5749879 -0.07383779 -0.059795264 0.08892732 -0.14028469 -0.11577208
0.2017786 0.029075013 -0.100658655 0.11511773 -0.61824125 -0.15300955 0.09941097 -0.096982755
-0.06367692 0.052014083 0.24445516 0.013782025 -0.22119522 0.027646482 -0.3345176 0.20659684
0.059417594 0.26177716 -0.14179386 -0.007822881 -0.08615693 -0.0048932745 -0.08831639 -0.056546174
-0.14074636 0.12741452 -0.22060208 -0.24210815 -0.2674992 0.19685368 0.09026403 0.011428893
0.2843684 -0.08071462 -0.10871813 -0.0381868 -0.49938634 0.120683216 -0.5271835 0.20329113
0.04321726 -0.14133331 -0.15671304 -0.066510074 0.017003255 0.21463855 -0.18258084 -0.05928683
-0.010137708 -0.12885055 0.019617459 -0.43039382 0.044546686 -0.22660762 -0.12039863 -0.018602863
-0.69291764 0.18033017 -0.14683068 -0.046345096 0.29910326 -0.09130081 -0.10950982 -0.1417384
-0.3593388 -0.09522577 -0.28100526 -0.020285917 -0.062116988 -0.03324226 0.0023715973 -0.05119735
-0.017949494 0.19610704 -0.17395863 -0.21038055 0.08949329 -0.13625088 -0.14495702 -0.18559127
-0.14286679 -0.56031764 -0.17198925 0.19241053 -0.17893086 -0.07387052 -0.12388001 -0.21647535
-8.019369e-05 -0.080256976 0.08725223 -0.17694044 -0.028152848 -0.47474286 0.19091226 -0.0022959383
-0.02178849 0.08572463 0.30082124 0.21008682 0.12547243 -0.3086936 -0.072023004 0.20488447
0.001429047 -0.10070773 -0.08258705 0.025884997 -0.03555775 0.73738784 -0.09754806 -0.39554188
-0.11231851 0.019531362 0.12442722 -0.5601311 0.02721798 -0.053255264 -0.025273247 0.2662589
-0.05040684 0.05282322 0.20725428 -0.3066478 0.5331232 0.0799085 0.08884445 -0.1873195
0.019929929 -0.38677242 0.036081053 -0.11431287 -0.07585316 -0.052424144 -0.008762698 -0.09137883
-0.07023015 -0.16800167 -0.05985314 0.0857584 -0.077705 -0.07868979 -0.10048452 -0.12917425
-0.137562 -0.01769504 0.14390062 -0.30363274 -0.09327894 -0.35373983 0.12750773 -0.04033272
-0.0221307 0.032189883 -0.59198123 -0.1180765 -0.10491866 -0.08674081 -0.15577252 -0.05456175
-0.13055845 0.0009824323 -0.14889435 -0.112770565 0.5096467 0.011711463 -0.03294076 -0.12008014
-0.10693462 -0.09038754 -0.15350075 -0.114016674 0.515475 -0.10959303 0.07825494 -0.053696398
-0.19829392 -0.779648 0.074793614 0.1635262 -0.07554365 -0.069495074 -0.11343377 -0.2961384
00000000: ceeb 3c3e 9964 a8bd 62e5 b5bd 79a7 0b3f
00000010: a8ca ecbb 997b 0bbf 2a97 97bd ac38 88bd
00000020: 5dd9 b0be 221e e2bd 608c 853e 7549 39bc
00000030: c31f 9d3d 8413 e1bd f3ac 10be 2b3f 433d
00000040: 8bf4 aa3d 83fe a9bc 2f2a 05bf 9516 1bbe
00000050: 6221 d83e 709e bc3e 4784 aabc 9f25 60be
00000060: 2984 dabd 8a78 27be 8a82 09be afd9 013d
00000070: a66b ca3d edc4 9a3d 2315 87be e8fd eebe
00000080: 0a8a 7fbd 9e5c febe 7e18 dbbd e6e0 edbe
00000090: 7093 36bd a123 f8be 218c 4bbd ce5c d2bd
000000a0: c032 2bbe 3233 15bd fbf4 23bd c22a 9fbd
000000b0: 1d47 89bd 6587 20be 4a25 9abb d89a d4bd
000000c0: df17 bbbd c5d3 f3bd 545f a4bc f399 abbd
000000d0: f669 e3bd e694 d3be 791f 84be ca2a e0bd
000000e0: 48e3 d5be 4c86 843e 7a63 3fbd 483d 46be
000000f0: 0032 cebd 497e 0cbe 2fcb 2bbe e2b8 2fbd
00000100: dc2d d73c 62c6 9b3c 6832 13bf 4438 97bd
00000110: e1eb 74bd 871f b63d caa6 0fbe ea19 edbd
00000120: 0d9f 4e3e b92e ee3c 2026 cebd d8c2 eb3d
00000130: 0f45 1ebf 89ae 1cbe fb97 cb3d e59e c6bd
00000140: 0c69 82bd b80c 553d 7452 7a3e 01ce 613c
00000150: 0081 62be e07a e23c e445 abbe 1f8e 533e
00000160: dd5f 733d a807 863e 6932 11be 8b2b 00bc
00000170: 0b73 b0bd c357 a0bb 39df b4bd f69c 67bd
00000180: d01f 10be f478 023e 83e5 61be 33eb 77be
00000190: a8f5 88be 0394 493e 59dc b83d 4040 3b3c
000001a0: bc98 913e b54d a5bd 9ca7 debd c369 1cbd
000001b0: 91af ffbe c328 f73d 7ff5 06bf 8d2b 503e
000001c0: 9504 313d aeb9 10be 6279 20be 6f36 88bd
000001d0: 694a 8b3c 35ca 5b3e 79f6 3abe bfd6 72bd
000001e0: a118 26bc 66f1 03be cbb4 a03c 945c dcbe
000001f0: 9676 363d d40b 68be 8f93 f6bd 0865 98bc
00000200: 0d63 31bf 79a8 383e c85a 16be 5bd4 3dbd
00000210: 1024 993e ebfb babd af46 e0bd df23 11be
00000220: 41fb b7be ba05 c3bd ecdf 8fbe a72e a6bc
00000230: 626e 7ebd 0929 08bd cd6c 1b3b 50b4 51bd
00000240: d10a 93bc 49d0 483e 3622 32be 006e 57be
00000250: 4248 b73d 5a85 0bbe 9d6f 14be a30b 3ebe
00000260: ac4b 12be fa70 0fbf f31d 30be 4407 453e
00000270: a739 37be 6d49 97bd cdb4 fdbd b7ab 5dbe
00000280: a92d a8b8 c55d a4bd 4cb1 b23d e02f 35be
00000290: cda0 e6bc 7f11 f3be 817e 433e 7477 16bb
000002a0: c67d b2bc 6590 af3d 3e05 9a3e 0021 573e
000002b0: d87b 003e 160d 9ebe cc80 93bd 3ccd 513e
000002c0: dc4e bb3a db3f cebd 6623 a9bd c60c d43c
000002d0: 01a5 11bd 73c5 3c3f 47c7 c7bd 7784 cabe
000002e0: 3f07 e6bd 3c00 a03c b3d3 fe3d c064 0fbf
000002f0: 3ef8 de3c 3122 5abd d709 cfbc 1653 883e
00000300: 6777 4ebd 295d 583d 773a 543e f100 9dbe
00000310: c37a 083f 11a7 a33d 14f4 b53d afd0 3fbe
00000320: 1744 a33c 0907 c6be bac9 133d de1c eabd
00000330: e758 9bbd b3ba 56bd 6b91 0fbc d324 bbbd
00000340: d3d4 8fbd a108 2cbe 9128 75bd 1aa2 af3d
00000350: cd23 9fbd 1d28 a1bd d4ca cdbd 4146 04be
00000360: 0edd 0cbe 30f5 90bc af5a 133e c075 9bbe
00000370: 0709 bfbd 631d b5be 6391 023e ec33 25bd
00000380: 714b b5bc 8ad9 033d 158c 17bf 18d2 f1bd
00000390: 98df d6bd 2aa5 b1bd d582 1fbe 247c 5fbd
000003a0: 1db1 05be f5c4 803a c377 18be 41f4 e6bd
000003b0: 3578 023f 70e1 3f3c e4ec 06bd 94ec f5bd
000003c0: 8a00 dbbd 1a1d b9bd 4d2f 1dbe 9381 e9bd
000003d0: 2bf6 033f 4f72 e0bd 2044 a03d c1f0 5bbd
000003e0: 900d 4bbe 0397 47bf 652d 993d 6a73 273e
000003f0: a1b6 9abd 6f53 8ebd f74f e8bd 749f 97be

fc3.weight f4 [128, 256]
0.12119945 -0.19076826 0.020256389 -0.41032988 -0.0090495655 -0.2454885 0.14104527 0.031770937
-0.3859341 -0.0763051 -0.20259622 0.070681214 0.062059768 -0.053556412 -0.04934997 0.18976304
-0.19963776 0.3491284 -0.36824286 -0.09043486 -0.7042063 -0.38074678 0.07386053 -0.5557336
0.15768778 -0.1955385 -0.17263706 -0.012544999 -0.03591112 -0.15100099 -0.5492085 -0.4173623
-0.028015751 0.09514827 0.09631359 -0.18779157 -0.241428 -0.27013224 -0.41607797 0.06799385
-0.18307494 -0.04026196 -0.23143288 -0.29154456 0.67841256 -0.16613999 0.032322776 -0.21196601
0.15661941 0.21781434 -0.19599943 -0.43147704 -0.24356396 0.3777378 -0.4963494 -0.08238304
-0.37686926 -0.16944878 -0.15130903 -0.13057305 -0.032494895 -0.3429578 -0.44941837 0.1606855
-0.114831455 -0.11908148 -0.6750903 0.13489316 -0.30195752 -0.20401545 0.18262506 -0.32128596
0.091716714 -0.05281443 -0.19981794 -0.05470908 0.41426313 0.14287148 -0.13334288 -0.0012830937
-0.17373578 0.043706965 -0.5909651 -0.21875452 -0.4579874 -0.16613592 -0.12367309 0.28226453
-0.3307023 -0.10467262 0.050361354 -0.18089408 -0.2281881 -0.15302165 0.102586515 -0.052873865
-0.09524822 0.46229824 0.009174514 -0.24367638 -0.38847834 -0.16424501 0.071257085 0.04369333
-0.30865663 -0.07677058 -0.0045622727 0.13774402 -1.4466828 -0.27420107 0.38693067 0.113646954
-0.31232134 0.06324872 -0.22531487 -0.0727811 -0.109353155 -0.10453834 0.20338544 -0.19097441
0.053231463 -0.0015202457 0.10030556 0.24188639 0.1708875 -0.045735475 0.12402229 -0.6208665
0.087302394 0.24193 -0.124860376 0.019012328 0.36897326 0.10454442 -0.013073691 -0.54554886
-0.19350469 0.12659326 -0.26771614 -0.22969218 0.095164314 -0.11995183 0.1011925 0.010017581
-0.10155 -0.36518276 -0.09833182 -0.20248222 -0.45775238 -0.066774175 0.20912533 -0.14647381
-0.027388897 -0.24972849 -0.07751619 -0.24801284 -0.07891044 -0.08524528 -0.27252328 -0.09284542
-0.038445026 -0.075239666 -0.14284615 -0.18363543 -0.17760797 0.2676941 0.24685769 0.081360005
0.2615955 -0.21737449 -0.20651437 0.2149315 -0.17554165 -0.73468745 0.032170776 -0.15599522
-0.08486472 0.21219051 0.085778296 -0.13587907 0.20985383 -0.69251025 0.08095873 -0.14402999
0.10758408 -0.04498162 -0.11911044 -0.34362352 -0.015814893 0.089616984 -0.20763038 -0.10238647
0.0045045805 0.06818132 -0.38240686 -0.10010267 -0.37886843 1.9882023e-06 -0.17375962 -0.057397373
-0.1813969 -0.43911752 -0.05821888 0.06279008 -0.013861342 0.11649911 -0.13900304 -0.05372263
0.112739086 -0.30037233 -0.36028215 0.015808597 0.5221227 -0.33653107 0.32782674 -0.035310708
-0.35004956 -0.16451947 -0.4127003 -0.6573215 0.08746985 -0.25231594 0.11013251 -0.09925805
-0.051108297 -0.13800897 -0.20860766 0.13241275 -0.49349678 0.015180953 -0.110977344 0.25131825
-0.030910287 0.06799847 0.26936746 0.17327924 -0.31403187 0.27526972 0.07741448 -0.17587139
0.27684692 0.17190602 -0.15308326 0.15022558 -0.38045904 -0.0394918 -0.1381381 -0.03181047
0.019626843 -0.70637715 0.17920813 -0.089001134 0.11295418 0.009315947 0.033160515 -0.4000902
00000000: 6b37 f83d c158 43be baf0 a53c c216 d2be
00000010: a144 14bc 5661 7bbe 2c6e 103e 3e22 023d
00000020: 2899 c5be d945 9cbd 6275 4fbe 50c1 903d
00000030: 6232 7e3d f85d 5bbd 3223 4abd 3e51 423e
00000040: d76d 4cbe f5c0 b23e 548a bcbe e935 b9bd
00000050: dd46 34bf 3ef1 c2be 3144 973d 8f44 0ebf
00000060: e878 213e 3f3b 48be c5c7 30be 8a89 4dbc
00000070: 8a17 13bd 01a0 1abe ee98 0cbf 83b0 d5be
00000080: 4a81 e5bc 19dd c23d 0f40 c53d 6f4c 40be
00000090: e738 77be c64e 8abe 2c08 d5be 5c40 8b3d
000000a0: ff77 3bbe bae9 24bd befc 6cbe 5445 95be
000000b0: 72ac 2d3f 9a20 2abe e364 043d 9e0d 59be
000000c0: d760 203e b90a 5f3e 13b4 48be 8fea dcbe
000000d0: d568 79be d966 c13e 8221 febe 70b8 a8bd
000000e0: 02f5 c0be fb83 2dbe c1f0 1abe f1b4 05be
000000f0: 5e19 05bd 2a98 afbe 2a1a e6be bd8a 243e
00000100: c12c ebbd fee0 f3bd b8d2 2cbf 6f21 0a3e
00000110: 2d9a 9abe 6de9 50be 1002 3b3e 987f a4be
00000120: f9d5 bb3d f253 58bd 139d 4cbe a116 60bd
00000130: 4c1a d43e e74c 123e 098b 08be 7b2d a8ba
00000140: cbe7 31be 1306 333d 7d49 17bf 2f01 60be
00000150: 537d eabe 891f 2abe 5148 fdbd fa84 903e
00000160: d051 a9be 995e d6bd b547 4e3d 4c3c 39be
00000170: 24aa 69be b5b1 1cbe e118 d23d 4492 58bd
00000180: 8011 c3bd 5bb2 ec3e b350 163c 4d86 79be
00000190: a2e6 c6be d82f 28be 3cef 913d c7f7 323d
000001a0: 3e08 9ebe e539 9dbd 1e7f 95bb c50c 0d3e
000001b0: e72c b9bf 1564 8cbe c71b c63e bcbf e83d
000001c0: 95e8 9fbe 8b88 813d f1b8 66be 420e 95bd
000001d0: 8cf4 dfbd 3218 d6bd 4644 503e cc8e 43be
000001e0: 3c09 5a3d fb42 c7ba 006d cd3d 11b1 773e
000001f0: 22fd 2e3e 1f55 3bbd 66ff fd3d 1bf1 1ebf
00000200: 99cb b23d 7fbc 773e ccb6 ffbd bebf 9b3c
00000210: 10ea bc3e 631b d63d 0933 56bc 17a9 0bbf
00000220: 1826 46be aaa1 013e 1712 89be 6d34 6bbe
00000230: 82e5 c23d 4ea9 f5bd 033e cf3d c820 243c
00000240: 72f9 cfbd 3cf9 babe 3162 c9bd 8057 4fbe
00000250: 855e eabe e6c0 88bd f324 563e 3bfd 15be
00000260: ae5e e0bc d3b8 7fbe cfc0 9ebd 14f7 7dbe
00000270: cc9b a1bd 1495 aebd 2c88 8bbe bd25 bebd
00000280: 8878 1dbd 4117 9abd 4346 12be ed0a 3cbe
00000290: ddde 35be 330f 893e 43c8 7c3e 13a0 a63d
000002a0: d8ef 853e 6b97 5ebe 8178 53be 0117 5c3e
000002b0: 31c1 33be 7a14 3cbf 81c5 033d 36bd 1fbe
000002c0: 8ecd adbd 7848 593e 88ac af3d e223 0bbe
000002d0: ece3 563e 5a48 31bf b1cd a53d 997c 13be
000002e0: 0b55 dc3d a63e 38bd 2df0 f3bd 6cef afbe
000002f0: 3c8e 81bc 1c89 b73d 0f9d 54be ffaf d1bd
00000300: 299b 933b a6a2 8b3d d5ca c3be a102 cdbd
00000310: 0bfb c1be 0e6d 0536 0bee 31be 8219 6bbd
00000320: 1cc0 39be 03d4 e0be ec76 6ebd 1698 803d
00000330: af1a 63bc 1697 ee3d d056 0ebe 430c 5cbd
00000340: c0e3 e63d 67ca 99be e776 b8be 0881 813c
00000350: d5a9 053f cd4d acbe e8d8 a73e f6a1 10bd
00000360: b239 b3be cb77 28be 744d d3be 3946 28bf
00000370: 6523 b33d 8e2f 81be 278d e13d ce47 cbbd
00000380: ef56 51bd 3952 0dbe 3f9d 55be 3597 073e
00000390: 9cab fcbe 88b9 783c 1748 e3bd c9ac 803e
000003a0: 9237 fdbc c842 8b3d 88ea 893e 1d70 313e
000003b0: c9c8 a0be 27f0 8c3e 7c8b 9e3d a117 34be
000003c0: e1be 8d3e 2208 303e dcc1 1cbe bcd4 193e
000003d0: 87cb c2be 27c2 21bd 1374 0dbe b24b 02bd
000003e0: 79c8 a03c 22d5 34bf 5682 373e 3a46 b6bd
000003f0: 8554 e73d eaa1 183c 52d3 073d 9fd8 ccbe

fc3.bias f4 [128]
-0.31129754 -0.5384883 -0.23613088 -0.47443625 -0.49886435 -0.09131046 -0.3908846 0.14567195
-0.023383832 -0.3288149 -0.01566092 -0.51673454 -0.46059185 -0.53608036 0.023339078 -0.24412826
-0.48169288 -0.39613864 -0.42555866 -0.5216929 0.258985 -0.5739692 0.29837728 0.0037593031
0.02250403 -0.47881904 -0.06286889 -0.077524826 -0.43629423 -0.3245459 0.18077277 -0.03592879
-0.31365824 0.18343264 0.065656826 0.09296959 -0.10332391 0.039761297 -0.55816936 -0.3130693
-0.32170242 -0.31610408 -0.38760975 -0.49545696 -0.48858258 -0.5383703 -0.3276983 -0.49262488
-0.4769415 -0.52396905 -0.0072540506 0.14906983 -0.48386547 -0.51824945 -0.5606995 -0.46239877
-0.14834441 -0.3161438 -0.11705329 -0.3447188 -0.5570226 -0.27897212 -0.2642779 -0.4768526
0.2493822 -0.52431655 -0.007108078 0.17059298 -0.13628632 -0.32325378 0.20849131 -0.39783588
-0.1969311 -0.516333 -0.06541005 -0.5770534 -0.22492336 -0.43944472 0.22657101 -0.36989754
-0.051887996 -0.605234 -0.46044454 0.2437086 0.2222452 -0.2120969 -0.06649079 -0.32262802
0.060433846 -0.38939404 -0.54144 -0.04986028 -0.5368453 0.28662345 -0.4791752 0.25473976
-0.47526348 -0.49532965 -0.60669154 0.06369955 -0.17117998 0.06387031 0.19888876 0.08642385
-0.08291771 -0.5083831 -0.3613085 0.52357054 -0.19668882 -0.34844854 -0.554198 -0.04243516
-0.090071656 0.29162735 0.19824715 0.016879423 -0.5845466 -0.47816947 -0.4335647 -0.5180929
-0.3573767 0.54374164 -0.52297354 -0.4461589 -0.45126727 -0.23666798 -0.14405577 0.63697296
00000000: 6462 9fbe 5fda 09bf 4bcc 71be 4fe9 f2be
00000010: 266b ffbe fa00 bbbd 0722 c8be 072b 153e
00000020: 738f bfbc 6d5a a8be 544b 80bc b748 04bf
00000030: b2d2 ebbe 903c 09bf 9831 bf3c c2fc 79be
00000040: 73a0 f6be afd2 cabe d3e2 d9be aa8d 05bf
00000050: af99 843e a5ef 12bf e8c4 983e a45e 763b
00000060: 5f5a b83c c527 f5be 68c1 80bd 56c5 9ebd
00000070: f561 dfbe e12a a6be 7f1c 393e 112a 13bd
00000080: d097 a0be c4d5 3b3e 1677 863d d766 be3d
00000090: 7c9b d3bd bedc 223d 30e4 0ebf 9f4a a0be
000000a0: 2eb6 a4be 65d8 a1be c974 c6be 89ac fdbe
000000b0: 7f27 fabe a3d2 09bf 12c8 a7be 5439 fcbe
000000c0: ad31 f4be d622 06bf 63b3 edbb c3a5 183e
000000d0: 37bd f7be ffab 04bf 018a 0fbf 88bf ecbe
000000e0: 99e7 17be 9add a1be a3b9 efbd fc7e b0be
000000f0: 0899 0ebf 6fd5 8ebe 6f4f 87be 0626 f4be
00000100: 0c5e 7f3e 9c39 06bf e1ea e8bb edaf 2e3e
00000110: a48e 0bbe 8581 a5be bf7e 553e 25b1 cbbe
00000120: 4ea8 49be 662e 04bf b4f5 85bd c6b9 13bf
00000130: 4f52 66be e6fe e0be 3b02 683e 3663 bdbe
00000140: 8288 54bd 9ef0 1abf 63bf ebbe bf8e 793e
00000150: 3f94 633e ee2f 59be 532c 88bd 802f a5be
00000160: 7b89 773d a85e c7be d09b 0abf 4b3a 4cbd
00000170: b26e 09bf 4fc0 923e 7456 f5be 406d 823e
00000180: bc55 f3be d99b fdbe 2350 1bbf e974 823d
00000190: ce49 2fbe 70ce 823d 7fa9 4b3e fdfe b03d
000001a0: c3d0 a9bd 6525 02bf 6dfd b8be b808 063f
000001b0: cb68 49be d967 b2be ecdf 0dbf 7ed0 2dbd
000001c0: 7d77 b8bd 2e50 953e 4d01 4b3e b746 8a3c
000001d0: d9a4 15bf a1d2 f4be 31fc ddbe bca1 04bf
000001e0: 14fa b6be a732 0b3f 98e1 05bf f06e e4be
000001f0: 810c e7be 1759 72be 5b83 13be a910 233f

fc4.weight f4 [4, 128]
-0.014331168 0.32374054 0.19330494 0.0520639 0.27211574 0.5604813 0.1390095 0.9443014
0.33264175 0.1390029 0.2154974 0.024989417 0.08588617 -0.019436257 1.4309134 0.5361354
-0.17600201 -0.03401786 0.2458023 -0.28067857 0.84763443 0.056247775 1.1307062 0.8389979
0.8003212 0.29687306 0.8247539 0.84192145 0.73085606 0.23202564 0.7530374 0.3551924
0.13050218 1.1838065 0.748604 1.0575683 -0.12617502 0.8844674 0.47033647 0.3837393
0.03122425 0.19908465 0.347783 0.08118876 0.23124434 -0.07169858 0.48955712 -0.027587809
0.41789955 0.10981708 1.1261632 0.7316795 0.50825834 0.12241238 0.12971151 0.25845432
0.1576474 -0.2625446 0.6432238 -0.14144646 -0.02801277 0.3759047 0.40879202 0.096277654
1.0881234 0.23038328 0.6943806 1.0858206 0.5580963 0.081551105 0.85625064 0.1275796
0.40470532 0.12803264 0.43636858 -0.05484686 0.8633526 -0.1171336 0.69406927 2.1811142
0.84600115 0.10630049 0.6225614 0.74030477 0.8860927 0.44743106 1.290678 0.103559345
0.7600158 0.16591895 0.43473786 -0.025814835 0.024066882 0.99974865 0.585672 0.76896757
0.09324997 -0.055343643 -0.16978964 0.5873587 0.89431244 0.7515628 0.6701054 0.8362988
-0.11696398 0.037466038 0.058300726 0.966104 0.106572725 -1.37966 0.045909837 0.104749866
0.5549586 0.7766377 0.8850692 0.711308 0.14563629 -0.024614986 0.13883258 0.121303305
0.07949261 1.3556896 -0.020112885 0.23950765 0.42479983 -0.2584804 0.7811989 1.1091021
0.3890146 -0.07886389 0.56422096 -0.20438354 -0.10581201 0.64483935 0.27626213 0.6969087
0.60555404 -0.060560077 0.61246437 0.05219676 -0.02650082 0.25585687 1.0277575 0.29190153
0.22522877 -0.0375899 0.009103763 0.28702664 0.73755765 -0.028424356 1.3208224 0.69430757
0.6590324 0.1905615 0.66783214 0.6262671 -0.19466268 0.5151406 0.79163873 0.28020492
0.35846642 1.3165028 0.746148 0.6446096 0.14267467 0.7988415 0.17249118 0.3909862
0.41660032 0.36689943 0.6492619 0.08115377 0.14018036 0.07245781 0.4035543 0.33476806
0.5093466 0.023753721 0.8748858 0.6912724 0.12758955 -0.07882613 -0.05084886 0.33237
0.5976977 0.0413309 0.6468041 0.38950375 -0.008177632 0.5355695 0.38751632 -0.53659064
1.4183064 0.27930054 0.7277242 0.7524487 0.91271126 0.39426845 0.769183 0.4033247
0.30277595 -0.09233662 0.6020934 -0.040069837 0.5169714 0.34975106 0.79408616 2.151116
0.7223855 0.52712005 0.77072066 0.73548555 0.92609066 0.5447175 0.60728115 0.09257537
0.7400105 0.35506576 -0.2934319 -0.005715493 0.020675821 1.0379895 0.31415114 0.8337506
0.022973869 0.27863663 0.087038234 0.7182015 0.7737213 0.7270083 0.7890745 0.9057783
0.37998754 0.34043625 0.31722626 1.1154522 0.282205 1.2344874 0.15432373 0.18387416
0.47684455 0.8789924 0.70978343 0.804871 0.36729842 -0.1885034 -0.24811853 -0.1275145
0.38573352 1.4718158 0.08133327 0.5099635 0.28795555 0.17645806 0.6554621 1.3227876
00000000: 46cd 6abc 52c1 a53e bbf1 453e f540 553d
00000010: c152 8b3e b47b 0f3f 8258 0e3e bdbd 713f
00000020: 0550 aa3e c756 0e3e 5aab 5c3e 9bb6 cc3c
00000030: 17e5 af3d c938 9fbc 2c28 b73f 2b40 093f
00000040: df39 34be 5056 0bbd 99b3 7b3e 1ab5 8fbe
00000050: 92fe 583f 1164 663d fbba 903f 91c8 563f
00000060: dae1 4c3f bfff 973e 1223 533f 2a88 573f
00000070: 6219 3b3f 2198 6d3e 0fc7 403f c7db b53e
00000080: 5da2 053e f986 973f 83a4 3f3f 665e 873f
00000090: 0634 01be 756c 623f f1cf f03e 7a79 c43e
000000a0: 00ca ff3c d9dc 4b3e 9d10 b23e 4b46 a63d
000000b0: 51cb 6c3e b5d6 92bd 3ba7 fa3e d4ff e1bc
000000c0: eef6 d53e c7e7 e03d 1e26 903f 594f 3b3f
000000d0: 381d 023f 58b3 fa3d 18d3 043e 2054 843e
000000e0: 526e 213e 3f6c 86be 51aa 243f 57d7 10be
000000f0: 097b e5bc 9576 c03e 304d d13e 382d c53d
00000100: a147 8b3f 98e9 6b3e edc2 313f 2bfc 8a3f
00000110: 66df 0e3f 4404 a73d 3e33 5b3f 3aa4 023e
00000120: 8935 cf3e fd1a 033e b46b df3e 1aa7 60bd
00000130: ad04 5d3f bee3 efbd 86ae 313f 6097 0b40
00000140: 8893 583f 12b4 d93d 2f60 1f3f 9d84 3d3f
00000150: f9d6 623f af15 e53e f034 a53f ec16 d43d
00000160: 6590 423f a8e6 293e f695 de3e a279 d3bc
00000170: e927 c53c 87ef 7f3f 9aee 153f 0fdb 443f
00000180: d7f9 be3d 04b0 62bd 56dd 2dbe 245d 163f
00000190: a9f1 643f 6b66 403f 078c 2b3f ae17 563f
000001a0: d08a efbd fd75 193d becc 6e3d 9752 773f
000001b0: cd42 da3d b398 b0bf f40b 3c3d 1987 d63d
000001c0: c411 0e3f bad1 463f e593 623f 4818 363f
000001d0: ae21 153e 5ea5 c9bc 212a 0e3e de6d f83d
000001e0: 06cd a23d 3d87 ad3f c7c3 a4bc 7e41 753e
000001f0: 5d7f d93e 8b57 84be a7fc 473f 0ff7 8d3f
00000200: ec2c c73e 6483 a1bd c970 103f eb49 51be
00000210: f8b3 d8bd 3114 253f 3b72 8d3e 9c68 323f
00000220: 9705 1b3f d80d 78bd 77ca 1c3f 45cc 553d
00000230: 3f18 d9bc acff 823e 8f8d 833f 1e74 953e
00000240: 5fa2 663e def7 19bd f327 153c 28f5 923e
00000250: 94d0 3c3f 32da e8bc b510 a93f 24be 313f
00000260: 59b6 283f 8e22 433e 0cf7 2a3f 0a53 203f
00000270: a755 47be 41e0 033f d6a8 4a3f 0577 8f3e
00000280: e988 b73e 2a83 a83f 8e03 3f3f 2205 253f
00000290: 4f19 123e e080 4c3f 87a1 303e 582f c83e
000002a0: a34c d53e 3eda bb3e 0736 263f f333 a63d
000002b0: 718b 0f3e c364 943d ab9e ce3e b866 ab3e
000002c0: 8a64 023f 2a97 c23c 84f8 5f3f 3af7 303f
000002d0: d6a6 023e 986f a1bd e546 50bd 672c aa3e
000002e0: b702 193f 974a 293d f494 253f 096d c73e
000002f0: 79fb 05bc 151b 093f 8a68 c63e 015e 09bf
00000300: 108b b53f 7b00 8f3e 224c 3a3f 7aa0 403f
00000310: 72a7 693f 8edd c93e 2de9 443f 9380 ce3e
00000320: 7305 9b3e fb1a bdbd cb22 1a3f 4520 24bd
00000330: 3d58 043f 9212 b33e 3b49 4b3f e2ab 0940
00000340: 42ee 383f 57f1 063f f34d 453f c848 3c3f
00000350: 4714 6d3f 9b72 0b3f c776 1b3f 2898 bd3d
00000360: 5471 3d3f 2ecb b53e b53c 96be 0849 bbbb
00000370: 5760 a93c d7dc 843f 6bd8 a03e ae70 553f
00000380: b233 bc3c 76a9 8e3e 1a41 b23d 0edc 373f
00000390: 9912 463f 371d 3a3f c900 4a3f 16e1 673f
000003a0: ba8d c23e a94d ae3e 7b6b a23e 23c7 8e3f
000003b0: 2c7d 903e af03 9e3f 0a07 1e3e 8249 3c3e
000003c0: f824 f43e a505 613f 5eb4 353f 070c 4e3f
000003d0: 8a0e bc3e 0907 41be c912 7ebe 2993 02be
000003e0: dd7e c53e 7664 bc3f 0f92 a63d f88c 023f
000003f0: e96e 933e 6cb1 343e 5dcc 273f 1b51 a93f

fc4.bias f4 [4]
0.8434441 0.8350652 0.79236275 0.8613645
00000000: f4eb 573f d5c6 553f 49d8 4a3f 6282 5c3f

ln1.weight f4 [256]
0.477983 0.41992697 0.22923079 1.1933378 0.40383312 0.38218468 0.42590618 0.66204894
0.4039479 0.43015894 0.43290034 0.22521949 0.32179812 0.52752614 0.37658828 1.317951
1.1054848 0.32697356 0.45062625 1.4438149 0.29734755 0.7349113 0.4584647 0.9583207
3.3192313 1.1483086 1.8839841 0.43146694 0.760547 0.3981642 0.007417741 0.36911628
0.1666743 0.5402158 0.44699144 0.32774878 0.6730701 0.3847999 0.9641469 0.45847887
0.2117854 0.47032008 0.43442816 0.44089043 0.80205625 0.19194892 0.5227321 0.30991232
1.0499529 1.3836462 0.39654106 0.3090465 0.47483948 0.4617183 0.44732305 0.81702346
0.57751006 0.4417535 0.18536533 0.18162608 0.37393424 0.44211483 0.48048604 0.4107448
0.16452163 0.034156885 0.42566207 0.47950166 0.054539748 0.4230475 1.0367913 0.38404396
0.7371201 0.60814124 0.42912146 0.6586971 0.87926435 0.4034165 0.38131043 0.3992496
0.34909597 0.47779286 1.5551841 0.64795566 0.42765847 0.46423903 0.32812956 0.51465607
0.37503943 0.3937431 1.7180454 0.4140696 0.34814328 0.61293215 0.45915028 0.27134097
0.43829829 0.2914699 0.57543224 0.44016773 0.4869505 1.3138093 0.35531095 0.42881954
0.38350514 0.3814609 0.24321222 0.370396 0.07553532 0.19823556 0.43885317 0.94475704
0.22659472 0.49555394 0.35173208 0.48409235 0.6749114 0.9961733 0.32421198 0.9888934
0.44665408 1.2603946 0.3920984 0.11155475 0.3785142 0.3272515 1.0547982 0.98375076
0.40839443 0.35956076 1.1674018 1.3506064 1.546587 0.47724625 0.457452 1.2388533
1.1174798 0.4481907 0.9593022 0.36176968 0.5714277 0.41625834 1.1166022 1.0423399
0.39132315 0.74690145 0.36429736 0.44052047 0.41990492 0.46174866 0.44728896 0.3450263
0.42304626 0.3562319 0.40732434 0.40352333 0.1940406 0.42899826 0.47039032 0.44471818
0.35805544 1.107838 0.4084707 1.0545329 0.17161319 0.6194109 1.4459141 0.44849586
0.28734538 0.47495982 0.37106213 0.37273937 0.48151678 0.3833138 0.3988361 0.36455914
0.46288893 0.5499851 0.076273285 0.42559463 0.41828173 1.5511415 0.29770836 0.4646053
0.30798507 0.40614176 0.4261693 0.45815012 0.6800084 0.96994525 0.42494088 0.39826864
0.27576667 0.6013126 0.340117 1.7204076 0.85198426 0.3222511 0.49984887 0.20535678
0.45205337 0.40643522 1.1951159 0.40864155 0.7669589 2.0768485 1.1561581 0.38957322
0.9952385 0.45041975 1.5015315 0.46495152 0.26634666 0.11330394 0.40514627 1.5794547
0.4505238 0.35633174 0.42541355 0.13672292 0.3028193 2.3469756 0.48341936 0.3958164
0.4752439 1.0206052 0.092105314 0.40476424 2.1328735 0.40733197 0.43260965 0.094647005
1.6631728 0.40956402 0.38030753 0.3048624 0.4286163 0.5157468 0.40418246 0.4441418
1.5154852 0.4058397 0.34598157 0.9881323 0.47539142 0.31338355 0.4733965 0.44028613
0.46453837 0.4632473 0.34081012 1.1095871 0.26945677 0.4049059 0.4851398 0.2686007
00000000: 30ba f43e ab00 d73e 7abb 6a3e 4bbf 983f
00000010: 37c3 ce3e b6ad c33e 6010 da3e 0a7c 293f
00000020: 42d2 ce3e cb3d dc3e 1da5 dd3e f09f 663e
00000030: b9c2 a43e f40b 073f 2ed0 c03e 9eb2 a83f
00000040: 8780 8d3f 1469 a73e 7cb8 e63e edce b83f
00000050: f03d 983e 2623 3c3f e3bb ea3e 8154 753f
00000060: 496e 5440 c7fb 923f 6426 f13f 3ce9 dc3e
00000070: 35b3 423f 2edc cb3e 8610 f33b cffc bc3e
00000080: abac 2a3e 954b 0a3f 10dc e43e b0ce a73e
00000090: 524e 2c3f 7e04 c53e 55d2 763f bebd ea3e
000000a0: 46de 583e cbcd f03e 5e6d de3e 64bc e13e
000000b0: 8f53 4d3f 428e 443e c5d1 053f d4ac 9e3e
000000c0: db64 863f 521b b13f 6e07 cb3e 583b 9e3e
000000d0: 291e f33e 5766 ec3e 8707 e53e 7328 513f
000000e0: b3d7 133f 842d e23e 69d0 3d3e 30fc 393e
000000f0: 4f74 bf3e e05c e23e 4402 f63e 244d d23e
00000100: 5c78 283e 17e8 0b3d 61f0 d93e 3e81 f53e
00000110: 1265 5f3d af99 d83e 94b5 843f 69a1 c43e
00000120: e7b3 3c3f 25af 1b3f cfb5 db3e 60a0 283f
00000130: 7817 613f 9c8c ce3e 1f3b c33e 726a cc3e
00000140: b5bc b23e 44a1 f43e 4610 c73f 6ce0 253f
00000150: 0df6 da3e bdb0 ed3e 9900 a83e 80c0 033f
00000160: 2b05 c03e b298 c93e e9e8 db3f ee00 d43e
00000170: d63f b23e 1fe9 1c3f bf15 eb3e 34ed 8a3e
00000180: a268 e03e 8b3b 953e 874f 133f aa5d e13e
00000190: 9351 f93e e72a a83f 51eb b53e 3c8e db3e
000001a0: c95a c43e d84e c33e a00c 793e 8ba4 bd3e
000001b0: 43b2 9a3d 43fe 4a3e 5db1 e03e 99db 713f
000001c0: 7208 683e 3fb9 fd3e 3a16 b43e f4da f73e
000001d0: fec6 2c3f 3705 7f3f 1dff a53e 1e28 7d3f
000001e0: d8af e43e 9c54 a13f 1fc1 c83e d176 e43d
000001f0: 9dcc c13e 828d a73e a103 873f 17d7 7b3f
00000200: 1319 d13e 5918 b83e 6c6d 953f ace0 ac3f
00000210: 90f6 c53f 9f59 f43e 2637 ea3e bf92 9e3f
00000220: 9409 8f3f 4079 e53e d494 753f e039 b93e
00000230: 1649 123f d01f d53e d2ec 8e3f 656b 853f
00000240: 825b c83e ef34 3f3f 2f85 ba3e e68b e13e
00000250: c7fd d63e 526a ec3e 0f03 e53e 4aa7 b03e
00000260: 8599 d83e 0764 b63e d18c d03e 9c9a ce3e
00000270: 94b2 463e a9a5 db3e 00d7 f03e 1ab2 e33e
00000280: 0b53 b73e a3cd 8d3f 1223 d13e effa 863f
00000290: 5ebb 2f3e b691 1e3f b713 b93f 40a1 e53e
000002a0: ef1e 933e ef2d f33e dbfb bd3e b2d7 be3e
000002b0: 5e89 f63e b541 c43e 3f34 cc3e 7fa7 ba3e
000002c0: c7ff ec3e d3cb 0c3f 2b35 9c3d 8ae7 d93e
000002d0: 0629 d63e ce8b c63f 3b6d 983e bfe0 ed3e
000002e0: 38b0 9d3e d0f1 cf3e dd32 da3e a792 ea3e
000002f0: 0815 2e3f 554e 783f da91 d93e dee9 cb3e
00000300: 4a31 8d3e 9fef 193f d123 ae3e 5136 dc3f
00000310: a41b 5a3f 19fe a43e 31ec ff3e 0c49 523e
00000320: 8a73 e73e 4718 d03e 8ff9 983f 7739 d13e
00000330: 6b57 443f 16eb 0440 fdfc 933f 2476 c73e
00000340: f3c7 7e3f 6b9d e63e 2f32 c03f 200e ee3e
00000350: 975e 883e e50b e83d 556f cf3e 922b ca3f
00000360: 0eab e63e 1d71 b63e cecf d93e 1801 0c3e
00000370: 220b 9b3e d934 1640 be82 f73e 72a8 ca3e
00000380: 2b53 f33e 31a3 823f b6a1 bc3d 423d cf3e
00000390: 0081 0840 d18d d03e 037f dd3e 4ad6 c13d
000003a0: d9e2 d43f 60b2 d13e abb7 c23e ed16 9c3e
000003b0: 9873 db3e fb07 043f 01f1 ce3e 8e66 e33e
000003c0: 6bfb c13f 39ca cf3e 7f24 b13e 3df6 7c3f
000003d0: 8166 f33e cf73 a03e 0761 f23e 2f6d e13e
000003e0: f9d7 ed3e c02e ed3e aa7e ae3e f306 8e3f
000003f0: 3df6 893e d34f cf3e 3e64 f83e 0886 893e
