trained_models/checkpoint_ep1700.pth (torch, 416160 bytes, 14 tensors)

fc1.weight f4 [256, 8]
000000 ad 77 fb 3d 44 4b 63 3e 8f b0 a4 3e 84 a8 13 3f
       0.12278686 0.2219668 0.32165954 0.5767901
000010 ca 6a 40 3e 89 95 3f bf 87 c5 69 3e ee 72 65 3e
       0.18790737 -0.7483755 0.22829257 0.22407123
000020 4c df 64 3e cf 6f 52 3e 4c fa d5 3e 5e 30 43 3f
       0.22350806 0.20550464 0.41792524 0.7624568
000030 b3 83 b5 3d 02 2e 2f bf 89 d2 7e 3e 7e 08 59 3e
       0.0886301 -0.6842958 0.24885 0.21194646
000040 50 1d ff bd a3 fc 0a 3e 8b 5b 14 3f d6 27 d6 3e
       -0.12456763 0.13572936 0.57952183 0.41827267
000050 6c 1b 70 3d c8 b1 fc bd 6b c1 3f 3e f9 31 2b 3e
       0.0586199 -0.123385966 0.18726127 0.16718282
000060 ee 10 58 be 84 44 16 3e e7 f6 04 3e e0 e2 0b bf
       -0.21100208 0.14674574 0.12984811 -0.5464306
000070 bd 06 bc 3d fa 1e fe bd 29 88 8b 3c fe 9b 08 3d
       0.09180973 -0.12408252 0.0170327 0.03335189
000080 00 d2 02 be 9a 9c 63 3e 43 61 da 3e 7b 8e e6 3e
       -0.12775421 0.22227708 0.4265233 0.4503058
000090 95 8a 59 3e 0d 21 18 bf 5d 4f 52 3e 6f 56 04 3d
       0.21244271 -0.5942543 0.20538087 0.032308992
0000a0 68 21 a3 bd d1 92 94 3e e1 e4 10 3f 0a 67 26 3f
       -0.07965356 0.29018262 0.5659924 0.65000975
0000b0 9f 0b e3 3d e5 90 3e bf ab 47 5a 3e 36 37 1e 3e
       0.11086201 -0.7443984 0.21316402 0.15450749
0000c0 cc 88 de 3e c7 2b 89 3e d5 2a 62 3e 91 97 3d 3f
       0.43463743 0.26791212 0.22086652 0.74059397
0000d0 52 1e a1 3e 77 16 c1 bf 48 65 61 3e 4c bd 96 3e
       0.31468445 -1.5084981 0.22011292 0.29441297
0000e0 75 34 d9 be 07 f2 a8 bb 0d 7d 47 3f 70 75 80 3d
       -0.42422834 -0.005155805 0.7792519 0.062723994
0000f0 c8 09 2e 3d f9 0d 36 3e 9e 15 52 3e 8b a3 81 3d
       0.042489797 0.17778768 0.20516059 0.063300215
000100 fc 4a 94 3c 7f 84 20 3e b6 19 08 3f a6 b8 c5 3e
       0.018102162 0.15675543 0.5316423 0.38617438
000110 81 6d 16 3e 76 bb 28 bf 7b fe 59 3e e4 54 06 3e
       0.1469021 -0.6591104 0.21288483 0.1311832
000120 4f b7 90 bd 6a 6c 5a 3e d9 c2 02 3f a1 25 04 3f
       -0.07066213 0.21330419 0.51078564 0.5161992
000130 aa 36 29 3e f9 1b 21 bf aa fd 57 3e 96 9b fc 3d
       0.16524759 -0.6293331 0.21092859 0.12334363
000140 e7 41 1f 3e af 9a 6e 3e 72 a6 f2 3e cc 90 25 3f
       0.15552483 0.23301195 0.47392613 0.6467407
000150 14 d9 32 3e 99 1f 7e bf a1 e1 76 3e f6 b4 3e 3e
       0.17465621 -0.99266964 0.24109508 0.18623719
000160 db 2e 63 be 61 8b 51 3c f2 4b 15 3f 60 30 bf 3e
       -0.22185843 0.012789578 0.5831901 0.37341595
000170 ff 8f 27 bc 14 f4 31 3f 87 28 1f 3e 6b 4c 5b bd
       -0.010227202 0.6951306 0.15542804 -0.053539675
000180 d3 d8 4d bd 6f d9 d2 3d 83 ea 0a 3f f7 08 3a 3f
       -0.050255608 0.102953784 0.54264086 0.7266993
000190 50 64 17 3e 3e 78 a3 be 39 6c 66 3e f4 a5 d4 3d
       0.1478436 -0.31927675 0.22502221 0.103832155
0001a0 d4 fa c8 bc 7b 49 b9 3c 93 d6 1e 3f 94 8a ae 3e
       -0.024533667 0.022618046 0.62046164 0.34090102
0001b0 37 71 c7 3d 96 46 af 3d 4e 15 27 3e ad 1c 35 3e
       0.09738391 0.08558385 0.16316721 0.1768672
0001c0 1d 9f 69 3e bf 5f aa 3e 93 78 94 3e ae 26 4d 3f
       0.22814603 0.33276173 0.2899824 0.80137146
0001d0 3e 10 3c 3e e3 37 b3 bf e9 07 7d 3e ee 30 bf 3e
       0.18365571 -1.400143 0.24710049 0.37342018
0001e0 52 95 e9 3d 4d 28 47 3d 97 df 24 bf c5 c5 75 bf
       0.11405434 0.04862242 -0.6440367 -0.960049
0001f0 49 f9 b1 3d bd 62 a3 be 59 fb ec 3e f5 f9 9d 3d
       0.086901255 -0.3191127 0.46285513 0.07713691
000200 50 59 09 3f 0b 73 88 3e 7a 80 e7 3d 48 b1 18 3f
       0.53651905 0.2665027 0.11303802 0.5964551
000210 d4 1b 3e 3e 7d 1a ca bf a3 07 43 3e 88 a6 03 3e
       0.18565303 -1.5789334 0.19045882 0.12856495
000220 e6 7e 56 be 83 f1 fb 3d ab 0c 09 3f 7b eb 26 3f
       -0.20946845 0.12301924 0.53534955 0.65203065
000230 c5 4f 44 3e 78 55 05 bf cd 65 6f 3e ca 97 2e 3e
       0.19171055 -0.5208354 0.23378678 0.1705009
000240 6e 35 52 3e 4e 73 90 3e de 27 8c 3e c4 d1 2e 3f
       0.20528194 0.2821297 0.27374166 0.68288827
000250 3f fa 94 3e f5 7c 9d bf b8 81 72 3e 92 36 67 3e
       0.29097173 -1.2303759 0.23682296 0.2257941
000260 bc f2 a5 bd 2c e5 af 3d 2d 49 e5 3e 7a 06 70 3f
       -0.081029385 0.08588633 0.4478239 0.9375988
000270 8c 37 7a 3d ca dc 30 3e b5 1b 96 3d dd 3f 78 3d
       0.06108813 0.17271724 0.073295034 0.06060778
000280 03 64 93 bd e8 b7 17 3e 1b f2 07 3f 1d 0a d4 3e
       -0.0719681 0.14816248 0.531038 0.41413966
000290 7b 62 1d 3d d5 d1 04 3c fc bb 37 3e 77 10 7a 3c
       0.038423996 0.0081066685 0.17942804 0.015262715
0002a0 c8 8b 2c 3d f6 21 5a 3e 62 c5 ea 3e c2 c5 b1 be
       0.042125493 0.21302018 0.45853716 -0.3472119
0002b0 24 ed d9 3d 39 73 1d bf 0a aa 56 3e cc 90 5c 3e
       0.10640934 -0.6150394 0.20963302 0.2153961
0002c0 07 fd 77 3d 11 6e 65 3e 04 41 0b 3f d0 7b 2f 3f
       0.06054404 0.22405268 0.5439608 0.685483
0002d0 10 03 d5 3d 0b f5 1c bf c7 3a 6a 3e 4b 10 fb 3d
       0.10400975 -0.61311406 0.22873984 0.12258967
0002e0 e2 0b 8d 3d b8 a8 2d 3e ec 7b cf 3e ed f0 f9 be
       0.06887032 0.16958892 0.40524232 -0.48816624
0002f0 d3 33 1b 3e d8 8a 2c bf 7a aa 8f 3e b5 7a 1e 3e
       0.15156488 -0.6739936 0.2805975 0.15476497
000300 d3 9a 18 be 47 08 2d 3e c5 cb 13 3f b9 a5 81 bc
       -0.14902811 0.16897689 0.577328 -0.015826093
000310 2e 4d 52 bd 50 29 00 bf 5d a3 fa 3e 6d 4a e1 bd
       -0.051343136 -0.5006304 0.4895276 -0.11000524
000320 cf 81 1a 3f 99 3a 66 3e 56 3a 21 bf c0 97 24 bd
       0.6035432 0.2248329 -0.6297964 -0.040183783
000330 71 43 b3 3e 2f f5 fc be 1a 16 d9 3d 56 2e 2d 3e
       0.3501239 -0.4940581 0.10599919 0.16912207
000340 73 4a e1 3e ef 21 8d 3e a2 54 c2 bf 6c 24 9f bd
       0.44002113 0.27564952 -1.5182078 -0.07770619
000350 36 1a 5b 3e de f8 de bd a2 41 c3 3e 35 94 80 3e
       0.21396717 -0.108873114 0.3813601 0.25113073
000360 8f c7 96 bd 49 9a 28 3e 1e 47 1b 3f b0 7c 49 3f
       -0.073622815 0.16465105 0.6065539 0.78705883
000370 14 51 25 3e 19 df 07 bf 51 32 75 3e 55 d1 a2 3d
       0.1614421 -0.53074795 0.23944975 0.07950083
000380 b4 c1 a9 3e 2b 8e 83 3e ab 74 1a 3d 34 16 97 3e
       0.33155596 0.25694403 0.03770892 0.29509127
000390 09 5f 48 3e a2 12 dd be c9 5b 40 3e 1b 2a f0 3d
       0.19567503 -0.43178278 0.18785013 0.11726781
0003a0 a4 f3 ba 3e f6 07 a1 3e 85 3d 9c 3e e9 bd 27 3f
       0.36514008 0.31451386 0.30515686 0.65524155
0003b0 dc 8c 28 3e b9 33 92 bf a3 28 6f 3e 5c d7 05 3e
       0.16459984 -1.1422035 0.23355345 0.13070434
0003c0 63 73 fc be da a0 b5 bc a7 a5 5f ba af ee 08 be
       -0.49306783 -0.022171427 -0.0008531459 -0.133723
0003d0 b9 05 db 3b 3f 7c 09 40 27 fc 62 3c 68 9c b3 3c
       0.006684032 2.1482084 0.013854063 0.021925166
0003e0 42 29 21 3d c6 5a 77 3e 5f 95 f7 3e 67 1d 08 3f
       0.039345987 0.24155721 0.4835615 0.53169864
0003f0 b2 f7 13 3e ef 6a 43 bf b0 ed 5a 3e a2 03 64 3e
       0.14449957 -0.7633504 0.21379733 0.22267011

fc1.bias f4 [256]
000000 88 fc 38 3e e4 42 4a 3e 39 5e bb 3d 01 ec 8e 3d
       0.18065083 0.19752079 0.09148831 0.06978608
000010 58 b7 24 3e 04 f6 16 3e 14 a1 9e 3e ff d4 29 3c
       0.16085565 0.14742285 0.30982268 0.010365724
000020 dd 5a 40 3e 4f a3 14 3e 5d 27 53 3e 8b a8 81 3d
       0.18784662 0.14515422 0.20620485 0.06330975
000030 66 3f f2 3d 6d 00 2a 3d 02 fa 99 3e a5 43 5c 3d
       0.118284985 0.041504312 0.30073553 0.05377545
000040 bf 48 86 3e 56 30 0d 3e 2d 35 6c 3e e1 8e 64 3d
       0.26227376 0.1378797 0.2306716 0.055800322
000050 52 e5 f5 3d f1 e8 0f 3e e0 b6 13 3e 18 2b 0f 3e
       0.1200663 0.14053704 0.1442523 0.13981283
000060 35 09 8a bc 2a 3d 76 3e 8d fd 69 3e 1c bb dd 3d
       -0.016850093 0.2404677 0.22850628 0.10826704
000070 ec 60 31 3e 5c 4e 90 3e b8 da 80 bd 54 ea 1e 3e
       0.17322129 0.28184783 -0.06291717 0.15519077
000080 8b db 85 bb 27 1e 22 3e 3c b6 0a 3e 18 7b bd 3d
       -0.0040850095 0.15831815 0.1354608 0.09251994
000090 82 1f eb 3d ce e6 09 3e 1d bd 83 3e 78 ae 22 3e
       0.11480619 0.13466951 0.2573022 0.15886867
0000a0 af 64 c2 ba 87 88 22 3e f9 f6 ee 3d ac a4 35 3e
       -0.0014831031 0.15872394 0.116682 0.17738599
0000b0 7a 30 89 3e 68 98 a5 bd d6 51 d2 3c ed 1f 8a 3d
       0.26794797 -0.0808571 0.025673788 0.067443706
0000c0 c5 e6 93 3e 22 d5 12 3e 4d 36 0c 3e 6e b2 0b 3e
       0.28887 0.14339116 0.13692589 0.13642284
0000d0 21 d6 10 3d 1a cb 15 3e ac 78 2b 3e e6 2c 79 3e
       0.03536046 0.14628258 0.16745251 0.24333534
0000e0 49 46 95 3e 54 5a 2d 3e 3b 0d b9 3c 06 3f 17 3b
       0.29155186 0.16928989 0.022589317 0.0023078336
0000f0 c4 7f 7a 3c 25 0d 72 3e a7 35 c6 3d 51 fb 7a 3e
       0.015289251 0.23637827 0.09678202 0.24509932
000100 da 48 86 3d bb 9a 7a 3c 2b 9a 47 3e bc b7 d6 3d
       0.06556864 0.01529568 0.19492404 0.10484263
000110 a7 d0 b8 3c eb 60 21 3e 14 88 08 3e 00 0f 40 3e
       0.02256043 0.15759628 0.1333316 0.18755722
000120 e5 14 ac 3d 6e cb ec 3d 46 95 31 3e bd 86 8f 3e
       0.08402423 0.11562239 0.173421 0.28032485
000130 78 c7 41 3e 77 10 0b 3e 66 14 30 3e e7 96 87 3e
       0.18923748 0.135805 0.17195281 0.26482317
000140 1d 32 38 3e 84 74 fc 3d 7c 72 32 3e bd e4 8b 3d
       0.17987867 0.12326911 0.17426485 0.06830738
000150 03 fc e6 3d 48 57 19 3e 85 c2 c1 3d 2e 45 82 3e
       0.11278536 0.14974701 0.0946093 0.25443405
000160 ad 80 37 3e fb 01 9f 3e a9 11 d7 bd f6 28 42 3e
       0.1792018 0.31056198 -0.10501415 0.18960938
000170 84 17 25 3e 82 b2 a7 3d 41 43 43 3e cc bc 8f 3d
       0.16122252 0.081883445 0.19068624 0.07018432
000180 64 6e 63 3e d3 d6 cd 3d 0b 81 83 3e a0 00 45 3e
       0.2221008 0.1005074 0.2568439 0.1923852
000190 4c 98 29 3e 35 25 c7 3b c1 67 58 3c e9 d6 fe 3d
       0.16562003 0.0060774335 0.013208331 0.124433346
0001a0 fb a0 de 3d 14 de 43 3e e4 aa 10 3e e5 b5 2a 3e
       0.10870548 0.19127685 0.1412769 0.1667095
0001b0 54 35 e9 3d 43 6a ec 3c 22 20 e6 3d f5 b0 2d 3c
       0.11387125 0.028859263 0.112365976 0.010601272
0001c0 1d 9c 7c 3d 1f ae 29 3e 8b 93 24 3e 90 0c 1b 3e
       0.06167232 0.16570328 0.16071908 0.15141511
0001d0 20 dc 40 3e d8 c1 a9 3e ac 84 c7 3d 0b 71 bc 3e
       0.18833971 0.33155704 0.09742102 0.36804995
0001e0 d1 d9 50 3e b8 f8 b5 3d f8 3f 1f bc 02 1f f5 bc
       0.2039559 0.0888533 -0.009719841 -0.029922012
0001f0 22 a5 2e 3e ab 50 e2 3d 16 ae ad 3e 55 c8 94 3e
       0.1705518 0.110505424 0.3392188 0.2905909
000200 0c ea 0d 3e b1 e0 13 3e 23 9c d1 3e d4 9b 51 3e
       0.13858813 0.14441182 0.40939435 0.204696
000210 25 44 d0 3e 07 71 69 3e cf 39 26 3e 95 54 87 3e
       0.4067699 0.22797023 0.1623299 0.26431718
000220 ea 69 8a 3e 96 2b 24 3e c9 5b 43 3e 9f a7 0b 3e
       0.2703393 0.16032252 0.19077982 0.13638161
000230 d2 12 c7 3d 88 2c 3d 3e df 5d 74 3e ee ce 0e 3e
       0.097203866 0.18474019 0.23863934 0.13946125
000240 7f ba ec 3d b5 9a 35 3e 7b c7 05 3e a5 15 14 3e
       0.11559009 0.17734797 0.13064377 0.14461382
000250 cd b3 e4 3d 7d 8a 1a 3e 35 22 31 3e 03 6c 4b bd
       0.11167107 0.15091892 0.17298205 -0.049663555
000260 22 b9 44 3e 9e 87 fe 3d 8b a0 0f 3e 40 85 18 3e
       0.19211248 0.12428211 0.14026086 0.14894581
000270 db 78 1e 3c e2 97 16 3e 8a e9 28 3e c7 a6 48 3e
       0.009672369 0.14706376 0.16495338 0.1959487
000280 94 7b 0e 3e ce 2a 4e 3e 1c c1 48 3e 5b 68 49 3e
       0.13914329 0.20133516 0.19604915 0.19668715
000290 e2 c4 e8 3d 69 6f 55 3e f9 42 57 3e 3a 02 7a 3e
       0.113656774 0.20843281 0.21021642 0.24414912
0002a0 2d b8 0b 3e 7e 0b 57 3e 1a 80 3c 3e 05 fe 8e 3e
       0.13644476 0.21000478 0.18408242 0.27928177
0002b0 b5 28 ee 3d 58 35 23 3e 7b fa 48 3e 8c ad 35 3e
       0.11628858 0.15938318 0.196268 0.17741984
0002c0 cb e2 4b 3e 28 d2 2d 3e dc a1 94 bd 12 99 29 3e
       0.19910733 0.169747 -0.07257435 0.16562298
0002d0 25 47 25 3e 1e 66 88 3e 23 84 32 3e 3a 86 3d 3e
       0.1614042 0.2664041 0.17433219 0.18508235
0002e0 e3 78 e0 3d 01 a1 1e 3e 99 9c 2d 3e 44 a1 ee 3d
       0.10960557 0.15491106 0.16954269 0.11651853
0002f0 7d 46 df 3e 62 b6 7c 3e 22 2a 17 3e 5b 7d 2d 3e
       0.43608466 0.24678949 0.14762166 0.1694235
000300 71 0f 2f 3d 98 ba 9e 3c 07 b5 97 3d bc bc 3c bc
       0.042739335 0.019376084 0.07407575 -0.011519607
000310 5b 0e 5d 3e 63 6d e9 3d 25 47 30 3e 9c ae a8 3d
       0.21587507 0.11397817 0.1721464 0.08236429
000320 8a 21 3c 3e 0a d8 49 3e 32 51 54 3e 2b 3a 30 3e
       0.18372169 0.19711319 0.20734099 0.1720969
000330 3a 84 75 3e 45 cd 07 3e 85 c3 05 3e d2 53 e6 3d
       0.23976222 0.13261898 0.13062866 0.11246456
000340 dc cc 74 be 34 f1 39 3e 08 90 8b 3e 81 6c 51 3e
       -0.23906273 0.18158418 0.27258325 0.20451547
000350 6c 01 93 3d c0 80 75 3d 3c 72 51 3e a2 8d 85 3e
       0.071780056 0.05993724 0.20453733 0.2608462
000360 93 b0 4e 3e fe 1a d0 3d a7 b7 19 3e e0 9c 4b bc
       0.20184545 0.10161398 0.15011464 -0.012427539
000370 90 09 f8 3d da 4d 78 3e ab 14 07 3e 53 04 b0 3d
       0.12111199 0.24248448 0.13191478 0.08594575
000380 80 78 5d 3e fd 02 53 3e fa 2d 3f 3d 8a 2d b1 3d
       0.21627998 0.20606609 0.046674706 0.08651264
000390 2f 92 e9 bd cf 2b 69 3d 04 65 54 3e 9c 3f 83 bc
       -0.114048354 0.056926545 0.2074166 -0.016021542
0003a0 c1 51 fe 3e 3c a3 2e 3e ec c9 00 3e 8a 22 5d 3d
       0.49671748 0.17054456 0.12577027 0.053988017
0003b0 da 23 28 3e b0 79 16 3d e4 03 80 3e 04 1e 59 3e
       0.16419926 0.036737144 0.25002968 0.21202856
0003c0 1e 92 3c 3e 07 74 04 3e e6 47 f3 3d 73 31 7c 3e
       0.18415114 0.12934886 0.11878948 0.24628238
0003d0 d6 c7 3a 3e 3f 11 11 3e 0e a0 06 3e 68 89 67 3e
       0.18240294 0.14166735 0.13146994 0.2261101
0003e0 7a df 31 3e a9 72 44 3e b7 68 42 3d 5f de 2d 3e
       0.17370406 0.19184364 0.047463145 0.16979359
0003f0 d5 62 c8 3d cd dc cd 3d 5d 19 57 3e 8d 39 b4 3d
       0.09784476 0.1005188 0.21005769 0.088000394

fc2.weight f4 [256, 256]
000000 69 f7 a0 3c 36 1b 45 3e b8 af 9b 3c 2b 6b a0 bd
       0.019649224 0.19248661 0.019004688 -0.07832941
000010 5f ca 16 bc 55 5d c1 3c d9 b8 a5 3e 3c 57 bf be
       -0.0092035225 0.023604074 0.3236759 -0.37371242
000020 14 99 75 3e 69 9c 23 3d d0 68 11 3d 45 e9 c2 3d
       0.23984176 0.039944086 0.035500348 0.09517149
000030 3b a0 06 3e 74 ff f7 bb b5 1d 84 3d 09 be 36 bf
       0.1314706 -0.007568294 0.06450979 -0.7138372
000040 2a ec 80 3e bd e7 09 be 0e fe b5 3d 30 f0 a1 3e
       0.2518018 -0.13467307 0.08886348 0.3162856
000050 ca fd 92 be af 0d c4 be 4d 34 0d 3e 6a 26 46 be
       -0.2870925 -0.3829169 0.13789482 -0.19350591
000060 3c b7 f9 be 7c 6e b2 3d aa 6a c2 3e fc b5 c6 3c
       -0.4877261 0.087124795 0.37972003 0.024256699
000070 91 de 15 be f5 b5 d2 3c 17 48 35 be 28 9b fe bd
       -0.14635684 0.02572153 -0.17703281 -0.124319375
000080 60 22 52 3e d5 fc 9c 3e 5f db 62 be c7 cc 33 bd
       0.20520926 0.30661646 -0.22153996 -0.043896463
000090 d4 0e da 3d 1d fc 67 bd 36 2a 8e 3f 9f 7c b3 bd
       0.106473595 -0.05663692 1.1106632 -0.08764004
0000a0 8d 46 4e 3e 13 f9 57 bd 0f a2 93 be f6 44 61 3e
       0.201441 -0.05272777 -0.28834578 0.21998963
0000b0 c5 ed bb be 33 15 d5 be cf fb b1 bd 9e 08 95 bd
       -0.3670484 -0.41617736 -0.08690607 -0.07277034
0000c0 b6 bb 79 be 83 67 ad be 80 77 d4 bd 80 25 3a bd
       -0.24388012 -0.33868036 -0.10374355 -0.04544592
0000d0 01 f1 da be 08 a0 13 bd be 00 e8 3d 55 c8 ac bc
       -0.42761996 -0.03604129 0.113282666 -0.02109162
0000e0 c0 15 d1 3c b0 0c d9 3d 04 5f da bc b9 ce ae be
       0.025523067 0.10598123 -0.026656635 -0.34142092
0000f0 c5 55 87 3c 30 7c e7 3d 66 2c 04 3d 92 21 5f bd
       0.01652039 0.11302984 0.032268904 -0.054475375
000100 21 9b 53 3c 58 23 23 be e8 5b 19 3e dd 58 01 3e
       0.012915404 -0.15931451 0.14976466 0.12631555
000110 f6 ae 10 bd 05 4e 45 bd da 52 58 3e 9b b9 35 3e
       -0.035323106 -0.04817011 0.21125355 0.17746584
000120 27 1c b7 be e8 ce 11 be 57 6d eb bc a3 f9 0d be
       -0.35763666 -0.14239085 -0.02873866 -0.1386476
000130 46 5d 96 3e aa fd c2 3c b4 0c 12 bd 31 b9 79 bd
       0.29368037 0.023802597 -0.035656646 -0.060967628
000140 d2 7b 90 bd 78 23 29 bd 25 36 2b bf 05 b0 3a bf
       -0.07054867 -0.04129359 -0.66879493 -0.72924834
000150 43 0f f4 bd a6 98 c4 bc f9 a6 e1 bd 99 83 18 3e
       -0.119169734 -0.02399857 -0.11018176 0.1489395
000160 1c 9a 32 3e 75 8e c5 3d f0 a4 2a bf 1f 62 dd 3c
       0.174416 0.09646312 -0.66657925 0.027024327
000170 86 70 c0 bd de eb c7 3a 1d cb 0f 3d 01 1b 98 bd
       -0.09396462 0.0015252789 0.035105813 -0.074270256
000180 3f 6c 6b 3e ad 55 e8 bd 1a 00 4f be 82 07 81 3e
       0.22990511 -0.11344466 -0.20214882 0.2520104
000190 58 6a 8b 3e 2a 29 81 3e d4 5b a9 bd c4 60 87 bd
       0.2722957 0.25226718 -0.08269468 -0.066102535
0001a0 a4 4e 8d 3d e4 26 b1 bd 4c 69 77 be d8 76 5d be
       0.06899765 -0.08649996 -0.24161261 -0.21627367
0001b0 f2 09 bb bd cf fc 88 be 95 b7 c9 be ff 25 09 bf
       -0.09132756 -0.26755378 -0.39397874 -0.535736
0001c0 6b 57 9b 3e a3 aa 0d be c4 da 86 3d e4 51 37 3e
       0.30340132 -0.13834624 0.06584695 0.17902333
0001d0 8c 53 09 3e 08 1c f2 3e 65 a6 e3 bd 83 c4 be bd
       0.13410777 0.4728701 -0.111157216 -0.093148254
0001e0 8e 55 a5 3d b0 4e b6 3d d6 90 f1 3d bb a4 ba bd
       0.08072959 0.08901727 0.117952034 -0.09113451
0001f0 03 5d 0a be 15 c8 84 bc 09 47 ef be 50 80 bb 3e
       -0.13512044 -0.016208688 -0.46733883 0.36621332
000200 32 bb 2b 3d bc 21 c0 3d c7 0b 2b bf 9e 2f 85 3e
       0.04192657 0.09381434 -0.66814846 0.26012892
000210 f5 4b f2 bd a2 bb 80 3c 93 b5 3c be 3e 82 52 3e
       -0.11830894 0.01571447 -0.1842864 0.20557496
000220 1c 66 cd be e9 c5 14 be bc 76 1e 3f 8d d2 e3 3d
       -0.40116966 -0.14528622 0.61899924 0.11124144
000230 33 d1 52 bf 0a 6d e4 3d 0d 3e cc 3e 57 0e 99 bf
       -0.8235046 0.1115361 0.3989109 -1.1957501
000240 17 b1 e1 3d 0f 1a e6 be 8c ce 95 bc 43 f7 45 3e
       0.11020105 -0.44941756 -0.018286966 0.19332604
000250 1a e9 79 3e 5f 88 ad 3d b5 49 42 bc fd 8c 0d bf
       0.24405327 0.08473276 -0.011858393 -0.55293256
000260 c5 f9 16 3e e0 ec 2c 3e 69 15 38 3d 2e 76 c6 3d
       0.14743717 0.16887236 0.044942293 0.0969051
000270 ab 92 5d bd 13 89 01 3d 82 18 2d bd 16 86 60 bc
       -0.05409495 0.031624865 -0.0422597 -0.013703844
000280 89 24 0d be 90 40 a4 3f 96 8a b7 bd 69 ee 49 3f
       -0.13783468 1.2832203 -0.0896198 0.7887941
000290 8c ea ee bd d7 4e 0e 3f 03 f3 1f 3e dd f5 25 3e
       -0.1166583 0.5558905 0.15620045 0.1620707
0002a0 c4 d8 73 be 46 fd 0a bf 4d 82 16 3c 9b 40 35 3d
       -0.23813158 -0.54292715 0.00918634 0.044251066
0002b0 d2 76 94 bd 88 63 0f 3e e6 fc d9 be 99 4f 05 bc
       -0.07249226 0.14002812 -0.4257576 -0.008136653
0002c0 37 35 71 bd e2 22 2a bf ce c7 cb 3d 0f 66 2c be
       -0.05888864 -0.66459477 0.09950219 -0.16835807
0002d0 b0 63 28 3e 87 34 31 3f 5c 25 49 be 3b 9f c4 3e
       0.16444278 0.69220775 -0.19643158 0.38402733
0002e0 21 2f b7 3e 6c de 9c bb 4a fe 07 3e 37 8a 0a be
       0.35778144 -0.004787257 0.13280597 -0.13529287
0002f0 dd ca 01 bf 85 87 4a 3f 33 fc a3 bd af 65 29 3d
       -0.5070017 0.79113036 -0.080070876 0.04135674
000300 05 0a 2a be 73 6e a7 be 38 bb 9a bd 66 ab 57 be
       -0.16605385 -0.32701454 -0.075552404 -0.21061477
000310 35 9d 69 3f 2f fe c3 bd 97 58 1b 3d 00 79 a0 3d
       0.91255504 -0.09569966 0.037926283 0.07835579
000320 30 d2 14 3d 7b 85 a0 bd 8b 27 9d 3f fc 7c 17 3c
       0.036333263 -0.078379594 1.2277693 0.009246107
000330 1f 0f 36 bf 92 7a e5 bc fa ab dd 3e 33 44 70 3c
       -0.7111682 -0.028012548 0.4329527 0.014664697
000340 64 81 a5 be 4b bd f4 3c 7e 45 01 3e 60 a5 95 3d
       -0.3232528 0.029875418 0.12624165 0.073069334
000350 c0 2b a0 bd ea bb f9 bd 8c d0 c0 be e7 4e 8e be
       -0.07820845 -0.12194045 -0.3765911 -0.27794573
000360 12 be 54 3e 4b 0b 57 bb 14 2e 41 3c f3 4d d7 bd
       0.20775631 -0.0032813128 0.011790771 -0.105129145
000370 a7 c2 d6 be 3e 15 c7 be 76 14 0d bc 53 f1 8b bd
       -0.41945383 -0.38883394 -0.008610835 -0.06833138
000380 f7 db 7c 3d 4f 23 46 be cf 60 94 3c 2e 01 52 bc
       0.061733212 -0.19349407 0.018112568 -0.012817664
000390 78 1f 0e be 29 bc d2 bd ab d7 08 3d ec 48 bc bd
       -0.13879192 -0.10289795 0.033408802 -0.09193596
0003a0 f3 0b 8f be b3 da 90 3e 27 5b 51 3d 40 c8 55 be
       -0.27938804 0.28291854 0.05111232 -0.2087717
0003b0 85 47 d3 bd 8c 00 60 3d 20 d9 b6 3c 03 9f 0d be
       -0.10316376 0.05468802 0.02232033 -0.1383019
0003c0 f7 70 c7 3e 14 c4 03 3d 44 06 b6 bd 5e 03 a7 bd
       0.38953373 0.032169417 -0.08887914 -0.08154939
0003d0 07 f8 f2 3c bd 9f 39 bb d0 c3 9c 3e 75 8b a4 3e
       0.029659284 -0.0028323971 0.30618143 0.32137647
0003e0 3c 3f d2 3c b2 ed 13 be 4d 05 e0 be 56 e8 53 bd
       0.025664918 -0.14446142 -0.43754044 -0.051735245
0003f0 ae b9 54 3d 5d 36 78 b9 4d 53 59 3d c0 dc 5b 3c
       0.05193489 -0.00023671375 0.053057957 0.01341933

fc2.bias f4 [256]
000000 55 b3 4c 3e 5e c1 19 bd b8 8d 92 bd 0e 9d 23 3f
       0.19990285 -0.037537925 -0.07155937 0.6391152
000010 75 9a 81 bd 3f 03 f4 be 00 99 8c bd b7 c8 6d bd
       -0.063282885 -0.47658727 -0.0686512 -0.058052745
000020 a6 3b d9 be 18 f1 9e bd 3d 92 80 3e a6 3a 55 bd
       -0.4242832 -0.07760829 0.2511157 -0.052057885
000030 44 93 6a 3d 8e 04 d8 bd 23 e5 06 be 29 08 ba 3d
       0.05726935 -0.10547744 -0.13173346 0.09083588
000040 08 81 76 3d 70 00 39 3c 1c 6e 19 bf 78 cb 78 be
       0.060181648 0.011291608 -0.5993364 -0.24296367
000050 1e 4f e4 3e 4b a6 cd 3e 6d b2 66 bc 80 2f 3b be
       0.44591612 0.40165934 -0.014080626 -0.18279839
000060 7f eb cc bd eb 20 1e be dd 2f f2 bd f2 bd df 3c
       -0.10005855 -0.15442245 -0.118255354 0.027312253
000070 ef 58 e1 3d 35 80 b9 3d ef c1 8b be 52 4f d2 be
       0.11003291 0.09057657 -0.27296397 -0.41076142
000080 86 e7 89 bd f8 41 02 bf b6 51 ac bd 88 81 d5 be
       -0.06733613 -0.5088191 -0.084140226 -0.41700387
000090 c6 f5 73 bc 2f 27 0c bf 17 48 fa bc 56 05 cb bd
       -0.01489014 -0.5474729 -0.030551953 -0.09913127
0000a0 cb e8 1a be d4 d3 ad bc e2 fa c1 3d 6d d3 b9 bd
       -0.15127866 -0.021219172 0.0947168 -0.090735294
0000b0 f3 3f 12 bd ed 20 24 be 8c 89 63 bc 33 87 e9 bc
       -0.035705518 -0.16028185 -0.013887774 -0.02850685
0000c0 61 22 b0 bd 43 85 c0 bd 7a 83 32 bd ef 63 a0 be
       -0.08600307 -0.09400418 -0.043582417 -0.31326243
0000d0 c2 08 d5 bd aa ea 08 bf ed 61 ac be 74 65 cb bd
       -0.10402061 -0.5348307 -0.3366846 -0.0993146
0000e0 9e 50 f4 be 5e 42 ba 3e 9d 49 8e bd 99 45 6d be
       -0.47717756 0.3637876 -0.06947634 -0.2317108
0000f0 f3 f2 c1 bd 72 2d 36 be 2d d2 1a be 37 60 c3 b9
       -0.09470167 -0.17790774 -0.15119238 -0.00037264984
000100 6c ba e5 bb 91 ba f9 bc f8 40 0c bf 7f 0a 83 bd
       -0.0070107486 -0.03048447 -0.54786634 -0.06398486
000110 89 14 97 bd fb 1d 7a 3d 48 e4 12 be 51 fa a7 bd
       -0.07376964 0.061063748 -0.14344895 -0.08202041
000120 4d a2 71 3e 46 e3 b1 bc 65 7a b4 bd b2 c0 05 3e
       0.23597069 -0.021714818 -0.088124074 0.13061789
000130 86 66 2d bf a3 05 16 be cb 6e bb 3d 59 c6 c3 bd
       -0.67734563 -0.14650588 0.091519915 -0.09559316
000140 26 b3 a6 3d 46 3d 65 3d 6c c3 9c 3e cf c9 03 3c
       0.081396386 0.055966638 0.30617845 0.00804372
000150 c9 f5 5c be 5c 1d 1d 3c ac 27 e6 be 1f aa ac 3e
       -0.21578135 0.009589519 -0.44952142 0.33723542
000160 92 ee 81 3d e7 8d 47 3e 44 3e 0e be fa 6f 6b 3d
       0.06344332 0.19487725 -0.1389094 0.057479836
000170 53 c4 82 bd 0c 79 d5 3c 8f 22 af bd 3b 6c c5 bd
       -0.06385102 0.026058696 -0.085515134 -0.09639784
000180 2a 19 05 be 92 25 34 3e 6f 6a c3 be bb cf 9a be
       -0.1299788 0.17592457 -0.3816714 -0.3023661
000190 80 be 68 be db 95 86 3e 18 f5 bd 3d 2a 46 d1 3c
       -0.2272892 0.26286206 0.092752635 0.025546152
0001a0 34 6e 94 3e 01 e0 93 bd 06 9a af bd 6f bb 08 bd
       0.28990328 -0.0722046 -0.085742995 -0.033381876
0001b0 c6 d5 fa be ec 5c 22 3e b5 18 18 bf 07 33 35 3e
       -0.4899122 0.1585576 -0.594127 0.17695247
0001c0 35 9c 8b 3d 99 86 b0 bd 56 25 18 be 03 22 5a bd
       0.068169035 -0.086194225 -0.14857993 -0.053255092
0001d0 da 03 19 3d 40 3c c3 3d 36 7d 26 be 54 bf 2b bd
       0.03735719 0.09532976 -0.16258702 -0.04193051
0001e0 94 38 1b 3c ea 30 fd bd d4 e7 23 3e 91 d6 bd be
       0.0094739385 -0.12362845 0.16006404 -0.37077764
0001f0 bc 95 75 3d 28 c6 5b be 77 3a dd bd 57 7f 7c 3c
       0.05995725 -0.2146231 -0.10802167 0.01541122
000200 14 3b 32 bf 08 53 4e 3e bf f5 11 be 63 ed fd bc
       -0.69621396 0.20148861 -0.14253901 -0.030996984
000210 04 1e a3 3e cc 29 b3 bd 14 a1 df bd b0 4e fb bd
       0.31858838 -0.087482065 -0.10919395 -0.12270868
000220 f1 10 d6 be f4 79 c7 bd 1f 01 3f be 4d 9f 59 bd
       -0.418098 -0.097400576 -0.18652771 -0.053130437
000230 22 c2 4b bd ec ac 69 bb bf 1e ee bb 3c 1c 35 bd
       -0.049745686 -0.0035656048 -0.007266849 -0.04421638
000240 bf ff 51 bd cd 6b 40 3e 56 b9 31 be b4 31 29 be
       -0.05126929 0.18791123 -0.17355856 -0.16522866
000250 57 48 07 3e d7 3f 09 be 78 1f 09 be 9d f0 13 be
       0.13211189 -0.13403259 -0.1339091 -0.14447255
000260 9f 84 1c be b9 23 1b bf 59 bf 26 be 3d de 43 3e
       -0.15284966 -0.60601383 -0.16283931 0.19127746
000270 52 e8 2a be c3 7d 66 bd 50 d8 e7 bd 14 50 bf be
       -0.16690186 -0.05627228 -0.11320555 -0.37365782
000280 a9 6c 6d ba 45 51 89 bd df 1f e6 3d 9a b3 29 be
       -0.0009057024 -0.06704954 0.11236548 -0.16572419
000290 9a 4c 2a be 8e a1 14 bf 90 86 5d 3e 68 8f 03 bb
       -0.16630784 -0.5805901 0.21633363 -0.002007449
0002a0 52 0b 3a 3a 61 13 c4 3d af c1 a1 3e ad 5c 83 3e
       0.0007097024 0.09574009 0.3159308 0.25656644
0002b0 24 b9 99 3e e3 23 29 bf d8 40 9a bd 68 26 69 3e
       0.30024064 -0.66070384 -0.07531899 0.22768557
0002c0 a8 37 6b bd c5 2c b5 bd e1 6c ac bd 95 c6 3d bc
       -0.057426125 -0.0884643 -0.084192045 -0.01158299
0002d0 de 10 ff bb 6f 3a 54 3f b5 e5 ad bd 8c 37 cd be
       -0.007783993 0.8290166 -0.08491079 -0.4008144
0002e0 f7 35 dc bd 77 af 42 3c 7f 2f b9 3d 82 f8 f2 be
       -0.107524805 0.011882654 0.09042262 -0.4745522
0002f0 16 09 23 3e b3 76 15 bd bc ce 81 bc a6 57 85 3e
       0.15921435 -0.036490154 -0.015845649 0.26043433
000300 62 fe 2e bd 77 5e b9 3c ce 36 55 3e 27 b3 75 be
       -0.042723067 0.022628052 0.20821688 -0.23994122
000310 9b 1f 12 3f be 3b 98 3d 7d 52 97 3d c5 13 46 be
       0.57079476 0.0743327 0.0738878 -0.19343479
000320 7a b7 0f 3d 9e ed db be 24 77 fc 3b 66 35 c9 bd
       0.035087086 -0.42954725 0.0077046324 -0.09824638
000330 97 e5 5b bd fe 68 0b be e1 49 ac 3c 51 f5 b3 bd
       -0.05368575 -0.1361427 0.021031322 -0.08787025
000340 43 f2 78 bd 79 d7 2c be 85 0e c5 bc 1f 08 bb 3d
       -0.060777914 -0.16879071 -0.024054775 0.09132408
000350 d2 47 97 bd 15 91 a9 bd 6b d9 ce bd af fa f8 bd
       -0.073867455 -0.08279625 -0.10100063 -0.12157189
000360 fb 8a 42 be 47 f8 f7 bb 61 3d 4c 3e e0 b3 d1 be
       -0.1899833 -0.0075674388 0.19945289 -0.40957546
000370 8f 1e c5 bd bb 2e e1 be e3 ff 0a 3e c4 10 13 bd
       -0.09624969 -0.43980965 0.13574176 -0.03590466
000380 0c 0c b9 bd 28 72 86 3d 94 35 1a bf 45 92 eb bd
       -0.09035501 0.06564742 -0.60238004 -0.11502508
000390 83 58 e5 bd 1b f0 b7 bd f0 4b e0 bd 0d 4c 35 bd
       -0.11198523 -0.08981343 -0.10951984 -0.04426198
0003a0 4e 56 08 be 84 f5 46 3d fa c7 16 be 97 d5 d6 bd
       -0.13314173 0.048573986 -0.14724723 -0.10489958
0003b0 e8 da 13 3f 9a 06 fe 3d 2c 92 4b 3d fa 4d ef bd
       0.577559 0.12403603 0.049699947 -0.11684795
0003c0 26 3b dc bd 7f ab a4 bd 0c 20 04 be 7d 3c e8 bd
       -0.10753469 -0.08040523 -0.1290285 -0.11339662
0003d0 a6 90 fe 3e 32 de cb bd 58 e5 31 3d 0b 6e 3b bd
       0.49719733 -0.0995449 0.04343161 -0.045759242
0003e0 62 ce 49 be 8b d2 4f bf ea 91 65 3d 3b 5a 55 3e
       -0.19707635 -0.8118064 0.056047358 0.20835201
0003f0 7c ea 43 bd dd d7 6a bd 82 9b c3 bd 1b 13 49 be
       -0.047831044 -0.05733477 -0.09551145 -0.19636194

fc3.weight f4 [128, 256]
000000 68 4d 26 3e 81 f1 9d bd ba f0 a5 3c 8d da 24 be
       0.16240466 -0.07712079 0.020256389 -0.16098996
000010 ad b1 62 bc 5a 62 0d bf 2c 6e 10 3e 3e 22 02 3d
       -0.0138363065 -0.552282 0.14104527 0.031770937
000020 ec 1b cc be 26 d9 b8 bd 28 92 91 be 9b 70 b5 3d
       -0.39865053 -0.09025793 -0.2843182 0.088593684
000030 0b b6 85 3d bf c3 95 bc fa de a0 bd 73 c0 9c 3e
       0.065288626 -0.018281816 -0.078550294 0.30615577
000040 32 27 85 be 50 f7 75 3e a3 76 17 bf 1f 46 28 be
       -0.26006466 0.24020123 -0.591654 -0.16432999
000050 06 29 24 bf 07 c2 d5 be 31 44 97 3d 87 85 ba be
       -0.64125097 -0.41749594 0.07386053 -0.36429998
000060 b5 06 28 3e ac d5 48 be 1b 06 33 be 0f a0 9b 3d
       0.16408809 -0.1961276 -0.17482798 0.07598888
000070 8a 17 13 bd 01 a0 1a be c8 7a ba be 44 5a 58 be
       -0.03591112 -0.15100099 -0.364218 -0.21128184
000080 4a 81 e5 bc d7 e2 8f bc a4 e7 b2 3d 99 64 cb be
       -0.028015751 -0.01756422 0.08735588 -0.39725187
000090 e8 21 76 be da 2e af be 94 c6 cb be dd 29 4b 3d
       -0.24036372 -0.34215432 -0.3979994 0.04960047
0000a0 29 fc 40 be 73 2e 92 bd b7 ec 13 bd 5f 03 61 be
       -0.18846191 -0.07137766 -0.03611442 -0.21973942
0000b0 72 ac 2d 3f e9 72 41 be ad 74 e3 3d bf 08 45 be
       0.67841256 -0.18891491 0.111062385 -0.19241618
0000c0 d7 60 20 3e df fa 3f 3e 5d 01 a2 bd 67 25 10 bf
       0.15661941 0.18748043 -0.07910416 -0.5630707
0000d0 c2 f7 6f be 4c 3c c4 3e 53 f0 49 bf 2e b4 b1 bd
       -0.23434356 0.38327253 -0.7888233 -0.08676945
0000e0 2c 7f 07 bf c3 3c 54 be 5f 0f 57 be 46 ff 24 be
       -0.52928424 -0.20726304 -0.21001957 -0.16113004
0000f0 7e d0 0f bd fc 60 48 be 2a 1a e6 be c4 cf e0 3d
       -0.035110943 -0.19568247 -0.44941837 0.10977128
000100 02 a8 3f be 6e 67 9f bd 2b c5 65 bf 8b c5 ff 3d
       -0.18716434 -0.077833995 -0.8975398 0.1248885
000110 be be de be c7 3b 85 be 10 02 3b 3e ae 5b 96 be
       -0.435049 -0.2602217 0.18262506 -0.2936682
000120 9a 96 60 3e cc e6 1a bd 13 9d 4c be a1 16 60 bd
       0.2193245 -0.03781776 -0.19981794 -0.05470908
000130 91 cf 8c 3e e7 4c 12 3e 84 b4 86 3d 7b 2d a8 ba
       0.2750211 0.14287148 0.065773994 -0.0012830937
000140 79 97 89 bd 58 4c 67 3d 22 11 d3 be 00 f8 42 be
       -0.06718344 0.05646929 -0.4122401 -0.19039917
000150 46 0f 22 bf 89 1f 2a be 43 f6 cd 3c 25 c9 f6 3e
       -0.63304555 -0.16613592 0.02514184 0.48200336
000160 f2 fd 0f bf b6 f0 15 be d3 72 ec 3d ae 25 bf be
       -0.56246865 -0.14642605 0.115453385 -0.37333435
000170 14 5e 7a be ad 73 db be 9a cc 98 3d eb 50 c1 3c
       -0.2444995 -0.4286169 0.074609 0.023598155
000180 80 11 c3 bd c4 e6 34 3f fb 20 05 bd c0 fd f3 be
       -0.09524822 0.7066462 -0.032502156 -0.47654533
000190 a2 e6 c6 be 94 e8 7d be 54 75 7f 3d 7c 9d 9e bc
       -0.38847834 -0.24795753 0.062367752 -0.019362204
0001a0 83 8a b9 be e5 39 9d bd f4 d2 a1 bb 15 b4 fd 3d
       -0.3623849 -0.07677058 -0.0049384777 0.123878635
0001b0 fb 0e d5 bf 83 ea ed be 57 bb 89 3e 6e 5b 25 3c
       -1.6645197 -0.4646798 0.2690074 0.010092599
0001c0 88 70 cf be 0e f4 bc 3d 02 10 6c be c7 82 a5 bd
       -0.40515542 0.09226237 -0.23052981 -0.080815844
0001d0 7f c8 d9 bd 0b a6 d8 be 46 44 50 3e 7b 1c 39 be
       -0.10633945 -0.4231418 0.20338544 -0.1807727
0001e0 3c 09 5a 3d 57 d0 63 3b 09 24 77 3e 0f 96 c9 3b
       0.053231463 0.0034761631 0.2413484 0.0061519216
0001f0 df 03 0f 3e bd f6 26 be 84 4f 1c 3e 60 68 30 bf
       0.1396632 -0.1630506 0.15264708 -0.68909264
000200 83 3c f7 3c 7f bc 77 3e cc b6 ff bd ef 8c f2 bd
       0.030180221 0.24193 -0.124860376 -0.11843287
000210 9d 34 d7 3e 49 f3 bb 3d a2 1f ae 3c 17 a9 0b bf
       0.42032328 0.09177262 0.021255318 -0.54554886
000220 85 2c 33 be f5 42 e2 3d 40 c0 a2 be db 13 3c be
       -0.17497452 0.11047927 -0.317873 -0.1836695
000230 e2 e5 9e 3d 62 9b 2c bc 03 3e cf 3d b0 a9 96 3c
       0.077586904 -0.010535093 0.1011925 0.01839146
000240 29 e1 22 bd a7 f4 cc be 31 62 c9 bd 9d fb 59 be
       -0.03976551 -0.40030405 -0.09833182 -0.21287389
000250 5c fe 2b bf e6 c0 88 bd 66 13 25 3e 6e 10 c4 bd
       -0.67184997 -0.066774175 0.16120681 -0.09573446
000260 4a 17 ff 3c e2 58 b0 3c 15 ed 43 3a 93 f9 4a be
       0.031139035 0.021526758 0.00074739876 -0.19821768
000270 cc 9b a1 bd 14 95 ae bd 2c 88 8b be 2a 32 86 be
       -0.07891044 -0.08524528 -0.27252328 -0.26210147
000280 88 78 1d bd 41 17 9a bd 43 46 12 be c8 9a 75 be
       -0.038445026 -0.075239666 -0.14284615 -0.23984826
000290 77 f9 24 be 70 c0 9e 3e 4b aa 19 3e 92 d2 28 3d
       -0.16110788 0.31006193 0.15006368 0.04121644
0002a0 cf e1 9e 3e bd 82 b7 be 10 98 80 be db f7 51 bd
       0.31031653 -0.35841933 -0.25116014 -0.051261764
0002b0 3c b9 09 3f 06 3b 21 bf 81 c5 03 3d 2b b3 f7 bd
       0.5379827 -0.6298069 0.032170776 -0.120947205
0002c0 06 74 c0 bd 78 48 59 3e f4 d9 d4 3d d1 07 8e be
       -0.0939713 0.21219051 0.10393134 -0.27740338
0002d0 ec e3 56 3e 7b 3e 27 bf ca 7c 7d 3d 90 4a 03 3e
       0.20985383 -0.6532971 0.061886586 0.12821412
0002e0 09 ac ef 3d 21 ac d1 3c 8c 82 19 bd 83 2e a6 bd
       0.11702735 0.025594773 -0.037478015 -0.0811434
0002f0 95 52 55 3e 1c 89 b7 3d 0f 9d 54 be 9d 35 f4 bd
       0.20832284 0.089616984 -0.20763038 -0.119242884
000300 a2 03 0e 3a 57 1a 17 3e 3f c8 01 bf fe d4 07 bd
       0.00054174114 0.14756142 -0.50696176 -0.03316211
000310 28 35 6f bd 87 95 03 3d d6 33 44 be 52 ce ab be
       -0.058400303 0.032125022 -0.19160399 -0.33555847
000320 1c c0 39 be ad c6 e1 be 8a 5b e5 3c 94 c2 aa 3d
       -0.1813969 -0.4409689 0.02799775 0.08337894
000330 d2 94 74 bc 7d fd b5 3e b3 7c 97 bd d9 c4 90 bd
       -0.01492806 0.3554496 -0.07396831 -0.07068796
000340 8f ea ec 3d 01 ce ba be 80 78 c9 be 0b b2 85 bd
       0.11568176 -0.36485294 -0.39349747 -0.065280996
000350 d5 a9 05 3f c8 e4 a6 bd fc 3f 8f 3e f6 a1 10 bd
       0.5221227 -0.08149105 0.27978504 -0.035310708
000360 28 a9 b2 be cb 77 28 be 3d d8 f2 be 76 9c 4b bf
       -0.3489468 -0.16451947 -0.47430602 -0.79535615
000370 9b 71 d4 3d 11 40 f9 be fd b3 10 3e ce 47 cb bd
       0.10373231 -0.4868169 0.1413116 -0.09925805
000380 f8 f7 fd bc 0e 0d 5f be 83 a9 4c bd 07 8e 07 3e
       -0.03100203 -0.21782324 -0.049966346 0.13237773
000390 b5 ef 20 bf 0d 9c 0a 3c 4d 5d 0a be 60 c7 5b 3e
       -0.62865764 0.008460057 -0.13512154 0.21462774
0003a0 92 37 fd bc 51 63 a2 3e ea a0 82 3e 1d 70 31 3e
       -0.030910287 0.31716397 0.25513393 0.17327924
0003b0 82 de b3 be c0 84 ec 3e f1 3f a0 3d a1 17 34 be
       -0.35130697 0.4619503 0.07824696 -0.17587139
0003c0 27 2b 72 3e 22 08 30 3e dc c1 1c be 4a 9c f6 3d
       0.23649274 0.17190602 -0.15308326 0.120415285
0003d0 50 a6 0a 3e bf 44 e5 bc 00 3f 15 be 5d 88 4e bd
       0.13540006 -0.027986882 -0.14574814 -0.050423015
0003e0 a1 66 1a 3d 38 d0 43 bf e0 d9 1c 3d 87 c4 32 be
       0.03769553 -0.7648959 0.03829372 -0.17457782
0003f0 06 5c e7 3d ea a1 18 3c eb b0 06 3d 5f 50 83 bf
       0.11296849 0.009315947 0.032883566 -1.0258902

fc3.bias f4 [128]
000000 4e 14 95 be 31 e2 1a bf ce c2 91 be 34 ae 10 bf
       -0.29117054 -0.6050139 -0.28468937 -0.5651581
000010 b7 87 22 bf 27 1c 26 bd f6 75 f4 be f0 47 db 3d
       -0.63488334 -0.040554192 -0.47746247 0.1070708
000020 dd 44 f2 3b cb 9e b5 be 77 4b bf bc 69 0a 1e bf
       0.007393463 -0.35472712 -0.023351414 -0.61734635
000030 a6 6a 14 bf f5 d5 10 bf e1 9a 17 bb 1c 35 9b be
       -0.5797523 -0.5657647 -0.0023133087 -0.30313957
000040 46 f9 1a bf 26 b4 01 bf b4 e7 fb be ce 87 15 bf
       -0.6053661 -0.5066551 -0.49200213 -0.58410347
000050 52 f9 3b 3e 43 39 1f bf 10 53 af 3e b4 42 b2 3b
       0.18356827 -0.6219675 0.3424306 0.0054400805
000060 23 f4 a2 3c a3 6d 16 bf be 13 b5 bc 1e 8e e3 bd
       0.019891804 -0.5876104 -0.02210414 -0.11111091
000070 2a 87 01 bf 58 24 ac be eb bc 59 3e 2d 25 a5 3c
       -0.5059687 -0.33621478 0.21263473 0.020159328
000080 d0 41 be be dd 91 07 3e e8 39 ef 3d 7c 1a 1e 3c
       -0.37159586 0.13239236 0.116809666 0.009649869
000090 1d a2 8b bd 8f b4 05 3e 7d 20 24 bf 1c 40 d3 be
       -0.0681803 0.13057159 -0.64112073 -0.4125985
0000a0 4a c4 9f be 08 5d 87 be 9e af bd be 5e 83 2d bf
       -0.31204444 -0.26438165 -0.37048048 -0.67778575
0000b0 86 54 20 bf 76 d6 34 bf 4a 4e b9 be b4 05 11 bf
       -0.6262897 -0.7063974 -0.36192542 -0.5664933
0000c0 7c b0 21 bf d3 a3 1d bf 7c 0b 8c bd ca ab fc 3d
       -0.6315992 -0.615781 -0.06838128 0.12337454
0000d0 03 d7 00 bf 16 07 2d bf 3d de 1d bf 70 37 16 bf
       -0.5032808 -0.6758894 -0.61667234 -0.5867834
0000e0 78 41 44 be 26 04 d8 be 75 43 b0 bd 93 1f e3 be
       -0.191656 -0.42190665 -0.086066164 -0.44360027
0000f0 fb 6d 28 bf 9a d9 91 be 86 07 88 be 57 5b 0d bf
       -0.65792817 -0.2848633 -0.2656824 -0.552175
000100 bd 91 7c 3e ef 94 1b bf 6d 66 68 3d bf 87 63 3e
       0.2466497 -0.6077413 0.056738306 0.22219752
000110 bc 4a ea bd 5b 8b a7 be a0 48 69 3e a5 56 d4 be
       -0.11440036 -0.32723507 0.2278161 -0.41472355
000120 24 ca 44 be cc 5d 1f bf b8 81 e5 bc 31 38 2c bf
       -0.19217736 -0.622525 -0.028015956 -0.6727324
000130 32 20 a0 be 32 46 13 bf 64 33 9e 3e ce 30 ba be
       -0.31274563 -0.57528985 0.30898583 -0.3636536
000140 0e 44 88 bc 35 23 23 bf 40 36 09 bf 37 36 83 3e
       -0.016634014 -0.63725597 -0.53598404 0.256273
000150 42 3d 3d 3e 57 47 1e be 5e 65 a2 bd 47 86 a5 be
       0.18480399 -0.15456901 -0.079294905 -0.32329008
000160 c2 85 19 3e 25 be e0 be f0 ca 2f bf eb d4 33 bd
       0.14992431 -0.4389507 -0.68669033 -0.043904226
000170 9b 19 20 bf ae 10 84 3e 60 32 14 bf 0d cf 68 3e
       -0.6253907 0.25793976 -0.57889366 0.22735234
000180 0d 77 1f bf f5 73 20 bf 6c 11 37 bf f3 b9 c2 3b
       -0.6229103 -0.62676936 -0.7151096 0.005942577
000190 7b 77 cd bd 3b 53 ec 3d bb 6a 85 3e 0f 0f 1e 3e
       -0.10032555 0.115393125 0.2605799 0.15435432
0001a0 e2 0c 5e bd c2 ed 0a bf 35 4c f4 be a6 bb 1c 3f
       -0.054211505 -0.5426904 -0.4771439 0.6122383
0001b0 1a 6a 1c be 8e 08 d1 be 7f 67 29 bf 84 ae 84 bb
       -0.1527485 -0.4082684 -0.6617355 -0.004049124
0001c0 c7 33 cf bd c1 d4 84 3e 17 5d 6c 3e a2 2f a7 bd
       -0.101172976 0.25943568 0.23082386 -0.08163382
0001d0 a1 3b 06 bf e8 c7 16 bf 1a 13 12 bf de 8f 21 bf
       -0.52434736 -0.5889878 -0.57060397 -0.6311015
0001e0 e7 2a c1 be 9b bc 21 3f cf fa 2d bf 61 31 1c bf
       -0.37728044 0.63178414 -0.6796083 -0.61012846
0001f0 d6 2e ea be 71 f1 4e be 8e 50 c4 bd 29 91 5c 3f
       -0.45738858 -0.2020929 -0.09585677 0.86158997

fc4.weight f4 [4, 128]
000000 65 91 19 be 52 c1 a5 3e f3 f1 42 bd f5 40 55 3d
       -0.1499687 0.32374054 -0.047594022 0.0520639
000010 c1 52 8b 3e 8a ac 2d 3f 11 e8 00 3e 52 e5 83 3f
       0.27211574 0.678414 0.12588526 1.0304358
000020 7d f5 bf 3e d1 26 ea 3c 7c ac 78 3e 9b b6 cc 3c
       0.3749198 0.028582962 0.24284548 0.024989417
000030 17 e5 af 3d c9 38 9f bc 73 5a af 3f a8 a1 f5 3e
       0.08588617 -0.019436257 1.3699478 0.47974896
000040 df 39 34 be 50 56 0b bd 99 b3 7b 3e 1a b5 8f be
       -0.17600201 -0.03401786 0.2458023 -0.28067857
000050 0f 59 6c 3f 11 64 66 3d 73 b2 8e 3f 46 64 67 3f
       0.9232339 0.056247775 1.1148208 0.9038738
000060 43 66 63 3f bf ff 97 3e 83 9c 5d 3f d3 29 6b 3f
       0.88827914 0.29687306 0.8656694 0.91860694
000070 df a6 8e 3f 48 b5 a9 3e ae 6e 5a 3f 64 f2 c5 3e
       1.1144675 0.3314612 0.85325134 0.38661492
000080 d1 b1 b4 3e 15 cd 90 3f b3 e6 51 3f 9b e6 80 3f
       0.35291913 1.1312586 0.81992644 1.0070375
000090 8d 4b 07 be ec ce 6f 3f f1 cf f0 3e fe 51 bc 3e
       -0.13212414 0.9367511 0.47033647 0.36781305
0000a0 64 a1 a2 3d e7 31 35 3e 44 65 a7 3e 4b 46 a6 3d
       0.07940939 0.17694817 0.32694447 0.08118876
0000b0 51 cb 6c 3e b5 d6 92 bd d9 30 0c 3f 18 ba f5 3e
       0.23124434 -0.07169858 0.54762036 0.4799354
0000c0 c6 de 31 3f c7 e7 e0 3d 6f ce 86 3f 18 2d 51 3f
       0.6948055 0.10981708 1.0531749 0.8170943
0000d0 38 1d 02 3f 58 b3 fa 3d 18 d3 04 3e 20 54 84 3e
       0.50825834 0.12241238 0.12971151 0.25845432
0000e0 35 05 70 3e e6 70 b5 be 1c 2c 2a 3f d8 29 aa 3d
       0.23439486 -0.35437697 0.66473556 0.08308762
0000f0 09 7b e5 bc 21 3f c7 3e e9 67 07 3f 38 2d c5 3d
       -0.02801277 0.3891535 0.5289293 0.096277654
000100 23 46 92 3f 98 e9 6b 3e 8c 2d 43 3f 31 9c 97 3f
       1.1427654 0.23038328 0.76241374 1.1844541
000110 24 ab 25 3f 67 12 86 3e 1c 3a 6f 3f 3a a4 02 3e
       0.64714265 0.26185915 0.9344804 0.1275796
000120 39 81 cc 3e fd 1a 03 3e a9 90 09 3f 1a a7 60 bd
       0.3994234 0.12803264 0.5373636 -0.05484686
000130 05 73 57 3f be e3 ef bd 77 80 4b 3f 32 f5 00 40
       0.8415988 -0.1171336 0.79492897 2.0149655
000140 89 fb 68 3f 12 b4 d9 3d 30 1c 39 3f f0 92 54 3f
       0.9100881 0.10630049 0.72308636 0.8303671
000150 4d 6c 79 3f cd 9c ad 3e 25 df 9b 3f ec 16 d4 3d
       0.9743088 0.33908692 1.2177473 0.103559345
000160 f3 ba 52 3f c8 5d 54 3e f6 95 de 3e ce e3 41 3a
       0.8231651 0.207389 0.43473786 0.0007396311
000170 e9 27 c5 3c 46 02 8e 3f 19 72 17 3f bc 73 5b 3f
       0.024066882 1.1094444 0.59158474 0.8572347
000180 d7 f9 be 3d 04 b0 62 bd 56 dd 2d be 88 45 33 3f
       0.09324997 -0.055343643 -0.16978964 0.7002797
000190 23 60 75 3f 45 9a 57 3f 9f 1d 47 3f 94 2b 66 3f
       0.9584982 0.8421977 0.77779573 0.89910245
0001a0 b6 81 27 bd fd 75 19 3d 0b a9 d6 3e bf 72 88 3f
       -0.040895186 0.037466038 0.41925845 1.0660018
0001b0 d1 3f 06 3d 1e bb 9d bf f4 0b 3c 3d fd 07 27 3e
       0.032775704 -1.2322729 0.045909837 0.16311641
0001c0 9a ee 18 3f 27 5e 5d 3f 38 d2 74 3f 2d 6a 4a 3f
       0.5973908 0.8647179 0.9563327 0.7906826
0001d0 ee 10 d3 3e 5e a5 c9 bc 21 2a 0e 3e de 6d f8 3d
       0.41223854 -0.024614986 0.13883258 0.121303305
0001e0 ee 1c 8c 3c 00 2a bd 3f c7 c3 a4 bc 7e 41 75 3e
       0.017103638 1.4778442 -0.020112885 0.23950765
0001f0 5d 7f d9 3e e8 65 2e bf f0 35 53 3f 7c fc 9a 3f
       0.42479983 -0.68124247 0.8250418 1.2108302
000200 02 5c f1 3e 64 83 a1 bd 61 fe 1c 3f eb 49 51 be
       0.4714051 -0.07886389 0.6132565 -0.20438354
000210 f8 b3 d8 bd 24 d9 38 3f b6 4f 9d 3e 1d df 4d 3f
       -0.10581201 0.7220633 0.30724877 0.8041857
000220 a8 97 24 3f 0b d8 98 be ab b1 29 3f 45 cc 55 3d
       0.6429391 -0.29852328 0.66286725 0.05219676
000230 3f 18 d9 bc ac ff 82 3e fe 0a 86 3f f1 2c ba 3e
       -0.02650082 0.25585687 1.0472105 0.36362413
000240 5f a2 66 3e de f7 19 bd f3 27 15 3c 28 f5 92 3e
       0.22522877 -0.0375899 0.009103763 0.28702664
000250 11 f6 55 3f 32 da e8 bc 8a ae a7 3f 2c ae 45 3f
       0.8357859 -0.028424356 1.310014 0.7721889
000260 11 14 41 3f 8e 22 43 3e 7a 2a 40 3f 12 a0 34 3f
       0.75421244 0.1905615 0.75064814 0.7055675
000270 f0 a3 2d bf db 19 c8 3e 62 24 63 3f e3 cc 83 3e
       -0.67828274 0.39082226 0.8872739 0.25742254
000280 e9 66 ae 3e 8f 76 ab 3f de 4a 54 3f e4 f4 2b 3f
       0.3406289 1.3395556 0.8292674 0.6717055
000290 12 a0 4b 3d af 4f 5f 3f 87 a1 30 3e 9f f0 d1 3e
       0.0497132 0.8723096 0.17249118 0.41003892
0002a0 f7 f0 cb 3e 5d b2 e7 3e 24 b6 11 3f f3 33 a6 3d
       0.3983228 0.45253268 0.5691855 0.08115377
0002b0 71 8b 0f 3e c3 64 94 3d 12 00 be 3e c5 bd 04 3f
       0.14018036 0.07245781 0.3710943 0.51852065
0002c0 9d c2 a6 3e 2a 97 c2 3c 53 71 63 3f ca fc 4a 3f
       0.32570353 0.023753721 0.88844794 0.79291975
0002d0 d6 a6 02 3e 98 6f a1 bd e5 46 50 bd 67 2c aa 3e
       0.12758955 -0.07882613 -0.05084886 0.33237
0002e0 90 e5 22 3f 27 13 80 3d fb f3 2f 3f 49 e8 b8 3e
       0.63631535 0.06253653 0.6873166 0.3611472
0002f0 79 fb 05 bc 37 e5 1c 3f 9e 92 ce 3e 01 5e 09 bf
       -0.008177632 0.61287254 0.40346235 -0.53659064
000300 28 1d b4 3f 7b 00 8f 3e 73 9c 49 3f 53 3c 51 3f
       1.4071398 0.27930054 0.7875435 0.8173267
000310 4e b0 52 3f df 2a da 3e f3 bd 5c 3f 93 80 ce 3e
       0.8230027 0.42610833 0.8622734 0.4033247
000320 8b 49 99 3e fb 1a bd bd 8e 16 26 3f 45 20 24 bd
       0.2993892 -0.09233662 0.64878166 -0.040069837
000330 b0 6c 02 3f 92 12 b3 3e 5d 52 63 3f 67 4d 24 40
       0.50947094 0.34975106 0.8879755 2.5672243
000340 a3 01 48 3f 57 f1 06 3f 47 4d 48 3f e6 19 55 3f
       0.781275 0.52712005 0.78242916 0.8324264
000350 d8 8c 82 3f 72 e5 1d 3f 8d f1 20 3f 28 98 bd 3d
       1.0199232 0.6167823 0.6286858 0.09257537
000360 7f 64 51 3f 11 fb a1 3e b5 3c 96 be 56 11 ab 3b
       0.8179397 0.3163686 -0.2934319 0.0052205725
000370 57 60 a9 3c fb 24 89 3f dc 28 bf 3e 21 24 6e 3f
       0.020675821 1.071441 0.3733586 0.9302388
000380 b2 33 bc 3c 76 a9 8e 3e 1a 41 b2 3d 8d 36 4d 3f
       0.022973869 0.27863663 0.087038234 0.8016136
000390 a6 0e 37 3f 44 69 4f 3f f5 59 5f 3f 5c 42 7a 3f
       0.71506727 0.8102 0.8724664 0.97757506
0003a0 44 f9 de 3e a9 4d ae 3e 1b a8 94 3e fd 4d 99 3f
       0.4354955 0.34043625 0.29034504 1.1976925
0003b0 b0 92 7f 3e f4 65 81 3f 0a 07 1e 3e 12 aa 2d 3e
       0.249583 1.0109239 0.15432373 0.16959408
0003c0 b0 9c 0b 3f f0 23 7a 3f 39 9a 4c 3f 45 fa 5f 3f
       0.5453596 0.97711086 0.79922825 0.87491256
0003d0 40 b5 2e 3f 09 07 41 be c9 12 7e be 29 93 02 be
       0.68245316 -0.1885034 -0.24811853 -0.1275145
0003e0 6e f7 d8 3e 9d ff c4 3f 0f 92 a6 3d f8 8c 02 3f
       0.42376274 1.5390507 0.08133327 0.5099635
0003f0 e9 6e 93 3e e4 6a 8d 3e fc e0 33 3f 36 83 b1 3f
       0.28795555 0.27620614 0.70265174 1.3868167

fc4.bias f4 [4]
000000 bd e1 6f 3f be 94 6e 3f df 19 5f 3f 15 c7 72 3f
       0.93703824 0.9319571 0.8714885 0.94835025
