trained_models/checkpoint_ep6200.pth (torch, 416160 bytes, 14 tensors)

fc1.weight f4 [256, 8]
0.1323059 -0.09829816 0.6135713 0.56711346 0.11242034 -0.5410314 -0.35378638 0.053834375
0.20136048 -0.10338087 0.64117897 1.2801268 -0.038959287 -0.39892092 -0.26626068 -0.058568954
0.08531434 -0.16982411 0.98070526 0.33793765 -0.0025580244 -0.146053 -0.290298 -0.10563007
0.13740675 -0.009217982 0.5782041 1.2380921 -0.04328515 -0.52445424 -0.27741086 -0.05802193
0.17511605 -0.097593166 0.64725775 0.68385744 -0.006001098 -0.5162875 -0.3447964 0.1513332
1.1656092 0.60739964 0.567899 0.15543547 0.6149474 -1.3755432 0.5623851 0.6815412
0.15974966 -0.049266562 0.80841845 -0.057802446 0.06712683 -0.44866875 -0.3852755 -0.059436888
0.10414202 0.009960452 0.5513139 0.94312084 -0.010674576 -0.622421 -0.31664866 0.06595876
0.46175537 -0.040655747 0.2898348 0.17597884 -0.07976093 -0.4702826 -0.10716567 -0.096051045
0.26812372 0.022687603 0.5720467 0.68463963 0.014660552 -0.50338006 -0.31196898 -0.16221604
1.2203281 0.5765156 0.13577953 -0.081100374 0.5881383 -1.5882454 0.6276696 0.5180139
0.044114247 0.039714493 0.56103367 0.7913655 -0.024257576 -0.57367206 -0.27798736 -0.06450668
0.10811178 -0.08190648 0.8052256 0.17218581 0.15316984 -0.44193426 -0.46052834 0.13236009
0.05906546 -0.10076425 0.4491434 -0.2784368 -0.091013834 -0.7076255 0.048697043 -0.120604165
-0.20149058 -0.116420776 1.0709602 0.31824976 -0.21734655 -0.090311505 -0.096975446 -0.1670535
-0.04130084 -0.12948936 0.3334297 1.5169379 -0.06904976 -0.78097254 0.012365757 -0.057024103
0.10802842 -0.07311718 0.8052512 0.7297814 -0.020735746 -0.28643987 -0.3149999 0.010044078
0.97578496 0.25545457 0.33907145 1.0911129 0.30124688 -1.9088926 -0.35421148 0.35338256
1.2719923 -0.15040742 0.6120762 -0.4306804 0.27165627 -0.55196184 -0.8028597 0.2012219
0.34007353 -0.082143165 0.528943 0.3190278 -0.06392983 -0.39395583 -0.2467447 0.05428263
0.03214892 -0.037718255 0.8530769 1.0800534 0.0050694374 -0.39272588 -0.379824 -0.053764302
0.11188386 -0.06991619 0.69512224 0.9970693 -0.12544249 -0.35189855 -0.19072904 -0.054015618
0.11286302 -0.11457421 0.7083926 1.126433 0.1045346 -0.5063504 -0.4141518 0.10913436
0.027185602 0.03449763 0.55926543 1.3540609 0.009906777 -0.639393 -0.32642275 -0.024375403
0.5600931 0.078651644 -0.73810995 0.90107244 -0.0038723063 -0.62923414 -0.113300316 0.020398589
-0.50948566 -0.25435656 -1.5381511 -0.6636189 -0.3913542 1.5873369 0.43164974 -0.45086926
-0.084184 -0.2169196 0.8017711 -0.20882772 -0.22109197 -0.48863953 0.15571551 -0.21304634
0.49328083 -0.11456173 -0.713272 0.6583783 -0.1309947 -0.8065302 0.352132 -0.10762828
0.03543934 -0.08651871 0.65262526 0.89709896 0.07982797 -0.5702479 -0.3629881 0.091889724
0.1703174 -0.04501517 0.70192915 0.78340065 0.012230558 -0.44143414 -0.35916862 0.013263771
0.19773068 -0.038881578 0.7241787 0.6862302 -0.049829125 -0.4299563 -0.39666125 0.11049707
0.1946014 -0.022747122 0.50958943 0.83966535 -0.009502585 -0.60710907 -0.2948752 0.06837507
00000000: 337b 073e 8c50 c9bd 0213 1d3f 592e 113f
00000010: a33c e63d 0981 0abf 7d23 b5be 6f81 5c3d
00000020: 7131 4e3e 59b9 d3bd 4e24 243f 32db a33f
00000030: c693 1fbd 5d3f ccbe 5253 88be 00e6 6fbd
00000040: 49b9 ae3d 5fe6 2dbe 800f 7b3f 2a06 ad3e
00000050: 87a4 27bb eb8e 15be f1a1 94be 9454 d8bd
00000060: 5bb4 0c3e 0507 17bc 2f05 143f cd79 9e3f
00000070: c54b 31bd a242 06bf cc08 8ebe 67a8 6dbd
00000080: 9f51 333e edde c7bd afb2 253f 4811 2f3f
00000090: dca4 c4bb 6b2b 04bf 2789 b0be 17f7 1a3e
000000a0: af32 953f 8b7e 1b3f d461 113f 7a2a 1f3e
000000b0: 316d 1d3f cd11 b0bf 78f8 0f3f 7c79 2e3f
000000c0: 6a95 233e bccb 49bd 83f4 4e3f 42c2 6cbd
000000d0: cb79 893d e9b7 e5be d542 c5be 1874 73bd
000000e0: 6948 d53d 2a31 233c e822 0d3f 5e70 713f
000000f0: 6be4 2ebc fc56 1fbf c61f a2be 6315 873d
00000100: 336b ec3e a486 26bd 3a65 943e cc33 343e
00000110: b359 a3bd e2c8 f0be ad79 dbbd 69b6 c4bd
00000120: 8347 893e 5adb b93c a771 123f 8b44 2f3f
00000130: d032 703c 84dd 00bf 66ba 9fbe f61b 26be
00000140: b633 9c3f 8796 133f ca09 0b3e f417 a6bd
00000150: 3b90 163f a04b cbbf f4ae 203f 8f9c 043f
00000160: 24b1 343d aaab 223d e79f 0f3f ee96 4a3f
00000170: d3b7 c6bc 2cdc 12bf 5c54 8ebe 141c 84bd
00000180: b569 dd3d 96be a7bd 4423 4e3f 7a51 303e
00000190: 8ed8 1c3e 3545 e2be 5fca ebbe 6789 073e
000001a0: a0ee 713d 7d5d cebd 20f6 e53e 458f 8ebe
000001b0: 7665 babd f226 35bf 8d76 473d 51ff f6bd
000001c0: 8c53 4ebe 046e eebd 3915 893f a2f1 a23e
000001d0: 1890 5ebe 3df5 b8bd 109b c6bd 1310 2bbe
000001e0: 122b 29bd dc98 04be 4cb7 aa3e 052b c23f
000001f0: f669 8dbd d1ed 47bf be99 4a3c 1b92 69bd
00000200: 013e dd3d 76be 95bd f124 4e3f f4d2 3a3f
00000210: 03de a9bc 3fa8 92be ab47 a1be eb8f 243c
00000220: 0bcd 793f f1ca 823e c69a ad3e 96a9 8b3f
00000230: 083d 9a3e 9856 f4bf 355b b5be 8fee b43e
00000240: a5d0 a23f 6704 1abe 07b1 1c3f 2482 dcbe
00000250: 8816 8b3e 5f4d 0dbf 3788 4dbf 1d0d 4e3e
00000260: 1e1e ae3e ad3a a8bd cf68 073f 9d57 a33e
00000270: a5ed 82bd 94b4 c9be a5aa 7cbe 7757 5e3d
00000280: 96ae 033d 757e 1abd 3f63 5a3f 313f 8a3f
00000290: 861d a63b 5e13 c9be 4b78 c2be f537 5cbd
000002a0: 5d23 e53d 3830 8fbd 88f3 313f ef3f 7f3f
000002b0: ff73 00be 0c2c b4be 794e 43be 7b3f 5dbd
000002c0: ba24 e73d e2a5 eabd 3859 353f f52e 903f
000002d0: 3d16 d63d 2ea0 01bf b40b d4be d681 df3d
000002e0: 57b4 de3c 634d 0d3d 052c 0f3f de51 ad3f
000002f0: 0950 223c 42af 23bf e220 a7be edae c7bc
00000300: 4362 0f3f 1d14 a13d c6f4 3cbf afac 663f
00000310: 85c6 7dbb 7d15 21bf ff09 e8bd f11a a73c
00000320: a76d 02bf 063b 82be 23e2 c4bf eee2 29bf
00000330: 945f c8be db2d cb3f 3201 dd3e 56d8 e6be
00000340: a968 acbd 2c20 5ebe df40 4d3f efd6 55be
00000350: ef65 62be f62e fabe e373 1f3e d228 5abe
00000360: 4e8f fc3e 579f eabd fe98 36bf 7b8b 283f
00000370: 7a23 06be c378 4ebf a54a b43e 376c dcbd
00000380: d728 113d b930 b1bd 7312 273f 47a8 653f
00000390: d97c a33d c4fb 11bf 94d9 b9be ae30 bc3d
000003a0: af67 2e3e d461 38bd a1b1 333f f28c 483f
000003b0: ae62 483c a803 e2be f3e4 b7be 4a50 593c
000003c0: e979 4a3e 4a42 1fbd c663 393f c8ac 2f3f
000003d0: a019 4cbd 3b23 dcbe 2f17 cbbe 4a4c e23d
000003e0: 9745 473e 2c58 babc 7474 023f 4ff4 563f
000003f0: bbb0 1bbc 806b 1bbf e2f9 96be 3b08 8c3d

fc1.bias f4 [256]
0.023823474 -0.019372405 -0.04985661 -0.021539038 0.053018447 0.6346242 0.030913154 0.0020593372
-0.067162104 -0.022547135 0.571372 -0.008028463 0.021002548 -0.13054718 -0.22129254 -0.09861974
-0.048834085 0.39639497 0.2190589 0.008815623 -0.019344281 -0.061729647 0.021288674 -0.010544652
0.014583228 -0.3581233 -0.24040201 -0.119019255 0.031128285 0.0034787832 0.06722979 0.0020955838
-0.007259934 -0.040158022 0.008179043 -0.06161898 0.11450661 0.046880033 0.023446323 -0.008216107
0.04787863 -0.05440305 -0.01201104 -0.005919273 -0.105786875 -0.24061985 0.070852764 0.01899407
-0.044130526 -0.041217577 0.04946921 0.013594268 -0.17515075 0.01607221 0.3133793 -0.008914104
-0.0154432 -0.051091712 -0.009566808 0.0013853894 0.015162462 0.31390098 0.49834096 0.025263755
-0.011060834 -0.12511021 -0.026934244 -0.04007373 -0.04774257 0.006492831 0.011676698 0.06729317
-0.235128 0.100062296 0.020903392 0.025108807 -0.022971813 -0.0037504358 -0.08162214 0.022925783
-0.17091684 0.0324841 0.04091946 0.02213591 -0.26218662 0.038190547 -0.24345182 -0.030139582
0.013751075 0.007289258 -0.0029978193 -0.20662022 0.0005738933 0.011932847 -0.014881896 0.20215912
-0.09220533 -0.06492214 -0.03317987 -0.22506766 -0.0069746086 -0.05311442 -0.051555607 0.023777718
0.00713338 0.02613396 0.002055643 0.030978505 0.012079811 -0.07994804 -0.038067777 0.033880804
-0.0025692612 -0.02256511 -0.056233175 0.5140883 0.018647939 0.07010587 0.07142622 -0.1122871
0.027679252 0.03884187 0.011415387 0.39019904 0.072276995 -0.01813137 -0.0076258485 -0.23357043
0.0803855 0.031318262 0.04583249 -0.09986482 -0.10703148 0.049582735 0.05618723 0.045016818
-0.24281019 -0.060717568 -0.20602964 -0.09560469 -0.0034402306 -0.01540064 -0.02670182 -0.0003140246
-0.03920712 -0.023238396 -0.013830575 -0.009347615 0.021608025 -0.030263992 0.0063312254 -0.041514516
0.032171503 0.044648297 0.03577341 0.028331287 -0.03550374 -0.1846566 0.0050952556 -0.008459375
0.048229977 -0.033005707 -0.1280121 -0.011175484 -0.10947609 0.033637606 -0.028168598 0.030811468
0.0039804406 -0.10997521 -0.023009742 -0.035808444 -0.19209988 -0.09539701 -0.2049731 0.025087913
-0.07305881 -0.06897966 -0.08980581 -0.09056622 0.009798458 0.030940756 -0.039730906 -0.05550541
0.03702968 0.02301031 0.18812226 -0.0036112866 -0.072732344 0.008182947 0.026700001 0.0069396202
-0.05329952 0.023095563 -0.060992282 -0.022545071 0.009196852 0.019470967 -0.21991535 -0.09577159
0.051458895 0.021505244 -0.04354895 -0.0093131075 -0.16905402 0.012105617 -0.13873556 0.12835228
-0.058084063 -0.020567503 -0.005576327 0.061750732 -0.3708492 -0.06675088 0.0075521707 0.03180138
-0.040081184 -0.14415282 -0.23533764 -0.04463533 -0.049552847 0.0016756821 -0.1265416 -0.07052108
-0.024715016 -0.0024352502 -0.12931134 0.0020372833 0.0336887 -0.17535664 0.0023668874 0.035537537
0.018227793 0.12044955 0.05488324 -0.028607942 0.0015038635 0.018349824 0.041163642 -0.2419679
-0.013919024 -0.047567036 -0.014703529 -0.0014505468 0.0020010066 0.021205107 0.037002325 0.0056615737
-0.075266935 -0.17739931 -0.25537658 -0.08289994 0.011954497 -0.055372838 0.06323616 -0.005204121
00000000: 7229 c33c e1b2 9ebc 7236 4cbd a372 b0bc
00000010: df29 593d bb76 223f 953d fd3c f2f5 063b
00000020: 498c 89bd c5b4 b8bc 6f45 123f d189 03bc
00000030: 890d ac3c 29ae 05be 839a 62be 25f9 c9bd
00000040: 4006 48bd 48f4 ca3e fa50 603e 676f 103c
00000050: e677 9ebc 3ad8 7cbd 9665 ae3c 7ac3 2cbc
00000060: 7eee 6e3c f05b b7be f22b 76be 5ec0 f3bd
00000070: bf00 ff3c 4cfc 633b c6af 893d 1056 093b
00000080: bee4 edbb bd7c 24bd 6501 063c 2f64 7cbd
00000090: 7182 ea3d 4705 403d 8112 c03c da9c 06bc
000000a0: 621c 443d bcd5 5ebd f4c9 44bc 76f6 c1bb
000000b0: caa6 d8bd 0d65 76be 411b 913d 7499 9b3c
000000c0: 36c2 34bd c3d3 28bd 3aa0 4a3d 7eba 5e3c
000000d0: b85a 33be dea9 833c 4073 a03e 760c 12bc
000000e0: 7a05 7dbc 8b45 51bd 1abe 1cbc f495 b53a
000000f0: fa6b 783c a1b7 a03e 8c26 ff3e eff5 ce3c
00000100: 8038 35bc e41c 00be 34a5 dcbc 5a24 24bd
00000110: b78d 43bd d0c1 d43b 9f4f 3f3c 00d1 893d
00000120: 65c5 70be 76ed cc3d 973d ab3c fcb0 cd3c
00000130: 622f bcbc dfc9 75bb 8229 a7bd dace bb3c
00000140: d304 2fbe 0c0e 053d 2a9b 273d 5e56 b53c
00000150: 533d 86be b16d 1c3d 6f4b 79be 49e7 f6bc
00000160: 304c 613c bada ee3b 1077 44bb 4094 53be
00000170: 5471 163a fd81 433c 32d3 73bc cd02 4f3e
00000180: 26d6 bcbd e6f5 84bd 9ee7 07bd 2378 66be
00000190: 428b e4bb 828e 59bd f92b 53bd 7dc9 c23c
000001a0: 21bf e93b e316 d63c f7b7 063b a2c6 fd3c
000001b0: 66ea 453c ccbb a3bd f5ec 1bbd 99c6 0a3d
000001c0: 0d61 28bb 77da b8bc c254 66bd 4a9b 033f
000001d0: 90c3 983c ab93 8f3d e947 923d c7f6 e5bd
000001e0: 99bf e23c a718 1f3d 9a07 3b3c 2bc8 c73e
000001f0: f605 943d 3d88 94bc 41e2 f9bb 162d 6fbe
00000200: 27a1 a43d 9447 003d d9ba 3b3d ed85 ccbd
00000210: 5233 dbbd 4417 4b3d 9524 663d 8e63 383d
00000220: 3ca3 78be fcb2 78bd 6ff9 52be 64cc c3bd
00000230: 7e75 61bb f752 7cbc c6bd dabc aba3 a4b9
00000240: a597 20bd 735e bebc a399 62bc bd26 19bc
00000250: 5003 b13c 31ec f7bc 2b76 cf3b 200b 2abd
00000260: 44c6 033d 22e1 363d 2487 123d 0417 e83c
00000270: 5f6c 11bd 9f16 3dbe 1af6 a63b 3199 0abc
00000280: cc8c 453d fe30 07bd 9b15 03be 6119 37bc
00000290: 0035 e0bd 96c7 093d d5c1 e6bc 5568 fc3c
000002a0: 5b6e 823b af3a e1bd ed7e bcbc e0ab 12bd
000002b0: d5b5 44be 825f c3bd 78e4 51be 2b85 cd3c
000002c0: db9f 95bd 3545 8dbd 1cec b7bd c87a b9bd
000002d0: b689 203c 7877 fd3c e0bc 22bd a459 63bd
000002e0: 6fac 173d 1e80 bc3c 1fa3 403e 56ab 6cbb
000002f0: b2f4 94bd c411 063c f6b9 da3c c165 e33b
00000300: 9950 5abd e832 bd3c 0bd3 79bd 71b0 b8bc
00000310: 65ae 163c 9481 9f3c 7d31 61be e523 c4bd
00000320: 90c6 523d c42b b03c 6260 32bd 0196 18bc
00000330: 7f1c 2dbe a356 463c b210 0ebe c86e 033e
00000340: 8ee9 6dbd 2e7d a8bc 9fb9 b6bb 56ee 7c3d
00000350: f2df bdbe afb4 88bd 3378 f73b 2a42 023d
00000360: 2b2c 24bd cc9c 13be 5afc 70be 89d3 36bd
00000370: edf7 4abd 90a2 db3a 1f94 01be 5b6d 90bd
00000380: 2577 cabc b898 1fbb 316a 04be f183 053b
00000390: 2afd 093d b190 33be c81d 1b3b cf8f 113d
000003a0: 7452 953c 41ae f63d 40cd 603d 345b eabc
000003b0: 491d c53a 5f52 963c 359b 283d 6fc6 77be
000003c0: 9e0c 64bc a7d5 42bd 12e7 70bc 4620 beba
000003d0: 5223 033b 55b6 ad3c c08f 173d b984 b93b
000003e0: 8d25 9abd 2aa8 35be b8c0 82be 72c7 a9bd
000003f0: cbdc 433c a1ce 62bd f681 813d 5587 aabb

fc2.weight f4 [256, 256]
-0.0870493 -0.008813044 0.011822204 0.04003218 -0.0001120832 -0.8804452 -0.3737285 0.17621472
0.048953667 0.20937699 -0.76601654 0.18102632 0.060896862 0.4070138 0.9362358 0.3012732
-0.010797619 0.3102988 0.6646569 -0.033144258 0.13998917 0.69360363 0.2502825 0.24065936
0.22822165 -0.27312127 -0.43368697 0.114416525 0.015633998 0.04662316 0.09674633 -0.041315876
-0.08356589 -0.017940514 -0.045751523 0.002387013 0.6563373 0.2704848 0.29041666 0.12107988
0.0960092 -0.1163361 0.38590616 0.14767846 0.5838023 0.44578025 0.010820245 0.058468886
-0.05050889 -0.07837414 0.109456114 0.299018 0.2140693 0.11743694 0.025721567 -0.048095193
-0.063861676 0.08414753 0.17998911 -0.031234458 0.60157883 0.080608204 0.4090375 0.7108383
-0.002866697 0.31207454 0.92584467 0.12116573 -0.21550287 0.060336087 0.20511098 0.25333107
-0.0026437694 0.9813742 0.014976522 0.45469582 0.034752797 0.18211737 0.13899705 -0.06993467
-0.6189468 -0.009843238 1.2987272 0.33078158 -0.31124946 0.24393085 0.36098665 0.14866471
-0.018512687 0.15896653 0.13017812 0.71715045 -0.015335564 0.10771452 0.19973749 0.25699463
0.25597835 -0.22663553 0.42602342 0.0017196924 0.6483514 0.27501506 -0.11161435 0.701264
0.08915 0.078898005 0.2620285 0.092503384 -0.19026451 -0.20464362 -0.17004673 0.1732093
0.13705993 -0.14886653 0.077304035 -0.8602354 0.63570905 0.73924965 0.24034835 -0.23120986
0.13579921 0.06443899 0.019298272 2.458052 0.11802764 -0.14359513 -0.22994122 -1.4603639e-05
0.6774128 -0.027660318 0.615602 -0.021227032 0.5901092 0.15040603 0.097548865 -0.04605962
1.8481274 0.3910848 0.20743169 0.14096925 -0.031870425 -0.0379071 0.065809175 0.13672173
0.120322846 0.040929914 -0.09557642 -0.6599328 0.13260934 0.107190825 0.063461386 0.124668665
0.13468313 -0.20116274 0.043046653 0.032751102 0.014158687 -0.07508518 0.19714324 0.2507938
0.09064911 0.37178582 0.4115163 0.07528307 0.2714975 0.034212586 0.06772121 0.1754308
0.19719496 0.42580065 -0.18049625 0.07569647 0.5198689 0.5241739 0.4518607 0.14954881
0.1293998 0.036148306 0.15595639 0.3619374 0.0748379 -0.102849044 0.5111329 -0.026731716
-0.11500565 -0.086863674 0.6128011 0.25013736 0.0011538395 -0.036447514 0.08400077 0.06302145
0.18910371 0.121462636 0.04988949 0.042764805 0.3762683 0.16778718 -0.39104092 0.39255592
0.19833879 0.041080467 -0.058875028 0.074881874 0.42989916 0.43471104 0.11677156 0.43885323
0.10568794 0.04626393 0.08242243 0.22076502 0.86631864 0.5179788 -0.08428789 0.32563356
0.007558189 0.13731013 1.2637327 0.4939152 0.6187683 0.21528931 0.36723632 0.3044861
0.34487036 -0.06397528 -0.35889137 -0.11958652 0.78391975 -0.10070937 0.07350754 0.046137515
0.19665952 1.0182564 0.091229014 0.6491399 0.081339225 0.0224885 -0.050988864 -0.35536456
0.36336625 0.05279721 0.25924885 -0.028464817 0.4400619 0.10716777 0.26908395 0.011442989
0.09607987 0.43304193 1.2422433 0.115344465 -0.14778583 -0.035484396 0.11769846 0.055394117
00000000: e746 b2bd 9664 10bc ebb1 413c c8f8 233d
00000010: 360e ebb8 db64 61bf 5859 bfbe a271 343e
00000020: a483 483d ec66 563e a919 44bf f75e 393e
00000030: fd6e 793d 1d64 d03e 26ad 6f3f 7b40 9a3e
00000040: 7fe8 30bc 7cdf 9e3e f426 2a3f 46c2 07bd
00000050: 5259 0f3e 0290 313f 0725 803e 686f 763e
00000060: f0b2 693e 8dd6 8bbe 380c debe 3653 ea3d
00000070: df12 803c edf7 3e3d f122 c63d d63a 29bd
00000080: 9824 abbd fcf7 92bc f365 3bbd 6f6f 1c3b
00000090: b905 283f fc7c 8a3e 7eb1 943e baf8 f73d
000000a0: 79a0 c43d 9f41 eebd 7e95 c53e 0639 173e
000000b0: 1174 153f 4f3d e43e 6647 313c 127d 6f3d
000000c0: 69e2 4ebd 9f82 a0bd 872a e03d e318 993e
000000d0: fc34 5b3e c782 f03d 09b6 d23c 77ff 44bd
000000e0: e9c9 82bd 8a55 ac3d 114f 383e 68df ffbc
000000f0: 1201 1a3f ea15 a53d 5d6d d13e 80f9 353f
00000100: 32df 3bbb 3cc8 9f3e 2804 6d3f bd25 f83d
00000110: c9ac 5cbe f922 773d 9d08 523e 9cb4 813e
00000120: 1743 2dbb 573b 7b3f 1660 753c e4cd e83e
00000130: f358 0e3d fa7c 3a3e 3e55 0e3e e939 8fbd
00000140: 4c73 1ebf 8845 21bc b13c a63f 345c a93e
00000150: 175c 9fbe 02c9 793e 3ed3 b83e 903b 183e
00000160: eba7 97bc 1fc8 223e 6a4d 053e 2c97 373f
00000170: 0442 7bbc 6e99 dc3d fc87 4c3e cd94 833e
00000180: 980f 833e 2513 68be be1f da3e 4d67 e13a
00000190: 5bfa 253f c6ce 8c3e 1096 e4bd 0a86 333f
000001a0: 4694 b63d 4795 a13d 9928 863e 6a72 bd3d
000001b0: b3d4 42be 198e 51be bb20 2ebe c75d 313e
000001c0: 7059 0c3e 7870 18be 9451 9e3d 6338 5cbf
000001d0: d4bd 223f 773f 3d3f e11d 763e 47c2 6cbe
000001e0: f30e 0b3e 97f8 833d 6917 9e3c b950 1d40
000001f0: 7ab8 f13d 9a0a 13be b675 6bbe 2702 75b7
00000200: ed6a 2d3f e497 e2bc 1898 1d3f 50e4 adbc
00000210: 6611 173f 0a04 1a3e b3c7 c73d 03a9 3cbd
00000220: 708f ec3f 443c c83e f968 543e 3e5a 103e
00000230: 908a 02bd 7a44 1bbd f6c6 863d c800 0c3e
00000240: d36b f63d 20a6 273d 92bd c3bd 5bf1 28bf
00000250: beca 073e dd86 db3d 0bf8 813d 4952 ff3d
00000260: 60ea 093e 9bfd 4dbe b051 303d 0526 063d
00000270: d6f9 673c 42c6 99bd ebdf 493e 0c68 803e
00000280: 3ea6 b93d b65a be3e 44b2 d23e 032e 9a3d
00000290: b801 8b3e 7f22 0c3d 6bb1 8a3d 22a4 333e
000002a0: 7aed 493e 8b02 da3e 02d4 38be c006 9b3d
000002b0: 2116 053f 4330 063f 495a e73e 5323 193e
000002c0: 6281 043e 3f10 143d 08b3 1f3e dc4f b93e
000002d0: 9d44 993d 85a2 d2bd 9bd9 023f 79fc dabc
000002e0: 1588 ebbd 95e5 b1bd 88e0 1c3f 0112 803e
000002f0: 6e3c 973a fd49 15bd 9808 ac3d 6411 813d
00000300: 67a4 413e 67c1 f83d ec58 4c3d 262a 2f3d
00000310: 3da6 c03e 67d0 2b3e 8436 c8be 17fd c83e
00000320: 5319 4b3e fe43 283d f126 71bd ab5b 993d
00000330: be1b dc3e 7292 de3e ed25 ef3d 5fb1 e03e
00000340: eb72 d83d 3f7f 3d3d 17cd a83d 3a10 623e
00000350: 0fc7 5d3f 429a 043f 219f acbd 71b9 a63e
00000360: afaa f73b 079b 0c3e fec1 a13f 74e2 fc3e
00000370: 9967 1e3f cd74 5c3e 6606 bc3e 9ae5 9b3e
00000380: d992 b03e 7905 83bd 9cc0 b7be c7e9 f4bd
00000390: f7ae 483f b740 cebd 1f8b 963d b1fa 3c3d
000003a0: 1d61 493e 3a56 823f 47d6 ba3d 082e 263f
000003b0: 2e95 a63d ce39 b83c b3d9 50bd 58f2 b5be
000003c0: 240b ba3e e341 583d 44bc 843e 0c2f e9bc
000003d0: cb4f e13e c77a db3d 5fc5 893e 607b 3b3c
000003e0: 86c5 c43d acb7 dd3e d401 9f3f b839 ec3d
000003f0: 2b55 17be 1658 11bd e40b f13d f1e4 623d

fc2.bias f4 [256]
-0.49226698 -0.56339043 -0.5470315 -0.7498609 -1.1518042 -1.1378509 -0.79067814 0.05185556
-0.52342397 -0.61944914 0.49315926 0.4411181 0.86119944 0.7395646 -0.62249476 -0.642834
-0.38489425 -0.1933332 -0.60763365 -0.02605561 -0.98508084 -0.3723523 -0.6076628 0.73785037
0.33372194 -0.5303928 1.5002415 -0.2119098 -0.32817984 -0.76561135 0.61957115 0.24604946
-0.47911882 0.57128435 -0.46759248 0.3592875 -0.2688712 0.29671642 -0.14333566 -0.36857668
0.152569 -0.53772324 -0.5983995 -0.22029379 -0.28221396 0.19206588 -0.45176256 -0.8244251
-0.45331362 0.099568024 -0.31063944 0.1752533 0.5740614 -0.71914494 0.5512426 0.8282238
-0.33546463 -0.68178725 -0.48526385 -0.33423957 -0.45443 -0.49568167 -0.4372093 -0.1306337
-0.30431372 -0.303745 -0.5198094 -1.402773 -0.47131482 -0.5476418 -0.6574005 -0.48015422
-0.33401763 -0.504284 -0.7604004 -0.08782061 -0.26469418 -0.33454782 -0.4251974 0.33930337
0.6694599 -0.52289295 -0.5681914 0.33240452 -0.15484203 -0.4996429 0.40375403 -0.5473883
-0.5303951 -0.58069676 -0.21541612 -0.37213248 -0.4748737 -0.51644236 -0.07748377 -0.6663329
-0.5945471 -0.47575495 -0.5840546 0.31530243 0.14595018 -0.020787014 -0.7536766 -0.36958218
0.6648919 -0.46506876 -0.48403093 -0.3642506 -0.479366 -0.27688292 -0.37063646 -0.057803493
-0.14441863 -0.44771218 -0.79773515 -0.1320201 -0.63291246 0.6316159 -0.33740786 0.23987532
-0.4176979 -0.20936616 0.6065322 -0.5105662 0.67159986 -0.49418432 -0.5384566 0.3079174
-0.20581354 -0.47723824 -0.8605454 -0.5220663 -0.4099069 -0.20025839 -0.53171146 -0.4463572
-0.43080524 -1.2787981 -0.23778924 -0.25236177 0.6286393 -0.81335694 0.7889187 -0.4771574
0.6711204 -0.41707915 0.5461203 -0.17537367 -0.46914682 -0.3965502 -0.24440247 -0.54639137
-0.52055335 -0.64812267 0.5819055 -0.87162 0.30898187 -0.48657036 -0.34383896 -0.423588
0.40223676 -0.5713031 -0.6475697 -0.40752494 -0.9082782 -0.13438885 -0.45302296 -0.3895623
-0.25315246 -0.5522019 -0.51776683 -0.58910215 -0.37245017 -0.73637986 -0.37780583 0.7158258
0.6635201 -0.7151777 -0.7223556 -0.5617174 -0.52046824 -0.5102197 0.4084327 -0.37296996
-0.5324102 -0.99817073 -0.1318496 0.10403515 0.34632713 -0.059724156 -0.69740975 -0.58617264
0.24249105 -0.72231436 -0.49453998 -0.22969152 -0.6493232 -0.63027525 0.17497247 -0.5654931
-0.01851611 -0.3101495 -0.3981328 -0.5066149 0.30806875 -0.50466555 -0.36495095 -0.4800071
-0.5189369 0.05206253 -0.5910468 -0.36396894 -0.8048215 0.64526504 -0.4614353 0.030528773
-0.6278436 -0.7632284 -0.8442945 -0.09856784 -0.72209436 -0.6904369 1.0463794 -0.64774406
-0.788567 -0.88866717 -0.47661752 -0.46032533 -0.8306171 -0.021789057 -0.67274547 -0.40069064
-0.46567965 -0.3716682 -0.19392431 -0.19676922 -1.1831594 0.07918248 -0.3824764 0.2663533
-0.15118341 -0.14348221 -0.4914399 -0.42531833 -1.1899562 -0.37021214 0.44498086 -0.40494585
-0.1023171 -0.44976172 -0.24983129 -0.17584984 -0.72628707 -0.41916874 -0.12322736 0.60186565
00000000: 6b0a fcbe 5b3a 10bf 420a 0cbf e2f6 3fbf
00000010: 526e 93bf 19a5 91bf e269 4abf 7f66 543d
00000020: 1dff 05bf 3894 1ebf 5f7f fc3e 3bda e13e
00000030: 9177 5c3f 1b54 3d3f d15b 1fbf c590 24bf
00000040: dc10 c5be 23f9 45be e18d 1bbf 9372 d5bc
00000050: 422e 7cbf f6a4 bebe ca8f 1bbf c3e3 3c3f
00000060: 9add aa3e d3c7 07bf ea07 c03f e2fe 58be
00000070: 3007 a8be 1bff 43bf 379c 1e3f 64f4 7b3e
00000080: 104f f5be b13f 123f 4868 efbe 88f4 b73e
00000090: 7ca9 89be 37eb 973e 95c6 12be 15b6 bcbe
000000a0: 0c3b 1c3e 3ba8 09bf b630 19bf b294 61be
000000b0: 597e 90be ebac 443e 6c4d e7be 860d 53bf
000000c0: b918 e8be 52ea cb3d 220c 9fbe 9a75 333e
000000d0: b0f5 123f e219 38bf 3c1e 0d3f 7a06 543f
000000e0: 05c2 abbe 9c89 2ebf 8174 f8be 7321 abbe
000000f0: 0dab e8be fdc9 fdbe e6d9 dfbe d7c4 05be
00000100: 02cf 9bbe 7784 9bbe 3b12 05bf 118e b3bf
00000110: 2d50 f1be 4132 0cbf 664b 28bf c6d6 f5be
00000120: 5c04 abbe c218 01bf 9aa9 42bf 4bdb b3bd
00000130: ff85 87be da49 abbe 79b3 d9be 2cb9 ad3e
00000140: b961 2b3f 50dc 05bf fe74 11bf ed30 aa3e
00000150: e98e 1ebe 32d1 ffbe d9b8 ce3e a421 0cbf
00000160: f9c7 07bf 8ba8 14bf 0b96 5cbe 2688 bebe
00000170: a522 f3be 9135 04bf d0af 9ebd cb94 2abf
00000180: 3d34 18bf 2796 f3be 9a84 15bf 526f a13e
00000190: f773 153e 8749 aabc f3f0 40bf e039 bdbe
000001a0: 5b36 2a3f 7e1d eebe e7d2 f7be 0e7f babe
000001b0: 766f f5be 99c3 8dbe 10c4 bdbe 5bc3 6cbd
000001c0: 7ae2 13be 883a e5be 5f38 4cbf 4730 07be
000001d0: 8d06 22bf 94b1 213f b9c0 acbe e0a1 753e
000001e0: 80dc d5be 1564 56be b245 1b3f 77b4 02bf
000001f0: f8ed 2b3f ba05 fdbe 4bd8 09bf 59a7 9d3e
00000200: c9c0 52be 9258 f4be b44c 5cbf 23a6 05bf
00000210: 51df d1be 8910 4dbe 3e1e 08bf ee88 e4be
00000220: 8192 dcbe a8af a3bf 067f 73be 9035 81be
00000230: 81ee 203f 2938 50bf 93f6 493f fa4d f4be
00000240: 8cce 2b3f 668b d5be 8ace 0b3f 2895 33be
00000250: 0334 f0be a108 cbbe a444 7abe 4ee0 0bbf
00000260: fc42 05bf 5eeb 25bf c2f7 143f 7d22 5fbf
00000270: df32 9e3e c01f f9be a90b b0be 87e0 d8be
00000280: faf1 cd3e ec40 12bf 21c7 25bf 1ca7 d0be
00000290: ec84 68bf 3b9d 09be a0f2 e7be b674 c7be
000002a0: 339d 81be 1b5d 0dbf 5e8c 04bf 66cf 16bf
000002b0: cab1 bebe 6483 3cbf c46f c1be 5c40 373f
000002c0: 74dc 293f e315 37bf 4cec 38bf b6cc 0fbf
000002d0: 683d 05bf c29d 02bf 171e d13e ebf5 bebe
000002e0: 094c 08bf 1e88 7fbf 9503 07be 6110 d53d
000002f0: ca51 b13e 51a1 74bd 7289 32bf 690f 16bf
00000300: 934f 783e 98e9 38bf 5834 fdbe 4134 6bbe
00000310: 0c3a 26bf b859 21bf fc2b 333e 28c4 10bf
00000320: 19af 97bc eacb 9ebe 10d8 cbbe 84b1 01bf
00000330: 30bb 9d3e c331 01bf dada babe 7ec3 f5be
00000340: 0cd9 04bf 853f 553d d84e 17bf 235a babe
00000350: c808 4ebf 1730 253f 3f41 ecbe 7a17 fa3c
00000360: 5cba 20bf f062 43bf af23 58bf f0dd c9bd
00000370: 2ddb 38bf 79c0 30bf c3ef 853f 8ed2 25bf
00000380: 87df 49bf b17f 63bf 3607 f4be c3af ebbe
00000390: 52a3 54bf f77e b2bc 0c39 2cbf 5327 cdbe
000003a0: 906d eebe 4b4b bebe 1894 46be df7d 49be
000003b0: c471 97bf 6d2a a23d f2d3 c3be 765f 883e
000003c0: d3cf 1abe 00ed 12be 039e fbbe 53c3 d9be
000003d0: 7c50 98bf 728c bdbe 88d4 e33e 1055 cfbe
000003e0: a18b d1bd 2b47 e6be c6d3 7fbe fb11 34be
000003f0: f3ed 39bf 499d d6be a05e fcbd de13 1a3f

fc3.weight f4 [128, 256]
-0.2903588 0.06457735 0.19673435 -0.37891775 0.24561104 0.5249419 1.0161206 -0.14935064
0.0155297965 0.11187579 -0.4071591 -0.16302349 -0.89764494 -0.7762632 0.12176649 -0.14847146
0.050847083 0.244983 0.32446402 -1.5897915 0.008767455 -0.046274554 0.6039595 -0.8342017
-0.25507382 -0.025678331 -0.82154846 0.32702234 0.3667813 -0.0036819414 -0.41099554 -0.56096554
0.12895465 -1.2222896 0.5534967 -0.42821077 1.142338 -0.5781389 -2.1306808 -0.45636466
-0.873061 0.6867138 -0.13814916 1.0118606 0.5549545 -0.42260996 0.1864604 0.37362072
0.33372638 -0.75892407 -0.15663467 -0.20384301 -1.3882862 -0.6096511 1.1049079 -0.5850669
0.9635495 -0.34428713 0.43115026 0.7415165 0.00531445 -0.26887006 -0.08344715 -1.5549293
-3.3801868 -0.041433334 -0.2093823 -0.8606148 0.26266575 -0.2695202 0.07050833 -0.051304214
0.16875245 0.17333949 0.21959417 -1.429355 1.2117221 1.307538 0.075170904 -0.09983136
-0.25734675 -0.2544447 -0.06920238 -0.8131014 0.11863377 -0.082657024 -0.647013 -0.28995287
0.040689796 -0.47513813 0.041415274 0.26680356 -0.097967006 -0.18611696 0.613835 3.6090343
-0.037646145 -0.40320528 -0.16374634 -0.09811477 0.17507875 0.62671673 0.15720183 0.2871716
-0.4124998 -0.05758881 0.9544183 0.7403392 0.04160551 -0.05928148 1.7090456 -0.028716158
0.66624546 -0.15348727 0.7652562 0.41915658 0.08003012 -0.5627526 0.26000196 -0.19361717
0.045179628 0.06615591 -0.35765564 0.8272762 -0.26071844 -0.33460706 -0.13602409 -0.5050597
0.04052633 -0.22298819 -0.21711653 0.038281996 1.0175512 1.1490569 -0.91235864 -0.4089279
-0.17689492 0.15976751 -0.016224116 -0.79210794 -1.1363435 0.14080712 -0.6676337 -0.7572965
-0.94998014 0.80387175 -0.5646889 0.41082937 -0.02036121 0.16942762 0.22583543 0.19307272
-0.0012880904 1.6597887 0.25082082 0.3538167 -0.76994526 0.34758967 -1.0206385 -0.02343277
-0.06540197 -0.077244475 0.5064602 -0.072605796 0.6639642 -0.5303724 -0.28769112 0.0255674
0.90184164 0.036007006 -0.042736657 -1.4269842 2.4281895 -1.3005998 -0.06711173 -0.40959468
-0.50252897 0.041284576 0.25961867 -0.026582506 0.3110263 0.17823553 -0.1454069 -0.2952453
0.40410063 -1.2445486 -0.45477298 0.04730189 -0.37391505 -0.07661187 -0.119329564 -0.2213714
-0.56322974 -0.40792736 -1.1279025 -0.16692616 0.1462179 -0.2174628 -0.3811364 -0.10929476
0.6343237 -0.6824405 0.041954186 0.025089407 -0.29174393 -0.81784934 -0.041491907 0.08324413
0.70662045 -0.053032517 0.26322347 0.04105931 0.515561 0.061363075 -0.010086496 0.69623953
-0.050955497 0.4459233 0.3929005 0.0108442865 -0.1366041 0.5598132 -0.87893033 0.22849691
0.58612776 1.4237808 0.078736946 0.16783522 0.6298862 -0.17125835 -0.25205305 -0.17127931
-0.14094424 -0.3497585 0.74194425 -0.10622833 0.59675825 0.08277881 -0.4737321 1.1822462
-0.90740085 -0.6992264 -0.14324114 -0.2188853 0.6200248 0.1625472 -0.32270777 -0.22175097
-0.78954107 0.046482574 1.1128999 0.5913498 0.24852377 0.24901468 0.14932254 -1.4906669
00000000: e9a9 94be 2141 843d bb74 493e 8201 c2be
00000010: 7681 7b3e 9862 063f 3d10 823f 60ef 18be
00000020: b070 7e3c 221f e53d 2877 d0be a1ef 26be
00000030: 0fcc 65bf 2fb9 46bf b660 f93d e708 18be
00000040: 0845 503d d3dc 7a3e 2620 a63e 4a7e cbbf
00000050: 5fa5 0f3c 638a 3dbd 179d 1a3f 3e8e 55bf
00000060: 0999 82be 5d5b d2bc 0051 52bf 796f a73e
00000070: c2ca bb3e ba4c 71bb 026e d2be 709b 0fbf
00000080: b00c 043e fc73 9cbf f6b1 0d3f 713e dbbe
00000090: 2238 923f e900 14bf 135d 08c0 a1a8 e9be
000000a0: ed80 5fbf 7acc 2f3f f976 0dbe a684 813f
000000b0: 8011 0e3f 5560 d8be 7aef 3e3e 374b bf3e
000000c0: 2fde aa3e d948 42bf d764 20be 39bc 50be
000000d0: 5db3 b1bf 1812 1cbf 9f6d 8d3f f2c6 15bf
000000e0: 2eab 763f 6746 b0be babf dc3e 06d4 3d3f
000000f0: d624 ae3b 56a9 89be 57e6 aabd ec07 c7bf
00000100: fb54 58c0 00b6 29bd 5068 56be 4051 5cbf
00000110: 207c 863e 8dfe 89be ac66 903d 5e24 52bd
00000120: 71cd 2c3e e87f 313e 4bdd 603e 1bf5 b6bf
00000130: b619 9b3f 685d a73f 34f3 993d 6274 ccbd
00000140: f4c2 83be 9346 82be fab9 8dbd 6a27 50bf
00000150: 43f6 f23d 1648 a9bd a5a2 25bf b474 94be
00000160: 58aa 263d 4e45 f3be 10a3 293d 7a9a 883e
00000170: eda2 c8bd 7295 3ebe 4a24 1d3f 6bfa 6640
00000180: d832 1abd ec70 cebe 1fad 27be 66f0 c8bd
00000190: d847 333e 8270 203f 84f9 203e 2808 933e
000001a0: 2c33 d3be 3ee2 6bbd c254 743f df86 3d3f
000001b0: 8a6a 2a3d 23d1 72bd 02c2 da3f 263e ebbc
000001c0: 108f 2a3f c42b 1dbe d5e7 433f b19b d63e
000001d0: d5e6 a33d 8e10 10bf fa1e 853e 9443 46be
000001e0: 460e 393d c07c 873d a41e b7be 5fc8 533f
000001f0: e37c 85be 9e51 abbe e649 0bbe 984b 01bf
00000200: f0fe 253d 0457 64be cc53 5ebe 95cd 1c3d
00000210: 1e3f 823f 4c14 933f 5690 69bf ff5e d1be
00000220: f123 35be 189a 233e 70e8 84bc 96c7 4abf
00000230: b473 91bf be2f 103e 0bea 2abf 2fde 41bf
00000240: e631 73bf 8aca 4d3f 748f 10bf 3a58 d23e
00000250: 8dcc a6bc 6f7e 2d3e 6741 673e dbb4 453e
00000260: 24d5 a8ba f573 d43f 966b 803e 7627 b53e
00000270: 221b 45bf 46f7 b13e 48a4 82bf 15f6 bfbc
00000280: 78f1 85bd 5a32 9ebd 60a7 013f 59b2 94bd
00000290: 8ff9 293f 7cc6 07bf 404c 93be b972 d13c
000002a0: 18df 663f 157c 133d a20c 2fbd 6ba7 b6bf
000002b0: 7567 1b40 0e7a a6bf e071 89bd 65b6 d1be
000002c0: bda5 00bf 041a 293d bdec 843e 8ec3 d9bc
000002d0: d73e 9f3e 6083 363e 8ce5 14be 642a 97be
000002e0: 47e6 ce3e 5e4d 9fbf 01d8 e8be a0bf 413d
000002f0: cb71 bfbe afe6 9cbd 0f63 f4bd 2faf 62be
00000300: d32f 10bf dbdb d0be 1c5f 90bf b1ee 2abe
00000310: 25ba 153e 91ae 5ebe 4f24 c3be eed5 dfbd
00000320: 0a63 223f 6cb4 2ebf 27d8 2b3d 4d88 cd3c
00000330: 765f 95be 935e 51bf 6bf3 29bd e67b aa3d
00000340: 14e5 343f a038 59bd 3ac5 863e cf2d 283d
00000350: cefb 033f d957 7b3d d541 25bc c13c 323f
00000360: b6b6 50bd 0f50 e43e 412a c93e 3cac 313c
00000370: f2e1 0bbe eb4f 0f3f 9401 61bf 18fb 693e
00000380: 780c 163f 733e b63f d640 a13d ffdc 2b3e
00000390: 3940 213f 595e 2fbe 190d 81be d863 2fbe
000003a0: b053 10be 8c13 b3be 0ff0 3d3f 3d8e d9bd
000003b0: 26c5 183f f087 a93d 048d f2be d853 973f
000003c0: 6c4b 68bf 8000 33bf cead 12be 7823 60be
000003d0: f2b9 1e3f c672 263e f439 a5be b012 63be
000003e0: 5d1f 4abf 8364 3e3d 8173 8e3f b362 173f
000003f0: 047d 7e3e b4fd 7e3e 02e8 183e 2cce bebf

fc3.bias f4 [128]
-0.30589002 -1.0275612 -0.5666644 -0.70744747 -0.5637673 -0.033816822 -0.56185716 -0.66315967
0.28340682 0.6219994 0.6310125 -0.934825 -0.9827554 -0.8411266 0.38446853 -0.5681846
-1.0558968 -0.6395697 0.5297567 0.46767333 0.4924782 -0.6110804 1.1891866 -0.74903244
-0.21492179 -0.86399394 -0.33243424 -0.5113327 -0.8373453 -0.3094247 -0.43324634 -0.10558447
-0.4192393 -0.23485397 -0.9517269 -0.042963177 -0.47698408 -0.34215057 -0.13482516 -1.1116899
-0.7117892 -0.6646541 -0.5466888 -1.12375 -0.39551327 -0.55049074 -1.0433651 -0.7760162
0.8312666 -0.31099305 -0.8534798 -0.37549907 -0.5955506 -0.60048014 -0.9802901 -0.9787411
-0.7693834 -0.19288018 -0.16541626 -0.75323856 -0.17448542 -0.81400764 0.18987572 -0.49726945
-0.25581565 -0.80214214 -0.40207028 0.6154692 -1.0679698 0.06307163 0.6663445 -0.45292646
-0.45496917 -0.54144484 0.15011269 -0.11139588 -0.612407 -0.6459513 -0.32066736 -0.8754247
-0.27716342 -0.4340317 -0.7848741 0.5570411 -0.4560337 -0.42267227 0.67832357 -0.27200687
-1.0375154 0.40638155 -0.16483538 -0.7365445 -0.54451025 0.57549435 -1.0696144 -0.66742575
-0.028746396 -0.6282165 -1.1127862 -0.97939956 -0.75451934 -0.96360475 -0.24555106 0.45032436
-0.70808715 0.029324109 -0.29300737 1.1024619 -0.9914335 0.5796879 -0.2010346 -0.5793265
-0.3747707 0.49701938 -0.0028737476 -0.91142935 -0.8612686 -0.7388551 0.6057815 0.20226613
0.3137312 0.8148562 -0.25938255 0.48005548 -0.7704865 1.086866 -0.96626794 -0.7441686
00000000: 9e9d 9cbe 2087 83bf eb10 11bf 471b 35bf
00000010: 0e53 10bf 8283 0abd dfd5 0fbf d5c4 29bf
00000020: b31a 913e 5a3b 1f3f 098a 213f b150 6fbf
00000030: dc95 7bbf 1354 57bf 0fd9 c43e 8c74 11bf
00000040: a027 87bf d7ba 23bf 239e 073f e172 ef3e
00000050: 1a26 fc3e c46f 1cbf 4437 983f 97c0 3fbf
00000060: 7514 5cbe b52e 5dbf d234 aabe b3e6 02bf
00000070: 435c 56bf ea6c 9ebe 77d2 ddbe ac3c d8bd
00000080: 89a6 d6be 8f7d 70be 60a4 73bf 28fa 2fbd
00000090: 4237 f4be 5c2e afbe 9b0f 0abe db4b 8ebf
000000a0: d137 36bf c526 2abf ccf3 0bbf 0ad7 8fbf
000000b0: b780 cabe f6ec 0cbf fd8c 85bf ffa8 46bf
000000c0: e3cd 543f 7b3a 9fbe a77d 5abf 6a41 c0be
000000d0: 0176 18bf 11b9 19bf 4bf4 7abf c78e 7abf
000000e0: 4ff6 44bf 6282 45be e162 29be 3ed4 40bf
000000f0: 4eac 32be ce62 50bf c86e 423e 1a9a febe
00000100: 45fa 82be 3059 4dbf 28dc cdbe 648f 1d3f
00000110: 3cb3 88bf b32b 813d 8e95 2a3f fae5 e7be
00000120: b8f1 e8be 219c 0abf 24b7 193e 8623 e4bd
00000130: b5c6 1cbf 105d 25bf 832e a4be d51b 60bf
00000140: 5de8 8dbe 6739 debe 82ed 48bf 3f9a 0e3f
00000150: 407d e9be 8068 d8be 9da6 2d3f 7c44 8bbe
00000160: 4ecd 84bf 3e11 d03e 9bca 28be 2e8e 3cbf
00000170: 0665 0bbf 9953 133f 20e9 88bf 6adc 2abf
00000180: 907d ebbc ccd2 20bf c76f 8ebf eeb9 7abf
00000190: 2e28 41bf cdae 76bf bd71 7bbe ea90 e63e
000001a0: 3345 35bf 1d39 f03c 1005 96be 791d 8d3f
000001b0: 96ce 7dbf 6d66 143f 04dc 4dbe be4e 14bf
000001c0: f2e1 bfbe 5379 fe3e 7c55 3cbb 6f53 69bf
000001d0: 197c 5cbf 9c25 3dbf 7f14 1b3f da1e 4f3e
000001e0: 60a1 a03e 6a9a 503f cacd 84be d5c9 f53e
000001f0: 9a3e 45bf 6d1e 8b3f 565d 77bf d581 3ebf

fc4.weight f4 [4, 128]
0.071465164 0.08767105 0.09995526 -0.08654628 -0.271863 -0.014209929 0.60931367 -0.12398235
0.3369102 1.1257609 1.0457617 0.46285787 0.13568617 0.33666617 0.9609356 1.354726
-0.10088546 0.8024025 1.0774218 1.1360855 0.97930354 0.63992566 1.156068 0.251024
0.9612875 1.1411687 0.60406727 1.716476 -0.07751307 1.4274167 0.6492424 1.5465771
-0.10398659 0.74199027 -0.17997175 0.63227093 0.4188339 1.0584782 0.3149129 0.47698256
-1.9122307 0.38311896 1.1671791 0.11410633 0.36115813 0.6913248 -0.13097596 1.0009023
0.91860884 0.31798807 -0.16098288 -1.7789502 0.66987514 0.44039348 0.68787396 -0.0015653423
1.1637954 0.30403632 1.268273 -0.8375071 0.8369754 0.55223626 0.7119112 0.6168448
0.6582038 0.78484446 -3.0828557 1.1389207 0.46264827 1.8525783 1.0951962 0.65190566
0.37826416 0.1728907 0.9923962 1.2745402 0.5315332 0.47363314 0.72044873 0.7098159
1.036269 -0.8034726 0.7938884 1.0868794 0.4059597 -4.7897983 0.9908568 0.46113932
0.13054688 1.0713103 1.4035221 1.1016469 1.1623374 1.0843837 1.2714972 0.83875936
1.1191064 0.78636247 0.6142049 -0.054084145 0.4766893 0.12542419 0.34467518 1.2346448
0.31790718 -0.3159515 0.6152924 1.3953065 -0.08111121 1.08814 1.1678274 0.48469037
-2.9019 1.0125282 -0.29803124 0.13884586 0.61262894 0.9512084 1.1266723 1.5786744
1.1966686 1.0996639 1.5197471 1.0534297 0.33360526 1.5964408 -0.2040021 0.62586427
0.28881416 0.16279997 0.028935757 -0.034837734 0.041400976 -0.059232645 0.619255 -0.81477845
0.5431739 1.2688493 1.1304584 0.55211544 -0.18661377 -0.10695069 1.0740331 0.76664746
0.07739618 0.90567285 1.0970291 1.1385309 1.1009891 0.64764327 1.3771634 0.0906702
1.0189486 0.9005598 0.6525117 1.3528054 0.048346665 0.7079803 0.54375786 1.5334718
0.2619417 0.8721615 0.28196725 0.31804475 0.8136102 1.007325 0.44490948 -0.1655863
-4.394649 1.061141 -0.39758462 0.14688274 0.48247713 0.40368253 0.09293275 0.7334161
1.0824791 0.37552905 -0.008370778 0.5199186 0.39467415 0.2313597 0.68950915 0.016385263
0.9251817 0.0075611444 1.0676792 -0.8526631 0.7481118 0.9602227 -0.09824612 0.3944283
0.6583992 0.575863 -3.217775 1.080287 0.9130504 0.84765595 1.1258938 0.70925504
0.6960509 0.093951434 0.8935089 1.670842 0.3767077 0.50562865 1.0914485 0.5137086
1.3478688 0.45385826 0.6087017 1.086239 0.6236162 -4.55358 1.1988674 0.7438324
0.09384554 1.1530102 1.4493781 1.1229194 0.9742177 1.0849288 1.070067 0.78357744
0.8833795 0.5291318 1.0768325 -1.0703691 0.7867491 0.029785462 0.66627777 1.2847259
0.80217683 0.163867 1.0339441 1.3881694 0.25895184 1.1004128 0.5539487 1.4087282
-2.8801455 1.081207 0.08696086 0.9965656 0.44969365 1.2588327 1.1184707 1.7020746
0.6759485 1.1033436 0.8355885 1.076702 0.595922 1.6682622 1.2418299 0.032550365
00000000: 545c 923d e18c b33d 58b5 cc3d 2d3f b1bd
00000010: a131 8bbe c3d0 68bc fbfb 1b3f 75ea fdbd
00000020: 7e7f ac3e ef18 903f 85db 853f b5fb ec3e
00000030: 51f1 0a3e 825f ac3e e0ff 753f a967 ad3f
00000040: 099d cebd 406a 4d3f f5e8 893f 406b 913f
00000050: a3b3 7a3f 2bd2 233f 09fa 933f 3886 803e
00000060: f016 763f d111 923f 27a4 1a3f 7cb5 db3f
00000070: 2cbf 9ebd 97b5 b63f c034 263f 3df6 c53f
00000080: ecf6 d4bd 13f3 3d3f 844a 38be 82dc 213f
00000090: 6671 d63e 377c 873f 433c a13e 0f37 f43e
000000a0: fac3 f4bf 2b28 c43e 2066 953f 94b0 e93d
000000b0: b8e9 b83e a9fa 303f 901e 06be 911d 803f
000000c0: f329 6b3f 55cf a23e b2d8 24be a4b4 e3bf
000000d0: f07c 2b3f 417b e13e 8218 303f 2c2c cdba
000000e0: 3ff7 943f a6aa 9b3e c556 a23f de66 56bf
000000f0: 0544 563f 5b5f 0d3f d03f 363f 8ae9 1d3f
00000100: 0b80 283f 91eb 483f 824d 45c0 27c8 913f
00000110: 3ce0 ec3e 4921 ed3f 642f 8c3f 4ae3 263f
00000120: d7ab c13e 420a 313e ad0d 7e3f 2224 a33f
00000130: 8f12 083f 0b80 f23e 546f 383f 7fb6 353f
00000140: 76a4 843f 61b0 4dbf 453c 4b3f dd1e 8b3f
00000150: f3d9 cf3e 0746 99c0 cba8 7d3f 741a ec3e
00000160: 15ae 053e b220 893f 9da6 b33f c402 8d3f
00000170: 79c7 943f 16cd 8a3f 6cc0 a23f efb8 563f
00000180: e13e 8f3f 0d4f 493f 883c 1d3f 5687 5dbd
00000190: 9f10 f43e 336f 003e 4479 b03e d708 9e3f
000001a0: bbc4 a23e 65c4 a1be cd83 1d3f 6799 b23f
000001b0: a21d a6bd 2c48 8b3f 5e7b 953f 5629 f83e
000001c0: bbb8 39c0 869a 813f 8d97 98be 9c2d 0e3e
000001d0: 40d5 1c3f 6582 733f cc36 903f 0112 ca3f
000001e0: 702c 993f c9c1 8c3f 1387 c23f c9d6 863f
000001f0: 4fce aa3e 2c58 cc3f ede5 50be a438 203f
00000200: 73df 933e 09b5 263e ae0a ed3c 03b2 0ebd
00000210: 1294 293d ee9d 72bd 7f87 1e3f 5295 50bf
00000220: 720d 0b3f a769 a23f dcb2 903f 7057 0d3f
00000230: ae17 3fbe f708 dbbd eb79 893f 0243 443f
00000240: e381 9e3d 2dda 673f 736b 8c3f 61bb 913f
00000250: 36ed 8c3f f3cb 253f e446 b03f 4cb1 b93d
00000260: e86c 823f 168b 663f 020b 273f ba28 ad3f
00000270: 2707 463d 323e 353f b733 0b3f ce48 c43f
00000280: 391d 863e fa45 5f3f 035e 903e c3d6 a23e
00000290: c248 503f 07f0 803f 2dcb e33e 748f 29be
000002a0: f7a0 8cc0 78d3 873f 3690 cbbe 6e68 163e
000002b0: 3e07 f73e 7aaf ce3e 8753 be3d 28c1 3b3f
000002c0: ad8e 8a3f 5845 c03e 9625 09bc 6319 053f
000002d0: bb12 ca3e 8fe9 6c3e ac83 303f 633a 863c
000002e0: b5d8 6c3f 7ac3 f73b b6a9 883f 2148 5abf
000002f0: 4184 3f3f 28d1 753f 4335 c9bd 82f2 c93e
00000300: da8c 283f c26b 133f 07f0 4dc0 d846 8a3f
00000310: acbd 693f fbff 583f 4a1d 903f bd91 353f
00000320: 6430 323f 9c69 c03d 00bd 643f 27de d53f
00000330: d5df c03e e170 013f 96b4 8b3f 6882 033f
00000340: f786 ac3f 1c60 e83e e0d3 1b3f e109 8b3f
00000350: 50a5 1f3f edb6 91c0 7d74 993f cd6b 3e3f
00000360: 1732 c03d d795 933f 3985 b93f d3bb 8f3f
00000370: 5566 793f f2de 8a3f f5f7 883f 8898 483f
00000380: 2925 623f 2f75 073f a6d5 893f db01 89bf
00000390: 6468 493f a400 f43c 2e91 2a3f e671 a43f
000003a0: 765b 4d3f c0cc 273e 4858 843f 89af b13f
000003b0: 5695 843e 54da 8c3f 95cf 0d3f 3551 b43f
000003c0: 4e54 38c0 fe64 8a3f 8918 b23d ec1e 7f3f
000003d0: 3f3e e63e 6e21 a13f 0c2a 8f3f 95dd d93f
000003e0: f60a 2d3f 5d3a 8d3f 21e9 553f 5fd1 893f
000003f0: 588e 183f 9e89 d53f 48f4 9e3f 8853 053d

fc4.bias f4 [4]
1.2066102 1.1483767 1.1202818 1.1587777
00000000: 3472 9a3f 02fe 923f 6565 8f3f d452 943f

ln1.weight f4 [256]
0.3756339 0.40807799 0.4249466 0.49627045 0.52201945 1.4188216 0.40081546 0.40993717
0.41900268 0.4651059 1.2748823 0.4023372 0.538421 0.6584217 0.64669204 0.47844046
0.41773313 1.4185144 0.44632608 0.3080261 0.59288293 0.8394666 0.39728627 0.3759961
0.59651166 1.6340066 0.684405 1.0846763 0.44077715 0.46641105 0.4030103 0.4562289
0.4623648 0.72013724 0.25216097 0.43370765 0.29721314 0.37692636 0.4035962 0.45111015
0.39167762 0.6802086 0.3911303 0.4296326 0.26126587 0.8407949 0.36270005 0.45503783
0.46031025 0.43702075 0.20829746 0.37242526 0.5093409 0.3865842 1.1179912 0.38405895
0.6838476 0.2572793 0.30497506 0.3942212 0.8393675 0.3347043 1.9103731 1.4872158
0.45374987 0.5042584 2.6960955 0.6429575 0.35989794 0.3601745 0.38674223 0.5316521
0.58136845 0.37138486 0.2957351 0.6027472 0.4342947 0.49842384 1.0918431 0.4552869
0.788466 0.20082207 0.88965183 0.41763777 0.620004 0.38121262 0.75035447 0.10074126
0.5295175 0.30398345 0.42131224 1.1112149 0.525274 0.5688715 0.43205556 0.21841772
0.88095295 0.5992635 0.45726636 1.2893298 0.83000183 0.43634936 0.38151422 0.4265733
0.44492754 0.4310786 0.5764272 0.4377954 0.33741853 0.9195681 0.4578355 0.4603208
0.40326554 0.1559208 0.5543457 1.038942 1.1554946 0.4177672 0.35162383 0.35933042
0.2673848 0.45746425 0.4901188 1.5079226 0.410195 0.41949654 0.41871133 0.96357495
0.30892175 0.44847456 0.27531537 0.3423526 0.46169153 0.37355363 0.402003 0.44025993
1.6137594 0.3628477 0.37452218 0.5011938 0.40729904 0.4218516 0.4435043 0.4723627
0.487309 0.5293961 0.20843878 1.0401902 0.45015776 0.19161385 0.48827922 0.32844412
0.44288442 0.26213896 0.39952627 0.35899812 0.16111065 0.83564967 0.41020542 0.46821815
0.4777366 0.76225597 1.0422146 0.4749303 0.43896 0.44113564 0.47295305 0.38278937
0.3849854 0.5671923 0.44926736 0.13926432 0.17315869 1.0800194 0.48241052 0.35980105
0.80802554 0.23988895 0.45672622 0.631194 0.32743895 0.26398864 0.583279 0.40243697
0.40914536 0.4144316 0.26222056 0.34653905 0.7500564 0.12794416 0.4123986 0.4119299
0.42901012 0.3947628 0.19453937 0.14836788 0.5116998 0.4254994 0.5210385 0.6033995
0.48597014 0.1641139 0.32696578 0.16469328 1.5547616 0.36592105 0.61170053 0.23227105
0.56762487 0.5477842 0.45951894 0.22239424 0.9101456 0.5868914 0.38493004 0.32507464
1.0431341 0.45490462 1.0955524 0.27312315 0.5435604 0.34052888 0.26662898 0.80125356
0.6041445 0.43212914 1.1057779 0.23483373 0.35498235 1.0300376 0.51400805 0.30000338
0.42091668 0.34244788 0.37312284 0.34964597 0.21974516 0.45755154 0.39988428 1.9625143
0.56780314 0.48343652 0.52091056 0.38193867 0.19575976 0.39244565 0.41089836 0.4303314
0.36923558 0.21522531 0.7486452 0.25133705 0.4390005 0.48389864 0.53835374 0.35008997
00000000: 1653 c03e 99ef d03e 9a92 d93e 2917 fe3e
00000010: 11a3 053f f29b b53f af37 cd3e 49e3 d13e
00000020: 8587 d63e 5c22 ee3e 582f a33f 24ff cd3e
00000030: f5d5 093f 538e 283f 9c8d 253f 26f6 f43e
00000040: 1ee1 d53e e191 b53f da84 e43e 99b5 9d3e
00000050: 2dc7 173f 48e7 563f 1b69 cb3e 9082 c03e
00000060: fdb4 183f 2127 d13f 2b35 2f3f acd6 8a3f
00000070: 8bad e13e 6ecd ee3e 5e57 ce3e d696 e93e
00000080: 14bb ec3e ea5a 383f 3e1b 813e ee0e de3e
00000090: 522c 983e 7efc c03e 29a4 ce3e e9f7 e63e
000000a0: f889 c83e 2722 2e3f 3b42 c83e cef8 db3e
000000b0: a4c4 853e 563e 573f d2b3 b93e b8fa e83e
000000c0: c9ad eb3e 2fc1 df3e ee4b 553e 86ae be3e
000000d0: 2a64 023f 5dee c53e 561a 8f3f 60a3 c43e
000000e0: a310 2f3f 1dba 833e b125 9c3e 5cd7 c93e
000000f0: cae0 563f 5d5e ab3e 1b87 f43f 165d be3f
00000100: e751 e83e 1417 013f d48c 2c40 dd98 243f
00000110: 8b44 b83e cb68 b83e 1403 c63e 5a1a 083f
00000120: 90d4 143f 2826 be3e 976a 973e a44d 1a3f
00000130: e05b de3e 6931 ff3e 84c1 8b3f 5d1b e93e
00000140: e8d8 493f 4da4 4d3e 39c0 633f 9ed4 d53e
00000150: 95b8 1e3f 4d2e c33e 3b17 403f 6f51 ce3d
00000160: 758e 073f b8a3 9b3e 3db6 d73e 4a3c 8e3f
00000170: 5b78 063f 90a1 113f 6336 dd3e e5a8 5f3e
00000180: 2286 613f 5569 193f d11e ea3e c208 a53f
00000190: 007b 543f 2f69 df3e d555 c33e d167 da3e
000001a0: 8bcd e33e 56b6 dc3e bc90 133f b826 e03e
000001b0: 1fc2 ac3e d168 6b3f 6a69 ea3e 2baf eb3e
000001c0: d278 ce3e b4a9 1f3e 9ae9 0d3f 0dfc 843f
000001d0: 3fe7 933f 95e5 d53e 0a08 b43e 28fa b73e
000001e0: a9e6 883e c138 ea3e daf0 fa3e 9c03 c13f
000001f0: 1405 d23e 40c8 d63e 5561 d63e d9ac 763f
00000200: fe2a 9e3e 759e e53e 23f6 8c3e d748 af3e
00000210: d562 ec3e 6c42 bf3e 56d3 cd3e c069 e13e
00000220: ab8f ce3f 2cc7 b93e 5fc1 bf3e 3d4e 003f
00000230: 8089 d03e effc d73e ff12 e33e 86d9 f13e
00000240: 9180 f93e 8186 073f fa70 553e f424 853f
00000250: 147b e63e 6c36 443e bcff f93e d429 a83e
00000260: bfc1 e23e 1437 863e b58e cc3e 9ace b73e
00000270: 31fa 243e 23ed 553f 7206 d23e 4aba ef3e
00000280: e499 f43e 3523 433f 4a67 853f 102a f33e
00000290: 5dbf e03e 88dc e13e e726 f23e f8fc c33e
000002a0: ce1c c53e 8433 113f 5f06 e63e 4e9b 0e3e
000002b0: 8350 313e 133e 8a3f 83fe f63e d837 b83e
000002c0: c3da 4e3f 73a5 753e 05d8 e93e ee95 213f
000002d0: 14a6 a73e 8529 873e c651 153f 380c ce3e
000002e0: 807b d13e 6130 d43e c641 863e 916d b13e
000002f0: b203 403f cb03 033e e925 d33e 7ae8 d23e
00000300: 37a7 db3e 5a1e ca3e 5435 473e c0ed 173e
00000310: c2fe 023f 0fdb d93e c762 053f 6478 1a3f
00000320: 14d1 f83e 790d 283e 0f68 a73e 5ba5 283e
00000330: 6e02 c73f 015a bb3e 6898 1c3f 76d8 6d3e
00000340: dd4f 113f 963b 0c3f 1146 eb3e 51bb 633e
00000350: 4dff 683f 843e 163f 8d15 c53e 2f70 a63e
00000360: 6b85 853f 42e9 e83e 103b 8c3f ccd6 8b3e
00000370: c626 0b3f cd59 ae3e 9883 883e f41e 4d3f
00000380: 37a9 1a3f 0840 dd3e 218a 8d3f 4178 703e
00000390: 3fc0 b53e 46d8 833f 0896 033f 0b9a 993e
000003a0: 6482 d73e 5455 af3e f509 bf3e cc04 b33e
000003b0: e004 613e 3244 ea3e a2bd cc3e ab33 fb3f
000003c0: 8c5b 113f fe84 f73e 655a 053f 778d c33e
000003d0: 3f75 483e a3ee c83e 4561 d23e 6654 dc3e
000003e0: 720c bd3e 0664 5c3e 36a7 3f3f 40af 803e
000003f0: acc4 e03e 90c1 f73e 8dd1 093f fe3e b33e
