trained_models/checkpoint_ep900.pth (torch, 416142 bytes, 14 tensors)

fc1.weight f4 [256, 8]
00000000: 2b41 2ebe 392e 673d 5405 69bd 1c27 a83d
00000010: 68c9 cd3d 010e 3a3e e878 433f 5ec8 843c
00000020: 4433 14be ff27 933e d49c 97bc 7186 9c3d
00000030: dde5 d6bc f2c5 803e 4c90 b13e b98e 38bd
00000040: 1f53 98bd 7e13 01bf 0d24 0d3f 5a50 d4be
00000050: 96dc 253b c84f be3e 8e27 133e f24c 063d
00000060: 519c 18be bdb2 8b3e 2471 583c 43a2 2b3d
00000070: 48a5 a8be a3e3 eb3e 7fb2 b93e bb8b 40bd
00000080: a8d4 423e 2f72 34bf 9ceb 273e 8815 cfbe
00000090: 88a6 b43e 80b0 963e 0a86 793c 84fb 793e
000000a0: e351 cf3d fa83 81be 6786 b93e f913 99be
000000b0: a8e7 893e ea9f 2fbe a20e 863e 3670 8a3c
000000c0: 8bc6 3bbe 1ef7 7b3e cac6 b63d 4489 fe3d
000000d0: 927a 8dbc 322b 5d3e 0139 b03e 9dec e2bc
000000e0: 690e 31bd a33e 4e3e 3201 4a3e 67dd 26bd
000000f0: b571 0dbd 15db 863e 3d76 973e 3fb4 98bd
00000100: fa2c c8bd d2d5 aa3e 8559 ef3c 83ba a4bc
00000110: aca8 45bd 78f3 963e a350 a73e 6406 21be
00000120: a9b2 27be 7461 3bbe 3ff4 8c3e 8642 1d3e
00000130: 1e15 3fbf 9450 353f 9160 d63e d5b4 5d3e
00000140: 8e96 23be 6312 963e e341 ee3d 1f1a 4d3d
00000150: f5b7 1cbe a49d a83e 2763 a83e 15f3 073c
00000160: 60cc fbbd f913 993e 3738 893c 976b 4e3d
00000170: db68 42be 8995 be3e 7548 a13e 22cf 26bd
00000180: 10af 213e 109b 223e f3bd 98be 69f3 043d
00000190: c541 753e 6b9c 033e 100e 483e 1002 9fbc
000001a0: 8596 af3e 4c97 78be e8bc 153e 55ab 03bf
000001b0: b225 473f 8833 d13d b9ec 083e 8732 813c
000001c0: 3d1d d5be 1cc0 cbbd 0b0c 17bd 8066 623f
000001d0: 909a f23e 2462 a0be d651 b03e 7dfd f9bd
000001e0: d58c 44bd 9f20 7b3e 2320 993d eef1 353e
000001f0: 0766 0d3b 4806 8e3e 9f93 913e 69df c5bd
00000200: 6c9c aebd e339 9f3e 681d 12bc 3bab 6a3d
00000210: 6b0b 5ebe 3705 bf3e 63b9 b33e 1310 98bd
00000220: d4ca 8b3d ab8a dfbe 97f2 cc3e 829f 0abf
00000230: 274e 853e 2929 303c 5baf 193f d445 55bd
00000240: e37c d8bd 0f8c a03e e6bf e73b 327b 203d
00000250: 1b4c 31be d696 f53e 9824 bf3e 4b9a 4dbe
00000260: 3ec8 dcbd 06d0 32bd f0a5 09bf b109 25bf
00000270: 0583 0d3f 0dee a03e 4b7c a93e 5eee 72be
00000280: 7467 d6bd 163f 32be 91ab d63d 6580 0c3d
00000290: b27a 3abf eb48 613f e44a 35bc 88d1 433e
000002a0: f5e8 bdbe 7e6d 343e b6c0 89be d0fc 783e
000002b0: d033 69be bbd5 d23e 1cfc e73e 3d6a 21bc
000002c0: 07fb 26be 0a44 003f 3c25 92bc b77c bbbe
000002d0: a3d0 bf3d 0f09 f33d 7712 633e bd1d 6ebe
000002e0: e4e4 21bd 7059 353e d029 783d 5ac5 f83d
000002f0: 928c 62be 5b8f d83e 0ada af3e cad6 03be
00000300: 48c8 9fbe be99 a6bd ae5a c0be 9a56 08bf
00000310: d86f c43d 3cf9 be3e 0bef a83e 72ee ac3c
00000320: 7a08 c5be 1af3 083e d415 1c3d bcd4 263f
00000330: 21e1 6fbe 2384 7c3d eb6f 173f 6ac1 1bbe
00000340: 1e1f 0ebe 1be6 e03e 9c22 c23d 9c6b 523c
00000350: 37aa 06be 8b37 653e 84a3 9a3e 6611 3ebe
00000360: dd64 0abe 6f2f c03e 08a7 173d 9e41 d23c
00000370: eec7 66be f0e4 c53e d861 993e 045b c3bd
00000380: 9692 8dbd 7872 c63e 881e 283d 4b97 f73b
00000390: c3e7 72be f623 c73e ef1f 943e d805 15be
000003a0: e18b a03d fb05 833e 477f d93c 4975 863d
000003b0: 9afa f4be 2dab 673e 8e15 8d3e 360c bf3d
000003c0: 969b 3fbe 3e23 933e 02da 23be 11ed 363e
000003d0: 0229 5dbe d61d bf3e 63f2 a63e a511 853c
000003e0: 600c 63be c084 a23e 501b 553c e319 6a3d
000003f0: 32f1 b1bd 7481 a53e 393d b73e 18ef 81bd
-0.17017047 0.056440566 -0.056889847 0.082105845 0.10048181 0.18169405 0.76356363 0.016208824
-0.14472681 0.28741452 -0.018507399 0.0764283 -0.026232654 0.2515102 0.34680402 -0.045057986
-0.07437729 -0.5042037 0.55133134 -0.41467553 0.0025308481 0.37170243 0.14370558 0.032788225
-0.1490338 0.27284804 0.013210569 0.04190279 -0.329386 0.4607211 0.36268994 -0.047008257
0.19026434 -0.7048673 0.16398472 -0.40446115 0.35283303 0.29431534 0.015229711 0.24412352
0.101230405 -0.25296003 0.36235353 -0.2989805 0.26934552 -0.17150846 0.2618304 0.01689921
-0.18337457 0.24605986 0.08924635 0.12428525 -0.01727036 0.21598509 0.3441849 -0.027700717
-0.043226633 0.20141082 0.19727018 -0.04073849 -0.034532268 0.2633902 0.29582396 -0.07456254
-0.097742036 0.33366257 0.02921749 -0.020108467 -0.04825656 0.29482627 0.32678708 -0.15725094
-0.16376747 -0.18298894 0.27530095 0.15357408 -0.746416 0.7082608 0.4187055 0.21651013
-0.15975401 0.29310903 0.11633661 0.05007374 -0.15304549 0.3293277 0.32888147 0.008297701
-0.12294841 0.2989805 0.016750438 0.050395574 -0.18985312 0.3722346 0.31500593 -0.04072488
0.15789437 0.15879464 -0.2983242 0.032458697 0.2395087 0.12852637 0.19536614 -0.019410163
0.34294525 -0.24276465 0.14622843 -0.51433307 0.77791893 0.10214907 0.13371553 0.015771164
-0.4162387 -0.09948751 -0.03687672 0.8843765 0.47383547 -0.31324875 0.34437436 -0.12206552
-0.04798587 0.24524163 0.07476833 0.1776807 0.0021575706 0.27739167 0.28432938 -0.09661753
-0.08525929 0.31098852 -0.008918144 0.057292204 -0.21684043 0.37308666 0.35102376 -0.07424941
0.06825796 -0.43660483 0.4002883 -0.5414964 0.26036188 0.010752001 0.60033196 -0.052068546
-0.10570695 0.31356856 0.0070724366 0.03917999 -0.17314188 0.4796664 0.37332606 -0.2007839
-0.10780381 -0.043655418 -0.53768826 -0.6446791 0.55278045 0.31431618 0.3310264 -0.23723742
-0.10468951 -0.17406878 0.104819424 0.034302134 -0.7284347 0.8800189 -0.011065219 0.19122899
-0.37091795 0.17619893 -0.2690484 0.2431519 -0.22773671 0.41178688 0.45309532 -0.009851989
-0.16306697 0.5010382 -0.01784002 -0.36618587 0.09365966 0.11866962 0.22175013 -0.23253532
-0.039524928 0.17709899 0.06058675 0.12147017 -0.22123936 0.42296872 0.34346038 -0.12874904
-0.3120749 -0.08134793 -0.37569183 -0.53257143 0.09591645 0.37299526 0.32994875 0.021109793
-0.3848303 0.13373986 0.038106754 0.65168357 -0.23425724 0.061649453 0.5915515 -0.152105
-0.13879058 0.43925557 0.094792575 0.012843039 -0.1315087 0.22384469 0.30202878 -0.18561324
-0.13515039 0.3753619 0.037024528 0.025666054 -0.22537205 0.38651228 0.2995746 -0.09538844
-0.06912725 0.38759208 0.041044742 0.0075558773 -0.23721223 0.38894624 0.28930613 -0.1455301
0.0783918 0.255905 0.026549948 0.06565339 -0.47847444 0.22623892 0.27555507 0.09328501
-0.18711695 0.28737825 -0.16001132 0.17863871 -0.21597674 0.3732745 0.326068 0.016243765
-0.2217269 0.31741905 0.013007 0.057153594 -0.086885825 0.32325327 0.35788897 -0.06344432

fc1.bias f4 [256]
00000000: 6c4f bebc c45b 1cbd 6a70 323c 797f abbc
00000010: bc3d 113e 803a aabc 1da7 dabc e208 13bd
00000020: 0c5e 11bd 1f60 ff3d a61f d4bd 011f 83bd
00000030: 0247 14bd 06f5 ecb9 b197 1ebe 8d20 99bd
00000040: 5652 5ebd c9e4 a1bd 4703 34bd f1a2 05be
00000050: 6198 413e 62a0 94bd 9519 4bbe d169 ffbc
00000060: b24c fdbc 4921 97bd 18e0 3fbd 162d adbd
00000070: cac6 a9bd 886f cabb e450 99bc a006 34bd
00000080: 4242 bebc 6e10 0cbd f40a 99bd c55f 003e
00000090: 1446 f13d 2549 f23d 33a0 e7bd 8592 8bbd
000000a0: 7e97 92bd ce90 a2be 4015 9c3d b70d 8dbe
000000b0: dbab a1bd 0d53 2ebd 4718 dabe 6cc2 c5bd
000000c0: 0d9b 8cbd e55b 35bd d4f7 0ebd 5a85 053e
000000d0: 157c 2dbd 58ba a4bd 4688 e1bc ded4 b8bc
000000e0: a0ba 0bbd be5a 1ebe 4c0a 8cbd 33f1 9abd
000000f0: 9bee 2e3e a18f 38bd c2b8 e0bd fa3e 0a3d
00000100: 8418 28bc d6dd 4bbd 4f6e 7fbd 6537 70bd
00000110: 4a72 90bd 7c9a 45bd 7174 6f3a 39e3 93bd
00000120: efcb c1be 1849 b9bb e2b7 f73d 283b aabd
00000130: 9bf6 a2bd 7fd8 24bd 05ce 97bd f620 603c
00000140: 7348 49bd a903 8ebd ec5e ecbd f46d 57bd
00000150: 583a 1f3e cbc3 88bd 79ec 3bbc 7987 07be
00000160: 1a0a a13c 31bd b8bd 57eb 96be 818d b0bd
00000170: 1357 51bd a6c9 95be d2a8 16bd 015b 25be
00000180: b79a a63d 3247 1f3c 1a0c 8fbd 63c1 2fbd
00000190: bc98 00bd 8f3f 0c3d 4b65 ee3d 0bad afbd
000001a0: 49bc 493e 7721 b1bd 8a90 a9bd 901e 2bbd
000001b0: 5f96 1cbd 4e1f 3fbb 685a a3bb 40ec 31bc
000001c0: 5fed 55be 0c9c 04bf 5e52 7f3e 9344 79bd
000001d0: 16eb 14bc 4a03 8bbc 2eee 9abd e976 88bc
000001e0: 702c 8cbd 5ae0 67bd f22a 0dbe cca0 a03c
000001f0: a5c9 223e 045e 02bd a610 81bd 7ca3 39be
00000200: a8d5 203c 57ef 53bd b52d 66bc 3f64 33bd
00000210: b6e5 73be f65c 2ebd a4a9 dabd 0ab3 21be
00000220: a327 5bbd 6bdd 99bd ee91 173d 8ced 69be
00000230: 46b7 69bd 7a76 43bd adc5 52bd 1f79 91bd
00000240: 8fc6 df3b b419 68bc 5ed2 69bd e48d b3bd
00000250: 8953 2dbd ba8b b0bd 5a2a 94bc af29 103e
00000260: 12a9 77bd e300 b7bd 0f6f 6abd 5b3c 92bd
00000270: 8a7b a3bd cccc 6ebe 1e2f dfbd d4f1 dabd
00000280: 08eb 7fbe c7b8 14bd 6123 5abd a7d1 9cbd
00000290: 8b56 dabe a380 a5bd 548e 69bd 4643 7bbd
000002a0: 6ec5 7d3c 5f31 3a3c 4461 48bd 683d b7bb
000002b0: ddbb 6fbd e595 99bd ec64 50bd aa2a 1dbd
000002c0: ffdf ae3c 4000 92be 041f 5dbd e638 153d
000002d0: 6249 35bd 8125 d43d c3ee 7cbc 2162 11bd
000002e0: c3b4 163e 1074 e83d c4a5 0bbd 1c91 d8bd
000002f0: 1ed6 17be f448 34bd 5b6b 41bd 4244 80bd
00000300: 76e2 31bc 0727 0bbd ec9a 47bc b2bf 01bd
00000310: 88eb 0bbd fa89 b3bd c3d8 acbd 08b6 50bd
00000320: 63e5 1bbe 79cc 523e d356 a6bd e246 aebc
00000330: 658b a1bd 1895 49bd 5339 58bd c10f a0bd
00000340: a3dd 39bd 310a 95bd 4bf2 54bd fac8 86bd
00000350: b7d7 ebbc bad9 9bbe 132e 9bbd 469e 02bd
00000360: 0343 3cbd 159e 8abd 2739 493e d325 aebd
00000370: ceee 53bc a431 aa3b b52b 4fbd 222b 24bd
00000380: cbf6 e93d 0038 d9bd cc6f 91bd 1543 09bd
00000390: 891c d5bc 4e08 03be 3d12 5dbd 9e3b 13be
000003a0: 769a 5ebd 3bad 333d c968 293d 86c4 5ebd
000003b0: 9b3f 243e b047 68bd d906 e1bd ee62 40bd
000003c0: 0c4b ff3c e8eb 89be 61cf 6dbd db1d edbd
000003d0: f3e5 4ebd cb3d 87bd 0bd4 223e 057d 903d
000003e0: 5811 1c3e 9501 73bd 2134 4abb 195c 3dbc
000003f0: 7b08 a2bd 8193 e8bd af36 263d be22 523d
-0.02323123 -0.038173452 0.010891059 -0.020934807 0.14183706 -0.020779848 -0.026691014 -0.035897143
-0.03549008 0.124695055 -0.10357599 -0.06402398 -0.03620053 -0.00045195984 -0.15487553 -0.07476912
-0.05427774 -0.079049654 -0.043948438 -0.13050438 0.18905784 -0.07257153 -0.19833978 -0.031178387
-0.03092036 -0.073793955 -0.04684457 -0.08455865 -0.08289869 -0.0061778463 -0.01871533 -0.04395163
-0.023224954 -0.034195356 -0.07472792 0.12536533 0.117809445 0.118303575 -0.113098525 -0.06815056
-0.07157801 -0.31751102 0.076212406 -0.27549526 -0.07894107 -0.042559672 -0.42596647 -0.09656224
-0.06865511 -0.04427709 -0.034904316 0.13039151 -0.042354662 -0.08043355 -0.0275308 -0.02256244
-0.034113526 -0.15464303 -0.068379015 -0.07565536 0.17083208 -0.04505885 -0.1097274 0.033751465
-0.010259751 -0.049772106 -0.062361058 -0.05864658 -0.07053049 -0.04824303 0.00091344776 -0.07221074
-0.378509 -0.0056544654 0.1209562 -0.083120644 -0.079571925 -0.04024553 -0.07412342 0.0136797335
-0.04914136 -0.06934292 -0.115415424 -0.052595094 0.155496 -0.066779695 -0.011469954 -0.13235272
0.019658137 -0.090204604 -0.29476425 -0.0862074 -0.05110843 -0.29255408 -0.036782093 -0.16147996
0.08134978 0.009721564 -0.0698473 -0.042909037 -0.03139566 0.0342403 0.11640414 -0.08577927
0.19700731 -0.08648961 -0.08279522 -0.041777194 -0.038229343 -0.0029162946 -0.0049851425 -0.010859549
-0.20891331 -0.5180061 0.24933764 -0.060856413 -0.009089252 -0.016969342 -0.075649604 -0.016658263
-0.06844413 -0.056610443 -0.13785914 0.019607924 0.15897234 -0.03182794 -0.063020036 -0.1812877
0.009816565 -0.051741924 -0.014048983 -0.043796774 -0.23818097 -0.042569123 -0.10676888 -0.15790954
-0.053504597 -0.07512935 0.037004404 -0.22844523 -0.05705955 -0.04772041 -0.05145805 -0.0710318
0.00682909 -0.014166284 -0.057085387 -0.08767298 -0.042315993 -0.08620401 -0.018086601 0.14078401
-0.060463972 -0.08935716 -0.05723482 -0.07140418 -0.079825476 -0.23320311 -0.10897659 -0.10690656
-0.24992001 -0.03630903 -0.053256396 -0.076571755 -0.42644152 -0.08081176 -0.0570205 -0.061343454
0.015488965 0.01136431 -0.048920885 -0.005592037 -0.05852877 -0.07499293 -0.050877497 -0.038370766
0.021347044 -0.28515816 -0.053984657 0.036431216 -0.044259436 0.10358716 -0.015437785 -0.035493974
0.14717393 0.11350262 -0.034093633 -0.105745524 -0.14827773 -0.044014886 -0.047221523 -0.06263019
-0.010857215 -0.033972766 -0.012182932 -0.031676956 -0.034160167 -0.08766551 -0.084397815 -0.05095485
-0.15224223 0.20585813 -0.08122029 -0.021274034 -0.078879155 -0.049214453 -0.052789044 -0.07815505
-0.045377385 -0.072773345 -0.05198888 -0.06581302 -0.028789384 -0.3043955 -0.07577147 -0.031889223
-0.045962345 -0.06768433 0.19650708 -0.08503308 -0.012935353 0.005193906 -0.05057879 -0.040080197
0.11424025 -0.10606384 -0.07101402 -0.03351124 -0.026014583 -0.12796137 -0.05397247 -0.14378211
-0.054346524 0.043866377 0.041359697 -0.054386638 0.16039889 -0.05670899 -0.10987634 -0.046969347
0.031163715 -0.26937795 -0.0580591 -0.1157796 -0.050512265 -0.06603583 0.159012 0.070550956
0.15240991 -0.05932768 -0.0030853825 -0.011557602 -0.07911774 -0.11356259 0.040579494 0.051302664

fc2.weight f4 [256, 256]
00000000: 026f 8abf 28eb debc aca1 eabd 2997 afbc
00000010: 47a9 17bf e9c6 1a3e 36e5 5a3e 40d8 60be
00000020: 6573 b53c c826 e8bf 6f18 a4bd 13d9 a63d
00000030: 29af 553e 906a 94bd d8bc 4c3f c7d2 f93d
00000040: c318 203d cdc1 d43b 4383 f33c ad59 dfbb
00000050: ea1c b5bf f1c1 363e 61bd d03e c855 10bf
00000060: d107 cf3d 1311 00be d143 a23d d586 d93d
00000070: d201 153e 90f9 80be 487b 7c3e 7577 2b3d
00000080: 0506 b6be bafb 953d 628e 1d3e 61d2 d6bb
00000090: 8579 e3be 11fc 65bf 75aa 173c c769 c43c
000000a0: 1b78 593d 1e55 a23e f80b 9ebf b3e5 303f
000000b0: b187 e23d 9ea4 183d 3c4a 123f d7d1 bdbb
000000c0: 8ee5 023e a3b6 013f d572 0a3f bcc2 353d
000000d0: afaa e3bd f679 6e3d a7c0 3dbe 34e9 113e
000000e0: 2607 fb3d b61d dabc ef70 42bd af7b e13d
000000f0: e055 103e 4ed5 0fbd 53db a43e e1ce 47be
00000100: c6cb 91bd 3022 e7bd 96a7 e7bd 7e82 083e
00000110: 5c24 063d fa7d 06be 1efb 9dbe 02e4 8d3d
00000120: 1bda 493c aec6 bf3e bffc a03e 317f e9bc
00000130: 0736 083e 7317 483d 4699 a53c 4599 263e
00000140: 71e0 703d ae41 c93c 977b d83d 2116 ad3e
00000150: a03e 61be 3935 0bbe 4c08 0abd db6c 843e
00000160: c374 d8be 9540 943d 386d 08bf b1c9 7a3d
00000170: 7182 b43d 2da0 973e 834c 923d 9297 203e
00000180: 485f 62bd 8348 c03e 7c97 ee3c 4f15 0a3e
00000190: ee7e f73e ed82 acbe 8c67 4cbd 6e7d 303d
000001a0: aeb8 3abf 659c c83d dea0 b93e c383 ee3d
000001b0: 6731 cbbd 082b 3abe d36f 993d e0ab df3e
000001c0: 848c 0f3f 8e7e 543e 3a26 793d 9687 163d
000001d0: 4ccd 513c 0ef8 443e 3608 9fbd 628e 193e
000001e0: 29eb d93d bec3 fa3d 1592 b23e 111f 19bf
000001f0: 1df1 0abf aeba 10bf 3247 c8bd 6464 e4be
00000200: ad84 883e b91d ef3c 5557 5bbd 14d0 ca3d
00000210: 3992 1f3f 040c 2fbd a7f0 d2bd 0cda 013f
00000220: 0e46 fd3d 26b9 7f3e bc81 073f ee19 d53e
00000230: 16e2 62bd 4fc2 eb3e 2d86 243d 2774 c93e
00000240: 49f3 dc3e 0d7b cfbc a394 a43d 1f1d 883b
00000250: 524a 1cbd caee 1d3d 19c4 d53c cbd1 873e
00000260: 895c d83c 3753 babd 3293 253d 8b47 86bd
00000270: 54e0 eb3c 75c6 dcbe 1d66 a53d 7291 c33b
00000280: 9e02 a4be 1eca bdbe ff29 403d 09d3 0fbd
00000290: 4d49 ca3d 2c95 01bd ca54 853c 1307 173d
000002a0: c608 32bf dd3b b0bd 192e 363e 838a 12be
000002b0: 28c5 b53d 1784 28bd 7826 063e 5afc bd3d
000002c0: 99f4 49be 1714 9b3e d419 04be 83a6 00be
000002d0: fb7f 91bd f0ac f63d 1b78 ed3c 7e86 4fbd
000002e0: ada2 19bf 8e79 223f 0012 11be 33b7 003c
000002f0: 6e92 853f 92aa 35be df25 8e3d 4803 803c
00000300: 8c74 833d 716e 1b3c 5359 343f db1c b9bd
00000310: 6098 88bd de32 443c f8cb d93c 8cca f13d
00000320: 3208 a23e 8530 f7bc 9adf 163d 84ae 0bbd
00000330: 0eb3 313e 76c6 b93d 3797 02bd a98f 423d
00000340: cb8c cc3b 38b6 3a3d f0e2 753e ac62 7e3d
00000350: 5e38 e33d c7bb 2a3f 33f2 84bd ee74 05bd
00000360: 253c 263e a203 e33d 2433 cbbf c5c4 c43d
00000370: d17b 7abe b6ac 8f3e 4bef 7fbd 7306 493f
00000380: abdd 443d 3517 8a3e b6b3 643d 0cb1 87bc
00000390: 1b6f 8b3e 3f16 2a3f 2f29 353e aeb4 d13e
000003a0: a2dc 0e3e 95b0 ae3e acd2 d4bd df57 23be
000003b0: ea96 e0be 2f44 d5bd 08f4 6a3e 3009 aa3e
000003c0: 32cc 403e fed8 773d 7114 5f3d 5cd8 133e
000003d0: 8756 fd3d f903 663d ece7 e9bf 89ea 633e
000003e0: ad24 f9be cb96 68bd 359a fabe eecc edbc
000003f0: 73c7 a13d b381 41bf d36c 8f3d 9d9c 65bf
-1.0815127 -0.02721174 -0.11456618 -0.021434383 -0.5924267 0.1511494 0.213765 -0.21957493
0.022149751 -1.8136835 -0.08012473 0.08146872 0.208676 -0.07246888 0.7997565 0.12198406
0.039086115 0.0064928294 0.029725676 -0.00681611 -1.4149449 0.1784742 0.40769485 -0.5638089
0.10108913 -0.12506513 0.07923091 0.1062142 0.14551476 -0.251904 0.24656403 0.04186197
-0.35551468 0.07323404 0.15386346 -0.006555841 -0.4442865 -0.8983775 0.009256949 0.02397622
0.053093057 0.31705564 -1.2347403 0.69100493 0.11061037 0.037266366 0.5714452 -0.005792837
0.1278288 0.50669307 0.5408147 0.044375166 -0.1111654 0.05822178 -0.18530522 0.14249116
0.12257223 -0.026625495 -0.047470983 0.11009919 0.14095259 -0.035115533 0.3219858 -0.19512512
-0.07118945 -0.112858176 -0.11311261 0.13331029 0.03274952 -0.13133994 -0.3085565 0.06928255
0.012320067 0.37456268 0.3144283 -0.028503032 0.1330186 0.048850488 0.020214688 0.16269405
0.058807794 0.024567451 0.10570448 0.33805946 -0.21996546 -0.13594522 -0.03369932 0.258643
-0.42276582 0.072388805 -0.53291655 0.061227504 0.08813942 0.29614392 0.071435 0.1568282
-0.05526665 0.37555322 0.029124968 0.13484691 0.48339027 -0.33693638 -0.049903437 0.04308837
-0.7293805 0.09795455 0.36255544 0.11646225 -0.09921532 -0.18180478 0.07492032 0.43685818
0.56073785 0.20751402 0.06082747 0.0367504 0.012805294 0.1923525 -0.07765238 0.14995721
0.10640556 0.12244366 0.34877077 -0.5981303 -0.5427416 -0.5653485 -0.097792044 -0.44607842
0.26663724 0.029188978 -0.053550083 0.09902969 0.62332493 -0.04273607 -0.10299807 0.5072334
0.123668775 0.24972972 0.52932334 0.41621345 -0.055391394 0.46046683 0.040167022 0.3934643
0.43154362 -0.02532723 0.08036163 0.004153862 -0.038156815 0.038557805 0.026094483 0.26527247
0.026411312 -0.09097903 0.04042358 -0.065566145 0.028793491 -0.4312016 0.08076117 0.005968266
-0.32033247 -0.37068266 0.04691505 -0.03511337 0.09877262 -0.031636402 0.016275782 0.03687198
-0.6954464 -0.08605168 0.17791022 -0.1431065 0.08875495 -0.041141596 0.13100612 0.09276648
-0.19722213 0.30288765 -0.12900478 -0.12563519 -0.071044885 0.12044704 0.028987935 -0.05066537
-0.6001385 0.6346673 -0.14167023 0.007856178 1.0435312 -0.17740849 0.06940817 0.015626565
0.06418714 0.0094867805 0.704488 -0.09038707 -0.06669688 0.011975018 0.026586518 0.11806211
0.31646878 -0.030174503 0.036834337 -0.034101978 0.1735346 0.090710565 -0.03188249 0.047500286
0.00624237 0.045583934 0.24012351 0.06210582 0.110947356 0.66692775 -0.06491508 -0.032582216
0.16233881 0.11084677 -1.5874982 0.09607843 -0.24461295 0.28061455 -0.062484067 0.78525466
0.04806296 0.2697083 0.05583545 -0.016563915 0.27233204 0.66440195 0.17691492 0.4095816
0.13951352 0.34119096 -0.10391745 -0.15951489 -0.43865138 -0.104133956 0.22944653 0.33210135
0.18827894 0.060509674 0.054462854 0.14438003 0.123700194 0.056156132 -1.8273902 0.22257437
-0.48660794 -0.056784432 -0.48945776 -0.029028382 0.0789937 -0.7558853 0.070031784 -0.896921

fc2.bias f4 [256]
00000000: 82a4 dcbd e803 12be 656c bebd 78de 013f
00000010: 14fb 4e3f 0810 c63e 1192 f63d ae69 edbd
00000020: 259f cbbe 346f e53e 2e16 183f e4cd 4f3e
00000030: e049 a4bd ef17 4f3f af44 8b3e 3711 433f
00000040: e311 93bd 2659 433f 00f8 153f 7885 813e
00000050: 98fb 483f 616c 603e 9796 e43e 5d50 9e3e
00000060: 6b6e 843d 7cd5 69be b963 143e 2b68 563f
00000070: a42b 683e 035f 513f d970 493f 526b 113e
00000080: 3e18 323f 9796 f73e 2d01 1b3f 3be2 8a3e
00000090: d523 cc3b 5774 c9be 5c08 553e 4fb0 683f
000000a0: 8cc7 4e3f 8f01 433f a633 373f 9a0e 823e
000000b0: e5a9 283f c502 363f 8660 fa3e 5632 523f
000000c0: aa74 8ebe 08be 543f dffc 23be 3254 ccbd
000000d0: 5c18 653f 0a43 493f 6baf 363f 0695 923e
000000e0: 4a89 3c3f 3763 e03d 127c e73e ed1d e3bd
000000f0: 338e 2abc 3bed abbd 94b0 3e3f b024 7a3e
00000100: 7cf7 793e c3a1 d83e a0e5 933e fc7e c43d
00000110: c6f2 d33e d8b9 c23e 1600 e1be 338f 3cbe
00000120: d710 e53e 862a 39be 6aa5 ca3d 0c35 523f
00000130: 36fd 3f3d a2d6 8c3d 667b 123d 7dcd f03d
00000140: 787d b73e 5f78 253f 4b98 4f3f bf3c cc3e
00000150: f430 873e 2dd0 1a3e dd56 153f 145d c9bd
00000160: faa6 0b3e d973 e53e 100d 243f 1b59 4b3f
00000170: 5958 aa3d f991 2b3e a085 243f e1ae 0d3e
00000180: 1c43 ab3e 15f4 573e 418d 3ebe 5331 993e
00000190: ae3b 4d3f 77dc 583e 3f51 4b3f 990a 4e3f
000001a0: 8639 3b3f 1052 363e 3233 c1bd f596 573c
000001b0: 1eb1 3e3f d5b0 28be d0c2 46be 2104 3e3f
000001c0: 8c5d ca3e b3e5 a73e a231 1c3f 11a3 3f3f
000001d0: f16b 513f 2a24 2c3e 3510 a23d 42a4 573f
000001e0: fe97 843d b910 493f e28b 5abd ce98 393f
000001f0: 56f4 97bd 1b47 783e c3d1 463f 0d70 423f
00000200: c721 4f3f fb25 f63e dfe9 4a3f 5e39 4dbe
00000210: 0a04 7c3d c1a5 2bbe 9714 433e 9b29 4c3f
00000220: ab91 ad3b 2c37 4a3e 0e45 9fbe b85a 443f
00000230: 1975 b0bd 1fe1 cf3e 51a6 00be fbdc c33e
00000240: 8964 e2be a78c ef3e 5533 3e3f 03b5 633f
00000250: 7a0c 073f 484c 443f 4de5 c33d d73c 303d
00000260: 1a74 b7be ccc2 babd e20d d33e 138c 1abc
00000270: b7fc 4e3f f14e 913e c5cb 033e 7f9f 993e
00000280: 1aba 4a3f 7b1e de3e 7adf 473f 5a84 713e
00000290: cd87 a13e 563d cb3e b6cd 393f 16de e03e
000002a0: a6b1 463f c0e0 0f3f 33df 883e 79b0 473f
000002b0: 415a 4f3f 8bb8 aa3d 4e48 b8be 9e86 473f
000002c0: 0e97 373f cc0f 4d3f 0efa 343f 11b6 b13e
000002d0: 9449 6c3e 386b 4f3f 85b7 033f 8fc7 4b3f
000002e0: c7f3 453f e62e 543e cdc7 a2bd 5909 1a3f
000002f0: 67ef fabc fba6 2abe 18e3 2e3f fc77 493f
00000300: 7bb4 3e3e f3ab c63d efee 53bc 100b 423f
00000310: 7cef 4c3e 6f21 f73d a16e 423f 47b2 12be
00000320: ddae b0be a368 4a3f 2c75 f13d ea86 fc3d
00000330: 1273 2a3f 30a5 c9bd 7cb6 103d fac3 54be
00000340: a3a2 87be b2df 4d3f 3472 533f b9d7 3f3f
00000350: 1a6d 983e 18b4 3e3f 3ff3 063f cfb9 44be
00000360: 34d7 ac3c cff7 2a3d 8dd1 4d3f 667d bf3d
00000370: 1374 94be ee2f 2f3d a098 4a3f 7663 033f
00000380: 8682 b7be b792 093f d8ac 393f a763 3f3f
00000390: dc2d 0f3f f9bb bc3e a0ba b23e f676 433f
000003a0: c5da 0d3e ac9a 463f d7bc 933d 1b83 fb3d
000003b0: 812e 303f f62a 503f d621 bf3e 9494 4a3f
000003c0: 433d d93d 7066 4c3f 2329 433e e29e 003d
000003d0: c316 f43d 6760 483f 2293 05bd 864f 663e
000003e0: 18c6 313f dbdd 603f e8ff fb3e 311e 473f
000003f0: 6404 31be b4aa 833e 13db aa3e eae8 4f3f
-0.10773565 -0.14259303 -0.09298018 0.50730085 0.80851865 0.38684106 0.12039579 -0.115924224
-0.39769855 0.44811404 0.59408844 0.20293385 -0.08021903 0.80895895 0.2720084 0.7619814
-0.07181146 0.76307905 0.5858154 0.2529714 0.785089 0.21916343 0.4464614 0.30920687
0.06466373 -0.22835344 0.14491166 0.837527 0.22672898 0.817856 0.78687817 0.14201096
0.6956824 0.48357078 0.6054867 0.27125725 0.0062298574 -0.39346573 0.2080397 0.90894026
0.80773234 0.76174253 0.71563184 0.25401765 0.6588424 0.71097976 0.48901767 0.82108057
-0.27823383 0.83102465 -0.16014431 -0.099769965 0.89490294 0.7861792 0.71361417 0.2862932
0.73646986 0.10956424 0.45211846 -0.11089692 -0.0104098795 -0.083948575 0.74488187 0.24428058
0.24410814 0.42310914 0.28886127 0.09594533 0.4139616 0.38032413 -0.43945378 -0.18414001
0.4473941 -0.18082628 0.098948315 0.82112193 0.04687234 0.068768755 0.035762213 0.11757944
0.35837913 0.64636797 0.81091756 0.39890096 0.26404536 0.15118475 0.5833567 -0.09832206
0.13637915 0.44814947 0.6408243 0.7943284 0.08317632 0.16754903 0.64266396 0.13836242
0.33449638 0.21089204 -0.18608572 0.29920444 0.8016919 0.2117785 0.79420847 0.8048492
0.7313465 0.17804742 -0.09433593 0.01315855 0.7448901 -0.16473706 -0.19410253 0.7422505
0.39524496 0.32792434 0.61013234 0.74858195 0.8180533 0.1681067 0.079132475 0.8423501
0.06474303 0.7854114 -0.05335606 0.72498786 -0.0741965 0.24245875 0.7766382 0.75952226
0.80910915 0.48075852 0.7926311 -0.20041415 0.06152729 -0.16762449 0.19050823 0.79750985
0.005296906 0.19747609 -0.31107372 0.76700926 -0.086160846 0.4060144 -0.12563445 0.38254532
-0.44217327 0.46786997 0.74297076 0.88948077 0.5275341 0.76678896 0.0956522 0.04302677
-0.35830766 -0.09119186 0.4122153 -0.00943281 0.8085436 0.2838054 0.128707 0.30004498
0.7919022 0.4338263 0.78075373 0.23585644 0.3154892 0.39695233 0.72579515 0.43919438
0.7761482 0.56202316 0.26732787 0.7800365 0.8099709 0.0833598 -0.35992664 0.77939785
0.71714866 0.8010223 0.70694053 0.34709218 0.23074943 0.8102298 0.51451904 0.7960138
0.773251 0.20721015 -0.07948265 0.60170513 -0.030631734 -0.1666526 0.6831527 0.78698707
0.18623535 0.097007655 -0.012935384 0.7579813 0.20013231 0.12066924 0.75950056 -0.1432582
-0.3450841 0.7906591 0.11789927 0.1233042 0.66581833 -0.0984596 0.03533028 -0.20777884
-0.2649127 0.80419457 0.82596135 0.7493854 0.29770738 0.7449355 0.52714914 -0.19211505
0.02109871 0.041740235 0.80397874 0.0935009 -0.28994808 0.04277032 0.7913914 0.5132364
-0.3584177 0.53739494 0.72529364 0.7476143 0.5592935 0.36862162 0.3490801 0.76353395
0.13852985 0.7757976 0.07213753 0.12280866 0.6882096 0.81315553 0.37330502 0.7913296
0.10607388 0.7984381 0.19058661 0.031401522 0.11918404 0.782721 -0.03261102 0.22491273
0.6944289 0.87838525 0.49218678 0.77780443 -0.17286831 0.25716174 0.33370265 0.81214774

fc3.weight f4 [128, 256]
00000000: 65c8 0cbf 2ecb c43e ad03 80bf 7f6a d4be
00000010: bc98 3bbe f4ba d03e 9f5b 7c3e dd72 0c3e
00000020: 7fdd 6dbf 874b 4ebf 3e86 d63e acda bbbe
00000030: e788 743e f458 023d 871c 13be 8f68 183d
00000040: 23d2 17bf 5cf7 e43d 391b 503e d028 58bf
00000050: 1705 003e df46 233e 565d bb3b c3ce ddbd
00000060: 2dbc 46bf 080c 74bf e747 aebe d33f e83d
00000070: 8251 7dbe f074 6abe 44b1 0abe ec14 bc3e
00000080: 6e36 d93d 8d4b a1bd ad98 02bf e748 edbe
00000090: 9dc9 943d 2df1 51bf 3180 883e 200f 80bf
000000a0: f8a0 8fbd b7c3 c4bc 98c6 ddbe 27a5 b13d
000000b0: d1bc c23c d9d5 e53d f66c c83e b386 9fbc
000000c0: d3ff 9f3d 56a6 373d 1d99 10bf 330f 653e
000000d0: 42d7 bb3f f19d da3b 259a 42bd b6ee 343f
000000e0: 6f1e 4cbf a6f4 32be 7930 d7bc bc9d 82bf
000000f0: f3d0 853f 6f9d 1fbe ef34 ec3e 2249 75be
00000100: 936d 013e e62a e3be b2d8 7cbf 32d6 443e
00000110: 8a44 adbf 74b9 9fbe 5ef9 dd3e 36cd 3ebf
00000120: 6887 ea3e 82e6 a1be 663b 6ebd fd92 b93d
00000130: ba34 86bf 70b7 26be 47ef 243e a375 52bf
00000140: 6755 f0be 6f59 1a3f 4d90 423e 346d 49be
00000150: c502 96bf 4e69 57bf d064 3ebd 4e7e e83d
00000160: 74cd a1bd 74d5 a5bf ed5d 23be eb2e 933d
00000170: 73fd 303e f948 4a3e 9952 76be bd14 8f3e
00000180: b1a4 753e 85c0 d8be 0ccd d8be adfa babf
00000190: 051e 1dbe 221a 89be cd28 a9bc 5166 28bd
000001a0: f984 003e cdc3 64be 1458 37bf 8e86 5bbf
000001b0: 7b5c 8d3e 4926 34be f790 a73e 3893 b53e
000001c0: 5ed4 01bf d467 a43e b564 5b3e cdd2 2d3e
000001d0: 2610 00be c0f3 8f3e b1d4 633f db81 8b3d
000001e0: b7cf f8be ebbe 88be 394e 8dbe a8f2 e8bd
000001f0: e137 9bbf 3779 a6be ef91 a5bc a2cd f93d
00000200: 1bbb 4b3e 6655 b23e 2bc1 5b3d 2616 553e
00000210: cf61 91bc 8259 5e3e f2f6 1dbf 6a60 1d3d
00000220: 8b96 25bf 665f 413d f2eb bf3e 23c3 3d3f
00000230: 4fee d03e b260 30bf ccf7 fd3e db23 bbbf
00000240: 226f ed3e b8da 4ebf 80c5 523e 21b9 f3bc
00000250: 1ade 3abf 1dcd aabc 8a24 ce3e a10d b03e
00000260: b3e8 623e 47be d33e c00e 923e fa72 e63e
00000270: d017 ad3c 9e54 5bbf 0bc4 16bf e828 3fbe
00000280: d9a0 e93d a5aa 083e f3ee e6bd be1f 3e3f
00000290: 3292 1a3f 81e9 41bf 1c5c 3ebd 1715 12bf
000002a0: 69fe e4bd b7ff 46bf 665d a0be 8a7a 343e
000002b0: 69ba 3fbd 63df 1cbe da0a 803c 6a2e b3bd
000002c0: 186e a13e 6538 363e 5727 dfbd de24 5c3e
000002d0: f2e0 98be f256 a33d babe 75be 3c70 1bbe
000002e0: 768e 4c3d ce0a a23d 8cfc e53e 7a93 d03c
000002f0: 67fe a6bd cada 88be 54d4 dd3d a66b 80bd
00000300: f5eb 823e f1e0 31be 5713 7fbe 4780 2ebe
00000310: 48d3 183f b85e 98be 76e2 f3bc 4266 7dbe
00000320: a7c8 9dbe c71b a43d 8480 9d3e 775b efbd
00000330: d636 3cbe 75f7 8abf 6e7f 283b 73b6 5d3f
00000340: bd47 5e3e 5d8b 833d d2c9 a43d c94b af3b
00000350: 7db5 ed3c 8942 9ebc 2b67 103f 7ca3 42bf
00000360: 226b d83c 04aa 8c3e ffc9 123e efa5 9d3e
00000370: 18ce da3e 3f0c afbe 4ded de3d 869e 22bf
00000380: dc2a 143f 21bc df3e e1d5 463e d372 6cbe
00000390: 56e4 223c ae2b 64be 15f6 0d3e 81a9 e33e
000003a0: bc07 7c3e f57b bbbc da3d 3cbf 1554 dfbc
000003b0: a894 b33e 912e 073e 111e c33d f4f0 bdbc
000003c0: 3bb9 8f3e 6938 49bd 32d6 b1be d9fc e3be
000003d0: 21e2 b0be 168c 7abd 2de8 1ebe d1c6 8b3e
000003e0: 183e c53e f0d9 553e b54c 27be d0bf e1bc
000003f0: 2ac7 64bf 995c 28bf 4e42 a53f d324 1cbd
-0.5499328 0.38436264 -1.0001122 -0.414875 -0.18319982 0.40767634 0.24644326 0.13715692
-0.929161 -0.80583996 0.41899294 -0.3669027 0.23880349 0.031823114 -0.14366351 0.03720909
-0.5930502 0.111799926 0.20322885 -0.84437275 0.12501942 0.15945004 0.0057179136 -0.10830452
-0.77630883 -0.9533086 -0.34039232 0.113402985 -0.24738124 -0.2289617 -0.13544184 0.36734712
0.10606085 -0.07875738 -0.51014215 -0.46344683 0.07265017 -0.8200863 0.26660302 -1.0004616
-0.07013124 -0.024019105 -0.43315578 0.086740784 0.023771675 0.11222429 0.3914563 -0.01947341
0.078124665 0.044836365 -0.5648363 0.2236908 1.4675066 0.00667166 -0.047510285 0.70676744
-0.7973394 -0.17476138 -0.02626823 -1.0204387 1.0454391 -0.155874 0.46134135 -0.23953679
0.12639455 -0.44368666 -0.9876815 0.19222334 -1.3536541 -0.31196177 0.43354315 -0.7453188
0.45806432 -0.31621176 -0.058162116 0.09061239 -1.0484841 -0.16280913 0.16106902 -0.8221075
-0.46940157 0.60292715 0.19000359 -0.19670564 -1.1719595 -0.8414506 -0.04648286 0.11352216
-0.07900515 -1.2955766 -0.15953799 0.07186683 0.17284183 0.197544 -0.24054946 0.2794551
0.23988606 -0.4233438 -0.42343938 -1.460775 -0.15343483 -0.2677775 -0.020649338 -0.0411132
0.12550725 -0.22340317 -0.7161877 -0.8575219 0.2760962 -0.1759273 0.32727787 0.35463881
-0.5071467 0.32110465 0.21425135 0.16974945 -0.1250616 0.28115654 0.88996416 0.06811877
-0.48595974 -0.2670816 -0.27598742 -0.11374408 -1.2126428 -0.32514355 -0.020211188 0.121974245
0.19895594 0.3483078 0.053651016 0.2080923 -0.017746834 0.21713832 -0.61704934 0.038422026
-0.64682835 0.04721012 0.374847 0.7412588 0.40806815 -0.68897545 0.49603117 -1.4620317
0.4637385 -0.8080249 0.20583153 -0.029751362 -0.7299515 -0.020849759 0.40262252 0.34385398
0.2215908 0.41356108 0.28526878 0.45009595 0.021129519 -0.8567599 -0.5889289 -0.18667948
0.114076324 0.13346346 -0.11276045 0.74267185 0.60379326 -0.75746924 -0.04647456 -0.5706343
-0.111813374 -0.7773394 -0.31321257 0.1762487 -0.046808634 -0.1531959 0.015630174 -0.08749087
0.31529307 0.1779495 -0.10896175 0.21498439 -0.2985912 0.07975568 -0.23998538 -0.15179533
0.04994055 0.07912217 0.4491924 0.025460947 -0.08153992 -0.26729423 0.10831514 -0.06270532
0.25570646 -0.17370965 -0.24909721 -0.17041121 0.5969739 -0.29759765 -0.02977107 -0.2474604
-0.30817148 0.080131106 0.30762112 -0.116873674 -0.18380293 -1.0856768 0.002571072 0.8660652
0.21707053 0.06423066 0.08046307 0.0053496105 0.029017204 -0.019318836 0.5640742 -0.7603071
0.026418272 0.27473462 0.14334868 0.3079066 0.42735362 -0.3418903 0.10885105 -0.6352314
0.578779 0.43698218 0.19417526 -0.23090677 0.009942135 -0.22282287 0.13863404 0.4446526
0.24612325 -0.022886256 -0.7353188 -0.027261773 0.35074353 0.13201357 0.09527219 -0.023186184
0.28071007 -0.049126063 -0.3473373 -0.44528845 -0.34547523 -0.061168753 -0.15518256 0.27300122
0.38523936 0.20883918 -0.16337855 -0.027557284 -0.893664 -0.6576629 1.291086 -0.038121056

fc3.bias f4 [128]
00000000: e2ae 12be c3a4 47be 77ed a33c 2fd5 2f3e
00000010: cf64 0e3d 43cd 69bd 59d5 243e 726c 953c
00000020: 9eda 723e f9f7 363c e9f1 6dbe 4a55 ce3e
00000030: 534e 22be 3d3b df3e 9e46 0f3c 0473 8c3e
00000040: 6065 f93d 40f5 113e 85b8 85bd fb9a 3e3d
00000050: 5de8 f0be 515b 9fbe 84e0 a83e 4b71 813d
00000060: abee e13e 07ba a63e 54fc b13d 365a 8a3d
00000070: cfaf 033f bdbd 823d 4be2 84be ad04 41be
00000080: 837a aa3e 6a05 393d 434a 18be 0f45 b23e
00000090: 71f6 21bd 6022 89be 26da 50be e11f 433d
000000a0: 6a5d bd3e 6d34 513e baf6 923e 1179 3a3e
000000b0: a25a ea3d 27af 98bd a044 013e 6766 89be
000000c0: 3ede 2e3c 04d6 913c 0e6e 8cbe ff56 153d
000000d0: aa8f 893e ece0 1b3e 2147 a13e dc62 833d
000000e0: 80e8 c53d ef0a 06be 4b89 023e 1e79 4bbe
000000f0: 379f 85bd 05e1 70be deb0 81bd 4595 af3c
00000100: 38c2 1d3e 82cf 62bc 4e03 57be 0e79 303f
00000110: 791e 8cbe b6d0 05be 0d5e 38be 3741 c93c
00000120: a457 3a3e cbb7 3d3f fb9c 3ebe 2527 c73e
00000130: 5ea7 823e 4846 ff3e 8ab0 183e c44e 90bd
00000140: 5f34 85bc b2ec 9fbe de82 463d 7285 6c3e
00000150: b20d f63e 731f 5fbe 54a1 203e cb1c d83d
00000160: 71a2 eabe 88a2 213a f831 b13e 090f 77be
00000170: bd1a f9bd 2f05 653e 7904 df3c e729 a3be
00000180: fbc2 8a3e 80de babe 0a79 793e b64a 34bd
00000190: 551e 9c3d e48d d7bd 4ee3 e4be b9c8 383e
000001a0: 9bd5 9c3d f9ec bbbe f8e8 9cbe 44cf 8cbe
000001b0: 856a bf3e c6ac 1ebd c02d 3dbe 455f ce3e
000001c0: 172d a03e 003c e53e 718f 8dbe f1f3 a93c
000001d0: a27c 3a3d ec8b cebe f962 c03d f8ab e2bc
000001e0: 90da a838 b87d 82bd 70ed 903c a566 1dbe
000001f0: e93d 423d 205f 713e 2bcd c83c 633f 473d
-0.14324525 -0.19496445 0.020010693 0.17171167 0.034764107 -0.05708052 0.1609701 0.018240187
0.23716208 0.01116752 -0.23236813 0.40299445 -0.15850191 0.43599883 0.008744864 0.274315
0.12177539 0.14253712 -0.06529335 0.04653452 -0.4705228 -0.31124356 0.32983792 0.06320437
0.44127402 0.32563803 0.08690706 0.067554876 0.5144014 0.06383846 -0.25953898 -0.1884944
0.33296594 0.04517118 -0.14872079 0.34818313 -0.039541665 -0.2678404 -0.20395717 0.047637824
0.36985332 0.20430155 0.28703862 0.18210246 0.11443068 -0.07455283 0.12623835 -0.2683594
0.010673104 0.017802246 -0.27427715 0.03645992 0.2686742 0.1522252 0.3149958 0.0641534
0.096634865 -0.13090108 0.12747686 -0.19870421 -0.065245084 -0.23523338 -0.06332563 0.021433482
0.1540612 -0.013843419 -0.20997354 0.68934715 -0.27367 -0.13067898 -0.18004628 0.02456723
0.18197495 0.7410857 -0.18614571 0.38897052 0.25518316 0.49858308 0.14911094 -0.07046273
-0.016260324 -0.31235272 0.04846465 0.2309778 0.48057324 -0.2178934 0.15686542 0.10552367
-0.45827058 0.00061658816 0.34608436 -0.24126829 -0.12163303 0.22365259 0.027223812 -0.31867906
0.27101883 -0.3649788 0.24362579 -0.044016562 0.07622973 -0.1052511 -0.4470467 0.1804532
0.076579295 -0.36704233 -0.3064649 -0.2750188 0.37385955 -0.03873899 -0.18474483 0.4030706
0.312844 0.4477234 -0.276485 0.020746203 0.045529015 -0.40341127 0.093938775 -0.027669892
8.051575e-05 -0.06371635 0.017691344 -0.15371187 0.047422323 0.23571444 0.024511894 0.048644435

fc4.weight f4 [4, 128]
00000000: b8aa 83bf 4d11 783f 8173 183f feb6 2f3f
00000010: 475e d83e 4d8c 41bf a7bc 173f fd85 68be
00000020: d3e7 673f 6ce7 5bbf 7dbb 97bf b06c 2a3f
00000030: 8d86 463e 298b 6a3f bf86 cd3d b508 fcbe
00000040: 2cd0 283f cac5 8a3e 69a3 21bf becd f3be
00000050: ec17 c0bf d531 a3bf 215b 163f 27ea a63e
00000060: 0d9a cb3e 046e 0c3f 15a5 933e 0edb 023f
00000070: dcda 783f a4cf c83e c540 1f3f fed6 a73d
00000080: 3291 ba3d d8c5 f5bd 6523 153e fbbd cfbd
00000090: 2bdf 83bf 9721 efbe 3173 773e fa40 ed3e
000000a0: 8ec7 a3be dd11 283f 80f6 c43d 0410 a83e
000000b0: bb1f 8fbe f1d3 83bd 79a7 abbe d438 773f
000000c0: ada6 083f 9be5 c03e e262 643f 0ab7 9e3e
000000d0: dfbb 223f deb5 cd3e 8880 5f3d 7672 673f
000000e0: 0818 1f3f f819 2c3f e741 1f3f 10a7 3b3f
000000f0: d057 ff3d d995 a33e 505f 9c3b 2617 b73e
00000100: 55b6 37bf 3c4a ec3d 418a 673f 8fae 503f
00000110: 7214 38bf cfbf f6be c673 f2be b5ee bfbd
00000120: 1bc8 0c3f ba6e 163f e104 093f d9aa 1e3f
00000130: 6a3d 253f b396 c33e ef17 03bd 7967 89be
00000140: 31cc 9b3e b7ba 1fbf 5a5b 513e 7f6e 143f
00000150: 33c8 483f f9a7 1ebf 1cd4 5a3f 84c5 033f
00000160: 7241 3a3e ff47 833d e6b3 64bf a50b 273e
00000170: 5aab e93c 30f2 1dbd f0a0 423f 352a adbf
00000180: 31d1 323f 439e 3ebf b690 773e 9db1 cdbe
00000190: 9e85 80be 8b2a 353f 2f23 8ebf d74f 633f
000001a0: 904e 3e3e 33c8 acbe 590d a03e 5d37 3c3e
000001b0: 7ac1 fc3e 50e5 013f 1e29 f03e 6ab0 b63b
000001c0: 30cc 893f 8c44 edbe d52d d5be 4bc6 213e
000001d0: 6fff 303f 15b8 67bf 891e 203f 1b8c 2ebe
000001e0: 099f fdbd f770 77bf 38f4 81be 0ce7 38be
000001f0: a5e7 273d 8fce 973e 730f 113f 5db8 a4be
00000200: 3f5c 73be 789a 423f 0f0c 9abd 3aec e93e
00000210: b469 35bf a071 7ebf 3a70 0d3f c10a 5abd
00000220: fb76 3d3f 45f3 b1bf 9e45 013e 0c1e 183f
00000230: 41ad 303f 22a8 0c3f 8812 0dbe 1e01 b03d
00000240: 1cd4 233f 5350 c1bc 9550 febe 5ab3 ecbe
00000250: c2b5 263d 5f76 1b3f 6f61 3f3f ae88 bf3e
00000260: 7138 2c3f 0656 803f 159b bf3e 9c86 d33e
00000270: 9bdf c13e b2d3 073f 327d 493f 43a1 b93e
00000280: 70a0 e53d 3dcd d63c 246f d43e 865b 05bd
00000290: 8828 193f e399 b9bd 405c f83e e34c ed3e
000002a0: 0897 e03c 7637 533e 14a6 413f 08db 333e
000002b0: 7c49 803e 9a29 523f 9fb9 18bf 3215 b1bf
000002c0: 7b6c 3e3e 845e 07be 28c5 1d3f d6ee 8bbe
000002d0: a197 e43e c6e2 303e 2403 9f3f 373b 143e
000002e0: 2382 cc3e 0fed 583f 4e1e c33d 9257 f6be
000002f0: ed95 1a3f cc3b 003f 5c83 04bf 70aa f6be
00000300: 40af 1abc 67a3 30bd 6c9c fd3e 8def 123f
00000310: 4cc3 8a3e 783b 4ebf 30b7 b5be d191 473f
00000320: e433 913e 8dcd c73e b4ba b33e 931b 9f3e
00000330: 00a4 213f ef9d 583f d8f7 69bd e16c 0fbf
00000340: 6499 7e3f 7b82 56bf a300 a43e b488 8b3e
00000350: 2288 0ebc 9f58 37bf 5a64 2f3f c4b0 e53c
00000360: 7a9c 1abf 5641 df3c 563f 683f 9660 b23c
00000370: 7437 9abd 58aa d83c 87ed 91bf b442 debe
00000380: c272 873e 5227 8fbe c113 223f 5548 693e
00000390: d9d9 10bf ca06 9b3f 8ffd 0e3f 571f ea3e
000003a0: 55ad 4f3e 318b cdbd bf9a 413e 078f 4abf
000003b0: c645 a13f b8ed 1dbe e386 963f 37ff 4abd
000003c0: 124a 003d 70a9 e0be 4f13 1fbf e3f0 7a3e
000003d0: 56f8 1d3f f839 8fbf ffa4 9ebd 8535 3dbf
000003e0: 830f 0fbe e46f 13be cf96 10bf 8aee abbf
000003f0: f468 04bd b28a 92bd de73 3b3f 05bd 21bf
-1.0286474 0.969014 0.59551245 0.686386 0.42259428 -0.75604707 0.59272236 -0.22707362
0.9058811 -0.85899997 -1.1854092 0.66572094 0.19387265 0.9161859 0.100354664 -0.49225393
0.65942645 0.27104026 -0.6313997 -0.47617906 -1.50073 -1.2749583 0.587328 0.3260052
0.3976597 0.5485537 0.28836885 0.511155 0.9720895 0.39220917 0.62208205 0.081953034
0.09109725 -0.12000626 0.14564283 -0.10143658 -1.030248 -0.46705315 0.24165036 0.46338636
-0.31988186 0.6565226 0.09617329 0.3282472 -0.27953896 -0.06436909 -0.3352621 0.9657109
0.5337933 0.37675175 0.89213383 0.30999023 0.6356792 0.40177816 0.054565936 0.9040903
0.62146044 0.67227125 0.62209934 0.7330179 0.12467921 0.31950262 0.0047721043 0.35759848
-0.7176259 0.115375966 0.90445334 0.81516355 -0.719062 -0.48193213 -0.47353953 -0.09371702
0.54992837 0.58762705 0.5352307 0.6197944 0.64546835 0.38200912 -0.032005247 -0.26836756
0.30429223 -0.6239428 0.20445004 0.57981104 0.7843048 -0.61975056 0.85479903 0.5147326
0.18189028 0.064102165 -0.89337003 0.16313036 0.02852409 -0.038561046 0.7602682 -1.3528506
0.6985045 -0.7446024 0.24176297 -0.4017457 -0.25101942 0.7076804 -1.1104487 0.887937
0.18584657 -0.3374649 0.31260183 0.18380494 0.4936636 0.5074053 0.4690637 0.0055752294
1.0765438 -0.4634136 -0.4163653 0.15798299 0.6913976 -0.9051526 0.6254659 -0.17045633
-0.12383849 -0.96656746 -0.25381637 -0.18056887 0.040992398 0.2964978 0.566642 -0.32171908
-0.23765658 0.7601695 -0.07521831 0.4568804 -0.70864415 -0.9939213 0.5524937 -0.053232912
0.74009675 -1.3902365 0.12624213 0.5942085 0.69014364 0.5494405 -0.137766 0.08593963
0.6399553 -0.023597872 -0.49670854 -0.46230584 0.04070068 0.60727495 0.74758047 0.37408966
0.6727362 1.0026252 0.37423006 0.41313636 0.3786591 0.53057396 0.7870666 0.36255845
0.11212242 0.026220912 0.41491044 -0.032557987 0.5982747 -0.09062555 0.4850788 0.46347722
0.027415767 0.20626625 0.7564404 0.17564023 0.25056064 0.8209473 -0.59658235 -1.3834593
0.1859607 -0.13219649 0.6162896 -0.27330655 0.44646934 0.17274007 1.2422833 0.14475714
0.39943036 0.8473672 0.095272645 -0.48113686 0.6038502 0.5009124 -0.5176294 -0.48176908
-0.009441197 -0.043124583 0.49533403 0.57396775 0.27102125 -0.8055949 -0.35491323 0.77956873
0.28359902 0.3902401 0.3510338 0.31075725 0.6314087 0.8461599 -0.057121128 -0.5602551
0.99452806 -0.8379285 0.32031736 0.27252734 -0.008699449 -0.716196 0.685125 0.02803839
-0.60395014 0.027252834 0.9072164 0.021774571 -0.07530108 0.026448414 -1.1400613 -0.43410265
0.2645474 -0.27959687 0.6331139 0.22781499 -0.5658241 1.2111447 0.5585565 0.45727035
0.20280965 -0.10036314 0.18906687 -0.7912449 1.2599418 -0.15422714 1.1759914 -0.049559798
0.03132064 -0.4387927 -0.6213884 0.24505953 0.61707056 -1.1189566 -0.07746314 -0.7390979
-0.13970761 -0.14398152 -0.56480116 -1.3432171 -0.032326654 -0.0715536 0.73223674 -0.63179046

fc4.bias f4 [4]
00000000: 90a3 ae3d 0684 a53d 136f 0f3c 235a 753d
0.08527291 0.08081822 0.0087545095 0.059900414

ln1.weight f4 [256]
00000000: 08e0 d73e e8ad bc3e 435c 6c3f 63ce 893e
00000010: 47da 8a3f 71d3 4c3f add0 c03e 25fb df3e
00000020: e0fb ae3e f750 773f f2e2 e23e 2cc7 dd3e
00000030: 232f 003f 107b 773f 3183 f93f 56d7 f73e
00000040: 496d b83e c924 3b3f 9087 703e 6512 3b3f
00000050: bf85 a53f 1a18 2c3f ea89 2f3f db84 0c3f
00000060: 8380 173f 09a4 2f3f fbb1 a93e eade 0f3f
00000070: a02e 163f cfbd d93e 77dc d13e 8ab2 883e
00000080: 5a87 e83e 1e26 d03e 44db f33e 001a 8640
00000090: 3550 333f 2e2d b43f ec48 0b3f b31f d53e
000000a0: 5275 ce3e b1c6 2d3f 234a 8b3f ec69 803f
000000b0: cb35 0b3f 1928 3440 1fe1 a53f bb56 0d3f
000000c0: c997 0d3f e98d 703f 91f0 9a3f 273c 1b40
000000d0: a4aa f03e 48fc 023f 014f 123f bb75 0d3f
000000e0: 0931 a13e effe 163f a00d 123f 5841 063f
000000f0: 457e 7c3f 4a0a 0140 8ff0 233f 71ca 023f
00000100: 8cfa f83f e1f1 3b3f 3551 013f 8855 e83e
00000110: 11ea f93e f8c6 fd3e 0ca3 a73e c70e d93e
00000120: ed6a 6a3f 5d8a 793e f6bf 9c3e b275 033f
00000130: 9fc8 113f 864b 9c3e d9ee fe3e 007d f23f
00000140: 277d fd3e 3523 cf3e de65 743f cda1 283f
00000150: b9df 363f c14b a13f 6723 a63e 1004 f33f
00000160: 9c64 7e3f 7df1 ea3e 1cf3 db3f 851f ed3e
00000170: d45f b53e ce68 c33f 7abb 0c3f cedf ac3f
00000180: 4bb3 f53f 78a5 703f 5bd3 ef3e 5513 913e
00000190: 34f6 363f 2c0d cf3e d89c 5f3f aa6c c43e
000001a0: 03c0 963f 573e 063f 783d 103f a259 963e
000001b0: 3699 003f dcb0 133f d81b f73e 6b1b 1340
000001c0: fb95 8d3f 195b be3f 4a9f b13f 752a c33e
000001d0: 8e02 ba3e cb61 d33e caf6 1a3f a663 9d3e
000001e0: 8a45 d23e b416 d53e 0bdf 713f 994c 6b3f
000001f0: d232 823f a992 e23e c1ee 1f3f bfc4 753f
00000200: 81cb 553f b7c8 0d3f b57a e03e afff 223f
00000210: 34b9 b63f da20 d33e b4a4 543f a382 303f
00000220: b4a5 ed3e bdce 1b3f 96e5 263f c8c4 9b3f
00000230: 45ec f03e 4323 4d3f 99a1 fe3e d189 ee3e
00000240: 1b92 d43f 1e28 cd3e 2d22 e03e 7726 fd3e
00000250: 8944 9a3f 2f1e fa3e dc55 903e b0a0 6d3f
00000260: ac1b 023f 6b3d 083f d5ba 723e 08a4 fc3e
00000270: ebb4 d03e 9281 923f 3e11 e43e e0a6 c63e
00000280: 8ac0 c43f 7309 fb3e f7a9 f53e 454f ec3e
00000290: fcb7 803f b71e d23e f31f 083f 1dbd e53e
000002a0: aedd 9b3e 6cbe 533e 90f9 d43e 2f41 0440
000002b0: ea8c 9f3e 3939 ea3e ecdd 933e e8ba ee3e
000002c0: cbda a23e 9def 973f 2840 ec3e 3b61 a73e
000002d0: 0149 c73e e5b7 a43f 12a5 a53e 3869 173f
000002e0: d377 a53f fac6 c93e 84ef da3e dde0 0a3f
000002f0: e281 0340 5ca1 043f aad8 ec3e 78ba 043f
00000300: 5606 8f3e 7126 fc3e 3a87 303f bab1 c23e
00000310: f158 c53e 5887 c63e 1cfd e03e 6345 e83e
00000320: 9b2e b43f b770 a53f 95fa ef3e 1e07 973e
00000330: d74f 0a3f bc27 1d3f bb36 af3e 2890 ac3e
00000340: 8ba0 8a3e 99c1 d63e 7bbd 943f bbc7 bc3e
00000350: 5b41 943e 2894 ad3f e1ea df3e c24b 1d3f
00000360: b8c1 4e3f 80c3 153f 6f32 ab3f 72f3 eb3e
00000370: b4eb fe3e cab6 113f ae32 db3e b18b 303f
00000380: 0a23 c23e fb02 ad3f 0776 d03e ccdd 913e
00000390: 28a7 923e 6479 b43f f624 c63e a824 df3e
000003a0: 373c de3e 9152 de3e 4fd4 a03f a503 133f
000003b0: bb23 ec3f b391 f13e 0556 9e3f 817e 8c3f
000003c0: cec5 2340 208c 913f 49d0 da3e b392 073f
000003d0: bb33 d93e 8028 e13e 450e 4f3f 90e1 ef3f
000003e0: 5506 3140 d541 dd3e 2928 0e3f 0885 ad3e
000003f0: 901e 093f b5f8 443f 321c a23f c70e ca3f
0.4216311 0.3685143 0.9232828 0.26915273 1.0847863 0.80010134 0.37659207 0.43746296
0.3417654 0.9660792 0.4431377 0.4331602 0.50071925 0.96672153 1.9493161 0.48406476
0.36020878 0.73103005 0.23489213 0.7307494 1.2931441 0.67224276 0.68569815 0.5489022
0.5918047 0.6860967 0.331436 0.56199515 0.58664894 0.42527625 0.40988514 0.26698714
0.45415765 0.4065408 0.47628224 4.190674 0.7004426 1.4076288 0.54408145 0.41625747
0.40323883 0.67881304 1.0882 1.0032325 0.54378957 2.8149474 1.2959327 0.55210465
0.5530973 0.9396654 1.2104665 2.4255464 0.47005188 0.511662 0.571518 0.5525777
0.31482723 0.5898275 0.5705204 0.52443457 0.9863017 2.016253 0.6403894 0.5109015
1.9451461 0.7341595 0.5051454 0.45377755 0.4881139 0.49565864 0.32741582 0.42394087
0.91569406 0.24369188 0.30615205 0.51351464 0.5694675 0.3052637 0.497916 1.8944397
0.49509546 0.40456548 0.95467937 0.6587189 0.71435124 1.2601243 0.32448885 1.8985615
0.9937227 0.45887366 1.7183566 0.4631311 0.35424674 1.5266359 0.54973567 1.35058
1.9195341 0.94002485 0.4684094 0.28335062 0.71469426 0.40439737 0.873487 0.38364154
1.1777347 0.52438873 0.56343794 0.2936526 0.5023378 0.5769174 0.4826343 2.2985485
1.1061395 1.4871551 1.3876736 0.3811833 0.36330074 0.41285548 0.6053282 0.30740088
0.4106868 0.41618884 0.9448096 0.91913754 1.0171759 0.44252518 0.62473685 0.96003336
0.8351365 0.5538439 0.43843618 0.6367139 1.427527 0.41236 0.8306382 0.68949336
0.46415484 0.6086233 0.6519407 1.2169428 0.4705526 0.8013193 0.49732664 0.4658952
1.6607088 0.4006967 0.43776074 0.4944341 1.2052165 0.48851153 0.28190506 0.92823315
0.50823474 0.53218716 0.23704083 0.49343896 0.4076303 1.1445792 0.44544405 0.3879919
1.5371258 0.49030647 0.47981235 0.46154228 1.0056148 0.4103906 0.5317375 0.44870844
0.30442566 0.20678109 0.4159665 2.0664785 0.31162196 0.45746782 0.2888025 0.46626973
0.3180755 1.1869999 0.46142697 0.32691368 0.38922885 1.286862 0.323525 0.59144926
1.2927192 0.3940962 0.4276086 0.54249364 2.0548024 0.51808715 0.46259052 0.5184703
0.2793452 0.49248078 0.6895634 0.3802622 0.3854442 0.38775134 0.43943107 0.45365438
1.4076723 1.2925023 0.46870866 0.29497617 0.54028076 0.61388755 0.34221444 0.33703732
0.2707561 0.41944578 1.1620325 0.36871132 0.28956112 1.3560839 0.43733886 0.6144372
0.8076434 0.58501434 1.3374766 0.46084172 0.49789202 0.5691954 0.42812103 0.6896315
0.37917358 1.3516535 0.40715048 0.2848953 0.28643155 1.4099545 0.38700074 0.43582654
0.43405315 0.43422368 1.2564791 0.57427436 1.8448404 0.47181472 1.2370001 1.0976106
2.558948 1.1370888 0.42737034 0.5295822 0.4242228 0.43976212 0.8088115 1.8740711
2.7660115 0.43214288 0.5553003 0.33890557 0.5356226 0.76941997 1.2664855 1.578576
