trained_models/checkpoint_ep6800.pth (torch, 416160 bytes, 14 tensors)

fc1.weight f4 [256, 8]
00000000: a70f 883e 4979 43be d814 343f 7f4a d33e
00000010: 74e7 803e 7a35 d6be f3b7 39bf 78cf 453e
00000020: d63d a13e 5ed8 58be 2576 2b3f 16bb 913f
00000030: cabb 9f3d c198 94be f08d 0fbf 8122 6f3d
00000040: fb96 5c3e ccc8 7ebe 475c 8c3f 112e 213e
00000050: 1a5e 153e f677 9dbb 482a 2bbf 3046 2f3d
00000060: 4d33 7c3e 403a febd 846b 193f 002f 8c3f
00000070: 0227 8b3d 3656 d7be 3ed7 10bf b1ee 593d
00000080: f7fc 9b3e 71b8 44be 6f1c 3a3f 9079 073f
00000090: 473a 063e e311 c9be ad27 35bf f3aa 933e
000000a0: 0d47 913f f295 1e3f 4d81 153f c509 88bc
000000b0: 84f1 263f 4569 a5bf 5461 0d3f ccfd 373f
000000c0: 5a83 973e 1438 00be a80d 733f 24d2 62be
000000d0: ecb6 603e 42a5 9cbe dc5a 4ebf e336 be3d
000000e0: 5f22 613e 531c cebd b615 183f b39c 4a3f
000000f0: 193b de3d bc80 03bf d9dc 22bf a295 3d3e
00000100: 750c 0b3f b1c8 30be 273d 9a3e f0f6 a7bb
00000110: 3599 80bc 81d8 d3be a72a b5be c708 03bd
00000120: 673c c53e 2586 b0bd c92b 213f 34d2 043f
00000130: 2043 0b3e 727d c9be d4cd 24bf ae73 27bd
00000140: 78f3 943f b751 103f 74d9 b83d 6d27 e3bc
00000150: 3e55 143f b667 c9bf 8831 1f3f 9261 023f
00000160: ceff 1c3e 9557 9cbd c600 1a3f 103f 1f3f
00000170: c45d b43d 370e f1be fe02 16bf d9db 433d
00000180: f379 843e eac5 16be 9a5b 753f faac 943c
00000190: f41d a43e 1797 94be 2318 66bf 1876 993e
000001a0: 8604 9f3d 202b 66be efc3 da3e 1c65 c8be
000001b0: 2b8c 94bd f0d8 29bf b440 18be 1a27 d1bd
000001c0: 6f70 dbbd 1c86 5dbe 43aa 8f3f e07f 833d
000001d0: 5c36 e9bd 3c24 533c 2ad4 b1be 9038 82bd
000001e0: 1bff 363c 859d 97be 49e4 6b3e de5d aa3f
000001f0: ae9f f4bc 5669 3dbf 4359 ffbd 6a1e 92bc
00000200: e1da 6e3e 0f0f 29be f071 633f 5e30 103f
00000210: e967 ef3d 7b4e 21be cef2 2abf 9237 173e
00000220: 4f9d 7f3f 1bc4 883e 0680 a73e c78a 4e3f
00000230: f884 a03e 73fd efbf 92ae c5be 7936 bb3e
00000240: 2143 bb3f 36b9 2abe bdb8 363f 0b11 15bf
00000250: ca7d ef3e 06bb cabe 8fb1 aabf af6d cb3e
00000260: 27b6 ea3e d1d1 42be 3951 193f 3145 163e
00000270: fbd4 523d 6fc1 96be 3bfe 13bf 25c1 2d3e
00000280: 1d8b 243e 6647 fcbd 5df2 6d3f caf6 6d3f
00000290: 23d1 173e b0c5 81be aa14 3cbf fb21 b73d
000002a0: c789 573e 47bf 41be 1bd3 363f 7698 523f
000002b0: cd1d a9bc c34e 80be d9dc eebe b4fd 4f3d
000002c0: edf6 7f3e a3ab 49be 17f4 493f ad79 7c3f
000002d0: 5b7b 803e 69d4 bdbe 7e52 48bf bed5 823e
000002e0: 1596 0f3e fe28 9cbd c799 153f fd12 9c3f
000002f0: d746 003e 30f1 07bf d8bb 1fbf e556 ba3d
00000300: 7ad5 2e3f f08f a0bd 0752 49bf e999 3b3f
00000310: ca40 ec3c c07c 2bbf 9da7 41be 6589 593d
00000320: b456 81be a9cd 41be df99 f4bf 9582 16bf
00000330: b80f a4be 4dbc cb3f 82c3 4f3d bf88 c2be
00000340: b3d1 b1bd f89f a9be 747f 433f 9d81 b1be
00000350: 1f96 54be 79bb debe 10cb 8a39 8d59 4cbe
00000360: ff4e f13e e100 9dbe eabc 62bf c18b 073f
00000370: b861 5bbe 43ee 66bf d25a c63e f173 43be
00000380: 6779 293e 7afb 37be 7fea 393f 0a28 403f
00000390: 3ec7 5e3e eec7 e3be 405e 38bf 2020 6b3e
000003a0: 7510 993e 7109 0dbe bd39 483f bfcf 203f
000003b0: fb57 1a3e 72ae a0be 5a25 38bf d765 1b3e
000003c0: b55f aa3e edbf febd c052 523f ffec 073f
000003d0: f56e c63d 9a27 97be d30d 47bf 56b1 833e
000003e0: 678c 9e3e a567 0bbe 1703 0d3f 53bc 2e3f
000003f0: b657 da3d 81f0 00bf 649e 1cbf d9e9 3c3e
0.26574442 -0.19089235 0.70344305 0.41267774 0.25176585 -0.41837674 -0.7254631 0.19317424
0.3149249 -0.21176288 0.6697715 1.1385219 0.0779949 -0.29022792 -0.56075954 0.058382515
0.2154197 -0.24881285 1.0965661 0.15740229 0.14586678 -0.00480556 -0.6686139 0.042791545
0.24628945 -0.12413454 0.5992968 1.0951843 0.067945495 -0.4205796 -0.56578434 0.05320615
0.30466434 -0.19210984 0.72699636 0.52919865 0.13108169 -0.3927146 -0.70763665 0.2884136
1.1349808 0.6194755 0.5840042 -0.016606221 0.65212274 -1.2922751 0.55226636 0.7187164
0.295924 -0.12521392 0.9494271 -0.22150475 0.21944779 -0.30594832 -0.8060739 0.092878126
0.21985768 -0.10063996 0.5940813 0.79145354 0.10851116 -0.5136831 -0.63618237 0.18514112
0.5431588 -0.17264058 0.3012478 -0.005125873 -0.015698055 -0.41376117 -0.35384104 -0.031990793
0.38522646 -0.08619336 0.62957436 0.51883245 0.13599825 -0.3935352 -0.6437657 -0.040881805
1.1636801 0.56374687 0.09025851 -0.02772876 0.5794257 -1.5734775 0.62184954 0.5093013
0.15331957 -0.076338924 0.6015743 0.622056 0.08806947 -0.47081158 -0.58598316 0.047817085
0.2587429 -0.14723936 0.958429 0.018148888 0.32054102 -0.29021522 -0.8988058 0.2997291
0.07764535 -0.22477388 0.4272761 -0.3913964 -0.072532974 -0.66346645 -0.14868432 -0.10212536
-0.107148044 -0.2163319 1.1223835 0.064208746 -0.11387321 0.012887057 -0.3473218 -0.06358445
0.01116922 -0.29612365 0.23036303 1.3309896 -0.029861297 -0.73988855 -0.12468197 -0.017836768
0.23325683 -0.1650965 0.8884573 0.563238 0.11689741 -0.15752594 -0.6677674 0.14767292
0.9984941 0.26712117 0.32714862 0.8068051 0.31351447 -1.8749222 -0.3860975 0.36564997
1.4629861 -0.16672215 0.7137564 -0.5822913 0.46775657 -0.39595813 -1.3335437 0.3973212
0.45842096 -0.19025351 0.5988956 0.14674832 0.051472645 -0.29444453 -0.578098 0.1696821
0.16068693 -0.12318306 0.9294794 0.92954695 0.14825873 -0.25346136 -0.7346903 0.08942028
0.21048652 -0.18920623 0.7141587 0.82263887 -0.020644093 -0.2506009 -0.46652868 0.05077906
0.24996538 -0.1969438 0.78888077 0.9862316 0.25094113 -0.3707612 -0.78250873 0.25553697
0.14022096 -0.07625006 0.5843777 1.2193295 0.12527023 -0.531024 -0.62396 0.09098605
0.6829449 -0.07839954 -0.7864079 0.73281723 0.028839488 -0.6698723 -0.18911596 0.053109545
-0.25261462 -0.1892611 -1.9109458 -0.58793 -0.32043242 1.591684 0.05072356 -0.37994954
-0.08682575 -0.3312986 0.76366353 -0.346692 -0.20760392 -0.43502405 0.00026472704 -0.19956036
0.47130582 -0.30664733 -0.8856951 0.5294762 -0.21423995 -0.9020731 0.38741165 -0.19087197
0.16550218 -0.17967024 0.7262344 0.75061095 0.21755692 -0.44488472 -0.72018814 0.22961473
0.29895368 -0.13773133 0.782131 0.62816995 0.15072624 -0.3138309 -0.71931994 0.15175568
0.33276144 -0.12438951 0.82157516 0.53096 0.09689132 -0.295224 -0.7775547 0.25721234
0.30966493 -0.13613756 0.5508284 0.6825611 0.10661261 -0.5036698 -0.61179185 0.18448581

fc1.bias f4 [256]
00000000: f215 273e 45d9 c73d e9de c93d 40b0 b73d
00000010: 2eaa 423e 0dfb 2b3f dea1 3b3e 5d4f f83d
00000020: fd16 4bbb 8952 ca3d 740a 103f a69a d53d
00000030: 33e5 403e 1783 e5bd 364b f1bd dd6e 73bd
00000040: 3cdc b53d 2b3c d13e d48f d43e 1966 fe3d
00000050: 1ea2 fd3d cd67 303d 0eb8 2b3e 5eab d63d
00000060: 0db8 413d 1a0c 93be 305c 68be 501e 4fbe
00000070: 25e9 2c3e da61 113e f015 5b3e 9418 f23d
00000080: 5792 d63d 94fb b03d 4b0d 033e f822 733d
00000090: 6193 973e c382 513e 4f94 153e 647b fd3d
000000a0: 1905 3f3e 23cb 4bba 5f57 083e 27a3 e53d
000000b0: 37dd 28bc ff6a 64be a716 563e bd8d 2f3e
000000c0: 1e24 a83d 4670 443d 4f15 433e 0abb 0b3e
000000d0: 57f3 77be cbe3 0f3e b6fe 9d3e 0def f93d
000000e0: 20df b53d 6007 b03d be81 eb3d 897c df3d
000000f0: a1da 343e 7fbd 1a3f c78a 043f d162 a3bd
00000100: b390 013e 7081 cfbd e1c8 113c b6df 503c
00000110: 8bcf ed3c d22e 153e c96f 153e 4bae 5b3e
00000120: b630 97be e929 913e cf62 163e 0cb8 3c3e
00000130: 5be1 ce3d 98ea f63d 398c 16bd 73ca 263e
00000140: 1fab 2ebe 274a 283e 8dc1 20bb 6f95 163e
00000150: 3f98 abbe dab0 223e b02f 65be 810c a13d
00000160: 4dec 253e c4a0 0b3e 0c2c 063e 5011 07be
00000170: d20b 033e 9103 193e e923 e53d 4186 cd3e
00000180: afb2 5b3c b6b3 e93c 743e d23d b9b8 54be
00000190: 07da aabd fea1 323d ccd9 9e3d 04d0 4e3e
000001a0: a547 223e 97be 1c3e 6db7 f93d a4ad 3a3e
000001b0: 2d3c 183e 5171 cf3b cec0 b63d 13c9 2f3e
000001c0: 30e3 dc3d f24e a93d c2b5 5f3d 5414 043f
000001d0: 2f91 5bbd e4f9 543e 73ee 523e 8e64 10bd
000001e0: d140 253e 90c6 483e 53ee 243e c247 c83e
000001f0: f694 573e b518 e83d 8dfb fc3d 621f 68be
00000200: f30a 5b3e f268 363e c471 6b3e 3886 18bb
00000210: 94b3 bd3b a654 4a3e b5e8 503e 6444 403e
00000220: c33d 66be 6dce 193d 9a3e c1bd 985c 86bc
00000230: f61b ff3d b96b ec3d 53f9 e23d ce1b 183e
00000240: a399 c23d a880 d63d 0039 c83d 0628 4fbd
00000250: b481 063e ffd0 a93d 5030 0d3e 3ce0 a03d
00000260: b32e 453e 4938 3a3e 6363 3a3e 7417 0d3e
00000270: ba86 c63d 0fd6 97be bbb1 073e f267 043e
00000280: d75b 3f3e b92b d13d e938 cbbd 723b 043e
00000290: 0edd 88bd 5c20 3e3e 5f9d ba3d 9f17 423e
000002a0: bac6 1a3e a076 8b3a 38d5 e63d d1c6 893d
000002b0: 1463 efbd a91c 3bbe 50fb 02be a537 253e
000002c0: dd00 303d f633 7d3d e81e e7bc 32ad bbbc
000002d0: 64f5 fd3d 182a ff3d ffa8 29bd a504 893d
000002e0: 58bd 203e 7b08 103e 68bc cf3e 71a0 003e
000002f0: 77e0 013d fe5d 043e 1a46 263e 3fa5 0e3e
00000300: 3327 b93c 0e21 243e 5c24 a73d 47a2 c33d
00000310: 949a 133e 6660 163e 7c01 52be 73fb 313d
00000320: 56d7 453e 6cb5 fa3d 54d1 853d a38b dc3d
00000330: 5e46 1dbe 5c82 133e c4dd 60be 6bb9 b43e
00000340: f785 583d 0522 ca3d 5fc4 013e 506a 513e
00000350: 5630 d5be d65b 313d ddf5 133e 80d0 713e
00000360: ae30 cbbd afaa a5bd f907 58bb a8cf 953d
00000370: 05cd c23d f064 043e b7b3 843c 77d4 da3c
00000380: 7d76 963d c813 0c3e b0ed 77bd 4845 013e
00000390: 7e0a 1f3e 3f6b 8cbe 397c 103e 9148 273e
000003a0: c38e 203e 8e6e af3e 15c3 453e 8310 d03d
000003b0: d0c6 f73d 2279 2a3e eefe 463e 1487 d6be
000003c0: 034d 0e3e 4b65 893d 7f9b db3d b152 003e
000003d0: 1173 573c 99bd 213e 5416 3d3e 8676 133e
000003e0: b9fe 0bbc bcaf 00be c6e6 4abe effb d8ba
000003f0: c28a 203e c280 2c3d f4b1 473e 3e0f 103e
0.16316965 0.09758238 0.0985697 0.08969164 0.19010231 0.6717995 0.18323466 0.12124512
-0.0030989044 0.098790236 0.5626595 0.104298875 0.18837433 -0.11206644 -0.117819235 -0.0594319
0.08879897 0.40866217 0.41515982 0.12421817 0.12384437 0.043067742 0.1676943 0.104819044
0.047294665 -0.2872017 -0.22691417 -0.20226407 0.16885813 0.14197484 0.21395087 0.11821094
0.10477131 0.08641735 0.1279804 0.05935952 0.2960463 0.20460038 0.14607356 0.123770505
0.18654288 -0.0007774105 0.1331458 0.112127595 -0.010306648 -0.22306441 0.20907079 0.17143913
0.08210014 0.047958635 0.19051097 0.13645568 -0.2421392 0.1405174 0.30858392 0.122037984
0.08880448 0.08595157 0.11499356 0.10912425 0.17661525 0.604454 0.5177426 -0.07977832
0.12652855 -0.1013211 0.008897991 0.012748649 0.029029628 0.14568642 0.14593424 0.21453206
-0.2952935 0.28352287 0.1468613 0.18429583 0.10101577 0.12056464 -0.03675482 0.16288166
-0.17057465 0.16434537 -0.0024529428 0.14705442 -0.33514592 0.15887776 -0.22381473 0.07863713
0.16203423 0.13635546 0.1310274 -0.13190198 0.12797478 0.14942767 0.1118849 0.4014149
0.013409301 0.028528076 0.10265818 -0.20773591 -0.08342367 0.04361152 0.07756385 0.20196539
0.15847643 0.1530708 0.12193189 0.18230301 0.14866705 0.006330647 0.08923493 0.17166547
0.1078552 0.08267011 0.054616697 0.5159352 -0.053605255 0.2079845 0.20598774 -0.035252146
0.16138007 0.19606996 0.16106538 0.39117247 0.21052918 0.113328375 0.12352667 -0.22668222
0.21390896 0.17813471 0.22992617 -0.002327336 0.0057892296 0.19758853 0.2040127 0.18776089
-0.22484498 0.03755038 -0.094357684 -0.016401574 0.12456505 0.11543984 0.11082711 0.14854357
0.0950196 0.10473758 0.09776497 -0.05057528 0.13135415 0.08291816 0.13787961 0.07855269
0.19256096 0.18185534 0.18201976 0.13778478 0.09693666 -0.296555 0.13251393 0.12930277
0.18687378 0.102134176 -0.09922964 0.12913302 -0.06682788 0.18567032 0.091120474 0.18954323
0.1511487 0.0010640211 0.11271137 0.06727374 -0.116888195 -0.18272652 -0.1279118 0.16134508
0.042969573 0.061817132 -0.02821298 -0.022909734 0.1240032 0.124592006 -0.041420933 0.06690339
0.15697229 0.14065735 0.4057343 0.12561204 0.031708207 0.1292648 0.16237679 0.13930224
0.0226017 0.16028234 0.08161232 0.09552436 0.14414436 0.1468521 -0.20508379 0.04345269
0.19320425 0.12241635 0.06534067 0.10768821 -0.15358874 0.14405197 -0.21959597 0.35297713
0.052862134 0.0986977 0.12672566 0.20450711 -0.4163844 0.043300472 0.14449258 0.23614693
-0.09921394 -0.08089196 -0.0032963736 0.07314998 0.095117606 0.1292913 0.016198976 0.02671264
0.073468186 0.13679421 -0.06052941 0.12624085 0.15531346 -0.27425572 0.14109887 0.16336276
0.1567946 0.34264034 0.19312699 0.10159399 0.12098467 0.16647771 0.19433185 -0.4189993
0.13896565 0.06708773 0.10723018 0.12531544 0.013149993 0.15794982 0.18465549 0.14400682
-0.008544617 -0.12567037 -0.19814596 -0.0016554574 0.15677932 0.04211498 0.19501477 0.14068314

fc2.weight f4 [256, 256]
00000000: e746 b2bd 9664 10bc 3f2c 403c c8f8 233d
00000010: 360e ebb8 8dd4 65bf 5859 bfbe a271 343e
00000020: a483 483d ec66 563e b683 43bf f75e 393e
00000030: 94ba 723d 1d64 d03e c40b 743f 7b40 9a3e
00000040: 7fe8 30bc 377d 6b3e 907a 843e 46c2 07bd
00000050: 5259 0f3e 0290 313f 0725 803e 686f 763e
00000060: ac91 693e 77f2 b1be 380c debe 3653 ea3d
00000070: df12 803c edf7 3e3d f122 c63d d63a 29bd
00000080: 9824 abbd fcf7 92bc f365 3bbd 6f6f 1c3b
00000090: b905 283f fc7c 8a3e 7eb1 943e baf8 f73d
000000a0: 79a0 c43d 9f41 eebd 7e95 c53e 0639 173e
000000b0: 6624 0f3f 4f3d e43e 6647 313c 127d 6f3d
000000c0: 69e2 4ebd 9f82 a0bd 872a e03d e318 993e
000000d0: fc34 5b3e c782 f03d 26f8 de3d 77ff 44bd
000000e0: e9c9 82bd 8a55 ac3d 114f 383e 68df ffbc
000000f0: ca47 233f e970 97be 5f13 643e d580 3c3f
00000100: 32df 3bbb 3cc8 9f3e 7211 803f bd25 f83d
00000110: c9ac 5cbe f922 773d 9d08 523e 9cb4 813e
00000120: 1743 2dbb 573b 7b3f 1660 753c e4cd e83e
00000130: f358 0e3d fa7c 3a3e f1aa 8d3e e939 8fbd
00000140: 4c73 1ebf 8845 21bc b13c a63f 345c a93e
00000150: 175c 9fbe 02c9 793e 3ed3 b83e 903b 183e
00000160: eba7 97bc 1fc8 223e 6a4d 053e 139b 3f3f
00000170: 0442 7bbc 6e99 dc3d fc87 4c3e cd94 833e
00000180: 980f 833e 2513 68be be1f da3e 931a ee3a
00000190: b184 233f c6ce 8c3e 1096 e4bd 0a86 333f
000001a0: 4694 b63d 4795 a13d 9928 863e 6a72 bd3d
000001b0: b3d4 42be 198e 51be bb20 2ebe c75d 313e
000001c0: 7059 0c3e 7870 18be 9451 9e3d 7a14 58bf
000001d0: d4bd 223f 773f 3d3f e11d 763e 47c2 6cbe
000001e0: f30e 0b3e 97f8 833d 6917 9e3c 508d 1c40
000001f0: 7ab8 f13d 9a0a 13be b675 6bbe 2702 75b7
00000200: ed6a 2d3f e497 e2bc b497 1d3f 50e4 adbc
00000210: 6611 173f 0a04 1a3e b3c7 c73d 03a9 3cbd
00000220: 31f0 f23f 443c c83e f968 543e 3e5a 103e
00000230: 908a 02bd 7a44 1bbd f6c6 863d c800 0c3e
00000240: d36b f63d 20a6 273d 92bd c3bd 254e 29bf
00000250: beca 073e dd86 db3d 0bf8 813d 4952 ff3d
00000260: 60ea 093e 9bfd 4dbe b051 303d 0526 063d
00000270: d6f9 673c 3e95 a0bd ebdf 493e 0c68 803e
00000280: 3ea6 b93d bd10 be3e 44b2 d23e 032e 9a3d
00000290: b801 8b3e 7f22 0c3d 6bb1 8a3d 22a4 333e
000002a0: 7aed 493e 8b02 da3e 02d4 38be c006 9b3d
000002b0: 2116 053f 4330 063f 495a e73e 5323 193e
000002c0: 2c16 053e 3f10 143d 08b3 1f3e dc4f b93e
000002d0: 9d44 993d 85a2 d2bd 9bd9 023f 79fc dabc
000002e0: 1588 ebbd 95e5 b1bd 4be0 1c3f 0112 803e
000002f0: 6e3c 973a fd49 15bd 9808 ac3d 6411 813d
00000300: 67a4 413e 67c1 f83d ec58 4c3d 262a 2f3d
00000310: 3da6 c03e 67d0 2b3e 8436 c8be 17fd c83e
00000320: 5319 4b3e fe43 283d f126 71bd ab5b 993d
00000330: be1b dc3e 7292 de3e ed25 ef3d 5fb1 e03e
00000340: eb72 d83d 3f7f 3d3d 17cd a83d 3a10 623e
00000350: 30a9 433f 429a 043f 219f acbd 71b9 a63e
00000360: 0012 aebc 079b 0c3e fd3c 753f 74e2 fc3e
00000370: 705f 213f cd74 5c3e 9a0c ba3e 9ae5 9b3e
00000380: 706a e23e 7905 83bd 9cc0 b7be c7e9 f4bd
00000390: f7ae 483f f70e cbbd 1f8b 963d b1fa 3c3d
000003a0: 1d61 493e 3a56 823f 47d6 ba3d 082e 263f
000003b0: 2e95 a63d ce39 b83c b3d9 50bd ee44 5bbe
000003c0: 240b ba3e e341 583d 44bc 843e 0c2f e9bc
000003d0: cb4f e13e c77a db3d 5fc5 893e 607b 3b3c
000003e0: 86c5 c43d acb7 dd3e cdc0 a93f b839 ec3d
000003f0: 2b55 17be 1658 11bd e40b f13d f1e4 623d
-0.0870493 -0.008813044 0.011729299 0.04003218 -0.0001120832 -0.8977745 -0.3737285 0.17621472
0.048953667 0.20937699 -0.7637285 0.18102632 0.059259966 0.4070138 0.9533045 0.3012732
-0.010797619 0.22996984 0.25874758 -0.033144258 0.13998917 0.69360363 0.2502825 0.24065936
0.22809476 -0.34755298 -0.43368697 0.114416525 0.015633998 0.04662316 0.09674633 -0.041315876
-0.08356589 -0.017940514 -0.045751523 0.002387013 0.6563373 0.2704848 0.29041666 0.12107988
0.0960092 -0.1163361 0.38590616 0.14767846 0.55914915 0.44578025 0.010820245 0.058468886
-0.05050889 -0.07837414 0.109456114 0.299018 0.2140693 0.11743694 0.10887174 -0.048095193
-0.063861676 0.08414753 0.17998911 -0.031234458 0.63781416 -0.2957833 0.22273014 0.7363408
-0.002866697 0.31207454 1.0005324 0.12116573 -0.21550287 0.060336087 0.20511098 0.25333107
-0.0026437694 0.9813742 0.014976522 0.45469582 0.034752797 0.18211737 0.2766948 -0.06993467
-0.6189468 -0.009843238 1.2987272 0.33078158 -0.31124946 0.24393085 0.36098665 0.14866471
-0.018512687 0.15896653 0.13017812 0.74846 -0.015335564 0.10771452 0.19973749 0.25699463
0.25597835 -0.22663553 0.42602342 0.0018165879 0.63874346 0.27501506 -0.11161435 0.701264
0.08915 0.078898005 0.2620285 0.092503384 -0.19026451 -0.20464362 -0.17004673 0.1732093
0.13705993 -0.14886653 0.077304035 -0.84406245 0.63570905 0.73924965 0.24034835 -0.23120986
0.13579921 0.06443899 0.019298272 2.446125 0.11802764 -0.14359513 -0.22994122 -1.4603639e-05
0.6774128 -0.027660318 0.61559606 -0.021227032 0.5901092 0.15040603 0.097548865 -0.04605962
1.8979551 0.3910848 0.20743169 0.14096925 -0.031870425 -0.0379071 0.065809175 0.13672173
0.120322846 0.040929914 -0.09557642 -0.66134864 0.13260934 0.107190825 0.063461386 0.124668665
0.13468313 -0.20116274 0.043046653 0.032751102 0.014158687 -0.07840966 0.19714324 0.2507938
0.09064911 0.37122145 0.4115163 0.07528307 0.2714975 0.034212586 0.06772121 0.1754308
0.19719496 0.42580065 -0.18049625 0.07569647 0.5198689 0.5241739 0.4518607 0.14954881
0.12996739 0.036148306 0.15595639 0.3619374 0.0748379 -0.102849044 0.5111329 -0.026731716
-0.11500565 -0.086863674 0.61279744 0.25013736 0.0011538395 -0.036447514 0.08400077 0.06302145
0.18910371 0.121462636 0.04988949 0.042764805 0.3762683 0.16778718 -0.39104092 0.39255592
0.19833879 0.041080467 -0.058875028 0.074881874 0.42989916 0.43471104 0.11677156 0.43885323
0.10568794 0.04626393 0.08242243 0.22076502 0.76430035 0.5179788 -0.08428789 0.32563356
-0.021248817 0.13731013 0.95796186 0.4939152 0.6303625 0.21528931 0.3633774 0.3044861
0.4422183 -0.06397528 -0.35889137 -0.11958652 0.78391975 -0.09914964 0.07350754 0.046137515
0.19665952 1.0182564 0.091229014 0.6491399 0.081339225 0.0224885 -0.050988864 -0.21413013
0.36336625 0.05279721 0.25924885 -0.028464817 0.4400619 0.10716777 0.26908395 0.011442989
0.09607987 0.43304193 1.3261963 0.115344465 -0.14778583 -0.035484396 0.11769846 0.055394117

fc2.bias f4 [256]
00000000: ef67 04bf d0f7 19bf c72b 11bf 83d8 5dbf
00000010: 4e61 9dbf f869 94bf 3235 43bf c34c 023e
00000020: 2d5b 0bbf 7ae4 20bf 2072 053f 649e b53e
00000030: d39b 633f 4352 463f 2d3a 25bf e13f 2abf
00000040: a8d7 cfbe 2fa0 46be cbfe 1fbf 88d9 1ebd
00000050: 9724 81bf 1703 b5be d264 1dbf 064a 2c3f
00000060: a6b4 b73e 771d 0dbf dc54 c33f 7ff8 66be
00000070: 5570 aabe 2270 49bf 98d5 263f a1c5 8e3e
00000080: 673c 00bf bd09 193f 84dd 00bf dc5d c33e
00000090: 30f2 88be 2d2b d03e 87d6 04be 94e5 babe
000000a0: db71 623c d637 0ebf c4c2 1ebf 31e2 60be
000000b0: 053c 84be 0981 923e 9541 ddbe 3ff1 52bf
000000c0: 444b e8be d327 b63d faaf 99be 8e28 483e
000000d0: a7b2 1a3f bf25 41bf fadf fe3e 88f9 5b3f
000000e0: 7bee abbe 3dd0 36bf 474d fbbe 863e a4be
000000f0: a867 f3be 59eb 04bf 6e5a cfbe 5efe 1abe
00000100: b959 99be ef7a 9dbe 4b33 0bbf decc b4bf
00000110: 72dd f3be 336e 12bf ddb5 2fbf 0da7 00bf
00000120: 36de 9cbe 0498 06bf b802 47bf bb43 c6bd
00000130: f527 97be 6007 bfbe baac e3be 42f2 ae3e
00000140: d0bb 313f fd39 09bf d707 18bf 7fdc a63e
00000150: 15bd 42bd 312d 07bf 4969 d33e 37d9 11bf
00000160: 5831 0dbf c47b 1bbf 94fc 5cbe 23e2 bebe
00000170: 464c fdbe 271d 09bf 79ae b9bd c42d 28bf
00000180: 47b3 1fbf ed3e e9be 6e3c 1cbf 6e13 ab3e
00000190: 34a6 2e3e 02f0 16bd 9321 47bf 462e c8be
000001a0: f4ae 2f3f e1a4 f8be 139b fcbe f293 dabe
000001b0: a413 00bf cede 89be 6eca cbbe b050 41bd
000001c0: 9bfc 04be 3fb4 edbe 2342 4fbf 8999 fcbd
000001d0: 8bb3 28bf 5cdf 283f 2d30 b4be 4c71 863e
000001e0: 406e e1be e168 52be f586 223f 46e8 05bf
000001f0: 4591 313f ae29 03bf 2c9d 0fbf 509a 9a3e
00000200: 7f1b 4abe 974f ffbe a86e 64bf 8be5 0abf
00000210: 74ea e5be 56e3 68be f3a8 24bf d63b eebe
00000220: 1ee6 e7be 4637 a6bf c7bf 6ebe bbed 9fbe
00000230: ca77 293f 8601 4dbf ebb5 533f a905 f5be
00000240: c82d 363f 1ee4 d5be b955 123f eef8 2abe
00000250: c73b fbbe b6b3 d5be f53f 88be ded6 11bf
00000260: f71a 0cbf 5b7a 28bf 614b 1b3f 8512 64bf
00000270: 04ee a73e 7a3d 02bf 7614 d1be 755b e3be
00000280: 41be ca3e 36bc 17bf c064 2abf 9a59 d8be
00000290: c1e2 6fbf 3b45 0bbe ce3d e8be 87f3 cebe
000002a0: 5535 88be 7dd0 13bf c513 0abf 1524 1abf
000002b0: 9a79 b2be ac56 3fbf 2cf0 cbbe b6e7 3e3f
000002c0: 5081 2f3f 9817 35bf ae13 3abf dc8c 15bf
000002d0: 3672 0abf dd0c 09bf a483 d43e c19c c1be
000002e0: 4138 08bf de04 a1bf 49a7 c5bd aeca acbc
000002f0: 7ab3 d03e 0e26 95bd 42ae 37bf a6f0 1abf
00000300: 51b1 a43e 58ee 2cbf f929 04bf 1a39 82be
00000310: 137c 2cbf 44d5 20bf ccd6 7c3e f535 17bf
00000320: 62be 9eba 002b c7be a471 d3be 1696 07bf
00000330: feef a73e 61ed 06bf 9848 c0be fb39 00bf
00000340: 87c9 43bf 024b 9c3c 3cb9 1cbf 2a85 c3be
00000350: 9abf 55bf dcc3 2b3f da7c f8be 3ced 70bd
00000360: f978 26bf 5676 4bbf b53a 5cbf 2f0b e3bd
00000370: d288 3dbf 73ec 2cbf 6ca3 893f f52f 29bf
00000380: afdc 4ebf 86d2 5fbf 6d1b 00bf 56a9 f6be
00000390: fefa 5ebf 1be3 d2bc 0699 34bf e42d d2be
000003a0: b866 ffbe b153 bbbe bd4f 3ebe 9cf3 5bbe
000003b0: 4b7d 9bbf 2a14 ff3d 4a9b cfbe 2e29 7f3e
000003c0: f0e8 c3bd c778 0abe 0e1c 03bf a4db dbbe
000003d0: 37c5 9bbf a5df c8be 1acf e73e c8ba dabe
000003e0: a656 cfbd 33be f0be 423b 7ebe f55f 3ebe
000003f0: 4fae 41bf c14f c2be 0700 5ebd 8e15 3f3f
-0.5172109 -0.60143757 -0.56707424 -0.86658496 -1.229532 -1.1594839 -0.76253045 0.12724595
-0.54436 -0.6284863 0.52127266 0.35472405 0.88909644 0.7746927 -0.64541894 -0.6650372
-0.4059422 -0.19397043 -0.6249816 -0.038781673 -1.0089291 -0.3535392 -0.61481965 0.6730045
0.3588001 -0.55123085 1.5260272 -0.22555731 -0.33288828 -0.78686726 0.6516967 0.27885154
-0.50092167 0.59780484 -0.50338006 0.38157547 -0.26747274 0.4065794 -0.1297246 -0.3650328
0.013821091 -0.5555395 -0.6201594 -0.21961285 -0.2582704 0.2861407 -0.43214098 -0.8239936
-0.45369923 0.088943146 -0.30017072 0.1954672 0.6042885 -0.7544822 0.49780256 0.8592763
-0.33580384 -0.71411496 -0.49082395 -0.32078952 -0.4754002 -0.5192161 -0.4049868 -0.15136096
-0.29951265 -0.30757853 -0.5437514 -1.412502 -0.47629887 -0.571994 -0.68636876 -0.502549
-0.30638283 -0.5257571 -0.77738523 -0.09680887 -0.29522672 -0.37310314 -0.44467717 0.34169203
0.69427204 -0.5360411 -0.5938696 0.325901 -0.047543604 -0.5280333 0.41291264 -0.5697207
-0.5515342 -0.60735726 -0.21580726 -0.37281904 -0.49472255 -0.5356011 -0.09066481 -0.6569483
-0.6238293 -0.4555582 -0.6102971 0.3341326 0.17055589 -0.036849983 -0.77785605 -0.39097804
0.6862633 -0.48563293 -0.49337062 -0.42690998 -0.5002997 -0.269278 -0.3980288 -0.04719609
-0.12986986 -0.4642658 -0.8096029 -0.12333972 -0.6589896 0.6596582 -0.35193005 0.26258314
-0.44029427 -0.2054782 0.6348718 -0.52307546 0.6936229 -0.51235473 -0.560992 0.30195856
-0.19737051 -0.4986541 -0.8923135 -0.54256505 -0.44905436 -0.22742972 -0.64320296 -0.46530026
-0.45292753 -1.2985618 -0.23315345 -0.3123606 0.6619841 -0.8008045 0.8269946 -0.4785588
0.71163607 -0.41775602 0.5716205 -0.16696522 -0.49069044 -0.4173867 -0.26611295 -0.56968486
-0.54728645 -0.658117 0.60661894 -0.8909076 0.3279878 -0.50875056 -0.40835923 -0.44405714
0.39598277 -0.5927156 -0.6655998 -0.4225586 -0.93705374 -0.13600628 -0.45359653 -0.40420172
-0.2660319 -0.5774 -0.53936416 -0.60211307 -0.348584 -0.74741626 -0.39831674 0.7457231
0.6855669 -0.70739126 -0.7268628 -0.5841806 -0.5408052 -0.5353525 0.41506684 -0.37814906
-0.53210837 -1.257961 -0.09651048 -0.021092739 0.4076193 -0.07282649 -0.7175027 -0.6052345
0.32166532 -0.67551184 -0.51626545 -0.2543419 -0.6737682 -0.6282542 0.24691314 -0.59066707
-0.0012111182 -0.38899994 -0.41297638 -0.5296339 0.32800287 -0.5270596 -0.37555385 -0.5008847
-0.7647938 0.019078735 -0.61220145 -0.38187534 -0.83495486 0.6709573 -0.48532754 -0.058819994
-0.6502834 -0.7947744 -0.8602708 -0.110861175 -0.74036896 -0.6754829 1.0752997 -0.660888
-0.80805486 -0.8743061 -0.5004185 -0.48176068 -0.87101734 -0.025743058 -0.70545995 -0.41050637
-0.49883056 -0.3658729 -0.18585105 -0.21479648 -1.2147611 0.12455018 -0.40548164 0.24918053
-0.09565914 -0.13522635 -0.51214683 -0.4294101 -1.216956 -0.39233127 0.45275193 -0.42720628
-0.10123949 -0.4702011 -0.24827293 -0.18591292 -0.756566 -0.37951472 -0.054199245 0.74642265

fc3.weight f4 [128, 256]
00000000: e9a9 94be 2141 843d bb74 493e dae4 52be
00000010: 1628 403f 9862 063f d944 8c3f fbcf 3cbe
00000020: b070 7e3c 221f e53d 1532 f1be ae31 99be
00000030: cd08 76bf 52db 57bf b660 f93d e708 18be
00000040: 0845 503d 4051 8d3e 2620 a63e 38b8 cbbf
00000050: 5fa5 0f3c 6083 6f3f 179d 1a3f abab 1bbf
00000060: 67bb a5be 5d5b d2bc 222a 61bf 4221 b03e
00000070: c2ca bb3e ba4c 71bb cea6 f0be f1fb 27bf
00000080: b00c 043e 802f a9bf f6b1 0d3f f9eb ffbe
00000090: 9356 933f 2f1a 91bf f772 12c0 a1a8 e9be
000000a0: 3093 74bf 19b7 2c3f f976 0dbe a928 853f
000000b0: 8011 0e3f 6439 fbbe c9c3 a43f 374b bf3e
000000c0: b366 c23e b5d9 74bf 33c3 7fbe 070a 84be
000000d0: 8182 b8bf 1812 1cbf 0727 6c3f aad7 24bf
000000e0: 8951 7e3f 6746 b0be babf dc3e 06d4 3d3f
000000f0: d624 ae3b 56a9 89be be81 f83d 4d13 cabf
00000100: 42f7 5ec0 00b6 29bd b2ae 42be 4051 5cbf
00000110: 27ab 883e 8dfe 89be ac66 903d 5e24 52bd
00000120: 972d 913d e87f 313e 4bdd 603e a2b4 bcbf
00000130: cdee 353f 50f0 7c3f 34f3 993d 6fac 54be
00000140: b56a a4be 9346 82be fab9 8dbd 28f9 78bf
00000150: e514 ee3d 1648 a9bd 777a 46bf b474 94be
00000160: 58aa 263d 4e45 f3be 10a3 293d 7a9a 883e
00000170: eda2 c8bd 7295 3ebe 4a24 1d3f e5f6 6540
00000180: d832 1abd 34b2 ecbe 1fad 27be 37db 02be
00000190: 6226 cc3e ab4d 0d3f 84f9 203e 2808 933e
000001a0: 54a0 f5be 3ee2 6bbd c254 743f 2727 463f
000001b0: 8a6a 2a3d 23d1 72bd 7fe5 cf3f 263e ebbc
000001c0: 108f 2a3f c42b 1dbe d5e7 433f b19b d63e
000001d0: d5e6 a33d f650 22bf fa1e 853e ba74 81be
000001e0: 460e 393d c07c 873d 85c6 dcbe 5fc8 533f
000001f0: 881e a8be 9e51 abbe e649 0bbe 73be 26bf
00000200: 619a d93d 0457 64be cc53 5ebe 95cd 1c3d
00000210: fca5 e73e ee27 1dbf dae1 84bf ff5e d1be
00000220: f123 35be a805 073e 70e8 84bc 65ba 2ebf
00000230: f9fa 99bf be2f 103e 42c8 3cbf 2fde 41bf
00000240: 022b 7ebf 8aca 4d3f 4070 22bf 3a58 d23e
00000250: 8dcc a6bc 6f7e 2d3e 6741 673e dbb4 453e
00000260: 24d5 a8ba 27ae d63f 3a6c 733e 7627 b53e
00000270: 2f77 53bf 46f7 b13e 5d37 3dbf 15f6 bfbc
00000280: 6995 e6bd 5a32 9ebd 60a7 013f 59b2 94bd
00000290: 8ff9 293f c855 d1be 404c 93be b972 d13c
000002a0: 18df 663f 157c 133d a20c 2fbd cce9 bcbf
000002b0: 4174 1a40 cfbc a7bf e071 89bd ccc1 f2be
000002c0: eb64 12bf 041a 293d bdec 843e 8ec3 d9bc
000002d0: d73e 9f3e 6083 363e e046 86be cc27 fabe
000002e0: 47e6 ce3e 0c5e d4bf f9b9 e9be 941f 24bf
000002f0: 43ac e2be afe6 9cbd 0f63 f4bd 2faf 62be
00000300: b24f 2fbf e886 e1be 901f 8fbf 5232 cfbd
00000310: 25ba 153e 2265 5cbe 9fcf 01bf eed5 dfbd
00000320: 7d72 223f 1e37 60bf 27d8 2b3d 4d88 cd3c
00000330: 6712 b4be 935e 51bf 6bf3 29bd e67b aa3d
00000340: e963 a63f b3cb 153e 3ac5 863e cf2d 283d
00000350: cefb 033f b9f4 90bc d541 25bc aace e53f
00000360: b6b6 50bd 0f50 e43e 412a c93e 3cac 313c
00000370: f2e1 0bbe 25ce 103f 3da6 71bf 18fb 693e
00000380: 780c 163f 0d1e ae3f d640 a13d ffdc 2b3e
00000390: 3940 213f 8db8 80be 190d 81be d863 2fbe
000003a0: b053 10be 8c13 b3be 0ff0 3d3f 3d8e d9bd
000003b0: 26c5 183f 0388 963d ca84 ffbe 47a1 843f
000003c0: dfda 57bf 3537 2cbf cead 12be 2ca8 52be
000003d0: f2b9 1e3f c672 263e 30c0 e1be b012 63be
000003e0: 5d1f 4abf 8364 3e3d 6bae 903f b362 173f
000003f0: 047d 7e3e a26f a73e ab92 153e 3c3a f6bf
-0.2903588 0.06457735 0.19673435 -0.20595112 0.75061166 0.5249419 1.0958511 -0.18438713
0.0155297965 0.11187579 -0.47108522 -0.29920715 -0.9610718 -0.8431903 0.12176649 -0.14847146
0.050847083 0.2760105 0.32446402 -1.5915594 0.008767455 0.9355984 0.6039595 -0.6080882
-0.3236954 -0.025678331 -0.87954915 0.34400374 0.3667813 -0.0036819414 -0.47002262 -0.6561881
0.12895465 -1.3217621 0.5534967 -0.4998472 1.1510795 -1.1336116 -2.288267 -0.45636466
-0.9553709 0.67466885 -0.13814916 1.0403033 0.5549545 -0.49067223 1.2872249 0.37362072
0.37968978 -0.95644695 -0.24976806 -0.257889 -1.4414827 -0.6096511 0.9224705 -0.6439158
0.9934316 -0.34428713 0.43115026 0.7415165 0.00531445 -0.26887006 0.12134121 -1.578714
-3.4838414 -0.041433334 -0.19011953 -0.8606148 0.2669308 -0.2695202 0.07050833 -0.051304214
0.07088774 0.17333949 0.21959417 -1.4742625 0.71067506 0.9880419 0.075170904 -0.20768903
-0.3211266 -0.2544447 -0.06920238 -0.9725518 0.11625079 -0.082657024 -0.77530617 -0.28995287
0.040689796 -0.47513813 0.041415274 0.26680356 -0.097967006 -0.18611696 0.613835 3.5931942
-0.037646145 -0.46229708 -0.16374634 -0.12778936 0.39873034 0.55196637 0.15720183 0.2871716
-0.47973883 -0.05758881 0.9544183 0.7740349 0.04160551 -0.05928148 1.6241912 -0.028716158
0.66624546 -0.15348727 0.7652562 0.41915658 0.08003012 -0.63404787 0.26000196 -0.25284368
0.045179628 0.06615591 -0.43120208 0.8272762 -0.32835793 -0.33460706 -0.13602409 -0.6513435
0.106251486 -0.22298819 -0.21711653 0.038281996 0.45243824 -0.6138905 -1.0381424 -0.4089279
-0.17689492 0.13185751 -0.016224116 -0.68253165 -1.2029716 0.14080712 -0.7374307 -0.7572965
-0.99284375 0.80387175 -0.6345253 0.41082937 -0.02036121 0.16942762 0.22583543 0.19307272
-0.0012880904 1.6771897 0.23771754 0.3538167 -0.82603735 0.34758967 -0.739126 -0.02343277
-0.112589665 -0.077244475 0.5064602 -0.072605796 0.6639642 -0.40885758 -0.28769112 0.0255674
0.90184164 0.036007006 -0.042736657 -1.4758849 2.4133456 -1.3104495 -0.06711173 -0.4741348
-0.5718524 0.041284576 0.25961867 -0.026582506 0.3110263 0.17823553 -0.26225948 -0.48858488
0.40410063 -1.6591201 -0.45649698 -0.64110684 -0.4427205 -0.07661187 -0.119329564 -0.2213714
-0.6848098 -0.44048238 -1.1181507 -0.1011702 0.1462179 -0.21522954 -0.5070743 -0.10929476
0.63455945 -0.875841 0.041954186 0.025089407 -0.3517029 -0.81784934 -0.041491907 0.08324413
1.299924 0.14628486 0.26322347 0.04105931 0.515561 -0.017694818 -0.010086496 1.7953694
-0.050955497 0.4459233 0.3929005 0.0108442865 -0.1366041 0.5656455 -0.94394284 0.22849691
0.58612776 1.3602921 0.078736946 0.16783522 0.6298862 -0.251408 -0.25205305 -0.17127931
-0.14094424 -0.3497585 0.74194425 -0.10622833 0.59675825 0.07350161 -0.49905998 1.0361718
-0.84318346 -0.6727174 -0.14324114 -0.20571965 0.6200248 0.1625472 -0.4409194 -0.22175097
-0.78954107 0.046482574 1.1303228 0.5913498 0.24852377 0.32702357 0.1460673 -1.9236522

fc3.bias f4 [128]
00000000: 54e0 b2be c090 82bf ad3d 15bf 8bea 3cbf
00000010: f3e0 14bf 42c4 0ebd 88fd 28bf 4933 2fbf
00000020: 0b03 943e 252d 213f 639a 253f 99a0 6fbf
00000030: 891d 81bf 9c1c 63bf e884 ca3e a09a 0fbf
00000040: e1a4 89bf 6d8e 26bf b129 0a3f dd2d f43e
00000050: 96d8 003f eff0 14bf 0478 9b3f 8a17 47bf
00000060: eb0c 59be 14c3 63bf cfba b4be 0dd2 0dbf
00000070: 6fb7 60bf 29cb c1be 5fcb eabe 640e 0abe
00000080: c43d debe 9ee0 71be fd88 73bf fec7 21bd
00000090: bad3 febe a8c6 cabe 986e 1cbe 5b84 90bf
000000a0: 970b 3cbf 0054 2fbf 1ee4 0ebf eaf1 91bf
000000b0: 9e2d d6be f5fd 0ebf 122b 86bf d1fd 39bf
000000c0: 3831 573f 65ef a8be a7cc 64bf b1b6 c7be
000000d0: 8268 10bf 1e0a 26bf a1f8 80bf c386 84bf
000000e0: b522 4dbf b852 48be 45cd 0ebe 422f 33bf
000000f0: 049b 2cbe 7a35 5abf 4ef4 4b3e 816e fbbe
00000100: 389a afbe 9ff9 5abf 8c97 d3be 57d9 213f
00000110: 7150 8abf 06a4 4e3d 26c8 2d3f d776 b5be
00000120: 32d2 07bf 9bcb 0fbf 50e3 333e 1938 ecbd
00000130: a25f 29bf e793 28bf 3d08 a7be 201e 61bf
00000140: 2b79 9ebe 90ad 03bf 911d 52bf 0627 123f
00000150: a463 1cbf 985d d6be 3166 303f 9e6d b3be
00000160: dedd 86bf ae55 d43e b686 1dbe b297 46bf
00000170: 2fa2 15bf f5d0 173f df26 8fbf d39b 2ebf
00000180: 53d7 45bd b110 26bf ac2b 8ebf 1059 80bf
00000190: 280a 47bf 2064 7bbf 097a 92be f521 f23e
000001a0: bf3a 3ebf ffd0 b93c c10a 99be ac12 8e3f
000001b0: f32b 83bf 3299 173f a984 75be a70e 1ebf
000001c0: 5563 c0be ce6f 023f 0f22 d7bc d568 6ebf
000001d0: d037 60bf e73d 48bf d300 1f3f 7cfe 583e
000001e0: 4c52 a83e ce99 553f 05c2 78be 2cd2 fc3e
000001f0: d403 4ebf 4822 8c3f df6f 7abf 6044 42bf
-0.34936774 -1.0200424 -0.58297235 -0.73795384 -0.58155745 -0.034855135 -0.6601186 -0.6843763
0.28908572 0.6295951 0.646887 -0.9360443 -1.0087138 -0.8871553 0.39554524 -0.56095314
-1.0753442 -0.65061074 0.53969866 0.4769124 0.50330484 -0.58180135 1.2146001 -0.7777029
-0.21196334 -0.8896954 -0.35298774 -0.5539864 -0.877799 -0.3785031 -0.45858285 -0.13482052
-0.43406498 -0.23620841 -0.951309 -0.039497368 -0.4977091 -0.39604688 -0.15276563 -1.1290392
-0.73455185 -0.6848755 -0.5581683 -1.1401951 -0.41831678 -0.5585626 -1.0481894 -0.7265292
0.84059477 -0.32995144 -0.89374775 -0.3900657 -0.56409466 -0.6485919 -1.0075876 -1.0353626
-0.80131084 -0.19562805 -0.13945492 -0.69993985 -0.16856009 -0.8523785 0.19917414 -0.49107745
-0.34297347 -0.8553714 -0.4132656 0.6322226 -1.0805799 0.050449394 0.6788353 -0.3544223
-0.5305511 -0.5617005 0.17567182 -0.11534137 -0.6616155 -0.6585068 -0.32623473 -0.8793659
-0.3095182 -0.5143671 -0.82076365 0.57090795 -0.6108954 -0.4186828 0.6890593 -0.3504457
-1.0536458 0.41471618 -0.1538342 -0.7757522 -0.584506 0.5930322 -1.1183738 -0.6820652
-0.048301052 -0.6486922 -1.1107078 -1.002718 -0.7774987 -0.98199654 -0.2860873 0.47291532
-0.7430839 0.022682665 -0.29891017 1.1099448 -1.0247787 0.5921813 -0.23976387 -0.6174111
-0.37575784 0.5095185 -0.026261358 -0.9312871 -0.87585163 -0.78219455 0.6211063 0.21190828
0.32875288 0.8343781 -0.24292763 0.49379098 -0.8047459 1.0947962 -0.9782695 -0.7588558

fc4.weight f4 [4, 128]
00000000: d815 e33d e18c b33d 7443 0bbe 2d3f b1bd
00000010: a131 8bbe c3d0 68bc 3b3e 1b3f 75ea fdbd
00000020: 65fc ab3e 5f39 903f 18ec 853f b5fb ec3e
00000030: 51f1 0a3e 825f ac3e 388e 753f a967 ad3f
00000040: 099d cebd 4c02 8f3f a3a8 8a3f 3ecc 913f
00000050: a13c 7a3f 2867 2a3f 1cd3 933f 3886 803e
00000060: b407 7f3f d111 923f f829 103f c904 d33f
00000070: 2cbf 9ebd 97b5 b63f 5922 253f af90 b73f
00000080: ecf6 d4bd 4f61 0b3f 844a 38be 82dc 213f
00000090: 6671 d63e 377c 873f 0683 873e 0f37 f43e
000000a0: fac3 f4bf 6172 aa3e 2066 953f 94b0 e93d
000000b0: f91f be3e b622 323f 901e 06be 2d5e 833f
000000c0: 3e75 6c3f dd50 a73e b2d8 24be a4b4 e3bf
000000d0: daaa 2b3f c318 373f e968 6a3f 1028 86bd
000000e0: f5ce ae3f a6aa 9b3e 5c62 a33f bd46 3abf
000000f0: 009c 373f 5b5f 0d3f f43b 2e3f 8ae9 1d3f
00000100: f2b9 253f 6293 403f c6fb 42c0 8fda 923f
00000110: 3ce0 ec3e 29b9 d23f e8ba 8c3f 44c5 313f
00000120: 22a9 953e 420a 313e dfe5 693f a293 8d3f
00000130: 8f12 083f 41a1 233f 546f 383f 7fb6 353f
00000140: 76a4 843f 61b0 4dbf ddda 553f 640c 8c3f
00000150: aa66 b23e 9692 98c0 4649 7e3f 1194 f63e
00000160: 15ae 053e a969 893f 60d1 b33f 0312 873f
00000170: 79c7 943f b75f 8b3f 6cc0 a23f efb8 563f
00000180: 1ef6 803f 0d4f 493f 883c 1d3f 5687 5dbd
00000190: 9f10 f43e 336f 003e 658b b83e 4d64 9e3f
000001a0: bbc4 a23e 038b 30bf cf51 f63d adb4 b23f
000001b0: a21d a6bd 15f4 8b3f 2d32 963f 5629 f83e
000001c0: 088c 37c0 8de2 813f 70b8 b5be 9c2d 0e3e
000001d0: 3903 2b3f 6582 733f 9cc1 903f f502 ca3f
000001e0: 5002 9b3f 267a 8d3f 09ad c23f 6ca0 873f
000001f0: 4fce aa3e a241 cd3f ede5 50be a438 203f
00000200: 493e ec3d 09b5 263e a4bc b1bf 03b2 0ebd
00000210: 1294 293d ee9d 72bd 3f7d 1d3f 5295 50bf
00000220: e663 fc3e e309 a33f 79b9 913f 7057 0d3f
00000230: ae17 3fbe f708 dbbd f07f 8a3f 47f5 6b3f
00000240: e381 9e3d 35be 913f bb88 8d3f 8126 923f
00000250: 6100 8e3f a3c9 233f 15f8 b03f 4cb1 b93d
00000260: ad4a 7e3f 398e 1a3f b3fe 103f 4d5f a63f
00000270: 2707 463d 323e 353f 38ba 103f 1de2 d33f
00000280: 1fe5 6b3e 1076 523f 035e 903e c3d6 a23e
00000290: c248 503f 07f0 803f 73cd d93e 748f 29be
000002a0: f7a0 8cc0 f22f 873f 3690 cbbe 6e68 163e
000002b0: 5f28 fc3e 9596 cf3e 8753 be3d ac8e 3a3f
000002c0: 15cf 8b3f f831 c63e 9625 09bc 6319 053f
000002d0: a4a4 ca3e 9d01 6e3e d778 583f d0a4 46bf
000002e0: 96b0 5a3f 7ac3 f73b 9035 893f 0f71 3ebf
000002f0: 273a 273f 28d1 753f ca5b 57be 82f2 c93e
00000300: 6a07 213f a6d0 023f 8e49 4ac0 0552 8b3f
00000310: acbd 693f 7bb6 6f3f 7375 913f 7b95 363f
00000320: 1903 233f 4133 b03d f176 653f b7f6 bd3f
00000330: d5df c03e cb0c 3b3f 96b4 8b3f 6882 033f
00000340: f786 ac3f 1c60 e83e e1a8 153f da68 8c3f
00000350: ac2a 243f 100b 91c0 3c95 9a3f 3c37 413f
00000360: 1732 c03d 28b3 943f 2cba b93f 40c6 8e3f
00000370: 6aaa 1a3f b0e1 8b3f 060a 7d3f 8898 483f
00000380: 66f3 6c3f 2f75 073f a6d5 893f db01 89bf
00000390: 6468 493f a400 f43c 6727 2e3f 4a10 a53f
000003a0: 765b 4d3f 4c2e 44be 8a1c 663f f051 b23f
000003b0: 5695 843e e8a9 8d3f fb05 123f 3551 b43f
000003c0: 03de 38c0 3563 8b3f 9781 3abb ec1e 7f3f
000003d0: f52d f43e 6e21 a13f d16a 903f fb09 da3f
000003e0: 5a84 2e3f 0f9c 8e3f 3f2e 563f 232e 8b3f
000003f0: 588e 183f 84fd d53f 48f4 9e3f 8853 053d
0.11088151 0.08767105 -0.1359995 -0.08654628 -0.271863 -0.014209929 0.6064183 -0.12398235
0.33591 1.1267508 1.0462675 0.46285787 0.13568617 0.33666617 0.95920134 1.354726
-0.10088546 1.1172576 1.0832714 1.1390455 0.9774876 0.66563654 1.15488 0.251024
0.9962113 1.1411687 0.5631404 1.6485835 -0.07751307 1.4274167 0.64505535 1.4341029
-0.10398659 0.54445356 -0.17997175 0.63227093 0.4188339 1.0584782 0.2646715 0.47698256
-1.9122307 0.3329039 1.1671791 0.11410633 0.37133768 0.69584215 -0.13097596 1.0263115
0.923664 0.3267888 -0.16098288 -1.7789502 0.67057574 0.7152216 0.9156633 -0.0655061
1.3656908 0.30403632 1.2764392 -0.7276419 0.7172241 0.55223626 0.6806023 0.6168448
0.64736855 0.7522489 -3.046617 1.1472949 0.46264827 1.6462756 1.0994539 0.6944163
0.292306 0.1728907 0.9136638 1.1060679 0.5315332 0.6391793 0.72044873 0.7098159
1.036269 -0.8034726 0.83537084 1.0941281 0.3484395 -4.767894 0.99330556 0.4815984
0.13054688 1.073537 1.4048271 1.0552372 1.1623374 1.0888585 1.2714972 0.83875936
1.0075109 0.78636247 0.6142049 -0.054084145 0.4766893 0.12542419 0.3604385 1.2374359
0.31790718 -0.68962115 0.120273225 1.3961388 -0.08111121 1.0933863 1.1734062 0.48469037
-2.8679218 1.0147263 -0.35492277 0.13884586 0.6680179 0.9512084 1.1309085 1.5782152
1.2110081 1.1052902 1.5209056 1.0595832 0.33360526 1.6035655 -0.2040021 0.62586427
0.115353175 0.16279997 -1.3885694 -0.034837734 0.041400976 -0.059232645 0.61519235 -0.81477845
0.49294966 1.2737392 1.1384727 0.55211544 -0.18661377 -0.10695069 1.0820293 0.9217114
0.07739618 1.1386172 1.1057352 1.1418 1.1093866 0.6397955 1.3825709 0.0906702
0.99332696 0.60373265 0.5663864 1.2997833 0.048346665 0.7079803 0.5653415 1.6553379
0.23036622 0.822114 0.28196725 0.31804475 0.8136102 1.007325 0.42539558 -0.1655863
-4.394649 1.0561507 -0.39758462 0.14688274 0.4924955 0.40544572 0.09293275 0.7287395
1.0922571 0.38709998 -0.008370778 0.5199186 0.39578736 0.23242803 0.84559387 -0.77595234
0.854257 0.0075611444 1.0719471 -0.74391264 0.6532311 0.9602227 -0.21031108 0.3944283
0.6290194 0.5109962 -3.1607394 1.0884405 0.9130504 0.9363782 1.1363968 0.7132184
0.636766 0.08603526 0.89634615 1.4840916 0.3767077 0.73066396 1.0914485 0.5137086
1.3478688 0.45385826 0.58460814 1.0969498 0.6412761 -4.5326004 1.2076793 0.75474906
0.09384554 1.1617174 1.450994 1.1154251 0.6041628 1.0928249 0.9884342 0.78357744
0.92558897 0.5291318 1.0768325 -1.0703691 0.7867491 0.029785462 0.68028873 1.2895596
0.80217683 -0.19158286 0.898873 1.3931255 0.25895184 1.1067476 0.57040375 1.4087282
-2.8885505 1.088965 -0.002845859 0.9965656 0.47691312 1.2588327 1.1282598 1.7034296
0.681707 1.1141375 0.83664316 1.0873455 0.595922 1.6717992 1.2418299 0.032550365

fc4.bias f4 [4]
00000000: 8a11 9c3f 70d0 933f c9df 903f 3e66 953f
1.2192852 1.1547985 1.1318294 1.1671827

ln1.weight f4 [256]
00000000: 1653 c03e 99ef d03e cc5c c93e 2917 fe3e
00000010: 11a3 053f e5d1 b43f af37 cd3e 49e3 d13e
00000020: 8587 d63e 5c22 ee3e 056b 9e3f 24ff cd3e
00000030: 09b7 013f 538e 283f f665 223f 26f6 f43e
00000040: 1ee1 d53e f2d3 b23f fa4b fc3e 99b5 9d3e
00000050: 2dc7 173f 48e7 563f 1b69 cb3e 9082 c03e
00000060: 60dd 173f 9872 c03f 2b35 2f3f acd6 8a3f
00000070: 8bad e13e 6ecd ee3e 5e57 ce3e d696 e93e
00000080: 14bb ec3e ea5a 383f 3e1b 813e ee0e de3e
00000090: 522c 983e 7efc c03e 29a4 ce3e e9f7 e63e
000000a0: f889 c83e 2722 2e3f 3b42 c83e cef8 db3e
000000b0: de87 803e 563e 573f d2b3 b93e b8fa e83e
000000c0: c9ad eb3e 2fc1 df3e ee4b 553e 86ae be3e
000000d0: 2a64 023f 5dee c53e 5499 933f 60a3 c43e
000000e0: a310 2f3f 1dba 833e b125 9c3e 5cd7 c93e
000000f0: 489b 4f3f 403f ba3e 0d5e fd3f 428f b53f
00000100: e751 e83e 1417 013f bd9c 2840 dd98 243f
00000110: 8b44 b83e cb68 b83e 1403 c63e 5a1a 083f
00000120: 90d4 143f 2826 be3e 976a 973e a44d 1a3f
00000130: e05b de3e 6931 ff3e 4288 983f 5d1b e93e
00000140: e8d8 493f 4da4 4d3e 39c0 633f 9ed4 d53e
00000150: 95b8 1e3f 4d2e c33e 3b17 403f 6f51 ce3d
00000160: 758e 073f b8a3 9b3e 3db6 d73e 410b 883f
00000170: 5b78 063f 90a1 113f 6336 dd3e e5a8 5f3e
00000180: 2286 613f 5569 193f d11e ea3e e8fe a03f
00000190: b7b9 3c3f 2f69 df3e d555 c33e d167 da3e
000001a0: 8bcd e33e 56b6 dc3e bc90 133f b826 e03e
000001b0: 1fc2 ac3e d168 6b3f 6a69 ea3e 2baf eb3e
000001c0: d278 ce3e b4a9 1f3e 9ae9 0d3f 63d9 7f3f
000001d0: 3fe7 933f 95e5 d53e 0a08 b43e 28fa b73e
000001e0: a9e6 883e c138 ea3e daf0 fa3e e7eb c13f
000001f0: 1405 d23e 40c8 d63e 5561 d63e d9ac 763f
00000200: fe2a 9e3e 759e e53e 0c67 793e d748 af3e
00000210: d562 ec3e 6c42 bf3e 56d3 cd3e c069 e13e
00000220: 26ac da3f 2cc7 b93e 5fc1 bf3e 3d4e 003f
00000230: 8089 d03e effc d73e ff12 e33e 86d9 f13e
00000240: 9180 f93e 8186 073f fa70 553e ad57 873f
00000250: 147b e63e 6c36 443e bcff f93e d429 a83e
00000260: bfc1 e23e 1437 863e b58e cc3e 9ace b73e
00000270: 31fa 243e e690 4f3f 7206 d23e 4aba ef3e
00000280: e499 f43e 2c05 3b3f 4a67 853f 102a f33e
00000290: 5dbf e03e 88dc e13e e726 f23e f8fc c33e
000002a0: ce1c c53e 8433 113f 5f06 e63e 4e9b 0e3e
000002b0: 8350 313e 133e 8a3f 83fe f63e d837 b83e
000002c0: 0bbc 463f 73a5 753e 05d8 e93e ee95 213f
000002d0: 14a6 a73e 8529 873e c651 153f 380c ce3e
000002e0: 807b d13e 6130 d43e 1d09 6c3e 916d b13e
000002f0: b203 403f cb03 033e e925 d33e 7ae8 d23e
00000300: 37a7 db3e 5a1e ca3e 5435 473e c0ed 173e
00000310: c2fe 023f 0fdb d93e c762 053f 6478 1a3f
00000320: 14d1 f83e 790d 283e 0f68 a73e 5ba5 283e
00000330: 6e02 c73f 015a bb3e 6898 1c3f 76d8 6d3e
00000340: dd4f 113f 963b 0c3f 1146 eb3e 51bb 633e
00000350: b26a 8c3f 843e 163f 8d15 c53e 2f70 a63e
00000360: 0cfd 833f 42e9 e83e 550e 8f3f ccd6 8b3e
00000370: b2a2 0a3f cd59 ae3e 957b 7e3e f41e 4d3f
00000380: a29d 413f 0840 dd3e 218a 8d3f 4178 703e
00000390: 3fc0 b53e dcbb 6d3f 0896 033f 0b9a 993e
000003a0: 6482 d73e 5455 af3e f509 bf3e cc04 b33e
000003b0: e004 613e 3244 ea3e a2bd cc3e f5cf fa3f
000003c0: 8c5b 113f fe84 f73e 655a 053f 778d c33e
000003d0: 3f75 483e a3ee c83e 4561 d23e 6654 dc3e
000003e0: 720c bd3e 0664 5c3e 7512 783f 40af 803e
000003f0: acc4 e03e 90c1 f73e 8dd1 093f fe3e b33e
0.3756339 0.40807799 0.3932861 0.49627045 0.52201945 1.4126555 0.40081546 0.40993717
0.41900268 0.4651059 1.237641 0.4023372 0.50669914 0.6584217 0.6343683 0.47844046
0.41773313 1.397093 0.49276716 0.3080261 0.59288293 0.8394666 0.39728627 0.3759961
0.59322166 1.5034971 0.684405 1.0846763 0.44077715 0.46641105 0.4030103 0.4562289
0.4623648 0.72013724 0.25216097 0.43370765 0.29721314 0.37692636 0.4035962 0.45111015
0.39167762 0.6802086 0.3911303 0.4296326 0.25103658 0.8407949 0.36270005 0.45503783
0.46031025 0.43702075 0.20829746 0.37242526 0.5093409 0.3865842 1.1531167 0.38405895
0.6838476 0.2572793 0.30497506 0.3942212 0.81096315 0.3637638 1.9794327 1.4184344
0.45374987 0.5042584 2.6345665 0.6429575 0.35989794 0.3601745 0.38674223 0.5316521
0.58136845 0.37138486 0.2957351 0.6027472 0.4342947 0.49842384 1.1916583 0.4552869
0.788466 0.20082207 0.88965183 0.41763777 0.620004 0.38121262 0.75035447 0.10074126
0.5295175 0.30398345 0.42131224 1.0628434 0.525274 0.5688715 0.43205556 0.21841772
0.88095295 0.5992635 0.45726636 1.2577791 0.7372088 0.43634936 0.38151422 0.4265733
0.44492754 0.4310786 0.5764272 0.4377954 0.33741853 0.9195681 0.4578355 0.4603208
0.40326554 0.1559208 0.5543457 0.9994108 1.1554946 0.4177672 0.35162383 0.35933042
0.2673848 0.45746425 0.4901188 1.5150117 0.410195 0.41949654 0.41871133 0.96357495
0.30892175 0.44847456 0.24355716 0.3423526 0.46169153 0.37355363 0.402003 0.44025993
1.7083786 0.3628477 0.37452218 0.5011938 0.40729904 0.4218516 0.4435043 0.4723627
0.487309 0.5293961 0.20843878 1.0573632 0.45015776 0.19161385 0.48827922 0.32844412
0.44288442 0.26213896 0.39952627 0.35899812 0.16111065 0.8108047 0.41020542 0.46821815
0.4777366 0.73054767 1.0422146 0.4749303 0.43896 0.44113564 0.47295305 0.38278937
0.3849854 0.5671923 0.44926736 0.13926432 0.17315869 1.0800194 0.48241052 0.35980105
0.7763068 0.23988895 0.45672622 0.631194 0.32743895 0.26398864 0.583279 0.40243697
0.40914536 0.4144316 0.23050351 0.34653905 0.7500564 0.12794416 0.4123986 0.4119299
0.42901012 0.3947628 0.19453937 0.14836788 0.5116998 0.4254994 0.5210385 0.6033995
0.48597014 0.1641139 0.32696578 0.16469328 1.5547616 0.36592105 0.61170053 0.23227105
0.56762487 0.5477842 0.45951894 0.22239424 1.0970061 0.5868914 0.38493004 0.32507464
1.0311599 0.45490462 1.1176249 0.27312315 0.54154503 0.34052888 0.2485183 0.80125356
0.75631154 0.43212914 1.1057779 0.23483373 0.35498235 0.92864776 0.51400805 0.30000338
0.42091668 0.34244788 0.37312284 0.34964597 0.21974516 0.45755154 0.39988428 1.9594713
0.56780314 0.48343652 0.52091056 0.38193867 0.19575976 0.39244565 0.41089836 0.4303314
0.36923558 0.21522531 0.96903163 0.25133705 0.4390005 0.48389864 0.53835374 0.35008997
