trained_models/checkpoint_ep7400.pth (torch, 416160 bytes, 14 tensors)

fc1.weight f4 [256, 8]
000000 14 e0 80 3e c8 77 14 be 41 29 16 3f f2 e7 a6 3e
       0.25170958 -0.14498818 0.586567 0.32598835
000010 7a 50 b5 3e 7a 89 e5 bd 1a e0 84 bf b1 50 97 3e
       0.3541296 -0.11207862 -1.038089 0.2955375
000020 b9 93 86 3e 7b e3 3c be 8f 01 f8 3e b0 1e 8d 3f
       0.26284578 -0.18446152 0.4843869 1.102499
000030 e6 f6 0b 3e 8d 08 90 bd 36 fe 56 bf 7d c2 ef 3d
       0.13668403 -0.07032881 -0.83981645 0.117070176
000040 2d c7 41 3e bb 02 50 be 7d 34 80 3f df 15 39 3d
       0.18923636 -0.20313542 1.0016018 0.045186874
000050 cd 4d 83 3e 8c bb b2 3e 7b 34 81 bf d0 0e 1d 3e
       0.25645295 0.34908712 -1.0094141 0.15337682
000060 e5 86 45 3e 1c 38 cf bd 02 9c cd 3e 86 cb 87 3f
       0.1928974 -0.10118124 0.40158087 1.0608985
000070 11 0a f5 3d 84 0e 62 be f1 fe 52 bf 45 d9 d6 3d
       0.11964811 -0.2207585 -0.8242026 0.104906596
000080 91 e2 91 3e 17 ac 17 be 60 b3 19 3f ed 1b e6 3e
       0.2849317 -0.14811741 0.6003933 0.4494318
000090 c5 a4 69 3e c8 8f c4 bd 77 71 82 bf 1d 60 c5 3e
       0.22816761 -0.095977366 -1.0190877 0.3854989
0000a0 53 ff 8a 3f 38 61 1f 3f d1 c1 1c 3f ca 93 e6 3a
       1.0859169 0.6225772 0.6123324 0.0017591652
0000b0 f6 29 26 3f 76 f9 9e bf ca b2 17 3f 41 36 37 3f
       0.6490778 -1.241988 0.59257185 0.7156716
0000c0 b5 e7 94 3e 59 54 99 bd f5 84 60 3f d5 38 b7 be
       0.29083028 -0.07486791 0.87702876 -0.35785547
0000d0 be 43 af 3e 70 95 8c 3d fd c3 90 bf 8d ea 5c 3e
       0.3423137 0.068644404 -1.1309811 0.21573849
0000e0 e2 3b 3d 3e a6 9c 8c bd cb 1b d8 3e 70 63 3c 3f
       0.18479875 -0.06865816 0.42208704 0.7358923
0000f0 06 1c 38 3e d5 b6 90 be 95 1b 6b bf b3 49 83 3e
       0.1797944 -0.2826449 -0.9183896 0.25642166
000100 34 e6 fc 3e e1 d0 46 be 63 7f 63 3c 82 29 c1 bd
       0.4939438 -0.19415618 0.013885352 -0.09431745
000110 bf 7c 47 bc 2b 6c b4 be 0a 20 e2 be 1e 38 e9 bc
       -0.012175738 -0.35238776 -0.4416507 -0.028469142
000120 25 b6 b7 3e a9 fb 52 bd be 82 f1 3e 2e d5 e3 3e
       0.35881153 -0.051509533 0.4717006 0.4449858
000130 9d 5d 5e 3e 41 31 16 be 58 78 6f bf ab f3 24 3d
       0.21715398 -0.14667226 -0.93543005 0.040271442
000140 d7 6c 8d 3f 50 9c 0d 3f 2b 90 a4 3d d3 03 6c 3e
       1.104884 0.5531664 0.0803531 0.23048334
000150 fc 5c 0d 3f e2 e0 cb bf 3b eb 24 3f 49 d2 f6 3e
       0.5522001 -1.5928004 0.64421433 0.4820731
000160 c9 fe e8 3d be 6b 4c bd 06 67 d6 3e ee 12 0f 3f
       0.113767214 -0.04990744 0.41875476 0.5588826
000170 4a 8b 1d 3e 9f 2a 83 be ab 96 5c bf be a5 e8 3d
       0.15385166 -0.25618455 -0.861674 0.11359738
000180 f4 2b 84 3e 3a 78 b4 bd cf ad 67 3f 7a 56 cc bd
       0.25814784 -0.08811994 0.90499586 -0.099774316
000190 dd dd e6 3e ae 79 f0 3d 6b 58 9c bf be 35 dc 3e
       0.45091143 0.117419586 -1.2214483 0.43009752
0001a0 9a d1 e7 3c b0 9e 9a be cf 6e 7a 3d 9d fb 02 bf
       0.028298188 -0.30199194 0.06114083 -0.5116518
0001b0 09 c4 15 be e1 a3 3b bf cd 5c 91 bd 7a 11 34 be
       -0.14625563 -0.73296934 -0.070977785 -0.17584792
0001c0 43 8d 48 be 5e c5 53 be d7 df 68 3f 95 ba 50 bd
       -0.19585137 -0.20680758 0.9096655 -0.05095919
0001d0 f7 bc 7f bd fb 54 58 3e 85 ba 20 bf d2 0a 47 bc
       -0.06243607 0.21126167 -0.62784606 -0.012148576
0001e0 e2 b0 c4 bd 20 33 bf be a4 8e 16 be d1 5e b1 3f
       -0.0960405 -0.37343693 -0.1470285 1.3857061
0001f0 05 70 09 be d5 49 54 bf 8b 21 27 bc 07 3e fa bd
       -0.13421638 -0.8292516 -0.010200868 -0.12218862
000200 0b 89 51 3e 79 ec f7 bd c0 55 44 3f 99 e5 f7 3e
       0.20462434 -0.121056505 0.76693344 0.48417357
000210 0a c6 5b 3e 0a 6c 1b 3e a5 ad 7e bf e2 48 7b 3e
       0.21462265 0.15177932 -0.9948371 0.24539521
000220 ec 6c 83 3f a7 26 8c 3e b1 eb 94 3e 04 b2 3e 3f
       1.0267615 0.2737324 0.29086068 0.7449038
000230 b5 24 a7 3e e0 aa ee bf 10 78 df be 38 d6 c1 3e
       0.32645193 -1.8645897 -0.43646288 0.37858748
000240 b1 57 c4 3f 47 c9 af bd 89 74 1a 3f 58 2e 4c bf
       1.5339261 -0.085833125 0.6033407 -0.79758215
000250 cd dc 16 3f c1 ab 5c bd be 56 ce bf 6f d4 04 3f
       0.58930665 -0.053874735 -1.6120222 0.5188665
000260 f0 4d e0 3e ed ba 23 be de 0b e2 3e d0 7b 43 3d
       0.43809462 -0.15989275 0.4414968 0.0477255
000270 b9 d5 09 3e 41 b5 63 bd 16 9a 5e bf 9d 70 81 3e
       0.13460435 -0.05559278 -0.86953866 0.2528123
000280 e2 70 04 3e 2f b3 98 bd 82 3a 4f 3f 58 95 5e 3f
       0.12933686 -0.074560516 0.8094865 0.8694663
000290 52 8c 7b 3e ad 2a 86 3d 51 03 88 bf b7 4b 3f 3e
       0.24565247 0.065511085 -1.0626012 0.18681227
0002a0 cc d0 12 3e c5 3c 33 be 30 3e 00 3f 07 e4 45 3f
       0.14337462 -0.1750365 0.5009489 0.7730107
0002b0 93 46 bd 3c 88 74 84 bd c3 3c 38 bf 5f 97 c1 3d
       0.023104941 -0.06467539 -0.71967715 0.094527
0002c0 dc 9a 6a 3e f7 04 14 be 25 19 2d 3f ae f6 6d 3f
       0.22910637 -0.14455019 0.6761649 0.9295453
0002d0 22 82 b4 3e f0 87 44 bd 6f c6 8c bf 27 dc b6 3e
       0.35255533 -0.047981203 -1.0998057 0.35714838
0002e0 d4 18 bd 3d 62 ea 42 bd 5c f9 cb 3e e0 51 98 3f
       0.09233251 -0.047586806 0.39838684 1.1899986
0002f0 91 d3 3b 3e 79 45 a2 be 02 6a 64 bf d1 b7 18 3e
       0.18342425 -0.31693628 -0.89224255 0.1491387
000300 c5 37 2c 3f 27 ed 15 be 10 52 93 bf 66 24 4c 3f
       0.672726 -0.14641248 -1.1509418 0.7974304
000310 64 45 83 bd 13 1d 55 bf 14 6a ea 3b 63 1e 23 bd
       -0.064097196 -0.8324749 0.007153759 -0.0398239
000320 10 af f6 bd f6 61 b4 bd 43 a1 09 c0 f5 7f 90 bf
       -0.12045109 -0.08807747 -2.1504676 -1.1289049
000330 a8 11 63 be 2a fa d3 3f 5c c4 5d be a0 02 90 be
       -0.22174704 1.6560719 -0.21656936 -0.28127003
000340 e0 73 26 be 7e 63 d9 be 12 e1 ca 3e 87 2e ee be
       -0.1625514 -0.4245872 0.3962484 -0.46519873
000350 f0 3d 9d be ae 70 07 bf fa 4d bf 3d 47 1f 99 be
       -0.30711317 -0.5290631 0.09341045 -0.29906675
000360 0a fb e6 3e e3 ad d8 be 10 06 9d bf 2c ba 3d 3f
       0.45113403 -0.42320165 -1.2267475 0.741122
000370 3e 2f ca be ac b6 a7 bf 91 bb 24 3f 14 38 be be
       -0.39489168 -1.3102622 0.64348704 -0.3715216
000380 05 8f 11 3e 0a 80 09 be a8 fa 18 3f 19 37 2f 3f
       0.14214714 -0.1342775 0.5975747 0.6844345
000390 25 f0 9f 3e da 7c 18 be ac 41 84 bf 5e 1c a6 3e
       0.31237903 -0.14891377 -1.0332541 0.32443517
0003a0 f9 cc 8d 3e 40 d5 bb bd f4 ef 28 3f 99 e3 0d 3f
       0.27695444 -0.091715336 0.6599114 0.5542541
0003b0 18 04 7f 3e 2d a5 14 bc ff 90 84 bf ee 08 80 3e
       0.24903905 -0.009072584 -1.0356749 0.25006813
0003c0 30 dc a2 3e c5 9a 95 bd 37 31 38 3f c7 02 e6 3e
       0.31808615 -0.073049106 0.71950096 0.44923994
0003d0 32 63 52 3e 59 5e 1d 3d fc 6f 8c bf 08 47 bb 3e
       0.20545653 0.038420055 -1.0971675 0.3657763
0003e0 31 4c 8d 3e 16 ba db bd 6f 5b be 3e 24 24 1f 3f
       0.27597192 -0.107288525 0.37179133 0.6216452
0003f0 6e 34 33 3e 74 aa 91 be 14 90 62 bf 28 79 81 3e
       0.17500469 -0.28450358 -0.88501096 0.25287747

fc1.bias f4 [256]
000000 c3 f3 87 3e d7 05 20 3e 6f 2d 56 3e b1 c9 10 3e
       0.26553163 0.15627228 0.20915769 0.14139439
000010 35 0a 93 3e 80 33 2b 3f 12 b9 9c 3e 46 26 45 3e
       0.28718725 0.6687546 0.30609947 0.19252881
000020 37 11 de 39 c5 43 38 3e 31 12 09 3f a1 29 2e 3e
       0.00042355966 0.17994602 0.5354338 0.17008068
000030 87 32 a3 3e 6a 3f 3e be 64 f3 87 bd b0 b7 27 be
       0.31874487 -0.18578878 -0.0663822 -0.16378665
000040 1d 00 3f 3e ec db d7 3e a1 65 09 3f 70 53 54 3e
       0.18652387 0.42159975 0.536707 0.20734954
000050 3f 8c 62 3e dc cc b1 3d f3 e2 89 3e 9c e2 26 3e
       0.22123812 0.08681652 0.2693096 0.16297382
000060 b6 f2 3a bd d1 09 41 be 6f 21 a7 be 7b 0d c4 be
       -0.045641623 -0.18851401 -0.32642695 -0.38291535
000070 9c 00 87 3e 12 0e 76 3e 24 21 a5 3e aa 14 3f 3e
       0.26367652 0.24028805 0.32251847 0.18660226
000080 d4 1d 21 3e cc 26 3e 3e 10 d3 5c 3e c4 fd 0a 3e
       0.15734035 0.18569487 0.21564889 0.13573366
000090 6d 8f e3 3e 34 15 a6 3e 46 cc 62 3e ed 09 56 3e
       0.44445363 0.32438052 0.22148237 0.20902224
0000a0 fa 4a 94 3e 25 f2 9f bd 28 21 74 3e cc 92 37 3e
       0.28963453 -0.07809857 0.23840773 0.17927092
0000b0 4f d2 81 3d ed 8d a5 be 00 4d 9e 3e 7b a2 92 3e
       0.06338941 -0.32334843 0.3091812 0.28639588
0000c0 9c d5 2c 3e 5b a3 9c 3d db ba 98 3e a1 05 50 3e
       0.1687836 0.07648345 0.2983006 0.20314647
0000d0 05 d9 d0 be 26 7e 63 3e 8a 35 a9 3e b4 e9 5a 3e
       -0.40790573 0.2221609 0.3304866 0.21378213
0000e0 77 3c 03 3e a3 0b 43 3e f8 d1 4e 3e aa cd 41 3e
       0.12816034 0.19047408 0.20197284 0.18926111
0000f0 34 05 98 3e c0 a9 47 3f 52 12 05 3f 54 1d 80 be
       0.2969147 0.7799339 0.5198108 -0.25022376
000100 ff 0f 64 3e 7b 46 21 be a7 21 98 3d c2 14 63 bd
       0.22271727 -0.15749542 0.07428294 -0.055439718
000110 62 e1 8f 3d 32 5e 7d 3e b8 bc 6c 3e 34 a2 a1 3e
       0.0702541 0.24742964 0.23118865 0.31569064
000120 05 99 e9 be e1 f0 dc 3e cb af 74 3e dd 10 9e 3e
       -0.45624557 0.43152526 0.23895185 0.3087224
000130 ee fa 41 3e 8d dd 4d 3e b3 89 5c 3c 39 b6 83 3e
       0.18943378 0.20104046 0.013460564 0.25724962
000140 5e 80 9e be 37 fd 84 3e 0f fd 18 be 99 04 60 3e
       -0.3095731 0.25974438 -0.14940284 0.21876754
000150 20 41 03 bf 48 8f 63 3e 1b 83 a4 be 79 d6 34 3e
       -0.5127125 0.22222626 -0.32131276 0.1765994
000160 6a 21 8b 3e 8c bc 69 3e c1 8f 69 3e 4d c1 14 be
       0.2717393 0.22825831 0.22808744 -0.14526863
000170 bd 58 52 3e d5 78 75 3e 69 aa 4b 3e 09 86 0e 3f
       0.20541663 0.23971875 0.19889225 0.5567327
000180 fa 03 78 3d 4f 58 5b 3d 56 ea 41 3e 6b 0b a1 be
       0.060550667 0.053551015 0.18937048 -0.31454024
000190 40 64 78 be de be ef 3d 6d 75 33 3e 1e 98 a9 3e
       -0.24256992 0.11706327 0.17525263 0.3312387
0001a0 c2 ee 88 3e 5c 5b 6e 3e 36 1d 3d 3e af 9f 97 3e
       0.26744658 0.23277038 0.18468174 0.29614016
0001b0 57 72 80 3e 83 6b 3a 3c ce f8 35 3e fd c0 88 3e
       0.25087234 0.011378172 0.17770693 0.26709738
0001c0 fa fe 2a 3e 11 c6 2a 3e 47 7c da 3d d5 19 0e 3f
       0.16698828 0.16677119 0.10668235 0.55508167
0001d0 ca 9c 63 be 6b b4 98 3e 5e e5 98 3e fc d4 f7 bc
       -0.22227779 0.29825148 0.29862493 -0.030252926
0001e0 a6 7c 88 3e 56 95 a0 3e d0 f4 8a 3e 44 85 ea 3e
       0.266576 0.31363934 0.27139902 0.458048
0001f0 c8 d9 9d 3e e6 c6 52 3e da 3d 5c 3e 3b bc a9 be
       0.30830216 0.20583686 0.2150797 -0.3315142
000200 36 e2 a9 3e 67 4f 91 3e e8 ea bc 3e d9 8e bd 3c
       0.33180398 0.28380892 0.3689797 0.023139404
000210 4c b6 8b 3d db 89 9b 3e 25 9f 9f 3e 25 fb 92 3e
       0.0682188 0.30378613 0.31176105 0.28707233
000220 8f e6 25 be a7 ae 66 3d ce d9 d7 bc bf fb fb 3c
       -0.16201232 0.056318905 -0.026348975 0.03075969
000230 4f 2b 5a 3e 6d 17 53 3e 2d 55 59 3e 98 d2 85 3e
       0.21305583 0.20614405 0.21223898 0.26137233
000240 e3 15 4e 3e 28 b4 3f 3e a9 65 3b 3e c9 be e5 bd
       0.20125537 0.18721068 0.18300499 -0.1121803
000250 31 ba 3c 3e 85 61 2f 3e 0f 98 63 3e 9b 88 1e 3e
       0.18430401 0.17127044 0.22225975 0.15481798
000260 cb 5e a0 3e f1 51 93 3e dc e0 92 3e 73 f8 4c 3e
       0.3132232 0.28773454 0.2868718 0.20016651
000270 52 67 45 3e e2 e1 f7 be 20 a5 5c 3e 7e b0 69 3e
       0.19277695 -0.48414522 0.21547365 0.22821233
000280 6a 54 90 3e d6 64 55 3e 40 ab 56 be 5e 50 6a 3e
       0.28189403 0.20839247 -0.20963764 0.2288222
000290 b9 fb 01 be 5c 2d 97 3e 0b e5 22 3e 29 38 9d 3e
       -0.12693681 0.29526794 0.15907685 0.3070691
0002a0 39 78 8c 3e f1 05 3b 3d 09 49 53 3e aa 68 1a 3e
       0.27435473 0.045659963 0.2063333 0.15078989
0002b0 5b 03 da bd f1 4f b7 be b3 cf e6 bd ef 4d 84 3e
       -0.10645171 -0.35803178 -0.11270084 0.2584071
0002c0 90 5e 04 3e 85 03 2a 3e 63 ea c0 bc b1 34 95 bd
       0.12926698 0.16602905 -0.023549264 -0.07285441
0002d0 5e 0e 47 3e 96 5c 32 3e 50 a6 14 be 3f 88 1e 3e
       0.19439074 0.17418131 -0.14516568 0.15481661
0002e0 b7 e0 74 3e 62 32 5a 3e f0 9a 11 3f fd e9 50 3e
       0.23913847 0.21308282 0.5687704 0.2040176
0002f0 a2 49 96 3d 88 7d 6c 3e f7 f2 82 3e 5e e0 6c 3e
       0.07338263 0.23094761 0.25575992 0.23132464
000300 29 1e 8f 3d 2f bd 84 3e 94 10 42 3e 3d 53 49 3e
       0.069881745 0.25925586 0.18951637 0.19660659
000310 17 42 6c 3e e0 ed 6c 3e 68 81 99 be 6e e9 15 3e
       0.23072086 0.23137617 -0.29981542 0.14639828
000320 60 ee 96 3e a0 97 46 3e 06 54 f3 3d fd aa 49 3e
       0.2947874 0.19393778 0.118812606 0.19694133
000330 9c 09 7f be bc 51 68 3e c9 61 c8 be f4 dc 03 3f
       -0.2490601 0.22687429 -0.39137104 0.5150902
000340 cb 91 11 3e 30 07 29 3e 13 61 60 3e 4f 06 9f 3e
       0.14215772 0.16506648 0.21912031 0.310595
000350 1c 40 05 bf 17 dc b3 3d 14 8a 78 3e da c3 c6 3e
       -0.5205095 0.08782213 0.24271423 0.38821298
000360 4e 32 82 be 53 65 08 be b5 80 9d 3d e3 e6 32 3e
       -0.25429004 -0.13319902 0.076905645 0.17470889
000370 3b 6f 5c 3e ee 96 63 3e 85 49 f9 3d 87 9c 59 3d
       0.21526806 0.22225544 0.12172226 0.05312779
000380 5a 28 49 bd c5 0e 75 3e 8e 24 c1 bd 95 ef 5f 3e
       -0.049110748 0.23931415 -0.094308004 0.21868737
000390 ab 3a 62 3e c9 c0 e7 be 58 ea 73 3e 2d d9 81 3e
       0.22092693 -0.4526427 0.23819864 0.25361004
0003a0 89 6a 7e 3e 8c bd fc 3e e2 39 96 3e a9 d0 3a 3e
       0.24845327 0.49363363 0.29341036 0.1824366
0003b0 79 17 5a 3e 98 c5 8c 3e b1 9b 9c 3e d0 29 1b bf
       0.21298017 0.27494502 0.30587533 -0.60610676
0003c0 de 7e 80 3e 7a 05 07 3e c6 03 40 3e 37 68 57 3e
       0.25096792 0.13185683 0.1875144 0.21035849
0003d0 8c 17 99 bd 2d 09 83 3e 48 fb 9c 3e 27 40 7e 3e
       -0.07475194 0.25592938 0.30660462 0.2482916
0003e0 16 11 8b 3c c2 38 15 be bc 0e 5c be f6 28 e5 3c
       0.01697592 -0.14572433 -0.21489996 0.027973633
0003f0 5e 29 87 3e d0 02 aa 3d 1d dd 92 3e 13 e5 80 3e
       0.26398748 0.08301318 0.2868432 0.2517477

fc2.weight f4 [256, 256]
000000 e7 46 b2 bd 96 64 10 bc 3f 2c 40 3c c8 f8 23 3d
       -0.0870493 -0.008813044 0.011729299 0.04003218
000010 36 0e eb b8 e2 4c 70 bf 58 59 bf be a2 71 34 3e
       -0.0001120832 -0.93867314 -0.3737285 0.17621472
000020 a4 83 48 3d ec 66 56 3e a7 fe 4a bf f7 5e 39 3e
       0.048953667 0.20937699 -0.7929482 0.18102632
000030 94 ba 72 3d 1d 64 d0 3e c4 0b 74 3f 7b 40 9a 3e
       0.059259966 0.4070138 0.9533045 0.3012732
000040 7f e8 30 bc b2 db 1e 3e bc 77 0f be 46 c2 07 bd
       -0.010797619 0.15513495 -0.14010519 -0.033144258
000050 52 59 0f 3e 02 90 31 3f 07 25 80 3e 68 6f 76 3e
       0.13998917 0.69360363 0.2502825 0.24065936
000060 ac 91 69 3e 4e b7 0d bf 38 0c de be 36 53 ea 3d
       0.22809476 -0.55357826 -0.43368697 0.114416525
000070 df 12 80 3c ed f7 3e 3d f1 22 c6 3d d6 3a 29 bd
       0.015633998 0.04662316 0.09674633 -0.041315876
000080 98 24 ab bd fc f7 92 bc f3 65 3b bd 6f 6f 1c 3b
       -0.08356589 -0.017940514 -0.045751523 0.002387013
000090 b9 05 28 3f fc 7c 8a 3e 7e b1 94 3e ba f8 f7 3d
       0.6563373 0.2704848 0.29041666 0.12107988
0000a0 79 a0 c4 3d 9f 41 ee bd 7e 95 c5 3e 06 39 17 3e
       0.0960092 -0.1163361 0.38590616 0.14767846
0000b0 66 24 0f 3f 4f 3d e4 3e 66 47 31 3c 12 7d 6f 3d
       0.55914915 0.44578025 0.010820245 0.058468886
0000c0 69 e2 4e bd 9f 82 a0 bd 87 2a e0 3d e3 18 99 3e
       -0.05050889 -0.07837414 0.109456114 0.299018
0000d0 fc 34 5b 3e c7 82 f0 3d 42 87 09 3e 77 ff 44 bd
       0.2140693 0.11743694 0.13430503 -0.048095193
0000e0 e9 c9 82 bd 8a 55 ac 3d 11 4f 38 3e 68 df ff bc
       -0.063861676 0.08414753 0.17998911 -0.031234458
0000f0 ca 47 23 3f d6 7d f2 be 61 c0 26 3e d5 80 3c 3f
       0.63781416 -0.4736163 0.16284324 0.7363408
000100 32 df 3b bb 3c c8 9f 3e 79 b2 84 3f bd 25 f8 3d
       -0.002866697 0.31207454 1.0366966 0.12116573
000110 c9 ac 5c be f9 22 77 3d 9d 08 52 3e 9c b4 81 3e
       -0.21550287 0.060336087 0.20511098 0.25333107
000120 17 43 2d bb 57 3b 7b 3f 16 60 75 3c 61 a1 e8 3e
       -0.0026437694 0.9813742 0.014976522 0.45435622
000130 f3 58 0e 3d fa 7c 3a 3e 20 52 5b 3e e9 39 8f bd
       0.034752797 0.18211737 0.21418047 -0.06993467
000140 4c 73 1e bf 88 45 21 bc b1 3c a6 3f 34 5c a9 3e
       -0.6189468 -0.009843238 1.2987272 0.33078158
000150 17 5c 9f be 02 c9 79 3e 3e d3 b8 3e 90 3b 18 3e
       -0.31124946 0.24393085 0.36098665 0.14866471
000160 eb a7 97 bc 1f c8 22 3e 6a 4d 05 3e 13 9b 3f 3f
       -0.018512687 0.15896653 0.13017812 0.74846
000170 04 42 7b bc 6e 99 dc 3d fc 87 4c 3e cd 94 83 3e
       -0.015335564 0.10771452 0.19973749 0.25699463
000180 98 0f 83 3e 25 13 68 be be 1f da 3e 93 1a ee 3a
       0.25597835 -0.22663553 0.42602342 0.0018165879
000190 b1 84 23 3f c6 ce 8c 3e 10 96 e4 bd 0a 86 33 3f
       0.63874346 0.27501506 -0.11161435 0.701264
0001a0 46 94 b6 3d 47 95 a1 3d 99 28 86 3e 6a 72 bd 3d
       0.08915 0.078898005 0.2620285 0.092503384
0001b0 b3 d4 42 be 19 8e 51 be bb 20 2e be c7 5d 31 3e
       -0.19026451 -0.20464362 -0.17004673 0.1732093
0001c0 70 59 0c 3e 78 70 18 be 94 51 9e 3d 4b 5c 5a bf
       0.13705993 -0.14886653 0.077304035 -0.8529708
0001d0 d4 bd 22 3f 77 3f 3d 3f e1 1d 76 3e 47 c2 6c be
       0.63570905 0.73924965 0.24034835 -0.23120986
0001e0 f3 0e 0b 3e 97 f8 83 3d 69 17 9e 3c 68 ad 1b 40
       0.13579921 0.06443899 0.019298272 2.4324589
0001f0 7a b8 f1 3d 9a 0a 13 be b6 75 6b be 27 02 75 b7
       0.11802764 -0.14359513 -0.22994122 -1.4603639e-05
000200 ed 6a 2d 3f e4 97 e2 bc b4 97 1d 3f 50 e4 ad bc
       0.6774128 -0.027660318 0.61559606 -0.021227032
000210 66 11 17 3f 0a 04 1a 3e b3 c7 c7 3d 03 a9 3c bd
       0.5901092 0.15040603 0.097548865 -0.04605962
000220 18 6c 14 40 44 3c c8 3e f9 68 54 3e 3e 5a 10 3e
       2.3190975 0.3910848 0.20743169 0.14096925
000230 90 8a 02 bd 7a 44 1b bd f6 c6 86 3d c8 00 0c 3e
       -0.031870425 -0.0379071 0.065809175 0.13672173
000240 d3 6b f6 3d 20 a6 27 3d 92 bd c3 bd 8e 65 29 bf
       0.120322846 0.040929914 -0.09557642 -0.66170585
000250 be ca 07 3e dd 86 db 3d 0b f8 81 3d 49 52 ff 3d
       0.13260934 0.107190825 0.063461386 0.124668665
000260 60 ea 09 3e 9b fd 4d be b0 51 30 3d 05 26 06 3d
       0.13468313 -0.20116274 0.043046653 0.032751102
000270 d6 f9 67 3c 3e 95 a0 bd eb df 49 3e 0c 68 80 3e
       0.014158687 -0.07840966 0.19714324 0.2507938
000280 3e a6 b9 3d bd 10 be 3e 44 b2 d2 3e 03 2e 9a 3d
       0.09064911 0.37122145 0.4115163 0.07528307
000290 b8 01 8b 3e 7f 22 0c 3d 6b b1 8a 3d 22 a4 33 3e
       0.2714975 0.034212586 0.06772121 0.1754308
0002a0 7a ed 49 3e 8b 02 da 3e 02 d4 38 be c0 06 9b 3d
       0.19719496 0.42580065 -0.18049625 0.07569647
0002b0 21 16 05 3f 43 30 06 3f 49 5a e7 3e 53 23 19 3e
       0.5198689 0.5241739 0.4518607 0.14954881
0002c0 2c 16 05 3e 3f 10 14 3d 08 b3 1f 3e dc 4f b9 3e
       0.12996739 0.036148306 0.15595639 0.3619374
0002d0 9d 44 99 3d 85 a2 d2 bd 9b d9 02 3f 79 fc da bc
       0.0748379 -0.102849044 0.5111329 -0.026731716
0002e0 15 88 eb bd 95 e5 b1 bd 4b e0 1c 3f 01 12 80 3e
       -0.11500565 -0.086863674 0.61279744 0.25013736
0002f0 6e 3c 97 3a fd 49 15 bd 98 08 ac 3d 64 11 81 3d
       0.0011538395 -0.036447514 0.08400077 0.06302145
000300 67 a4 41 3e 67 c1 f8 3d ec 58 4c 3d 26 2a 2f 3d
       0.18910371 0.121462636 0.04988949 0.042764805
000310 3d a6 c0 3e 67 d0 2b 3e 84 36 c8 be 17 fd c8 3e
       0.3762683 0.16778718 -0.39104092 0.39255592
000320 53 19 4b 3e fe 43 28 3d f1 26 71 bd ab 5b 99 3d
       0.19833879 0.041080467 -0.058875028 0.074881874
000330 be 1b dc 3e 72 92 de 3e ed 25 ef 3d 5f b1 e0 3e
       0.42989916 0.43471104 0.11677156 0.43885323
000340 eb 72 d8 3d 3f 7f 3d 3d 17 cd a8 3d 3a 10 62 3e
       0.10568794 0.04626393 0.08242243 0.22076502
000350 30 a9 43 3f 42 9a 04 3f 21 9f ac bd 71 b9 a6 3e
       0.76430035 0.5179788 -0.08428789 0.32563356
000360 00 12 ae bc 07 9b 0c 3e 8b 30 28 3f 74 e2 fc 3e
       -0.021248817 0.13731013 0.6569907 0.4939152
000370 70 5f 21 3f cd 74 5c 3e 9a 0c ba 3e 9a e5 9b 3e
       0.6303625 0.21528931 0.3633774 0.3044861
000380 05 7f 54 3f 79 05 83 bd 9c c0 b7 be c7 e9 f4 bd
       0.83006316 -0.06397528 -0.35889137 -0.11958652
000390 f7 ae 48 3f f7 0e cb bd 1f 8b 96 3d b1 fa 3c 3d
       0.78391975 -0.09914964 0.07350754 0.046137515
0003a0 1d 61 49 3e 3a 56 82 3f 47 d6 ba 3d 08 2e 26 3f
       0.19665952 1.0182564 0.091229014 0.6491399
0003b0 2e 95 a6 3d ce 39 b8 3c b3 d9 50 bd 7f 0f 65 be
       0.081339225 0.0224885 -0.050988864 -0.22369193
0003c0 3a ce ad 3e e3 41 58 3d 44 bc 84 3e 0c 2f e9 bc
       0.339464 0.05279721 0.25924885 -0.028464817
0003d0 cb 4f e1 3e c7 7a db 3d 5f c5 89 3e 60 7b 3b 3c
       0.4400619 0.10716777 0.26908395 0.011442989
0003e0 86 c5 c4 3d ac b7 dd 3e dc 4a 8e 3f b8 39 ec 3d
       0.09607987 0.43304193 1.1116595 0.115344465
0003f0 2b 55 17 be 16 58 11 bd e4 0b f1 3d f1 e4 62 3d
       -0.14778583 -0.035484396 0.11769846 0.055394117

fc2.bias f4 [256]
000000 e3 d1 17 bf 78 1a 31 bf 95 7d 22 bf 97 b0 77 bf
       -0.59304637 -0.69181013 -0.6347287 -0.9675383
000010 d1 95 a9 bf cd d2 9c bf c5 82 50 bf 9f 78 23 3e
       -1.3248845 -1.2251831 -0.8144954 0.15963982
000020 35 05 1d bf 4f 86 31 bf 2b c2 13 3f e6 04 15 3f
       -0.6133607 -0.69345564 0.5771815 0.582106
000030 6d ab 72 3f e0 2d 55 3f 96 d4 36 bf 42 82 3c bf
       0.94792825 0.83273125 -0.7141813 -0.7363626
000040 fa e5 f2 be b4 2f 62 be de f7 31 bf 42 c6 b7 bd
       -0.47441083 -0.2208851 -0.6951884 -0.089733616
000050 65 47 89 bf 94 e4 87 be 6a 9d 2d bf 85 c2 46 3f
       -1.0724913 -0.2654158 -0.6781832 0.77640563
000060 25 3a d2 3e 30 4d 1e bf 14 ac ca 3f 80 52 a2 be
       0.41059986 -0.6183653 1.5833764 -0.31703568
000070 1f ac c9 be 00 36 5b bf 9e 38 35 3f 71 49 99 3e
       -0.3938913 -0.8562927 0.70789516 0.29938844
000080 6c d0 12 bf 31 21 1f 3f 4f 01 18 bf 54 8c d8 3e
       -0.57349277 0.6216002 -0.59376997 0.42294562
000090 be b4 bd be dd 69 c7 3e 56 e8 b7 bd fb 13 cf be
       -0.37051958 0.38947955 -0.089798614 -0.4044493
0000a0 79 0f bf 3c e2 92 1d bf 46 e8 30 bf a3 6b a3 be
       0.023322808 -0.6155225 -0.6910442 -0.31918058
0000b0 7c f1 a6 be 4f c5 cb 3e f8 f0 af be 22 be 61 bf
       -0.32606113 0.39798972 -0.34363532 -0.88180745
0000c0 d7 f5 fd be ba 86 fe 3d 4c 98 b9 be 25 60 74 3e
       -0.49601623 0.12428041 -0.36249006 0.23864801
0000d0 c5 12 2a 3f fb 75 57 bf 26 23 0b 3f 31 12 69 3f
       0.6643489 -0.841644 0.5435051 0.9104338
0000e0 59 c6 cb be cb 61 4a bf c2 7c 0e bf b3 96 c8 be
       -0.39799765 -0.7905547 -0.55659115 -0.39177474
0000f0 9c 47 0b bf 56 87 17 bf a1 24 0f bf c6 a2 72 be
       -0.5440614 -0.5919088 -0.55915266 -0.23694906
000100 2e 4a a8 be 2c 9f bb be 4b bf 1e bf d3 61 bb bf
       -0.32869095 -0.36644876 -0.6201064 -1.4639229
000110 74 e8 0a bf 03 81 25 bf a8 e6 42 bf b9 b3 12 bf
       -0.54260945 -0.6464998 -0.76133204 -0.57305485
000120 e6 5e b3 be f0 69 18 bf 56 ba 56 bf f5 1b 21 be
       -0.3503334 -0.5953665 -0.83878076 -0.15733321
000130 6f 5c d1 be 4d 9a eb be cb ef 02 bf a5 95 b9 3e
       -0.40890834 -0.4601616 -0.51147145 0.36246982
000140 17 86 3f 3f 45 7d 18 bf 6c 78 2b bf ac b0 bb 3e
       0.7481398 -0.59566146 -0.66980624 0.36658227
000150 35 51 12 bb e4 ac 1a bf 4e 41 ff 3e 95 21 23 bf
       -0.0022326235 -0.6042006 0.4985451 -0.6372312
000160 fb 2b 1f bf 34 52 2e bf 50 44 8d be 3e f8 f5 be
       -0.62176484 -0.6809418 -0.2759118 -0.48040956
000170 83 4c 10 bf 23 93 19 bf 2d 25 35 be 4b 4a 37 bf
       -0.5636675 -0.5999014 -0.17689963 -0.7159774
000180 31 bf 34 bf c0 d5 d1 be a3 c1 2e bf 2e 18 d6 3e
       -0.70604235 -0.4098339 -0.68264216 0.41815323
000190 3e 6d 73 3e 5d 30 33 bd f7 af 57 bf 40 6e eb be
       0.23772141 -0.043747295 -0.84252876 -0.45982552
0001a0 73 f9 3c 3f e6 1b 0d bf b2 75 0d bf a2 90 10 bf
       0.7381813 -0.55120695 -0.55257714 -0.5647069
0001b0 da d0 11 bf a5 ec af be 9f d9 f1 be a0 65 bc bd
       -0.5695931 -0.34360233 -0.47236344 -0.09199071
0001c0 cf a2 35 be c1 b0 07 bf 8a 02 5f bf ae 36 85 be
       -0.17737888 -0.5300408 -0.8711325 -0.2601828
0001d0 d1 3d 3c bf 64 52 37 3f 20 90 d5 be 69 28 9a 3e
       -0.73531824 0.71610093 -0.4171152 0.30108956
0001e0 26 3c 02 bf 79 40 84 be 88 5f 2f 3f 0c db 16 bf
       -0.5087303 -0.2583044 0.68505144 -0.5892799
0001f0 98 06 3f 3f c3 64 13 bf d3 ab 21 bf ea f1 8c 3e
       0.74619436 -0.57575625 -0.6315281 0.27528316
000200 99 f9 57 be 5d bb 11 bf 3c 95 79 bf c9 77 1c bf
       -0.21091308 -0.5692652 -0.9749334 -0.6112028
000210 21 ff 12 bf 44 f8 bc be f0 a9 31 bf 81 9e 08 bf
       -0.57420546 -0.36908162 -0.6939993 -0.5336686
000220 c2 64 05 bf 26 38 af bf 28 04 90 be d0 09 a1 be
       -0.5210687 -1.368901 -0.2812817 -0.314528
000230 1d da 37 3f 37 0d 56 bf a4 c0 61 3f 45 57 06 bf
       0.7181719 -0.83613914 0.8818457 -0.5247691
000240 b4 70 5c 3f d6 e9 01 bf a2 4e 20 3f a8 6e 6a be
       0.8610947 -0.5074743 0.62619984 -0.22893775
000250 53 7e 0f bf b5 31 fb be 88 b0 a9 be 06 3b 24 bf
       -0.5605213 -0.4906136 -0.33142495 -0.6415256
000260 a7 ce 1d bf 1b 2b 28 bf b2 7e 28 3f b7 1e 76 bf
       -0.6164345 -0.65690774 0.6581832 -0.9614062
000270 51 5a be 3e 30 52 14 bf 50 79 e7 be ce 6e 03 bf
       0.3717828 -0.5793791 -0.45209742 -0.5134095
000280 3a c6 cd 3e 66 b2 28 bf 99 a1 3c bf 03 7b f9 be
       0.40190297 -0.65897214 -0.7368408 -0.48726663
000290 3d a7 82 bf 54 35 ab bd e3 07 04 bf 65 6a ec be
       -1.0207287 -0.08359781 -0.51574534 -0.46174923
0002a0 e8 0f a6 be da 97 26 bf 52 86 1b bf c0 e2 26 bf
       -0.3243401 -0.6507546 -0.6075183 -0.65189743
0002b0 88 f2 bf be c3 d4 4e bf fc 9c ef be 08 ce 4d 3f
       -0.37489724 -0.807934 -0.46799457 0.80392504
0002c0 45 3b 3b 3f ad 42 3f bf 2c 0d 4a bf 09 ec 28 bf
       0.73137313 -0.74711114 -0.7892635 -0.6598516
0002d0 b6 58 1c bf 9f 86 1b bf 8f 68 f8 3e 2c 1c b5 be
       -0.6107286 -0.6075229 0.48517272 -0.35373056
0002e0 a9 10 18 bf a5 2e a6 bf 7f a6 39 bd 72 44 b9 bd
       -0.5940042 -1.2982985 -0.0453248 -0.09046258
0002f0 f5 d1 f5 3e 3a 6b 09 be eb 2f 4a bf 75 e9 2b bf
       0.48011747 -0.1341981 -0.78979367 -0.671531
000300 90 eb b8 3e bd b2 25 bf b5 75 14 bf db 59 69 be
       0.3611722 -0.6472586 -0.57992107 -0.22788183
000310 61 c3 3f bf a5 74 2e bf e2 24 a0 3e 71 37 2a bf
       -0.749075 -0.68146735 0.3127814 -0.66490847
000320 6e 03 02 be a7 4b 11 bf 99 f5 f2 be 00 fe 19 bf
       -0.12696621 -0.5675606 -0.47453 -0.601532
000330 e9 30 bf 3e 26 d1 18 bf e1 e2 dd be d2 c3 11 bf
       0.37342003 -0.59694135 -0.43337157 -0.56939423
000340 a1 60 39 bf ff 7b c6 3c 60 38 2f bf 4b 31 e5 be
       -0.7241307 0.024229048 -0.68445396 -0.4476417
000350 ae c6 6a bf c9 9f 39 3f 33 11 0f bf 4d d4 b2 3e
       -0.9170941 0.7250944 -0.5588562 0.34927598
000360 4c e1 37 bf 36 35 60 bf b1 7c 6f bf 08 60 2c be
       -0.7182815 -0.87581193 -0.9354964 -0.16833508
000370 a6 75 4d bf ce 6e 1d bf 76 23 91 3f 5b 5d 3a bf
       -0.8025764 -0.614972 1.1338947 -0.727987
000380 89 54 61 bf a3 5b 6c bf 19 d8 11 bf 69 ff 0c bf
       -0.88019615 -0.92327327 -0.56970364 -0.55077225
000390 ff a9 75 bf 66 20 a9 bc cd ff 4a bf b9 c6 f2 be
       -0.9596252 -0.020645332 -0.7929657 -0.47417238
0003a0 30 54 16 bf 46 88 d5 be 1a 09 8d be e5 03 94 be
       -0.5872221 -0.4170553 -0.27546006 -0.2890922
0003b0 2f 9d a5 bf 89 3e 6c 3e 1f d3 cb be a2 f4 46 3e
       -1.2938594 0.2307073 -0.3980951 0.19429258
0003c0 ea 49 49 bd ac 34 b3 bd d1 9e 14 bf 96 90 fe be
       -0.049142756 -0.08750281 -0.58054835 -0.49719685
0003d0 eb 3d a5 bf 08 bd eb be 81 16 01 3f f0 34 ff be
       -1.2909521 -0.46042657 0.50424963 -0.49845076
0003e0 35 a8 1c be 2b 01 0a bf db c9 ab be 96 e2 77 be
       -0.15298541 -0.5390803 -0.3355244 -0.2420753
0003f0 85 ab 56 bf 78 d6 90 be 20 e2 cc bc b3 1c 6d 3f
       -0.8385547 -0.28288627 -0.025010169 0.92621917

fc3.weight f4 [128, 256]
000000 e9 a9 94 be 21 41 84 3d bb 74 49 3e 44 0d 45 bd
       -0.2903588 0.06457735 0.19673435 -0.048108354
000010 ee 93 35 3f 98 62 06 3f b4 dd bd 3f fb cf 3c be
       0.7092885 0.5249419 1.4833283 -0.18438713
000020 b0 70 7e 3c 22 1f e5 3d 10 3e 00 bf 06 3c e0 be
       0.0155297965 0.11187579 -0.500947 -0.43795794
000030 5d f3 7c bf ed 49 5f bf b6 60 f9 3d e7 08 18 be
       -0.9880884 -0.87222177 0.12176649 -0.14847146
000040 08 45 50 3d e6 52 07 3f 26 20 a6 3e 3f 9e ce bf
       0.050847083 0.5286087 0.32446402 -1.6142043
000050 5f a5 0f 3c 23 26 a3 3f 17 9d 1a 3f 20 df 17 bf
       0.008767455 1.2746013 0.6039595 -0.59324837
000060 06 28 b0 be 5d 5b d2 bc 14 93 6b bf f1 4c bd 3e
       -0.34405535 -0.025678331 -0.920213 0.36972764
000070 c2 ca bb 3e dd ac fd bb 5f 49 fc be 51 24 26 bf
       0.3667813 -0.007741554 -0.49274728 -0.64899164
000080 b0 0c 04 3e fd 9e a9 bf f6 b1 0d 3f 24 df 04 bf
       0.12895465 -1.3251644 0.5534967 -0.51902986
000090 b7 8f b3 3f 11 55 83 bf 3e 02 0d c0 a1 a8 e9 be
       1.4028233 -1.0260335 -2.2032619 -0.45636466
0000a0 28 28 7d bf e6 2f 34 3f f9 76 0d be 81 ae 43 3f
       -0.988894 0.7038559 -0.13814916 0.76438147
0000b0 12 9f 00 3f 87 22 05 bf 7b 67 3e 3f 37 4b bf 3e
       0.5024272 -0.5200581 0.7437665 0.37362072
0000c0 65 b9 fa 3e c9 ab 84 bf 3c cc c2 3d a4 ec 87 be
       0.4896957 -1.0364925 0.09511611 -0.2654773
0000d0 99 16 ba bf 18 12 1c bf 3d d5 58 3f 02 d5 2b bf
       -1.4538146 -0.6096511 0.84700376 -0.671219
0000e0 01 2f 83 3f 67 46 b0 be ba bf dc 3e a2 57 43 3f
       1.024872 -0.34428713 0.43115026 0.7630559
0000f0 d6 24 ae 3b 56 a9 89 be 82 ee 93 3f 7b 0a cc bf
       0.00531445 -0.26887006 1.1557162 -1.5940698
000100 d8 2b 5e c0 00 b6 29 bd 9e 4d 43 be bf 1d 5d bf
       -3.471426 -0.041433334 -0.19072577 -0.86373514
000110 d5 4e 9a 3e 8d fe 89 be ac 66 90 3d 5e 24 52 bd
       0.3013827 -0.2695202 0.07050833 -0.051304214
000120 b5 c0 40 3d e8 7f 31 3e 4b dd 60 3e 35 65 be bf
       0.04705878 0.17333949 0.21959417 -1.4874636
000130 60 da 6f 3f 10 c9 77 3f 34 f3 99 3d 1e bc 62 be
       0.9369259 0.9679117 0.075170904 -0.22142074
000140 2a 0b b5 be 93 46 82 be fa b9 8d bd 8a bc 81 bf
       -0.3536008 -0.2544447 -0.06920238 -1.0135663
000150 95 22 a9 3d 16 48 a9 bd 73 e7 48 bf b4 74 94 be
       0.08258549 -0.082657024 -0.78478163 -0.28995287
000160 58 aa 26 3d 4e 45 f3 be 10 a3 29 3d 51 4c 5e 3e
       0.040689796 -0.47513813 0.041415274 0.217088
000170 ed a2 c8 bd 72 95 3e be 4a 24 1d 3f e5 f6 65 40
       -0.097967006 -0.18611696 0.613835 3.5931942
000180 d8 32 1a bd 43 24 f4 be 1f ad 27 be 53 ee ed bd
       -0.037646145 -0.47683915 -0.16374634 -0.11617722
000190 2b 3a 0c 3f 01 1a 5e bf 84 f9 20 3e 28 08 93 3e
       0.5477626 -0.8675843 0.15720183 0.2871716
0001a0 86 96 02 bf 3e e2 6b bd c2 54 74 3f 63 e1 92 3f
       -0.5101093 -0.05758881 0.9544183 1.1475033
0001b0 8a 6a 2a 3d 2f ef f5 bd 0a 61 dc 3f 26 3e eb bc
       0.04160551 -0.12008511 1.7217114 -0.028716158
0001c0 63 f1 20 3f c3 33 0a be d5 e7 43 3f fb ef c9 3e
       0.62868327 -0.13496308 0.7652562 0.39440903
0001d0 d5 e6 a3 3d 51 55 2c bf fa 1e 85 3e 45 15 82 be
       0.08003012 -0.6731768 0.26000196 -0.25406852
0001e0 46 0e 39 3d c0 7c 87 3d 5d e6 ed be 5f c8 53 3f
       0.045179628 0.06615591 -0.46464816 0.8272762
0001f0 f7 e7 bb be 9e 51 ab be e6 49 0b be 93 e8 29 bf
       -0.36700413 -0.33460706 -0.13602409 -0.66370505
000200 6e 95 de 3e 04 57 64 be cc 53 5e be 95 cd 1c 3d
       0.4347338 -0.22298819 -0.21711653 0.038281996
000210 f8 48 11 3f 7d 68 a8 bf aa cc a0 bf ff 5e d1 be
       0.56751966 -1.3156887 -1.2562459 -0.4089279
000220 f1 23 35 be 24 fa b8 3d 70 e8 84 bc c0 fe 40 bf
       -0.17689492 0.090320855 -0.016224116 -0.7538872
000230 b9 84 9a bf be 2f 10 3e 41 95 43 bf 2f de 41 bf
       -1.2071754 0.14080712 -0.7639962 -0.7572965
000240 46 e0 76 bf d6 c7 6a 3f 31 01 2b bf b5 9f c3 3e
       -0.96435964 0.91711175 -0.6679869 0.38207784
000250 8d cc a6 bc 6f 7e 2d 3e 67 41 67 3e db b4 45 3e
       -0.02036121 0.16942762 0.22583543 0.19307272
000260 24 d5 a8 ba f2 21 d1 3f 65 8c 5b 3e 76 27 b5 3e
       -0.0012880904 1.6338484 0.21440275 0.3538167
000270 79 ef 54 bf 46 f7 b1 3e 26 8a 10 bf 15 f6 bf bc
       -0.83177906 0.34758967 -0.564608 -0.02343277
000280 19 99 e3 bd 5a 32 9e bd 60 a7 01 3f 59 b2 94 bd
       -0.111131854 -0.077244475 0.5064602 -0.072605796
000290 8f f9 29 3f ad d5 88 be 40 4c 93 be b9 72 d1 3c
       0.6639642 -0.26725522 -0.28769112 0.0255674
0002a0 18 df 66 3f 15 7c 13 3d a2 0c 2f bd 06 0d bd bf
       0.90184164 0.036007006 -0.042736657 -1.47696
0002b0 41 74 1a 40 61 a9 a2 bf e0 71 89 bd 39 50 01 bf
       2.4133456 -1.270794 -0.06711173 -0.50513035
0002c0 c5 d9 18 bf 7e 07 90 3e bd ec 84 3e 8e c3 d9 bc
       -0.5970729 0.28130716 0.25961867 -0.026582506
0002d0 d7 3e 9f 3e 60 83 36 3e 7d 02 9b be a5 f0 0f bf
       0.3110263 0.17823553 -0.30275336 -0.5622657
0002e0 54 5e d1 3e 38 c7 d3 bf 17 74 8a be cd af 1f bf
       0.4089228 -1.6545172 -0.27041695 -0.62377626
0002f0 e3 8d d6 be af e6 9c bd 0f 63 f4 bd 2f af 62 be
       -0.41905126 -0.07661187 -0.119329564 -0.2213714
000300 cd 23 1c bf d9 34 e7 be 51 25 90 bf 21 e3 f1 3e
       -0.6099213 -0.45157507 -1.1261388 0.47243598
000310 25 ba 15 3e 9c bf 3f be 40 2d 0d bf ee d5 df bd
       0.1462179 -0.18725437 -0.5514717 -0.10929476
000320 00 e5 24 3f 2d 20 4f bf 27 d8 2b 3d 4d 88 cd 3c
       0.64411926 -0.8090847 0.041954186 0.025089407
000330 dc d8 b4 be 93 5e 51 bf 6b f3 29 bd e6 7b aa 3d
       -0.353217 -0.81784934 -0.041491907 0.08324413
000340 4b b9 91 3f 63 9e 2c 3e 3a c5 86 3e cf 2d 28 3d
       1.1384672 0.16857295 0.26322347 0.04105931
000350 ce fb 03 3f 12 ca 35 bd d5 41 25 bc c1 84 dc 3f
       0.515561 -0.044382162 -0.010086496 1.7228013
000360 b6 b6 50 bd 0f 50 e4 3e 41 2a c9 3e 3c ac 31 3c
       -0.050955497 0.4459233 0.3929005 0.0108442865
000370 f2 e1 0b be 05 4d 0c 3f f7 67 7c bf 18 fb 69 3e
       -0.1366041 0.5480502 -0.9859614 0.22849691
000380 78 0c 16 3f 0d 1e ae 3f d6 40 a1 3d ff dc 2b 3e
       0.58612776 1.3602921 0.078736946 0.16783522
000390 39 40 21 3f 7c b4 70 be 19 0d 81 be d8 63 2f be
       0.6298862 -0.2350635 -0.25205305 -0.17127931
0003a0 b0 53 10 be 8c 13 b3 be 5b d1 51 3f 3d 8e d9 bd
       -0.14094424 -0.3497585 0.81960076 -0.10622833
0003b0 26 c5 18 3f 40 58 5d 3d 48 37 ef be 11 20 64 3f
       0.59675825 0.05403924 -0.46721864 0.8911143
0003c0 0c 1f 3c bf 6f 6c 18 bf ce ad 12 be b8 fd 83 3e
       -0.73484874 -0.59540457 -0.14324114 0.2577951
0003d0 f2 b9 1e 3f c6 72 26 3e 54 74 e8 be b0 12 63 be
       0.6200248 0.1625472 -0.4540125 -0.22175097
0003e0 5d 1f 4a bf 83 64 3e 3d d4 ba b2 3f b3 62 17 3f
       -0.78954107 0.046482574 1.3963265 0.5913498
0003f0 04 7d 7e 3e 60 52 d4 3e ab 92 15 3e 82 af f8 bf
       0.24852377 0.41469097 0.1460673 -1.9428561

fc3.bias f4 [128]
000000 99 ce b7 be bd cb 83 bf 37 72 0f bf b0 86 43 bf
       -0.3589981 -1.0296551 -0.56033653 -0.7637739
000010 64 94 17 bf ad f9 f1 bc 91 c7 2e bf 1f dd 31 bf
       -0.592108 -0.029538 -0.68273264 -0.6947803
000020 d7 32 93 3e 8d d0 22 3f 64 c0 2c 3f e5 e2 77 bf
       0.28749725 0.63599473 0.67481065 -0.9683059
000030 0a 2f 86 bf 60 43 6f bf 49 c4 d2 3e e7 c9 11 bf
       -1.0483105 -0.9346218 0.4116538 -0.56948704
000040 85 08 87 bf 98 91 2e bf 77 2b 0e 3f b7 a2 f9 3e
       -1.0549475 -0.6819091 0.5553507 0.48756954
000050 42 d2 04 3f 8d f0 13 bf df 2a 9e 3f 26 90 4c bf
       0.5188333 -0.57788926 1.2356833 -0.79907453
000060 64 e3 36 be 32 0d 54 bf 29 3e ce be 41 b1 15 bf
       -0.1786018 -0.82832634 -0.402818 -0.58473593
000070 ef bd 6f bf b1 95 e8 be 69 ee f7 be 94 ab 2b be
       -0.9364919 -0.45426705 -0.4842408 -0.1676467
000080 78 b8 e1 be 25 25 99 be 62 ab 7b bf ae 19 72 bc
       -0.4408605 -0.29911152 -0.98308384 -0.01477663
000090 c7 24 03 bf 89 65 ec be a7 b2 1a be cc ef 94 bf
       -0.5122799 -0.46171215 -0.15107213 -1.163568
0000a0 79 46 40 bf a1 50 33 bf 17 9a 09 bf 57 13 97 bf
       -0.7510753 -0.70044905 -0.5375075 -1.1802777
0000b0 70 8c e0 be 89 02 13 bf be dd 89 bf d3 c5 3c bf
       -0.43857145 -0.57425743 -1.0770795 -0.73739356
0000c0 ab 52 5d 3f aa 29 af be 16 92 6c bf b4 ab cc be
       0.86454266 -0.34211475 -0.9241041 -0.3997475
0000d0 e3 71 16 bf 18 2b 32 bf 31 9e 7f bf 7a b5 90 bf
       -0.5876753 -0.69597006 -0.99850756 -1.1305382
0000e0 1a 0f 55 bf 1f f7 44 be 1d fa ef bd f3 97 2c bf
       -0.8322617 -0.19234894 -0.11717627 -0.67419356
0000f0 9c 23 4b be 02 fb 67 bf cd b0 6c 3e 3a eb dc be
       -0.19837803 -0.9061738 0.23114319 -0.43148214
000100 f8 5a 01 bf c1 e0 6a bf 03 ac db be 34 9d 28 3f
       -0.5052943 -0.917492 -0.42904672 0.6586487
000110 b6 3a 8e bf e7 8b 99 3c 6b ba 33 3f 5f e5 b6 be
       -1.1111667 0.018743468 0.70206326 -0.3572187
000120 39 04 11 bf 7c 2b 13 bf 32 70 46 3e df 8f 6f be
       -0.5664707 -0.57488227 0.19378737 -0.23394726
000130 8e ac 2d bf 1e e9 23 bf 30 1c a9 be ea d6 61 bf
       -0.6784142 -0.64027584 -0.33029318 -0.8821856
000140 34 af a7 be f6 60 06 bf 78 c3 57 bf 16 05 19 3f
       -0.32750857 -0.524917 -0.84282637 0.59773386
000150 b6 8a 2c bf 8a 31 d7 be 4e 20 35 3f 2c f4 d2 be
       -0.67399156 -0.42029983 0.7075242 -0.41201913
000160 5b 6e 8c bf b4 fa d9 3e a1 84 12 be 6b e9 5a bf
       -1.0971178 0.42574084 -0.14308406 -0.8551242
000170 cc 47 04 bf f6 a2 1e 3f a9 44 99 bf cc de 35 bf
       -0.51672053 0.6196741 -1.1974078 -0.71043086
000180 b9 21 59 bd e2 bd 23 bf 1e 01 8c bf 83 4e 86 bf
       -0.053010676 -0.63961613 -1.0937841 -1.049271
000190 bd 97 4e bf b1 bc 81 bf fe 90 ab be fa 1c fb 3e
       -0.80700284 -1.0135709 -0.33509058 0.49045545
0001a0 9a 54 4b bf 41 c6 54 3c 39 9a bf be 07 b8 8e 3f
       -0.79425967 0.012986721 -0.3742235 1.1149911
0001b0 46 64 7f bf 5f 0e 1c 3f f5 04 8c be 78 7e 26 bf
       -0.9976238 0.6095943 -0.27347532 -0.65036726
0001c0 34 04 c0 be 25 b3 06 3f 4c 75 ec bc 66 2b 69 bf
       -0.37503207 0.526171 -0.028864525 -0.91081846
0001d0 cf 8b 73 bf 25 0d 50 bf 0d b5 25 3f c8 e3 5f 3e
       -0.95135206 -0.81270057 0.64729387 0.21864235
0001e0 9d d1 ad 3e 70 16 5e 3f df 2f 69 be 24 00 04 3f
       0.33948985 0.86752987 -0.22772168 0.51562715
0001f0 0e 70 5e bf 52 a1 8c 3f 2c ea 80 bf a1 cd 48 bf
       -0.8688973 1.0986731 -1.0071464 -0.78438765

fc4.weight f4 [4, 128]
000000 b4 cd 65 bd e1 8c b3 3d 7c e5 aa c0 2d 3f b1 bd
       -0.056104377 0.08767105 -5.340513 -0.08654628
000010 e6 3f 76 be c3 d0 68 bc 13 49 1f 3f 75 ea fd bd
       -0.24047813 -0.014209929 0.6222088 -0.12398235
000020 2d 38 0a 3e 25 d3 91 3f 34 e7 86 3f b5 fb ec 3e
       0.13497992 1.1392561 1.0539308 0.46285787
000030 51 f1 0a 3e 82 5f ac 3e 7e bf 76 3f a9 67 ad 3f
       0.13568617 0.33666617 0.96385944 1.354726
000040 09 9d ce bd 30 c7 99 3f 79 38 8c 3f 0a 83 93 3f
       -0.10088546 1.2013912 1.0954734 1.1524365
000050 35 1b 7c 3f 71 be 26 3f 20 c3 94 3f 38 86 80 3e
       0.98479015 0.6513434 1.1622047 0.251024
000060 e9 3b 81 3f 7b 9e 99 3f 24 f4 03 3f 2a db 9c 3f
       1.0096408 1.2001489 0.51544404 1.2254384
000070 2c bf 9e bd 97 b5 b6 3f dd e0 22 3f 32 79 ad 3f
       -0.07751307 1.4274167 0.63624364 1.3552611
000080 ec f6 d4 bd c0 f9 08 3f 84 4a 38 be ba 3d 39 3f
       -0.10398659 0.5350609 -0.17997175 0.7235981
000090 66 71 d6 3e 37 7c 87 3f 76 12 a2 3e 0f 37 f4 3e
       0.4188339 1.0584782 0.3165471 0.47698256
0000a0 fa c3 f4 bf 15 2b b0 3e 20 66 95 3f 94 b0 e9 3d
       -1.9122307 0.3440787 1.1671791 0.11410633
0000b0 00 2b c2 3e 85 d1 2f 3f 90 1e 06 be 2f c6 84 3f
       0.3792343 0.68679076 -0.13097596 1.0372981
0000c0 29 72 6f 3f c1 ab aa 3e b2 d8 24 be a4 b4 e3 bf
       0.9353357 0.33334163 -0.16098288 -1.7789502
0000d0 c4 b4 28 3f af 00 46 3f 3b fe 83 3f 9e 1f 00 be
       0.65900826 0.77344793 1.031196 -0.12512061
0000e0 4f d2 94 3f a6 aa 9b 3e fe 2e a5 3f 08 6f 37 bf
       1.1626681 0.30403632 1.2904966 -0.71653795
0000f0 e9 f1 1e 3f 5b 5f 0d 3f 24 dc 08 3f 23 ae 49 3f
       0.62087876 0.55223626 0.5346091 0.78781337
000100 21 5d 24 3f 5e 0b 0c 3f a9 3e 41 c0 9c 77 94 3f
       0.64204603 0.54704845 -3.0194495 1.1599002
000110 3c e0 ec 3e 8b 4f b9 3f 06 0e 8e 3f 72 d0 39 3f
       0.46264827 1.44774 1.109803 0.7258369
000120 53 73 62 3d 42 0a 31 3e 90 ce 62 3f 9f db a2 3f
       0.055285763 0.1728907 0.8859644 1.2723273
000130 5d 87 61 3f e0 56 23 3f 78 96 13 3f 7f b6 35 3f
       0.8809717 0.63804436 0.5765147 0.7098159
000140 76 a4 84 3f 61 b0 4d bf ec bf 4d 3f 9a fc 8d 3f
       1.036269 -0.8034726 0.80370975 1.1092713
000150 87 1c c6 3e fa d8 97 c0 40 96 80 3f ee 4f fd 3e
       0.3869364 -4.7452364 1.0045853 0.49475044
000160 15 ae 05 3e c1 aa 8a 3f 02 cc b5 3f 15 7b 4b 3f
       0.13054688 1.083336 1.4202883 0.79484683
000170 5d d7 b1 3f 2d 3f 8c 3f 6c c0 a2 3f ef b8 56 3f
       1.3893849 1.095678 1.2714972 0.83875936
000180 74 8f 8b 3f 0d 4f 49 3f 88 3c 1d 3f 56 87 5d bd
       1.0903153 0.78636247 0.6142049 -0.054084145
000190 9f 10 f4 3e 33 6f 00 3e 80 65 c1 3e a4 ca 9f 3f
       0.4766893 0.12542419 0.3777275 1.2483716
0001a0 bb c4 a2 3e ec af 5d bf bc f3 82 3e aa 18 b5 3f
       0.31790718 -0.8659656 0.2557658 1.4148152
0001b0 fa 7c 6d 3e 49 a9 8d 3f b0 2e 97 3f 56 29 f8 3e
       0.23192206 1.1067287 1.1811123 0.48469037
0001c0 50 22 35 c0 33 93 82 3f 50 26 f0 be 17 e3 11 3f
       -2.8302193 1.0201172 -0.4690423 0.56987137
0001d0 67 e0 23 3f 65 82 73 3f f5 fd 91 3f 98 7f cb 3f
       0.64014286 0.9512084 1.1405627 1.5898314
0001e0 65 29 9d 3f 52 a5 8e 3f cb 9f c4 3f 7d d6 88 3f
       1.2278258 1.1144202 1.5361265 1.0690457
0001f0 4f ce aa 3e cb 51 ce 3f ed e5 50 be a4 38 20 3f
       0.33360526 1.6118711 -0.2040021 0.62586427
000200 1e 96 57 bd 09 b5 26 3e fa 68 eb c0 03 b2 0e bd
       -0.052633397 0.16279997 -7.3565645 -0.034837734
000210 18 3b 9b 3c ee 9d 72 bd 84 97 1c 3f ba dd 43 bf
       0.018949077 -0.059232645 0.61168694 -0.765102
000220 10 7d 0a 3f 82 2d a3 3f 23 2d 92 3f 70 57 0d 3f
       0.5409708 1.2748263 1.1420025 0.55211544
000230 ae 17 3f be f7 08 db bd c6 0f 8b 3f 5b 04 61 3f
       -0.18661377 -0.10695069 1.0864189 0.8789727
000240 e3 81 9e 3d fb 04 a0 3f 59 5a 8e 3f d4 ad 92 3f
       0.07739618 1.250152 1.1121322 1.1459298
000250 07 90 8e 3f 7b 15 28 3f 90 16 b2 3f 4c b1 b9 3d
       1.1137704 0.65657777 1.3913136 0.0906702
000260 2c d8 7a 3f 9f ec 1b 3f 89 e5 e3 3e e0 c4 9a 3f
       0.979861 0.6090793 0.4451106 1.2091331
000270 27 07 46 3d 32 3e 35 3f 67 23 1b 3f f4 e2 c6 3f
       0.048346665 0.7079803 0.60600895 1.5538011
000280 1f e5 6b 3e 15 2a 18 3f 03 5e 90 3e 4a 7e 46 3f
       0.23036622 0.5943921 0.28196725 0.7753645
000290 c2 48 50 3f 07 f0 80 3f 23 81 fd 3e 74 8f 29 be
       0.8136102 1.007325 0.49512586 -0.1655863
0002a0 d1 b0 8b c0 6b 14 85 3f 36 90 cb be 6e 68 16 3e
       -4.365334 1.0396856 -0.39758462 0.14688274
0002b0 53 40 02 3f ac 24 e2 3e 87 53 be 3d 7b 7e 39 3f
       0.508794 0.44168603 0.09293275 0.7245862
0002c0 de af 8c 3f 42 f7 cd 3e 96 25 09 bc 63 19 05 3f
       1.099117 0.40227705 -0.008370778 0.5199186
0002d0 2d 6c e3 3e d6 3e b7 3e 2c 49 52 3f f1 4c ba bf
       0.4441847 0.35790128 0.821429 -1.4554731
0002e0 77 dc 3c 3f 7a c3 f7 3b e4 ae 8a 3f ff 0c 38 bf
       0.737739 0.0075611444 1.0834622 -0.7189483
0002f0 e9 68 f4 3e 28 d1 75 3f 82 e7 24 be 6f 78 0d 3f
       0.4773629 0.9602227 -0.16103938 0.5526189
000300 f8 54 1e 3f 1e f4 e8 3e c2 f0 46 c0 55 7d 8c 3f
       0.618484 0.45498747 -3.1084447 1.0975748
000310 ac bd 69 3f 4f dd 73 3f b9 2b 92 3f 6e fa 37 3f
       0.9130504 0.95259565 1.1419593 0.718665
000320 95 28 3b 3f 41 33 b0 3d e0 4d 59 3f f5 ee c4 3f
       0.731088 0.08603526 0.8488445 1.5385424
000330 4c 89 5a be ee 59 61 3f 83 4c 6e 3f 68 82 03 3f
       -0.21341437 0.88027847 0.930855 0.5137086
000340 f7 86 ac 3f 1c 60 e8 3e 13 12 18 3f d4 7e 8d 3f
       1.3478688 0.45385826 0.5940258 1.105433
000350 e3 ae 15 3f e1 a8 8f c0 c4 d7 9a 3f 56 8c 43 3f
       0.5846998 -4.489365 1.2097096 0.7638601
000360 17 32 c0 3d 19 5f 95 3f 32 c9 b9 3f 88 f3 7c 3f
       0.09384554 1.1669647 1.4514525 0.988091
000370 31 87 81 3f ce ca 8c 3f cb 1c 60 3f 88 98 48 3f
       1.0119382 1.0999391 0.87543935 0.78357744
000380 20 c2 0f 3f 2f 75 07 3f a6 d5 89 3f db 01 89 bf
       0.56155586 0.5291318 1.0768325 -1.0703691
000390 64 68 49 3f a4 00 f4 3c fa 7d 32 3f 6b fe a5 3f
       0.7867491 0.029785462 0.69723475 1.2968267
0003a0 76 5b 4d 3f 47 06 25 be 83 ad 25 3f 62 b9 b2 3f
       0.80217683 -0.16115676 0.6471788 1.3962824
0003b0 86 cb 94 be 28 a1 8e 3f 50 2c 19 3f 35 51 b4 3f
       -0.29061526 1.1142931 0.5983324 1.4087282
0003c0 44 b1 37 c0 af 39 8c 3f a2 db c3 3b 78 f0 8b 3f
       -2.8701944 1.0955104 0.00597711 1.093276
0003d0 32 1d 10 3f 6e 21 a1 3f 62 44 91 3f 1b ae da 3f
       0.5629455 1.2588327 1.1348994 1.7084383
0003e0 b7 24 35 3f 0e 04 90 3f 9d 38 59 3f cf 57 8c 3f
       0.7075915 1.1251237 0.8485201 1.0964297
0003f0 58 8e 18 3f 0b fa d7 3f 48 f4 9e 3f 88 53 05 3d
       0.595922 1.6873182 1.2418299 0.032550365

fc4.bias f4 [4]
000000 f3 fb 9d 3f ca 24 95 3f 67 7e 92 3f 2f ed 96 3f
       1.2342514 1.1651852 1.1444825 1.1791133
