trained_models/checkpoint_ep7700.pth (torch, 416160 bytes, 14 tensors)

fc1.weight f4 [256, 8]
0.2182711 -0.11292214 0.60210824 0.2782446 0.34596375 -0.057042304 -1.0912406 0.2873713
0.20331067 -0.15379871 0.49491727 1.0897332 0.1040055 -0.0584608 -0.87617034 0.08439283
0.15730911 -0.16846292 1.0181624 -0.008324295 0.25549224 0.4293133 -1.0688335 0.15241784
0.13013002 -0.07201767 0.4091465 1.0464051 0.08177739 -0.21871683 -0.8502319 0.06703638
0.24890234 -0.11587205 0.6155862 0.4073524 0.21746683 -0.046284247 -1.0716441 0.37479916
1.0683964 0.62675905 0.6248272 0.10328695 0.6482513 -1.1991605 0.6065013 0.71484524
0.26696518 -0.04191478 0.8938498 -0.43350723 0.34594804 0.15624554 -1.1872176 0.21937117
0.13443616 -0.037136476 0.4331583 0.7059206 0.15241623 -0.26533797 -0.9598076 0.22904503
0.41964847 -0.17381203 -0.014591151 -0.15737508 -0.083755665 -0.41260025 -0.37931144 -0.100047
0.31433794 -0.018542377 0.4832868 0.40297177 0.19520809 -0.1210719 -0.98155814 0.018326845
1.0871361 0.550616 0.06373102 0.36936483 0.5477308 -1.5807809 0.648495 0.4775972
0.058726396 -0.016970359 0.42740437 0.52323586 0.12213476 -0.24574648 -0.89942133 0.08188083
0.23676945 -0.05640669 0.92501175 -0.16421156 0.45887184 0.22155923 -1.277875 0.4380588
-0.018656392 -0.29865026 0.00886483 -0.5814898 -0.22611372 -0.8403628 0.017390428 -0.25570324
-0.27431664 -0.16018319 0.91090494 -0.09983247 -0.10118706 0.21474168 -0.65765584 -0.050898667
-0.14630577 -0.385946 -0.19119298 1.4234157 -0.21357507 -0.9409596 0.07387709 -0.20154524
0.1663645 -0.08707214 0.7834841 0.44624808 0.20575476 0.21026202 -1.0511861 0.23652734
1.041476 0.26800728 0.26226175 0.8596826 0.3369019 -1.8533362 -0.4545096 0.3890377
1.526762 -0.050159097 0.6312295 -0.8877007 0.6087806 0.066589884 -1.6618409 0.53834134
0.39486402 -0.12552074 0.45020816 -0.011317243 0.111986175 -0.032877393 -0.9159958 0.23019601
0.09102517 -0.041567557 0.8285134 0.8448459 0.23815134 0.12822555 -1.1189986 0.1793111
0.07269361 -0.14304073 0.5040824 0.75223374 -0.019530104 -0.06915784 -0.7370844 0.05189336
0.19456014 -0.113507554 0.6954885 0.9044407 0.34654891 0.015886258 -1.1541132 0.35114327
0.03362076 -0.018754141 0.40907297 1.177952 0.1498489 -0.30774918 -0.92513466 0.11556458
0.6245094 -0.1625692 -1.1998798 0.7862066 -0.15337941 -0.95883995 0.105660506 -0.12910473
-0.16543849 -0.07716946 -2.3195646 -1.3144555 -0.21756758 1.6725103 -0.23395407 -0.27708897
-0.20336054 -0.42505386 0.34346333 -0.5116184 -0.3827717 -0.6439778 0.17398721 -0.37472612
0.4246831 -0.45107025 -1.2803752 0.78784484 -0.4727842 -1.4796368 0.7212459 -0.44941294
0.104172766 -0.10242293 0.6140067 0.65137815 0.30101377 -0.09901852 -1.0861282 0.3130677
0.24062954 -0.059172526 0.67650944 0.51673526 0.2398259 0.045777705 -1.0895035 0.24085511
0.28696543 -0.040907197 0.73763293 0.40685233 0.2022007 0.10785694 -1.152113 0.3625232
0.22489104 -0.07592582 0.38072756 0.5872125 0.14485654 -0.273283 -0.92293364 0.22272858
00000000: 7682 5f3e b943 e7bd c423 1a3f 1476 8e3e
00000010: 2922 b13e 31a5 69bd c6ad 8bbf 5522 933e
00000020: ac30 503e 697d 1dbe cc65 fd3e 617c 8b3f
00000030: d600 d53d 9874 6fbd b34c 60bf 26d6 ac3d
00000040: a415 213e 8b81 2cbe 2553 823f a062 08bc
00000050: e1cf 823e f4ce db3e 89cf 88bf 6c13 1c3e
00000060: ce40 053e 007e 93bd a67b d13e 9af0 853f
00000070: e77a a73d 4ef7 5fbe cca8 59bf 5f4a 893d
00000080: 41e0 7e3e 534e edbd 0f97 1d3f 7e90 d03e
00000090: a0af 5e3e 8d94 3dbd a22b 89bf ade5 bf3e
000000a0: 37c1 883f 4873 203f adf4 1f3f 1c88 d33d
000000b0: ccf3 253f 177e 99bf ab43 1b3f 1900 373f
000000c0: a9af 883e d5ae 2bbd 57d3 643f a9f4 ddbe
000000d0: 1a20 b13e d5fe 1f3e bff6 97bf d6a2 603e
000000e0: a2a9 093e 6b1c 18bd edc6 dd3e 36b7 343f
000000f0: 0013 1c3e 61da 87be f3b5 75bf c88a 6a3e
00000100: 2adc d63e c8fb 31be b90f 6fbc ef26 21be
00000110: 1788 abbd 5740 d3be 1c35 c2be 71e5 ccbd
00000120: e7f0 a03e 2fe6 97bc 5e71 f73e 5152 ce3e
00000130: a1e4 473e 8bf4 f7bd 6547 7bbf 2e22 963c
00000140: 4727 8b3f 2cf5 0c3f 6985 823d 631d bd3e
00000150: 1638 0c3f 0757 cabf c503 263f 9f87 f43e
00000160: 178b 703d 6c05 8bbc bfd4 da3e c9f2 053f
00000170: ca21 fa3d f7a4 7bbe 7a40 66bf 23b1 a73d
00000180: b173 723e b40a 67bd 92cd 6c3f 1327 28be
00000190: 40f1 ea3e 6ce0 623e 6891 a3bf 3e49 e03e
000001a0: 4ad5 98bc b0e8 98be cb3d 113c 84dc 14bf
000001b0: 5b8a 67be 0422 57bf 5f76 8e3c 89eb 82be
000001c0: 3b73 8cbe 1007 24be 1131 693f f774 ccbd
000001d0: 293b cfbd 3ee5 5b3e 225c 28bf 1f7b 50bd
000001e0: 2ed1 15be b79a c5be 18c8 43be 7c32 b63f
000001f0: 6cb3 5abe bae2 70bf df4c 973d e061 4ebe
00000200: 755b 2a3e e152 b2bd 6a92 483f a17a e43e
00000210: 60b1 523e ed4e 573e 448d 86bf 3934 723e
00000220: 164f 853f 4038 893e 2c47 863e 2914 5c3f
00000230: 687e ac3e 1f3a edbf 7bb5 e8be f32f c73e
00000240: f06c c33f a073 4dbd 4298 213f 5a40 63bf
00000250: 0cd9 1b3f 4760 883d 34b7 d4bf bdd0 093f
00000260: 9e2b ca3e 8288 00be af81 e63e f56b 39bc
00000270: 0259 e53d 72aa 06bd b37e 6abf 81b8 6b3e
00000280: 686b ba3d be42 2abd 7419 543f d247 583f
00000290: f2dd 733e 8f4d 033e 593b 8fbf 549d 373e
000002a0: 63e0 943d 4579 12be 8b0b 013f 6492 403f
000002b0: 99fd 9fbc a0a2 8dbd 90b1 3cbf 228e 543d
000002c0: c63a 473e a676 e8bd 890b 323f 6d89 673f
000002d0: dc6e b13e e623 823c fbb9 93bf 0dc9 b33e
000002e0: ecb5 093d 49a2 99bc 0372 d13e 22c7 963f
000002f0: fd71 193e 4d91 9dbe a0d5 6cbf 1fad ec3d
00000300: d9df 1f3f 8a78 26be a995 99bf d644 493f
00000310: 7e0f 1dbe 8976 75bf 8964 d83d 0834 04be
00000320: b568 29be 060b 9ebd bf73 14c0 1440 a8bf
00000330: 09ca 5ebe d114 d63f a891 6fbe 9bde 8dbe
00000340: bf3d 50be a9a0 d9be 6dda af3e 6cf9 02bf
00000350: a7fa c3be bbdb 24bf b429 323e 1adc bfbe
00000360: 1070 d93e aef2 e6be 56e3 a3bf 33b0 493f
00000370: c510 f2be bd64 bdbf 92a3 383f 7419 e6be
00000380: 8858 d53d 1dc3 d1bd 8b2f 1d3f b8c0 263f
00000390: 7a1e 9a3e 39ca cabd 4006 8bbf 694a a03e
000003a0: 9767 763e e45e 72bd b92f 2d3f c348 043f
000003b0: ec94 753e 6781 3b3d da74 8bbf b9a2 763e
000003c0: 22ed 923e 4e8e 27bd 83d5 3c3f f34e d03e
000003d0: b30d 4f3e 19e4 dc3d 7078 93bf a49c b93e
000003e0: d649 663e ff7e 9bbd b9ee c23e 8f53 163f
000003f0: 4655 143e c0eb 8bbe 6145 6cbf f612 643e

fc1.bias f4 [256]
0.25736567 0.12359409 0.20819782 0.1035237 0.2764851 0.66792804 0.3097337 0.16515057
-0.0711565 0.15800016 0.53096485 0.13836397 0.32670522 -0.2656465 -0.10513328 -0.24314523
0.17765614 0.43204996 0.5561812 0.18473245 0.21373703 0.04418202 0.2633031 0.1293986
-0.13492368 -0.18433441 -0.40208545 -0.46080792 0.25231126 0.23107499 0.3192677 0.15645406
0.11928457 0.1755208 0.19602509 0.112378426 0.45913315 0.32782823 0.19764535 0.19274388
0.28234524 -0.15644129 0.2338072 0.1497621 0.035114802 -0.39846614 0.30068162 0.28694585
0.15095904 0.021330219 0.29339373 0.17603742 -0.48599148 0.20111442 0.36222014 0.19967
0.08284142 0.18493448 0.18364452 0.16244535 0.30007842 0.81210893 0.51054794 -0.32782835
0.21251707 -0.24028328 0.06070618 -0.13501391 0.01743328 0.23980267 0.21577138 0.31040323
-0.5333377 0.44614825 0.2239201 0.31455073 0.17191772 0.1807728 -0.015424581 0.24667524
-0.38939965 0.2468576 -0.23374552 0.19365646 -0.5882961 0.19328727 -0.39696804 0.16169588
0.26961488 0.21301599 0.21674745 -0.21207006 0.18456317 0.22732776 0.1810211 0.574573
0.019948106 -0.002211419 0.17537001 -0.3900669 -0.32374287 0.08456306 0.16475147 0.34149536
0.26596335 0.21234016 0.15451053 0.29553166 0.24273089 -0.053007793 0.16096783 0.25640777
0.13108958 0.14326204 0.06952459 0.5730665 -0.30279216 0.28518558 0.2859853 -0.095775485
0.25872156 0.31563047 0.26994205 0.48668265 0.29861122 0.19216152 0.20083728 -0.40754014
0.32959494 0.2800499 0.3827636 -0.028308133 0.03750354 0.30011612 0.3091294 0.27897644
-0.15887643 0.00087033317 -0.050693773 -0.018736633 0.19614637 0.19120899 0.20369701 0.26053745
0.1963463 0.16902606 0.16083094 -0.13436265 0.14592092 0.15143253 0.20552664 0.13090248
0.31740448 0.28146547 0.2823573 0.1654092 0.18255468 -0.56042004 0.19719855 0.21879649
0.27114716 0.20316939 -0.28696454 0.22082892 -0.20908763 0.29383203 0.1310266 0.30980262
0.2772565 0.00608668 0.1947529 0.12636591 -0.1679179 -0.43604898 -0.17260472 0.24770035
0.110593975 0.1590881 -0.095225945 -0.1505034 0.16585152 0.12880716 -0.23285232 0.13674346
0.21730387 0.18517014 0.59123266 0.18468477 0.02969193 0.21988538 0.24358109 0.21792953
0.021351809 0.24986257 0.18709159 0.18468371 0.21648782 0.21346222 -0.37631312 0.14110097
0.28742498 0.16217227 0.080879934 0.17811327 -0.32527313 0.21035911 -0.46960613 0.5385447
0.123210676 0.1367666 0.20555617 0.3053761 -0.5897016 0.04738037 0.23226894 0.40760615
-0.33452243 -0.20963961 0.123043746 0.1633866 0.21763852 0.20764828 0.1183665 0.00012194154
-0.0811073 0.23179914 -0.16929159 0.20303579 0.19302915 -0.52939785 0.22848663 0.23740426
0.23695478 0.51116604 0.2846594 0.1650396 0.19608246 0.2727592 0.30531412 -0.6740698
0.25254735 0.10023548 0.16462205 0.1915675 -0.16239718 0.24544993 0.30759212 0.24147552
-0.04505532 -0.2184297 -0.2199006 -0.028190332 0.26010928 0.03474286 0.272534 0.24947418
00000000: 6fc5 833e e61e fd3d cf31 553e 3c04 d43d
00000010: 748f 8d3e 55fd 2a3f 6a95 9e3e 3b1d 293e
00000020: 80ba 91bd cbca 213e 50ed 073f 49af 0d3e
00000030: e845 a73e d102 88be 1e50 d7bd 10fb 78be
00000040: 7eeb 353e a735 dd3e e461 0e3f 812a 3d3e
00000050: e1dd 5a3e 35f8 343d aacf 863e 1181 043e
00000060: 6f29 0abe 29c2 3cbe 25de cdbe 04ef ebbe
00000070: f12e 813e ec9e 6c3e 0e77 a33e 7e35 203e
00000080: 784b f43d b9bb 333e cdba 483e a926 e63d
00000090: 8013 eb3e 1ad9 a73e 8b63 4a3e a75e 453e
000000a0: 8e8f 903e 2532 20be 286b 6f3e 3c5b 193e
000000b0: 8ad4 0f3d c103 ccbe f1f2 993e 91ea 923e
000000c0: 0295 1a3e b6bc ae3c b437 963e 2743 343e
000000d0: e0d3 f8be f0f0 4d3e eb74 b93e 4b76 4c3e
000000e0: c3a8 a93d 775f 3d3e 4f0d 3c3e 1358 263e
000000f0: e1a3 993e 5fe6 4f3f 45b3 023f 1ed9 a7be
00000100: 139e 593e d20c 76be 0ba7 783d 1641 0abe
00000110: 3dd0 8e3c d58e 753e 2cf3 5c3e 2ced 9e3e
00000120: d288 08bf 8b6d e43e 504b 653e cb0c a13e
00000130: 330b 303e 811c 393e 62b7 7cbc 6f98 7c3e
00000140: 645f c7be 3dc8 7c3e fc5a 6fbe e14d 463e
00000150: 939a 16bf 19ed 453e 653f cbbe 9b93 253e
00000160: f60a 8a3e dd20 5a3e 0bf3 5d3e e528 59be
00000170: 21fe 3c3e 9cc8 683e 985d 393e 3717 133f
00000180: 366a a33c 74ed 10bb 3294 333e d9b6 c7be
00000190: a0c1 a5be 662f ad3d 9cb4 283e 7bd8 ae3e
000001a0: 592c 883e b36f 593e 0238 1e3e ed4f 973e
000001b0: 728e 783e b31e 59bd c0d4 243e e147 833e
000001c0: 593c 063e 49b3 123e e962 8e3d 7cb4 123f
000001d0: 9307 9bbe d803 923e aa6c 923e f025 c4bd
000001e0: 2777 843e 519a a13e d835 8a3e 782e f93e
000001f0: 92e3 983e fdc5 443e 4aa8 4d3e 1aa9 d0be
00000200: abc0 a83e b362 8f3e 97f9 c33e 75e6 e7bc
00000210: 509d 193d d2a8 993e 3546 9e3e 00d6 8e3e
00000220: 81b0 22be 1227 643a 46a4 4fbd 917d 99bc
00000230: 98da 483e 4acc 433e f395 503e 2a65 853e
00000240: 010f 493e 2b15 2d3e deb0 243e 5d96 09be
00000250: 4b6c 153e 2111 1b3e 9375 523e 4d0b 063e
00000260: d782 a23e 3e1c 903e 2391 903e 0861 293e
00000270: 9def 3a3e b077 0fbf 6bee 493e 300c 603e
00000280: cdd3 8a3e a30b 503e 04ed 92be fa20 623e
00000290: 111b 56be 2771 963e d62b 063e 739e 9e3e
000002a0: 90f4 8d3e c672 c73b 4e6d 473e 1166 013e
000002b0: acf2 2bbe d041 dfbe 4bbf 30be 29a5 7d3e
000002c0: 187f e23d fee7 223e d205 c3bd 901d 1abe
000002d0: fbd4 293e 06e6 033e d770 6ebe 7a06 0c3e
000002e0: e884 5e3e 3e9d 3d3e 065b 173f 011e 3d3e
000002f0: 7e3c f33c a229 613e 526d 793e eb28 5f3e
00000300: fde9 ae3c f9db 7f3e f094 3f3e ba1d 3d3e
00000310: fcae 5d3e d795 5a3e 1dac c0be c67c 103e
00000320: 5e29 933e 7d10 263e 61a4 a53d 5363 363e
00000330: 338a a6be 6168 573e 3770 f0be 11de 093f
00000340: e155 fc3d 8b0c 0c3e 517d 523e 425a 9c3e
00000350: aff6 16bf eb11 423d e9d7 6d3e c1b1 d03e
00000360: 8646 abbe c4ab 56be 5cfe fb3d d14e 273e
00000370: a2dc 5e3e c0a1 543e 236a f23d deba ff38
00000380: 961b a6bd c15c 6d3e c65a 2dbe 9de8 4f3e
00000390: 6fa9 453e 9e86 07bf 66f8 693e 1a1a 733e
000003a0: 46a4 723e c7db 023f e0be 913e 2400 293e
000003b0: d7c9 483e 18a7 8b3e 2252 9c3e d78f 2cbf
000003c0: e34d 813e 4248 cd3d af92 283e 452a 443e
000003d0: 724b 26be 3a57 7b3e b77c 9d3e 5c45 773e
000003e0: ed8b 38bd 09ac 5fbe 9f2d 61be 69ef e6bc
000003f0: 0b2d 853e 874e 0e3d 9489 8b3e 2976 7f3e

fc2.weight f4 [256, 256]
-0.0870493 -0.008813044 0.011729299 0.04003218 -0.0001120832 -0.9574698 -0.3737285 0.17621472
0.048953667 0.20937699 -0.805985 0.18102632 0.059259966 0.4070138 0.9533045 0.3012732
-0.010797619 0.13174976 -0.14446531 -0.033144258 0.13998917 0.69360363 0.2502825 0.24065936
0.22809476 -0.632787 -0.43368697 0.114416525 0.015633998 0.04662316 0.09674633 -0.041315876
-0.08356589 -0.017940514 -0.045751523 0.002387013 0.6563373 0.2704848 0.29041666 0.12107988
0.0960092 -0.1163361 0.38590616 0.14767846 0.55914915 0.44578025 0.010820245 0.056031685
-0.05050889 -0.07837414 0.109456114 0.299018 0.2140693 0.11743694 0.17802216 -0.048095193
-0.063861676 0.08414753 0.17998911 -0.031234458 0.6729206 -0.4736163 0.16108969 0.7363408
-0.002866697 0.31207454 1.1700695 0.12116573 -0.21550287 0.060336087 0.20511098 0.25333107
-0.0026437694 0.9813742 0.014976522 0.45435622 0.034752797 0.18211737 0.48312372 -0.06993467
-0.6189468 -0.009843238 1.2987272 0.33078158 -0.31124946 0.24393085 0.36098665 0.14866471
-0.018512687 0.15896653 0.13017812 0.74846 -0.015335564 0.10771452 0.19973749 0.25699463
0.25597835 -0.22663553 0.42602342 0.0018165879 0.63874346 0.27501506 -0.11161435 0.701264
0.08915 0.078898005 0.2620285 0.092503384 -0.19026451 -0.20464362 -0.17004673 0.1732093
0.13705993 -0.14886653 0.077304035 -0.85947305 0.63570905 0.73924965 0.24034835 -0.23120986
0.13579921 0.06443899 0.019298272 2.4138079 0.11802764 -0.14359513 -0.22994122 -1.4603639e-05
0.6774128 -0.027660318 0.61559606 -0.021227032 0.5901092 0.15040603 0.097548865 -0.04605962
2.2253246 0.3910848 0.20743169 0.14096925 -0.031870425 -0.0379071 0.065809175 0.13672173
0.120322846 0.040929914 -0.09557642 -0.72321 0.13260934 0.107190825 0.063461386 0.124668665
0.13468313 -0.20116274 0.043046653 0.032751102 0.014158687 -0.07840966 0.19714324 0.2507938
0.09064911 0.37122145 0.4115163 0.07528307 0.2714975 0.034212586 0.06772121 0.1754308
0.19719496 0.42580065 -0.18049625 0.07569647 0.5198689 0.5241739 0.4518607 0.14954881
0.12996739 0.036148306 0.15595639 0.3619374 0.0748379 -0.102849044 0.5111329 -0.026731716
-0.11500565 -0.086863674 0.61279744 0.25013736 0.0011538395 -0.036447514 0.08400077 0.06302145
0.18910371 0.121462636 0.04988949 0.042764805 0.3762683 0.16778718 -0.39104092 0.39255592
0.19833879 0.041080467 -0.058875028 0.074881874 0.42989916 0.43471104 0.11677156 0.43885323
0.10568794 0.04626393 0.08242243 0.22076502 0.76430035 0.5179788 -0.08428789 0.32563356
-0.021248817 0.13731013 0.57630634 0.4939152 0.6303625 0.21528931 0.3633774 0.3044861
0.83006316 -0.06397528 -0.35889137 -0.11958652 0.78391975 -0.09914964 0.07350754 0.046137515
0.19665952 1.0182564 0.091229014 0.6491399 0.081339225 0.0224885 -0.050988864 -0.22369193
0.339464 0.05279721 0.25924885 -0.028464817 0.4400619 0.10716777 0.26908395 0.011442989
0.09607987 0.43304193 1.1962429 0.115344465 -0.14778583 -0.035484396 0.11769846 0.055394117
00000000: e746 b2bd 9664 10bc 3f2c 403c c8f8 233d
00000010: 360e ebb8 be1c 75bf 5859 bfbe a271 343e
00000020: a483 483d ec66 563e 0855 4ebf f75e 393e
00000030: 94ba 723d 1d64 d03e c40b 743f 7b40 9a3e
00000040: 7fe8 30bc 69e9 063e b7ee 13be 46c2 07bd
00000050: 5259 0f3e 0290 313f 0725 803e 686f 763e
00000060: ac91 693e 54fe 21bf 380c debe 3653 ea3d
00000070: df12 803c edf7 3e3d f122 c63d d63a 29bd
00000080: 9824 abbd fcf7 92bc f365 3bbd 6f6f 1c3b
00000090: b905 283f fc7c 8a3e 7eb1 943e baf8 f73d
000000a0: 79a0 c43d 9f41 eebd 7e95 c53e 0639 173e
000000b0: 6624 0f3f 4f3d e43e 6647 313c 7b81 653d
000000c0: 69e2 4ebd 9f82 a0bd 872a e03d e318 993e
000000d0: fc34 5b3e c782 f03d 714b 363e 77ff 44bd
000000e0: e9c9 82bd 8a55 ac3d 114f 383e 68df ffbc
000000f0: 8644 2c3f d67d f2be b2f4 243e d580 3c3f
00000100: 32df 3bbb 3cc8 9f3e d6c4 953f bd25 f83d
00000110: c9ac 5cbe f922 773d 9d08 523e 9cb4 813e
00000120: 1743 2dbb 573b 7b3f 1660 753c 61a1 e83e
00000130: f358 0e3d fa7c 3a3e fe5b f73e e939 8fbd
00000140: 4c73 1ebf 8845 21bc b13c a63f 345c a93e
00000150: 175c 9fbe 02c9 793e 3ed3 b83e 903b 183e
00000160: eba7 97bc 1fc8 223e 6a4d 053e 139b 3f3f
00000170: 0442 7bbc 6e99 dc3d fc87 4c3e cd94 833e
00000180: 980f 833e 2513 68be be1f da3e 931a ee3a
00000190: b184 233f c6ce 8c3e 1096 e4bd 0a86 333f
000001a0: 4694 b63d 4795 a13d 9928 863e 6a72 bd3d
000001b0: b3d4 42be 198e 51be bb20 2ebe c75d 313e
000001c0: 7059 0c3e 7870 18be 9451 9e3d 6d06 5cbf
000001d0: d4bd 223f 773f 3d3f e11d 763e 47c2 6cbe
000001e0: f30e 0b3e 97f8 833d 6917 9e3c d47b 1a40
000001f0: 7ab8 f13d 9a0a 13be b675 6bbe 2702 75b7
00000200: ed6a 2d3f e497 e2bc b497 1d3f 50e4 adbc
00000210: 6611 173f 0a04 1a3e b3c7 c73d 03a9 3cbd
00000220: b86b 0e40 443c c83e f968 543e 3e5a 103e
00000230: 908a 02bd 7a44 1bbd f6c6 863d c800 0c3e
00000240: d36b f63d 20a6 273d 92bd c3bd 4a24 39bf
00000250: beca 073e dd86 db3d 0bf8 813d 4952 ff3d
00000260: 60ea 093e 9bfd 4dbe b051 303d 0526 063d
00000270: d6f9 673c 3e95 a0bd ebdf 493e 0c68 803e
00000280: 3ea6 b93d bd10 be3e 44b2 d23e 032e 9a3d
00000290: b801 8b3e 7f22 0c3d 6bb1 8a3d 22a4 333e
000002a0: 7aed 493e 8b02 da3e 02d4 38be c006 9b3d
000002b0: 2116 053f 4330 063f 495a e73e 5323 193e
000002c0: 2c16 053e 3f10 143d 08b3 1f3e dc4f b93e
000002d0: 9d44 993d 85a2 d2bd 9bd9 023f 79fc dabc
000002e0: 1588 ebbd 95e5 b1bd 4be0 1c3f 0112 803e
000002f0: 6e3c 973a fd49 15bd 9808 ac3d 6411 813d
00000300: 67a4 413e 67c1 f83d ec58 4c3d 262a 2f3d
00000310: 3da6 c03e 67d0 2b3e 8436 c8be 17fd c83e
00000320: 5319 4b3e fe43 283d f126 71bd ab5b 993d
00000330: be1b dc3e 7292 de3e ed25 ef3d 5fb1 e03e
00000340: eb72 d83d 3f7f 3d3d 17cd a83d 3a10 623e
00000350: 30a9 433f 429a 043f 219f acbd 71b9 a63e
00000360: 0012 aebc 079b 0c3e d088 133f 74e2 fc3e
00000370: 705f 213f cd74 5c3e 9a0c ba3e 9ae5 9b3e
00000380: 057f 543f 7905 83bd 9cc0 b7be c7e9 f4bd
00000390: f7ae 483f f70e cbbd 1f8b 963d b1fa 3c3d
000003a0: 1d61 493e 3a56 823f 47d6 ba3d 082e 263f
000003b0: 2e95 a63d ce39 b83c b3d9 50bd 7f0f 65be
000003c0: 3ace ad3e e341 583d 44bc 843e 0c2f e9bc
000003d0: cb4f e13e c77a db3d 5fc5 893e 607b 3b3c
000003e0: 86c5 c43d acb7 dd3e 7d1e 993f b839 ec3d
000003f0: 2b55 17be 1658 11bd e40b f13d f1e4 623d

fc2.bias f4 [256]
-0.620423 -0.724183 -0.6593508 -0.93883497 -1.3409805 -1.2594446 -0.75685656 0.18864456
-0.6396885 -0.718706 0.6100388 0.6888904 0.985024 0.8704422 -0.73965865 -0.7633723
-0.49875394 -0.2482519 -0.7248142 -0.12234325 -1.0975772 -0.23343135 -0.70541626 0.81219274
0.44658747 -0.6415348 1.6204611 -0.35683954 -0.43696135 -0.8857634 0.745732 0.3444323
-0.6001468 0.6713088 -0.6267223 0.45702088 -0.39422464 0.32400092 -0.092337005 -0.41768855
0.16516022 -0.6685224 -0.7172557 -0.350146 -0.38491443 0.46021074 -0.33202875 -0.9122502
-0.54315156 0.16329017 -0.475285 0.2650944 0.6989293 -0.8741615 0.48551744 0.9461015
-0.4230205 -0.81425667 -0.58007956 -0.4117985 -0.5684208 -0.6183189 -0.53514546 -0.28325307
-0.35378376 -0.38872492 -0.64779556 -1.4834037 -0.5795672 -0.67123145 -0.7901995 -0.5986888
-0.34500426 -0.6190862 -0.85927606 -0.18694295 -0.45013523 -0.4873262 -0.5368632 0.37522483
0.784523 -0.6201416 -0.6977188 0.31667805 0.036185417 -0.631867 0.51275545 -0.66248953
-0.647567 -0.7091268 -0.31024778 -0.5038758 -0.5880627 -0.6257142 -0.21023348 -0.73991925
-0.73600805 -0.45675585 -0.7089064 0.46693113 0.27746874 -0.17258158 -0.8689317 -0.48528692
0.77373064 -0.5747984 -0.56569344 -0.64326775 -0.5945715 -0.39471883 -0.50478303 -0.110412076
-0.20056152 -0.55242056 -0.8986013 -0.2924996 -0.76329887 0.75026536 -0.43967113 0.32780573
-0.5330205 -0.27795532 0.71773773 -0.6126784 0.78140664 -0.59989095 -0.656773 0.27429575
-0.26052308 -0.59507126 -1.0037204 -0.63753885 -0.6512573 -0.3377996 -0.7074823 -0.55880016
-0.5461209 -1.4167203 -0.3011812 -0.2618829 0.7495754 -0.84441984 0.91607326 -0.5391968
0.89348036 -0.5484526 0.6580755 -0.16977745 -0.5853462 -0.5154921 -0.35230982 -0.66875136
-0.64373565 -0.6452222 0.6862637 -0.98964804 0.41019928 -0.60386777 -0.4705121 -0.53726596
0.4246663 -0.6845536 -0.7619356 -0.5102911 -1.0527503 -0.09765582 -0.5401874 -0.48286018
-0.34409228 -0.6770509 -0.63204134 -0.6711082 -0.38383278 -0.82505035 -0.4936899 0.8410341
0.76269865 -0.75447977 -0.81443554 -0.6876797 -0.63698965 -0.63413197 0.574845 -0.32088372
-0.62464863 -1.3441516 -0.0079645375 -0.30730253 0.50942546 -0.15099029 -0.8144109 -0.6963852
0.3570016 -0.7211937 -0.62315583 -0.21039793 -0.77674323 -0.6957022 0.3354099 -0.69035304
-0.18057697 -0.63215584 -0.49831992 -0.6272577 0.40229416 -0.6224312 -0.45177963 -0.59487367
-0.68531775 0.033252213 -0.71195585 -0.47197136 -0.94646835 0.7562314 -0.58586437 0.42296734
-0.74556935 -0.90791565 -0.96687734 -0.18864183 -0.82526094 -0.5819427 1.171287 -0.75749433
-0.9081396 -0.98472893 -0.59578246 -0.5754548 -0.99090666 -0.014164497 -0.8230113 -0.49510583
-0.6177673 -0.43434098 -0.3280055 -0.31545323 -1.3299104 0.27185506 -0.40573633 0.19781883
-0.02831114 -0.06591848 -0.6048717 -0.5995061 -1.3216326 -0.4848999 0.5195561 -0.5250218
-0.16996948 -0.5630711 -0.3634077 -0.25796828 -0.8699515 -0.2161553 0.0015899141 1.0701743
00000000: 0bd4 1ebf 0f64 39bf 37cb 28bf 7d57 70bf
00000010: 40a5 abbf 7b35 a1bf 5ac1 41bf 0a2c 413e
00000020: a0c2 23bf 1efd 37bf 812b 1c3f 1f5b 303f
00000030: 882a 7c3f 4dd5 5e3f 455a 3dbf 5e6c 43bf
00000040: ad5c ffbe bf35 7ebe 6c8d 39bf 198f fabd
00000050: 697d 8cbf a108 6fbe 2996 34bf ddeb 4f3f
00000060: 1da7 e43e a03b 24bf 456b cf3f acb3 b6be
00000070: 66b9 dfbe 64c1 62bf 4be8 3e3f 6e59 b03e
00000080: 38a3 19bf e5da 2b3f df70 20bf a4fe e93e
00000090: d0d7 c9be 73e3 a53e 2f1b bdbd 46db d5be
000000a0: c31f 293e 4924 2bbf 129e 37bf 5646 b3be
000000b0: 8113 c5be bea0 eb3e acff a9be 3b89 69bf
000000c0: fb0b 0bbf 8a35 273e 8e58 f3be 74ba 873e
000000d0: 08ed 323f 0cc9 5fbf be95 f83e b533 723f
000000e0: 2596 d8be 2073 50bf 1880 14bf 41d7 d2be
000000f0: 0784 11bf 264a 1ebf 4bff 08bf 8c06 91be
00000100: 2523 b5be f406 c7be eed5 25bf 2ce0 bdbf
00000110: 845e 14bf d3d5 2bbf 844a 4abf ab43 19bf
00000120: 66a4 b0be 6f7c 1ebf 84f9 5bbf f96d 3fbe
00000130: 2078 e6be d282 f9be de6f 09bf 781d c03e
00000140: 80d6 483f 9ac1 1ebf b39d 32bf a023 a23e
00000150: 2937 143d 09c2 21bf f143 033f ea98 29bf
00000160: f3c6 25bf 5589 35bf ccd8 9ebe 01fe 00bf
00000170: 478b 16bf ce2e 20bf 7247 57be 596b 3dbf
00000180: 066b 3cbf e7db e9be e47a 35bf 9911 ef3e
00000190: 6210 8e3e 3ab9 30be 4f72 5ebf 8777 f8be
000001a0: 3613 463f fd25 13bf 49d1 10bf 32ad 24bf
000001b0: d635 18bf 9618 cabe 7639 01bf ba1f e2bd
000001c0: 0060 4dbe 6f6b 0dbf bc0a 66bf 82c2 95be
000001d0: 8e67 43bf 6411 403f 931c e1be 27d6 a73e
000001e0: 0874 08bf 2950 8ebe a9bd 373f 7ed8 1cbf
000001f0: 440a 483f 7492 19bf 4622 28bf 7e70 8c3e
00000200: 4863 85be 9756 18bf e979 80bf bf35 23bf
00000210: ccb8 26bf 12f4 acbe 8f1d 35bf 870d 0fbf
00000220: 94ce 0bbf 1757 b5bf 6c34 9abe 8415 86be
00000230: 2ce4 3f3f e62b 58bf c783 6a3f cd08 0abf
00000240: 21bb 643f 6467 0cbf a377 283f 24da 2dbe
00000250: 40d9 15bf 4af7 03bf f461 b4be 4a33 2bbf
00000260: dccb 24bf 482d 25bf faae 2f3f 9359 7dbf
00000270: a405 d23e 1497 1abf f6e6 f0be 438a 09bf
00000280: dc6d d93e e83e 2fbf 360e 43bf 70a2 02bf
00000290: 86c0 86bf c6ff c7bd b949 0abf 7339 f7be
000002a0: dd2c b0be 3553 2dbf 76cd 21bf bfcd 2bbf
000002b0: bb85 c4be 8036 53bf ecc4 fcbe 034e 573f
000002c0: 3840 433f 9625 41bf d97e 50bf c70b 30bf
000002d0: c111 23bf 7956 22bf 0b29 133f df4a a4be
000002e0: f9e8 1fbf 290d acbf b17d 02bc c256 9dbe
000002f0: b569 023f 339d 1abe 3c7d 50bf 4d46 32bf
00000300: eac8 b63e 26a0 38bf 2487 1fbf 8e72 57be
00000310: a5d8 46bf 8a19 32bf d9ba ab3e faba 30bf
00000320: 2be9 38be f7d4 21bf ca23 ffbe f693 20bf
00000330: 80f9 cd3e a757 1fbf a94f e7be a449 18bf
00000340: fc70 2fbf 7933 083d bd42 36bf 3ba6 f1be
00000350: c04b 72bf 6298 413f 35fb 15bf 2d8f d83e
00000360: a2dd 3ebf 296d 68bf 4685 77bf 532b 41be
00000370: 4d44 53bf 32fa 14bf bbec 953f 26eb 41bf
00000380: d67b 68bf 3217 7cbf 3385 18bf 0151 13bf
00000390: 0fac 7dbf 3512 68bc deb0 52bf 837e fdbe
000003a0: ff25 1ebf f161 debe 56f0 a7be 1683 a1be
000003b0: 813a aabf 9630 8b3e acbc cfbe 0591 4a3e
000003c0: c4ec e7bc 4500 87bd dfd8 1abf 3b79 19bf
000003d0: 422b a9bf cd44 f8be a101 053f d467 06bf
000003e0: 7b0c 2ebe 6d25 10bf 9310 babe 6b14 84be
000003f0: 24b5 5ebf d157 5dbe aa64 d03a 79fb 883f

fc3.weight f4 [128, 256]
-0.2903588 0.06457735 0.19673435 -0.15417917 0.4873998 0.5249419 1.8690474 -0.18438713
0.0155297965 0.11187579 -0.49020693 -0.52412623 -0.98981935 -0.8685942 0.12176649 -0.14847146
0.050847083 0.5074771 0.32446402 -1.6354461 0.008767455 1.1975777 0.6039595 -0.59054697
-0.329062 -0.025678331 -0.9110021 0.4613158 0.37026992 -0.007741554 -0.47967577 -0.67047995
0.12895465 -1.3464683 0.5534967 -0.5053507 1.4064703 -0.9234683 -2.186818 -0.45636466
-1.0152003 0.9202817 -0.13814916 0.835385 0.73541236 -0.47802043 0.7177355 0.37362072
0.50854033 -1.0549113 0.13292865 -0.24143986 -1.4461783 -0.6096511 1.0703937 -0.6706123
1.0220073 -0.34428713 0.43115026 0.7627243 0.00531445 -0.26887006 1.472162 -1.6008223
-3.4385736 -0.041433334 -0.20122822 -0.8622555 0.25026146 -0.2695202 0.07050833 -0.051304214
0.048571866 0.17333949 0.25424773 -1.4959853 0.9642705 0.98184764 0.075170904 -0.22099677
-0.34380677 -0.2544447 -0.06920238 -1.023602 0.08258549 -0.082657024 -0.79471767 -0.28995287
0.040689796 -0.47513813 0.07499055 0.2171943 -0.097967006 -0.18611696 0.613835 3.5931942
-0.037646145 -0.49474525 -0.16374634 -0.04857445 0.6040309 -0.68009764 0.15720183 0.2871716
-0.5017602 -0.05758881 0.9544183 1.4418298 0.04160551 -0.050525136 1.6872255 -0.028716158
0.64831626 -0.13496308 0.7652562 0.4024226 0.08003012 -0.6688869 0.26000196 -0.22051087
0.045179628 0.07474082 -0.4586499 0.8272762 -0.36021915 -0.33460706 -0.13602409 -0.67797375
0.36272025 -0.22298819 -0.21711653 0.038281996 0.8740772 -1.5919287 -1.0263073 -0.4089279
-0.17689492 0.06180668 -0.016224116 -0.7875992 -1.204109 0.14080712 -0.75976306 -0.7572965
-0.9608118 0.9507635 -0.66383004 -0.26086855 -0.02036121 0.16942762 0.22583543 0.19307272
-0.0012880904 1.6204457 0.25641534 0.3538167 -0.8318137 0.34758967 -0.4684855 -0.014548001
-0.08226981 -0.077244475 0.5064602 -0.072605796 0.6639642 -0.0804282 -0.28769112 0.0255674
0.90184164 0.036007006 -0.042736657 -1.4937332 2.4133456 -1.252589 -0.06711173 -0.4996105
-0.591532 0.17084199 0.25961867 -0.026582506 0.3110263 0.17823553 -0.28273588 -0.5886518
0.3749904 -1.6745158 -0.18981992 -0.46917942 -0.37745738 -0.07661187 -0.119329564 -0.2213714
-0.67429256 -0.47068492 -1.1288155 0.48371077 0.1462179 -0.18725437 -0.54292476 -0.10929476
0.282204 -0.83730704 0.041954186 0.025089407 -0.32259014 -0.81784934 -0.041491907 0.08324413
1.030336 0.27509195 0.26322347 0.04105931 0.515561 -0.019760346 -0.010086496 1.7707776
-0.050955497 0.4459233 0.3929005 0.0108442865 -0.1366041 0.5995645 -0.9883325 0.22849691
0.58612776 1.3887174 0.078736946 0.16783522 0.6298862 -0.20278706 -0.25205305 -0.17127931
-0.14094424 -0.3497585 0.8776595 -0.10622833 0.59675825 0.106825106 -0.46478 0.8456984
-0.6667639 -0.5464465 -0.14324114 0.20132726 0.6200248 0.1625472 -0.4514933 -0.22175097
-0.78954107 0.046482574 1.4127206 0.5913498 0.24852377 0.4035493 0.1460673 -1.8489223
00000000: e9a9 94be 2141 843d bb74 493e 25e1 1dbe
00000010: 778c f93e 9862 063f f23c ef3f fbcf 3cbe
00000020: b070 7e3c 221f e53d 67fc fabe 232d 06bf
00000030: cd64 7dbf 315c 5ebf b660 f93d e708 18be
00000040: 0845 503d 05ea 013f 2620 a63e 4c56 d1bf
00000050: 5fa5 0f3c 3a4a 993f 179d 1a3f 162e 17bf
00000060: d17a a8be 5d5b d2bc 6f37 69bf 9631 ec3e
00000070: 0594 bd3e ddac fdbb 1098 f5be 93a4 2bbf
00000080: b00c 043e 1359 acbf f6b1 0d3f aa5e 01bf
00000090: 3807 b43f 6b68 6cbf d3f4 0bc0 a1a8 e9be
000000a0: 15f2 81bf 9597 6b3f f976 0dbe cbdb 553f
000000b0: fc43 3c3f 18bf f4be 84bd 373f 374b bf3e
000000c0: b32f 023f 5507 87bf 731e 083e 033c 77be
000000d0: 5f1c b9bf 1812 1cbf a902 893f 3fad 2bbf
000000e0: 23d1 823f 6746 b0be babf dc3e e641 433f
000000f0: d624 ae3b 56a9 89be ce6f bc3f bfe7 ccbf
00000100: 9711 5cc0 00b6 29bd c50e 4ebe c7bc 5cbf
00000110: 4522 803e 8dfe 89be ac66 903d 5e24 52bd
00000120: 4bf3 463d e87f 313e c22c 823e 727c bfbf
00000130: 6eda 763f 5e5a 7b3f 34f3 993d fa4c 62be
00000140: 7107 b0be 9346 82be fab9 8dbd 6405 83bf
00000150: 9522 a93d 1648 a9bd 9e72 4bbf b474 94be
00000160: 58aa 263d 4e45 f3be a594 993d 2f68 5e3e
00000170: eda2 c8bd 7295 3ebe 4a24 1d3f e5f6 6540
00000180: d832 1abd 404f fdbe 1fad 27be 01f6 46bd
00000190: c5a1 1a3f e11a 2ebf 84f9 203e 2808 933e
000001a0: 5b73 00bf 3ee2 6bbd c254 743f e18d b83f
000001b0: 8a6a 2a3d 72f3 4ebd 01f7 d73f 263e ebbc
000001c0: 0ef8 253f c333 0abe d5e7 433f 560a ce3e
000001d0: d5e6 a33d 2c3c 2bbf fa1e 853e 9acd 61be
000001e0: 460e 393d b711 993d 29d4 eabe 5fc8 533f
000001f0: a56e b8be 9e51 abbe e649 0bbe b08f 2dbf
00000200: 78b6 b93e 0457 64be cc53 5ebe 95cd 1c3d
00000210: 86c3 5f3f 52c4 cbbf 0a5e 83bf ff5e d1be
00000220: f123 35be 0029 7d3d 70e8 84bc 1aa0 49bf
00000230: 3e20 9abf be2f 103e d57f 42bf 2fde 41bf
00000240: c3f7 75bf 3d65 733f c4f0 29bf 9090 85be
00000250: 8dcc a6bc 6f7e 2d3e 6741 673e dbb4 453e
00000260: 24d5 a8ba c46a cf3f df48 833e 7627 b53e
00000270: bef1 54bf 46f7 b13e 55dd efbe bd5a 6ebc
00000280: 137d a8bd 5a32 9ebd 60a7 013f 59b2 94bd
00000290: 8ff9 293f 8ab7 a4bd 404c 93be b972 d13c
000002a0: 18df 663f 157c 133d a20c 2fbd a632 bfbf
000002b0: 4174 1a40 d654 a0bf e071 89bd f3cc ffbe
000002c0: a46e 17bf 34f1 2e3e bdec 843e 8ec3 d9bc
000002d0: d73e 9f3e 6083 363e c2c2 90be e2b1 16bf
000002e0: befe bf3e 8956 d6bf 2760 42be 4938 f0be
000002f0: 1842 c1be afe6 9cbd 0f63 f4bd 2faf 62be
00000300: 709e 2cbf 9dfd f0be 077d 90bf f0a8 f73e
00000310: 25ba 153e 9cbf 3fbe 1efd 0abf eed5 dfbd
00000320: 0b7d 903e c159 56bf 27d8 2b3d 4d88 cd3c
00000330: 892a a5be 935e 51bf 6bf3 29bd e67b aa3d
00000340: 0de2 833f dad8 8c3e 3ac5 863e cf2d 283d
00000350: cefb 033f 73e0 a1bc d541 25bc d7a8 e23f
00000360: b6b6 50bd 0f50 e43e 412a c93e 3cac 313c
00000370: f2e1 0bbe 0f7d 193f 5c03 7dbf 18fb 693e
00000380: 780c 163f 7ec1 b13f d640 a13d ffdc 2b3e
00000390: 3940 213f 69a7 4fbe 190d 81be d863 2fbe
000003a0: b053 10be 8c13 b3be 4bae 603f 3d8e d9bd
000003b0: 26c5 183f 1fc7 da3d a5f7 edbe b17f 583f
000003c0: 0ab1 2abf ebe3 0bbf cead 12be bc28 4e3e
000003d0: f2b9 1e3f c672 263e 212a e7be b012 63be
000003e0: 5d1f 4abf 8364 3e3d 07d4 b43f b362 173f
000003f0: 047d 7e3e 049e ce3e ab92 153e 7ca9 ecbf

fc3.bias f4 [128]
-0.3516522 -1.0534334 -0.5520856 -0.76955956 -0.59060836 -0.02202408 -0.70086884 -0.69229
0.27423432 0.636564 0.69160664 -0.9875453 -1.0704415 -0.9616409 0.41957554 -0.5710944
-1.0679402 -0.66422105 0.5625813 0.4904194 0.52624065 -0.5994385 1.2463899 -0.80149764
-0.15680999 -0.900361 -0.33920082 -0.59370536 -0.9730133 -0.4776559 -0.47870484 -0.15944488
-0.43828833 -0.331085 -1.0042671 -0.012133404 -0.51202196 -0.47957578 -0.15567985 -1.1833882
-0.74865335 -0.6604569 -0.5445006 -1.1987822 -0.43986136 -0.57823706 -1.093576 -0.73843044
0.88844967 -0.34052727 -0.9308546 -0.4217353 -0.583376 -0.71297413 -0.9839054 -1.1332384
-0.8449534 -0.18540977 -0.10629075 -0.67148465 -0.21762584 -0.9276882 0.22462238 -0.38658977
-0.5160155 -0.9156725 -0.432652 0.67350006 -1.1286453 0.018588495 0.7162799 -0.3633711
-0.59585345 -0.5744856 0.20978908 -0.24727589 -0.7094552 -0.6216082 -0.3424706 -0.8974568
-0.3297235 -0.5506508 -0.85434604 0.616011 -0.70572245 -0.4198112 0.7189872 -0.39551935
-1.1199435 0.43077412 -0.13861665 -0.9007109 -0.5196385 0.63312376 -1.2117139 -0.73330176
-0.052171357 -0.6566755 -1.1161224 -1.072374 -0.82911104 -1.0333691 -0.33986357 0.49879885
-0.81478 0.015573742 -0.40307096 1.1152332 -1.0111818 0.6175473 -0.26976636 -0.66627383
-0.38593987 0.53317475 -0.033193965 -0.88219094 -0.93512833 -0.8361639 0.66219324 0.22087778
0.3415893 0.8897308 -0.2237182 0.52883387 -0.89460796 1.098687 -1.0284077 -0.80471885
00000000: c20b b4be e8d6 86bf 7b55 0dbf db01 45bf
00000010: 1c32 17bf d86b b4bc 246c 33bf eb39 31bf
00000020: 7168 8c3e dcf5 223f 220d 313f c5cf 7cbf
00000030: 3a04 89bf 192e 76bf 9bd2 d63e 3e33 12bf
00000040: 44b2 88bf 640a 2abf 5405 103f 4018 fb3e
00000050: b5b7 063f cd74 19bf b489 9f3f f32e 4dbf
00000060: cc92 20be 0f7e 66bf bbab adbe 13fd 17bf
00000070: 6617 79bf 508f f4be cd18 f5be 8545 23be
00000080: 5467 e0be f983 a9be d38b 80bf 2fcb 46bc
00000090: df13 03bf f58a f5be 8a6a 1fbe 4479 97bf
000000a0: bfa7 3fbf b413 29bf 6464 0bbf b271 99bf
000000b0: 8235 e1be 5807 14bf 4cfa 8bbf c709 3dbf
000000c0: 7071 633f 9759 aebe 7d4c 6ebf b0ed d7be
000000d0: 2158 15bf 7985 36bf 39e1 7bbf f50d 91bf
000000e0: de4e 58bf 0fdc 3dbe f7ae d9bd 6be6 2bbf
000000f0: 4fd9 5ebe f97c 6dbf 6903 663e 18ef c5be
00000100: 9819 04bf 8369 6abf 9084 ddbe 806a 2c3f
00000110: 7377 90bf e646 983c 1f5e 373f c70b babe
00000120: da89 18bf 7d11 13bf f3d2 563e e435 7dbe
00000130: db9e 35bf b721 1fbf 4e58 afbe bbbf 65bf
00000140: 85d1 a8be 73f7 0cbf 6cb6 5abf e6b2 1d3f
00000150: 3aaa 34bf 7ef1 d6be 8c0f 383f 8381 cabe
00000160: 4f5a 8fbf 6d8e dc3e 86f1 0dbe fd94 66bf
00000170: 0707 05bf 6614 223f 7119 9bbf aab9 3bbf
00000180: a2b1 55bd e31b 28bf 19dd 8ebf 8d43 89bf
00000190: 9f40 54bf 7045 84bf 9902 aebe 9062 ff3e
000001a0: 6c95 50bf 0229 7f3c 515f cebe f6bf 8e3f
000001b0: 686e 81bf 9417 1e3f d11e 8abe ec90 2abf
000001c0: e999 c5be 247e 083f 65f6 07bd 44d7 61bf
000001d0: 9264 6fbf d60e 56bf 7f85 293f c92d 623e
000001e0: cbe4 ae3e 66c5 633f 6216 65be a861 073f
000001f0: 0705 65bf c7a1 8c3f dda2 83bf 0e02 4ebf

fc4.weight f4 [4, 128]
-0.21142091 0.08767105 -5.9907994 -0.08654628 -0.24047813 -0.014209929 0.6032009 -0.12398235
0.07254517 1.1463561 1.0560836 0.46285787 0.13568617 0.33666617 0.9695353 1.354726
-0.10088546 1.2413757 1.1011093 1.1492031 0.9909573 0.65228295 1.1656827 0.251024
1.0098233 0.975315 0.5078505 1.2796593 -0.07751307 1.4274167 0.6525674 1.1402454
-0.10398659 0.5255393 -0.17997175 0.84270537 0.4188339 1.0584782 0.35381952 0.47698256
-1.9122307 0.38703415 1.1671791 0.11410633 0.3961533 0.7233984 -0.13097596 1.060704
0.9512708 0.34890136 -0.16098288 -1.7789502 0.76674813 0.8916041 1.1717402 -0.32273117
1.1684886 0.30403632 1.2926633 -0.74029267 0.7044688 0.55223626 0.5346091 0.96105903
0.59134674 0.4069465 -2.9952993 1.1627425 0.46264827 1.3821679 1.1167452 0.7250362
-0.1410032 0.1728907 0.9006187 1.5866278 0.73992765 0.65145373 0.5765147 0.7098159
1.036269 -0.8034726 0.81772256 1.1128589 0.24140643 -4.7275715 1.0141528 0.5146878
0.13054688 1.0890896 1.415593 0.7676947 1.454581 1.0978949 1.2974403 0.83875936
1.0885476 0.78636247 0.6142049 -0.054084145 0.4766893 0.12542419 0.3956645 1.2530676
0.31790718 -0.70699316 0.2557658 1.4113865 -0.195714 1.1065214 1.1878732 0.48469037
-2.848114 1.0234876 -0.40131456 0.5156886 0.6792984 0.9512084 1.1464044 1.5789299
1.2273875 1.1185358 1.5190507 1.0785255 0.33360526 1.606814 -0.2040021 0.62586427
0.35476547 0.16279997 -6.8876534 -0.034837734 0.018949077 -0.059232645 0.62802064 -0.765102
0.53526586 1.2753274 1.1441664 0.55211544 -0.18661377 -0.10695069 1.0870234 0.8789727
0.07739618 1.249123 1.1157576 1.1509126 1.1149505 0.6615479 1.3923856 0.0906702
0.9641005 0.8275298 0.4481265 1.2645956 0.048346665 0.7079803 0.60851216 1.4816254
0.23036622 0.59577954 0.28196725 0.6640874 0.8136102 1.007325 0.49534053 -0.1655863
-4.365334 1.0129365 -0.39758462 0.14688274 0.5099321 0.44405174 0.09293275 0.7191855
1.098413 0.4012257 -0.008370778 0.5199186 0.4037082 0.42208147 0.7847302 -1.6210985
0.69581765 0.0075611444 1.0865618 -0.7205451 0.3569539 0.9602227 -0.16103938 0.6052208
0.6141574 0.47344634 -3.1037881 1.1014572 0.9130504 0.9774021 1.1440427 0.7285516
0.8196314 0.08603526 0.82689506 1.7239475 0.19978797 0.8922963 1.1027939 0.5137086
1.3166053 0.45385826 0.5925317 1.1083682 0.6300183 -4.4862456 1.2106551 0.7613847
0.09384554 1.1694682 1.453068 0.9895204 0.9510429 1.1026105 0.98875356 0.78357744
0.51352805 0.5291318 1.0768325 -1.0703691 0.7867491 0.029785462 0.6995993 1.2976862
0.80217683 -0.16435039 0.6471788 1.4008855 0.6088479 1.120134 0.60097563 1.4087282
-2.8571086 1.0963993 -0.036064208 1.1141862 0.581184 1.2588327 1.1370561 1.7108285
0.7150206 1.1279086 0.8530586 1.0979993 0.595922 1.694555 1.2418299 0.032550365
00000000: b97e 58be e18c b33d a1b4 bfc0 2d3f b1bd
00000010: e63f 76be c3d0 68bc 606b 1a3f 75ea fdbd
00000020: 9092 943d ccbb 923f bf2d 873f b5fb ec3e
00000030: 51f1 0a3e 825f ac3e 7733 783f a967 ad3f
00000040: 099d cebd 66e5 9e3f 26f1 8c3f 1619 933f
00000050: 61af 7d3f 04fc 263f 1735 953f 3886 803e
00000060: e441 813f 3eae 793f 7e02 023f e0cb a33f
00000070: 2cbf 9ebd 97b5 b63f a80e 273f 90f3 913f
00000080: ecf6 d4bd be89 063f 844a 38be 8abb 573f
00000090: 6671 d63e 377c 873f d527 b53e 0f37 f43e
000000a0: fac3 f4bf 5729 c63e 2066 953f 94b0 e93d
000000b0: 9bd4 ca3e a330 393f 901e 06be 26c5 873f
000000c0: 7c86 733f 33a3 b23e b2d8 24be a4b4 e3bf
000000d0: 9b49 443f 2b40 643f 95fb 953f 053d a5be
000000e0: 0991 953f a6aa 9b3e fe75 a53f d283 3dbf
000000f0: 1158 343f 5b5f 0d3f 24dc 083f f707 763f
00000100: 8062 173f 4b5b d03e fcb2 3fc0 bfd4 943f
00000110: 3ce0 ec3e e1ea b03f 82f1 8e3f f99b 393f
00000120: 2563 10be 420a 313e f28e 663f 9f16 cb3f
00000130: e66b 3d3f acc5 263f 7896 133f 7fb6 353f
00000140: 76a4 843f 61b0 4dbf 4456 513f 2972 8e3f
00000150: 3f33 773e 4448 97c0 c2cf 813f 94c2 033f
00000160: 15ae 053e 4a67 8b3f 2732 b53f a487 443f
00000170: b62f ba3f d287 8c3f 8612 a63f efb8 563f
00000180: 8755 8b3f 0d4f 493f 883c 1d3f 5687 5dbd
00000190: 9f10 f43e 336f 003e 8a94 ca3e 8564 a03f
000001a0: bbc4 a23e 81fd 34bf bcf3 823e 50a8 b43f
000001b0: 4069 48be 7ea2 8d3f 3b0c 983f 5629 f83e
000001c0: 8047 36c0 a401 833f 1a79 cdbe 2b04 043f
000001d0: 80e6 2d3f 6582 733f 61bd 923f 601a ca3f
000001e0: 091b 9d3f 2e2c 8f3f 4170 c23f 200d 8a3f
000001f0: 4fce aa3e 15ac cd3f ede5 50be a438 203f
00000200: d2a3 b53e 09b5 263e a867 dcc0 03b2 0ebd
00000210: 183b 9b3c ee9d 72bd f6c5 203f badd 43bf
00000220: 2f07 093f ee3d a33f 0b74 923f 7057 0d3f
00000230: ae17 3fbe f708 dbbd 9523 8b3f 5b04 613f
00000240: e381 9e3d 43e3 9f3f 25d1 8e3f 1b51 933f
00000250: b3b6 8e3f 345b 293f b139 b23f 4cb1 b93d
00000260: 4acf 763f fed8 533f d670 e53e 45de a13f
00000270: 2707 463d 323e 353f 74c7 1b3f e7a5 bd3f
00000280: 1fe5 6b3e 0285 183f 035e 903e a201 2a3f
00000290: c248 503f 07f0 803f 469d fd3e 748f 29be
000002a0: d1b0 8bc0 e7a7 813f 3690 cbbe 6e68 163e
000002b0: e98a 023f c05a e33e 8753 be3d 8a1c 383f
000002c0: cc98 8c3f 746d cd3e 9625 09bc 6319 053f
000002d0: d7b2 ce3e 101b d83e 14e4 483f 2880 cfbf
000002e0: 1b21 323f 7ac3 f73b 7514 8b3f a575 38bf
000002f0: a9c2 b63e 28d1 753f 82e7 24be c0ef 1a3f
00000300: 6b39 1d3f 8f67 f23e 77a4 46c0 8dfc 8c3f
00000310: acbd 693f 0637 7a3f fe6f 923f 5c82 3a3f
00000320: 5dd3 513f 4133 b03d 65af 533f 50aa dc3f
00000330: 3895 4c3e 886d 643f 5a28 8d3f 6882 033f
00000340: 8686 a83f 1c60 e83e 28b0 173f 02df 8d3f
00000350: e148 213f 538f 8fc0 bff6 9a3f 1cea 423f
00000360: 1732 c03d 22b1 953f 22fe b93f 3551 7d3f
00000370: 8c77 733f 5722 8d3f f41e 7d3f 8898 483f
00000380: 9376 033f 2f75 073f a6d5 893f db01 89bf
00000390: 6468 493f a400 f43c f118 333f 951a a63f
000003a0: 765b 4d3f 784b 28be 83ad 253f 3750 b33f
000003b0: 75dd 1b3f 8d60 8f3f 8ad9 193f 3551 b43f
000003c0: deda 36c0 d056 8c3f 10b8 13bd a79d 8e3f
000003d0: 7ac8 143f 6e21 a13f 0e8b 913f 6efc da3f
000003e0: 970b 373f 4f5f 903f 0c62 5a3f 3e8b 8c3f
000003f0: 588e 183f 2ee7 d83f 48f4 9e3f 8853 053d

fc4.bias f4 [4]
1.23504 1.1696523 1.1496133 1.1874641
00000000: ca15 9e3f 2bb7 953f 8726 933f d3fe 973f

ln1.weight f4 [256]
0.3756339 0.40807799 0.3932861 0.49627045 0.52201945 1.4098607 0.40081546 0.40993717
0.41900268 0.4651059 1.2067246 0.4023372 0.50669914 0.6584217 0.6343683 0.47844046
0.41773313 1.370016 0.46550483 0.3080261 0.59288293 0.8394666 0.39728627 0.3759961
0.59322166 1.668608 0.684405 1.0846763 0.44077715 0.46641105 0.4030103 0.4562289
0.4623648 0.72013724 0.25216097 0.43370765 0.29721314 0.37692636 0.4035962 0.45111015
0.39167762 0.6802086 0.3911303 0.4296326 0.25103658 0.8407949 0.36270005 0.44834515
0.46031025 0.43702075 0.20829746 0.37242526 0.5093409 0.3865842 1.1511921 0.38405895
0.6838476 0.2572793 0.30497506 0.3942212 0.7826351 0.36169475 1.9097173 1.4184344
0.45374987 0.5042584 1.9792129 0.6429575 0.35989794 0.3601745 0.38674223 0.5316521
0.58136845 0.37138486 0.2957351 0.5709885 0.4342947 0.49842384 1.0069916 0.4552869
0.788466 0.20082207 0.88965183 0.41763777 0.620004 0.38121262 0.75035447 0.10074126
0.5295175 0.30398345 0.42131224 1.0628434 0.525274 0.5688715 0.43205556 0.21841772
0.88095295 0.5992635 0.45726636 1.2577791 0.7372088 0.43634936 0.38151422 0.4265733
0.44492754 0.4310786 0.5764272 0.4377954 0.33741853 0.9195681 0.4578355 0.4603208
0.40326554 0.1559208 0.5543457 0.97273535 1.1554946 0.4177672 0.35162383 0.35933042
0.2673848 0.45746425 0.4901188 1.5054876 0.410195 0.41949654 0.41871133 0.96357495
0.30892175 0.44847456 0.24355716 0.3423526 0.46169153 0.37355363 0.402003 0.44025993
1.699321 0.3628477 0.37452218 0.5011938 0.40729904 0.4218516 0.4435043 0.4723627
0.487309 0.5293961 0.20843878 1.1176404 0.45015776 0.19161385 0.48827922 0.32844412
0.44288442 0.26213896 0.39952627 0.35899812 0.16111065 0.8108047 0.41020542 0.46821815
0.4777366 0.73054767 1.0422146 0.4749303 0.43896 0.44113564 0.47295305 0.38278937
0.3849854 0.5671923 0.44926736 0.13926432 0.17315869 1.0800194 0.48241052 0.35980105
0.7763068 0.23988895 0.45672622 0.631194 0.32743895 0.26398864 0.583279 0.40243697
0.40914536 0.4144316 0.23050351 0.34653905 0.7500564 0.12794416 0.4123986 0.4119299
0.42901012 0.3947628 0.19453937 0.14836788 0.5116998 0.4254994 0.5210385 0.6033995
0.48597014 0.1641139 0.32696578 0.16469328 1.5547616 0.36592105 0.61170053 0.23227105
0.56762487 0.5477842 0.45951894 0.22239424 1.0970061 0.5868914 0.38493004 0.32507464
1.0311599 0.45490462 0.9564932 0.27312315 0.54154503 0.34052888 0.2485183 0.80125356
0.8815933 0.43212914 1.1057779 0.23483373 0.35498235 0.92864776 0.51400805 0.30000338
0.42091668 0.34244788 0.37312284 0.34964597 0.21974516 0.45755154 0.39988428 1.9480871
0.56251204 0.48343652 0.52091056 0.38193867 0.19575976 0.39244565 0.41089836 0.4303314
0.36923558 0.21522531 1.1171598 0.25133705 0.4390005 0.48389864 0.53835374 0.35008997
00000000: 1653 c03e 99ef d03e cc5c c93e 2917 fe3e
00000010: 11a3 053f 5176 b43f af37 cd3e 49e3 d13e
00000020: 8587 d63e 5c22 ee3e f475 9a3f 24ff cd3e
00000030: 09b7 013f 538e 283f f665 223f 26f6 f43e
00000040: 1ee1 d53e af5c af3f a656 ee3e 99b5 9d3e
00000050: 2dc7 173f 48e7 563f 1b69 cb3e 9082 c03e
00000060: 60dd 173f f294 d53f 2b35 2f3f acd6 8a3f
00000070: 8bad e13e 6ecd ee3e 5e57 ce3e d696 e93e
00000080: 14bb ec3e ea5a 383f 3e1b 813e ee0e de3e
00000090: 522c 983e 7efc c03e 29a4 ce3e e9f7 e63e
000000a0: f889 c83e 2722 2e3f 3b42 c83e cef8 db3e
000000b0: de87 803e 563e 573f d2b3 b93e 7f8d e53e
000000c0: c9ad eb3e 2fc1 df3e ee4b 553e 86ae be3e
000000d0: 2a64 023f 5dee c53e 435a 933f 60a3 c43e
000000e0: a310 2f3f 1dba 833e b125 9c3e 5cd7 c93e
000000f0: c65a 483f 0e30 b93e 9e71 f43f 428f b53f
00000100: e751 e83e 1417 013f d956 fd3f dd98 243f
00000110: 8b44 b83e cb68 b83e 1403 c63e 5a1a 083f
00000120: 90d4 143f 2826 be3e 976a 973e 4d2c 123f
00000130: e05b de3e 6931 ff3e 1ae5 803f 5d1b e93e
00000140: e8d8 493f 4da4 4d3e 39c0 633f 9ed4 d53e
00000150: 95b8 1e3f 4d2e c33e 3b17 403f 6f51 ce3d
00000160: 758e 073f b8a3 9b3e 3db6 d73e 410b 883f
00000170: 5b78 063f 90a1 113f 6336 dd3e e5a8 5f3e
00000180: 2286 613f 5569 193f d11e ea3e e8fe a03f
00000190: b7b9 3c3f 2f69 df3e d555 c33e d167 da3e
000001a0: 8bcd e33e 56b6 dc3e bc90 133f b826 e03e
000001b0: 1fc2 ac3e d168 6b3f 6a69 ea3e 2baf eb3e
000001c0: d278 ce3e b4a9 1f3e 9ae9 0d3f 2f05 793f
000001d0: 3fe7 933f 95e5 d53e 0a08 b43e 28fa b73e
000001e0: a9e6 883e c138 ea3e daf0 fa3e d1b3 c03f
000001f0: 1405 d23e 40c8 d63e 5561 d63e d9ac 763f
00000200: fe2a 9e3e 759e e53e 0c67 793e d748 af3e
00000210: d562 ec3e 6c42 bf3e 56d3 cd3e c069 e13e
00000220: 5a83 d93f 2cc7 b93e 5fc1 bf3e 3d4e 003f
00000230: 8089 d03e effc d73e ff12 e33e 86d9 f13e
00000240: 9180 f93e 8186 073f fa70 553e d70e 8f3f
00000250: 147b e63e 6c36 443e bcff f93e d429 a83e
00000260: bfc1 e23e 1437 863e b58e cc3e 9ace b73e
00000270: 31fa 243e e690 4f3f 7206 d23e 4aba ef3e
00000280: e499 f43e 2c05 3b3f 4a67 853f 102a f33e
00000290: 5dbf e03e 88dc e13e e726 f23e f8fc c33e
000002a0: ce1c c53e 8433 113f 5f06 e63e 4e9b 0e3e
000002b0: 8350 313e 133e 8a3f 83fe f63e d837 b83e
000002c0: 0bbc 463f 73a5 753e 05d8 e93e ee95 213f
000002d0: 14a6 a73e 8529 873e c651 153f 380c ce3e
000002e0: 807b d13e 6130 d43e 1d09 6c3e 916d b13e
000002f0: b203 403f cb03 033e e925 d33e 7ae8 d23e
00000300: 37a7 db3e 5a1e ca3e 5435 473e c0ed 173e
00000310: c2fe 023f 0fdb d93e c762 053f 6478 1a3f
00000320: 14d1 f83e 790d 283e 0f68 a73e 5ba5 283e
00000330: 6e02 c73f 015a bb3e 6898 1c3f 76d8 6d3e
00000340: dd4f 113f 963b 0c3f 1146 eb3e 51bb 633e
00000350: b26a 8c3f 843e 163f 8d15 c53e 2f70 a63e
00000360: 0cfd 833f 42e9 e83e bddc 743f ccd6 8b3e
00000370: b2a2 0a3f cd59 ae3e 957b 7e3e f41e 4d3f
00000380: 19b0 613f 0840 dd3e 218a 8d3f 4178 703e
00000390: 3fc0 b53e dcbb 6d3f 0896 033f 0b9a 993e
000003a0: 6482 d73e 5455 af3e f509 bf3e cc04 b33e
000003b0: e004 613e 3244 ea3e a2bd cc3e eb5a f93f
000003c0: ca00 103f fe84 f73e 655a 053f 778d c33e
000003d0: 3f75 483e a3ee c83e 4561 d23e 6654 dc3e
000003e0: 720c bd3e 0664 5c3e 18ff 8e3f 40af 803e
000003f0: acc4 e03e 90c1 f73e 8dd1 093f fe3e b33e
