trained_models/checkpoint_ep5200.pth (torch, 416160 bytes, 14 tensors)

fc1.weight f4 [256, 8]
0	0xbef2c574	-0.4741627
1	0xbd6bdc0b	-0.057582896
2	0x3ef87d86	0.48533267
3	0x3f61f483	0.8826372
4	0x3d15af1e	0.036543958
5	0xbea8a68b	-0.32939562
6	0xbdd68edf	-0.10476469
7	0xbcb48baf	-0.022039263
8	0xbeaa2310	-0.33229876
9	0xbd2750e6	-0.040848635
10	0x3f0b50e1	0.54420286
11	0x3fb8c883	1.4436191
12	0xbdce03ac	-0.10059294
13	0xbe3f364d	-0.18673058
14	0xbd0f78c6	-0.035027288
15	0xbdf62b5f	-0.12019991
16	0xbf0c8139	-0.5488468
17	0xbe0cf071	-0.13763596
18	0x3f571091	0.84009653
19	0x3f346f25	0.70482093
20	0xbda5d43d	-0.08097122
21	0x3d906733	0.07050934
22	0xbd0b17d0	-0.033958256
23	0xbe3c750c	-0.18404025
24	0xbecb352b	-0.39689
25	0x3d588481	0.05286074
26	0x3ef68769	0.48150185
27	0x3fb53003	1.4155277
28	0xbdd8519a	-0.10562439
29	0xbea1048a	-0.31448776
30	0xbd4e4ecb	-0.05036811
31	0xbdf67e8e	-0.12035857
32	0xbed52002	-0.41625983
33	0xbd592e0b	-0.053022426
34	0x3f069027	0.5256371
35	0x3f7b2f2e	0.98118865
36	0xbda33ddd	-0.07970784
37	0xbe9cc9ec	-0.30622804
38	0xbdc6ded5	-0.097104706
39	0x3d9efcbc	0.07763049
40	0x3f99ce74	1.201613
41	0x3f18c632	0.5967742
42	0x3f0cf1a7	0.5505623
43	0xbce1b9e2	-0.027554456
44	0x3f160060	0.5859432
45	0xbfb73e7f	-1.4315947
46	0x3f0eb74c	0.5574844
47	0x3f270ca3	0.6525366
48	0xbef63d04	-0.48093426
49	0xbcc4cae5	-0.024022529
50	0x3f291bd7	0.66058105
51	0x3eaee41c	0.3415841
52	0xbc77b805	-0.015119557
53	0xbe731bae	-0.23741028
54	0xbdec82ee	-0.1154841
55	0xbe1114da	-0.1416811
56	0xbeeade57	-0.45872757
57	0x3d818600	0.063243866
58	0x3ee2ad32	0.44272763
59	0x3f982aed	1.18881
60	0xbda1f882	-0.07908727
61	0xbed3d853	-0.4137598
62	0xbdaaeddf	-0.083461516
63	0xbb20c20b	-0.002452972
64	0xbe10da51	-0.14145781
65	0xbb1e3fe9	-0.002414698
66	0x3e2b58c6	0.16733083
67	0x3eec49e8	0.46150136
68	0xbe11e67c	-0.14248079
69	0xbe758bf2	-0.23979166
70	0x3dd5577a	0.104170755
71	0xbe2293c4	-0.1587668
72	0xbea41b38	-0.32052016
73	0x3d9057b7	0.0704798
74	0x3ee89fed	0.45434514
75	0x3f7cdfcf	0.98779005
76	0xbd639702	-0.055563934
77	0xbe955708	-0.29167962
78	0xbd98bebd	-0.074582554
79	0xbe6e040c	-0.23243731
80	0x3fa0a44f	1.2550143
81	0x3f194246	0.5986675
82	0x3e22bf45	0.15893276
83	0xbe145b39	-0.14487924
84	0x3f173dea	0.5907885
85	0xbfc90e46	-1.5707481
86	0x3f21277d	0.6295088
87	0x3f054a27	0.5206627
88	0xbf08c833	-0.5343048
89	0x3dbd36d6	0.09238975
90	0x3ee5e7d3	0.4490343
91	0x3f89849d	1.0743595
92	0xbdb90c87	-0.090355925
93	0xbeb85ad6	-0.36006802
94	0xbd3adc92	-0.04562051
95	0xbe05bd02	-0.13060382
96	0xbf07edb0	-0.5309706
97	0xbd608a32	-0.054819293
98	0x3f27a7f4	0.6549065
99	0x3f10a2bb	0.56498307
100	0x3d89b85c	0.06724617
101	0xbe6f4812	-0.23367336
102	0xbe3def20	-0.1854825
103	0x3d3e35f3	0.04643817
104	0xbeef40dc	-0.4672917
105	0xbd9763b9	-0.073920675
106	0x3ead2182	0.33814627
107	0xbd80d48f	-0.06290542
108	0xbe1735db	-0.14766638
109	0xbef500a4	-0.4785205
110	0x3e807eb3	0.25096664
111	0xbe35822f	-0.17725442
112	0xbf5f09c3	-0.8712427
113	0xbdedb957	-0.116076164
114	0x3f6b83b2	0.91997826
115	0x3f1090b4	0.564708
116	0xbea1063e	-0.31450075
117	0x3e10949d	0.14119191
118	0x3d68f868	0.056877524
119	0xbe874602	-0.264206
120	0xbf0b8baf	-0.54510015
121	0xbd499f80	-0.049224377
122	0x3e8bd1d3	0.2730852
123	0x3fd09f65	1.6298643
124	0xbde211d8	-0.1103856
125	0xbf0fa622	-0.56112874
126	0x3e4abf81	0.19799615
127	0xbdc970e9	-0.09835989
128	0xbef59737	-0.4796693
129	0xbcc111d0	-0.023568064
130	0x3f2f2f0c	0.6843116
131	0x3f84447e	1.0333402
132	0xbdb6e7f8	-0.08930963
133	0xbd923405	-0.07138828
134	0xbd7cf129	-0.061753426
135	0xbd6fba64	-0.058527365
136	0x3f6e3bfa	0.93060267
137	0x3e89bccf	0.26901862
138	0x3ebb785b	0.3661526
139	0x3fa2d0ca	1.2719967
140	0x3e9a89ec	0.3018335
141	0xbfee25cc	-1.8605285
142	0xbe9928e3	-0.29914007
143	0x3eb53b74	0.35396922
144	0x3f0f67ce	0.5601777
145	0xbe356af6	-0.17716584
146	0x3ed2b643	0.4115468
147	0x3b7303c6	0.0037081107
148	0x3e0a3765	0.13497694
149	0xbebfa051	-0.37427
150	0xbf083398	-0.53203726
151	0x3d8430b4	0.06454602
152	0xbe915ea1	-0.2839251
153	0xbd317fee	-0.043334894
154	0x3ecbfe1b	0.39842305
155	0x3f273771	0.6531897
156	0xbe09aafa	-0.13444129
157	0xbe2ffac8	-0.17185509
158	0xbc11e2c5	-0.008904164
159	0xbc84f171	-0.01622841
160	0xbf016097	-0.5053801
161	0x3c9e8947	0.019352568
162	0x3f3f0825	0.746218
163	0x3fa8e8c2	1.3196032
164	0xbd7e318e	-0.062058978
165	0xbe3e4527	-0.18581067
166	0xbe0275db	-0.12740271
167	0xbdf79504	-0.12088969
168	0xbee46b98	-0.44613338
169	0xbbfbe181	-0.0076867943
170	0x3f189247	0.595982
171	0x3f9f0173	1.2422317
172	0xbe3af502	-0.18257526
173	0xbe087e2d	-0.13329382
174	0x3d24dd65	0.0402502
175	0xbde3a1c6	-0.1111484
176	0xbedba034	-0.42895663
177	0xbd8242f8	-0.063604295
178	0x3f189770	0.59606075
179	0x3fa8a909	1.3176585
180	0x3cfc5554	0.030802406
181	0xbe9b205a	-0.3029812
182	0xbe275b73	-0.16343479
183	0x3d1102d9	0.035403106
184	0xbefbb05d	-0.49157992
185	0x3dc64986	0.09681992
186	0x3eed8d52	0.4639688
187	0x3fbfb4fb	1.4977106
188	0xbd5f4378	-0.054507703
189	0xbede5146	-0.43421382
190	0xbdca4c5e	-0.09877847
191	0xbdb5d613	-0.08878722
192	0xbe01df64	-0.12682873
193	0x3de11e8d	0.10992155
194	0xbf5a5f61	-0.85301787
195	0x3f91dd1e	1.1395605
196	0xbd96fe9a	-0.0737278
197	0xbec257b9	-0.37957552
198	0xbcc4a3b3	-0.02400384
199	0xbd4a9159	-0.04945502
200	0xbf79d4a1	-0.9759007
201	0xbe95b71e	-0.2924127
202	0xbf8f6dfa	-1.1205437
203	0xbef25f94	-0.47338545
204	0xbedf4791	-0.43609288
205	0x3fd87b46	1.691262
206	0x3ea601de	0.324233
207	0xbefdbfe3	-0.4956046
208	0xbf1b4e0c	-0.60665965
209	0xbe56e704	-0.20986563
210	0x3f2fb2be	0.68632114
211	0xbd1320bd	-0.035919894
212	0xbe951876	-0.29120225
213	0xbe875b59	-0.2643688
214	0x3ea1e489	0.3161967
215	0xbe90f9a0	-0.2831545
216	0xbccba94a	-0.024860997
217	0xbd8a5d59	-0.06756086
218	0xbf4cacb5	-0.7995103
219	0x3f431f5a	0.76219714
220	0xbe2dcf50	-0.16973615
221	0xbf0ccf2b	-0.55003613
222	0x3ee6edb0	0.45103216
223	0xbe15e1d3	-0.14636926
224	0xbf08c305	-0.53422576
225	0xbd1a4965	-0.03766765
226	0x3f095325	0.53642493
227	0x3f93039b	1.1485475
228	0x3beccbf5	0.007226462
229	0xbeb98f2e	-0.3624205
230	0xbdeec0a2	-0.116578355
231	0x3c9e0722	0.01929051
232	0xbed1ae84	-0.40953457
233	0x3b2e4fbf	0.0026597825
234	0x3f150d1d	0.58223134
235	0x3f88c61b	1.0685457
236	0xbd7670e9	-0.060166273
237	0xbe6da2e7	-0.23206674
238	0xbde1025f	-0.109867804
239	0xbd7233ca	-0.05913142
240	0xbec867e1	-0.39141753
241	0x3b97a760	0.004628107
242	0x3f191aa1	0.5980626
243	0x3f7e1e4b	0.99264973
244	0xbe00d5d8	-0.12581575
245	0xbe635e40	-0.22203922
246	0xbe10d422	-0.14143422
247	0x3d0d5c87	0.03451207
248	0xbec31be2	-0.3810721
249	0x3ce70452	0.028200302
250	0x3ecc116c	0.39857042
251	0x3f8d48c6	1.1037834
252	0xbda037f5	-0.07823173
253	0xbecadb9d	-0.39620677
254	0xbd825aa3	-0.06364944
255	0xb9b893ec	-0.00035205425

fc1.bias f4 [256]
0	0xbd553548	-0.052052766
1	0xbda5e655	-0.08100573
2	0xbe0358f2	-0.12826899
3	0xbdabc847	-0.08387809
4	0xbca979fb	-0.020688048
5	0x3f1b09e7	0.60561985
6	0xbd5242e6	-0.05133333
7	0xbd87e446	-0.066353366
8	0xbe04ff52	-0.12988022
9	0xbdbdfff1	-0.092773326
10	0x3f12f31a	0.57402194
11	0xbd97cfdb	-0.07412692
12	0xbd84f574	-0.06492129
13	0xbe3fb115	-0.18719895
14	0xbea30b74	-0.31844676
15	0xbe0f50d5	-0.13995679
16	0xbdf0738d	-0.117407896
17	0x3ecb4124	0.39698136
18	0x3da8b71b	0.082380496
19	0xbd7cb6ce	-0.061697774
20	0xbdb11877	-0.086472444
21	0xbdf36eb5	-0.1188635
22	0xbd56ce5b	-0.05244289
23	0xbd998494	-0.074959904
24	0xbd6264a9	-0.05527178
25	0xbece43f0	-0.40286207
26	0xbe9efbb3	-0.31051406
27	0xbe218bc7	-0.15775977
28	0xbd29df0d	-0.041472483
29	0xbd8d2499	-0.06891746
30	0xbc0f7b3c	-0.008757409
31	0xbd8876f9	-0.06663317
32	0xbd8fcff2	-0.07022084
33	0xbde805a9	-0.113292046
34	0xbd83b8e7	-0.06431752
35	0xbe00f14f	-0.12592052
36	0x3c4c2629	0.01246027
37	0xbd07c060	-0.033142447
38	0xbd38113d	-0.044938315
39	0xbd9f45da	-0.07776995
40	0xbcdd21bc	-0.026993625
41	0xbdd5fd15	-0.10448662
42	0xbdb3b3a8	-0.08774501
43	0xbd94c6e3	-0.07264497
44	0xbe558db4	-0.20854837
45	0xbe9a0f0d	-0.30089608
46	0xbb35ff06	-0.0027770414
47	0xbd72f239	-0.059313033
48	0xbdea3772	-0.114363566
49	0xbdcc5d37	-0.09978717
50	0xbcd72ab9	-0.026265489
51	0xbd5516fe	-0.05202388
52	0xbe65c8e6	-0.22439918
53	0xbd5ed87d	-0.054405678
54	0x3e793967	0.24338304
55	0xbda41bf1	-0.08013142
56	0xbd9933c1	-0.074805744
57	0xbdf698c5	-0.12040857
58	0xbda38b99	-0.079856105
59	0xbd94b568	-0.07261163
60	0xbd84747a	-0.06467529
61	0xbce0fb32	-0.02746353
62	0x3efd1c1d	0.4943551
63	0xbcce0333	-0.02514801
64	0xbda8ff0b	-0.082517706
65	0xbe3b2436	-0.18275532
66	0xbd7229a0	-0.059121728
67	0xbdb59365	-0.08866004
68	0xbdeb14ea	-0.114785984
69	0xbd8a69af	-0.06758439
70	0xbd6daff1	-0.05802912
71	0xbb97f488	-0.0046373047
72	0xbe966270	-0.29371977
73	0x3b3dc73a	0.002895786
74	0xbd4bb7b5	-0.049735744
75	0xbd6eb340	-0.058276415
76	0xbdc1cd3c	-0.094629735
77	0xbd905a7d	-0.07048509
78	0xbddf8ee4	-0.10915926
79	0xbd456aff	-0.048197743
80	0xbe57d412	-0.21076992
81	0xbd2bdb02	-0.04195691
82	0xbd02abe7	-0.03190222
83	0xbd3df47f	-0.046375748
84	0xbe937373	-0.28799018
85	0xbcd8a177	-0.02644418
86	0xbea48c58	-0.32138324
87	0xbdd235fd	-0.10264204
88	0xbd7e8d20	-0.062146306
89	0xbd85206a	-0.06500323
90	0xbd9b7fc3	-0.07592728
91	0xbe98d91d	-0.29853144
92	0xbd86a973	-0.065752886
93	0xbd666ad4	-0.056254223
94	0xbdb13ca7	-0.08654147
95	0x3dae338b	0.08505925
96	0xbe198a6f	-0.14994214
97	0xbdfc8724	-0.123304635
98	0xbdd1445e	-0.10218118
99	0xbea35b2a	-0.3190549
100	0xbda73143	-0.08163693
101	0xbe021556	-0.12703452
102	0xbdf5ac1c	-0.11995718
103	0xbd6b6d2f	-0.057477172
104	0xbd8a0fdc	-0.06741306
105	0xbd28b27f	-0.041185852
106	0xbd7d733b	-0.06187747
107	0xbd4961ab	-0.04916541
108	0xbd7dd386	-0.061969303
109	0xbe0841d8	-0.13306367
110	0xbde00beb	-0.10939773
111	0xbd1f9353	-0.03895886
112	0xbd8d4fd5	-0.068999924
113	0xbdbc89ff	-0.09206008
114	0xbded64fc	-0.11591527
115	0x3f076080	0.5288162
116	0xbd2f4e2a	-0.042799152
117	0xbb69739a	-0.0035621882
118	0x3a143b73	0.00056546106
119	0xbe26befb	-0.16283791
120	0xbd4a3e89	-0.049376044
121	0xbd29802a	-0.041381992
122	0xbd825779	-0.0636434
123	0x3ea94f31	0.3306823
124	0xba325760	-0.0006803181
125	0xbdb82ede	-0.08993314
126	0xbda30c7a	-0.07961364
127	0xbe933e67	-0.28758547
128	0xbd6b8d92	-0.05750806
129	0xbd2f2c5f	-0.042766925
130	0xbd2d5e9e	-0.042326562
131	0xbe1a3576	-0.15059456
132	0xbe347b78	-0.17625225
133	0xbccfd35b	-0.025369337
134	0xbc9d1996	-0.01917724
135	0xbce89707	-0.028392328
136	0xbe82a0e9	-0.2551339
137	0xbded4f08	-0.1158734
138	0xbe907181	-0.28211597
139	0xbe280f8c	-0.1641218
140	0xbd9a2e1c	-0.07528326
141	0xbdb37df4	-0.08764258
142	0xbdd197f5	-0.10234062
143	0xbd9d8c1e	-0.07692741
144	0xbde2c82d	-0.11073337
145	0xbdb75b22	-0.08952929
146	0xbdae562e	-0.08512531
147	0x3d0c2d92	0.034223147
148	0xbd2c5aaf	-0.04207867
149	0xbdcfc13d	-0.10144279
150	0xbd78677b	-0.06064556
151	0xbddaa3f2	-0.10675801
152	0xbd441d1a	-0.047879316
153	0xbcf26902	-0.029591087
154	0xbd1e3c82	-0.038631923
155	0xbd1cb155	-0.038255055
156	0xbdcd7089	-0.1003123
157	0xbe58430f	-0.21119331
158	0xbd7c8e25	-0.061658997
159	0xbda9026c	-0.08252415
160	0xbccaf595	-0.024775306
161	0xbddb3818	-0.107040584
162	0xbe297a15	-0.16550477
163	0xbdad49fd	-0.08461378
164	0xbe26bd5a	-0.1628317
165	0xbd2c6b60	-0.04209459
166	0xbdc0cc91	-0.09414018
167	0xbd43a095	-0.047760565
168	0xbd9f878f	-0.077895276
169	0xbe293430	-0.16523814
170	0xbdc0b7da	-0.09410067
171	0xbdd84f58	-0.105620086
172	0xbe8501c1	-0.259779
173	0xbe101c60	-0.14073324
174	0xbe973a7c	-0.29536808
175	0xbd42cb11	-0.04755694
176	0xbe116685	-0.14199264
177	0xbe0e2ef8	-0.13885105
178	0xbe1d8831	-0.15383984
179	0xbe0c7d19	-0.13719596
180	0xbd648134	-0.05578728
181	0xbd0e63bb	-0.03476308
182	0xbdee7aeb	-0.116445385
183	0xbe01a480	-0.12660408
184	0xbd065f38	-0.03280565
185	0xbd3e0000	-0.04638672
186	0x3da1db0d	0.07903109
187	0xbd8e327f	-0.06943225
188	0xbe0534cc	-0.13008422
189	0xbd850f69	-0.0649708
190	0xbd3cb3bc	-0.046069846
191	0xbd83f396	-0.06442945
192	0xbe317eb6	-0.17333493
193	0xbd4ca134	-0.049958423
194	0xbe03e422	-0.12879995
195	0xbdc43489	-0.09580333
196	0xbd732c11	-0.059368197
197	0xbd4cb23d	-0.04997467
198	0xbe935bc3	-0.28780946
199	0xbe27eb37	-0.16398321
200	0xbcbf996d	-0.023388589
201	0xbd3d53e7	-0.046222594
202	0xbdd5ffc0	-0.10449171
203	0xbda524a5	-0.0806363
204	0xbe5ec3f3	-0.21754436
205	0xbd62e042	-0.05538965
206	0xbe3c8c88	-0.18412983
207	0x3caa9679	0.020823704
208	0xbe0700e8	-0.1318394
209	0xbdad0d21	-0.0844977
210	0xbd9d778b	-0.07688817
211	0xbc5b56a3	-0.013387355
212	0xbec4be5f	-0.38426492
213	0xbdfc5a80	-0.12321949
214	0xbd8982b3	-0.06714382
215	0xbd84321d	-0.06454871
216	0xbdb54157	-0.08850353
217	0xbe3d12f9	-0.18464269
218	0xbe057f77	-0.13036905
219	0xbe231bc6	-0.15928563
220	0xbe0ff9bf	-0.14060114
221	0xbd8ffc7f	-0.07030582
222	0xbe6c96ae	-0.23104355
223	0xbe023d0a	-0.12718597
224	0xbdd22ce9	-0.10262472
225	0xbd9db6e1	-0.07700897
226	0xbe35ed01	-0.17766191
227	0xbd90b4fb	-0.07065769
228	0xbd0461cf	-0.03231984
229	0xbe67989c	-0.2261681
230	0xbd8f57cd	-0.069991685
231	0xbd179802	-0.0370102
232	0xbd55fcfb	-0.052243214
233	0xbdca3169	-0.098727055
234	0xbc9a99de	-0.018872198
235	0xbdba9c91	-0.09111894
236	0xbd910a95	-0.070820965
237	0xbd667361	-0.056262378
238	0xbd0f77de	-0.035026424
239	0xbe446bec	-0.19181794
240	0xbdb9812c	-0.09057841
241	0xbde9b64d	-0.11411724
242	0xbdaeb457	-0.08530491
243	0xbd9468e6	-0.0724657
244	0xbd72dbae	-0.059291534
245	0xbd59c0cf	-0.053162392
246	0xbd49036a	-0.04907552
247	0xbd90d201	-0.07071305
248	0xbe1072ea	-0.14106336
249	0xbe8d4a26	-0.27595633
250	0xbe311071	-0.17291428
251	0xbe11839f	-0.14210366
252	0xbd7f8a8c	-0.062387988
253	0xbdf092dd	-0.11746762
254	0xbc1dd4be	-0.009633241
255	0xbda5da91	-0.08098329

fc2.weight f4 [256, 256]
0	0xbdb246e7	-0.0870493
1	0xbc106496	-0.008813044
2	0x3c3a59b5	0.011373927
3	0x3d23f8c8	0.04003218
4	0xb8eb0e36	-0.0001120832
5	0xbf5da0fb	-0.8657376
6	0xbebf5958	-0.3737285
7	0x3e3471a2	0.17621472
8	0x3d4883a4	0.048953667
9	0x3e5666ec	0.20937699
10	0xbf4492d0	-0.7678652
11	0x3e395ef7	0.18102632
12	0x3d796efd	0.060896862
13	0x3ed0641d	0.4070138
14	0x3f77fb87	0.96868175
15	0x3e9a407b	0.3012732
16	0xbc30e87f	-0.010797619
17	0x3ec92131	0.39283136
18	0x3f2b9db5	0.67037517
19	0xbd07c246	-0.033144258
20	0x3dee0744	0.116224796
21	0x3f319002	0.69360363
22	0x3e802507	0.2502825
23	0x3e766f68	0.24065936
24	0x3edd228c	0.4319042
25	0xbe92ea11	-0.28694203
26	0xbef4d260	-0.47816753
27	0x3dea5336	0.114416525
28	0x3c8012df	0.015633998
29	0x3d3ef7ed	0.04662316
30	0x3dc622f1	0.09674633
31	0xbd293ad6	-0.041315876
32	0xbdab2498	-0.08356589
33	0xbc92f7fc	-0.017940514
34	0xbd3b65f3	-0.045751523
35	0x3b1c6f6f	0.002387013
36	0x3f2805b9	0.6563373
37	0x3e8a7cfc	0.2704848
38	0x3e94b17e	0.29041666
39	0x3df7f8ba	0.12107988
40	0x3dc4a079	0.0960092
41	0xbdee419f	-0.1163361
42	0x3ec5957e	0.38590616
43	0x3e173906	0.14767846
44	0x3f157411	0.5838023
45	0x3efc8bac	0.4932531
46	0x3c314766	0.010820245
47	0x3d6f7d12	0.058468886
48	0xbd4ee269	-0.05050889
49	0xbda0829f	-0.07837414
50	0x3de02a87	0.109456114
51	0x3e9918e3	0.299018
52	0x3e5b34fc	0.2140693
53	0x3df082c7	0.11743694
54	0x3ca5f99c	0.020260625
55	0xbd44ff77	-0.048095193
56	0xbd82c9e9	-0.063861676
57	0x3dac558a	0.08414753
58	0x3e384f11	0.17998911
59	0xbcffdf68	-0.031234458
60	0x3f1a0112	0.60157883
61	0x3bc5627e	0.006023704
62	0x3f180b5f	0.5939235
63	0x3f1f179b	0.62145394
64	0xbb3bdf32	-0.002866697
65	0x3e9fc83c	0.31207454
66	0x3f1bbd55	0.6083577
67	0x3df825bd	0.12116573
68	0xbe5cacc9	-0.21550287
69	0x3d7722f9	0.060336087
70	0x3e52089d	0.20511098
71	0x3e81abbe	0.2532634
72	0x3d1861e8	0.037202746
73	0x3f7b3b57	0.9813742
74	0x3c756016	0.014976522
75	0x3ee8cde4	0.45469582
76	0x3d0e58f3	0.034752797
77	0x3e3a7cfa	0.18211737
78	0x3ea62cac	0.32455957
79	0xbd8f39e9	-0.06993467
80	0xbf1e734c	-0.6189468
81	0xbc214588	-0.009843238
82	0x3fa57d64	1.2928891
83	0x3ea95c34	0.33078158
84	0xbecce75f	-0.40020272
85	0x3e79c902	0.24393085
86	0x3ed2e7f0	0.4119258
87	0x3e183b90	0.14866471
88	0xbc97a7eb	-0.018512687
89	0x3e22c81f	0.15896653
90	0x3e054d6a	0.13017812
91	0x3f32d585	0.69857055
92	0xbc7b4204	-0.015335564
93	0x3de7f223	0.11325481
94	0x3e4c87fc	0.19973749
95	0x3e8394cd	0.25699463
96	0x3e830f98	0.25597835
97	0xbe681325	-0.22663553
98	0x3eda1fbe	0.42602342
99	0xbcd5f4e8	-0.026117757
100	0x3f347df3	0.70504683
101	0x3e8ccec6	0.27501506
102	0xbde49610	-0.11161435
103	0x3f33860a	0.701264
104	0x3db69446	0.08915
105	0x3da19547	0.078898005
106	0x3e862899	0.2620285
107	0x3dbd726a	0.092503384
108	0xbe42d4b3	-0.19026451
109	0xbe518e19	-0.20464362
110	0xbe2e20bb	-0.17004673
111	0x3e315dc7	0.1732093
112	0x3e0c5970	0.13705993
113	0xbe187078	-0.14886653
114	0x3d9e5194	0.077304035
115	0xbf609d23	-0.8773977
116	0x3f26e3a0	0.6519108
117	0x3f3d3f77	0.73924965
118	0x3e761de1	0.24034835
119	0xbe6cc247	-0.23120986
120	0x3e0b0ef3	0.13579921
121	0x3d83f897	0.06443899
122	0x3c9e1769	0.019298272
123	0x401fe7bd	2.4985192
124	0x3df1b87a	0.11802764
125	0xbe130a9a	-0.14359513
126	0xbe6b75b6	-0.22994122
127	0xbbe18e19	-0.0068833944
128	0x3f254646	0.64560354
129	0xbce297e4	-0.027660318
130	0x3f1d9818	0.615602
131	0xbcade450	-0.021227032
132	0x3f171166	0.5901092
133	0x3e1a040a	0.15040603
134	0x3dc7c7b3	0.097548865
135	0xbd3ca903	-0.04605962
136	0x3fe62988	1.7981424
137	0x3ec83c44	0.3910848
138	0x3e546207	0.2074052
139	0x3e105a3e	0.14096925
140	0xbd028a90	-0.031870425
141	0xbd1b447a	-0.0379071
142	0x3d86c6f6	0.065809175
143	0x3e0c00c8	0.13672173
144	0x3df66bd3	0.120322846
145	0x3d27a620	0.040929914
146	0xbdc3bd92	-0.09557642
147	0xbf21926f	-0.63114065
148	0x3e07cabe	0.13260934
149	0x3ddb86dd	0.107190825
150	0x3d81f80b	0.063461386
151	0x3dff5249	0.124668665
152	0x3e09ea60	0.13468313
153	0xbe4dfd9b	-0.20116274
154	0x3d3051b0	0.043046653
155	0x3d062605	0.032751102
156	0x3c67f9d6	0.014158687
157	0xbe175a3e	-0.14780518
158	0x3e49dfeb	0.19714324
159	0x3e80680c	0.2507938
160	0x3db9a63e	0.09064911
161	0x3ebe5ab6	0.37178582
162	0x3ed2b244	0.4115163
163	0x3d9a2e03	0.07528307
164	0x3e8b01b8	0.2714975
165	0x3d0c227f	0.034212586
166	0x3d8ab16b	0.06772121
167	0x3e33a422	0.1754308
168	0x3e49ed7a	0.19719496
169	0x3ed9b11c	0.42517936
170	0xbe38d402	-0.18049625
171	0x3d9b06c0	0.07569647
172	0x3f0511df	0.51980394
173	0x3f063043	0.5241739
174	0x3ee9ef49	0.45690373
175	0x3e192353	0.14954881
176	0x3e048162	0.1293998
177	0x3d14103f	0.036148306
178	0x3e1fb308	0.15595639
179	0x3eb94fdc	0.3619374
180	0x3d99449d	0.0748379
181	0xbdd2a285	-0.102849044
182	0x3ee8f485	0.45499054
183	0xbcdafc79	-0.026731716
184	0xbdeb8815	-0.11500565
185	0xbdb1e595	-0.086863674
186	0x3f1ce088	0.6128011
187	0x3e801201	0.25013736
188	0x3a973c6e	0.0011538395
189	0xbd1549fd	-0.036447514
190	0x3dac0898	0.08400077
191	0x3d811164	0.06302145
192	0x3e4650c4	0.19366747
193	0x3df8c167	0.121462636
194	0x3d4c58ec	0.04988949
195	0x3d2f2a26	0.042764805
196	0x3ec0a63d	0.3762683
197	0x3e2bd067	0.16778718
198	0xbebdf1b8	-0.3709848
199	0x3ec8fd17	0.39255592
200	0x3e4b1953	0.19833879
201	0x3d2843fe	0.041080467
202	0xbd7126f1	-0.058875028
203	0x3d995bab	0.074881874
204	0x3eb23afc	0.34810627
205	0x3ede9272	0.43471104
206	0x3def25ed	0.11677156
207	0x3ee0b15f	0.43885323
208	0x3dd872eb	0.10568794
209	0x3d3d7f3f	0.04626393
210	0x3da8cd17	0.08242243
211	0x3e62103a	0.22076502
212	0x3f5f6207	0.8725895
213	0x3f0a0d1e	0.53926265
214	0xbdac9f21	-0.08428789
215	0x3ea6b971	0.32563356
216	0xbccab1c0	-0.02474296
217	0x3e0c9b07	0.13731013
218	0x3e4c3073	0.19940357
219	0x3efce4e0	0.49393368
220	0x3f157fff	0.5839843
221	0x3e5c74cd	0.21528931
222	0x3ec0d70f	0.37664077
223	0x3e9be59a	0.3044861
224	0x3eb092d9	0.34487036
225	0xbd830579	-0.06397528
226	0xbeb7c09c	-0.35889137
227	0xbdf4e9c7	-0.11958652
228	0x3f48aef7	0.78391975
229	0xbe4d86cf	-0.20070957
230	0x3d968b1f	0.07350754
231	0x3d3cfab1	0.046137515
232	0x3e49611d	0.19665952
233	0x3f617486	0.88068426
234	0x3dbad647	0.091229014
235	0x3f26066c	0.6485355
236	0x3da6952e	0.081339225
237	0x3cb839ce	0.0224885
238	0xbd50d9b3	-0.050988864
239	0xbe7baf2c	-0.24578542
240	0x3eba215a	0.3635357
241	0x3d5841e3	0.05279721
242	0x3e84bc44	0.25924885
243	0xbce92f0c	-0.028464817
244	0x3ee14fcb	0.4400619
245	0x3ddb7ac7	0.10716777
246	0x3e89c55f	0.26908395
247	0x3c3b7b60	0.011442989
248	0x3dc4c586	0.09607987
249	0x3efc96ac	0.49333704
250	0x3f99332a	1.1968739
251	0x3dec39b8	0.115344465
252	0xbe17552b	-0.14778583
253	0xbd115816	-0.035484396
254	0x3df10be4	0.11769846
255	0x3d62e4f1	0.055394117

fc2.bias f4 [256]
0	0xbf035479	-0.5130077
1	0xbf109324	-0.5647452
2	0xbf130d88	-0.5744252
3	0xbf29a571	-0.6626807
4	0xbf751ace	-0.95744026
5	0xbf92e5ce	-1.1476381
6	0xbf407bda	-0.7518898
7	0x3e9f2a3d	0.31086913
8	0xbf0c7a6a	-0.5487429
9	0xbf273282	-0.65311444
10	0x3eed8e2d	0.46397534
11	0x3ecf63be	0.40505785
12	0x3f540c7c	0.8283155
13	0x3f32a857	0.69788116
14	0xbf252489	-0.64508873
15	0xbf292179	-0.660667
16	0xbed49033	-0.41516265
17	0xbe817a95	-0.25288835
18	0xbf2096c0	-0.62730026
19	0xbcc5ad4d	-0.024130488
20	0xbf80a09e	-1.0049016
21	0xbed97c3d	-0.424776
22	0xbf24ac07	-0.6432499
23	0x3f55392b	0.83290356
24	0x3ea02ba8	0.31283307
25	0xbf0ef918	-0.55848837
26	0x3fbbe70b	1.4679884
27	0xbe840278	-0.25783134
28	0xbec08bc3	-0.3760663
29	0xbf463250	-0.7742052
30	0x3f158daa	0.5841929
31	0x3e41cc2d	0.18925543
32	0xbf0094a8	-0.5022683
33	0x3f02e81b	0.51135415
34	0xbef0ab69	-0.47005776
35	0x3eadc748	0.33941102
36	0xbea8da3f	-0.3297901
37	0x3e860e03	0.26182565
38	0xbe7c76e6	-0.24654731
39	0xbed8763a	-0.422777
40	0x3e344e83	0.17608075
41	0xbf183149	-0.59450203
42	0xbf1f652b	-0.62263745
43	0xbe8810a5	-0.265752
44	0xbeab3fa1	-0.33446983
45	0x3e720f1a	0.23638573
46	0xbf0173b9	-0.50567204
47	0xbf5c5cb6	-0.86078966
48	0xbf01cfd7	-0.50707763
49	0x3e109bd3	0.14121942
50	0xbeb8917f	-0.36048505
51	0x3e223ca8	0.15843451
52	0x3f082415	0.53180057
53	0xbf38c30f	-0.72172636
54	0x3f080a33	0.5314056
55	0x3f4e42de	0.8057078
56	0xbec79683	-0.3898202
57	0xbf32c78b	-0.6983573
58	0xbf073bb4	-0.52825475
59	0xbece07ed	-0.40240422
60	0xbef702d8	-0.48244357
61	0xbf04bcaf	-0.5185041
62	0xbec30363	-0.3808852
63	0xbdd1071f	-0.10206436
64	0xbebfa935	-0.37433782
65	0xbeb25bc0	-0.34835625
66	0xbf0a6f16	-0.54075754
67	0xbfb8ad41	-1.4427873
68	0xbef9398d	-0.4867672
69	0xbf126843	-0.5719034
70	0xbf2b6221	-0.6694661
71	0xbf01704a	-0.50561965
72	0xbeb07c28	-0.34469724
73	0xbf07f9cc	-0.53115535
74	0xbf4b2fea	-0.79369986
75	0xbdb1d71d	-0.08683608
76	0xbea595d4	-0.32340872
77	0xbec587e6	-0.38580245
78	0xbee83650	-0.45353937
79	0x3ebcdd21	0.36887458
80	0x3f2447d5	0.64172107
81	0xbf0d05b5	-0.55086833
82	0xbf160b47	-0.5861096
83	0x3eb4ecdb	0.35336956
84	0x3e562734	0.20913392
85	0xbf044a4c	-0.5167587
86	0x3ed134a2	0.40860468
87	0xbf123a3c	-0.5712011
88	0xbf0e5dfe	-0.5561217
89	0xbf1914a3	-0.59797114
90	0xbe869f62	-0.26293474
91	0xbed96192	-0.42457253
92	0xbf012c73	-0.5045845
93	0xbf09ce91	-0.5383082
94	0xbdd5ec63	-0.10445478
95	0xbf391753	-0.72301215
96	0xbf1afe98	-0.6054473
97	0xbedf2e5e	-0.43590063
98	0xbf1ac28a	-0.60453093
99	0x3e9912f1	0.29897264
100	0x3deebcc2	0.116570964
101	0xbdae6b42	-0.085165516
102	0xbf45eb79	-0.7731243
103	0xbeca49da	-0.3950947
104	0x3f242382	0.6411668
105	0xbefd142a	-0.49429446
106	0xbf07596c	-0.5287082
107	0xbe953d0c	-0.29148138
108	0xbf020770	-0.507926
109	0xbeac06fe	-0.33599085
110	0xbf08b1d0	-0.5339632
111	0xbdfd2bdb	-0.123618804
112	0xbe5b0a80	-0.21390724
113	0xbef5ac45	-0.47982994
114	0xbf540340	-0.8281746
115	0xbe4a8ac0	-0.19779491
116	0xbf2662b3	-0.64994353
117	0x3f1a5667	0.6028809
118	0xbeba9daa	-0.36448413
119	0x3e667de8	0.22508967
120	0xbee39025	-0.4444591
121	0xbe878f04	-0.264763
122	0x3f14db7f	0.58147424
123	0xbf0d17a8	-0.5511422
124	0x3f257baf	0.6464185
125	0xbf0605e6	-0.5235275
126	0xbf10268b	-0.5630881
127	0x3e9d8434	0.30764925
128	0xbe8a7188	-0.27039742
129	0xbf00b29a	-0.50272524
130	0xbf5eeba0	-0.87078285
131	0xbf0b6557	-0.5445151
132	0xbeecf41f	-0.4628
133	0xbe84e76f	-0.2595782
134	0xbf13b2ea	-0.57694876
135	0xbef44f6d	-0.47716847
136	0xbee99648	-0.45622468
137	0xbfa350a9	-1.275899
138	0xbe961847	-0.29315397
139	0xbe5bc94e	-0.2146351
140	0x3f188f0a	0.5959326
141	0xbf60902d	-0.87719995
142	0x3f403d45	0.7509349
143	0xbf076dee	-0.52902114
144	0x3f210650	0.6290026
145	0xbef074b2	-0.4696403
146	0x3f04ded7	0.51902527
147	0xbe72aafb	-0.23698036
148	0xbefe1829	-0.49627808
149	0xbed92fb1	-0.42419198
150	0xbe8b82e1	-0.2724829
151	0xbf1110e5	-0.56666404
152	0xbf099baa	-0.5375315
153	0xbf1c1e63	-0.60983866
154	0x3f0da398	0.5532775
155	0xbf658146	-0.8965038
156	0x3e92c36c	0.2866472
157	0xbf039a9a	-0.5140778
158	0xbdf3c305	-0.119024314
159	0xbee6edd1	-0.45103315
160	0x3ed5ab25	0.41732135
161	0xbf183c20	-0.59466743
162	0xbf2dfdff	-0.6796569
163	0xbee03136	-0.43787545
164	0xbf6aaca8	-0.916697
165	0xbe020c97	-0.12700115
166	0xbf009414	-0.5022595
167	0xbeda5cc0	-0.42648888
168	0xbe931356	-0.2872569
169	0xbf120b83	-0.57048815
170	0xbf0b7099	-0.54468685
171	0xbf143d84	-0.57906365
172	0xbef3a9a5	-0.47590366
173	0xbf4c0d57	-0.79707855
174	0xbecec8f4	-0.4038769
175	0x3f2ebbbe	0.6825522
176	0x3f2468a8	0.6422219
177	0xbf475f29	-0.7787958
178	0xbf43ff9d	-0.7656191
179	0xbf15927a	-0.5842663
180	0xbf0c2258	-0.54739904
181	0xbf085905	-0.53260833
182	0x3ed33c85	0.4125711
183	0xbebfef3f	-0.37487218
184	0xbf14a6b5	-0.58066875
185	0xbf2ea7ee	-0.6822499
186	0xbe3f2112	-0.18664959
187	0x3eb686c5	0.35649696
188	0x3ea6c31c	0.32570732
189	0xbdc2b457	-0.09507053
190	0xbf38c5f7	-0.7217707
191	0xbf1c2a7c	-0.61002326
192	0x3e8d69c6	0.2761976
193	0xbf437377	-0.7634806
194	0xbef407b1	-0.47662118
195	0xbe9091a5	-0.28236118
196	0xbf2ad029	-0.6672388
197	0xbf309f0c	-0.68992686
198	0x3dc70176	0.097170755
199	0xbf166244	-0.5874369
200	0xbdbc1765	-0.0918415
201	0xbe951edb	-0.29125103
202	0xbede232f	-0.43386218
203	0xbf084290	-0.53226566
204	0x3e94ded6	0.2907626
205	0xbf0798e6	-0.5296768
206	0xbeced7c3	-0.40398988
207	0xbf019034	-0.5061066
208	0xbeac7a5a	-0.33687097
209	0x3e2261d2	0.15857628
210	0xbf1d1c89	-0.61371666
211	0xbecab7da	-0.39593393
212	0xbf50904c	-0.8147018
213	0x3f1f7e95	0.62302524
214	0xbef8d024	-0.485963
215	0x3d0909bb	0.033456545
216	0xbf25b006	-0.64721715
217	0xbf44dc32	-0.7689849
218	0xbf5d451d	-0.86433583
219	0xbe0f14dd	-0.13972802
220	0xbf3feca1	-0.7497044
221	0xbf3dee67	-0.741919
222	0x3f81ab2f	1.0130366
223	0xbf2c393d	-0.6727484
224	0xbf4ef715	-0.8084577
225	0xbf7045ca	-0.9385649
226	0xbeffd672	-0.49968296
227	0xbef98c8f	-0.4874005
228	0xbf54633a	-0.8296391
229	0xbc951bd2	-0.018201742
230	0xbf2ded3e	-0.6794013
231	0xbee00b39	-0.43758562
232	0xbef364c7	-0.47537825
233	0xbedb299d	-0.42805186
234	0xbe8395aa	-0.25700122
235	0xbe69ed43	-0.22844414
236	0xbf97b661	-1.1852533
237	0x3c674b23	0.014117035
238	0xbeada659	-0.33915976
239	0x3efdafc7	0.4954817
240	0xbe3778ee	-0.17917225
241	0xbe281a1d	-0.16416211
242	0xbf04ebba	-0.5192219
243	0xbef3f284	-0.47645962
244	0xbf9a5bda	-1.2059281
245	0xbecc35b6	-0.39884728
246	0x3ed8d729	0.42351654
247	0xbedc4335	-0.43020025
248	0xbe27fe07	-0.16405497
249	0xbef5eb26	-0.48030967
250	0xbe99448f	-0.2993512
251	0xbe61e69f	-0.22060631
252	0xbf3beba6	-0.73406446
253	0xbeb46845	-0.352358
254	0x3e0bdd38	0.13658607
255	0x3f2116eb	0.62925595

fc3.weight f4 [128, 256]
0	0xbe94a9e9	-0.2903588
1	0x3d844121	0.06457735
2	0x3e4974bb	0.19673435
3	0xbf6215da	-0.8831459
4	0x3ee4284e	0.44562
5	0x3f066298	0.5249419
6	0x3f8cf0d9	1.1011001
7	0xbe1cf6c8	-0.15328515
8	0x3c7e70b0	0.0155297965
9	0x3de51f22	0.11187579
10	0xbeb10076	-0.34570664
11	0xbe4ea934	-0.20181733
12	0xbf56b19b	-0.83864754
13	0xbf36a7a8	-0.71349573
14	0x3df960b6	0.12176649
15	0xbe1808e7	-0.14847146
16	0x3d504508	0.050847083
17	0x3e7adcd3	0.244983
18	0x3ea62026	0.32446402
19	0xbfc22463	-1.5167354
20	0x3c0fa55f	0.008767455
21	0xbd3d8a63	-0.046274554
22	0x3f1a9d17	0.6039595
23	0xbf652dab	-0.8952281
24	0xbe45fe2b	-0.19335239
25	0xbcd25b5d	-0.025678331
26	0xbf429be6	-0.7601913
27	0x3ea76f79	0.32702234
28	0x3ebbcac2	0.3667813
29	0x3c81aca1	0.015829386
30	0xbeb76284	-0.3581735
31	0xbeef2fba	-0.467161
32	0x3e040cb0	0.12895465
33	0xbf910092	-1.1328299
34	0x3f0db1f6	0.5534967
35	0xbebd4018	-0.36962962
36	0x3f923822	1.142338
37	0x3d98de04	0.07464221
38	0xc004bc43	-2.0739906
39	0xbee9a8a1	-0.45636466
40	0xbf5ddfe6	-0.86669767
41	0x3f2fcc7a	0.6867138
42	0xbe0d76f9	-0.13814916
43	0x3f83311c	1.0249362
44	0x3ebf149d	0.37320414
45	0xbed5ef9f	-0.4178438
46	0x3e3eef7a	0.1864604
47	0x3ebf4b37	0.37362072
48	0x3ea7f3e5	0.32803264
49	0xbf2c1c4e	-0.6723069
50	0xbedaedce	-0.42759556
51	0xbe193f87	-0.1496564
52	0xbfa8b81f	-1.3181189
53	0xbf1c1218	-0.6096511
54	0x3f580870	0.84387875
55	0xbf071b32	-0.5277587
56	0x3f76ab2e	0.9635495
57	0xbeb04667	-0.34428713
58	0x3edcbfba	0.43115026
59	0x3f3dd406	0.7415165
60	0x3bae24d6	0.00531445
61	0xbe89a956	-0.26887006
62	0xbcda2063	-0.026626771
63	0xbfbc33f0	-1.470335
64	0xc044b96d	-3.0738175
65	0xbd29b600	-0.041433334
66	0xbe566850	-0.2093823
67	0xbf5c5140	-0.8606148
68	0x3e6860cb	0.22693174
69	0xbe89fe8d	-0.2695202
70	0x3d9066ac	0.07050833
71	0xbd52245e	-0.051304214
72	0x3e66a3ff	0.22523497
73	0x3e317fe8	0.17333949
74	0x3e60dd4b	0.21959417
75	0xbfac8a89	-1.3479778
76	0x3f9b19b6	1.2117221
77	0x3fa3f21a	1.2808259
78	0x3d99f334	0.075170904
79	0xbde982fa	-0.11401935
80	0xbe4a57fd	-0.19760127
81	0xbe824693	-0.2544447
82	0xbd8db9fa	-0.06920238
83	0xbf40c086	-0.7529377
84	0xbd70fed7	-0.058836784
85	0xbda94816	-0.082657024
86	0xbf19450e	-0.59870994
87	0xbe9474b4	-0.28995287
88	0x3d26aa58	0.040689796
89	0xbef3454e	-0.47513813
90	0x3d29a310	0.041415274
91	0x3e889a7a	0.26680356
92	0xbdc8a2ed	-0.097967006
93	0xbe3e9572	-0.18611696
94	0x3f1d244a	0.613835
95	0x4066fa6b	3.6090343
96	0xbd1a32d8	-0.037646145
97	0xbeafb1f4	-0.34315455
98	0xbe27ad1f	-0.16374634
99	0xbd79e75a	-0.06101165
100	0x3ea80028	0.3281262
101	0x3f21666a	0.63046896
102	0x3e20f984	0.15720183
103	0x3e930828	0.2871716
104	0xbeb52a2b	-0.35383734
105	0xbd6be23e	-0.05758881
106	0x3f7454c2	0.9544183
107	0x3f38c11a	0.7216965
108	0x3d2a6a8a	0.04160551
109	0xbd72d123	-0.05928148
110	0x3f6ed24a	0.93289626
111	0xbceb3e26	-0.028716158
112	0x3f2a8f10	0.66624546
113	0xbe1d2bc4	-0.15348727
114	0x3f43e7d5	0.7652562
115	0x3ed69bb1	0.41915658
116	0x3da3e6d5	0.08003012
117	0xbefc7d70	-0.4931445
118	0x3e851efa	0.26000196
119	0xbe07dc90	-0.13267732
120	0x3d390e46	0.045179628
121	0x3d877cc0	0.06615591
122	0xbe97a2e5	-0.29616466
123	0x3f53c85f	0.8272762
124	0xbe45eb2d	-0.19327994
125	0xbeab519e	-0.33460706
126	0xbe0b49e6	-0.13602409
127	0xbee8f5cd	-0.4550003
128	0xbb2a6e1c	-0.0026005572
129	0xbe645704	-0.22298819
130	0xbe5e53cc	-0.21711653
131	0x3d1ccd95	0.038281996
132	0x3f6d35fe	0.9266051
133	0x3f93144c	1.1490569
134	0xbf6e533a	-0.93095744
135	0xbed15eff	-0.4089279
136	0xbe3523f1	-0.17689492
137	0x3e6ae450	0.22938657
138	0xbc84e870	-0.016224116
139	0xbf2a2586	-0.66463506
140	0xbf8a03c0	-1.0782394
141	0x3e102fbe	0.14080712
142	0xbf1d4b59	-0.61443096
143	0xbf41de2f	-0.7572965
144	0xbf68eb20	-0.9098377
145	0x3f4dca8a	0.80387175
146	0xbefd3961	-0.4945784
147	0x3ed2583a	0.41082937
148	0xbca6cc8d	-0.02036121
149	0x3e2d7e6f	0.16942762
150	0x3e674167	0.22583543
151	0x3e45b4db	0.19307272
152	0xbaa8d524	-0.0012880904
153	0x3fd84bed	1.6898171
154	0x3e8a584a	0.27020484
155	0x3eb52776	0.3538167
156	0xbf34740c	-0.70489573
157	0x3eb1f746	0.34758967
158	0xbf57084b	-0.8399703
159	0xbcbff615	-0.02343277
160	0xbcd335c4	-0.025782473
161	0xbd9e325a	-0.077244475
162	0x3f01a760	0.5064602
163	0xbd94b259	-0.072605796
164	0x3f29f98f	0.6639642
165	0xbefd636a	-0.4948991
166	0xbe934c40	-0.28769112
167	0x3cd172b9	0.0255674
168	0x3f66df18	0.90184164
169	0x3d137c15	0.036007006
170	0xbd2f0ca2	-0.042736657
171	0xbfaf5618	-1.3698149
172	0x401b6775	2.4281895
173	0xbfb1bcb2	-1.388571
174	0xbd8971e0	-0.06711173
175	0xbeb06711	-0.34453633
176	0xbede14a5	-0.43375126
177	0x3d291a04	0.041284576
178	0x3e84ecbd	0.25961867
179	0xbcd9c38e	-0.026582506
180	0x3e9f3ed7	0.3110263
181	0x3e368360	0.17823553
182	0xbe1c5f85	-0.15270813
183	0xbe50c047	-0.20385848
184	0x3ecee647	0.40410063
185	0xbf10f754	-0.5662739
186	0xbec02ab3	-0.37532577
187	0xbd909eed	-0.07061563
188	0xbea9b281	-0.33144
189	0xbd9ce6af	-0.07661187
190	0xbdf4630f	-0.119329564
191	0xbe62af2f	-0.2213714
192	0xbf3b2b12	-0.73112595
193	0xbf029dd0	-0.5102205
194	0xbf859a2d	-1.0437676
195	0xbe2aeeb1	-0.16692616
196	0x3e15ba25	0.1462179
197	0xbe5eae91	-0.2174628
198	0x3efa4add	0.4888524
199	0xbddfd5ee	-0.10929476
200	0x3f22630a	0.6343237
201	0xbf7f1193	-0.9963619
202	0x3d2bd827	0.041954186
203	0x3ccd884d	0.025089407
204	0xbe76a7e3	-0.24087481
205	0xbf515e93	-0.81784934
206	0xbd29f36b	-0.041491907
207	0x3daa7be6	0.08324413
208	0x3f1e1393	0.6174862
209	0xbcba4e1e	-0.022742327
210	0x3e86c53a	0.26322347
211	0x3d282dcf	0.04105931
212	0x3f03fbce	0.515561
213	0x3dc81b09	0.097707815
214	0xbc2541d5	-0.010086496
215	0x3f349824	0.7054465
216	0xbd50b6b6	-0.050955497
217	0x3ee4500f	0.4459233
218	0x3ec92a41	0.3929005
219	0x3c31ac3c	0.0108442865
220	0xbe0be1f2	-0.1366041
221	0x3f1f703d	0.6228064
222	0xbf507dcc	-0.8144195
223	0x3e69fb18	0.22849691
224	0x3f160c78	0.58612776
225	0x3fb63e73	1.4237808
226	0x3da140d6	0.078736946
227	0x3e2bdcff	0.16783522
228	0x3f214039	0.6298862
229	0xbd73f194	-0.05955656
230	0xbe810d19	-0.25205305
231	0xbe2f63d8	-0.17127931
232	0xbe1053b0	-0.14094424
233	0xbeb3138c	-0.3497585
234	0x3f3df00f	0.74194425
235	0xbdd98e3d	-0.10622833
236	0x3f18c526	0.59675825
237	0x3dc78715	0.09742562
238	0xbed36ea4	-0.4129535
239	0x3f95a753	1.1691688
240	0xbf419405	-0.75616485
241	0xbf0f1a2a	-0.558993
242	0xbe12adce	-0.14324114
243	0xbe602378	-0.2188853
244	0x3f1eb9f2	0.6200248
245	0x3e2672c6	0.1625472
246	0xbe9b6581	-0.3035088
247	0xbe6312b0	-0.22175097
248	0xbf4a1f5d	-0.78954107
249	0x3d3e6483	0.046482574
250	0x3f862199	1.0479003
251	0x3f1762b3	0.5913498
252	0x3e7e7d04	0.24852377
253	0x3e96e6ed	0.29473057
254	0x3cd57bdd	0.02606004
255	0xbfe3664d	-1.7765595

fc3.bias f4 [128]
0	0xbe874acd	-0.26424256
1	0xbf7b84e9	-0.9824968
2	0xbf0ace46	-0.54221
3	0xbf28d0ba	-0.6594349
4	0xbf09d17e	-0.53835285
5	0xbd254698	-0.040350527
6	0xbf0a2665	-0.53964835
7	0xbf218e56	-0.6310781
8	0x3eae91a1	0.3409548
9	0x3f1bd3f2	0.6087028
10	0x3f17925f	0.5920772
11	0xbf637966	-0.88857114
12	0xbf64f6a5	-0.8943885
13	0xbf3fbae0	-0.74894524
14	0x3eb850d8	0.3599918
15	0xbef078a9	-0.46967056
16	0xbf759341	-0.95927817
17	0xbf214cea	-0.63007987
18	0x3f01817c	0.505882
19	0x3ee80bf6	0.45321625
20	0x3eefe40e	0.4685368
21	0xbf1e8448	-0.61920595
22	0x3f915859	1.1355087
23	0xbf34168b	-0.703469
24	0xbe9411da	-0.2891987
25	0xbf4e1aeb	-0.80509824
26	0xbe9c823b	-0.30568108
27	0xbee625cd	-0.44950715
28	0xbf4036cc	-0.75083613
29	0xbe66018a	-0.22461525
30	0xbecdefb0	-0.4022193
31	0xbd88b776	-0.066756174
32	0xbecb53fe	-0.39712518
33	0xbe3805dd	-0.17970987
34	0xbf677f81	-0.9042893
35	0xbb8077ea	-0.003920545
36	0xbee43315	-0.44570222
37	0xbe6233c5	-0.22090061
38	0xbe05652d	-0.13026877
39	0xbf87f2d3	-1.0620979
40	0xbf2f8ed3	-0.6857731
41	0xbf42922e	-0.760043
42	0xbef0dacf	-0.47041938
43	0xbf8a7e82	-1.0819857
44	0xbebf9f09	-0.37426022
45	0xbf0676c6	-0.52524984
46	0xbf80af9d	-1.0053593
47	0xbf4377ae	-0.7635449
48	0x3f41e520	0.7574024
49	0xbe95b3d6	-0.29238766
50	0xbf4a777e	-0.7908858
51	0xbea80f62	-0.32824236
52	0xbf091968	-0.5355439
53	0xbf000fcc	-0.50024104
54	0xbf658d36	-0.89668596
55	0xbf641668	-0.8909669
56	0xbf337dfb	-0.70114106
57	0xbe496bba	-0.1967
58	0xbe6270f7	-0.22113405
59	0xbf5cd26a	-0.86258566
60	0xbdeaa950	-0.11458075
61	0xbf404c9f	-0.75116915
62	0x3e67f409	0.22651686
63	0xbec637f7	-0.38714573
64	0xbe59b5bd	-0.21260734
65	0xbf3f91e9	-0.74832016
66	0xbece154c	-0.40250623
67	0x3f13b1bd	0.5769308
68	0xbf823706	-1.0173042
69	0x3db529a5	0.08845834
70	0x3f211546	0.62923086
71	0xbef9db5d	-0.48800173
72	0xbee03acc	-0.43794858
73	0xbf029777	-0.51012367
74	0x3d98f375	0.07468311
75	0x3c8b6545	0.017016063
76	0xbf049c85	-0.5180133
77	0xbf206c87	-0.626656
78	0xbe8f0819	-0.27935866
79	0xbf555c1b	-0.83343667
80	0xbe5fa0a7	-0.21838628
81	0xbe9f63eb	-0.3113092
82	0xbf41cec4	-0.75706124
83	0x3f050b35	0.51970226
84	0xbed00c5c	-0.4063443
85	0xbedcbbe6	-0.43112105
86	0x3f246fa3	0.64232844
87	0xbe740962	-0.23831704
88	0xbf7a3a03	-0.9774477
89	0x3ec647df	0.38726708
90	0xbe4217ef	-0.18954442
91	0xbf40febc	-0.75388694
92	0xbef86517	-0.48514625
93	0x3f097c6e	0.5370549
94	0xbf791417	-0.9729628
95	0xbf1f10ed	-0.621352
96	0x3ca134be	0.01967847
97	0xbf0ef1c7	-0.5583767
98	0xbf87c8a1	-1.0608102
99	0xbf686b4f	-0.9078874
100	0xbf33b2ff	-0.70195
101	0xbf694718	-0.91124105
102	0xbe5ed56f	-0.21761106
103	0x3ecdd2bf	0.4019985
104	0xbf26597c	-0.6498029
105	0x3d42f9f2	0.047601648
106	0xbe530a44	-0.20609385
107	0x3f8baed9	1.0912734
108	0xbf5c1156	-0.8596395
109	0x3f0e3626	0.55551374
110	0xbe3f643c	-0.1869058
111	0xbef47705	-0.47747055
112	0xbebc0c15	-0.36727968
113	0x3ef1bbff	0.47213742
114	0x3d2618a1	0.04055083
115	0xbf4c8b7d	-0.7990034
116	0xbf4ea51b	-0.8072068
117	0xbf208bad	-0.6271313
118	0x3f10d17b	0.5656964
119	0x3e3a6d1e	0.18205687
120	0x3e973039	0.29528978
121	0x3f4402a9	0.7656656
122	0xbe90ea96	-0.28303975
123	0x3ee1ec8f	0.44125792
124	0xbf34ff8c	-0.70702434
125	0x3f899984	1.0749974
126	0xbf6bc474	-0.9209664
127	0xbf314a5e	-0.692541

fc4.weight f4 [4, 128]
0	0xbe19ac41	-0.15007116
1	0x3db38ce1	0.08767105
2	0x3d91b261	0.07114101
3	0xbdb13f2d	-0.08654628
4	0xbea24a4c	-0.3169731
5	0xbc68d0c3	-0.014209929
6	0x3f1eaa44	0.61978555
7	0xbdfdea75	-0.12398235
8	0x3e57d333	0.2107666
9	0x3f8da190	1.106493
10	0x3f831c7a	1.0243065
11	0x3eecfbb5	0.46285787
12	0x3e0af151	0.13568617
13	0x3eac5f82	0.33666617
14	0x3f72100c	0.94555736
15	0x3fd6c8c0	1.6780014
16	0xbdce9d09	-0.10088546
17	0x3f3610a0	0.7111912
18	0x3f8680d8	1.050807
19	0x3f8eb44c	1.1148772
20	0x3f7690b5	0.96314555
21	0x3f295a94	0.66153836
22	0x3f92cc81	1.146866
23	0x3e808638	0.251024
24	0x3f5014b2	0.8128158
25	0x3f9211d1	1.1411687
26	0x3f08c508	0.53425646
27	0x3febe43d	1.8429028
28	0xbd9ebf2c	-0.07751307
29	0x3fb6b597	1.4274167
30	0x3f1d0b50	0.61345387
31	0x3f99de02	1.2020876
32	0xbdd4f6ec	-0.10398659
33	0x3f828be8	1.0198946
34	0xbe384a84	-0.17997175
35	0x3f21dc82	0.63227093
36	0x3ed67166	0.4188339
37	0x3fa3f5ed	1.2809426
38	0x3ebcdfbd	0.3688945
39	0x3ef4370f	0.47698256
40	0xbff4c3fa	-1.9122307
41	0x3d62693f	0.05527615
42	0x3f956620	1.1671791
43	0x3de9b094	0.11410633
44	0x3eaec8c4	0.34137547
45	0x3f28eb8e	0.6598443
46	0xbe061e90	-0.13097596
47	0x3f745779	0.9544597
48	0x3f641f13	0.89109915
49	0x3e97e285	0.29665008
50	0xbe24d8b2	-0.16098288
51	0xbfe3b4a4	-1.7789502
52	0x3f424a6e	0.7589482
53	0x3ea7d466	0.32779235
54	0x3f4c45cf	0.7979402
55	0xbacd2c2c	-0.0015653423
56	0x3f9bb7fe	1.2165525
57	0x3e9baaa6	0.30403632
58	0x3fa17029	1.2612354
59	0xbf034796	-0.51281106
60	0x3f81c8a2	1.0139353
61	0x3f0d5f5b	0.55223626
62	0x3f363fd0	0.7119112
63	0x3f1de98a	0.6168448
64	0x3f2e2391	0.6802302
65	0x3f46f220	0.77713203
66	0xc04b55f2	-3.1771207
67	0x3f8f4e23	1.119572
68	0x3eece03c	0.46264827
69	0x3fa560ec	1.2920203
70	0x3f88a748	1.067605
71	0x3f28d620	0.6595173
72	0x3ea8f164	0.32996666
73	0x3e310a42	0.1728907
74	0x3f7517d7	0.957395
75	0x3f753845	0.95788985
76	0x3f0a45b6	0.5401262
77	0x3e6db94d	0.23215218
78	0x3f386f54	0.72044873
79	0x3f35b67f	0.7098159
80	0x3ef8e2c0	0.48610497
81	0xbf627d76	-0.8847269
82	0x3f3de352	0.7417499
83	0x3f87c7c4	1.0607839
84	0x3ef7d859	0.48407248
85	0xc09ad3a8	-4.838337
86	0x3f76042f	0.96100134
87	0x3ed9e2ad	0.42555752
88	0x3e05ae15	0.13054688
89	0x3f858e04	1.0433965
90	0x3fb04d74	1.3773637
91	0x3f62e3ec	0.8862903
92	0x3f94c779	1.1623374
93	0x3f8927ba	1.0715249
94	0x3fa2c06c	1.2714972
95	0x3f56b8ef	0.83875936
96	0x3f4dea2e	0.80435455
97	0x3f494f0d	0.78636247
98	0x3f1d3c88	0.6142049
99	0xbd5d8756	-0.054084145
100	0x3ef4109f	0.4766893
101	0x3e006f33	0.12542419
102	0x3ea47521	0.32120612
103	0x3f9c56ab	1.2213949
104	0x3ea2c4bb	0.31790718
105	0xbeaae608	-0.33378625
106	0x3f2826dc	0.65684295
107	0x3fb0e821	1.382084
108	0xbda61da2	-0.08111121
109	0x3f88a25c	1.0674548
110	0x3f96d977	1.1785115
111	0x3ef82956	0.48469037
112	0xc03ac5f9	-2.9183333
113	0x3f7ff56e	0.9998387
114	0xbebac002	-0.36474615
115	0x3e0e2d9c	0.13884586
116	0x3f0e702f	0.5563993
117	0x3f738265	0.9512084
118	0x3f8d368b	1.103227
119	0x3fc84d84	1.5648656
120	0x3f9a7a71	1.2068616
121	0x3f8a0536	1.078284
122	0x3fc41bdc	1.5321002
123	0x3f842d05	1.0326239
124	0x3eaace4f	0.33360526
125	0x3fca1eb3	1.5790619
126	0xbe50e5ed	-0.2040021
127	0x3f2038a4	0.62586427
128	0x3ec2c962	0.38044268
129	0x3e26b509	0.16279997
130	0x39ef6306	0.0004565941
131	0xbd0eb203	-0.034837734
132	0x3d9b12d2	0.07571949
133	0xbd729dee	-0.059232645
134	0x3f1fe49c	0.62458205
135	0xbf509552	-0.81477845
136	0x3f26bd24	0.65132356
137	0x3fa07e97	1.2538632
138	0x3f8e7697	1.1129941
139	0x3f0d5770	0.55211544
140	0xbe3f17ae	-0.18661377
141	0xbddb08f7	-0.10695069
142	0x3f87384a	1.0564053
143	0x3f0a4d02	0.54023755
144	0x3d9e81e3	0.07739618
145	0x3f16b933	0.5887634
146	0x3f8a42f2	1.080168
147	0x3f9041a0	1.1270027
148	0x3f8a97c0	1.082756
149	0x3f269219	0.6506668
150	0x3fae5e97	1.3622617
151	0x3dfeb946	0.12437682
152	0x3f83e71d	1.0304905
153	0x3f668b16	0.9005598
154	0x3f5d4790	0.8643732
155	0x3f986926	1.1907089
156	0x3d460727	0.048346665
157	0x3f353e32	0.7079803
158	0x3f02f5bd	0.51156217
159	0x3fae2b78	1.3607016
160	0x3e861d39	0.2619417
161	0x3f6a1c6a	0.91449606
162	0x3e905e03	0.28196725
163	0x3ea2d6c3	0.31804475
164	0x3f5fff85	0.87499267
165	0x3f9d6703	1.2297062
166	0x3eeb8b33	0.46004638
167	0xbe298f74	-0.1655863
168	0xc08ca0f7	-4.394649
169	0x3f818b0d	1.012056
170	0xbecb9036	-0.39758462
171	0x3e16686e	0.14688274
172	0x3eed22c1	0.46315578
173	0x3ec53e63	0.3852416
174	0x3dbe5387	0.09293275
175	0x3f3e4835	0.7432893
176	0x3f886c21	1.0657998
177	0x3eb6cd40	0.35703468
178	0xbc092596	-0.008370778
179	0x3f051963	0.5199186
180	0x3eb750b1	0.3580375
181	0x3ec2e78e	0.38067287
182	0x3f4a825b	0.79105157
183	0x3c863a63	0.016385263
184	0x3f8bdae8	1.092618
185	0x3bf7c37a	0.0075611444
186	0x3f872271	1.0557386
187	0xbf607d2c	-0.87691
188	0x3f5214c8	0.8206296
189	0x3f75d128	0.9602227
190	0xbdc93543	-0.09824612
191	0x3ec9f282	0.3944283
192	0x3f2bedd8	0.67159796
193	0x3f1d1dea	0.6137377
194	0xc0507c56	-3.2575889
195	0x3f87f51f	1.062168
196	0x3f69bdac	0.9130504
197	0x3f027106	0.5095371
198	0x3f8ded81	1.1088105
199	0x3f2fcb3c	0.68669486
200	0x3f1d7312	0.6150371
201	0x3dfc94b7	0.123330526
202	0x3f4c7268	0.7986207
203	0x3fb365ac	1.4015403
204	0x3e997f15	0.29979768
205	0x3d00dbf4	0.031459764
206	0x3f8bb496	1.0914485
207	0x3f038268	0.5137086
208	0x3f170785	0.5899585
209	0x3f701800	0.9378662
210	0x3f26e349	0.6519056
211	0x3f88bc50	1.0682468
212	0x3f2a6754	0.66563916
213	0xc092e6db	-4.5906806
214	0x3f975cf1	1.1825238
215	0x3f38db46	0.72209585
216	0x3dc03217	0.09384554
217	0x3f91a415	1.1378199
218	0x3fb90b4c	1.4456573
219	0x3f9ca906	1.2239082
220	0x3f796655	0.9742177
221	0x3f888be1	1.0667688
222	0x3f88f7f5	1.070067
223	0x3f489888	0.78357744
224	0x3f65acf7	0.8971705
225	0x3f07752f	0.5291318
226	0x3f89d5a6	1.0768325
227	0xbf8901db	-1.0703691
228	0x3f496864	0.7867491
229	0x3cf400a4	0.029785462
230	0x3f246350	0.6421404
231	0x3fa31155	1.2739664
232	0x3f4d5b76	0.80217683
233	0x3e50ccdd	0.20390649
234	0x3f31e09b	0.69483346
235	0x3faec2fb	1.3653253
236	0x3e849556	0.25895184
237	0x3f8ae17e	1.0850065
238	0x3f066236	0.5249361
239	0x3fb45135	1.4087282
240	0xc03c3aee	-2.9410968
241	0x3f881a27	1.0632981
242	0x3e5d7ff3	0.2163084
243	0x3f7f1eec	0.9965656
244	0x3ed36f7c	0.41295993
245	0x3fa1216e	1.2588327
246	0x3f8ceba6	1.1009414
247	0x3fd91f4e	1.6962678
248	0x3f272288	0.65287066
249	0x3f8ac77d	1.0842129
250	0x3f532e29	0.8249231
251	0x3f874158	1.0566816
252	0x3f188e58	0.595922
253	0x3fd25f46	1.6435325
254	0x3f9ef448	1.2418299
255	0x3d055388	0.032550365

fc4.bias f4 [4]
0	0x3f9798cf	1.1843508
1	0x3f902f15	1.1264368
2	0x3f8d571b	1.1042207
3	0x3f919fa0	1.1376839

ln1.weight f4 [256]
0	0x3ec05316	0.3756339
1	0x3ed0ef99	0.40807799
2	0x3ee64269	0.44972542
3	0x3efe1729	0.49627045
4	0x3f05a311	0.52201945
5	0x3fb74dfc	1.4320674
6	0x3ecd37af	0.40081546
7	0x3ed1e349	0.40993717
8	0x3ed68785	0.41900268
9	0x3eee225c	0.4651059
10	0x3fa7aa89	1.3098918
11	0x3ecdff24	0.4023372
12	0x3f09d5f5	0.538421
13	0x3f288e53	0.6584217
14	0x3f66a247	0.90091366
15	0x3ef4f626	0.47844046
16	0x3ed5e11e	0.41773313
17	0x3fb72247	1.4307336
18	0x3efd54c6	0.4947874
19	0x3e9db599	0.3080261
20	0x3f1e002f	0.6171903
21	0x3f56e748	0.8394666
22	0x3ecb691b	0.39728627
23	0x3ec08290	0.3759961
24	0x3f0b7666	0.54477537
25	0x3fb54f89	1.4164897
26	0x3f3f8f5d	0.7482813
27	0x3f8ad6ac	1.0846763
28	0x3ee1ad8b	0.44077715
29	0x3eeecd6e	0.46641105
30	0x3ece575e	0.4030103
31	0x3ee996d6	0.4562289
32	0x3eecbb14	0.4623648
33	0x3f385aea	0.72013724
34	0x3e811b3e	0.25216097
35	0x3ede0eee	0.43370765
36	0x3e982c52	0.29721314
37	0x3ec0fc7e	0.37692636
38	0x3ecea429	0.4035962
39	0x3ee6f7e9	0.45111015
40	0x3ec889f8	0.39167762
41	0x3f2e2227	0.6802086
42	0x3ec8423b	0.3911303
43	0x3edbf8ce	0.4296326
44	0x3e85c4a4	0.26126587
45	0x3f714a49	0.94253975
46	0x3eb9b3d2	0.36270005
47	0x3ee8fab8	0.45503783
48	0x3eebadc9	0.46031025
49	0x3edfc12f	0.43702075
50	0x3e554bee	0.20829746
51	0x3ebeae86	0.37242526
52	0x3f02642a	0.5093409
53	0x3ec5ee5d	0.3865842
54	0x3f9510c4	1.1645741
55	0x3ec4a360	0.38405895
56	0x3f2f10a3	0.6838476
57	0x3e83ba1d	0.2572793
58	0x3e9c25b1	0.30497506
59	0x3ec9d75c	0.3942212
60	0x3f56e0ca	0.8393675
61	0x3eefb9a8	0.46821332
62	0x3fef52e4	1.8697171
63	0x3fe8a3fa	1.8175042
64	0x3ee851e7	0.45374987
65	0x3f011714	0.5042584
66	0x4035a02e	2.8379016
67	0x3f2498dd	0.6429575
68	0x3eb8448b	0.35989794
69	0x3eb868cb	0.3601745
70	0x3ec60314	0.38674223
71	0x3f103ad7	0.5633978
72	0x3f164fff	0.58715814
73	0x3ebe2628	0.37138486
74	0x3e976a97	0.2957351
75	0x3f1a4da4	0.6027472
76	0x3ede5be0	0.4342947
77	0x3eff3169	0.49842384
78	0x3f991ea1	1.1962472
79	0x3ee91b5d	0.4552869
80	0x3f49d8e8	0.788466
81	0x3e4da44d	0.20082207
82	0x3f6240f4	0.8838036
83	0x3ed5d49e	0.41763777
84	0x3f18da4a	0.5970808
85	0x3ec32e4d	0.38121262
86	0x3f6c3998	0.9227538
87	0x3dce516f	0.10074126
88	0x3f078e75	0.5295175
89	0x3e9ba3b8	0.30398345
90	0x3ed7b63d	0.42131224
91	0x3fbd305a	1.4780381
92	0x3f06785b	0.525274
93	0x3f1224eb	0.5708758
94	0x3edd3663	0.43205556
95	0x3e5fa8e5	0.21841772
96	0x3f618622	0.88095295
97	0x3f196955	0.5992635
98	0x3eea1ed1	0.45726636
99	0x3fbf626d	1.4951912
100	0x3f7fd418	0.99933004
101	0x3edf692f	0.43634936
102	0x3ec355d5	0.38151422
103	0x3eea772a	0.4579404
104	0x3ee3cd8b	0.44492754
105	0x3edcb656	0.4310786
106	0x3f1390bc	0.5764272
107	0x3ee026b8	0.4377954
108	0x3eacc21f	0.33741853
109	0x3f6b68d1	0.9195681
110	0x3eea696a	0.4578355
111	0x3eebaf2b	0.4603208
112	0x3ece78d2	0.40326554
113	0x3e1fa9b4	0.1559208
114	0x3f0de99a	0.5543457
115	0x3f8a0b48	1.0784693
116	0x3f98e301	1.1944276
117	0x3ed5e595	0.4177672
118	0x3eb4080a	0.35162383
119	0x3eb7fa28	0.35933042
120	0x3e88e6a9	0.2673848
121	0x3eea38c1	0.45746425
122	0x3efaf0da	0.4901188
123	0x3fc20da4	1.5160413
124	0x3ed20514	0.410195
125	0x3ed6c840	0.41949654
126	0x3ed66155	0.41871133
127	0x3f854acb	1.041345
128	0x3ead82c4	0.3388883
129	0x3ee59e75	0.44847456
130	0x3e8cf623	0.27531537
131	0x3eaf48d7	0.3423526
132	0x3eec62d5	0.46169153
133	0x3ebf426c	0.37355363
134	0x3ecdd356	0.402003
135	0x3ee169c0	0.44025993
136	0x3fb65352	1.4244177
137	0x3eb9c72c	0.3628477
138	0x3ecfbf39	0.4057558
139	0x3f004e3d	0.5011938
140	0x3ed08980	0.40729904
141	0x3ed7fcef	0.4218516
142	0x3ee312ff	0.4435043
143	0x3ef1d986	0.4723627
144	0x3ef98091	0.487309
145	0x3f078681	0.5293961
146	0x3e5570fa	0.20843878
147	0x3f7b831a	0.9824692
148	0x3ee67b14	0.45015776
149	0x3e44366c	0.19161385
150	0x3ef9ffbc	0.48827922
151	0x3ea829d4	0.32844412
152	0x3ee2c1bf	0.44288442
153	0x3e863714	0.26213896
154	0x3ecc8eb5	0.39952627
155	0x3eb7ce9a	0.35899812
156	0x3e24fa31	0.16111065
157	0x3f6ca08c	0.92432475
158	0x3ed20672	0.41020542
159	0x3eefba4a	0.46821815
160	0x3ef499e4	0.4777366
161	0x3f432335	0.76225597
162	0x3f85674a	1.0422146
163	0x3ef32a10	0.4749303
164	0x3ee0bf5d	0.43896
165	0x3ee1dc88	0.44113564
166	0x3ef226e7	0.47295305
167	0x3ec3fcf8	0.38278937
168	0x3ec51cce	0.3849854
169	0x3f1954a7	0.59894794
170	0x3ee6065f	0.44926736
171	0x3e0e9b4e	0.13926432
172	0x3e50e6ef	0.20400594
173	0x3f8a3e13	1.0800194
174	0x3f1652f3	0.5872032
175	0x3eb837d8	0.35980105
176	0x3f4edac3	0.80802554
177	0x3e75a573	0.23988895
178	0x3ee9d805	0.45672622
179	0x3f2195ee	0.631194
180	0x3ea7a614	0.32743895
181	0x3e872985	0.26398864
182	0x3f3a261d	0.72714406
183	0x3ece0c38	0.40243697
184	0x3ed17b80	0.40914536
185	0x3ed43061	0.4144316
186	0x3e8641c6	0.26222056
187	0x3eb16d91	0.34653905
188	0x3f4003b2	0.7500564
189	0x3e0303cb	0.12794416
190	0x3ed325e9	0.4123986
191	0x3ed2e87a	0.4119299
192	0x3efc2581	0.49247363
193	0x3eca1e5a	0.3947628
194	0x3e473554	0.19453937
195	0x3e17edc0	0.14836788
196	0x3f02fec2	0.5116998
197	0x3ed9db0f	0.4254994
198	0x3f0bf526	0.5467094
199	0x3f1a7864	0.6033995
200	0x3ef8d114	0.48597014
201	0x3e280d79	0.1641139
202	0x3ea7680f	0.32696578
203	0x3e28a55b	0.16469328
204	0x3fbfc043	1.4980549
205	0x3ebb5a01	0.36592105
206	0x3f1c9868	0.61170053
207	0x3e6dd876	0.23227105
208	0x3f114fdd	0.56762487
209	0x3f0c3b96	0.5477842
210	0x3eeb4611	0.45951894
211	0x3e63bb51	0.22239424
212	0x3f5ae06b	0.85498685
213	0x3f21d20b	0.63211125
214	0x3ec5158d	0.38493004
215	0x3ea6702f	0.32507464
216	0x3f99ed5f	1.2025565
217	0x3ee8e942	0.45490462
218	0x3f1dd05e	0.6164607
219	0x3e9c1607	0.30485556
220	0x3f0f25a9	0.5591684
221	0x3eae59cd	0.34052888
222	0x3e92c448	0.28665376
223	0x3f4d1ef4	0.80125356
224	0x3f1aa937	0.6041445
225	0x3edd4008	0.43212914
226	0x3f8d8a21	1.1057779
227	0x3e707841	0.23483373
228	0x3eb5c03f	0.35498235
229	0x3f57541f	0.84112734
230	0x3f039608	0.51400805
231	0x3e999a0b	0.30000338
232	0x3ed78264	0.42091668
233	0x3ef63333	0.48085937
234	0x3ebf09f5	0.37312284
235	0x3ec34811	0.3814092
236	0x3e6104e0	0.21974516
237	0x3eea4432	0.45755154
238	0x3eccbda2	0.39988428
239	0x40019f47	2.0253465
240	0x3f197bd8	0.59954596
241	0x3ef784fe	0.48343652
242	0x3f055a65	0.52091056
243	0x3ec38d77	0.38193867
244	0x3e48753f	0.19575976
245	0x3ec8eea3	0.39244565
246	0x3ed26145	0.41089836
247	0x3edc5466	0.4303314
248	0x3ebd0c72	0.36923558
249	0x3e783adb	0.24241202
250	0x3f5f8742	0.8731576
251	0x3e80af40	0.25133705
252	0x3ee0c4ac	0.4390005
253	0x3ef7c190	0.48389864
254	0x3f09d18d	0.53835374
255	0x3eb33efe	0.35008997
