trained_models/checkpoint_ep2300.pth (torch, 416160 bytes, 14 tensors)

fc1.weight f4 [256, 8]
00000000: 2f67 5ebd 120a 6f3e b48e cb3e f9c0 053f
00000010: 7a65 2d3e 3fad 20bf 19d8 903e 9e6d 523e
00000020: 033c 4b3d bcda 603e b907 003f 582c 293f
00000030: b11a 9b3d e62c 0ebf 3397 8f3e fad3 4b3e
00000040: cf4b a2be c59b 0a3e ca98 293f beb2 c33e
00000050: a02a 063d b8eb 91bc 337b 623e a3b5 103e
00000060: df63 c6be ad1a 053e 40d6 e83d dd7f a9be
00000070: ddf0 343d 12fb babd 9812 9b3e 7b04 6abc
00000080: b1f8 a0be 16f3 693e ca19 013f f4a4 d43e
00000090: 4c00 423e 897b f5be 0f1d 843e d9bb 183c
000000a0: b1d7 86be a286 9b3e 371f 263f bb6c 143f
000000b0: 70a2 c63d c111 1dbf 76e0 7f3e a202 103e
000000c0: 13b0 8e3e 3b39 9b3e 087c 913e 4321 2e3f
000000d0: 4128 a23e 6000 afbf 3ed2 9b3e 43c7 973e
000000e0: dbca 22bf ee23 17bc 041c 5c3f d10d 6b3d
000000f0: d293 5c3c 8963 903e 29f1 8f3e 1a62 0c3d
00000100: 0d63 31be 24ab 2b3e 95ad 1b3f cdd7 ba3e
00000110: 958b 023e 12e8 08bf 67cb 8b3e c9e5 e43d
00000120: fbcf 83be 3a34 643e a63c 173f a93b f13e
00000130: 59c5 153e 15cd 01bf 75fe 833e 75b8 d53d
00000140: de71 bcbc 7ddf 813e 7107 0d3f bd9b 143f
00000150: d15f 293e 4615 5abf 2989 953e fd3b 353e
00000160: a8fe d3be 4e07 16bb 3e0d 2b3f a87a ac3e
00000170: 4916 3abd 154c 463f 034a 243e 84bf b5bd
00000180: a43c 6cbe 9a6e de3d 4642 213f 9197 233f
00000190: 8367 043e ccf9 50be 9f61 783e a1ad ae3d
000001a0: 7d34 61be 107d a23c 82db 333f 0ffe a23e
000001b0: 70f8 8d3d 76c7 3d3e e6bf 503e ff5f 183e
000001c0: 9988 873d 4a4c b93e b15a b83e fdcb 323f
000001d0: fbe4 3a3e d696 a0bf 6e17 9c3e 269b be3e
000001e0: 3437 723d f168 9c3d 4ea7 30bf cd80 42bf
000001f0: f075 b33d 18ce 8abe 8ac4 363f 9f76 9f3d
00000200: 6e52 e03e 0b0f bc3e 57cc 5a3e f3e3 f93e
00000210: ea41 853e 6d12 b0bf 478b 9f3e b50e 503e
00000220: daf9 c8be ae79 053e 47cb 1e3f 068e 133f
00000230: c6af 313e 5a51 cdbe c056 843e 35f8 1b3e
00000240: a3f4 1c3d 33b4 9c3e 42f3 af3e e894 1d3f
00000250: 1004 913e b808 8cbf 04d7 9a3e b04a 5f3e
00000260: 3d35 8bbe dfeb e43d 9d2a 0d3f b41e 553f
00000270: 1b24 d43d 1404 be3e e1df 4fbe 2c28 d33d
00000280: d7be 86be 4377 143e 6c2a 1d3f 5e66 c13e
00000290: e4b0 263c bfd5 dc3d 9f0c 593e 2fc8 54bc
000002a0: c6f7 2abe b417 5e3e 6e9f 043f c4e2 99be
000002b0: b98f 9a3d 01b4 01bf cdfa 9e3e f4e1 3c3e
000002c0: 3cd8 f7bd 5e16 723e bdc4 203f 2ade 1a3f
000002d0: e2d7 b73d 7019 f8be f2af 843e 4ee5 dd3d
000002e0: c31a 0ebe 104b 303e 0d16 eb3e d75a d8be
000002f0: ee3d f53d 30cf 10bf 7a65 c13e 1ccc fb3d
00000300: 0088 91be d775 3d3e 9057 1e3f 4af8 c1bc
00000310: 9066 4fbd 5d65 c6be 9da2 053f 26d7 dfbd
00000320: ecc0 103f 1866 703e 5185 6fbf d69b 25be
00000330: 95b7 b33e 3b50 f7be bbac 3a3e d415 2e3e
00000340: 3aef ce3e d4ac 913e 0e25 ecbf b53a 8ebd
00000350: 9ddc 593e 6d38 d3bd ccc1 0a3f 5deb 7f3e
00000360: b9dc 81be a8dc 333e 0fe1 313f a4bb 2e3f
00000370: 63e8 173e d395 cebe fa34 813e 4cff 873d
00000380: 89c4 223e 5d2c 833e 10a4 dd3d 2077 943e
00000390: b79a 253e 10d4 b0be b347 8d3e 4ea2 aa3d
000003a0: 08b1 483e 8455 ad3e ee38 c03e 4f17 183f
000003b0: 2d95 203e bb89 80bf 2f4a 993e e0be fb3d
000003c0: bb12 30bf 282f 8cbd 70a6 903d a04e 0bbe
000003d0: 74af 66bd 9520 0b40 6ee6 783c d141 28bd
000003e0: 11b6 14be d181 823e 6abb 0f3f 42b5 f93e
000003f0: 5519 033e 97b8 22bf ae19 893e 8925 533e
-0.054297622 0.23343685 0.3975731 0.5224758 0.16933241 -0.6276435 0.2828987 0.20549628
0.04961778 0.2195844 0.50011784 0.6608329 0.0757345 -0.5553726 0.28045043 0.19905081
-0.31698462 0.13535984 0.6624876 0.38222307 0.032755494 -0.017812595 0.2211731 0.14131789
-0.3874807 0.12998457 0.1136899 -0.33105364 0.044175018 -0.09129919 0.30287623 -0.014283295
-0.31439736 0.22846636 0.50429976 0.415321 0.18945426 -0.47945812 0.2580342 0.00932213
-0.26336434 0.30376154 0.6489138 0.5797841 0.09698951 -0.61355215 0.24987969 0.14063504
0.2786871 0.303171 0.2841494 0.68019503 0.31671336 -1.367199 0.3043384 0.29644212
-0.6359078 -0.009224875 0.8598025 0.057386223 0.0134629775 0.2820094 0.28113678 0.034273244
-0.17322941 0.16764504 0.6081174 0.36492768 0.12748559 -0.5347911 0.2730362 0.111766405
-0.25744614 0.22285548 0.5907692 0.4711583 0.14626063 -0.50703555 0.25780073 0.10435573
-0.023003515 0.2536582 0.5508948 0.5805014 0.16540457 -0.8518871 0.29206207 0.17698665
-0.41405225 -0.0022892538 0.6681708 0.3368733 -0.04543141 0.7745984 0.16043858 -0.08874419
-0.23070008 0.10860939 0.6299175 0.63903147 0.12930112 -0.2040779 0.2425599 0.08529211
-0.21992679 0.019835025 0.7025682 0.31834456 0.06932151 0.1853312 0.20385703 0.1488037
0.06617851 0.36191016 0.36006692 0.6984251 0.18251412 -1.2546031 0.30486625 0.37227744
0.059134677 0.076372035 -0.69005287 -0.75977784 0.08762729 -0.27110362 0.71393645 0.07786297
0.4381289 0.36730227 0.21367012 0.48806724 0.2602685 -1.3755623 0.31160948 0.2031811
-0.39253122 0.13034698 0.62028927 0.57638586 0.17352208 -0.4010113 0.25847435 0.15231402
0.03831924 0.3060623 0.34365278 0.6155534 0.28323412 -1.0940161 0.3024217 0.21805835
-0.27189055 0.11177801 0.5514315 0.83249974 0.10358449 0.37112486 -0.20300247 0.103103966
-0.26317474 0.1449862 0.61392856 0.37773412 0.01017401 0.10782956 0.21196221 -0.012987181
-0.1669608 0.2168873 0.5180577 -0.3005582 0.07546944 -0.5066529 0.3105072 0.1844557
-0.1210179 0.23641345 0.628002 0.60495245 0.08976723 -0.48456907 0.25915486 0.10834752
-0.13877396 0.17216134 0.4591526 -0.42256805 0.11974703 -0.56566143 0.37772733 0.1229479
-0.28424072 0.18501984 0.6185236 -0.023677964 -0.05063492 -0.3874921 0.52201253 -0.10929708
0.56544375 0.23476446 -0.935628 -0.16172728 0.35101 -0.48303398 0.18229954 0.17000514
0.4041689 0.2845217 -1.8448808 -0.06944791 0.21275564 -0.10313497 0.5420196 0.24992128
-0.2536371 0.17564642 0.6948404 0.68255067 0.14834742 -0.40348682 0.2523573 0.06640491
0.15895285 0.25619784 0.10822308 0.28997135 0.161723 -0.3453679 0.27593765 0.083317384
0.19598782 0.33854306 0.37543434 0.59410566 0.15681906 -1.0042032 0.2993941 0.12292266
-0.6877858 -0.06844932 0.070629954 -0.13604212 -0.05631967 2.1738636 0.0151916575 -0.041078392
-0.14522578 0.25489667 0.56145346 0.487711 0.12802632 -0.6356291 0.26777405 0.20619787

fc1.bias f4 [256]
00000000: 39f7 253e 750e 3d3e d065 863d ff76 b53c
00000010: 0e2d 0d3e 37c1 083e 02ab 9f3e b3df 98bc
00000020: f578 2c3e e631 013e 0eae 493e 143d e63c
00000030: 4147 cc3d 6f3a 5c3c 0564 993e 8f3d 5f3d
00000040: a87c ac3e f820 f53d 8149 643e 0850 c93d
00000050: f209 bc3d 2a74 e03d cf21 053e 622c dd3d
00000060: 563c 84bc c524 773e fabf 683e e2e8 c23d
00000070: 989c 0e3e 9852 8c3e 8df1 00be ea0b 0e3e
00000080: 8d09 3cbd 3b1f f93d 41f4 f93d cf84 983d
00000090: 0a4e cd3d f1e4 e53d 9633 b63e bf2e 143e
000000a0: d1ee 21bd e275 123e 128c b73d 085a 273e
000000b0: 2960 b13e db46 06be dad8 823b 31f4 253d
000000c0: 6d4a ac3e 3dea f03d 2ca1 eb3d d54f e93d
000000d0: d433 353c e3f3 043e fe8f 1c3e 8971 583e
000000e0: ae71 953e 1df8 1d3e 18e9 8cbc 9a71 16bd
000000f0: 7155 04bc 6521 663e 6070 a13d f1a2 713e
00000100: 0ed4 423d 4249 30bd 78f5 383e 5c57 b13d
00000110: 7f1d 02bc 74bf 0f3e 68d9 bc3d 1225 2f3e
00000120: f043 783d 9703 bf3d 705d 1e3e ca09 8d3e
00000130: f24d 173e 87ca ed3d 086d 1b3e 73c0 843e
00000140: db34 2c3e 58d1 db3d c636 c13d b2e8 083d
00000150: 00fe c13d 3b99 063e 3d16 903d b359 7c3e
00000160: 9de1 283e 5704 a23e f210 84bd 2fe5 343e
00000170: 37d5 0c3e a315 783d d023 313e dfd3 2d3d
00000180: e925 603e dbfe 9e3d bab4 733e c0c1 383e
00000190: 4d88 163e 3554 3e3d 4fe7 11bc 5515 d63d
000001a0: 9348 be3d 1706 313e 26aa c93d b358 173e
000001b0: d0b3 773d a348 12bc 3bef a13d 8ebc b8bc
000001c0: 5e62 163d 9d67 183e 43a4 113e 69bb 0d3e
000001d0: 9920 2a3e 2572 bb3e e4c5 953d ddfa d63e
000001e0: 196e 413e 4517 1a3e 8555 0dbd 8fc1 9fbd
000001f0: be35 1b3e ac45 ae3d 3a79 dd3e 6ae8 1d3e
00000200: a654 f33d b929 fd3d 298f 023f 2075 8b3e
00000210: a1c6 fe3e bd85 5b3e 1ec3 143e d666 973e
00000220: af73 793e 561c 123e d741 843e 5046 e23d
00000230: 6d77 643d 768f 2a3e ca12 ad3e 3855 883e
00000240: c8da cc3d 958f 433e abd0 d83d 052c fd3d
00000250: 9983 c73d f66f 073e c88b 1e3e f806 06be
00000260: 5bda 303e 22ac d73d 0419 033e 0d70 023e
00000270: 2f3b e1bc b6f0 043e b581 193e e260 333e
00000280: 2c56 e13d 4a58 9c3e 451e 3b3e 84a2 423e
00000290: 5a2c cc3d e0a5 3b3e daeb 5f3e 0e2e 703e
000002a0: 3968 e63d 5225 393e 22bc 293e 4ecc 8b3e
000002b0: c7f2 c73d 6702 143e 765a 363e 5585 273e
000002c0: c3f2 383e 93bd 063e 1e7c ffbd de31 1e3e
000002d0: 577b 073e c7e0 793e b4b8 1c3e f2a3 323e
000002e0: b58b c53d 6fef 0a3e fd4c 203e e0f7 c53d
000002f0: b7b9 093f 96d3 a53e 8ae7 043e 1f67 193e
00000300: 8c70 ad3c e208 87bd 1ef6 413d db54 9ebd
00000310: 229a a33e 55de b43d 9551 213e b954 5a3d
00000320: 60d1 2e3e a10a 3a3e ffc3 8d3e 989e 223e
00000330: 6dbd 7b3e f55b 453e 8e9c 253e 2af3 ba3d
00000340: f53a 2bbf b4a5 2b3e e40e 633e 7356 413e
00000350: 98a3 363d e125 0d3d 908d 3f3e f137 8f3e
00000360: 15b5 3f3e 9553 a13d 90b7 043e 83f9 67bd
00000370: 29f5 c13d 350e aa3e 408a ee3d 95ca 913d
00000380: 462f 4b3e b6f9 2d3e e0df 883c 3f1e 793d
00000390: c997 6fbe 87ce 0e3d ee72 493e 66c1 36bd
000003a0: 8327 393f 3d5f 1f3e 69e6 e43d 7c5d 023d
000003b0: 5857 183e ffb3 623c 7d68 753e d595 4a3e
000003c0: 26ec 8d3e f882 df3d 4d69 c83d d112 be3e
000003d0: f3f6 2c3e 477f f83d 681a cf3d 342e 5d3e
000003e0: 5d51 243e 6133 363e 585a b83c 836f 123e
000003f0: f821 933d 6fc0 b03d 7bb5 4d3e 43a5 7c3d
0.16207589 0.18462546 0.06562388 0.022151468 0.13786718 0.13354956 0.31185156 -0.018661356
0.16843016 0.12616691 0.19695303 0.028105296 0.09974528 0.013441666 0.2995912 0.054502066
0.33688855 0.11969179 0.22293665 0.09829718 0.091815844 0.109596565 0.13001178 0.10799481
-0.016142052 0.2413512 0.22729483 0.09517075 0.13926923 0.27406764 -0.12592144 0.13871732
-0.045907546 0.1216416 0.12204791 0.07447206 0.100246504 0.11225308 0.35586232 0.14470957
-0.039534394 0.14302781 0.08962263 0.16342938 0.34643677 -0.13112967 0.003993136 0.040516082
0.33650532 0.117634274 0.115053505 0.1139218 0.01105972 0.1298366 0.15289304 0.2113706
0.29188293 0.15426679 -0.017200992 -0.036729433 -0.008077011 0.22473677 0.07882762 0.23597313
0.047565512 -0.043038614 0.18062389 0.086592406 -0.007941603 0.14037877 0.092211545 0.17103985
0.060611665 0.093268566 0.15465331 0.2754653 0.14775828 0.11610895 0.15178311 0.25928077
0.16817038 0.107332885 0.09434275 0.03342504 0.09472275 0.1314439 0.070354916 0.24643593
0.16492315 0.31643936 -0.064485446 0.17665552 0.1375321 0.06056751 0.17298818 0.042438384
0.21889462 0.077634536 0.2379941 0.1804266 0.14700432 0.046467025 -0.008905246 0.104532875
0.09291186 0.1728748 0.09846906 0.1477993 0.060474217 -0.008928451 0.07906958 -0.022550847
0.036714904 0.14883275 0.14222817 0.13841023 0.16613998 0.36610523 0.07313135 0.41988268
0.18889655 0.15047939 -0.034505386 -0.0780059 0.1515722 0.085093826 0.4325655 0.1542069
0.1188138 0.123614736 0.50999695 0.27237797 0.49760917 0.21437736 0.14527556 0.29570645
0.24360536 0.14268622 0.25831482 0.11048567 0.055777956 0.16656289 0.33803397 0.26627517
0.10002667 0.19097741 0.10586675 0.12361912 0.09741897 0.13226303 0.1548301 -0.13088596
0.17270796 0.105308786 0.12802511 0.12738056 -0.027494041 0.12982449 0.14990886 0.17517427
0.11002764 0.3053611 0.18273266 0.19007307 0.09969397 0.18324995 0.21867314 0.23455068
0.11250348 0.18080643 0.16575673 0.2730431 0.09763103 0.14454041 0.17807946 0.16359456
0.18061356 0.13158254 -0.12474845 0.1544871 0.13230644 0.24402152 0.15304834 0.17445353
0.096457876 0.13567899 0.15654369 0.09666419 0.53799003 0.3238799 0.1297895 0.14980744
0.02117183 -0.06593491 0.047353856 -0.07731029 0.31953532 0.08831469 0.15753777 0.053303454
0.17072058 0.18168117 0.27688596 0.15880811 0.24583979 0.1927336 0.16173002 0.09128411
-0.66886836 0.1676243 0.22173649 0.18880634 0.04458961 0.034459952 0.18706346 0.27972367
0.18721421 0.0787727 0.12960649 -0.056634437 0.09470589 0.33213964 0.11647463 0.071187176
0.19842252 0.16989788 0.016708314 0.06081986 -0.23397745 0.03486493 0.19672748 -0.044618033
0.72325915 0.15563674 0.1117676 0.031827435 0.14877069 0.01383686 0.2396564 0.19783719
0.2771923 0.10913652 0.097857095 0.3712373 0.16891079 0.12133651 0.101124585 0.21599656
0.16046663 0.17793037 0.022504017 0.14300351 0.071842134 0.08630454 0.2008876 0.061681043

fc2.weight f4 [256, 256]
00000000: 69f7 a03c 361b 453e b8af 9b3c 7556 d4bd
00000010: 5fca 16bc 555d c13c d9b8 a53e 073a 95be
00000020: 1499 753e 699c 233d d068 113d 45e9 c23d
00000030: 3ba0 063e 74ff f7bb b51d 843d 92e4 83bf
00000040: e5f4 823e bde7 09be 0efe b53d 713d db3e
00000050: cafd 92be af0d c4be 4d34 0d3e cde6 1abe
00000060: 9459 e0be 6d30 43be f312 b93e fcb5 c63c
00000070: 37fc e2bd f5b5 d23c 1748 35be 289b febd
00000080: 6022 523e d5fc 9c3e 5fdb 62be c7cc 33bd
00000090: d40e da3d 1dfc 67bd b846 983f 9f7c b3bd
000000a0: 8d46 4e3e 13f9 57bd 0fa2 93be f644 613e
000000b0: 778a bcbe e011 d5be cffb b1bd 9e08 95bd
000000c0: e2db adbe 16a0 7fbe 8077 d4bd 8025 3abd
000000d0: 01f1 dabe 08a0 13bd be00 e83d 7010 173d
000000e0: c015 d13c b00c d93d 045f dabc b9ce aebe
000000f0: c555 873c 307c e73d 662c 043d 9221 5fbd
00000100: 219b 533c 5823 23be e85b 193e dd58 013e
00000110: f6ae 10bd 054e 45bd 4fd0 883e 9bb9 353e
00000120: 271c b7be e8ce 11be 576d ebbc a3f9 0dbe
00000130: d83f 963e aafd c23c b40c 12bd 31b9 79bd
00000140: d27b 90bd 7823 29bd e954 86bf 05b0 3abf
00000150: 430f f4bd a698 c4bc f9a6 e1bd 9983 183e
00000160: 1c9a 323e 758e c53d 12ae 20bf 1f62 dd3c
00000170: 8670 c0bd deeb c73a 1dcb 0f3d 011b 98bd
00000180: 3f6c 6b3e ad55 e8bd 0b28 33be 8207 813e
00000190: 586a 8b3e e6de 053f d45b a9bd c460 87bd
000001a0: a44e 8d3d e426 b1bd 4c69 77be d876 5dbe
000001b0: f209 bbbd cffc 88be 95b7 c9be df5f ffbe
000001c0: 6b57 9b3e a3aa 0dbe c4da 863d e451 373e
000001d0: 8c53 093e 4936 073f 65a6 e3bd 6deb 38be
000001e0: 8e55 a53d 6012 0a3e d690 f13d bba4 babd
000001f0: 035d 0abe 15c8 84bc 4a10 05bf 0271 ab3e
00000200: 32bb 2b3d bc21 c03d 7868 42bf 4831 9d3f
00000210: b4d0 7abc a2bb 803c 93b5 3cbe d653 483e
00000220: d0fe ddbe e9c5 14be 26da 563f 8dd2 e33d
00000230: 33d1 52bf 0a6d e43d c1ec 043f e4b9 94bf
00000240: 17b1 e13d eda6 38be 8cce 95bc 43f7 453e
00000250: 1ae9 793e 5f88 ad3d b549 42bc 6090 febe
00000260: c5f9 163e e0ec 2c3e 6915 383d 2e76 c63d
00000270: ab92 5dbd 1389 013d 8218 2dbd 1686 60bc
00000280: 8924 0dbe f86d ac3f 968a b7bd fca4 ab3f
00000290: 8cea eebd 1424 f03e 0b4e 573e ddf5 253e
000002a0: c4d8 73be 46fd 0abf 4d82 163c 9b40 353d
000002b0: d276 94bd 8863 0f3e e6fc d9be 994f 05bc
000002c0: 3735 71bd e222 2abf cec7 cb3d 0f66 2cbe
000002d0: b063 283e 2ee7 283f 5c25 49be 3b9f c43e
000002e0: 212f b73e 6cde 9cbb 4afe 073e 378a 0abe
000002f0: a2d9 1dbf 3bb1 6b3f 33fc a3bd af65 293d
00000300: 050a 2abe 997b 87be 38bb 9abd 2e12 45be
00000310: 7944 853f 2ffe c3bd 9758 1b3d 0079 a03d
00000320: 30d2 143d 7b85 a0bd 43ed ae3f fc7c 173c
00000330: 7fad 4ebf 6d3d d438 0416 273f 3344 703c
00000340: 3ac0 b5be 4bbd f43c 2235 113e 60a5 953d
00000350: c02b a0bd eabb f9bd 8cd0 c0be 8f97 89be
00000360: 12be 543e 4b0b 57bb 142e 413c f34d d7bd
00000370: a7c2 d6be b0b4 4d3c 7614 0dbc 53f1 8bbd
00000380: f7db 7c3d e3e0 42be cf60 943c 2e01 52bc
00000390: d301 3ebd 29bc d2bd abd7 083d ec48 bcbd
000003a0: 18da 4bbe b3da 903e 275b 513d 40c8 55be
000003b0: 8547 d3bd 8c00 603d 20d9 b63c 039f 0dbe
000003c0: e805 1f3f 14c4 033d 4406 b6bd 57ab 073e
000003d0: 07f8 f23c bd9f 39bb d0c3 9c3e 758b a43e
000003e0: 3c3f d23c b2ed 13be 4d05 e0be cd70 98be
000003f0: aeb9 543d 5d36 78b9 4d53 593d c0dc 5b3c
0.019649224 0.19248661 0.019004688 -0.10368053 -0.0092035225 0.023604074 0.3236759 -0.29145834
0.23984176 0.039944086 0.035500348 0.09517149 0.1314706 -0.007568294 0.06450979 -1.0304129
0.25577465 -0.13467307 0.08886348 0.42820314 -0.2870925 -0.3829169 0.13789482 -0.15127106
-0.43818343 -0.19061442 0.3614727 0.024256699 -0.110832624 0.02572153 -0.17703281 -0.124319375
0.20520926 0.30661646 -0.22153996 -0.043896463 0.106473595 -0.05663692 1.1896582 -0.08764004
0.201441 -0.05272777 -0.28834578 0.21998963 -0.3682439 -0.416152 -0.08690607 -0.07277034
-0.3395682 -0.24963412 -0.10374355 -0.04544592 -0.42761996 -0.03604129 0.113282666 0.03688091
0.025523067 0.10598123 -0.026656635 -0.34142092 0.01652039 0.11302984 0.032268904 -0.054475375
0.012915404 -0.15931451 0.14976466 0.12631555 -0.035323106 -0.04817011 0.26721427 0.17746584
-0.35763666 -0.14239085 -0.02873866 -0.1386476 0.29345584 0.023802597 -0.035656646 -0.060967628
-0.07054867 -0.04129359 -1.0494663 -0.72924834 -0.119169734 -0.02399857 -0.11018176 0.1489395
0.174416 0.09646312 -0.6276561 0.027024327 -0.09396462 0.0015252789 0.035105813 -0.074270256
0.22990511 -0.11344466 -0.17495744 0.2520104 0.2722957 0.5229324 -0.08269468 -0.066102535
0.06899765 -0.08649996 -0.24161261 -0.21627367 -0.09132756 -0.26755378 -0.39397874 -0.4987783
0.30340132 -0.13834624 0.06584695 0.17902333 0.13410777 0.5281721 -0.111157216 -0.18058558
0.08072959 0.13483572 0.117952034 -0.09113451 -0.13512044 -0.016208688 -0.5197798 0.33484656
0.04192657 0.09381434 -0.75940657 1.2280664 -0.015308548 0.01571447 -0.1842864 0.19563231
-0.4335847 -0.14528622 0.8392662 0.11124144 -0.8235046 0.1115361 0.5192376 -1.1619229
0.11020105 -0.18032427 -0.018286966 0.19332604 0.24405327 0.08473276 -0.011858393 -0.49719524
0.14743717 0.16887236 0.044942293 0.0969051 -0.05409495 0.031624865 -0.0422597 -0.013703844
-0.13783468 1.347106 -0.0896198 1.3409724 -0.1166583 0.46902525 0.21025865 0.1620707
-0.23813158 -0.54292715 0.00918634 0.044251066 -0.07249226 0.14002812 -0.4257576 -0.008136653
-0.05888864 -0.66459477 0.09950219 -0.16835807 0.16444278 0.6597775 -0.19643158 0.38402733
0.35778144 -0.004787257 0.13280597 -0.13529287 -0.61660206 0.9206731 -0.080070876 0.04135674
-0.16605385 -0.26461485 -0.075552404 -0.19245216 1.0411521 -0.09569966 0.037926283 0.07835579
0.036333263 -0.078379594 1.3666157 0.009246107 -0.80733484 0.00010120389 0.6526797 0.014664697
-0.3549822 0.029875418 0.14180425 0.073069334 -0.07820845 -0.12194045 -0.3765911 -0.26873443
0.20775631 -0.0032813128 0.011790771 -0.105129145 -0.41945383 0.012555286 -0.008610835 -0.06833138
0.061733212 -0.190311 0.018112568 -0.012817664 -0.04638846 -0.10289795 0.033408802 -0.09193596
-0.19907415 0.28291854 0.05111232 -0.2087717 -0.10316376 0.05468802 0.02232033 -0.1383019
0.6211839 0.032169417 -0.08887914 0.13248955 0.029659284 -0.0028323971 0.30618143 0.32137647
0.025664918 -0.14446142 -0.43754044 -0.2977356 0.05193489 -0.00023671375 0.053057957 0.01341933

fc2.bias f4 [256]
00000000: cf0a 813e 00bf b83c 2b38 46bd 33b0 353f
00000010: a76f a5be 20f3 e3be 9ebb 64bd 5cf7 36bd
00000020: 9930 0abf 0274 3abd 647a 893e 6bd3 debd
00000030: 0b7b c23b c7ee c3bd 75cb f4bd b3fa da3d
00000040: 2e5d 0a3e 611b 083c f973 22bf 4edf 96be
00000050: d9e8 ea3e 622f b33e 9201 113a eea1 10be
00000060: 80c5 b0bd ff53 0cbe 0cbb c7bd e092 e1bb
00000070: 7113 ef3d 9224 d33d cdb6 dbbe 17d0 92be
00000080: 0371 87bd 8e56 11bf b45d a7bd e645 92be
00000090: 1da6 893c a765 04bf 9097 f9bc 55d3 b4bd
000000a0: 7c18 0bbe 5562 15bb 6a38 a03e 03ee 46be
000000b0: 3f3e 753b ee36 22be 7049 8bbd b553 be3c
000000c0: 6310 9ebd 0bc4 82bd 176a 52bd 2e60 00bf
000000d0: 4d70 c0bd 22f7 02bf 581a c9be 41bd a3bd
000000e0: f2e6 dfbe cc9b f93e 6e67 f3bd 6b21 9ebe
000000f0: 207f b0bd 7097 45be 8582 09be 3e40 853c
00000100: fe3f e8bd 8d5d f8bd 54ee 07bf 2b71 ddbd
00000110: 022e dabd 870c 6a3d baa5 0cbe a707 5dbd
00000120: d3fe 873e b96a 67bd 5325 8ebd 5e3c 143e
00000130: b6d8 34bf 680c 0dbe d21e 213d 4774 afbd
00000140: 287a ca3d d923 6f3d 080e d83e 44fa 42bd
00000150: a6b4 79be 9f78 6eba fc73 05bf 43b1 ba3e
00000160: 38c8 ef3d 1306 f43d eadc 01be 4c81 31bb
00000170: 5cba 3dbd 4a44 553d bcb6 9cbd 00fe f7bd
00000180: 076d f1bd eda5 5d3e 8d56 b1be 8e4e f6be
00000190: 7060 44be fa53 933e a4e7 c73d 7b67 e8bc
000001a0: 5093 b23e ee7e 76bd a2ca 80bd 44bc cfbc
000001b0: bfd6 0cbf 76fe 453e 81e9 0ebf 42f6 f83d
000001c0: ee89 3d3d c9b9 60bd d7e1 04be 6ae3 09bd
000001d0: ace2 673d ba79 ec3d 3adc 0dbe 9413 8fbc
000001e0: b1a9 cb3c 22bf e7bd bca0 413e 2d56 acbe
000001f0: 0626 ab3d 6819 36be 8446 b2bd ee8f c1bc
00000200: ae30 37bf 3a0f 5e3e 28ee 08be e24f 44bd
00000210: 9356 b53e 3ea0 a3bd 307f c2bd 9d21 cfbd
00000220: 53e7 afbe 0499 c1bd ba3a 16be 9d22 babd
00000230: 1b3d 18bd 049d 8d3c ae4c 3dbb 2106 08bd
00000240: 3884 79bd 580e 8b3e c1ca 28be 5e1c e6bd
00000250: 7823 3d3e 6d1e 01be a54d eebd f62b d8bd
00000260: 24a1 19be 0382 2dbf afc1 11be 422d 623e
00000270: b0cc 18be 00d9 29bd 5c1d cdbd 3ea5 04bf
00000280: 38ec fc3b 647b 4abd ecf1 043e 0145 1abe
00000290: ceaf adbe 47ad 06bf 6177 663e 124b de3c
000002a0: 7145 8dbd d734 e03d a30b dc3e 5503 963e
000002b0: 8f0d cb3e fa8d 52bf 5da1 94bd cbe4 143e
000002c0: 633c afbd 0d93 89bd 0a5f 9fbd 72e8 573d
000002d0: c60e 973c f700 733f f66d 87bd fd74 bfbe
000002e0: ea83 d2bd b295 88bd 5002 a43d 3fbe a9be
000002f0: 7e05 933e 6ded 6ebc e0b8 25bb ebe8 823e
00000300: 2081 f6bc ceda b43c a12f 8d3e 9281 36be
00000310: b4dd 0e3f 4086 903d 0e35 383d bc04 27be
00000320: 12ce 643d 0cc5 f9be d026 8ebc 142b a9bd
00000330: a868 04bd 9ad3 bebd 8ae6 93bc 2a1e a6bd
00000340: ce7d 51bd 207b 26be 8051 343d 8504 483d
00000350: a46d 98bd e874 32bd 48a5 c4bd 7515 ebbd
00000360: 5dd5 31be 46ce 323c 7c26 403e 2455 fdbe
00000370: 0670 bebd fac5 efbe fc3b 033e 283d b7bc
00000380: 4601 03be 346c 1d3a ed66 2bbf cce8 d6bd
00000390: 36c2 06be 84bb 9ebd 3099 8bbd b3e8 f6bc
000003a0: 74e3 04be f8f5 313d 1afe 0ebe 1472 b2bd
000003b0: 7d7d 233f bd1f 983e 942d ed3d a15d e4bd
000003c0: f565 c5bd c0b9 95bd 1504 e7bd 8cf3 d3bd
000003d0: f27b e73e 98df b1bd c713 a83c dfe2 0fbd
000003e0: a8cb 3dbe 2e62 65bf 22ed 5ebc c4b8 863e
000003f0: 5368 a8bc 97da 13bd 1d2b 94bd d788 c9bd
0.2520356 0.022552013 -0.04839341 0.70971984 -0.32311746 -0.44521427 -0.05584299 -0.044669494
-0.53980404 -0.04552079 0.2685119 -0.108801685 0.005935078 -0.095670275 -0.11952869 0.10692348
0.13512108 0.008307309 -0.6345821 -0.29467243 0.45880774 0.34997088 0.0005531545 -0.14124271
-0.0863142 -0.13703917 -0.09752473 -0.006883964 0.1167363 0.103097096 -0.42912903 -0.28674385
-0.06613352 -0.56772697 -0.08172169 -0.28568953 0.016802842 -0.5171761 -0.030467778 -0.08829371
-0.13583559 -0.0022794206 0.3129304 -0.19426732 0.0037421135 -0.15841267 -0.068011165 0.023233274
-0.07717969 -0.063850485 -0.051370706 -0.5014676 -0.0939642 -0.51158345 -0.3927791 -0.07995082
-0.43730885 0.48751676 -0.11884962 -0.3088487 -0.08617997 -0.1929605 -0.13428695 0.016265985
-0.113403305 -0.121272184 -0.53098035 -0.10812601 -0.106533065 0.057140853 -0.13735095 -0.053962376
0.26561603 -0.056498263 -0.06940713 0.14476153 -0.70643175 -0.13774264 0.039336033 -0.085671
0.09886581 0.058383796 0.42198205 -0.047601953 -0.24385318 -0.00090969534 -0.52130103 0.36463365
0.117081106 0.11915221 -0.12681928 -0.0027085124 -0.046320304 0.05206708 -0.07652041 -0.121089935
-0.117883734 0.21645327 -0.34636346 -0.48106807 -0.19177413 0.28775007 0.09760979 -0.028369656
0.34878016 -0.060179643 -0.06288649 -0.025358327 -0.55015177 0.1933535 -0.5582505 0.12156345
0.046274118 -0.05486468 -0.12976776 -0.033664145 0.056612656 0.11546655 -0.13853541 -0.01746539
0.024861189 -0.113157526 0.18908972 -0.33659497 0.08356862 -0.17783129 -0.08704856 -0.023628201
-0.71558654 0.21685496 -0.133721 -0.047927745 0.35417613 -0.07989548 -0.09496915 -0.10113833
-0.34356174 -0.094530135 -0.1467084 -0.09088633 -0.03716765 0.017286785 -0.0028884816 -0.03320897
-0.06091711 0.2715938 -0.16483594 -0.11235879 0.18470562 -0.12609263 -0.11635903 -0.1055526
-0.15002877 -0.6777651 -0.1423404 0.22087577 -0.14921832 -0.041466713 -0.100153655 -0.5181464
0.007718589 -0.04943408 0.12982911 -0.15065385 -0.3392319 -0.5260815 0.22506477 0.027135406
-0.068980105 0.109475784 0.42977628 0.29299417 0.39658782 -0.8224789 -0.0725734 0.14540403
-0.0855644 -0.06717501 -0.07781799 0.05271191 0.018439662 0.9492335 -0.0661277 -0.37393942
-0.10279067 -0.06669177 0.080082536 -0.3315296 0.28715128 -0.014582974 -0.0025287196 0.25568327
-0.030090868 0.02207699 0.275754 -0.17822865 0.5580704 0.07056856 0.044972472 -0.163104
0.055860586 -0.48783147 -0.017352492 -0.082601696 -0.03232637 -0.093177035 -0.018054266 -0.08111222
-0.051145367 -0.16257906 0.044023037 0.048832435 -0.07442787 -0.04356852 -0.096018374 -0.11478702
-0.17366548 0.010913437 0.1876468 -0.4947902 -0.092987105 -0.46830732 0.12815851 -0.022368029
-0.12793455 0.0006005198 -0.6695393 -0.10493621 -0.13160023 -0.077506095 -0.068163276 -0.030140257
-0.12977391 0.043447465 -0.1396412 -0.08713165 0.63863355 0.29711714 0.11580959 -0.11150671
-0.096385874 -0.073108196 -0.112800755 -0.10349187 0.4521175 -0.08685225 0.020517243 -0.03512847
-0.1853472 -0.89602935 -0.013606342 0.2631284 -0.020557558 -0.036097135 -0.07234786 -0.09840553

fc3.weight f4 [128, 256]
00000000: ec14 1abd f9e7 8c3c baf0 a53c e7ca a73d
00000010: 8767 15be 5454 0dbf 2c6e 103e 3e22 023d
00000020: 5f3e e9be c10a b2bd ade0 9cbe 9957 0c3e
00000030: 77c6 c2bd bfc3 95bc fade a0bd e129 8c3e
00000040: f8f5 e5be fab7 c13f a8f5 4ebf b139 dabd
00000050: 8bf7 2abf d20a d5be 3144 973d 141f f5be
00000060: b506 283e acd5 48be 1b06 33be b8e3 cb3d
00000070: 419f 39bc 01a0 1abe a8d4 1ebf be11 60be
00000080: 4a81 e5bc 7613 88be 1f07 e43d 9964 cbbe
00000090: e821 76be 9e9c 96bd 279c d5be dd29 4b3d
000000a0: 2cbe 88be 732e 92bd 09dd 703e 7c78 33be
000000b0: 72ac 2d3f e972 41be c6c8 aa3d 361f 56be
000000c0: d760 203e dffa 3f3e 53c4 15be 5644 4abf
000000d0: c2f7 6fbe 72ec 4a3e e355 dbbe 2eb4 b1bd
000000e0: dc16 86bf 71cc 90be 2455 c2bd 915e f2be
000000f0: 7ed0 0fbd 94ad 4cbf 2a1a e6be 6903 1e3e
00000100: cba3 f3be 2ea6 d2bc fc1e 9cbf 8f0d 323e
00000110: aa8e 00bf d008 93be 1002 3b3e b657 a1be
00000120: 929d 213e f8c9 bcbd 139d 4cbe a116 60bd
00000130: 0130 e93e e74c 123e e9ec b43e 7b2d a8ba
00000140: c5ef 60be 2854 1a3d a8c7 c2be 27a4 73be
00000150: 2660 3cbf 891f 2abe 9fda 423c 2143 ce3e
00000160: dd30 2abf 4215 4e3f d372 ec3d b29a f1be
00000170: 145e 7abe f81c bfbe 9acc 983d 80b4 123e
00000180: 8011 c3bd d127 2d3f 6dba f7bc 83b3 3ebf
00000190: 8fe4 dfbe 7eaa 6dbe 48e2 26be 19d5 453e
000001a0: 9b5a b3be e539 9dbd f4d2 a1bb 15b4 fd3d
000001b0: 771f 31c0 2ac5 23bf 584c c13c e89e bebe
000001c0: 9cd4 20bf 40f5 243e a6f2 8dbe c782 a5bd
000001d0: 7fc8 d9bd c6cc 0cbf 4644 503e 7b1c 39be
000001e0: 3c09 5a3d 57d0 633b 8896 203d 9579 86bf
000001f0: df03 0f3e bdf6 26be 844f 1c3e 21a0 5dbf
00000200: 371d f23d 7fbc 773e ccb6 ffbd 43b5 44be
00000210: b38b f53e 49f3 bb3d a21f ae3c 17a9 0bbf
00000220: 9040 bbbe f542 e23d fe89 e8be 71d4 81be
00000230: e2e5 9e3d 4761 5abc 033e cf3d b0a9 963c
00000240: 106a 57bd e8d5 cfbe 3162 c9bd dc17 3dbe
00000250: a6d1 59bf e6c0 88bd 6613 253e 6e10 c4bd
00000260: 4a17 ff3c 3c5c c9be 3587 c0bc 79af 31be
00000270: cc9b a1bd 1495 aebd 2c88 8bbe c9e2 163d
00000280: 8878 1dbd 4117 9abd 4346 12be 0d12 4ebe
00000290: f50e 8cbe cc75 ba3e e625 e73d bc3a ffbd
000002a0: 4456 6bbb 5f53 91be a8a5 80be e142 9cbe
000002b0: 0884 113f f239 49bf 81c5 033d 2a0a 47be
000002c0: ca41 d0bb 7848 593e f4d9 d43d 8217 79be
000002d0: ece3 563e 0ac9 3dbf ca7c 7d3d f6b4 383e
000002e0: 09ac ef3d 7c42 d63c 3e74 2cbe ac72 77be
000002f0: 0e84 bf3e 1c89 b73d 0f9d 54be 9739 e6bc
00000300: a203 0e3a 79df 5c3e 02fb 3fbf 0f77 c03c
00000310: 22ad ec3e 0f4d fbbd 851b babe 102e cbbe
00000320: 1cc0 39be aeb2 c1be 00e9 1bbb a43f 5e3d
00000330: 6a7d 59bd f8ca 9a3e bc9f 35bd d9c4 90bd
00000340: 8fea ec3d 01ce babe a4c7 59bf 1a5f 17bc
00000350: d5a9 053f c8e4 a6bd fc3f 8f3e f6a1 10bd
00000360: deac c7be cb77 28be eed5 febe 36a0 9ebf
00000370: 9b71 d43d 84bd ecbe fdb3 103e ce47 cbbd
00000380: dcd3 babd a606 b1bc 2de8 ef3b 078e 073e
00000390: 7a6e 6ebf 0d9c 0a3c abef 07be 60c7 5b3e
000003a0: 9237 fdbc 5b9b 3b3f eaa0 823e 1d70 313e
000003b0: 0e33 dcbe 73cd 173f 0a2e 1c3d a117 34be
000003c0: 272b 723e 27e6 3c3e aeac 18be 4a9c f63d
000003d0: 76e8 b03e bf44 e5bc a92b b4be 5d88 4ebd
000003e0: a166 1a3d dc24 33bf 5ebc c1bd 5c99 2dbe
000003f0: 065c e73d eaa1 183c ebb0 063d a2e4 9abf
-0.03761761 0.017200457 0.020256389 0.081929974 -0.14590274 -0.552068 0.14104527 0.031770937
-0.45555398 -0.086934574 -0.30640164 0.13705291 -0.095105104 -0.018281816 -0.078550294 0.273757
-0.44914222 1.513427 -0.8084359 -0.10655535 -0.6678397 -0.41609818 0.07386053 -0.47875273
0.16408809 -0.1961276 -0.17482798 0.09955543 -0.011329473 -0.15100099 -0.6204324 -0.21881768
-0.028015751 -0.26577348 0.11134171 -0.39725187 -0.24036372 -0.07354091 -0.41720697 0.04960047
-0.2670759 -0.07137766 0.23521818 -0.1752643 0.67841256 -0.18891491 0.08339076 -0.20910344
0.15661941 0.18748043 -0.14625673 -0.7901052 -0.23434356 0.19816759 -0.42838964 -0.08676945
-1.0475726 -0.28280976 -0.094888955 -0.47337773 -0.035110943 -0.7995236 -0.44941837 0.15430988
-0.47585902 -0.025714006 -1.2196956 0.17387985 -0.5021769 -0.2871766 0.18262506 -0.3151223
0.15782765 -0.0921821 -0.19981794 -0.05470908 0.45544437 0.14287148 0.35336998 -0.0012830937
-0.21966465 0.037677914 -0.3804295 -0.23793088 -0.7358421 -0.16613592 0.011892944 0.4028559
-0.6648081 0.80501187 0.115453385 -0.47188336 -0.2444995 -0.3732679 0.074609 0.14326668
-0.09524822 0.6763888 -0.030240262 -0.74492663 -0.43729064 -0.23209569 -0.16297257 0.19319572
-0.35030064 -0.07677058 -0.0049384777 0.123878635 -2.7675455 -0.63972723 0.023595974 -0.3723061
-0.62824416 0.1610918 -0.2772419 -0.080815844 -0.10633945 -0.5499996 0.20338544 -0.1807727
0.053231463 0.0034761631 0.039206058 -1.0505854 0.1396632 -0.1630506 0.15264708 -0.8657246
0.118219785 0.24193 -0.124860376 -0.19209771 0.47958145 0.09177262 0.021255318 -0.54554886
-0.36572695 0.11047927 -0.4541778 -0.25357392 0.077586904 -0.013328857 0.1011925 0.01839146
-0.052591383 -0.40592885 -0.09833182 -0.18466133 -0.85085523 -0.066774175 0.16120681 -0.09573446
0.031139035 -0.39328182 -0.023501972 -0.17352094 -0.07891044 -0.08524528 -0.27252328 0.036837373
-0.038445026 -0.075239666 -0.14284615 -0.20124073 -0.2735516 0.36417997 0.112865254 -0.124623746
-0.0035909573 -0.2838392 -0.25126386 -0.30519775 0.5684209 -0.7860404 0.032170776 -0.19437471
-0.006355499 0.21219051 0.10393134 -0.24325374 0.20985383 -0.74134886 0.061886586 0.18037781
0.11702735 0.02615475 -0.16841218 -0.24164838 0.37405437 0.089616984 -0.20763038 -0.028103633
0.00054174114 0.21569623 -0.7499238 0.023494272 0.4622584 -0.12270557 -0.3634912 -0.3968358
-0.1813969 -0.37831634 -0.0023790002 0.05425991 -0.05309812 0.30232978 -0.044341788 -0.07068796
0.11568176 -0.36485294 -0.8507025 -0.009238983 0.5221227 -0.08149105 0.27978504 -0.035310708
-0.38999075 -0.16451947 -0.4977259 -1.2392642 0.10373231 -0.4623834 0.1413116 -0.09925805
-0.0912244 -0.021609616 0.0073213787 0.13237773 -0.93137324 0.008460057 -0.1327502 0.21462774
-0.030910287 0.7328393 0.25513393 0.17327924 -0.43007702 0.59297866 0.038129844 -0.17587139
0.23649274 0.18447171 -0.14909622 0.120415285 0.34552354 -0.027986882 -0.3518956 -0.050423015
0.03769553 -0.6997812 -0.09459756 -0.16953033 0.11296849 0.009315947 0.032883566 -1.2101023

fc3.bias f4 [128]
00000000: ed04 a1be 62a8 21bf 1ae1 b9be 7dff 1abf
00000010: d99b 48bf fed4 3abc f8f7 04bf 3556 0f3e
00000020: c6e0 65bc acc7 c5be 5eb9 23be d652 3fbf
00000030: a794 2abf 4f82 15bf fda7 82bd 1386 d7be
00000040: dffe 2dbf 7d9c 23bf 1b0b ffbe 1f1c 23bf
00000050: 0d8e 9b3e 4f73 24bf 911e ca3e b0c3 b5bd
00000060: 1e04 c43d a945 3abf 32af c53c 9130 8cbc
00000070: 66b6 11bf 5c89 d7be 096e 913e 972c f33d
00000080: bec6 b2be 8472 363e c739 373e c291 313e
00000090: 236b 6b3c 3630 013e 1aa0 5abf d345 01bf
000000a0: 3ee9 a4be 5712 a7be 41a0 e2be 61bf 60bf
000000b0: fb06 3bbf 9691 5ebf d8d7 f9be 091a 11bf
000000c0: 1244 25bf 8e38 29bf 439c 53be bd89 753e
000000d0: 9c0b 03bf 633a 50bf d26f 26bf 6621 43bf
000000e0: 19ca 74be d753 fbbe 1057 70be 0a2c 36bf
000000f0: 863b 54bf 1df8 95be 2317 2abe ccba 1fbf
00000100: 1153 f03d c3ac 30bf ba19 c83d 592e 6b3e
00000110: 6ef5 60bd 875a c0be 97cf 993e 2327 d3be
00000120: 8c0f 29be 1e1a 4ebf e636 f23c 1bcd 37bf
00000130: f4af 2fbf 920c 33bf a020 b23e 3d01 cbbe
00000140: 8d10 90bd e456 21bf 6976 12bf 0b48 bf3e
00000150: 0d23 463e ae3d b5be d172 91be a942 98be
00000160: 2195 6e3e a028 17bf c106 60bf 50a9 09bb
00000170: 57b2 2cbf d899 913e 797f 33bf 533e 8b3e
00000180: d4e4 42bf a110 40bf 8ec0 4ebf e6a8 aa3d
00000190: b125 07be a6a9 0e3e df85 a43e 436b 4a3c
000001a0: 61c9 b73d 129a 13bf f36e 1cbf 9a14 3e3f
000001b0: d6a5 93bd f8f3 eabe 19ab 33bf 8f5b 983d
000001c0: e386 febd 944b a63e 4e33 a83e a370 93bd
000001d0: 89f8 d3be 1c0f 42bf 0fb4 41bf a9a6 2cbf
000001e0: e5d1 dabe 756e 343f 0a89 5abf f070 3cbf
000001f0: 92c8 18bf 71f6 81be 7c89 28be 6096 913f
-0.3144907 -0.63147557 -0.3630455 -0.60546094 -0.78362805 -0.01140332 -0.5194087 0.13997729
-0.014030641 -0.386289 -0.1598868 -0.7473577 -0.66633075 -0.5840196 -0.063796975 -0.42094478
-0.6796703 -0.6391066 -0.4981316 -0.63714784 0.30381814 -0.64238447 0.39476445 -0.08875215
0.09571098 -0.7276254 0.024131391 -0.017113002 -0.5691894 -0.42096984 0.28404263 0.11873739
-0.34917253 0.17817122 0.17893134 0.17340758 0.014368805 0.12616047 -0.85400546 -0.5049717
-0.322092 -0.3263118 -0.4426289 -0.8779202 -0.73057526 -0.86940897 -0.48797488 -0.5668035
-0.6455699 -0.6610192 -0.20665078 0.23978324 -0.5118959 -0.8133909 -0.65014374 -0.76222837
-0.23905219 -0.49087402 -0.23470712 -0.7116095 -0.82903326 -0.29290858 -0.16610388 -0.62394404
0.11734594 -0.69013613 0.09770532 0.22966899 -0.05492156 -0.37569067 0.3004119 -0.41240796
-0.16509837 -0.805086 0.029567193 -0.7179734 -0.6862786 -0.69941056 0.34790516 -0.39649382
-0.07034407 -0.6302321 -0.5721193 0.37359652 0.19349308 -0.3539862 -0.2840791 -0.29738358
0.23299076 -0.59046364 -0.87510306 -0.002100546 -0.67459625 0.28437686 -0.7011638 0.27195987
-0.76130414 -0.75025374 -0.80762565 0.08332996 -0.13197972 0.13931903 0.32133386 0.012354675
0.08973957 -0.5765697 -0.61106795 0.74250185 -0.07209365 -0.45889258 -0.7018295 0.074393384
-0.12428071 0.32479537 0.32851642 -0.07199218 -0.41400555 -0.75804305 -0.7566537 -0.67441803
-0.42738262 0.70481044 -0.85365355 -0.7360983 -0.59681046 -0.25383332 -0.16458696 1.1374016

fc4.weight f4 [4, 128]
00000000: 4c54 68be 52c1 a53e ac50 ac3e f540 553d
00000010: c152 8b3e 167e 3e3f d5b7 333e 2502 913f
00000020: 3697 f03e 6e70 a6be 1b03 a93e 9bb6 cc3c
00000030: 17e5 af3d c938 9fbc 8b53 ac3f 13ff 7c3e
00000040: df39 34be 5056 0bbd 99b3 7b3e 1ab5 8fbe
00000050: afee 813f 1164 663d b1e0 8e3f f4c8 7c3f
00000060: f480 6d3f bfff 973e 4f0e 6e3f 0b35 783f
00000070: 6f3e 883f d031 ca3e f0d3 753f 4520 c73e
00000080: a22f 8b3e 0949 923f 8efa 5f3f 35bb 7f3f
00000090: 5be6 bcbd 8b74 813f f1cf f03e 37c2 d83e
000000a0: 294b e43e ab8d 563e 59c7 b03e 4b46 a63d
000000b0: 51cb 6c3e b5d6 92bd b3d5 1b3f 9a4e 373f
000000c0: 3426 303f c7e7 e03d 9e05 863f b3e4 693f
000000d0: 84c6 cf3e 58b3 fa3d 18d3 043e 2054 843e
000000e0: d1a0 ad3e 478e c8be b946 373f ee67 923e
000000f0: 097b e5bc 315f 353f fd13 d93e 382d c53d
00000100: 04cc 9b3f 98e9 6b3e 5901 533f a48b a23f
00000110: 45aa 433f fe60 7c3e 7a49 843f 3aa4 023e
00000120: 71e8 dd3e fd1a 033e 59aa 243f 1aa7 60bd
00000130: 1c15 543f bee3 efbd 498c 683f d43d d33f
00000140: 2043 843f 8258 af3e 5f4d 093f 38e4 6e3f
00000150: 9724 8a3f f98f dc3e 9fee 9a3f ec16 d43d
00000160: bd19 623f adee 9a3e f695 de3e 02ed 1c3d
00000170: e927 c53c 6d4f 933f b0c3 1d3f a6dd 773f
00000180: d7f9 be3d 04b0 62bd 56dd 2dbe a9e3 413f
00000190: 6dfc 393f 7c59 693f 417b 623f 911c 823f
000001a0: 47ac 1b3d 746e 3ebc 2b0b 2c3e d1a9 953f
000001b0: 5a4c c53d 9044 2ebf f40b 3c3d 01bc 393e
000001c0: f2db 2b3f fdc9 783f 14ee 873f 61d3 633f
000001d0: 049c f6bd 5ea5 c9bc 212a 0e3e de6d f83d
000001e0: 11bb 093e 4eaf c73f c7c3 a4bc 7e41 753e
000001f0: 5d7f d93e 96d2 bebe 2f89 6c3f 27b2 a53f
00000200: fd5f ef3e 6483 a1bd d940 443f eb49 51be
00000210: f8b3 d8bd ac43 423f 4bc2 b23e ac1c 6c3f
00000220: 4a39 313f 7e57 08bf 6004 3c3f 45cc 553d
00000230: 3f18 d9bc acff 823e 8cd6 853f 7081 a83e
00000240: 5fa2 663e def7 19bd f327 153c 28f5 923e
00000250: 49df 703f 32da e8bc 36dd a13f 8ccd 5e3f
00000260: 1ac5 593f 8e22 433e 3ced 533f 29dc 433f
00000270: b3d5 93bf c917 c13e b143 7c3f c550 653e
00000280: ec37 cb3e f499 aa3f 763c 673f b811 303f
00000290: 425a e1bb 645e 723f 87a1 303e 1f62 f73e
000002a0: 168e 373f 108d e83e d76a 033f f333 a63d
000002b0: 718b 0f3e c364 943d c295 d43e 9908 283f
000002c0: ecf2 a83e 2a97 c23c a408 683f bb3b 663f
000002d0: c4bc 24bf 986f a1bd e546 50bd 672c aa3e
000002e0: fb3f 2b3f c62b bc3e d6c2 3e3f 9b00 913e
000002f0: 79fb 05bc e9ec 353f bd68 e73e 015e 09bf
00000300: 3c2d ad3f 7b00 8f3e c3e2 513f 7596 653f
00000310: ab7d 3b3f a081 1d3f 24ab 753f 9380 ce3e
00000320: d1c8 973e fb1a bdbd 4776 383f 4520 24bd
00000330: c633 073f 9212 b33e d32a 7e3f 21a8 aa3f
00000340: 708d 5b3f c334 5b3e bbcd acbc 2de5 6f3f
00000350: 533d 903f e6ea 183f 15a1 2c3f 2898 bd3d
00000360: 7917 623f 9f03 813e b53c 96be b140 013d
00000370: 5760 a93c c184 8e3f dcdf ec3e 6c00 853f
00000380: b233 bc3c 76a9 8e3e 1a41 b23d 8354 623f
00000390: 5a5c 2c3f 9392 643f a930 773f 7ed1 873f
000003a0: 428b f23e 9a9e 27bf 9851 d93e 3e25 a73f
000003b0: c719 683e db88 7c3f 0a07 1e3e d1d3 2e3e
000003c0: db83 1f3f 42cd 8a3f 8ef9 683f 5ed8 733f
000003d0: f5ad 833f 0907 41be c912 7ebe 2993 02be
000003e0: 3f29 ab3e 1055 d13f 0f92 a63d f88c 023f
000003f0: e96e 933e 0677 0b3f ba1a 433f 192e bc3f
-0.22688407 0.32374054 0.33655298 0.0520639 0.27211574 0.7441114 0.17550595 1.132878
0.46990365 -0.32507652 0.33010182 0.024989417 0.08588617 -0.019436257 1.3462995 0.24706678
-0.17600201 -0.03401786 0.2458023 -0.28067857 1.0150965 0.056247775 1.116232 0.9874413
0.9277489 0.29687306 0.92990583 0.9695594 1.0644053 0.3949113 0.96026516 0.38891807
0.27184778 1.1428539 0.8749169 0.9989503 -0.09223624 1.0113691 0.47033647 0.42335674
0.44588593 0.2095248 0.3452709 0.08118876 0.23124434 -0.07169858 0.60872954 0.7160431
0.68808293 0.10981708 1.0470464 0.9136459 0.40581143 0.12241238 0.12971151 0.25845432
0.33911756 -0.3917105 0.7159229 0.28594917 -0.02801277 0.70848376 0.42398062 0.096277654
1.2171636 0.23038328 0.8242393 1.2698865 0.76431686 0.24646375 1.0334923 0.1275796
0.433414 0.12803264 0.6432243 -0.05484686 0.8284471 -0.1171336 0.9083906 1.6503243
1.0332985 0.34247214 0.53633684 0.93316984 1.0792416 0.43078592 1.2104071 0.103559345
0.88320524 0.3026022 0.43473786 0.038311966 0.024066882 1.1508614 0.6162672 0.96822584
0.09324997 -0.055343643 -0.16978964 0.75738007 0.72650796 0.9115217 0.8846932 1.0164968
0.038006093 -0.011623014 0.16801135 1.1692449 0.096337035 -0.6807337 0.045909837 0.18138124
0.67132485 0.9718321 1.0619531 0.88994414 -0.12041476 -0.024614986 0.13883258 0.121303305
0.13450266 1.5600374 -0.020112885 0.23950765 0.42479983 -0.3727004 0.92396826 1.2944993
0.4675292 -0.07886389 0.7666145 -0.20438354 -0.10581201 0.7588451 0.3491386 0.9223125
0.6922804 -0.532585 0.73444176 0.05219676 -0.02650082 0.25585687 1.04561 0.32911253
0.22522877 -0.0375899 0.009103763 0.28702664 0.94090706 -0.028424356 1.2645633 0.8703239
0.8506638 0.1905615 0.82783866 0.7650781 -1.1549591 0.3771346 0.9854079 0.22394092
0.39691103 1.3328233 0.9032663 0.68777037 -0.0068772146 0.9467528 0.17249118 0.48317048
0.7170118 0.45420122 0.513349 0.08115377 0.14018036 0.07245781 0.41520506 0.6563812
0.32997835 0.023753721 0.90638185 0.8993489 -0.64350533 -0.07882613 -0.05084886 0.33237
0.668945 0.36752146 0.74516046 0.28320774 -0.008177632 0.7106462 0.45197096 -0.53659064
1.352943 0.27930054 0.81986636 0.89682704 0.7323863 0.6152592 0.95964265 0.4033247
0.29645398 -0.09233662 0.72055477 -0.040069837 0.52813375 0.34975106 0.99284095 1.3332559
0.8576269 0.21406846 -0.021094194 0.9370907 1.1268715 0.59733427 0.6743329 0.09257537
0.88317066 0.25198075 -0.2934319 0.031555835 0.020675821 1.1134263 0.4626454 1.0390754
0.022973869 0.27863663 0.087038234 0.88410205 0.6732842 0.89286155 0.96558625 1.0610807
0.4737187 -0.6547638 0.42445064 1.305824 0.22666083 0.98646325 0.15432373 0.17072989
0.6231057 1.084389 0.9100579 0.95252025 1.0287462 -0.1885034 -0.24811853 -0.1275145
0.33429906 1.6354084 0.08133327 0.5099635 0.28795555 0.5447849 0.76212656 1.4701568

fc4.bias f4 [4]
00000000: 2ef2 843f 0dfa 833f 8d67 773f a8ca 853f
1.0386407 1.0310684 0.9664238 1.0452471

ln1.weight f4 [256]
00000000: 30ba f43e ab00 d73e 7abb 6a3e 739a 083f
00000010: 37c3 ce3e b6ad c33e ed65 a63e d7fb e53e
00000020: 42d2 ce3e cb3d dc3e 1da5 dd3e f09f 663e
00000030: b9c2 a43e f40b 073f 2ed0 c03e 50b2 923f
00000040: b0bf f63e 1469 a73e 7cb8 e63e b404 b53f
00000050: f03d 983e 5334 0a3f e3bb ea3e 9478 273f
00000060: 8bd5 2540 ebde 953f 7ba7 d63f 3ce9 dc3e
00000070: fe44 363f 2edc cb3e 8610 f33b cffc bc3e
00000080: abac 2a3e 954b 0a3f 10dc e43e b0ce a73e
00000090: 2d33 243f 7e04 c53e 739d 573f bebd ea3e
000000a0: 46de 583e cbcd f03e 5e6d de3e 64bc e13e
000000b0: dd49 c33e 8002 c33d b818 bb3e d4ac 9e3e
000000c0: d9aa 493f ea0c b03f 6e07 cb3e 583b 9e3e
000000d0: cfc4 ba3e 5766 ec3e 8707 e53e 9818 3d3f
000000e0: f199 c23e 842d e23e 69d0 3d3e 30fc 393e
000000f0: fe2b a03e e05c e23e 4402 f63e 244d d23e
00000100: 5c78 283e 17e8 0b3d 61f0 d93e 3e81 f53e
00000110: 1265 5f3d af99 d83e c97f 613f 69a1 c43e
00000120: 9a42 fd3e 25af 1b3f cfb5 db3e 0e35 ce3e
00000130: 997b 4f3f 9c8c ce3e 1f3b c33e 726a cc3e
00000140: b5bc b23e 44a1 f43e 2156 d63f a3ff e63e
00000150: 0df6 da3e bdb0 ed3e 9900 a83e abe6 e93e
00000160: 2b05 c03e 09ad ba3e 8064 9a3f ee00 d43e
00000170: d63f b23e 1fe9 1c3f bf15 eb3e 34ed 8a3e
00000180: 0784 d13e 8b3b 953e c6d8 053f aa5d e13e
00000190: 9351 f93e 8c8e 523f 51eb b53e 3c8e db3e
000001a0: c95a c43e d84e c33e a00c 793e 8ba4 bd3e
000001b0: 43b2 9a3d 43fe 4a3e b756 cb3e 990d 0b3f
000001c0: 7208 683e 3fb9 fd3e 3a16 b43e f4da f73e
000001d0: 0d7e f43e 80a6 673f 1dff a53e b0c6 8b3f
000001e0: d8af e43e d187 1f3f 1fc1 c83e d176 e43d
000001f0: 9dcc c13e 828d a73e 3035 9a3f 1c6e 1c3f
00000200: 1319 d13e 5918 b83e ec4b b33f 12f9 863f
00000210: 55d8 ca3f 9f59 f43e 2637 ea3e 9299 643f
00000220: e052 0b3f 4079 e53e d085 553f e039 b93e
00000230: b384 d83e d01f d53e bace f93e c2ca 863f
00000240: 825b c83e 2849 4b3f 2f85 ba3e e68b e13e
00000250: c7fd d63e 526a ec3e 0f03 e53e e5b5 dc3e
00000260: 8599 d83e 0764 b63e d18c d03e 9c9a ce3e
00000270: 94b2 463e a9a5 db3e 00d7 f03e 1ab2 e33e
00000280: 0b53 b73e 1e1f 6a3f 1223 d13e 9c3a ce3f
00000290: 5ebb 2f3e 819b 393f 6d68 913f 40a1 e53e
000002a0: 97dc 823e ef2d f33e dbfb bd3e b2d7 be3e
000002b0: 5e89 f63e b541 c43e 3f34 cc3e 7fa7 ba3e
000002c0: c7ff ec3e d3cb 0c3f 2b35 9c3d 8ae7 d93e
000002d0: 0629 d63e 4af9 873f 3b6d 983e bfe0 ed3e
000002e0: 38b0 9d3e d0f1 cf3e dd32 da3e a792 ea3e
000002f0: 56c5 6a3f ca12 623f da91 d93e dee9 cb3e
00000300: 4a31 8d3e 858b e93e d123 ae3e cda5 a53f
00000310: 045f b73e 19fe a43e 31ec ff3e 0c49 523e
00000320: 8a73 e73e 4718 d03e aa8f 963f 7739 d13e
00000330: 6efa 153f 0342 aa3f ea41 6c3f 2476 c73e
00000340: 585d 2c3f 6b9d e63e 09ca 943f 200e ee3e
00000350: 975e 883e e50b e83d 556f cf3e 2012 903f
00000360: 0eab e63e 1d71 b63e cecf d93e 1801 0c3e
00000370: 220b 9b3e de06 e83f be82 f73e 72a8 ca3e
00000380: 2b53 f33e 3560 463f b6a1 bc3d 423d cf3e
00000390: 2857 1b40 d18d d03e 037f dd3e 4ad6 c13d
000003a0: a571 c23f 60b2 d13e abb7 c23e 1243 a63e
000003b0: 9873 db3e ba5b f73e 01f1 ce3e 8e66 e33e
000003c0: b45c 313f 39ca cf3e 7f24 b13e 15f4 cd3e
000003d0: 8166 f33e cf73 a03e 0761 f23e 2f6d e13e
000003e0: f9d7 ed3e c02e ed3e aa7e ae3e 0f3b b33f
000003f0: 3df6 893e d34f cf3e 3e64 f83e 0886 893e
0.477983 0.41992697 0.22923079 0.5336067 0.40383312 0.38218468 0.32499638 0.449187
0.4039479 0.43015894 0.43290034 0.22521949 0.32179812 0.52752614 0.37658828 1.1460667
0.4819312 0.32697356 0.45062625 1.414206 0.29734755 0.5398609 0.4584647 0.6541836
2.5911586 1.1708654 1.6769861 0.43146694 0.71199024 0.3981642 0.007417741 0.36911628
0.1666743 0.5402158 0.44699144 0.32774878 0.6414059 0.3847999 0.84224623 0.45847887
0.2117854 0.47032008 0.43442816 0.44089043 0.3814229 0.09521961 0.36542296 0.30991232
0.7877632 1.3753941 0.39654106 0.3090465 0.36478278 0.4617183 0.44732305 0.7386565
0.38008073 0.4417535 0.18536533 0.18162608 0.31283563 0.44211483 0.48048604 0.4107448
0.16452163 0.034156885 0.42566207 0.47950166 0.054539748 0.4230475 0.8808561 0.38404396
0.49464875 0.60814124 0.42912146 0.40274853 0.8104797 0.4034165 0.38131043 0.3992496
0.34909597 0.47779286 1.6745034 0.4511691 0.42765847 0.46423903 0.32812956 0.45683798
0.37503943 0.3646014 1.206192 0.4140696 0.34814328 0.61293215 0.45915028 0.27134097
0.4092104 0.2914699 0.52283895 0.44016773 0.4869505 0.8224876 0.35531095 0.42881954
0.38350514 0.3814609 0.24321222 0.370396 0.07553532 0.19823556 0.39714596 0.54317623
0.22659472 0.49555394 0.35173208 0.48409235 0.4775242 0.90488434 0.32421198 1.092001
0.44665408 0.62316614 0.3920984 0.11155475 0.3785142 0.3272515 1.2047482 0.61105514
0.40839443 0.35956076 1.4007545 1.054476 1.5847269 0.47724625 0.457452 0.8929683
0.5442333 0.4481907 0.83407307 0.36176968 0.4228874 0.41625834 0.48790532 1.0530627
0.39132315 0.794085 0.36429736 0.44052047 0.41990492 0.46174866 0.44728896 0.43107525
0.42304626 0.3562319 0.40732434 0.40352333 0.1940406 0.42899826 0.47039032 0.44471818
0.35805544 0.9145373 0.4084707 1.6111636 0.17161319 0.72502905 1.1359993 0.44849586
0.25558922 0.47495982 0.37106213 0.37273937 0.48151678 0.3833138 0.3988361 0.36455914
0.46288893 0.5499851 0.076273285 0.42559463 0.41828173 1.0622952 0.29770836 0.4646053
0.30798507 0.40614176 0.4261693 0.45815012 0.9170736 0.8830992 0.42494088 0.39826864
0.27576667 0.45614257 0.340117 1.2941223 0.3581468 0.3222511 0.49984887 0.20535678
0.45205337 0.40643522 1.1762593 0.40864155 0.5858525 1.3301395 0.92288077 0.38957322
0.6732993 0.45041975 1.1624156 0.46495152 0.26634666 0.11330394 0.40514627 1.1255531
0.4505238 0.35633174 0.42541355 0.13672292 0.3028193 1.8127096 0.48341936 0.3958164
0.4752439 0.7749055 0.092105314 0.40476424 2.4271946 0.40733197 0.43260965 0.094647005
1.5190932 0.40956402 0.38030753 0.32473046 0.4286163 0.4831217 0.40418246 0.4441418
0.6928208 0.4058397 0.34598157 0.40225282 0.47539142 0.31338355 0.4733965 0.44028613
0.46453837 0.4632473 0.34081012 1.4002398 0.26945677 0.4049059 0.4851398 0.2686007
