trained_models/checkpoint_ep2700.pth (torch, 416160 bytes, 14 tensors)

fc1.weight f4 [256, 8]
000000 68 91 0d be 80 7e 7e 3e 49 f2 d1 3e 3a c2 3c 3f
       -0.13825 0.24852943 0.4100516 0.73733866
000010 cd 7f 33 3e c4 d3 01 bf bf fd 90 3e d6 87 58 3e
       0.17529221 -0.50713754 0.28318593 0.21145567
000020 d9 4b 0c bd e8 fa 6f 3e 2b d6 02 3f 18 32 62 3f
       -0.03425202 0.23435557 0.51108044 0.88357687
000030 da 67 a6 3d 8f 9b df be 6d 5a 8e 3e 02 7a 51 3e
       0.08125277 -0.4367337 0.27803364 0.20456699
000040 3b 19 cb be db 70 13 3e db 15 2d 3f 99 bb 05 3f
       -0.39667687 0.1439852 0.67611474 0.52239376
000050 89 bb 07 3d 2c a3 ca 3d 39 03 5a 3e de 19 11 3e
       0.03313783 0.09894404 0.21290292 0.14170024
000060 61 fa ea be cf 8e 18 3e 38 14 0e 3e da 42 61 be
       -0.4589415 0.14898227 0.138749 -0.21998158
000070 c8 0c 61 3d 40 9f 63 3d a3 c6 a5 3e df 62 66 bb
       0.05494383 0.055571795 0.3237811 -0.0035154147
000080 05 7f cb be 15 af 76 3e 98 62 04 3f 75 5a 19 3f
       -0.39745346 0.24090226 0.5171294 0.5990365
000090 6a c9 45 3e e6 78 b7 be f3 85 82 3e 34 4c 55 3c
       0.19315115 -0.35834426 0.2549282 0.0130186565
0000a0 42 0d b3 be 88 97 a2 3e b4 b6 28 3f 38 ae 4a 3f
       -0.34971052 0.31756234 0.6590378 0.79172087
0000b0 a0 61 d0 3d 18 30 fb be dd c0 79 3e 8a e2 14 3e
       0.101748705 -0.4906013 0.24389978 0.14539543
0000c0 35 07 39 3e c9 5b a8 3e b3 23 96 3e 6a 55 7d 3f
       0.18069156 0.32882527 0.2932411 0.98958457
0000d0 e4 0e aa 3e 9c 95 9e bf 23 78 9f 3e f8 ad 9f 3e
       0.33214486 -1.2389407 0.31146345 0.31187415
0000e0 fb dc 37 bf a8 59 c5 bb b2 8c 5e 3f b4 5a 11 3e
       -0.71821564 -0.0060226507 0.86933434 0.14194757
0000f0 ec 77 0e 3c 49 d7 cd 3e 28 5a 89 3e 18 b6 f1 3c
       0.008695584 0.40203312 0.26826596 0.029505774
000100 ca 90 85 be 95 8e 39 3e 5d 51 1e 3f cb 7d 0f 3f
       -0.26087028 0.18120797 0.618429 0.5605132
000110 79 51 07 3e 1d 91 d0 be 5b 78 89 3e 74 71 ee 3d
       0.13214673 -0.40735713 0.26849636 0.11642733
000120 c1 40 af be 7b 6f 71 3e a1 22 1a 3f 2e 5b 2a 3f
       -0.3422909 0.23577683 0.6020909 0.6654538
000130 21 ed 19 3e cc c6 c4 be 84 87 81 3e 04 08 de 3d
       0.15031864 -0.3843292 0.25298703 0.108413726
000140 a7 6c e9 bd 18 b5 8a 3e 46 28 0f 3f 23 af 53 3f
       -0.11397677 0.2709129 0.5592083 0.8268911
000150 17 4b 31 3e ed 99 39 bf 33 61 94 3e 72 27 3d 3e
       0.17313801 -0.725005 0.28980407 0.18472078
000160 25 93 f8 be 7f 98 85 39 55 8a 2f 3f f6 3d cd 3e
       -0.48549762 0.00025481355 0.6857045 0.40086335
000170 a8 0f 4e bd af 17 60 3f c9 e3 17 3e 52 bc bf bd
       -0.0503079 0.8753614 0.14832987 -0.09362091
000180 ba a3 9e be ad f1 f3 3d ba 76 24 3f 8c a1 50 3f
       -0.30984288 0.1191133 0.6424366 0.814965
000190 b2 45 06 3e cb 54 b9 bd bb ed 70 3e 30 6a b2 3d
       0.13112524 -0.09049376 0.23528187 0.0871166
0001a0 0d ee 98 be 29 b5 e2 3c 1d 93 37 3f 9f 7d e1 3e
       -0.29869118 0.027674275 0.7170885 0.44041154
0001b0 64 9e 8d 3d 68 79 9a 3e 6a f5 46 3e ed 32 18 3e
       0.06914976 0.3017075 0.19429556 0.14863177
0001c0 de ed e9 bc 8a a9 c4 3e bd a6 bc 3e 07 5c 7d 3f
       -0.028555807 0.38410598 0.3684596 0.9896855
0001d0 67 50 47 3e 12 77 90 bf 64 14 9e 3e 2e d1 c4 3e
       0.19464265 -1.1286337 0.30874932 0.3844084
0001e0 95 ff 06 bd 44 07 8f 3c 8e b2 40 bf ae ae 1f bf
       -0.032958586 0.01745952 -0.7527245 -0.62375915
0001f0 09 d5 a3 3c 7a da 76 be db f0 36 3f 7b af 27 3c
       0.019999044 -0.2410678 0.71461266 0.010234709
000200 8d 6a ac 3e 9d f7 c9 3e a2 ec 64 3e 7f eb 4b 3f
       0.33675042 0.39446726 0.22355893 0.79656214
000210 bf f4 8d 3e 4d f9 9e bf 98 11 a5 3e cb 73 61 3e
       0.2772579 -1.241983 0.32239985 0.22016828
000220 83 c7 f2 be 48 ed 10 3e 1d b8 21 3f 80 a5 42 3f
       -0.4741784 0.14153016 0.6317156 0.7603378
000230 82 22 34 3e 84 46 91 be fa ff 80 3e ff 6a 1e 3e
       0.17591289 -0.28374112 0.25195295 0.15470503
000240 69 4a 59 bd 56 23 a7 3e 72 14 b5 3e 0a 8b 62 3f
       -0.05304948 0.32644147 0.3536716 0.88493407
000250 a3 71 96 3e 94 03 78 bf d3 c0 9c 3e d6 24 6a 3e
       0.29383573 -0.9688046 0.30615863 0.22865614
000260 15 f3 c8 be 1a ef 0a 3e ca d0 20 3f 20 be 6c 3f
       -0.39247957 0.13567773 0.62818587 0.9247761
000270 f5 0d ea 3d fa 8b e9 3e 8a 79 ac be eb 11 e9 3d
       0.11428443 0.45614606 -0.33686477 0.11380371
000280 80 7d ae be bc a2 1c 3e 04 fe 20 3f 97 f4 01 3f
       -0.34080124 0.15296453 0.628876 0.5076384
000290 e5 4f 24 3c 87 eb 62 3e fb 26 51 3e 41 29 57 bc
       0.010028814 0.22160159 0.20425026 -0.013132394
0002a0 47 c6 85 be 7f f4 6a 3e 38 3d 07 3f 21 73 1b be
       -0.26127836 0.2294483 0.5282779 -0.15180637
0002b0 b3 e6 a2 3d 6d a4 ba be fb 89 9e 3e 1e 0d 41 3e
       0.07954159 -0.36453572 0.30964646 0.1885266
0002c0 ac 8a 52 be f8 b0 7f 3e 25 71 23 3f 09 f1 4f 3f
       -0.20560712 0.24969852 0.6384452 0.81227165
0002d0 72 8d c0 3d 08 58 ba be ae bf 81 3e 2e 9b e6 3d
       0.094019786 -0.36395288 0.25341552 0.11260067
0002e0 f9 65 71 be 83 99 3c 3e 51 04 ef 3e 22 6a 8c be
       -0.23574056 0.18417935 0.4668298 -0.27424723
0002f0 66 02 fc 3d c8 6d d7 be 14 04 c2 3e 66 48 01 3e
       0.12305145 -0.42075944 0.37893736 0.12625274
000300 31 b2 bf be bf 44 48 3e 12 e9 1e 3f f6 58 0e 3e
       -0.37440637 0.19557475 0.6207439 0.13901123
000310 0b 94 4b bd e6 bc 7a be 49 74 06 3f 15 ee dd bd
       -0.04970173 -0.24486122 0.5252119 -0.10836426
000320 11 39 f9 3e 20 57 76 3e a5 7f 9a bf 28 ce 32 be
       0.4867635 0.24056673 -1.2070204 -0.17461455
000330 e6 23 b7 3e 16 52 e9 be 27 ad eb 3d f1 ed 34 3e
       0.35769576 -0.4557044 0.115076356 0.17668892
000340 c9 23 96 3e 6a c3 40 3e e2 85 0f c0 a9 e1 68 bd
       0.29324177 0.18824545 -2.2425466 -0.05685583
000350 e0 93 f3 3d ba b1 42 be b4 59 6f 3e 6e d8 1f 3e
       0.11893439 -0.1901311 0.23374063 0.15609905
000360 40 33 ac be 20 fb 3f 3e 57 7f 34 3f bf 87 61 3f
       -0.3363285 0.1874814 0.70506805 0.8809776
000370 53 dd 1a 3e 44 80 92 be 15 2d 7a 3e 67 e9 8d 3d
       0.15123491 -0.28613484 0.2443126 0.069292836
000380 70 3a a5 3d dc 2e 88 3e ea e5 00 3e a0 c9 ef 3e
       0.08067787 0.2659825 0.12587705 0.46833515
000390 1a cc 26 3e 63 2c 71 be 0d 15 8e 3e 98 05 ad 3d
       0.16288796 -0.23552088 0.27750435 0.084483325
0003a0 56 ce d4 3d 01 bc b7 3e 94 31 c5 3e 52 cc 5c 3f
       0.10390918 0.35885623 0.38514388 0.8624927
0003b0 f9 63 2b 3e c6 b9 60 bf 16 e5 9a 3e d7 ad 08 3e
       0.16737355 -0.8778347 0.30252904 0.13347565
0003c0 5f 0a 3f bf fe bc 96 bd 3e 8d cb 3d 31 04 47 be
       -0.746252 -0.07360266 0.09939049 -0.19435193
0003d0 ef ed 89 bd 60 a9 0f 40 43 be a6 3b de 6e 55 bd
       -0.06734835 2.2447128 0.005088599 -0.052107684
0003e0 30 e2 6d be e3 06 8a 3e 50 73 12 3f 4f 63 33 3f
       -0.23230815 0.2695838 0.572072 0.7007341
0003f0 ba d8 08 3e 5d be 02 bf ee 5c 87 3e e4 e4 58 3e
       0.13363925 -0.5107172 0.26438087 0.21181065

fc1.bias f4 [256]
000000 7e 11 2c 3e b5 b4 42 3e 3a 2e 87 3d 36 d7 06 3d
       0.16803548 0.19014247 0.06600614 0.032920085
000010 2f f6 10 3e 12 a1 0d 3e a3 91 a7 3e 58 ed bf bc
       0.14156412 0.13830975 0.327283 -0.023428604
000020 cd 3e 31 3e b6 59 05 3e 52 99 51 3e c2 4a be 3c
       0.17309113 0.13022503 0.20468643 0.023229007
000030 b8 03 d0 3d af 68 59 3c e6 99 9f 3e fe 0e 57 bc
       0.10156959 0.013269587 0.31172103 -0.013126133
000040 79 2f b5 3e 6d 06 fa 3d 75 23 6f 3e f8 39 df 3d
       0.3538778 0.12208257 0.2335337 0.108997285
000050 e7 bd bb 3d 27 cb e8 3d b2 7c 09 3e c0 f1 e3 3d
       0.091670804 0.11366873 0.13426474 0.111300945
000060 8c 2d 79 bc d4 fc 7d 3e 43 ad 08 3e f0 d2 c8 3d
       -0.015208613 0.24803478 0.13347344 0.09805858
000070 ff cd 0f 3e da b9 91 3e d4 3c 0c be 54 cb 13 3e
       0.14043425 0.28462106 -0.13695079 0.14433032
000080 eb 89 5c bd 1b 87 ff 3d 57 a1 01 3e 27 02 9b 3d
       -0.053842466 0.12476941 0.12659203 0.0756877
000090 9c b9 d2 3d 11 bd ed 3d a6 8a cc 3e c1 45 18 3e
       0.102893084 0.11608327 0.3994953 0.14870359
0000a0 74 19 3c bd 57 39 17 3e ab 03 b5 3d 5d 3f 2b 3e
       -0.04592271 0.14767967 0.0883859 0.1672339
0000b0 8b 62 bc 3e 31 52 13 be a0 c3 24 3b ab aa 23 3d
       0.36793932 -0.14386822 0.0025141016 0.039957684
0000c0 15 d8 98 3e 28 47 a7 3d f2 8e f0 3d b6 e9 eb 3d
       0.29852358 0.08167869 0.11746015 0.11519186
0000d0 51 85 14 3c 66 d8 09 3e 0f 35 21 3e 08 f4 53 3e
       0.009064988 0.13461456 0.15742896 0.2069856
0000e0 fb 1d 9d 3e c7 3b 24 3e c9 07 c8 bc de 24 2a bd
       0.30686936 0.16038428 -0.024417775 -0.041539066
0000f0 c7 1f 38 bc bc 0e 70 3e 30 a1 aa 3d 5e e3 7c 3e
       -0.011238045 0.2344312 0.08331525 0.24696109
000100 9e 38 3d 3d e8 5f 43 bd 78 5b 43 3e 08 f2 b8 3d
       0.046196572 -0.047698885 0.19077861 0.09030539
000110 b9 95 31 bc ef f6 13 3e c6 c4 7f 3d 3d c3 34 3e
       -0.010838919 0.14449666 0.062443517 0.17652602
000120 ab 2c 6b 3d 93 59 c3 3d 55 f6 22 3e f9 6e 93 3e
       0.057415646 0.09538569 0.1591428 0.28795603
000130 bf 2b 1a 3e 66 29 f5 3d 03 f1 1f 3e 4d 16 8b 3e
       0.1505575 0.11970787 0.15619282 0.27165452
000140 c5 66 33 3e 18 0f e1 3d f9 5e b8 3d d1 19 00 3d
       0.17519672 0.10989207 0.090024896 0.03127462
000150 d6 3a c8 3d c6 73 0b 3e 04 1f 92 3d 7f da 83 3e
       0.09776847 0.13618383 0.07134822 0.25752637
000160 e0 7d 30 3e ee 10 a9 3e b9 a2 76 bd 44 b0 3c 3e
       0.17235518 0.3302073 -0.06021378 0.18426615
000170 01 ab 0f 3e 30 4d 81 3d 16 cd 36 3e 35 f1 2c 3d
       0.14030077 0.063135505 0.17851672 0.04222222
000180 92 cd 6b 3e 1f ba a0 3d e0 a3 7c 3e 0b 5e 40 3e
       0.23027638 0.07848 0.24671888 0.18785875
000190 8f ea 1d 3e 26 24 4f 3d 5e b7 37 bc c7 05 da 3d
       0.15421508 0.050571583 -0.011213152 0.10645633
0001a0 84 f1 c2 3d 73 b1 34 3e af 8e cf 3d 0a 82 1b 3e
       0.09518722 0.17645817 0.101346366 0.15186325
0001b0 e4 de 75 3d 57 c6 70 bc 8a 96 a3 3d 75 b0 b8 bc
       0.06002702 -0.014695725 0.079876974 -0.022545079
0001c0 28 65 10 3d 16 80 1d 3e 94 59 15 3e 3b 38 11 3e
       0.03525272 0.15380892 0.14584953 0.14181606
0001d0 99 df 2f 3e 1e 4a 99 3e 9f 15 99 3d fc 2b e0 3e
       0.1717514 0.2993936 0.07474827 0.43783557
0001e0 00 94 48 3e f5 0a 29 3e d9 ab 13 bd 4e 6e b4 bd
       0.19587708 0.16508086 -0.03605256 -0.088101014
0001f0 ce c1 20 3e 97 2f b2 3d b2 2c ef 3e fb 36 02 3e
       0.1569893 0.08700483 0.46713787 0.12716286
000200 c3 b7 fc 3d 91 62 01 3e de eb 09 3f 64 b0 a8 3e
       0.12339737 0.12635256 0.5387553 0.32947075
000210 5e 27 01 3f df 17 63 3e 39 4b 1c 3e 01 e1 9e 3e
       0.50450695 0.22177075 0.1526307 0.3103104
000220 4d 6b 50 3e 46 64 16 3e eb a5 a3 3e 76 dc e5 3d
       0.20353432 0.14686689 0.31962523 0.1122369
000230 08 94 68 3d c6 5c 2e 3e 21 91 b9 3e e7 de 84 3e
       0.0567818 0.17027578 0.36243537 0.2595131
000240 5a 87 d2 3d bf ef 18 3e 6b f9 d7 3d b1 32 04 3e
       0.102797225 0.14935206 0.105456196 0.12909962
000250 8c 55 cd 3d c9 62 0c 3e 9d d9 22 3e 71 da 11 be
       0.100260824 0.13709559 0.15903325 -0.14243485
000260 78 4f 36 3e 44 94 da 3d 28 9e 06 3e de b9 07 3e
       0.17803752 0.10672811 0.1314627 0.13254496
000270 a8 a3 08 bd 3f 17 0a 3e 35 f1 1d 3e ea 52 38 3e
       -0.0333592 0.1348543 0.15424044 0.18000379
000280 e0 18 ea 3d 22 b4 b6 3e 08 d3 41 3e 1e 5e 81 3e
       0.11430526 0.35684305 0.18928158 0.25267118
000290 26 5a d3 3d 39 41 14 3e 59 8f 00 3e e9 9e 77 3e
       0.10319929 0.14478005 0.12554683 0.24181713
0002a0 da 43 e5 3d b7 9a 3b 3e de 27 2e 3e 66 9d 91 3e
       0.11194582 0.18320738 0.17007396 0.28440398
0002b0 e6 2e d1 3d af 2a 19 3e d1 af 40 3e 5a b5 2c 3e
       0.10214023 0.14957689 0.18817069 0.16866055
0002c0 51 a8 3e 3e be bb 09 3e 46 08 0b be 5d ed 24 3e
       0.18618895 0.13450524 -0.13577375 0.16106172
0002d0 53 9a 0a 3e 64 03 68 3e 1a 93 1e 3e 98 46 3b 3e
       0.13535433 0.22657543 0.15485802 0.18288648
0002e0 9e b6 c9 3d 04 23 0f 3e 1f 55 27 3e 70 99 cc 3d
       0.098492846 0.13978201 0.16341065 0.099902034
0002f0 5f bd 1e 3f 8e 79 be 3e 0b 1e 0a 3e 72 0c 1d 3e
       0.6200771 0.37202114 0.13488023 0.15336779
000300 9d e0 9e 3c a8 f5 84 bd 47 22 41 3d 49 f0 9c bd
       0.019394213 -0.06492168 0.04715183 -0.07663018
000310 7c 3f b1 3e 47 32 b3 3d 69 0b 25 3e ec 99 4e 3d
       0.34618747 0.08749824 0.16117634 0.05043976
000320 70 77 37 3e a9 f6 41 3e 54 06 ab 3e 97 3d 28 3e
       0.17916656 0.1894175 0.33403265 0.16429745
000330 5c eb ec 3d ed 4a 5a 3e 89 2c 22 3e d9 43 c1 3d
       0.11568329 0.21317644 0.15837301 0.09436769
000340 e9 ef 3e bf 31 14 32 3e d1 84 0f 3e c0 87 46 3e
       -0.74584824 0.17390515 0.14015509 0.19387722
000350 98 4a 31 3d 43 4c 09 3d ae 42 46 3e 71 b0 09 3e
       0.04328403 0.033519994 0.19361374 0.13446213
000360 27 48 48 3e 86 f3 a3 3d 4c d8 08 3e b3 98 84 bd
       0.19558774 0.08005433 0.1336376 -0.064744376
000370 a1 40 c2 3d 1d 33 c8 3e 69 72 f7 3d c4 82 94 3d
       0.09484983 0.39101496 0.12082369 0.07251504
000380 84 79 52 3e 0e f5 2a 3e 92 6b 5a 3c 43 68 80 3d
       0.20554167 0.16695043 0.013331311 0.06269886
000390 76 8a b2 be 44 7e 0c 3d cc 92 51 3e 4c c1 4d bd
       -0.34871262 0.034300104 0.20466155 -0.05023317
0003a0 3a 91 44 3f 20 4f 25 3e 67 b4 ea 3d d8 f8 ed 3c
       0.767841 0.16143465 0.1146019 0.029049322
0003b0 03 47 1c 3e 5f 9e 42 3c 51 94 7f 3e 5e 7e 51 3e
       0.15261464 0.011878579 0.24958922 0.20458362
0003c0 da 35 9d 3e 9d 3a e6 3d 4a 11 cd 3d 80 20 cc 3e
       0.30705148 0.11241648 0.10013063 0.39868546
0003d0 7c 55 35 3e 6a ed fa 3d 36 b7 d7 3d 7e 69 65 3e
       0.17708391 0.122523144 0.105329916 0.22403523
0003e0 fa ef 2a 3e 5b 7d 3d 3e af 5d a2 3c c8 21 4f 3d
       0.16693106 0.1850485 0.019820062 0.050569326
0003f0 75 9c 93 3d 07 37 b7 3d 0f 13 55 3e 8a 53 7c 3d
       0.07207576 0.089460425 0.20808052 0.061603107

fc2.weight f4 [256, 256]
000000 69 f7 a0 3c 36 1b 45 3e b8 af 9b 3c ba b4 bd bd
       0.019649224 0.19248661 0.019004688 -0.092629865
000010 5f ca 16 bc 55 5d c1 3c d9 b8 a5 3e 07 3a 95 be
       -0.0092035225 0.023604074 0.3236759 -0.29145834
000020 14 99 75 3e 69 9c 23 3d d0 68 11 3d 45 e9 c2 3d
       0.23984176 0.039944086 0.035500348 0.09517149
000030 3b a0 06 3e 74 ff f7 bb b5 1d 84 3d ec 1a 6b bf
       0.1314706 -0.007568294 0.06450979 -0.91837955
000040 e5 f4 82 3e bd e7 09 be 0e fe b5 3d 5e 25 13 3f
       0.25577465 -0.13467307 0.08886348 0.5747889
000050 ca fd 92 be af 0d c4 be 4d 34 0d 3e cd e6 1a be
       -0.2870925 -0.3829169 0.13789482 -0.15127106
000060 94 59 e0 be 40 23 8f be 8c 0d 16 3d fc b5 c6 3c
       -0.43818343 -0.2795658 0.036634013 0.024256699
000070 6c af e5 bd f5 b5 d2 3c 17 48 35 be 28 9b fe bd
       -0.112151 0.02572153 -0.17703281 -0.124319375
000080 60 22 52 3e d5 fc 9c 3e 5f db 62 be c7 cc 33 bd
       0.20520926 0.30661646 -0.22153996 -0.043896463
000090 d4 0e da 3d 1d fc 67 bd e1 4f 9a 3f 9f 7c b3 bd
       0.106473595 -0.05663692 1.2055627 -0.08764004
0000a0 8d 46 4e 3e 13 f9 57 bd 0f a2 93 be f6 44 61 3e
       0.201441 -0.05272777 -0.28834578 0.21998963
0000b0 77 8a bc be e0 11 d5 be cf fb b1 bd 9e 08 95 bd
       -0.3682439 -0.416152 -0.08690607 -0.07277034
0000c0 59 0e 7b be 5f 4a c3 be 80 77 d4 bd 80 25 3a bd
       -0.24517192 -0.38142678 -0.10374355 -0.04544592
0000d0 01 f1 da be 08 a0 13 bd be 00 e8 3d 03 f6 dd 3c
       -0.42761996 -0.03604129 0.113282666 0.027094847
0000e0 c0 15 d1 3c b0 0c d9 3d 04 5f da bc b9 ce ae be
       0.025523067 0.10598123 -0.026656635 -0.34142092
0000f0 c5 55 87 3c 30 7c e7 3d 66 2c 04 3d 92 21 5f bd
       0.01652039 0.11302984 0.032268904 -0.054475375
000100 21 9b 53 3c 58 23 23 be e8 5b 19 3e dd 58 01 3e
       0.012915404 -0.15931451 0.14976466 0.12631555
000110 f6 ae 10 bd 05 4e 45 bd a5 9c 11 3e 9b b9 35 3e
       -0.035323106 -0.04817011 0.14219911 0.17746584
000120 27 1c b7 be e8 ce 11 be 57 6d eb bc a3 f9 0d be
       -0.35763666 -0.14239085 -0.02873866 -0.1386476
000130 90 6e 9f 3e aa fd c2 3c b4 0c 12 bd 31 b9 79 bd
       0.3113904 0.023802597 -0.035656646 -0.060967628
000140 d2 7b 90 bd 78 23 29 bd af c4 61 bf 05 b0 3a bf
       -0.07054867 -0.04129359 -0.8819074 -0.72924834
000150 43 0f f4 bd a6 98 c4 bc f9 a6 e1 bd 99 83 18 3e
       -0.119169734 -0.02399857 -0.11018176 0.1489395
000160 1c 9a 32 3e 75 8e c5 3d bd a5 0d bf 1f 62 dd 3c
       0.174416 0.09646312 -0.5533102 0.027024327
000170 86 70 c0 bd de eb c7 3a 1d cb 0f 3d 01 1b 98 bd
       -0.09396462 0.0015252789 0.035105813 -0.074270256
000180 3f 6c 6b 3e ad 55 e8 bd 0b 28 33 be 82 07 81 3e
       0.22990511 -0.11344466 -0.17495744 0.2520104
000190 58 6a 8b 3e 42 9c 03 3f d4 5b a9 bd c4 60 87 bd
       0.2722957 0.51410306 -0.08269468 -0.066102535
0001a0 a4 4e 8d 3d e4 26 b1 bd 4c 69 77 be d8 76 5d be
       0.06899765 -0.08649996 -0.24161261 -0.21627367
0001b0 f2 09 bb bd cf fc 88 be 95 b7 c9 be df 5f ff be
       -0.09132756 -0.26755378 -0.39397874 -0.4987783
0001c0 6b 57 9b 3e a3 aa 0d be c4 da 86 3d e4 51 37 3e
       0.30340132 -0.13834624 0.06584695 0.17902333
0001d0 8c 53 09 3e cb 18 6e 3e 65 a6 e3 bd ae 13 66 be
       0.13410777 0.23251645 -0.111157216 -0.22468445
0001e0 8e 55 a5 3d 17 dc 10 3e d6 90 f1 3d bb a4 ba bd
       0.08072959 0.14146458 0.117952034 -0.09113451
0001f0 03 5d 0a be 15 c8 84 bc 35 0d 0d bf d8 af 3e 3f
       -0.13512044 -0.016208688 -0.5509828 0.74487066
000200 32 bb 2b 3d bc 21 c0 3d 76 0a 50 bf 84 74 a1 3f
       0.04192657 0.09381434 -0.8126596 1.2613683
000210 9a d3 b5 bd a2 bb 80 3c 93 b5 3c be c3 f3 8f 3c
       -0.088782504 0.01571447 -0.1842864 0.01757229
000220 b2 3b 1a bf e9 c5 14 be 25 9d 58 3f 8d d2 e3 3d
       -0.6024734 -0.14528622 0.84614784 0.11124144
000230 33 d1 52 bf 0a 6d e4 3d c1 ec 04 3f 88 2e 79 bf
       -0.8235046 0.1115361 0.5192376 -0.97336626
000240 17 b1 e1 3d 4a bd 84 bb 8c ce 95 bc 43 f7 45 3e
       0.11020105 -0.0040508853 -0.018286966 0.19332604
000250 1a e9 79 3e 5f 88 ad 3d b5 49 42 bc 04 3b fb be
       0.24405327 0.08473276 -0.011858393 -0.49068463
000260 c5 f9 16 3e e0 ec 2c 3e 69 15 38 3d 2e 76 c6 3d
       0.14743717 0.16887236 0.044942293 0.0969051
000270 ab 92 5d bd 13 89 01 3d 82 18 2d bd 16 86 60 bc
       -0.05409495 0.031624865 -0.0422597 -0.013703844
000280 89 24 0d be c6 b8 ad 3f 96 8a b7 bd 9c 2c cf 3f
       -0.13783468 1.3572013 -0.0896198 1.6185489
000290 8c ea ee bd 96 81 13 3f 28 78 83 be dd f5 25 3e
       -0.1166583 0.5761961 -0.2567761 0.1620707
0002a0 c4 d8 73 be 46 fd 0a bf 4d 82 16 3c 9b 40 35 3d
       -0.23813158 -0.54292715 0.00918634 0.044251066
0002b0 d2 76 94 bd 88 63 0f 3e e6 fc d9 be 99 4f 05 bc
       -0.07249226 0.14002812 -0.4257576 -0.008136653
0002c0 37 35 71 bd e2 22 2a bf ce c7 cb 3d 0f 66 2c be
       -0.05888864 -0.66459477 0.09950219 -0.16835807
0002d0 b0 63 28 3e 02 77 44 3f 5c 25 49 be 3b 9f c4 3e
       0.16444278 0.7674409 -0.19643158 0.38402733
0002e0 21 2f b7 3e 6c de 9c bb 4a fe 07 3e 37 8a 0a be
       0.35778144 -0.004787257 0.13280597 -0.13529287
0002f0 78 d4 2b bf 61 79 73 3f 33 fc a3 bd af 65 29 3d
       -0.67121077 0.95107085 -0.080070876 0.04135674
000300 05 0a 2a be 63 0a 7b be 38 bb 9a bd fe 20 36 be
       -0.16605385 -0.24515681 -0.075552404 -0.17786023
000310 77 42 85 3f 2f fe c3 bd 97 58 1b 3d 00 79 a0 3d
       1.0410908 -0.09569966 0.037926283 0.07835579
000320 30 d2 14 3d 7b 85 a0 bd da 24 af 3f fc 7c 17 3c
       0.036333263 -0.078379594 1.3683121 0.009246107
000330 1f 1f 6c bf be f8 a2 3b 16 0f 45 3f 33 44 70 3c
       -0.9223499 0.0049735 0.76976144 0.014664697
000340 fd 1f d1 be 4b bd f4 3c 02 9f 53 bd 60 a5 95 3d
       -0.40844718 0.029875418 -0.051665314 0.073069334
000350 c0 2b a0 bd ea bb f9 bd 8c d0 c0 be f3 6e 6c be
       -0.07820845 -0.12194045 -0.3765911 -0.23089199
000360 12 be 54 3e 4b 0b 57 bb 14 2e 41 3c f3 4d d7 bd
       0.20775631 -0.0032813128 0.011790771 -0.105129145
000370 a7 c2 d6 be ca 65 6f 3d 76 14 0d bc 53 f1 8b bd
       -0.41945383 0.058446683 -0.008610835 -0.06833138
000380 f7 db 7c 3d 97 7f 5c be cf 60 94 3c 2e 01 52 bc
       0.061733212 -0.21533047 0.018112568 -0.012817664
000390 d0 7c 4e 3e 29 bc d2 bd ab d7 08 3d ec 48 bc bd
       0.201648 -0.10289795 0.033408802 -0.09193596
0003a0 b6 58 c5 bd b3 da 90 3e 27 5b 51 3d 40 c8 55 be
       -0.09636061 0.28291854 0.05111232 -0.2087717
0003b0 85 47 d3 bd 8c 00 60 3d 20 d9 b6 3c 03 9f 0d be
       -0.10316376 0.05468802 0.02232033 -0.1383019
0003c0 b1 b9 1e 3f 14 c4 03 3d 44 06 b6 bd 57 ab 07 3e
       0.6200209 0.032169417 -0.08887914 0.13248955
0003d0 07 f8 f2 3c bd 9f 39 bb d0 c3 9c 3e 75 8b a4 3e
       0.029659284 -0.0028323971 0.30618143 0.32137647
0003e0 3c 3f d2 3c b2 ed 13 be 4d 05 e0 be 0d 5c a1 be
       0.025664918 -0.14446142 -0.43754044 -0.31515542
0003f0 ae b9 54 3d 5d 36 78 b9 4d 53 59 3d c0 dc 5b 3c
       0.05193489 -0.00023671375 0.053057957 0.01341933

fc2.bias f4 [256]
000000 70 9d 55 3e 83 1b 9a 3c 5f b5 85 bd 07 82 4b 3f
       0.20860839 0.018811947 -0.065287344 0.7949528
000010 66 5e 03 bf b1 f9 df be 4d cc 96 bd 13 e2 7f bd
       -0.51315916 -0.43745187 -0.07363186 -0.06247146
000020 04 1c 18 bf 04 82 89 bd 5a 11 99 3e 24 06 20 be
       -0.5941775 -0.06714252 0.2989605 -0.15627342
000030 4c 56 d1 3b 50 a7 eb bd a1 85 0b be 62 1d 81 3d
       0.006388461 -0.11506522 -0.13625194 0.063044325
000040 69 c4 8a 3e 91 76 1f bb 4a d8 1e bf 40 f7 93 be
       0.27102974 -0.0024332146 -0.6204878 -0.28899574
000050 7e 57 f0 3e 96 34 aa 3e 2b 17 85 bc aa a0 1c be
       0.4694175 0.33243245 -0.016246399 -0.15295663
000060 6b 65 d2 bd 74 cb 1b be d3 dc dd bd e7 dd ee bd
       -0.1027325 -0.1521433 -0.108331345 -0.11663418
000070 b6 6d d2 3d 00 52 ac 3d 0f 1c 02 bf ec f7 34 be
       0.10274832 0.08414078 -0.50824064 -0.176727
000080 6a 9c b5 bd d4 31 1d bf 1b 46 cf bd 4c f0 ac be
       -0.08867724 -0.61404157 -0.101207934 -0.33777082
000090 34 a0 7c 3b 74 d5 f1 be 7d 66 69 bd aa 93 da bd
       0.0038547637 -0.47233164 -0.056982506 -0.10672696
0000a0 e8 87 15 be 12 38 87 bc 5e 93 3d 3e ff c6 aa be
       -0.14602625 -0.016506229 0.18513247 -0.33354947
0000b0 ea 9f 9e bc fd 94 32 be f9 a3 17 be 6f 24 fc 3b
       -0.019363362 -0.17439647 -0.14808644 0.007694773
0000c0 23 c2 ca bd 52 d0 ad bd 1f 88 f7 bd 61 6d 16 bf
       -0.0990031 -0.084869996 -0.1208651 -0.5876065
0000d0 08 5d e1 bd 6f b8 10 bf ba 72 fb be cb 72 bb bd
       -0.110040724 -0.56531423 -0.49110967 -0.091527544
0000e0 38 41 d9 be 88 07 0e 3f 56 30 06 be bb eb 9a be
       -0.4243257 0.5548024 -0.13104376 -0.30257973
0000f0 24 0f d5 bd e3 8d dc 3b 11 8f 18 be d8 21 4b bc
       -0.104032785 0.0067307814 -0.14898326 -0.012398206
000100 58 5b 25 be 8f c1 98 be 17 1a 1e bf 82 3c bf bd
       -0.16148126 -0.29835173 -0.6175856 -0.09337713
000110 45 76 0d be a4 74 24 3e 09 d7 1e be ba 74 97 bd
       -0.13814647 0.1606012 -0.15511717 -0.07395311
000120 c4 c3 6f 3e 5e fd 4b be 48 72 ae bd 2e a8 ec 3d
       0.23414522 -0.1992087 -0.08517891 0.11555515
000130 84 75 3e bf d8 98 1e be a9 56 db bd f1 4e d4 bd
       -0.74398065 -0.15487993 -0.107098885 -0.103666194
000140 5a 88 0d 3e ca b8 fb 3d 90 bb d6 3e e0 db 2c be
       0.13821545 0.12291105 0.41939974 -0.1688075
000150 51 0e 74 be aa 91 95 bc c4 87 09 bf 69 05 b9 3e
       -0.23833586 -0.018257935 -0.53722787 0.3613694
000160 0f ca 0a 3e b7 74 e5 3d 4d 52 15 be 43 b5 e1 3d
       0.13553642 0.11203902 -0.14582177 0.11020901
000170 1d 87 85 bd b8 ad 90 3d 1a f8 be bd 1c 34 59 be
       -0.065199114 0.07064384 -0.09324665 -0.21211284
000180 c3 0c 09 be 79 32 96 3d 39 f7 ba be ed a6 1a bf
       -0.13383774 0.07333846 -0.3651674 -0.6041096
000190 f8 ec 5e be 60 e9 75 3e 0f f7 21 3d 21 54 ae bd
       -0.21770084 0.24014807 0.039542254 -0.0851214
0001a0 4d 67 d2 3e e3 34 99 bd 82 b3 9f bd 65 da 3f bd
       0.41094437 -0.074807905 -0.0779791 -0.046839137
0001b0 3a 43 08 bf 26 d6 68 3e cf 0a 11 bf f3 af e0 3d
       -0.5322758 0.22737941 -0.5665712 0.1097106
0001c0 5e c7 97 3c c9 eb 87 bd e4 17 16 be 24 eb 4f bd
       0.018527683 -0.06636769 -0.14657551 -0.050761357
0001d0 42 c4 0c 3d c0 fb d3 3d 7c b3 1c be a2 b1 09 bd
       0.034366854 0.10350752 -0.15302843 -0.03361667
0001e0 92 b2 fc 3b 50 64 02 be 09 e0 6d 3e 85 ea b9 be
       0.007711717 -0.12733579 0.23229994 -0.36311737
0001f0 9a 44 81 3d 13 ca 40 be 06 b4 d8 bd e5 96 aa bd
       0.06311913 -0.18827085 -0.10581212 -0.08329562
000200 f1 9d 4a bf 97 a0 44 3e 14 53 1b be 24 13 1d bd
       -0.7914725 0.19201885 -0.1516841 -0.038348332
000210 16 ff a6 3e 85 8c c9 bd 75 ad df bd f0 20 f7 bd
       0.3261649 -0.09841255 -0.10921756 -0.12066829
000220 94 cb ab be 43 9b e2 bd bc 6e 3e be 8f 69 16 be
       -0.33553755 -0.1106477 -0.1859693 -0.14688705
000230 fa c5 6c bd 6a cd 5a 3d 33 b9 a0 bc 2c 9d 49 bd
       -0.057805993 0.053418554 -0.01961956 -0.049222156
000240 e7 9f 09 be 82 8a a5 3e f8 f3 37 be e3 22 f8 bd
       -0.13439904 0.32332236 -0.1796416 -0.12116029
000250 21 5c 66 3e 6c 28 13 be 7c 93 04 be b8 8e f6 bd
       0.22496082 -0.14370888 -0.12946886 -0.1203894
000260 7a e4 27 be f5 dc 28 bf f1 96 1e be d8 6b 6d 3e
       -0.1639575 -0.65962154 -0.15487267 0.2318567
000270 44 62 29 be b1 b0 78 bd fa 0a f3 bd a0 32 33 bf
       -0.16541392 -0.06071538 -0.11867328 -0.6999912
000280 4a 67 35 bc b1 c8 84 bd a9 09 e4 3d fc 3b 25 be
       -0.011071989 -0.06483591 0.11134655 -0.16136163
000290 c4 5f 0f bf 1e b0 05 bf f1 f7 5a 3e a4 f0 f8 3d
       -0.560055 -0.5222186 0.21383645 0.121552736
0002a0 08 f6 0a be a2 ff ed 3d f2 48 07 3f 91 4a 96 3e
       -0.13570416 0.11621024 0.5284568 0.29353765
0002b0 d1 db e6 3e 07 32 69 bf 56 b8 bc bd 10 d0 d2 3d
       0.45089582 -0.9109196 -0.09214847 0.10293591
0002c0 be 27 fa bd b4 c1 b8 bd 8a ad c0 bd f3 11 2a 3c
       -0.122146115 -0.09021321 -0.094081 0.010380256
0002d0 62 a5 68 bb 61 1f 7b 3f 8b 5b a2 bd 83 f5 cd be
       -0.0035498966 0.98094755 -0.07927617 -0.40226373
0002e0 87 9c fb bd 05 9b 91 be 2b 24 82 3d 33 b9 7c be
       -0.122857146 -0.28438583 0.06354555 -0.24680023
0002f0 6d b1 92 3e 00 ca ef bc 01 e5 4c bc 42 30 a9 3e
       0.2865099 -0.029271126 -0.012505771 0.3304463
000300 91 78 44 bd 3d 1c 12 bc 10 dc b8 3e bd 38 3e be
       -0.047966544 -0.008917865 0.36105394 -0.18576331
000310 e5 e4 00 3f bf 19 a1 bc 1e 84 6b 3e d7 05 40 be
       0.50349265 -0.019665597 0.22999617 -0.18752228
000320 62 58 11 3d 77 b8 1d bf a0 dd a3 bd 6b 09 c8 bd
       0.03548468 -0.61609596 -0.08001256 -0.09767421
000330 ed e5 48 bd c8 63 14 be f2 ca 9c bd 58 fc cc bd
       -0.0490474 -0.14491189 -0.07655896 -0.10009068
000340 8f 99 8d bd 5b 19 36 be e1 ab b5 3d 28 91 f7 3b
       -0.069140546 -0.1778311 0.08870674 0.007555146
000350 74 04 c8 bd b4 15 55 bd 9b 43 e9 bd a0 10 06 be
       -0.09766474 -0.05202265 -0.11389848 -0.1309228
000360 c3 a6 b7 be a2 78 5c bb 58 6f 63 3e 4f b6 e3 be
       -0.35869417 -0.0033641239 0.22210443 -0.44475028
000370 47 c4 e2 bd 84 3c f3 be 78 f1 dd 3d a7 d9 31 bd
       -0.11072593 -0.47507107 0.10837072 -0.04342046
000380 75 e6 72 be c2 93 1b be fc 8f 37 bf 00 b5 fa bd
       -0.23720725 -0.15193084 -0.7170408 -0.12241554
000390 96 a0 89 bd 76 da c2 bd 28 18 b9 bd 2b b0 30 bd
       -0.067200825 -0.09514324 -0.090378106 -0.043136757
0003a0 32 61 14 be 5e 12 94 3d cb f6 20 be ea c3 d1 bd
       -0.14490202 0.07230066 -0.15719144 -0.10242446
0003b0 36 9e 24 3f e0 45 d2 3e d8 82 d8 3d 81 53 01 be
       0.6430391 0.41068935 0.105718315 -0.1262951
0003c0 63 c8 f3 bd 0d 94 b2 bd 41 70 10 be b5 17 f3 bd
       -0.11903455 -0.08719645 -0.14105321 -0.11869756
0003d0 47 31 cb 3e 51 05 d5 bd 1f 82 5c bd 8c 86 70 bd
       0.39686033 -0.10401405 -0.05383503 -0.058722064
0003e0 78 2d 4b be 39 7d 82 bf 9a 1c d2 bd eb 98 2e 3e
       -0.19841564 -1.0194465 -0.102593616 0.17050521
0003f0 bf 7f 03 bd 5c 21 58 bd af bf af bd 6e f3 e8 bd
       -0.03210425 -0.05276619 -0.085814826 -0.113745555

fc3.weight f4 [128, 256]
000000 dc 9f c6 3d f9 e7 8c 3c ba f0 a5 3c e5 e2 bb 3d
       0.096984595 0.017200457 0.020256389 0.09174136
000010 ef a5 1e 3d 54 54 0d bf 2c 6e 10 3e 3e 22 02 3d
       0.038732465 -0.552068 0.14104527 0.031770937
000020 e2 24 26 bf c1 0a b2 bd 52 8f 55 be e5 85 93 bd
       -0.6490003 -0.086934574 -0.20855454 -0.07203273
000030 0c 49 84 bd bf c3 95 bc fa de a0 bd 93 7c fa 3e
       -0.06459245 -0.018281816 -0.078550294 0.48923168
000040 12 78 8a bf 63 7b da 3f 1a 70 be bf b1 39 da bd
       -1.0817893 1.7068905 -1.4877961 -0.10655535
000050 e8 f0 a0 bf 52 86 31 3d 31 44 97 3d d0 c8 ee be
       -1.2573519 0.04334099 0.07386053 -0.46637583
000060 b5 06 28 3e ac d5 48 be 1b 06 33 be 65 b8 fa 3e
       0.16408809 -0.1961276 -0.17482798 0.48968807
000070 41 9f 39 bc 01 a0 1a be 9c 72 24 bf 02 8d 97 be
       -0.011329473 -0.15100099 -0.6423738 -0.29599768
000080 4a 81 e5 bc 1a 83 07 bf 1f 07 e4 3d 99 64 cb be
       -0.028015751 -0.5293442 0.11134171 -0.39725187
000090 e8 21 76 be ed 58 9a 3c b5 26 df be dd 29 4b 3d
       -0.24036372 0.018841231 -0.4358422 0.04960047
0000a0 2c be 88 be 73 2e 92 bd 65 69 7f 3e cb ed a3 be
       -0.2670759 -0.07137766 0.24942549 -0.3201736
0000b0 72 ac 2d 3f e9 72 41 be 10 1e d7 3e 36 1f 56 be
       0.67841256 -0.18891491 0.42015123 -0.20910344
0000c0 d7 60 20 3e df fa 3f 3e 9b 84 ce 3e 15 f8 89 bf
       0.15661941 0.18748043 0.40335545 -1.0778834
0000d0 c2 f7 6f be 23 be bc 3d 31 39 2a be 2e b4 b1 bd
       -0.23434356 0.09215953 -0.1662338 -0.08676945
0000e0 dc 16 86 bf c6 fb 8d be 57 cb 92 be 91 5e f2 be
       -1.0475726 -0.2773115 -0.2867076 -0.47337773
0000f0 7e d0 0f bd 59 c4 e0 bf 2a 1a e6 be 32 61 6b 3e
       -0.035110943 -1.755992 -0.44941837 0.22986296
000100 34 3c df be ad 0f fe 3d 41 e2 a9 bf 11 9a 33 3e
       -0.4360062 0.12405334 -1.3272172 0.1753924
000110 e5 1e 09 bf 0f 36 37 bd 10 02 3b 3e b6 57 a1 be
       -0.53562766 -0.04472929 0.18262506 -0.3151223
000120 92 9d 21 3e 3e 53 b1 3e 13 9d 4c be a1 16 60 bd
       0.15782765 0.3463382 -0.19981794 -0.05470908
000130 12 f7 e3 3e e7 4c 12 3e 5a f8 98 3e 7b 2d a8 ba
       0.44524437 0.14287148 0.29876977 -0.0012830937
000140 1a f9 a7 3e 83 e5 87 bb 66 1f d7 be c0 8e 48 bf
       0.32807237 -0.004147233 -0.42016143 -0.7834282
000150 1f 3b 92 bf 89 1f 2a be a4 f9 86 3c ba e8 aa 3e
       -1.1424292 -0.16613592 0.01647646 0.3338068
000160 cf 89 30 bf b4 53 72 3f d3 72 ec 3d 60 b8 c1 be
       -0.6896028 0.9465897 0.115453385 -0.3783598
000170 14 5e 7a be 8f 49 9a be 9a cc 98 3d fd 94 83 3e
       -0.2444995 -0.30134246 0.074609 0.25699607
000180 80 11 c3 bd 19 43 c3 3f 6c 36 eb bc af 70 88 bf
       -0.09524822 1.5254852 -0.028712474 -1.0659388
000190 30 a5 e8 be 70 fe 4a bd 72 d2 70 be 43 71 dc bd
       -0.45438528 -0.049559057 -0.23517779 -0.107637905
0001a0 de 4e e9 bd bc 20 9e bd f4 d2 a1 bb 15 b4 fd 3d
       -0.11391996 -0.07721087 -0.0049384777 0.123878635
0001b0 7f 1f 31 c0 64 3d 87 bf 06 e9 18 bf c7 ad 2e bf
       -2.7675474 -1.056561 -0.59730566 -0.68233913
0001c0 5b b4 8f bf c5 c2 6e 3e a6 f2 8d be c7 82 a5 bd
       -1.1226915 0.23316486 -0.2772419 -0.080815844
0001d0 7f c8 d9 bd c6 cc 0c bf 6c 03 68 3e 7b 1c 39 be
       -0.10633945 -0.5499996 0.22657555 -0.1807727
0001e0 3c 09 5a 3d 57 d0 63 3b bd 6d f4 3f 10 c2 8a bf
       0.053231463 0.0034761631 1.909599 -1.0840473
0001f0 df 03 0f 3e bd f6 26 be 84 4f 1c 3e f1 94 90 bf
       0.1396632 -0.1630506 0.15264708 -1.1295453
000200 09 e7 8d 3d 7f bc 77 3e cc b6 ff bd d9 63 11 bf
       0.06928832 0.24193 -0.124860376 -0.5679298
000210 b3 8b f5 3e 49 f3 bb 3d a2 1f ae 3c 17 a9 0b bf
       0.47958145 0.09177262 0.021255318 -0.54554886
000220 ce 86 6a bf f5 42 e2 3d 3a a0 df bf 68 bb 02 bf
       -0.91611946 0.11047927 -1.7470772 -0.5106721
000230 e2 e5 9e 3d 4e f8 28 3e 03 3e cf 3d b0 a9 96 3c
       0.077586904 0.1650097 0.1011925 0.01839146
000240 47 eb 45 bd e1 7a 34 be 31 62 c9 bd dc 17 3d be
       -0.04832008 -0.17625 -0.09833182 -0.18466133
000250 dd 6d 56 bf e6 c0 88 bd 66 13 25 3e 6e 10 c4 bd
       -0.8376139 -0.066774175 0.16120681 -0.09573446
000260 4a 17 ff 3c 3c 5c c9 be 35 87 c0 bc 44 21 ee be
       0.031139035 -0.39328182 -0.023501972 -0.46509755
000270 cc 9b a1 bd 14 95 ae bd 2c 88 8b be 29 87 4f bc
       -0.07891044 -0.08524528 -0.27252328 -0.012666502
000280 71 a2 5d bd 41 17 9a bd 43 46 12 be 0d 12 4e be
       -0.054109994 -0.075239666 -0.14284615 -0.20124073
000290 12 fc ad 3c cc 75 ba 3e e6 25 e7 3d 9c a2 de be
       0.02123836 0.36417997 0.112865254 -0.43483436
0002a0 19 3b a4 be af 27 51 be da 1a 6e bd a2 3a 77 bd
       -0.32076338 -0.20425294 -0.058131076 -0.06035865
0002b0 0e 3d 18 3f bc da 46 bf 81 c5 03 3d 2a 0a 47 be
       0.5946816 -0.7767751 0.032170776 -0.19437471
0002c0 bd b5 df bb 78 48 59 3e f4 d9 d4 3d 01 1d 30 bf
       -0.006827085 0.21219051 0.10393134 -0.68794256
0002d0 ec e3 56 3e 00 c8 81 bf ca 7c 7d 3d 04 c5 a8 bb
       0.20985383 -1.013916 0.061886586 -0.005150439
0002e0 09 ac ef 3d 4b 28 1b 3e 4f ec f2 3e 7e 28 e8 bd
       0.11702735 0.1515209 0.47445914 -0.11335848
0002f0 f5 52 0e 3f 1c 89 b7 3d 0f 9d 54 be 8c 7e a2 bc
       0.5559533 0.089616984 -0.20763038 -0.019835733
000300 a2 03 0e 3a 27 c7 02 3f 2e 17 bb bf 3a 03 9f 3c
       0.00054174114 0.5108513 -1.4616449 0.019410718
000310 e5 9e 22 3f 36 2c 9b 3e c0 19 9c be fe 79 c9 be
       0.63523704 0.30307168 -0.30488396 -0.39350885
000320 1c c0 39 be 93 e1 1d bf fa 75 b4 3e a4 3f 5e 3d
       -0.1813969 -0.61672324 0.3524626 0.05425991
000330 6a 7d 59 bd eb 18 ad 3e fd 3c 1e 3f d9 c4 90 bd
       -0.05309812 0.33808073 0.6181181 -0.07068796
000340 8f ea ec 3d 01 ce ba be cb ed 92 bf ee 4b 29 3f
       0.11568176 -0.36485294 -1.1478819 0.66131485
000350 d5 a9 05 3f c8 e4 a6 bd fc 3f 8f 3e f6 a1 10 bd
       0.5221227 -0.08149105 0.27978504 -0.035310708
000360 05 fa 21 bf cb 77 28 be 3d 21 00 bf bf 30 96 bf
       -0.63272125 -0.16451947 -0.5005072 -1.1733626
000370 9b 71 d4 3d 5a 5b 14 bf fd b3 10 3e ce 47 cb bd
       0.10373231 -0.5795189 0.1413116 -0.09925805
000380 a5 cc bf be ea 53 93 be 9c fc 1d 3d 07 8e 07 3e
       -0.3746082 -0.2877496 0.038570985 0.13237773
000390 34 ff 02 c0 0d 9c 0a 3c ce f9 ff bd 60 c7 5b 3e
       -2.0468264 0.008460057 -0.12498818 0.21462774
0003a0 92 37 fd bc 0b cb 33 3f ea a0 82 3e 1d 70 31 3e
       -0.030910287 0.70231694 0.25513393 0.17327924
0003b0 54 e0 a8 be c5 3c 41 3f 0a 2e 1c 3d a1 17 34 be
       -0.3298365 0.7548335 0.038129844 -0.17587139
0003c0 27 2b 72 3e 27 e6 3c 3e 28 4d 34 be 4a 9c f6 3d
       0.23649274 0.18447171 -0.17607558 0.120415285
0003d0 f4 6e 01 3f bf 44 e5 bc 89 43 92 3e 5d 88 4e bd
       0.50559926 -0.027986882 0.2856715 -0.050423015
0003e0 a1 66 1a 3d c7 79 a0 bf 8e bd 2f bf 36 74 df 3d
       0.03769553 -1.2537163 -0.6864861 0.10910837
0003f0 06 5c e7 3d ea a1 18 3c eb b0 06 3d 97 ef ad bf
       0.11296849 0.009315947 0.032883566 -1.3588742

fc3.bias f4 [128]
000000 71 53 a0 be 44 57 22 bf d1 34 e1 be 8f 63 1f bf
       -0.3131366 -0.63414407 -0.43985608 -0.6226129
000010 1d 7e 5d bf 0a 35 de bc 63 86 0c bf cf 4b 07 3e
       -0.8652056 -0.0271249 -0.5489256 0.13212512
000020 5a 4f 6c bc 92 11 dc be ab 9b ad be 4f 3a 55 bf
       -0.014423216 -0.42982155 -0.33907828 -0.83292097
000030 71 38 37 bf 4f 1d 14 bf 06 61 34 bd ea 52 c7 be
       -0.715705 -0.5785722 -0.04403784 -0.38930446
000040 92 24 2a bf 67 db 47 bf 3c 0a 00 bf 6e fb 26 bf
       -0.6646205 -0.78069156 -0.50015616 -0.652274
000050 ca 35 8c 3e 1c 9a 26 bf 6e 89 02 3f cf 7d 0a be
       0.27384788 -0.650789 0.5099095 -0.13524555
000060 7c c6 f0 3d 34 6a 56 bf 8e ff 61 3b 8d 08 02 bd
       0.11756608 -0.83755803 0.0034484598 -0.031746436
000070 5b 32 14 bf 3e ce d5 be 67 a6 8d 3e 1f f6 20 3e
       -0.57889336 -0.41758913 0.27666017 0.15718888
000080 b2 b6 db be a7 7d 50 3e 09 36 5b 3e 8e 14 b9 3e
       -0.42912823 0.20360433 0.21407332 0.36148494
000090 c5 e7 3a 3d 6f c8 86 3d 9f 6e 7a bf 6f 62 30 bf
       0.04563119 0.065811984 -0.97825044 -0.689002
0000a0 4b 5f a7 be 71 0b af be ee b4 eb be cf e5 83 bf
       -0.3268989 -0.34188417 -0.46036476 -1.0304507
0000b0 19 7f 3e bf 06 28 77 bf 16 1d db be ec c9 16 bf
       -0.74412686 -0.96545446 -0.42795628 -0.5890186
0000c0 1c 38 26 bf 15 e2 29 bf 06 b5 10 be 36 5d 9b 3e
       -0.64929366 -0.663606 -0.14131555 0.30344552
0000d0 32 b0 03 bf ef a5 60 bf 80 cb 29 bf 3c e4 50 bf
       -0.5144073 -0.87753195 -0.6632614 -0.8159826
0000e0 e2 ea 8e be a8 4d 22 bf b2 6e b1 be 9e fa 4e bf
       -0.27913576 -0.63399744 -0.34654766 -0.8085116
0000f0 33 35 65 bf 7a a1 3d be b1 b0 2c be e3 1b 25 bf
       -0.895343 -0.1851863 -0.16864277 -0.64495677
000100 7b 5e 50 bd 07 7e 3b bf 6c d1 83 3d d9 ee 20 3e
       -0.050871354 -0.7323918 0.064364284 0.15716113
000110 26 92 0f be b4 0d bd be 29 12 90 3e f9 16 cf be
       -0.14020595 -0.36924517 0.28138855 -0.40447214
000120 a8 a4 16 be 86 c7 6c bf f0 cf 7e 3d bb f2 3b bf
       -0.14711249 -0.9249195 0.062210023 -0.7341725
000130 5d aa 2c bf 84 d1 3c bf f8 63 be 3e 98 73 bf be
       -0.67447454 -0.73757195 0.37185645 -0.3739288
000140 d7 57 2e be 10 55 23 bf 08 9e 0e bf e6 35 da 3e
       -0.17025696 -0.6380167 -0.55709887 0.42619246
000150 f3 50 3b 3e 41 72 9e be 5a 29 cd be 65 0c 88 be
       0.18292598 -0.30946544 -0.4007061 -0.26571956
000160 10 b8 7e 3e e9 c3 37 bf b1 86 7f bf 5d 26 00 3c
       0.24874902 -0.7178331 -0.998149 0.0078216465
000170 19 60 2f bf 8d a2 97 3e a2 f2 40 bf 67 a9 85 3e
       -0.6850601 0.29616204 -0.7537023 0.26105806
000180 03 d6 55 bf 3c 61 54 bf b1 3b 64 bf da 68 41 3e
       -0.8352968 -0.8296087 -0.8915358 0.18887654
000190 56 b1 57 3b 84 68 4c 3e fe 9b b1 3e 38 54 33 be
       0.0032912097 0.19961745 0.34689325 -0.17512596
0001a0 a6 7c 12 3e 09 43 10 bf ac 07 20 bf 4b 30 43 3f
       0.14305362 -0.5635229 -0.62511706 0.76245564
0001b0 fa 91 11 bd c9 0f fc be dd 0d 38 bf d6 8c ad 3d
       -0.035539605 -0.49230793 -0.71896154 0.08474128
0001c0 4d 8d 35 be db 09 a1 3e fd 4b a4 3e 38 1d 0f bd
       -0.17729683 0.31452832 0.32089224 -0.034939975
0001d0 ac ed ab be c7 ac 5e bf d2 7a 69 bf 4b 2f 30 bf
       -0.33579767 -0.8698239 -0.91203034 -0.68822163
0001e0 a1 9a bc be ba 78 45 3f ff 8d 7b bf f6 1c 49 bf
       -0.36836722 0.7713734 -0.98263544 -0.78559816
0001f0 32 10 28 bf da df 31 be c9 fb 3e be 6f 64 9c 3f
       -0.6564971 -0.17370549 -0.18650736 1.221815

fc4.weight f4 [4, 128]
000000 d3 87 3f bf 7e c2 89 3e a2 71 a5 3e f5 40 55 3d
       -0.74816626 0.26906198 0.32313257 0.0520639
000010 c1 52 8b 3e 7d cf 4c 3f 83 06 dd 3d 58 88 91 3f
       0.27211574 0.800041 0.10792258 1.1369734
000020 f9 7c f6 3e c7 de 7f bf bd 61 ab 3e 9b b6 cc 3c
       0.48142222 -0.99949306 0.33473006 0.024989417
000030 17 e5 af 3d c9 38 9f bc 31 ef cb 3f 65 d6 9a 3e
       0.08588617 -0.019436257 1.593237 0.30241695
000040 df 39 34 be 50 56 0b bd 99 b3 7b 3e 1a b5 8f be
       -0.17600201 -0.03401786 0.2458023 -0.28067857
000050 89 42 85 3f 11 64 66 3d 2e 0d 93 3f df 06 90 3f
       1.041093 0.056247775 1.1488397 1.1252097
000060 3b ba 67 3f bf ff 97 3e 0b fc 7d 3f 33 27 82 3f
       0.9051854 0.29687306 0.9921271 1.0168213
000070 29 8b db 3c 52 35 ca 3e a0 7b 7e 3f e1 d1 c6 3e
       0.026799755 0.39493805 0.99407387 0.38832
000080 4b 72 99 3e 65 78 a3 3f 04 67 60 3f 4c 3b 92 3f
       0.2997001 1.2771116 0.8765719 1.1424346
000090 5b e6 bc bd b0 07 8a 3f f1 cf f0 3e 3c 6d 12 3f
       -0.09223624 1.0783596 0.47033647 0.5719793
0000a0 7f 77 10 3f 6c d1 c5 3e da 90 c3 3e 4b 46 a6 3d
       0.56432337 0.3863634 0.3819645 0.08118876
0000b0 51 cb 6c 3e b5 d6 92 bd ef 07 8a 3f 0d 2c 13 3f
       0.23124434 -0.07169858 1.0783671 0.5748909
0000c0 ee c8 33 3f c7 e7 e0 3d 02 95 93 3f c5 49 74 3f
       0.7022847 0.10981708 1.1529849 0.95425063
0000d0 35 a1 86 bf 58 b3 fa 3d 18 d3 04 3e 20 54 84 3e
       -1.0517946 0.12241238 0.12971151 0.25845432
0000e0 0d 12 00 3f b7 ab b9 be ec 18 84 3f a8 b2 82 3e
       0.50027543 -0.3626382 1.0320106 0.2552693
0000f0 09 7b e5 bc 9c a0 45 3f 19 2f 35 3f 38 2d c5 3d
       -0.02801277 0.77198195 0.7077499 0.096277654
000100 3d 3b 9e 3f 98 e9 6b 3e 3f a3 61 3f c5 18 a3 3f
       1.2361828 0.23038328 0.8813972 1.2741934
000110 92 45 3b 3f 52 cf b6 3d af 7e 88 3f 3a a4 02 3e
       0.7315303 0.08926262 1.0663661 0.1275796
000120 85 30 e2 3e fd 1a 03 3e 44 9c 24 3f 1a a7 60 bd
       0.44177642 0.12803264 0.6430094 -0.05484686
000130 32 09 c4 3e be e3 ef bd b6 25 70 3f dc 7d 0a 40
       0.38288265 -0.1171336 0.9380754 2.1639318
000140 2d 1a 98 3f 8e 4b cc 3e e6 7f 17 3f 61 ef 78 3f
       1.1882988 0.39901394 0.5917953 0.97240263
000150 b9 24 8b 3f 86 20 33 3f 8e 82 b5 3f ec 16 d4 3d
       1.0870582 0.699715 1.4180467 0.103559345
000160 f5 e7 68 3f cd 47 07 3f f6 95 de 3e 62 a7 34 bb
       0.9097894 0.52843934 0.43473786 -0.0027565588
000170 e9 27 c5 3c 54 e0 91 3f 6f 87 34 3f cd e3 7e 3f
       0.024066882 1.1396585 0.70519155 0.99566346
000180 d7 f9 be 3d 04 b0 62 bd 56 dd 2d be 4d 96 38 3f
       0.09324997 -0.055343643 -0.16978964 0.7210434
000190 84 1f 17 3f 65 06 6f 3f 94 bc 68 3f f1 8c 63 3f
       0.59032464 0.9336913 0.9091275 0.88886935
0001a0 6d 3d 3f 3d dd 28 b3 bc c3 90 0c 3f 04 8d 94 3f
       0.04668944 -0.021870071 0.5490839 1.1605535
0001b0 71 65 62 3d 36 f1 b0 bf f4 0b 3c 3d 5b 06 54 3e
       0.055272523 -1.3823612 0.045909837 0.2070555
0001c0 32 8b 34 3f df 0c 7d 3f a1 46 8b 3f 03 c5 7b 3f
       0.70524895 0.98847765 1.0880929 0.9834749
0001d0 11 da 69 3d 5e a5 c9 bc 21 2a 0e 3e de 6d f8 3d
       0.05709273 -0.024614986 0.13883258 0.121303305
0001e0 05 fd 9b 3f 20 2e c4 3f c7 c3 a4 bc 7e 41 75 3e
       1.218659 1.5326576 -0.020112885 0.23950765
0001f0 5d 7f d9 3e a9 0c 88 be 1b e0 7b 3f 06 ca a3 3f
       0.42479983 -0.2657216 0.9838883 1.2796028
000200 eb 81 18 3f b0 47 c3 bd 1c 91 6b 3f eb 49 51 be
       0.5957324 -0.09535158 0.92018294 -0.20438354
000210 f8 b3 d8 bd 8f cd 46 3f 6d 2f eb 3e 01 65 7f 3f
       -0.10581201 0.7765741 0.4593462 0.99763495
000220 29 e5 35 3f da 14 6a bf 5b bc 43 3f 45 cc 55 3d
       0.71052796 -0.91438067 0.7645928 0.05219676
000230 3f 18 d9 bc ac ff 82 3e 54 56 83 3f fe 9e 03 3f
       -0.02650082 0.25585687 1.026072 0.5141448
000240 5f a2 66 3e de f7 19 bd f3 27 15 3c 28 f5 92 3e
       0.22522877 -0.0375899 0.009103763 0.28702664
000250 82 2f 80 3f 32 da e8 bc 72 38 a0 3f cf 2e 5e 3f
       1.0014498 -0.028424356 1.2517226 0.86790174
000260 e1 8e 68 3f 8e 22 43 3e a8 fb 57 3f 2a 84 52 3f
       0.90843016 0.1905615 0.8436837 0.82232916
000270 63 e4 18 c0 7d 81 cb 3e f9 92 85 3f 5f 9a 46 3e
       -2.3889396 0.3974723 1.0435477 0.19394825
000280 90 e3 c5 3e 40 6e a8 3f 4b e9 70 3f 13 66 2c 3f
       0.3865018 1.3158646 0.94105977 0.6734325
000290 42 5a e1 bb b7 72 5e 3f 87 a1 30 3e ac 14 06 3f
       -0.0068772146 0.8689379 0.17249118 0.5237529
0002a0 92 a9 1d 3f 0d 69 03 3f c0 6d ed 3e f3 33 a6 3d
       0.6158687 0.5133217 0.46372795 0.08115377
0002b0 71 8b 0f 3e c3 64 94 3d 0f 29 de 3e 95 51 43 3f
       0.14018036 0.07245781 0.433907 0.7629636
0002c0 fc 41 98 3e 2a 97 c2 3c bf 40 64 3f 05 23 73 3f
       0.29737842 0.023753721 0.89161295 0.9497531
0002d0 ef f4 af bf 98 6f a1 bd e5 46 50 bd 67 2c aa 3e
       -1.3746623 -0.07882613 -0.05084886 0.33237
0002e0 c9 59 23 3f ca 9b d2 3e 53 5f 46 3f 62 d8 a4 3e
       0.63808876 0.41134483 0.77489203 0.32196337
0002f0 79 fb 05 bc c3 36 21 3f a7 fd f3 3e 01 5e 09 bf
       -0.008177632 0.62974185 0.4765446 -0.53659064
000300 c6 4d a9 3f 7b 00 8f 3e e5 ff 44 3f f2 9e 71 3f
       1.322686 0.27930054 0.76952964 0.94383156
000310 86 55 4a 3f 6d 8d 32 3f 5a 2f 82 3f 93 80 ce 3e
       0.7903675 0.6974705 1.01707 0.4033247
000320 bc 10 9c 3e fb 1a bd bd 44 48 45 3f 45 20 24 bd
       0.30481517 -0.09233662 0.77063394 -0.040069837
000330 7d 03 70 3f 92 12 b3 3e 9e 0d 86 3f 09 de c1 3f
       0.9375532 0.34975106 1.0472906 1.5145885
000340 2d 5e 6b 3f 6b 0f 1d 3e 41 9b 2b bd 8e b1 7c 3f
       0.91940576 0.15337913 -0.04189611 0.98708427
000350 04 bc 98 3f 0b 2d 12 3f 3c 2a 2d 3f 28 98 bd 3d
       1.1932378 0.5709998 0.6764257 0.09257537
000360 d9 ea 6a 3f 43 c8 a4 3e b5 3c 96 be 21 70 81 3d
       0.917646 0.32184038 -0.2934319 0.06320215
000370 57 60 a9 3c 3e 1f 8e 3f a7 6d 0e 3f f0 76 8c 3f
       0.020675821 1.1103284 0.55636066 1.0973797
000380 b2 33 bc 3c 76 a9 8e 3e 1a 41 b2 3d 55 bb 6f 3f
       0.022973869 0.27863663 0.087038234 0.9364522
000390 9e 8f 4a 3f 32 b7 70 3f 15 7f 82 3f f3 8d 95 3f
       0.7912539 0.94029534 1.0195032 1.1683944
0003a0 7f 05 fc 3e 1f 6a 0d bf 5c 46 52 3f 2d e4 ae 3f
       0.49222943 -0.5524005 0.8213861 1.3663384
0003b0 8f e5 79 3e a3 54 49 3f 0a 07 1e 3e cf 0c 16 3e
       0.24403976 0.7864477 0.15432373 0.14653324
0003c0 2a 8e 28 3f 3d a5 92 3f d6 f7 78 3f 81 5c 64 3f
       0.65841925 1.1456677 0.9725317 0.8920365
0003d0 5a 4e 94 3f 09 07 41 be c9 12 7e be 29 93 02 be
       1.1586411 -0.1885034 -0.24811853 -0.1275145
0003e0 3a 87 13 3f 74 54 d6 3f 0f 92 a6 3d f8 8c 02 3f
       0.57628214 1.6744523 0.08133327 0.5099635
0003f0 e9 6e 93 3e bd c0 34 3f 09 22 52 3f d5 f8 c1 3f
       0.28795555 0.70606595 0.82083184 1.5154063

fc4.bias f4 [4]
000000 6c f7 89 3f 25 a5 89 3f a9 86 82 3f 42 b1 8b 3f
       1.0778632 1.0753523 1.0197345 1.091347
