trained_models/checkpoint_ep5100.pth (torch, 416160 bytes, 14 tensors)

fc1.weight f4 [256, 8]
00000000: 671d 03bf 2f8f 46bd 6ac4 f53e 092e 653f
00000010: 4cd4 0f3d 6f1e 9cbe 0a39 9dbd 8341 c0bc
00000020: 80ad bfbe 120f 0bbd 4f5e 0a3f df79 b23f
00000030: bca4 d2bd 082f 24be ce94 f8bb 62cc fabd
00000040: 8655 15bf 4e19 03be dc26 553f 2d22 3f3f
00000050: 5560 aabd 8ddb ba3d 2165 a4bb d5ba 3ebe
00000060: 31a2 e1be 56d8 723d 767a f43e 35b4 ae3f
00000070: 8ae7 ddbd 9542 93be 4d2a c2bc 7c14 fcbd
00000080: 1494 e8be b8e9 34bd 6e66 053f 7dfe 7b3f
00000090: 941e a6bd 8131 90be 3b21 8dbd dd1b 9c3d
000000a0: 875c 993f 267a 183f 98b9 0b3f 9316 96bd
000000b0: 4085 153f 3cb1 b6bf 35d3 0d3f 8a91 263f
000000c0: abeb 02bf e6c6 44bc 1997 273f 3954 ce3e
000000d0: 2262 7bbc aa82 5dbe 63b3 aebd 7e4f 11be
000000e0: 9a53 00bf 883e 903d 0d59 e03e 28ef 943f
000000f0: a30b a7bd 4c69 c6be 337b 68bd b694 a1bb
00000100: e67c 3ebe 386f c53b 119b 213e 5c55 fd3e
00000110: 88e1 15be b9b5 5abe ce89 023e a08e 26be
00000120: 7c35 b9be 8bcf a03d 5bd6 e53e 0a4e 7c3f
00000130: a106 6dbd 6b4e 88be 4404 43bd e75f 70be
00000140: 09ea 9f3f bd9c 1a3f bdf2 223e 2aa4 17be
00000150: 9bfa 173f 7489 c7bf 5c8f 213f d506 063f
00000160: 21c7 13bf 1c7a cc3d 42f6 e23e 740c 883f
00000170: eac0 bebd f212 abbe ee60 9cbc 1797 08be
00000180: 23d0 0fbf 119c 31bd 0745 263f 3555 1d3f
00000190: 6ef3 893d d414 59be b076 1ebe afab 3e3d
000001a0: 9e6b 01bf ef30 83bd ac7b a83e 6b12 ebbb
000001b0: 5593 1bbe 384e e9be 7933 8c3e 9fdf 39be
000001c0: 8b17 6cbf 74e8 e8bd 70bc 673f 2b7b 1a3f
000001d0: 7dce a5be f15c 263e 0c7c 933d 0c0e 8cbe
000001e0: e13e 19bf c312 3abd d3c0 893e a933 c73f
000001f0: f2d3 ecbd 10e5 07bf 519d 613e fb32 d4bd
00000200: f428 04bf 1433 6bbc ebe1 2d3f 3bd9 843f
00000210: c688 b9bd 4349 43bd da28 04bd 19fc 74bd
00000220: e708 6e3f c1db 8b3e 69f4 bd3e 1634 9c3f
00000230: f5d9 9b3e 6e21 edbf 286e 94be 838b b63e
00000240: fdd3 073f 31af 2abe 3f43 cf3e 8840 b83d
00000250: b343 093e f6ce b5be 084e 01bf 9949 823d
00000260: 96d1 a5be 3e55 0bbd 4c23 c83e a1d2 2e3f
00000270: 1efd 0bbe 1abd 16be d0af 903c b780 97bc
00000280: 8c91 0abf 8e3c e33c ed4f 3e3f 8d18 a53f
00000290: e00c 81bd 6c8b 25be 242a c7bd 7989 f9bd
000002a0: c1e6 f9be 6738 29b9 8752 173f 2c23 9c3f
000002b0: 31a0 3dbe a97d dcbd e595 8a3d 70f8 e8bd
000002c0: e98c eebe f528 63bd 4ce3 173f 766e a43f
000002d0: a30d f53c 6453 8ebe 3171 09be 045f 0d3d
000002e0: 7815 09bf 6fa9 d23d d1c5 eb3e c969 b73f
000002f0: c630 6abd 7068 d0be d2a5 93bd ac4c bbbd
00000300: 4f1b 58be ebc2 d43d f7d8 60bf 19e5 8d3f
00000310: c97a b8bd 81cc b0be b97d 9fbc 93c4 86bd
00000320: 7037 87bf dc80 90be 4703 8fbf 6c72 96be
00000330: a4ae ddbe a444 db3f 4e06 b63e 1d27 fcbe
00000340: 4d4e 26bf d7d4 50be 618a 2c3f a8c4 7b3c
00000350: 23a3 99be b021 7abe 78c7 aa3e 7584 95be
00000360: 85ce c1bd 0850 8abd 07f1 50bf 2276 423f
00000370: 5ccf 39be 48a8 03bf 98a1 eb3e e5e1 21be
00000380: aeaa 12bf 591a f1bc 234b 083f 5816 913f
00000390: c878 bc3b 70ba acbe c5db b4bd 62f2 913c
000003a0: 120e e5be 807d 393c 76e9 133f 7629 883f
000003b0: b726 7cbd 3f89 54be 5e41 a6bd 77e9 77bd
000003c0: fc03 dbbe 09c6 613c b3f4 173f 9236 7f3f
000003d0: 52e3 01be 56cd 4abe 90dc e5bd 7d26 093d
000003e0: 950f d9be e2b6 113d 1287 c93e e13d 8b3f
000003f0: c478 a5bd a964 bdbe 4c19 19bd 5d30 3fbb
-0.5121674 -0.048476394 0.48001415 0.8952337 0.03511457 -0.3049197 -0.07676895 -0.023468738
-0.37437057 -0.03394992 0.54050153 1.3943442 -0.10285327 -0.16033566 -0.0075860983 -0.12246014
-0.58333623 -0.12802622 0.8326242 0.74661523 -0.08319155 0.09123907 -0.0050169383 -0.18625958
-0.44069055 0.059288345 0.4774968 1.3648745 -0.10835178 -0.28761736 -0.023701811 -0.123085946
-0.45425475 -0.044168204 0.5210942 0.98435193 -0.08111301 -0.28162768 -0.06891104 0.07622502
1.1981362 0.59561384 0.5458007 -0.073285244 0.5840645 -1.4272838 0.554004 0.65065825
-0.5114085 -0.012010312 0.6546493 0.40298632 -0.015343221 -0.21631876 -0.08530309 -0.1419048
-0.50127566 0.07043177 0.4381794 1.1635485 -0.081565164 -0.3875221 -0.056758117 -0.004931058
-0.18602332 0.006025221 0.1578181 0.49479187 -0.14636815 -0.21358384 0.12747881 -0.16265345
-0.36173618 0.07852086 0.44890103 0.9855658 -0.05786765 -0.26622328 -0.04761149 -0.23474084
1.2493297 0.60395414 0.1591291 -0.14808717 0.5936677 -1.5588822 0.63109374 0.52354175
-0.5772572 0.09984228 0.44328505 1.06288 -0.09314139 -0.33412892 -0.019089188 -0.13338886
-0.56176966 -0.043361727 0.6494908 0.6145814 0.06735884 -0.21199352 -0.15474963 0.04655045
-0.50554836 -0.06405818 0.32906854 -0.0071738265 -0.15192921 -0.4556749 0.2738302 -0.18151711
-0.92223424 -0.11372462 0.9052191 0.6034419 -0.323841 0.16246392 0.072013944 -0.27354467
-0.5986157 -0.04542805 0.26904926 1.556264 -0.11563863 -0.53083897 0.22032668 -0.10361286
-0.5162499 -0.01435544 0.6792285 1.0378793 -0.090592906 -0.04767729 -0.03226552 -0.05981073
0.92982334 0.27316096 0.37100533 1.2203395 0.30439726 -1.8525827 -0.28990293 0.35653314
0.53057843 -0.16668393 0.40480992 0.08996683 0.13404731 -0.3550946 -0.5050969 0.06361694
-0.32386464 -0.03401684 0.3908943 0.68290144 -0.13670775 -0.14720574 0.017661959 -0.018493993
-0.54128337 0.027738836 0.7434071 1.2898117 -0.06301284 -0.16166466 -0.097248346 -0.12184424
-0.48808864 -0.00016138107 0.591103 1.2198234 -0.1851814 -0.10766155 0.06766871 -0.11375511
-0.4659188 -0.05545898 0.593312 1.284621 0.029913729 -0.27797997 -0.13422085 0.034514442
-0.53548384 0.10286223 0.4604936 1.4329158 -0.05717542 -0.4070468 -0.07209362 -0.091454834
-0.21104167 0.1038874 -0.8783106 1.108554 -0.090077944 -0.34531024 -0.019469129 -0.06580462
-1.0563793 -0.28223312 -1.1172875 -0.29384172 -0.43297303 1.7130322 0.35551685 -0.4924859
-0.6496323 -0.20393692 0.6739865 0.015366711 -0.30007276 -0.24426913 0.33355308 -0.2920262
-0.094632186 -0.06753546 -0.8161778 0.75961506 -0.18145508 -0.5142865 0.46021724 -0.15808828
-0.57291687 -0.029431509 0.5323965 1.1334944 0.005751703 -0.3373599 -0.0883098 0.017815772
-0.44737297 0.011321425 0.5777811 1.0637653 -0.06156036 -0.2075548 -0.081179366 -0.060525384
-0.42776477 0.013780125 0.59357756 0.9969264 -0.12684372 -0.19804892 -0.112237096 0.03348397
-0.423947 0.0355748 0.39360863 1.0878259 -0.08079675 -0.3699086 -0.03737764 -0.0029173114

fc1.bias f4 [256]
00000000: 3310 5bbd 5a87 aabd db9e 05be 2d5e b1bd
00000010: ddfc b4bc c58e 1a3f 212d 53bd 65f7 8cbd
00000020: 60fa 08be d9b7 c2bd cbaf 133f 4084 9dbd
00000030: 69ba 84bd 8f0e 44be afd3 a7be f5b1 14be
00000040: 7014 f3bd 3191 cc3e f1cf a63d 2cff 82bd
00000050: 860c b3bd 0dc5 f8bd 5272 5abd 08fb 9ebd
00000060: 73ae 92bd fdaa ccbe 5d86 a3be d28b 2dbe
00000070: 62e9 2fbd 7bff 8fbd 4253 20bc c7b7 8dbd
00000080: d404 95bd 5455 ebbd 9aec 87bd eb1a 03be
00000090: e409 543c 7301 0abd 5083 41bd 04e9 a2bd
000000a0: e4ce e9bc b90d e0bd c110 b6bd 12bf 99bd
000000b0: 9a6a 5ebe 1a2d 9bbe 25be 8cbb 6f0a 76bd
000000c0: e455 eebd 0f89 d3bd eb6c e1bc 748a 5dbd
000000d0: b817 70be f3d2 67bd fa31 7c3e 38dc a7bd
000000e0: 29f7 9ebd e531 f9bd d9a6 a7bd abc2 99bd
000000f0: 05fe 84bd b5b2 7abd 4b14 fd3e 7ae8 12bd
00000100: 82d8 abbd 4574 3fbe 1146 6ebd c76a bfbd
00000110: 0212 f1bd f76a 8dbd adc8 73bd b4ea b2bb
00000120: 7725 9dbe 29d0 433b 3ed3 53bd 4bd0 70bd
00000130: 2888 c6bd aacd 94bd fd98 f1bd c75f 4abd
00000140: 4438 5fbe d10e 33bd 5b1c 35bd ce5c 46bd
00000150: 427c 9abe f8ea eabc e629 a7be 0a41 d7bd
00000160: 1457 81bd 82b4 88bd 41b4 9ebd e04d 9ebe
00000170: 9a8d 8abd 11c8 6bbd 7796 b5bd a418 b23d
00000180: 7a3b 1cbe cbaa 01be ba36 d4bd 6556 a7be
00000190: 9b6e cbbd 6bba 04be 5213 f9bd 9b88 68bd
000001a0: ff67 8bbd df9a 30bd dd10 83bd b009 4dbd
000001b0: 6d09 82bd 1997 0bbe 6247 e4bd 119b 25bd
000001c0: 4917 93bd 8fd6 c1bd 1fb2 f2bd 4e80 083f
000001d0: 40fc 6fbd 8186 a0bb e7be 86ba 1193 2abe
000001e0: cd3b 51bd 6e2e 2bbd a616 84bd 5f3e a23e
000001f0: 0e9b 0cbb b90b bcbd 0be1 a6bd b4e6 96be
00000200: 83a2 87bd b838 33bd 2e0c 2cbd 8a56 1dbe
00000210: 5405 39be 6419 d7bc 766c a5bc 667e f1bc
00000220: c320 80be 74cf f3bd 279b 93be 5a11 2bbe
00000230: 3627 9ebd 9e65 b7bd ee0a d5bd 7a70 9fbd
00000240: b3d1 e5bd 6a15 bbbd 1a5b b3bd 68af 223d
00000250: 96da 37bd 429b d4bd 9df4 7ebd c6df debd
00000260: 7f43 45bd 5d2d febc 246f 22bd 9ef2 27bd
00000270: a655 d0bd 7506 65be 7257 82bd 4040 acbd
00000280: d166 d6bc 0eed ddbd dd1b 2fbe f34b b0bd
00000290: 85fb 2bbe 92f2 2ebd 0fc6 c5bd 0ff9 44bd
000002a0: 32f8 a0bd 07bc 2bbe 2418 c4bd c67d ddbd
000002b0: de35 88be a2e6 1bbe 2e86 9cbe e4e2 48bd
000002c0: 1eb4 13be b3b4 0fbe fe67 21be 3ed6 10be
000002d0: 9cc3 6ebd 9540 1bbd 3f70 02be e604 04be
000002e0: 4c85 0fbd 6aeb 47bd 9802 a83d d3e9 91bd
000002f0: 5f04 08be b112 89bd 2574 43bd aedd 87bd
00000300: ec52 3dbe 9cf7 52bd 5404 05be 25a5 c8bd
00000310: 6afb 78bd 5b4c 55bd 722a 97be 2f67 29be
00000320: 381f cabc abdf 48bd fc6f dbbd c7a4 a9bd
00000330: 532a 65be 3cc9 69bd 22d1 47be 5b2a c93c
00000340: d63b 09be 96cc b1bd 57fc a0bd 712b 70bc
00000350: de1d bbbe 2ca0 00be 058b 8cbd abdd 7fbd
00000360: 4272 d0bd 9870 41be 6596 07be 2194 2dbe
00000370: 4df0 12be a6e7 93bd 1c5d 75be af73 05be
00000380: dbb9 d3bd 1cb6 a0bd 7834 3abe 852d 95bd
00000390: 25ee 0cbd 9463 74be ca3d 92bd 0991 1fbd
000003a0: 7f68 5bbd 36aa e8bd c55e a6bc 9eed bdbd
000003b0: 9c13 95bd 377c 6abd b814 12bd d206 46be
000003c0: 1f2c bbbd ca34 efbd e446 b3bd f399 98bd
000003d0: d2d3 87bd a3d5 5fbd 6b4d 4ebd a844 94bd
000003e0: ed00 14be ae25 94be 66c2 53be b5bf 14be
000003f0: d81a 82bd f9d4 f6bd 4758 3abc cbeb a7bd
-0.053482246 -0.083265975 -0.1304888 -0.08660541 -0.02209323 0.603741 -0.05155671 -0.06883124
-0.1337676 -0.095077224 0.57690114 -0.0769124 -0.064808674 -0.19146179 -0.3277869 -0.1452101
-0.118691325 0.39954522 0.081451304 -0.063963264 -0.08742623 -0.121469595 -0.05333168 -0.07762724
-0.0716218 -0.39974204 -0.3193845 -0.16947868 -0.04294718 -0.07031151 -0.009785475 -0.06919818
-0.072763115 -0.114908844 -0.06636925 -0.12803237 0.012941811 -0.03369279 -0.04724437 -0.079546005
-0.028541036 -0.109401174 -0.08889914 -0.07507147 -0.21720353 -0.30307847 -0.004295128 -0.060068544
-0.11637476 -0.10328876 -0.027517756 -0.054087117 -0.23446548 -0.05659766 0.2462844 -0.081963
-0.07761986 -0.1216772 -0.081861205 -0.07507833 -0.06493763 -0.061205585 0.49429545 -0.03586624
-0.08390905 -0.18696697 -0.05817229 -0.09346538 -0.11771013 -0.069051675 -0.05951755 -0.0054601077
-0.30692646 0.0029878712 -0.051715128 -0.058792394 -0.096939385 -0.0726579 -0.11796758 -0.049407747
-0.21798807 -0.043715302 -0.044216495 -0.04842835 -0.30172926 -0.028676495 -0.32649153 -0.10510452
-0.06315437 -0.06675054 -0.077492245 -0.3091879 -0.067652896 -0.057563845 -0.088665895 0.08696106
-0.15257064 -0.12662809 -0.10362001 -0.326831 -0.09933206 -0.12961738 -0.12161888 -0.056770902
-0.06806945 -0.043116447 -0.06399701 -0.050058067 -0.06349454 -0.13631858 -0.11146428 -0.040431086
-0.07182176 -0.09464752 -0.1185038 0.5332078 -0.058590174 -0.0048988466 -0.0010280282 -0.16657664
-0.05108242 -0.041792326 -0.06449632 0.3168821 -0.0021454724 -0.091819234 -0.08148392 -0.29472888
-0.066227935 -0.043755263 -0.042003803 -0.15365043 -0.18068439 -0.026257224 -0.02019332 -0.029479217
-0.25024995 -0.11904803 -0.2882931 -0.16705838 -0.07722323 -0.08954929 -0.10402475 -0.07785125
-0.112216376 -0.09134944 -0.087576106 0.03971806 -0.044886194 -0.103811756 -0.062245 -0.10882525
-0.048160072 -0.03102749 -0.039656773 -0.041002862 -0.10172586 -0.22365744 -0.06364335 -0.08410692
-0.026172074 -0.1083623 -0.17100473 -0.08608236 -0.16795166 -0.0427118 -0.09656917 -0.048089083
-0.078598395 -0.16770945 -0.09574917 -0.10815005 -0.26603597 -0.15224698 -0.3057112 -0.049044505
-0.14424178 -0.14033775 -0.15762326 -0.14144227 -0.058292016 -0.037903387 -0.12738131 -0.12892494
-0.03503923 -0.048808493 0.0820362 -0.071246766 -0.13282917 -0.06693018 -0.047718186 -0.06634079
-0.18488663 -0.05150567 -0.12989932 -0.09797124 -0.060786642 -0.05207477 -0.2952457 -0.16543268
-0.02467309 -0.04904143 -0.10714719 -0.08283382 -0.22379427 -0.057076678 -0.19513372 0.02455633
-0.13401732 -0.086816 -0.0786063 -0.014658795 -0.36546224 -0.125611 -0.06862453 -0.06246726
-0.10178043 -0.18890607 -0.13240965 -0.16951038 -0.1434948 -0.07221918 -0.239613 -0.13032411
-0.103381835 -0.078472346 -0.18184078 -0.07284073 -0.0344068 -0.23866111 -0.071406916 -0.038956676
-0.053566452 -0.1136059 -0.020308862 -0.092738375 -0.07279131 -0.057247367 -0.03566429 -0.19338539
-0.09139275 -0.116799906 -0.08753756 -0.074512385 -0.066321984 -0.0546471 -0.0503668 -0.07239658
-0.14453478 -0.28934997 -0.20679626 -0.14526255 -0.06352776 -0.1205234 -0.011373586 -0.08199271

fc2.weight f4 [256, 256]
00000000: e746 b2bd 9664 10bc b559 3a3c c8f8 233d
00000010: 360e ebb8 2522 5cbf 5859 bfbe a271 343e
00000020: a483 483d ec66 563e 7590 43bf f75e 393e
00000030: fd6e 793d 1d64 d03e 7097 743f 7b40 9a3e
00000040: 7fe8 30bc 5be7 dc3e b59d 2b3f 46c2 07bd
00000050: 4407 ee3d 0290 313f 0725 803e 686f 763e
00000060: 9223 dd3e bfce 9abe c8e3 00bf 3653 ea3d
00000070: df12 803c edf7 3e3d f122 c63d d63a 29bd
00000080: 9824 abbd fcf7 92bc f365 3bbd 6f6f 1c3b
00000090: b905 283f fc7c 8a3e 7eb1 943e baf8 f73d
000000a0: 79a0 c43d 9f41 eebd 7e95 c53e 0639 173e
000000b0: ad89 153f 3add d83e 6647 313c 127d 6f3d
000000c0: 69e2 4ebd 9f82 a0bd 872a e03d e318 993e
000000d0: fc34 5b3e c782 f03d fea6 133d 77ff 44bd
000000e0: e9c9 82bd 8a55 ac3d 114f 383e 68df ffbc
000000f0: 1201 1a3f 2127 da3b d6b5 1e3f cd74 1c3f
00000100: 32df 3bbb 3cc8 9f3e 61d0 043f bd25 f83d
00000110: c9ac 5cbe f922 773d 9d08 523e beab 813e
00000120: e861 183d 573b 7b3f 1660 753c e4cd e83e
00000130: f358 0e3d fa7c 3a3e 76c7 a43e e939 8fbd
00000140: 4c73 1ebf 8845 21bc 647d a53f 345c a93e
00000150: 5fe7 ccbe 02c9 793e 48f2 c83e 903b 183e
00000160: eba7 97bc 1fc8 223e 6a4d 053e ea60 303f
00000170: 0442 7bbc 23f2 e73d fc87 4c3e cd94 833e
00000180: 980f 833e 2513 68be be1f da3e 65c6 e3bc
00000190: f37d 343f c6ce 8c3e 1096 e4bd 0a86 333f
000001a0: 4694 b63d 4795 a13d 9928 863e 6a72 bd3d
000001b0: b3d4 42be 198e 51be bb20 2ebe c75d 313e
000001c0: 7059 0c3e 7870 18be 9451 9e3d a3f3 5fbf
000001d0: a0e3 263f 773f 3d3f e11d 763e 47c2 6cbe
000001e0: f30e 0b3e 97f8 833d 6917 9e3c 271f 2040
000001f0: 7ab8 f13d 9a0a 13be b675 6bbe 198e e1bb
00000200: 4646 253f e497 e2bc 1898 1d3f 50e4 adbc
00000210: 7f12 173f 0a04 1a3e b3c7 c73d 03a9 3cbd
00000220: 430a d93f 443c c83e b0d4 603e 3e5a 103e
00000230: 908a 02bd 7a44 1bbd f6c6 863d c800 0c3e
00000240: d36b f63d 20a6 273d 92bd c3bd e0e4 22bf
00000250: beca 073e dd86 db3d 0bf8 813d 4952 ff3d
00000260: 60ea 093e 9bfd 4dbe b051 303d 0526 063d
00000270: d6f9 673c 3e5a 17be ebdf 493e 0c68 803e
00000280: 3ea6 b93d b65a be3e 44b2 d23e 032e 9a3d
00000290: b801 8b3e 7f22 0c3d 6bb1 8a3d 22a4 333e
000002a0: 7aed 493e 1cb1 d93e 02d4 38be c006 9b3d
000002b0: df11 053f 4330 063f 48b7 e93e 5323 193e
000002c0: 6281 043e 3f10 143d 08b3 1f3e dc4f b93e
000002d0: 9d44 993d 85a2 d2bd 85f4 e83e 79fc dabc
000002e0: 1588 ebbd 95e5 b1bd 88e0 1c3f 0112 803e
000002f0: 6e3c 973a fd49 15bd 9808 ac3d 6411 813d
00000300: a70f 473e 67c1 f83d ec58 4c3d 262a 2f3d
00000310: 3da6 c03e 67d0 2b3e 6c8e bdbe 17fd c83e
00000320: 5319 4b3e fe43 283d f126 71bd ab5b 993d
00000330: fc3a b23e 7292 de3e ed25 ef3d 5fb1 e03e
00000340: eb72 d83d 3f7f 3d3d 17cd a83d 3a10 623e
00000350: d140 603f 1e0d 0a3f 219f acbd 71b9 a63e
00000360: c0b1 cabc 079b 0c3e 2205 4a3e e0e4 fc3e
00000370: ff7f 153f cd74 5c3e f70c bf3e 9ae5 9b3e
00000380: d992 b03e 7905 83bd 9cc0 b7be c7e9 f4bd
00000390: f7ae 483f cf86 4dbe 1f8b 963d b1fa 3c3d
000003a0: 1d61 493e 3d94 673f 47d6 ba3d 6c06 263f
000003b0: 2e95 a63d ce39 b83c b3d9 50bd 54bb 32be
000003c0: 5a21 ba3e e341 583d 44bc 843e 0c2f e9bc
000003d0: cb4f e13e c77a db3d 5fc5 893e 607b 3b3c
000003e0: 86c5 c43d e474 063f a154 973f b839 ec3d
000003f0: 2b55 17be 1658 11bd e40b f13d f1e4 623d
-0.0870493 -0.008813044 0.011373927 0.04003218 -0.0001120832 -0.859896 -0.3737285 0.17621472
0.048953667 0.20937699 -0.763923 0.18102632 0.060896862 0.4070138 0.95543575 0.3012732
-0.010797619 0.4314526 0.67037517 -0.033144258 0.116224796 0.69360363 0.2502825 0.24065936
0.431912 -0.3023586 -0.50347567 0.114416525 0.015633998 0.04662316 0.09674633 -0.041315876
-0.08356589 -0.017940514 -0.045751523 0.002387013 0.6563373 0.2704848 0.29041666 0.12107988
0.0960092 -0.1163361 0.38590616 0.14767846 0.584132 0.42356282 0.010820245 0.058468886
-0.05050889 -0.07837414 0.109456114 0.299018 0.2140693 0.11743694 0.036047928 -0.048095193
-0.063861676 0.08414753 0.17998911 -0.031234458 0.60157883 0.0066574966 0.6199621 0.61115724
-0.002866697 0.31207454 0.5188046 0.12116573 -0.21550287 0.060336087 0.20511098 0.2532634
0.037202746 0.9813742 0.014976522 0.45469582 0.034752797 0.18211737 0.32183427 -0.06993467
-0.6189468 -0.009843238 1.2928891 0.33078158 -0.40020272 0.24393085 0.39247346 0.14866471
-0.018512687 0.15896653 0.13017812 0.6889788 -0.015335564 0.11325481 0.19973749 0.25699463
0.25597835 -0.22663553 0.42602342 -0.027804563 0.70504683 0.27501506 -0.11161435 0.701264
0.08915 0.078898005 0.2620285 0.092503384 -0.19026451 -0.20464362 -0.17004673 0.1732093
0.13705993 -0.14886653 0.077304035 -0.87481135 0.6519108 0.73924965 0.24034835 -0.23120986
0.13579921 0.06443899 0.019298272 2.5019014 0.11802764 -0.14359513 -0.22994122 -0.0068833944
0.64560354 -0.027660318 0.615602 -0.021227032 0.590126 0.15040603 0.097548865 -0.04605962
1.6956257 0.3910848 0.21956134 0.14096925 -0.031870425 -0.0379071 0.065809175 0.13672173
0.120322846 0.040929914 -0.09557642 -0.63630486 0.13260934 0.107190825 0.063461386 0.124668665
0.13468313 -0.20116274 0.043046653 0.032751102 0.014158687 -0.14780518 0.19714324 0.2507938
0.09064911 0.37178582 0.4115163 0.07528307 0.2714975 0.034212586 0.06772121 0.1754308
0.19719496 0.42517936 -0.18049625 0.07569647 0.51980394 0.5241739 0.45647645 0.14954881
0.1293998 0.036148306 0.15595639 0.3619374 0.0748379 -0.102849044 0.45499054 -0.026731716
-0.11500565 -0.086863674 0.6128011 0.25013736 0.0011538395 -0.036447514 0.08400077 0.06302145
0.19439565 0.121462636 0.04988949 0.042764805 0.3762683 0.16778718 -0.37022722 0.39255592
0.19833879 0.041080467 -0.058875028 0.074881874 0.34810627 0.43471104 0.11677156 0.43885323
0.10568794 0.04626393 0.08242243 0.22076502 0.875989 0.53926265 -0.08428789 0.32563356
-0.02474296 0.13731013 0.1972852 0.49393368 0.5839843 0.21528931 0.3731458 0.3044861
0.34487036 -0.06397528 -0.35889137 -0.11958652 0.78391975 -0.20070957 0.07350754 0.046137515
0.19665952 0.9046057 0.091229014 0.6485355 0.081339225 0.0224885 -0.050988864 -0.17454273
0.3635357 0.05279721 0.25924885 -0.028464817 0.4400619 0.10716777 0.26908395 0.011442989
0.09607987 0.5252211 1.1822702 0.115344465 -0.14778583 -0.035484396 0.11769846 0.055394117

fc2.bias f4 [256]
00000000: 959d f9be 73a5 09bf 52a7 0cbf b999 23bf
00000010: 218f 65bf dbf5 8fbf 405f 40bf 4c54 a83e
00000020: 1222 06bf ed4d 21bf a852 ea3e cd12 cb3e
00000030: a549 523f e93e 303f 4e97 1ebf 2864 22bf
00000040: 0333 c8be adac 6ebe f05d 1abf b6be a4bc
00000050: ef7f 7abf 979f cebe edaf 1fbf 61e4 513f
00000060: a6ab 9d3e df80 08bf 9a2c bb3f 9812 74be
00000070: 72ca b5be d94c 40bf 2ee1 133f c45c 353e
00000080: 6748 f4be 036c 003f 38c6 e2be 90ab ab3e
00000090: 43e3 a0be 3931 793e d780 72be df6b ccbe
000000a0: 64b2 223e 3307 13bf 5415 19bf 2d99 80be
000000b0: 0c3d 9dbe cfbf 683e 869b fabe 133c 57bf
000000c0: 257f f9be a09c 123e 4f2c b5be 668a 1e3e
000000d0: 741f 053f 79e2 31bf 7d2e 183f 29ef 4c3f
000000e0: 4cd2 bebe 660b 2cbf 691a 02bf 3152 c6be
000000f0: fd37 eabe de7d fcbe 917d c6be 3010 cabd
00000100: 36f3 a6be f847 a7be 8da8 03bf b1b9 b5bf
00000110: c644 f0be 63d9 0bbf 07ac 24bf 0c33 f6be
00000120: f35a b2be 4574 01bf 2a60 44bf 6d60 aebd
00000130: eeac 9cbe dba4 bdbe 05b2 dbbe fa7e bc3e
00000140: cddc 223f 5199 06bf 0e6a 0fbf 54ac bb3e
00000150: 716f 6b3e f155 fbbe b546 cf3e 97cc 0bbf
00000160: 0309 08bf 8c85 12bf 28c9 77be 7896 d0be
00000170: 3403 f6be 8631 03bf 3eaa aebd 08fc 34bf
00000180: fa81 14bf be82 e4be 1245 14bf e86e 973e
00000190: 0ec5 e73d 465b 8ebd 637e 3fbf 6784 bdbe
000001a0: e409 233f 0689 f0be 5ecf 00bf ceea 8ebe
000001b0: 528d f7be 76c8 a2be 28e6 04bf bee2 dabd
000001c0: 718f 4cbe ac0e e9be cea8 4ebf 012f 3bbe
000001d0: 7fb6 1fbf 4bb4 183f 3145 adbe 45f6 613e
000001e0: 44b2 d6be b4f6 7abe e19a 133f 96a7 07bf
000001f0: 691f 243f 6e6b ffbe 61aa 09bf 0bd9 9c3e
00000200: 1702 81be 20a5 f4be 5904 58bf 0ef0 04bf
00000210: 5b7a dfbe f752 78be c2ab 09bf 981d e8be
00000220: 52b1 dcbe e08b a5bf e117 8cbe 8682 60be
00000230: bfa7 153f ebc0 5abf 17fb 3d3f 3097 01bf
00000240: 4248 1e3f 6a77 e7be ff72 033f bec6 5fbe
00000250: 6287 f1be 88a1 ccbe bcb1 7cbe 378a 0abf
00000260: f615 03bf 0f8e 1cbf 1bd6 0c3f ec84 5fbf
00000270: c4d0 8e3e de92 fabe fe3e b6bd 29fe d9be
00000280: 209e d23e 06d2 11bf c60f 28bf 615f d3be
00000290: e61a 64bf 4d8c 00be dbc8 f7be e526 cebe
000002a0: 93e4 85be 0c35 0bbf c812 05bf 21d5 13bf
000002b0: ed08 efbe 8089 45bf 5424 c2be 2406 2d3f
000002c0: 8534 233f 8eb0 41bf 50cf 3ebf 7349 0fbf
000002d0: c1fd 05bf b7e4 01bf fbe1 cb3e 5022 c0be
000002e0: 6b4b 0fbf 6567 1abf 9c46 45be bd1c c43e
000002f0: 4a35 a33e 1a18 8dbd 9c4d 32bf f094 15bf
00000300: 04e3 943e 5469 46bf a7c3 f1be e828 86be
00000310: 2c1e 24bf b071 2bbf 8e5b 4b3d a8c7 0fbf
00000320: eca5 9fbd 2eda 8fbe bb54 d2be 30f2 01bf
00000330: c8e8 923e ea31 01bf ab47 c2be 3675 f6be
00000340: b05b babe d50a 0e3e 9de5 16bf 0293 bebe
00000350: ad9f 49bf 67f6 1e3f 6c4b ecbe ab52 0a3d
00000360: 9b40 1fbf 4e17 3ebf 5831 57bf 7020 eebd
00000370: 9f7e 39bf 3198 3ebf 17ca 803f 530d 26bf
00000380: db48 48bf c903 6abf e30a f3be 43d9 ecbe
00000390: 7319 4dbf 3560 97bc eab4 26bf 9991 d3be
000003a0: a7a6 e5be a4d2 d0be 904f 77be 0836 52be
000003b0: 7f8b 94bf 62cc 0e3c dfdb aebe db21 013f
000003c0: b933 3cbe be5d 2dbe d908 fdbe 0d24 e9be
000003d0: 9f5c 97bf c2d2 bfbe 4717 d83e f5a9 cfbe
000003e0: 210a 14be 5e89 e9be eee9 90be 06f0 48be
000003f0: 5e1d 35bf 8042 a8be 537d 183e 6b54 183f
-0.48753038 -0.5376808 -0.5494281 -0.6390644 -0.8967152 -1.1246904 -0.7514534 0.32876813
-0.5239574 -0.6300953 0.45766187 0.3966278 0.8214362 0.68845993 -0.6194962 -0.63434076
-0.3910142 -0.23308058 -0.6029959 -0.02011047 -0.9785146 -0.40356132 -0.62377816 0.81989104
0.3079502 -0.5332164 1.4622986 -0.23835218 -0.35506016 -0.7511726 0.5776547 0.17711169
-0.4771149 0.5016481 -0.44291854 0.3352933 -0.31423387 0.24335183 -0.23681961 -0.3992605
0.15888363 -0.5743286 -0.5979817 -0.25116864 -0.30710638 0.22729419 -0.4894678 -0.8407604
-0.48729816 0.1431756 -0.35385367 0.15482482 0.5200112 -0.69486195 0.59445935 0.8005243
-0.3726982 -0.6720489 -0.5082155 -0.38734582 -0.4574584 -0.4931478 -0.38767675 -0.09866369
-0.3260743 -0.32672095 -0.51429063 -1.4197294 -0.4692747 -0.5462858 -0.6432499 -0.4808582
-0.34835014 -0.5056804 -0.76709235 -0.085144855 -0.30600685 -0.37039837 -0.42909256 0.36815625
0.63618165 -0.5257769 -0.560212 0.36654913 0.2299173 -0.49089006 0.40483633 -0.54609054
-0.5313875 -0.57235026 -0.24197829 -0.407398 -0.4804932 -0.5124744 -0.08528565 -0.7069707
-0.5801083 -0.44630998 -0.5791789 0.29576802 0.11316882 -0.06951003 -0.74802226 -0.37015077
0.63686967 -0.4697954 -0.5031642 -0.27913517 -0.48350006 -0.31793565 -0.5191369 -0.10687779
-0.19976594 -0.45519006 -0.80726326 -0.1827965 -0.6238784 0.59650105 -0.3384185 0.220666
-0.4193288 -0.24508172 0.576582 -0.5299009 0.6411043 -0.4988665 -0.537756 0.3063434
-0.25196907 -0.4778223 -0.84381634 -0.51928794 -0.43648037 -0.24250399 -0.53777707 -0.45335078
-0.43104035 -1.2933311 -0.27361968 -0.2192479 0.58459085 -0.8545062 0.7421126 -0.5062132
0.61829007 -0.45208293 0.51347345 -0.21853158 -0.471736 -0.3996699 -0.24677175 -0.5411715
-0.51205385 -0.61154264 0.550142 -0.873122 0.2789365 -0.48940176 -0.088987336 -0.4257672
0.41136265 -0.56961095 -0.6564907 -0.41283706 -0.89103544 -0.1255352 -0.48395428 -0.4026405
-0.2615095 -0.5437782 -0.5198178 -0.57747084 -0.46686497 -0.77162933 -0.3791834 0.67587495
0.63752013 -0.75660026 -0.74535084 -0.5597145 -0.5234032 -0.50739616 0.39820847 -0.37526178
-0.55974454 -0.6031402 -0.19265217 0.38303176 0.31876594 -0.06889363 -0.6964967 -0.58430386
0.2907945 -0.7750447 -0.47219583 -0.26203084 -0.6410854 -0.6697035 0.04964786 -0.56164026
-0.07795319 -0.28096145 -0.4108027 -0.50760174 0.28693223 -0.5046679 -0.37945303 -0.481363
-0.36398077 0.1387132 -0.5894411 -0.37221533 -0.7875927 0.6209473 -0.46151292 0.033770245
-0.62207955 -0.7425431 -0.8405967 -0.11627281 -0.72458833 -0.74450976 1.0061673 -0.6486408
-0.7823617 -0.91412026 -0.47469243 -0.46259508 -0.8011696 -0.018478492 -0.651198 -0.4132202
-0.44853708 -0.40785706 -0.24151444 -0.20528424 -1.1605071 0.008715721 -0.34152123 0.50442284
-0.18379106 -0.16930291 -0.49420813 -0.45535317 -1.1825141 -0.37465483 0.4220526 -0.40559354
-0.14456989 -0.45612615 -0.28303474 -0.19622812 -0.70747936 -0.32863235 0.14891557 0.5950381

fc3.weight f4 [128, 256]
00000000: e9a9 94be 2141 843d bb74 493e cba7 2fbf
00000010: 3a03 7b3e 9862 063f 2619 8c3f d542 c9bd
00000020: b070 7e3c 221f e53d 7cd7 aabe b585 49be
00000030: dabc 52bf 5844 33bf b660 f93d e708 18be
00000040: 0845 503d d3dc 7a3e 2620 a63e 0cbf c1bf
00000050: 5fa5 0f3c 638a 3dbd 179d 1a3f 6200 65bf
00000060: 4ab5 36be 5d5b d2bc 081e 3fbf 796f a73e
00000070: c2ca bb3e a1ac 813c 2e7b b1be 9787 e3be
00000080: b00c 043e 4ae2 8dbf f6b1 0d3f 7b5e b7be
00000090: 2238 923f 5a16 4b3e 2517 02c0 a1a8 e9be
000000a0: b159 5dbf 7acc 2f3f f976 0dbe 1c31 833f
000000b0: a3c0 993e 27b2 cebe 7aef 3e3e 374b bf3e
000000c0: e5f3 a73e 5cf1 22bf 79f0 bebe d72d 09be
000000d0: 040d a7bf 1812 1cbf 1aec 713f 7bcd 03bf
000000e0: 2eab 763f 6746 b0be babf dc3e 06d4 3d3f
000000f0: d624 ae3b 56a9 89be 3c7c 2dbd c55b babf
00000100: 04a7 43c0 00b6 29bd 5068 56be 4051 5cbf
00000110: cb60 683e 8dfe 89be ac66 903d 5e24 52bd
00000120: 3eba 743e e87f 313e 4bdd 603e 8a63 aabf
00000130: b619 9b3f 1af2 a33f 34f3 993d 7a97 c2bd
00000140: bd6a 3dbe 9346 82be fab9 8dbd 3106 38bf
00000150: 4486 6fbc 1648 a9bd cc91 12bf b474 94be
00000160: 58aa 263d 4e45 f3be 10a3 293d 7a9a 883e
00000170: eda2 c8bd 7295 3ebe 4a24 1d3f 6bfa 6640
00000180: d832 1abd d329 adbe 1fad 27be a8d8 53bd
00000190: 09f0 b63e 6a66 213f 84f9 203e 2808 933e
000001a0: 750b afbe 3ee2 6bbd c254 743f 628e 383f
000001b0: 8a6a 2a3d 23d1 72bd 4ad2 6e3f 263e ebbc
000001c0: 108f 2a3f c42b 1dbe d5e7 433f b19b d63e
000001d0: d5e6 a33d 600d f5be fa1e 853e 32e4 f3bd
000001e0: 460e 393d c07c 873d a88b 90be 5fc8 533f
000001f0: 6e73 3abe 9e51 abbe e649 0bbe 4824 d8be
00000200: 1c6e 2abb 0457 64be cc53 5ebe 95cd 1c3d
00000210: 5917 0e3f 4c14 933f 12cb 74bf ff5e d1be
00000220: f123 35be c6d2 7b3e 70e8 84bc 6662 27bf
00000230: 44ae 88bf be2f 103e 5dd6 19bf 2fde 41bf
00000240: e354 66bf 8aca 4d3f f2ce f5be 3a58 d23e
00000250: 8dcc a6bc 6f7e 2d3e 6741 673e dbb4 453e
00000260: 24d5 a8ba 4555 dc3f 8e1a 903e 7627 b53e
00000270: fc25 31bf 46f7 b13e 504e 51bf 15f6 bfbc
00000280: 017d 8abc 5a32 9ebd 60a7 013f 59b2 94bd
00000290: 8ff9 293f d4ea 00bf 404c 93be b972 d13c
000002a0: 18df 663f 157c 133d a20c 2fbd b6ad adbf
000002b0: 7567 1b40 aed9 aebf e071 89bd bafe a9be
000002c0: bb6c d7be 041a 293d bdec 843e 8ec3 d9bc
000002d0: d73e 9f3e 6083 363e 2325 09be 7fb1 27be
000002e0: 47e6 ce3e 9a4d 0bbf 30cd b8be f14a 50bd
000002f0: 1b6a a6be afe6 9cbd 0f63 f4bd 2faf 62be
00000300: 0b5e 2cbf 427a f4be c50c 85bf b1ee 2abe
00000310: 25ba 153e 91ae 5ebe b77f 0a3f eed5 dfbd
00000320: 0a63 223f 69c9 8fbf 27d8 2b3d 4d88 cd3c
00000330: 9b01 6cbe 935e 51bf 6bf3 29bd e67b aa3d
00000340: 2d06 fd3e 3762 94bb 3ac5 863e cf2d 283d
00000350: cefb 033f cba1 e43d d541 25bc 0d11 403f
00000360: b6b6 50bd 0f50 e43e 412a c93e 3cac 313c
00000370: f2e1 0bbe 06c5 1d3f c4c2 4cbf 18fb 693e
00000380: 780c 163f 7f9f b73f d640 a13d ffdc 2b3e
00000390: 3940 213f f226 38bd 190d 81be d863 2fbe
000003a0: b053 10be 8c13 b3be 0ff0 3d3f 3d8e d9bd
000003b0: 26c5 183f e501 ed3d cc16 d0be 9cbf a23f
000003c0: 84ee 40bf 5de5 10bf cead 12be 7823 60be
000003d0: f2b9 1e3f c672 263e 4839 8dbe b012 63be
000003e0: 5d1f 4abf 8364 3e3d 9921 863f b362 173f
000003f0: 047d 7e3e d043 8a3e df75 963d da89 debf
-0.2903588 0.06457735 0.19673435 -0.68615407 0.2451295 0.5249419 1.0945175 -0.098272
0.0155297965 0.11187579 -0.33367527 -0.19679911 -0.82319415 -0.7002616 0.12176649 -0.14847146
0.050847083 0.244983 0.32446402 -1.5136428 0.008767455 -0.046274554 0.6039595 -0.8945371
-0.17842594 -0.025678331 -0.746552 0.32702234 0.3667813 0.015829386 -0.3466429 -0.44439384
0.12895465 -1.1084683 0.5534967 -0.3581427 1.142338 0.19832745 -2.0326626 -0.45636466
-0.86464983 0.6867138 -0.13814916 1.0249362 0.30029783 -0.40370294 0.1864604 0.37362072
0.32803264 -0.63649535 -0.3729284 -0.13396393 -1.3050847 -0.6096511 0.9450089 -0.51485413
0.9635495 -0.34428713 0.43115026 0.7415165 0.00531445 -0.26887006 -0.042354807 -1.4559256
-3.0570688 -0.041433334 -0.2093823 -0.8606148 0.22693174 -0.2695202 0.07050833 -0.051304214
0.23899171 0.17333949 0.21959417 -1.3311627 1.2117221 1.2808259 0.075170904 -0.09501548
-0.18497749 -0.2544447 -0.06920238 -0.7188445 -0.014619414 -0.082657024 -0.5725372 -0.28995287
0.040689796 -0.47513813 0.041415274 0.26680356 -0.097967006 -0.18611696 0.613835 3.6090343
-0.037646145 -0.33820972 -0.16374634 -0.05172029 0.35730007 0.63046896 0.15720183 0.2871716
-0.3418843 -0.05758881 0.9544183 0.7209226 0.04160551 -0.05928148 0.93289626 -0.028716158
0.66624546 -0.15348727 0.7652562 0.41915658 0.08003012 -0.47861767 0.26000196 -0.11908759
0.045179628 0.06615591 -0.2823155 0.8272762 -0.18208095 -0.33460706 -0.13602409 -0.4221518
-0.0026005572 -0.22298819 -0.21711653 0.038281996 0.55504376 1.1490569 -0.9562236 -0.4089279
-0.17689492 0.24592122 -0.016224116 -0.6538452 -1.0678182 0.14080712 -0.6009272 -0.7572965
-0.89973277 0.80387175 -0.4800945 0.41082937 -0.02036121 0.16942762 0.22583543 0.19307272
-0.0012880904 1.7213522 0.2814526 0.3538167 -0.69198585 0.34758967 -0.8176012 -0.02343277
-0.01690531 -0.077244475 0.5064602 -0.072605796 0.6639642 -0.5035832 -0.28769112 0.0255674
0.90184164 0.036007006 -0.042736657 -1.3568637 2.4281895 -1.366018 -0.06711173 -0.33202153
-0.42075142 0.041284576 0.25961867 -0.026582506 0.3110263 0.17823553 -0.13393073 -0.16376303
0.40410063 -0.54415286 -0.36094046 -0.05085272 -0.32502827 -0.07661187 -0.119329564 -0.2213714
-0.67331 -0.47749525 -1.0394522 -0.16692616 0.1462179 -0.2174628 0.5410113 -0.10929476
0.6343237 -1.123334 0.041954186 0.025089407 -0.23047487 -0.81784934 -0.041491907 0.08324413
0.49418774 -0.0045283097 0.26322347 0.04105931 0.515561 0.11163672 -0.010086496 0.7502602
-0.050955497 0.4459233 0.3929005 0.0108442865 -0.1366041 0.6162876 -0.7998469 0.22849691
0.58612776 1.4345549 0.078736946 0.16783522 0.6298862 -0.044959016 -0.25205305 -0.17127931
-0.14094424 -0.3497585 0.74194425 -0.10622833 0.59675825 0.11572627 -0.40642393 1.2714725
-0.75363946 -0.5659998 -0.14324114 -0.2188853 0.6200248 0.1625472 -0.27582765 -0.22175097
-0.78954107 0.046482574 1.0479003 0.5913498 0.24852377 0.27004862 0.07346701 -1.7385819

fc3.bias f4 [128]
00000000: 9fd6 7fbe 29ec 79bf ef3c 0abf 226e 27bf
00000010: da3e 09bf 3adf 2dbd 0304 09bf d5de 20bf
00000020: 9565 ab3e df37 1b3f b38f 153f 1acd 60bf
00000030: 72cd 60bf 9533 3cbf 4907 b63e b202 edbe
00000040: f853 73bf 1f5f 20bf e93b 003f 759f e63e
00000050: 01a2 ed3e 4098 18bf 843d 903f 83d9 32bf
00000060: c541 99be c7eb 4cbf 9da4 a1be 61cf e2be
00000070: a39d 3cbf 2ba3 5cbe 6989 ccbe 5f5e 83bd
00000080: 05e5 c9be cd9e 32be 275b 64bf f5b5 7eb8
00000090: 61ba e2be 6b4e 5ebe cd25 00be 7ca4 86bf
000000a0: c1b2 2ebf 00bf 3fbf f0dd e8be 5928 89bf
000000b0: a903 bfbe 4db5 05bf b70a 7fbf 9357 43bf
000000c0: 640a 3e3f ab6e 95be 10ca 48bf a288 a4be
000000d0: 5a4d 09bf 1899 fcbe a6f8 61bf 8f9c 64bf
000000e0: 5b81 33bf a305 4bbe 6efb 6abe 53e0 5fbf
000000f0: 8842 ebbd f872 3cbf 3bdc 6a3e 09ba bdbe
00000100: 9f6a 52be fe70 3dbf 5046 cdbe 4ec2 113f
00000110: e1f3 80bf 611d be3d d615 1f3f 15e0 fbbe
00000120: a7e1 d2be d4bd 01bf bff0 833d 16dc 0b3d
00000130: 1a88 02bf 96f2 1fbf b88c 8cbe 84a1 53bf
00000140: a255 5dbe 122e 98be 44d9 40bf 6101 033f
00000150: 8261 ccbe 7322 ddbe 1c92 223f 33a0 77be
00000160: c42c 77bf 224c c43e b5c0 46be 4cc1 44bf
00000170: d82f f6be 37b1 073f 1a0e 79bf 8118 1cbf
00000180: f029 be3c 92d4 0dbf 790d 87bf 27c7 63bf
00000190: 9c3d 31bf d52a 67bf 8c7a 5ebe e009 ca3e
000001a0: f471 22bf da1c 713d cb6e 48be e882 8b3f
000001b0: a9e7 5bbf 08f4 0c3f 1099 3fbe 38d4 edbe
000001c0: 3195 bbbe 487b ef3e 1c8d 093d 9da6 4bbf
000001d0: c9b7 4abf f2ec 1bbf 62b7 0e3f ad89 373e
000001e0: 0bd3 953e de6d 413f e159 92be 83f6 dd3e
000001f0: b4af 2ebf a972 893f 136e 69bf 909d 2ebf
-0.24984215 -0.97625977 -0.5399923 -0.65402424 -0.5361153 -0.042449214 -0.53521746 -0.62840015
0.33475938 0.6063213 0.5842239 -0.8781296 -0.87813485 -0.7351621 0.35552433 -0.4629112
-0.9505 -0.62645143 0.50091416 0.4504353 0.46412662 -0.59607315 1.1268773 -0.69863147
-0.2993299 -0.8004727 -0.31570902 -0.44298843 -0.73678035 -0.21546619 -0.39948586 -0.06414484
-0.3943254 -0.1744339 -0.8920159 -6.072778e-05 -0.4428282 -0.21709602 -0.1251442 -1.0518947
-0.68241507 -0.7490082 -0.45481825 -1.0715438 -0.3730748 -0.5222977 -0.99625725 -0.763055
0.74234605 -0.29185995 -0.7843332 -0.32135493 -0.53633654 -0.4933555 -0.8827003 -0.8930139
-0.70119256 -0.19826369 -0.22947475 -0.87451667 -0.11487299 -0.7361293 0.22935574 -0.37055996
-0.20548485 -0.7400054 -0.40092707 0.5693711 -1.0074426 0.09282947 0.62142694 -0.491944
-0.41187784 -0.5068028 0.06442403 0.034145437 -0.50988925 -0.6247953 -0.2745111 -0.8266833
-0.21614698 -0.2972265 -0.7533152 0.5117398 -0.39918143 -0.43190345 0.63504195 -0.24182205
-0.9655268 0.38339335 -0.1940945 -0.7685745 -0.48083377 0.53004783 -0.9728714 -0.6097489
0.023213357 -0.5540248 -1.0550987 -0.8897576 -0.69234633 -0.9029973 -0.21726435 0.3946066
-0.6345513 0.058865406 -0.19573514 1.0899324 -0.8590036 0.5505986 -0.18710732 -0.46450973
-0.36637262 0.46773744 0.033581838 -0.79551107 -0.79186684 -0.60908425 0.5574857 0.17923613
0.29262576 0.7555827 -0.28584197 0.43352136 -0.6823685 1.0738117 -0.91183585 -0.6820917

fc4.weight f4 [4, 128]
00000000: 6786 03be e18c b33d 61b2 913d 2d3f b1bd
00000010: 4c4a a2be c3d0 68bc c6b9 1d3f 75ea fdbd
00000020: 22c5 603e c179 8d3f 0ebf 823f b5fb ec3e
00000030: 51f1 0a3e 825f ac3e 7479 713f 3ba5 df3f
00000040: 099d cebd 5140 2b3f 1359 863f 9a6e 8e3f
00000050: ee47 763f abf1 263f 1684 923f 3886 803e
00000060: 5b36 533f d111 923f bb7c 093f da08 e93f
00000070: 2cbf 9ebd 97b5 b63f 5229 1c3f 45a8 9e3f
00000080: ecf6 d4bd a6c8 783f 844a 38be 82dc 213f
00000090: 6671 d63e 703c b53f a88c b43e 0f37 f43e
000000a0: fac3 f4bf d699 ca3d 2066 953f 94b0 e93d
000000b0: e1b6 ac3e da1e 263f 901e 06be ad38 713f
000000c0: 9fa3 633f 4625 953e b2d8 24be a4b4 e3bf
000000d0: 70e3 4a3f 3ca1 b93e 2ef1 5c3f f7f9 f43c
000000e0: b92b 9e3f a6aa 9b3e c956 a13f 7957 86be
000000f0: 5eb5 733f 5b5f 0d3f d03f 363f 8ae9 1d3f
00000100: dc1a 2c3f 6bfe 443f c60c 4cc0 2cf2 8e3f
00000110: 3ce0 ec3e 95eb 963f 4448 883f 4015 253f
00000120: d7b4 603e 420a 313e 26a0 823f 1e29 863f
00000130: 9ae2 013f 6f67 743e 546f 383f 7fb6 353f
00000140: f0cc 053f 7243 50bf 2d97 3d3f 597d 873f
00000150: b2a7 f03e a213 9bc0 3b6b 753f 71b6 d53e
00000160: 15ae 053e 2d61 853f 5817 b03f c312 753f
00000170: 79c7 943f 8ec0 883f 6cc0 a23f efb8 563f
00000180: a565 583f 0d4f 493f 883c 1d3f 5687 5dbd
00000190: 9f10 f43e 336f 003e 6b0f a23e 52fd 9b3f
000001a0: bbc4 a23e 7d69 77be 7eaf 1d3f faa9 b03f
000001b0: a21d a6bd f26d 883f 7175 973f 5629 f83e
000001c0: 7b29 3bc0 457a 7f3f 9cd7 bdbe 9c2d 0e3e
000001d0: db2c 0c3f 6582 733f 90d0 8c3f 6546 c83f
000001e0: f0e2 9a3f 32cd 893f 9467 c43f c6cc 833f
000001f0: 4fce aa3e d89b c93f ede5 50be a438 203f
00000200: d4e8 a23e 09b5 263e 0663 ef39 03b2 0ebd
00000210: d212 9b3d ee9d 72bd ac02 203f 2f81 58bf
00000220: d0b1 2b3f 0a72 a03f 457b 8e3f 7057 0d3f
00000230: ae17 3fbe f708 dbbd 6f46 873f b0ec f93e
00000240: e381 9e3d d53a 093f 7432 8a3f f939 903f
00000250: 2f9c 8a3f f12d 263f c45a ae3f 46b9 fe3d
00000260: 9a03 813f 168b 663f 10d9 603f 8a5b 9c3f
00000270: 2707 463d 323e 353f 24d9 fe3e e291 ac3f
00000280: 2350 963e be57 633f 035e 903e c3d6 a23e
00000290: 85ff 5f3f aa51 9d3f 9db5 ee3e 748f 29be
000002a0: 6162 8dc0 7282 733f 3690 cbbe 6e68 163e
000002b0: 5db9 eb3e 15c1 c13e 8753 be3d fd46 3d3f
000002c0: a44f 883f 37af b53e 9625 09bc 6319 053f
000002d0: 83ec 9b3e 8a50 b93e e30c 323f 26ce 593d
000002e0: b1ce 8b3f 7ac3 f73b af03 873f 8454 42bf
000002f0: fd76 533f 28d1 753f 4335 c9bd 82f2 c93e
00000300: 5589 2c3f 4b68 1d3f 4848 51c0 edf0 873f
00000310: acbd 693f 4408 203f 09e3 8d3f 5578 2f3f
00000320: 8220 273f b2b6 133e c4ac 433f c7b7 b73f
00000330: d018 553e 7cee fb3c 96b4 8b3f 6882 033f
00000340: 174b e73e de8b 1e3f ae1d 263f 01a7 883f
00000350: 61f3 2a3f 904e 93c0 df52 973f 4339 383f
00000360: 1732 c03d b599 913f f9ec b83f 90e9 953f
00000370: 5566 793f da90 883f f5f7 883f 8898 483f
00000380: a38e 663f 2f75 073f a6d5 893f db01 89bf
00000390: 6468 493f a400 f43c 0a9c 233f 5802 a33f
000003a0: 765b 4d3f 858c 643e 06ee 3d3f 6cbc ae3f
000003b0: 5695 843e eedf 8a3f 9740 053f 3551 b43f
000003c0: 560c 3dc0 2714 883f e416 7c3e ec1e 7f3f
000003d0: 8a76 cc3e 6e21 a13f bde3 8c3f 7ff5 d83f
000003e0: 35ac 263f b0ac 8a3f 4fdd 523f 9738 873f
000003f0: 588e 183f ea4b d23f 48f4 9e3f 8853 053d
-0.12844239 0.08767105 0.07114101 -0.08654628 -0.3169731 -0.014209929 0.6161159 -0.12398235
0.219502 1.1052781 1.0214555 0.46285787 0.13568617 0.33666617 0.9432595 1.7472299
-0.10088546 0.66895014 1.0495933 1.1127503 0.96203506 0.65212506 1.144656 0.251024
0.82504815 1.1411687 0.5370595 1.8205826 -0.07751307 1.4274167 0.6100055 1.2395102
-0.10398659 0.97181165 -0.17997175 0.63227093 0.4188339 1.4159069 0.35263562 0.47698256
-1.9122307 0.09892623 1.1671791 0.11410633 0.33733276 0.64890826 -0.13097596 0.94227105
0.8892154 0.2913 -0.16098288 -1.7789502 0.7925329 0.36255825 0.8630551 0.029904349
1.2357093 0.30403632 1.260461 -0.2623861 0.9519862 0.55223626 0.7119112 0.6168448
0.67228484 0.7695071 -3.1882796 1.1167655 0.46264827 1.1790644 1.0647054 0.6448555
0.21943985 0.1728907 1.0205123 1.0481298 0.5073639 0.23867582 0.72044873 0.7098159
0.52265835 -0.81352913 0.740588 1.0585128 0.4700294 -4.8461466 0.95866746 0.41740754
0.13054688 1.0420281 1.3757124 0.95731753 1.1623374 1.0683763 1.2714972 0.83875936
0.845301 0.78636247 0.6142049 -0.054084145 0.4766893 0.12542419 0.31652388 1.2186682
0.31790718 -0.24161334 0.61595905 1.3801873 -0.08111121 1.0658553 1.1832715 0.48469037
-2.9244068 0.99795943 -0.3707856 0.13884586 0.54755944 0.9512084 1.1001148 1.5646483
1.2100506 1.0765746 1.534411 1.0296867 0.33360526 1.5750685 -0.2040021 0.62586427
0.3181826 0.16279997 0.0004565941 -0.034837734 0.07571949 -0.059232645 0.62504077 -0.8457212
0.67068195 1.2534802 1.1131369 0.55211544 -0.18661377 -0.10695069 1.056837 0.4881339
0.07739618 0.53605396 1.0796647 1.1267692 1.0828913 0.6491385 1.362145 0.12437682
1.0079224 0.9005598 0.8783121 1.2215436 0.048346665 0.7079803 0.4977504 1.348202
0.29358014 0.8880576 0.28196725 0.31804475 0.87499267 1.2290547 0.46622935 -0.1655863
-4.418259 0.9512092 -0.39758462 0.14688274 0.46039858 0.37842622 0.09293275 0.73936445
1.0649304 0.3548524 -0.008370778 0.5199186 0.30453882 0.3619426 0.69550914 0.053175114
1.0922452 0.0075611444 1.0547999 -0.7591021 0.82603437 0.9602227 -0.09824612 0.3944283
0.6739705 0.61487263 -3.2700367 1.06204 0.9130504 0.6251261 1.1084911 0.6854299
0.6528398 0.14425161 0.76435494 1.4352959 0.20810246 0.030753367 1.0914485 0.5137086
0.45174477 0.6193217 0.6488904 1.0675966 0.66777617 -4.60334 1.1822165 0.71962374
0.09384554 1.1375033 1.4447318 1.1711903 0.9742177 1.0669205 1.070067 0.78357744
0.90061396 0.5291318 1.0768325 -1.0703691 0.7867491 0.029785462 0.6390997 1.273509
0.80217683 0.22319229 0.7419132 1.3651252 0.25895184 1.0849588 0.5205168 1.4087282
-2.953878 1.063115 0.24618107 0.9965656 0.39934188 1.2588327 1.1007 1.694992
0.6510652 1.083395 0.8236894 1.0564145 0.595922 1.6429417 1.2418299 0.032550365

fc4.bias f4 [4]
00000000: 974f 973f eeea 8f3f 0830 8d3f 8d6a 913f
1.1821164 1.124357 1.1030283 1.1360642

ln1.weight f4 [256]
00000000: 1653 c03e 99ef d03e 6942 e63e 2917 fe3e
00000010: 11a3 053f 0a47 b73f af37 cd3e 49e3 d13e
00000020: 8587 d63e 5c22 ee3e fbe8 a73f 24ff cd3e
00000030: f5d5 093f 538e 283f 828a 643f 26f6 f43e
00000040: 1ee1 d53e e87e b73f c654 fd3e 99b5 9d3e
00000050: 2f00 1e3f 48e7 563f 1b69 cb3e 9082 c03e
00000060: e690 133f 347f b33f ed8e 543f acd6 8a3f
00000070: 8bad e13e 6ecd ee3e 5e57 ce3e d696 e93e
00000080: 14bb ec3e ea5a 383f 3e1b 813e ee0e de3e
00000090: 522c 983e 7efc c03e 29a4 ce3e e9f7 e63e
000000a0: f889 c83e 2722 2e3f 3b42 c83e cef8 db3e
000000b0: 4a07 963e df9d 6a3f d2b3 b93e b8fa e83e
000000c0: c9ad eb3e 2fc1 df3e ee4b 553e 86ae be3e
000000d0: 2a64 023f 5dee c53e ec49 973f 60a3 c43e
000000e0: a310 2f3f 1dba 833e b125 9c3e 5cd7 c93e
000000f0: cae0 563f cefa 073f fa98 ef3f 273b 0140
00000100: e751 e83e 1417 013f b120 3740 dd98 243f
00000110: 8b44 b83e cb68 b83e 1403 c63e d73a 103f
00000120: ff4f 163f 2826 be3e 976a 973e a44d 1a3f
00000130: e05b de3e 6931 ff3e 7818 913f 5d1b e93e
00000140: e8d8 493f 4da4 4d3e f440 623f 9ed4 d53e
00000150: 4ada 183f 4d2e c33e 5248 663f 6f51 ce3d
00000160: 758e 073f b8a3 9b3e 3db6 d73e 8f34 c83f
00000170: 5b78 063f eb24 123f 6336 dd3e e5a8 5f3e
00000180: 2286 613f 5569 193f d11e ea3e cbe6 b93f
00000190: 18d4 7f3f 2f69 df3e d555 c33e 2a77 ea3e
000001a0: 8bcd e33e 56b6 dc3e bc90 133f b826 e03e
000001b0: 1fc2 ac3e d168 6b3f 6a69 ea3e 2baf eb3e
000001c0: d278 ce3e b4a9 1f3e 9ae9 0d3f 3d2f 8a3f
000001d0: 01e3 983f 95e5 d53e 0a08 b43e 28fa b73e
000001e0: a9e6 883e c138 ea3e daf0 fa3e 4cea c13f
000001f0: 1405 d23e 40c8 d63e 5561 d63e cb4a 853f
00000200: c482 ad3e 759e e53e 23f6 8c3e d748 af3e
00000210: 1643 fc3e 6c42 bf3e 56d3 cd3e c069 e13e
00000220: eb90 b63f 2cc7 b93e 3c67 e03e 3d4e 003f
00000230: 8089 d03e effc d73e ff12 e33e 86d9 f13e
00000240: 9180 f93e 8186 073f fa70 553e 3163 7a3f
00000250: 147b e63e 6c36 443e bcff f93e d429 a83e
00000260: bfc1 e23e 1437 863e b58e cc3e 9ace b73e
00000270: 31fa 243e 8ca0 6c3f 7206 d23e 4aba ef3e
00000280: e499 f43e 3523 433f 4a67 853f 102a f33e
00000290: 5dbf e03e 88dc e13e e726 f23e f8fc c33e
000002a0: ce1c c53e a754 193f 5f06 e63e 4e9b 0e3e
000002b0: efe6 503e 133e 8a3f 3d59 1e3f d837 b83e
000002c0: c3da 4e3f 73a5 753e 05d8 e93e ee95 213f
000002d0: 14a6 a73e 8529 873e 1d26 3a3f 380c ce3e
000002e0: 807b d13e 6130 d43e c641 863e 916d b13e
000002f0: b203 403f cb03 033e e925 d33e 7ae8 d23e
00000300: 3a30 063f 5a1e ca3e 5435 473e c0ed 173e
00000310: c2fe 023f 0fdb d93e 8632 1c3f 6478 1a3f
00000320: 14d1 f83e 790d 283e 0f68 a73e 5ba5 283e
00000330: 43c0 bf3f 015a bb3e 6898 1c3f 76d8 6d3e
00000340: dd4f 113f 963b 0c3f 1146 eb3e 51bb 633e
00000350: ba15 553f 0bd2 213f 8d15 c53e 2f70 a63e
00000360: 5fed 993f 42e9 e83e 5cb4 203f 0716 9c3e
00000370: a925 0f3f cd59 ae3e c301 a33e f41e 4d3f
00000380: 37a9 1a3f 0840 dd3e 218a 8d3f 4178 703e
00000390: 3fc0 b53e 1f54 573f 0896 033f 0b9a 993e
000003a0: 6482 d73e 2a8f e03e f509 bf3e 1148 c33e
000003b0: e004 613e 3244 ea3e a2bd cc3e 0451 0140
000003c0: d87b 193f fe84 f73e 655a 053f 778d c33e
000003d0: 3f75 483e a3ee c83e 4561 d23e 6654 dc3e
000003e0: 720c bd3e 9578 8b3e 3ac8 633f 40af 803e
000003f0: acc4 e03e 90c1 f73e 8dd1 093f fe3e b33e
0.3756339 0.40807799 0.44972542 0.49627045 0.52201945 1.4318554 0.40081546 0.40993717
0.41900268 0.4651059 1.3117975 0.4023372 0.538421 0.6584217 0.89273846 0.47844046
0.41773313 1.4335604 0.4947874 0.3080261 0.6171903 0.8394666 0.39728627 0.3759961
0.5764297 1.4023194 0.8303059 1.0846763 0.44077715 0.46641105 0.4030103 0.4562289
0.4623648 0.72013724 0.25216097 0.43370765 0.29721314 0.37692636 0.4035962 0.45111015
0.39167762 0.6802086 0.3911303 0.4296326 0.29302436 0.9164714 0.36270005 0.45503783
0.46031025 0.43702075 0.20829746 0.37242526 0.5093409 0.3865842 1.1819434 0.38405895
0.6838476 0.2572793 0.30497506 0.3942212 0.8393675 0.5311707 1.871856 2.0192354
0.45374987 0.5042584 2.8613703 0.6429575 0.35989794 0.3601745 0.38674223 0.5633978
0.58715814 0.37138486 0.2957351 0.6027472 0.4342947 0.49842384 1.1335592 0.4552869
0.788466 0.20082207 0.8838036 0.41763777 0.5970808 0.38121262 0.899541 0.10074126
0.5295175 0.30398345 0.42131224 1.564104 0.525274 0.5708758 0.43205556 0.21841772
0.88095295 0.5992635 0.45726636 1.4523557 0.99933004 0.43634936 0.38151422 0.4579404
0.44492754 0.4310786 0.5764272 0.4377954 0.33741853 0.9195681 0.4578355 0.4603208
0.40326554 0.1559208 0.5543457 1.0795666 1.1944276 0.4177672 0.35162383 0.35933042
0.2673848 0.45746425 0.4901188 1.5149627 0.410195 0.41949654 0.41871133 1.041345
0.3388883 0.44847456 0.27531537 0.3423526 0.49269933 0.37355363 0.402003 0.44025993
1.4262975 0.3628477 0.43828762 0.5011938 0.40729904 0.4218516 0.4435043 0.4723627
0.487309 0.5293961 0.20843878 0.97807604 0.45015776 0.19161385 0.48827922 0.32844412
0.44288442 0.26213896 0.39952627 0.35899812 0.16111065 0.92432475 0.41020542 0.46821815
0.4777366 0.76225597 1.0422146 0.4749303 0.43896 0.44113564 0.47295305 0.38278937
0.3849854 0.59894794 0.44926736 0.13926432 0.20400594 1.0800194 0.61854917 0.35980105
0.80802554 0.23988895 0.45672622 0.631194 0.32743895 0.26398864 0.72714406 0.40243697
0.40914536 0.4144316 0.26222056 0.34653905 0.7500564 0.12794416 0.4123986 0.4119299
0.5241734 0.3947628 0.19453937 0.14836788 0.5116998 0.4254994 0.6101459 0.6033995
0.48597014 0.1641139 0.32696578 0.16469328 1.4980549 0.36592105 0.61170053 0.23227105
0.56762487 0.5477842 0.45951894 0.22239424 0.8323628 0.63211125 0.38493004 0.32507464
1.2025565 0.45490462 0.62775207 0.30485556 0.5591684 0.34052888 0.31837282 0.80125356
0.6041445 0.43212914 1.1057779 0.23483373 0.35498235 0.84112734 0.51400805 0.30000338
0.42091668 0.43859226 0.37312284 0.3814092 0.21974516 0.45755154 0.39988428 2.0205698
0.59954596 0.48343652 0.52091056 0.38193867 0.19575976 0.39244565 0.41089836 0.4303314
0.36923558 0.27240434 0.88977396 0.25133705 0.4390005 0.48389864 0.53835374 0.35008997
