trained_models/checkpoint_ep6500.pth (torch, 416160 bytes, 14 tensors)

fc1.weight f4 [256, 8]
0.1919985 -0.14295462 0.6692063 0.490207 0.1570025 -0.50876826 -0.48381165 0.09841505
0.26125553 -0.14955367 0.68188155 1.289947 -0.004185086 -0.37976813 -0.36760128 -0.023795294
0.15165211 -0.2064449 1.0457848 0.22211695 0.051983163 -0.10567746 -0.42166793 -0.05108999
0.1955053 -0.05755535 0.61685926 1.249129 -0.010236063 -0.5059885 -0.37818888 -0.024973467
0.2343472 -0.14236626 0.7002145 0.62200564 0.03729698 -0.48511496 -0.47152427 0.19463089
1.1496842 0.6182365 0.5707318 0.26157132 0.6317852 -1.341051 0.55859166 0.69837934
0.22008575 -0.08862944 0.8765845 -0.2220265 0.12187976 -0.40200195 -0.53506905 -0.004686214
0.161341 -0.038610354 0.5950835 0.91888 0.025803704 -0.5987281 -0.42940623 0.10243612
0.5137876 -0.09754954 0.3241203 0.026451819 -0.049330946 -0.45233497 -0.20497026 -0.06562235
0.3257849 -0.025408853 0.62011886 0.6253925 0.054389033 -0.476047 -0.4301155 -0.12248857
1.1922674 0.5721981 0.11571612 -0.023003798 0.5861176 -1.5819682 0.6260151 0.51599354
0.10155581 -0.009791119 0.6051858 0.7454308 0.012789666 -0.54990643 -0.38811854 -0.027460573
0.17156056 -0.11812266 0.87811536 0.043382827 0.20977904 -0.39548564 -0.6141419 0.1889686
0.10123239 -0.15558732 0.4673383 -0.45313382 -0.065995984 -0.6882887 -0.038090233 -0.095588155
-0.12260906 -0.15529227 1.1213236 0.17736724 -0.16806547 -0.06801556 -0.18857902 -0.11777509
0.0067166854 -0.19495542 0.3366337 1.5541044 -0.05863961 -0.7849046 -0.038928024 -0.046614576
0.17099822 -0.114189126 0.86157036 0.6700056 0.025672806 -0.2543707 -0.43724197 0.056451056
0.98517674 0.25319067 0.33561462 0.91375464 0.30040643 -1.9079995 -0.37001213 0.3525418
1.3325279 -0.18435322 0.6971584 -0.59930354 0.33337805 -0.49400648 -0.994836 0.2629443
0.39853582 -0.13086973 0.57991326 0.20255406 -0.02228595 -0.3654699 -0.36653957 0.09592541
0.09527666 -0.07610547 0.9072096 1.0589174 0.0500933 -0.36137852 -0.5006435 -0.008741847
0.1707581 -0.118668504 0.73432183 0.9740249 -0.09006824 -0.33153588 -0.28834012 -0.018642992
0.1745211 -0.15440762 0.7618058 1.1038858 0.14744052 -0.4767515 -0.5395788 0.1520382
0.08515022 -0.012672243 0.59845835 1.3740867 0.042586874 -0.6207886 -0.4296487 0.008303816
0.64334977 0.02235536 -0.7070603 0.8458844 0.01760055 -0.6505152 -0.13319124 0.04187075
-0.3165499 -0.23976128 -1.7948695 -0.5724502 -0.36163285 1.5633494 0.20701623 -0.42114866
-0.034934793 -0.26267722 0.8174264 -0.3597202 -0.19122791 -0.46820408 0.08970449 -0.18318456
0.5257584 -0.19515899 -0.7410252 0.58828294 -0.14674418 -0.8428358 0.36753064 -0.12337847
0.09539799 -0.13022865 0.7042685 0.86038035 0.12181273 -0.5411909 -0.48648503 0.13387267
0.23104869 -0.087793805 0.75615674 0.73359805 0.056400586 -0.41016236 -0.48428696 0.05743264
0.25923747 -0.07978396 0.78291667 0.623116 -0.0027450663 -0.39521337 -0.5288489 0.15757869
0.25102583 -0.07291238 0.5526111 0.80103034 0.026500234 -0.5837659 -0.40762538 0.10437662
00000000: 419b 443e b262 12be 1b51 2b3f 69fc fa3e
00000010: 43c5 203e a33e 02bf 29b6 f7be d48d c93d
00000020: 49c3 853e 9924 19be ca8f 2e3f fc1c a53f
00000030: 0c23 89bb f870 c2be 3c36 bcbe 59ee c2bc
00000040: b14a 1b3e 4b66 53be 47dc 853f a072 633e
00000050: 4cec 543d 6d6d d8bd dce4 d7be bd43 51bd
00000060: 8b32 483e 29bf 6bbd 7dea 1d3f 76e3 9f3f
00000070: 29b5 27bc 7688 01bf f9a1 c1be 2895 ccbc
00000080: b6f8 6f3e 76c8 11be 4241 333f c33b 1f3f
00000090: b8c4 183d fd60 f8be a16b f1be 524d 473e
000000a0: da28 933f bf44 1e3f 7b1b 123f adec 853e
000000b0: adbc 213f 8fa7 abbf ddff 0e3f fdc8 323f
000000c0: 295e 613e 5a83 b5bd d767 603f ea5a 63be
000000d0: 189c f93d 33d3 cdbe 49fa 08bf d08e 99bb
000000e0: 9336 253e e425 1ebd 6457 183f b83b 6b3f
000000f0: 4a62 d33c 3f46 19bf 22db dbbe 07ca d13d
00000100: 9687 033f 0ec8 c7bd 19f3 a53e 7cb1 d83c
00000110: 3f0f 4abd 7398 e7be b9e3 51be 0365 86bd
00000120: 47cd a63e 3a26 d0bc 1cc0 1e3f b919 203f
00000130: 09c7 5e3d 6fbc f3be 1938 dcbe 4adb fabd
00000140: 389c 983f 937b 123f 93fc ec3d 7672 bcbc
00000150: ce0b 163f ef7d cabf 8742 203f 2718 043f
00000160: 7efc cf3d ee6a 20bc 75ed 1a3f 8ed4 3e3f
00000170: bf8b 513c abc6 0cbf 79b7 c6be fff4 e0bc
00000180: 92ad 2f3e 4bea f1bd 2bcc 603f 31b2 313d
00000190: 51d0 563e 187d cabe 6738 1dbf fc80 413e
000001a0: ed52 cf3d 4852 1fbe f746 ef3e 2801 e8be
000001b0: e728 87bd b033 30bf 8104 1cbd b9c3 c3bd
000001c0: 751a fbbd f004 1fbe 8887 8f3f c29f 353e
000001d0: 5b19 2cbe be4b 8bbd dc1a 41be 1134 f1bd
000001e0: a417 dc3b 65a2 47be 415b ac3e e5ec c63f
000001f0: 1630 70bd 82ef 48bf fe72 1fbd edee 3ebd
00000200: 281a 2f3e fddb e9bd e08f 5c3f 7d85 2b3f
00000210: c74f d23c e03c 82be 2ede dfbe 3939 673d
00000220: 8b34 7c3f 35a2 813e aed5 ab3e d3eb 693f
00000230: dfce 993e 5439 f4bf 3b72 bdbe 5c80 b43e
00000240: 4690 aa3f 17c7 3cbe f978 323f f56b 19bf
00000250: 87b0 aa3e 6bee fcbe 92ad 7ebf a3a0 863e
00000260: e30c cc3e b702 06be 3275 143f 556a 4f3e
00000270: 0691 b6bc df1e bbbe 13ab bbbe 8b74 c43d
00000280: 6920 c33d 2fdd 9bbd e33e 683f 9b8a 873f
00000290: a22e 4d3d 9b06 b9be 2c2a 00bf f739 0fbc
000002a0: 36db 2e3e 7908 f3bd 84fc 3b3f b259 793f
000002b0: b375 b8bd 12bf a9be 51a1 93be 30b9 98bc
000002c0: a9b5 323e 081d 1ebe b405 433f 214c 8d3f
000002d0: a6fa 163e c618 f4be d621 0abf e7af 1b3e
000002e0: 3d63 ae3d 3d9f 4fbc 9134 193f 13e2 af3f
000002f0: 936f 2e3d 00ec 1ebf eafa dbbe bb0c 083c
00000300: 92b2 243f 9722 b73c e701 35bf e18b 583f
00000310: 072f 903c 2a88 26bf 4963 08be aa80 2b3d
00000320: d412 a2be fb83 75be 49be e5bf 198c 12bf
00000330: f127 b9be d51b c83f 10fc 533e cca0 d7be
00000340: c917 0fbd a17d 86be db42 513f 3f2d b8be
00000350: 40d1 43be 72b8 efbe fdb6 b73d bc94 3bbe
00000360: 1a98 063f c2d7 47be d4b3 3dbf b699 163f
00000370: 1b44 16be 16c4 57bf fa2c bc3e daad fcbd
00000380: 0560 c33d a95a 05be f14a 343f e341 5c3f
00000390: f478 f93d 7d8b 0abf 9114 f9be eb15 093e
000003a0: 0798 6c3e 3dcd b3bd 7d93 413f 15cd 3b3f
000003b0: 4d04 673d cd00 d2be 76f4 f7be 7d3e 6b3d
000003c0: c6ba 843e c665 a3bd 3a6d 483f 8884 1f3f
000003d0: 92e6 33bb 6859 cabe a462 07bf 4f5c 213e
000003e0: 7586 803e 1653 95bd ec77 0d3f 5310 4d3f
000003f0: 0517 d93c af71 15bf 46b4 d0be 69c3 d53d

fc1.bias f4 [256]
0.06840556 0.015401999 0.004685037 0.011510246 0.09631606 0.6514621 0.08566639 0.038537525
-0.036731984 0.017181335 0.5693514 0.029018858 0.07761104 -0.105529495 -0.17201154 -0.08821002
-0.0024256045 0.39555424 0.28078124 0.050459206 0.025679478 -0.026356146 0.06419468 0.022135574
0.036056202 -0.32840198 -0.21053798 -0.1347683 0.07311301 0.047648955 0.114314675 0.038098525
0.026050534 0.008779993 0.050177194 -0.020748043 0.17838529 0.097266234 0.060791668 0.03056988
0.093272 -0.03806501 0.03268891 0.029948592 -0.059944637 -0.20953539 0.115239374 0.0681197
-0.0026785317 -0.0078072776 0.097295165 0.04680667 -0.17370297 0.055171225 0.3341726 0.033603977
0.01709338 -0.00086654304 0.032375664 0.041227836 0.07007963 0.43237203 0.50036865 -0.0020400684
0.032601424 -0.09890326 -0.016145231 -0.021942442 -0.011320138 0.051470343 0.048783787 0.111246005
-0.22693355 0.16310155 0.06482538 0.08119801 0.018704813 0.036654532 -0.061089177 0.06491484
-0.16727357 0.075191975 0.039601967 0.056331158 -0.25494674 0.07044182 -0.20618385 0.017735602
0.060928673 0.049953267 0.041176315 -0.15954885 0.038488917 0.053199865 0.025690278 0.26660278
-0.055513706 -0.033769082 0.007826877 -0.18489951 -0.016325053 -0.013768671 -0.0037875473 0.08044291
0.05376138 0.065314755 0.03656921 0.07826313 0.057972148 -0.0501758 0.003331389 0.07586907
0.032198425 0.021421919 -0.021181656 0.50685835 -7.4442854e-05 0.10700968 0.113891795 -0.07859525
0.07389606 0.088398166 0.059542153 0.39170882 0.1157222 0.024235588 0.03425174 -0.20711176
0.13481943 0.076736026 0.11045748 -0.0662272 -0.06278993 0.09500949 0.101531155 0.08841411
-0.2349438 -0.033313774 -0.1528741 -0.058736805 0.037745472 0.025920872 0.017322816 0.04905215
0.013772982 0.017742695 0.028750205 -0.022072429 0.0553288 0.013490521 0.047090612 -0.0008345052
0.08312942 0.09255065 0.08081887 0.06465655 0.013299289 -0.19917819 0.046001017 0.035003025
0.08950764 0.017777113 -0.112413526 0.03205555 -0.08803998 0.08003031 0.0076917545 0.08029343
0.058664013 -0.073546164 0.019137127 0.00827195 -0.15022336 -0.10458039 -0.15968633 0.06897689
-0.02763292 -0.018507281 -0.059060417 -0.071019605 0.04879273 0.06665348 -0.023119045 -0.013450693
0.07778723 0.060152333 0.2612424 0.033337753 -0.0383751 0.056275636 0.06786827 0.048826672
-0.00847757 0.06743325 -0.008327302 0.025310224 0.048148923 0.05958823 -0.19046941 -0.046820603
0.09545934 0.062229898 -0.007709508 0.034281477 -0.14155607 0.04938641 -0.14251488 0.20895287
-0.012685087 0.015744692 0.03705625 0.10834497 -0.38008985 -0.03299604 0.050888762 0.10599215
-0.043911166 -0.12042502 -0.10068838 0.011713469 -0.004760238 0.045090843 -0.0655965 -0.039260067
0.029688478 0.042822085 -0.10272846 0.045159336 0.06728536 -0.19545633 0.045590438 0.0772642
0.057669092 0.20541045 0.099577405 0.012699593 0.045671754 0.065065525 0.0885402 -0.29919738
0.04051173 -0.011775342 0.02433582 0.038596153 0.018073052 0.06458135 0.08704627 0.050712656
-0.040762406 -0.13044327 -0.21153572 -0.047046505 0.05933273 -0.021643015 0.104935504 0.044072017
00000000: 3718 8c3d aa58 7c3c f084 993b 7995 3c3c
00000010: 5b41 c53d 38c6 263f dc71 af3d 86d9 1d3d
00000020: 4774 16bd dfbf 8c3c 03c1 113f f5b8 ed3c
00000030: 89f2 9e3d d91f d8bd cb23 30be 74a7 b4bd
00000040: e4f6 1ebb 1686 ca3e 8fc2 8f3e 50ae 4e3d
00000050: c55d d23c d8e8 d7bc 8078 833d aa55 b53c
00000060: abaf 133d 4e24 a8be 4597 57be b400 0abe
00000070: 46bc 953d 8d2b 433d d01d ea3d 330d 1c3d
00000080: ee67 d53c f6d9 0f3c 9a86 4d3d cdf7 a9bc
00000090: a2aa 363e 8533 c73d af00 793d af6d fa3c
000000a0: 6405 bf3d 0eea 1bbd cee4 053d c056 f53c
000000b0: 8288 75bd 7290 56be 9f02 ec3d 5782 8b3d
000000c0: 4e8a 2fbb 31d4 ffbb b042 c73d 5ab8 3f3d
000000d0: 31df 31be 39fb 613d ac18 ab3e 53a4 093d
000000e0: 6b07 8c3c b828 63ba 589c 043d 85de 283d
000000f0: e985 8f3d de5f dd3e 2918 003f abb2 05bb
00000100: 1289 053d cb8d cabd 0143 84bc a3c0 b3bc
00000110: 1a78 39bc 91d2 523d 82d1 473d f2d4 e33d
00000120: 4561 68be 1804 273e 2bc3 843d 244b a63d
00000130: d63a 993c 1023 163d a538 7abd 12f2 843d
00000140: c349 2bbe 40fe 993d ac35 223d 80bb 663d
00000150: 6188 82be cd43 903d dc21 53be 414a 913c
00000160: 5890 793d cc9b 4c3d 7fa8 283d c660 23be
00000170: 8ea6 1d3d 1ae8 593d 6b74 d23c 2980 883e
00000180: 5762 63bd 7351 0abd 4d3c 003c 4c56 3dbe
00000190: 1ebc 85bc fe95 61bc 8038 78bb 41bf a43d
000001a0: e534 5c3d bec3 853d 99c9 153d 6b48 a03d
000001b0: 3474 6d3d 2485 4dbd 6f53 5a3b 3e61 9b3d
000001c0: 7fe2 033d 057d af3c 2785 adbc 78c1 013f
000001d0: 341e 9cb8 e427 db3d 1a40 e93d 8cf6 a0bd
000001e0: d156 973d 190a b53d 79e2 733d 0f8e c83e
000001f0: c3ff ec3d b689 c63c 8d4b 0c3d 1b15 54be
00000200: 1b0e 0a3e c727 9d3d 8837 e23d 20a2 87bd
00000210: 0298 80bd 5694 c23d 91ef cf3d 7512 b53d
00000220: 1c95 70be 0674 08bd 078b 1cbe 0196 70bd
00000230: ff9a 1a3d 0258 d43c 94e8 8d3c e8ea 483d
00000240: 13a8 613c 2159 913c 8d85 eb3c 3dd1 b4bc
00000250: 74a0 623d 5907 5d3c 16e2 403d b2c2 5aba
00000260: c23f aa3d 328b bd3d 5d84 a53d a76a 843d
00000270: 43e5 593c 5ef5 4bbe 906b 3c3d 555f 0f3d
00000280: c84f b73d 4fa1 913c 1039 e6bd ae4c 033d
00000290: 4e4e b4bd eee6 a33d 1d0b fc3b e270 a43d
000002a0: ad49 703d 5f9f 96bd 77c5 9c3c 1387 073c
000002b0: 27d4 19be 3e2e d6bd d084 23be c143 8d3d
000002c0: 6f5e e2bc 959c 97bc 56e9 71bd ba72 91bd
000002d0: e3da 473d 9f81 883d 2764 bdbc 4c60 5cbc
000002e0: e94e 9f3d 4b62 763d 90c1 853e 2b8d 083d
000002f0: 352f 1dbd 4881 663d 85fe 8a3d 7afe 473d
00000300: 81e5 0abc 721a 8a3d 3c6f 08bc 6357 cf3c
00000310: ce37 453d ca12 743d 6a0a 43be f6c6 3fbd
00000320: 3080 c33d c7e4 7e3d 0aa0 fcbb bc6a 0c3d
00000330: 13f4 10be 6749 4a3d 6cef 11be bef7 553e
00000340: 1cd5 4fbc 03fb 803c 4bc8 173d f8e3 dd3d
00000350: 239b c2be db26 07bd bc70 503d 6a12 d93d
00000360: 32dc 33bd 65a1 f6bd b635 cebd dae9 3f3c
00000370: c5fb 9bbb 2db1 383d 7557 86bd 2acf 20bd
00000380: 4035 f33c 3666 2f3d 4d63 d2bd fff8 383d
00000390: e8cc 893d b425 48be 0abd 3a3d b13c 9e3d
000003a0: 6d36 6c3d 1e57 523e 3def cb3d f411 503c
000003b0: 4e12 3b3d 1341 853d 9054 b53d 6630 99be
000003c0: a1ef 253d 5ded 40bc ea5b c73c 0017 1e3d
000003d0: f00d 943c 3a43 843d 5145 b23d 13b8 4f3d
000003e0: 7bf6 26bd ec92 05be d29c 58be d6b3 40bd
000003f0: e006 733d b14c b1bc 6de8 d63d dc84 343d

fc2.weight f4 [256, 256]
-0.0870493 -0.008813044 0.011729299 0.04003218 -0.0001120832 -0.8844272 -0.3737285 0.17621472
0.048953667 0.20937699 -0.75695777 0.18102632 0.060896862 0.4070138 0.9533045 0.3012732
-0.010797619 0.25999725 0.69894695 -0.033144258 0.13998917 0.69360363 0.2502825 0.24065936
0.22809476 -0.38471195 -0.43368697 0.114416525 0.015633998 0.04662316 0.09674633 -0.041315876
-0.08356589 -0.017940514 -0.045751523 0.002387013 0.6563373 0.2704848 0.29041666 0.12107988
0.0960092 -0.1163361 0.38590616 0.14767846 0.55914915 0.44578025 0.010820245 0.058468886
-0.05050889 -0.07837414 0.109456114 0.299018 0.2140693 0.11743694 0.018367622 -0.048095193
-0.063861676 0.08414753 0.17998911 -0.031234458 0.60799474 0.080608204 0.31240538 0.7363408
-0.002866697 0.31207454 0.9651106 0.12116573 -0.21550287 0.060336087 0.20511098 0.25333107
-0.0026437694 0.9813742 0.014976522 0.45469582 0.034752797 0.18211737 0.29755858 -0.06993467
-0.6189468 -0.009843238 1.2987272 0.33078158 -0.31124946 0.24393085 0.36098665 0.14866471
-0.018512687 0.15896653 0.13017812 0.74846 -0.015335564 0.10771452 0.19973749 0.25699463
0.25597835 -0.22663553 0.42602342 0.0018165879 0.63874346 0.27501506 -0.11161435 0.701264
0.08915 0.078898005 0.2620285 0.092503384 -0.19026451 -0.20464362 -0.17004673 0.1732093
0.13705993 -0.14886653 0.077304035 -0.8387915 0.63570905 0.73924965 0.24034835 -0.23120986
0.13579921 0.06443899 0.019298272 2.466994 0.11802764 -0.14359513 -0.22994122 -1.4603639e-05
0.6774128 -0.027660318 0.61559606 -0.021227032 0.5901092 0.15040603 0.097548865 -0.04605962
1.8316207 0.3910848 0.20743169 0.14096925 -0.031870425 -0.0379071 0.065809175 0.13672173
0.120322846 0.040929914 -0.09557642 -0.6598227 0.13260934 0.107190825 0.063461386 0.124668665
0.13468313 -0.20116274 0.043046653 0.032751102 0.014158687 -0.07840966 0.19714324 0.2507938
0.09064911 0.37122145 0.4115163 0.07528307 0.2714975 0.034212586 0.06772121 0.1754308
0.19719496 0.42580065 -0.18049625 0.07569647 0.5198689 0.5241739 0.4518607 0.14954881
0.12996739 0.036148306 0.15595639 0.3619374 0.0748379 -0.102849044 0.5111329 -0.026731716
-0.11500565 -0.086863674 0.61279744 0.25013736 0.0011538395 -0.036447514 0.08400077 0.06302145
0.18910371 0.121462636 0.04988949 0.042764805 0.3762683 0.16778718 -0.39104092 0.39255592
0.19833879 0.041080467 -0.058875028 0.074881874 0.42989916 0.43471104 0.11677156 0.43885323
0.10568794 0.04626393 0.08242243 0.22076502 0.77059835 0.5179788 -0.08428789 0.32563356
-0.021248817 0.13731013 1.030134 0.4939152 0.6303625 0.21528931 0.3633774 0.3044861
0.34487036 -0.06397528 -0.35889137 -0.11958652 0.78391975 -0.09914964 0.07350754 0.046137515
0.19665952 1.0182564 0.091229014 0.6491399 0.081339225 0.0224885 -0.050988864 -0.18866348
0.36336625 0.05279721 0.25924885 -0.028464817 0.4400619 0.10716777 0.26908395 0.011442989
0.09607987 0.43304193 1.2011095 0.115344465 -0.14778583 -0.035484396 0.11769846 0.055394117
00000000: e746 b2bd 9664 10bc 3f2c 403c c8f8 233d
00000010: 360e ebb8 d269 62bf 5859 bfbe a271 343e
00000020: a483 483d ec66 563e fcc7 41bf f75e 393e
00000030: fd6e 793d 1d64 d03e c40b 743f 7b40 9a3e
00000040: 7fe8 30bc 5c1e 853e 30ee 323f 46c2 07bd
00000050: 5259 0f3e 0290 313f 0725 803e 686f 763e
00000060: ac91 693e f7f8 c4be 380c debe 3653 ea3d
00000070: df12 803c edf7 3e3d f122 c63d d63a 29bd
00000080: 9824 abbd fcf7 92bc f365 3bbd 6f6f 1c3b
00000090: b905 283f fc7c 8a3e 7eb1 943e baf8 f73d
000000a0: 79a0 c43d 9f41 eebd 7e95 c53e 0639 173e
000000b0: 6624 0f3f 4f3d e43e 6647 313c 127d 6f3d
000000c0: 69e2 4ebd 9f82 a0bd 872a e03d e318 993e
000000d0: fc34 5b3e c782 f03d b277 963c 77ff 44bd
000000e0: e9c9 82bd 8a55 ac3d 114f 383e 68df ffbc
000000f0: 8ba5 1b3f ea15 a53d 99f3 9f3e d580 3c3f
00000100: 32df 3bbb 3cc8 9f3e 7d11 773f bd25 f83d
00000110: c9ac 5cbe f922 773d 9d08 523e 9cb4 813e
00000120: 1743 2dbb 573b 7b3f 1660 753c e4cd e83e
00000130: f358 0e3d fa7c 3a3e 9959 983e e939 8fbd
00000140: 4c73 1ebf 8845 21bc b13c a63f 345c a93e
00000150: 175c 9fbe 02c9 793e 3ed3 b83e 903b 183e
00000160: eba7 97bc 1fc8 223e 6a4d 053e 139b 3f3f
00000170: 0442 7bbc 6e99 dc3d fc87 4c3e cd94 833e
00000180: 980f 833e 2513 68be be1f da3e 931a ee3a
00000190: b184 233f c6ce 8c3e 1096 e4bd 0a86 333f
000001a0: 4694 b63d 4795 a13d 9928 863e 6a72 bd3d
000001b0: b3d4 42be 198e 51be bb20 2ebe c75d 313e
000001c0: 7059 0c3e 7870 18be 9451 9e3d 0abb 56bf
000001d0: d4bd 223f 773f 3d3f e11d 763e 47c2 6cbe
000001e0: f30e 0b3e 97f8 833d 6917 9e3c 3be3 1d40
000001f0: 7ab8 f13d 9a0a 13be b675 6bbe 2702 75b7
00000200: ed6a 2d3f e497 e2bc b497 1d3f 50e4 adbc
00000210: 6611 173f 0a04 1a3e b3c7 c73d 03a9 3cbd
00000220: 8c72 ea3f 443c c83e f968 543e 3e5a 103e
00000230: 908a 02bd 7a44 1bbd f6c6 863d c800 0c3e
00000240: d36b f63d 20a6 273d 92bd c3bd 24ea 28bf
00000250: beca 073e dd86 db3d 0bf8 813d 4952 ff3d
00000260: 60ea 093e 9bfd 4dbe b051 303d 0526 063d
00000270: d6f9 673c 3e95 a0bd ebdf 493e 0c68 803e
00000280: 3ea6 b93d bd10 be3e 44b2 d23e 032e 9a3d
00000290: b801 8b3e 7f22 0c3d 6bb1 8a3d 22a4 333e
000002a0: 7aed 493e 8b02 da3e 02d4 38be c006 9b3d
000002b0: 2116 053f 4330 063f 495a e73e 5323 193e
000002c0: 2c16 053e 3f10 143d 08b3 1f3e dc4f b93e
000002d0: 9d44 993d 85a2 d2bd 9bd9 023f 79fc dabc
000002e0: 1588 ebbd 95e5 b1bd 4be0 1c3f 0112 803e
000002f0: 6e3c 973a fd49 15bd 9808 ac3d 6411 813d
00000300: 67a4 413e 67c1 f83d ec58 4c3d 262a 2f3d
00000310: 3da6 c03e 67d0 2b3e 8436 c8be 17fd c83e
00000320: 5319 4b3e fe43 283d f126 71bd ab5b 993d
00000330: be1b dc3e 7292 de3e ed25 ef3d 5fb1 e03e
00000340: eb72 d83d 3f7f 3d3d 17cd a83d 3a10 623e
00000350: ef45 453f 429a 043f 219f acbd 71b9 a63e
00000360: 0012 aebc 079b 0c3e 6edb 833f 74e2 fc3e
00000370: 705f 213f cd74 5c3e 9a0c ba3e 9ae5 9b3e
00000380: d992 b03e 7905 83bd 9cc0 b7be c7e9 f4bd
00000390: f7ae 483f f70e cbbd 1f8b 963d b1fa 3c3d
000003a0: 1d61 493e 3a56 823f 47d6 ba3d 082e 263f
000003b0: 2e95 a63d ce39 b83c b3d9 50bd 0031 41be
000003c0: 240b ba3e e341 583d 44bc 843e 0c2f e9bc
000003d0: cb4f e13e c77a db3d 5fc5 893e 607b 3b3c
000003e0: 86c5 c43d acb7 dd3e f5bd 993f b839 ec3d
000003f0: 2b55 17be 1658 11bd e40b f13d f1e4 623d

fc2.bias f4 [256]
-0.5307494 -0.60826945 -0.5839545 -0.8150755 -1.2524701 -1.1769238 -0.7550121 0.041166183
-0.5609622 -0.6528781 0.509457 0.4052498 0.88372034 0.76268536 -0.6600985 -0.68126017
-0.42199042 -0.21858388 -0.6447473 -0.034335677 -1.0231359 -0.40160838 -0.6409768 0.7085573
0.34905726 -0.5674526 1.5188482 -0.24147707 -0.35869458 -0.8033306 0.6386587 0.2871055
-0.5167245 0.5988949 -0.5108726 0.3726557 -0.29094028 0.31808385 -0.16142026 -0.3967639
0.105463326 -0.56387293 -0.63673216 -0.24129805 -0.30225095 0.22007312 -0.40068722 -0.8529776
-0.4797792 0.08382512 -0.32928842 0.18873368 0.6021332 -0.76311487 0.51422215 0.8500531
-0.36046135 -0.7242226 -0.5168936 -0.35615182 -0.49136764 -0.5337062 -0.3942606 -0.14135204
-0.33165076 -0.33723474 -0.5569263 -1.4356601 -0.49174213 -0.5856428 -0.69793963 -0.5182088
-0.3247967 -0.5416776 -0.79640794 -0.09065571 -0.27400795 -0.35742944 -0.46215075 0.32359692
0.68559766 -0.5584965 -0.6069784 0.32632735 -0.14959964 -0.53929245 0.40127718 -0.5853457
-0.5674615 -0.6213239 -0.24363276 -0.3994176 -0.5111564 -0.55363613 -0.116568096 -0.6965175
-0.6378157 -0.45162603 -0.6230982 0.3277251 0.15977392 -0.045657463 -0.7925149 -0.40629455
0.6780551 -0.50184894 -0.5163378 -0.3173542 -0.5165257 -0.300864 -0.42891872 -0.08276174
-0.16617762 -0.4826046 -0.8331393 -0.15590127 -0.67172205 0.6495321 -0.3728549 0.25583598
-0.4554675 -0.23502621 0.6211076 -0.54306024 0.688034 -0.53047997 -0.57626593 0.3027558
-0.23001942 -0.514769 -0.9013125 -0.5600432 -0.41598612 -0.22338016 -0.5981475 -0.48293534
-0.46824884 -1.3100158 -0.26482356 -0.19166858 0.65540737 -0.8416213 0.8105991 -0.5048962
0.7032633 -0.4436717 0.5618085 -0.20396315 -0.5064526 -0.43400356 -0.28150544 -0.58434325
-0.560789 -0.66022724 0.595604 -0.9073718 0.33440554 -0.5238345 -0.32899866 -0.46106014
0.42643753 -0.6085139 -0.6841876 -0.44260105 -0.9486059 -0.12481176 -0.4824541 -0.42533967
-0.28772393 -0.59082454 -0.5549622 -0.59921426 -0.3947212 -0.7754434 -0.4145527 0.73449373
0.67819476 -0.7418336 -0.7533001 -0.5993366 -0.5573702 -0.54878765 0.4212645 -0.37618187
-0.56019527 -0.97937477 -0.1065864 -0.0043438207 0.36798197 -0.09456203 -0.7350073 -0.62287784
0.24300665 -0.68596613 -0.505391 -0.2629925 -0.6881301 -0.65779185 0.22897473 -0.60449815
-0.038781565 -0.31939894 -0.43327639 -0.54425657 0.32039005 -0.54228634 -0.39863864 -0.51727396
-0.7442342 0.08629848 -0.6286945 -0.4002191 -0.8451444 0.6549627 -0.4992757 -0.10868187
-0.66623855 -0.8044291 -0.8784975 -0.13388225 -0.7580786 -0.6805432 1.0674218 -0.6822452
-0.8244551 -0.9067735 -0.51500607 -0.498036 -0.87540245 -0.016395543 -0.7155073 -0.43378088
-0.50829184 -0.39801326 -0.21647938 -0.23419341 -1.2244295 0.10798465 -0.37304124 0.33251992
-0.09455091 -0.1246195 -0.528385 -0.4535405 -1.2298614 -0.40747193 0.4399102 -0.44257438
-0.1309108 -0.4864111 -0.27250358 -0.20839168 -0.76744866 -0.40121707 -0.13813671 0.5738543
00000000: 31df 07bf 8cb7 1bbf 0b7e 15bf caa8 50bf
00000010: f150 a0bf 70a5 96bf 7948 41bf df9d 283d
00000020: 389b 0fbf 0523 27bf c66b 023f e77c cf3e
00000030: 7f3b 623f 593f 433f 37fc 28bf 1167 2ebf
00000040: 210f d8be 74d4 5fbe 290e 25bf 91a3 0cbd
00000050: 1ef6 82bf 9d9f cdbe 0e17 24bf 0364 353f
00000060: a2b7 b23e 9344 11bf 9e69 c23f c445 77be
00000070: d1a6 b7be 13a7 4dbf 237f 233f 7eff 923e
00000080: 0f48 04bf 2d51 193f 8cc8 02bf bacc be3e
00000090: 20f6 94be e3db a23e 5a4b 25be a324 cbbe
000000a0: 28fd d73d fa59 10bf e100 23bf d616 77be
000000b0: a3c0 9abe d95a 613e e026 cdbe bd5c 5abf
000000c0: 9fa5 f5be 81ac ab3d 7e98 a8be 6743 413e
000000d0: 6725 1a3f 7f5b 43bf 10a4 033f 149d 593f
000000e0: 648e b8be a766 39bf 2453 04bf 8859 b6be
000000f0: 8a94 fbbe f8a0 08bf 86dc c9be 97be 10be
00000100: 21ce a9be 08aa acbe b992 0ebf b6c3 b7bf
00000110: a0c5 fbbe b0ec 15bf 2cac 32bf 55a9 04bf
00000120: c14b a6be 62ab 0abf 64e1 4bbf b3a9 b9bd
00000130: c54a 8cbe fe00 b7be 069f ecbe 7fae a53e
00000140: 5483 2f3f a0f9 0ebf f062 1bbf 6114 a73e
00000150: a630 19be 120f 0abf 3474 cd3e 37d9 15bf
00000160: 2845 11bf 150f 1fbf de7a 79be 7780 ccbe
00000170: 25db 02bf 19bb 0dbf 41bb eebd f94e 32bf
00000180: e447 23bf 873b e7be 5d83 1fbf 96cb a73e
00000190: c69b 233e 5203 3bbd 42e2 4abf d705 d0be
000001a0: 0595 2d3f 2c79 00bf b72e 04bf 407c a2be
000001b0: 073b 04bf d90a 9abe 3c9b dbbe fd7e a9bd
000001c0: 772a 2abe f317 f7be 9e48 55bf 95a4 1fbe
000001d0: faf5 2bbf bc47 263f d6e6 bebe effc 823e
000001e0: 0933 e9be b6aa 70be e800 1f3f ff05 0bbf
000001f0: ff22 303f 89cd 07bf 2a86 13bf cf02 9b3e
00000200: 368a 6bbe e7c7 03bf 6abc 66bf fe5e 0fbf
00000210: 22fc d4be c5bd 64be 3220 19bf 4d43 f7be
00000220: 50be efbe 99ae a7bf f496 87be c544 44be
00000230: c7c8 273f 7e74 57bf 6c83 4f3f e140 01bf
00000240: 1009 343f f028 e3be afd2 0f3f b7db 50be
00000250: e1a6 01bf b735 debe 7b21 90be 8597 15bf
00000260: de8f 0fbf a704 29bf 8179 183f 8549 68bf
00000270: 3437 ab3e 051a 06bf 8372 a8be 1310 ecbe
00000280: 0556 da3e 91c7 1bbf eb26 2fbf 9b9c e2be
00000290: d6d7 72bf 4f9d ffbd 3904 f7be 1fc6 d9be
000002a0: 8d50 93be 4740 17bf 0112 0ebf 1b66 19bf
000002b0: e618 cabe 7583 46bf 4040 d4be c807 3c3f
000002c0: 2c9e 2d3f cfe8 3dbf 46d8 40bf 206e 19bf
000002d0: d0af 0ebf 597d 0cbf fbaf d73e e99a c0be
000002e0: f568 0fbf 4eb8 7abf f849 dabd 9c56 8ebb
000002f0: 2268 bc3e bda9 c1bd 7029 3cbf ec74 1fbf
00000300: bcd6 783e 7a9b 2fbf 4e61 01bf f4a6 86be
00000310: 4b29 30bf 0c65 28bf 5a78 6a3e 64c0 1abf
00000320: 6bd9 1ebd 4288 a3be 67d6 ddbe 6654 0bbf
00000330: 2a0a a43e 47d3 0abf 5d1a ccbe 116c 04bf
00000340: 2286 3ebf 42bd b03d 1ff2 20bf 85e9 ccbe
00000350: 625b 58bf a3ab 273f 11a1 ffbe 9a94 debd
00000360: 9c8e 2abf 11ef 4dbf 36e5 60bf 6e18 09be
00000370: 7011 42bf 1438 2ebf 47a1 883f 9fa7 2ebf
00000380: 7d0f 53bf 4f22 68bf 70d7 03bf 93fe febe
00000390: 601a 60bf f24f 86bc 7d2b 37bf 8718 debe
000003a0: 6a1f 02bf 65c8 cbbe c5ac 5dbe 66d0 6fbe
000003b0: 1bba 9cbf 0e27 dd3d 43ff bebe 0d40 aa3e
000003c0: e8a3 c1bd 8238 ffbd 3d44 07bf 7636 e8be
000003d0: 196c 9dbf 29a0 d0be e93b e13e 1c99 e2be
000003e0: 7b0d 06be e00a f9be 9785 8bbe a164 55be
000003f0: 8477 44bf 536c cdbe b673 0dbe 1ee8 123f

fc3.weight f4 [128, 256]
-0.2903588 0.06457735 0.19673435 -0.20504947 0.49265772 0.5249419 1.0330249 -0.15102011
0.0155297965 0.11187579 -0.45174766 -0.15358597 -0.9415627 -0.82040256 0.12176649 -0.14847146
0.050847083 0.244983 0.32446402 -1.6001039 0.008767455 -0.046274554 0.6039595 -0.7193593
-0.3059721 -0.025678331 -0.86427855 0.32702234 0.3667813 -0.0036819414 -0.453939 -0.61747116
0.12895465 -1.2801055 0.5534967 -0.4769085 1.142338 -0.8399053 -2.2310395 -0.45636466
-0.92847383 0.6867138 -0.13814916 1.0118744 0.5549545 -0.4833163 0.9582951 0.37362072
0.34875214 -0.86177605 -0.24783856 -0.25062057 -1.4291818 -0.6096511 0.51723826 -0.62776023
0.9635495 -0.34428713 0.43115026 0.7415165 0.00531445 -0.26887006 -0.20144506 -1.581726
-3.431014 -0.041433334 -0.19011953 -0.8606148 0.26266575 -0.2695202 0.07050833 -0.051304214
0.112262465 0.17333949 0.21959417 -1.4633663 1.2216796 1.330343 0.075170904 -0.15967411
-0.30159777 -0.2544447 -0.06920238 -0.89690965 0.11733309 -0.082657024 -0.7200804 -0.28995287
0.040689796 -0.47513813 0.041415274 0.26680356 -0.097967006 -0.18611696 0.613835 3.5991223
-0.037646145 -0.43498227 -0.16374634 -0.13588011 0.22248024 0.62671673 0.15720183 0.2871716
-0.4567372 -0.05758881 0.9544183 0.70140886 0.04160551 -0.05928148 1.7387328 -0.028716158
0.66624546 -0.15348727 0.7652562 0.41915658 0.08003012 -0.6090029 0.26000196 -0.24367145
0.045179628 0.06615591 -0.4076501 0.8272762 -0.3025061 -0.33460706 -0.13602409 -0.58335406
0.07480359 -0.22298819 -0.21711653 0.038281996 0.80398047 1.1490569 -1.0649301 -0.4089279
-0.17689492 0.13837023 -0.016224116 -0.7828008 -1.180712 0.14080712 -0.71282166 -0.7572965
-0.9855524 0.80387175 -0.6112169 0.41082937 -0.02036121 0.16942762 0.22583543 0.19307272
-0.0012880904 1.6449034 0.22387187 0.3538167 -0.81065226 0.34758967 -0.950277 -0.02343277
-0.09556869 -0.077244475 0.5064602 -0.072605796 0.6639642 -0.5498329 -0.28769112 0.0255674
0.90184164 0.036007006 -0.042736657 -1.4565636 2.427775 -1.3025815 -0.06711173 -0.4519665
-0.54961383 0.041284576 0.25961867 -0.026582506 0.3110263 0.17823553 -0.21556525 -0.38507614
0.40410063 -1.790595 -0.47836322 -0.11029568 -0.41954252 -0.07661187 -0.119329564 -0.2213714
-0.68255204 -0.41851577 -1.1380332 -0.14113945 0.1462179 -0.21522954 -0.4843686 -0.10929476
0.6343237 -0.53804755 0.041954186 0.025089407 -0.3391662 -0.81784934 -0.041491907 0.08324413
0.9312381 -0.021014405 0.26322347 0.04105931 0.515561 0.0066760536 -0.010086496 1.3220046
-0.050955497 0.4459233 0.3929005 0.0108442865 -0.1366041 0.559608 -0.9233633 0.22849691
0.58612776 1.3602921 0.078736946 0.16783522 0.6298862 -0.23103997 -0.25205305 -0.17127931
-0.14094424 -0.3497585 0.74194425 -0.10622833 0.59675825 0.050249696 -0.5024942 1.0631409
-0.881504 -0.680933 -0.14324114 -0.2459502 0.6200248 0.1625472 -0.38930938 -0.22175097
-0.78954107 0.046482574 1.1151174 0.5913498 0.24852377 0.35257733 0.14843044 -1.8194921
00000000: e9a9 94be 2141 843d bb74 493e 7df8 51be
00000010: a23d fc3e 9862 063f 293a 843f 04a5 1abe
00000020: b070 7e3c 221f e53d 784b e7be a445 1dbe
00000030: 410a 71bf e705 52bf b660 f93d e708 18be
00000040: 0845 503d d3dc 7a3e 2620 a63e 34d0 ccbf
00000050: 5fa5 0f3c 638a 3dbd 179d 1a3f ee27 38bf
00000060: 60a8 9cbe 5d5b d2bc 5c41 5dbf 796f a73e
00000070: c2ca bb3e ba4c 71bb b16a e8be 9712 1ebf
00000080: b00c 043e 7fda a3bf f6b1 0d3f 5a2d f4be
00000090: 2238 923f 0904 57bf 5ac9 0ec0 a1a8 e9be
000000a0: 76b0 6dbf 7acc 2f3f f976 0dbe 1a85 813f
000000b0: 8011 0e3f 3c75 f7be d452 753f 374b bf3e
000000c0: a48f b23e 5b9d 5cbf 64c9 7dbe 5751 80be
000000d0: 6eef b6bf 1812 1cbf ba69 043f e5b4 20bf
000000e0: 2eab 763f 6746 b0be babf dc3e 06d4 3d3f
000000f0: d624 ae3b 56a9 89be 9d47 4ebe ff75 cabf
00000100: bc95 5bc0 00b6 29bd b2ae 42be 4051 5cbf
00000110: 207c 863e 8dfe 89be ac66 903d 5e24 52bd
00000120: dde9 e53d e87f 313e 4bdd 603e 964f bbbf
00000130: ff5f 9c3f ae48 aa3f 34f3 993d 9c81 23be
00000140: 066b 9abe 9346 82be fab9 8dbd df9b 65bf
00000150: 554c f03d 1648 a9bd 3057 38bf b474 94be
00000160: 58aa 263d 4e45 f3be 10a3 293d 7a9a 883e
00000170: eda2 c8bd 7295 3ebe 4a24 1d3f 0558 6640
00000180: d832 1abd ffb5 debe 1fad 27be 2824 0bbe
00000190: dcd1 633e 8270 203f 84f9 203e 2808 933e
000001a0: 75d9 e9be 3ee2 6bbd c254 743f 888f 333f
000001b0: 8a6a 2a3d 23d1 72bd cc8e de3f 263e ebbc
000001c0: 108f 2a3f c42b 1dbe d5e7 433f b19b d63e
000001d0: d5e6 a33d 9de7 1bbf fa1e 853e 0285 79be
000001e0: 460e 393d c07c 873d 84b7 d0be 5fc8 533f
000001f0: 14e2 9abe 9e51 abbe e649 0bbe b156 15bf
00000200: a032 993d 0457 64be cc53 5ebe 95cd 1c3d
00000210: aad1 4d3f 4c14 933f a14f 88bf ff5e d1be
00000220: f123 35be edb0 0d3e 70e8 84bc a265 48bf
00000230: 9221 97bf be2f 103e 7b7b 36bf 2fde 41bf
00000240: 294d 7cbf 8aca 4d3f b678 1cbf 3a58 d23e
00000250: 8dcc a6bc 6f7e 2d3e 6741 673e dbb4 453e
00000260: 24d5 a8ba 328c d23f ab3e 653e 7627 b53e
00000270: e886 4fbf 46f7 b13e 5a45 73bf 15f6 bfbc
00000280: 84b9 c3bd 5a32 9ebd 60a7 013f 59b2 94bd
00000290: 8ff9 293f d9c1 0cbf 404c 93be b972 d13c
000002a0: 18df 663f 157c 133d a20c 2fbd ad70 babf
000002b0: aa60 1b40 feba a6bf e071 89bd 2768 e7be
000002c0: 7eb3 0cbf 041a 293d bdec 843e 8ec3 d9bc
000002d0: d73e 9f3e 6083 363e 23bd 5cbe b328 c5be
000002e0: 47e6 ce3e 3832 e5bf 06ec f4be b4e2 e1bd
000002f0: 47ce d6be afe6 9cbd 0f63 f4bd 2faf 62be
00000300: bbbb 2ebf b347 d6be 12ab 91bf dc86 10be
00000310: 25ba 153e 2265 5cbe 29ff f7be eed5 dfbd
00000320: 0a63 223f 7cbd 09bf 27d8 2b3d 4d88 cd3c
00000330: 31a7 adbe 935e 51bf 6bf3 29bd e67b aa3d
00000340: 9f65 6e3f 6726 acbc 3ac5 863e cf2d 283d
00000350: cefb 033f ccc2 da3b d541 25bc 7237 a93f
00000360: b6b6 50bd 0f50 e43e 412a c93e 3cac 313c
00000370: f2e1 0bbe 7842 0f3f 8a61 6cbf 18fb 693e
00000380: 780c 163f 0d1e ae3f d640 a13d ffdc 2b3e
00000390: 3940 213f be95 6cbe 190d 81be d863 2fbe
000003a0: b053 10be 8c13 b3be 0ff0 3d3f 3d8e d9bd
000003b0: 26c5 183f a0d2 4d3d 76a3 00bf 0015 883f
000003c0: 3faa 61bf a051 2ebf cead 12be 5fda 7bbe
000003d0: f2b9 1e3f c672 263e 8f53 c7be b012 63be
000003e0: 5d1f 4abf 8364 3e3d 2bbc 8e3f b362 173f
000003f0: 047d 7e3e 0485 b43e 26fe 173e 1ee5 e8bf

fc3.bias f4 [128]
-0.34154984 -1.0226779 -0.5704156 -0.7181748 -0.5683567 -0.030833434 -0.61643237 -0.6699378
0.27925292 0.6246828 0.6402903 -0.93424743 -0.9921032 -0.8591382 0.38973117 -0.5718715
-1.0700495 -0.64874953 0.5348572 0.47117656 0.49757567 -0.59829915 1.2019604 -0.7587456
-0.21274811 -0.8734449 -0.34146538 -0.52351767 -0.84924734 -0.33689106 -0.4408494 -0.11358342
-0.42320165 -0.2239245 -0.94891816 -0.046553902 -0.4829437 -0.37082592 -0.15696248 -1.118459
-0.7192367 -0.66269034 -0.5556646 -1.1307219 -0.40162286 -0.5422396 -1.0444176 -0.7708703
0.8437632 -0.31593016 -0.8693737 -0.38684422 -0.60599285 -0.63267297 -1.006004 -1.009239
-0.7751125 -0.1906005 -0.15141037 -0.7202047 -0.1588591 -0.83063823 0.18912268 -0.51061064
-0.28494778 -0.8053128 -0.4113063 0.624848 -1.0716884 0.05770904 0.6737733 -0.45899138
-0.4853409 -0.5472575 0.16383843 -0.11623843 -0.6353822 -0.65012574 -0.3288488 -0.8769328
-0.28979293 -0.47019577 -0.8011141 0.5650464 -0.50067 -0.41986609 0.68522733 -0.2999971
-1.042958 0.41031513 -0.15927783 -0.74177986 -0.55951166 0.5846972 -1.0869011 -0.6715509
-0.038295258 -0.63922894 -1.1129179 -0.98869 -0.7621619 -0.9719777 -0.25854823 0.4618525
-0.72584647 0.02369231 -0.30015782 1.1042885 -1.0130731 0.5856313 -0.20404193 -0.5927035
-0.3783518 0.5026633 -0.020041065 -0.9268532 -0.8663063 -0.76165646 0.6146074 0.20615579
0.32183707 0.82610303 -0.25290665 0.48796317 -0.7816048 1.0888275 -0.9712653 -0.75007707
00000000: 9fdf aebe 1ce7 82bf c206 12bf 4eda 37bf
00000010: d37f 11bf 6696 fcbc 83ce 1dbf 0b81 2bbf
00000020: 3dfa 8e3e 36eb 1f3f 11ea 233f d72a 6fbf
00000030: 7afa 7dbf 7bf0 5bbf d88a c73e 2c66 12bf
00000040: 62f7 88bf 7314 26bf 67ec 083f 0e3e f13e
00000050: 3dc2 fe3e 222a 19bf d7d9 993f 273d 42bf
00000060: a4da 59be 169a 5fbf 8dd4 aebe 4105 06bf
00000070: 4668 59bf fc7c acbe 03b7 e1be 6d9e e8bd
00000080: e3ad d8be 774c 65be 4dec 72bf 4eaf 3ebd
00000090: 6644 f7be e5dc bdbe c6ba 20be aa29 8fbf
000000a0: e51f 38bf 13a6 29bf 0940 0ebf 7fbb 90bf
000000b0: 83a1 cdbe 37d0 0abf 7aaf 85bf c257 45bf
000000c0: dd00 583f 99c1 a1be 468f 5ebf 7210 c6be
000000d0: 5922 1bbf dbf6 21bf bdc4 80bf be2e 81bf
000000e0: c66d 46bf c72c 43be 520b 1bbe 565f 38bf
000000f0: f6ab 22be b5a4 54bf 60a9 413e 61b7 02bf
00000100: ade4 91be fb28 4ebf bd96 d2be 0af6 1f3f
00000110: 162d 89bf 5060 6c3d 687c 2c3f eb00 ebbe
00000120: 9a7e f8be 1119 0cbf 43c5 273e 6a0e eebd
00000130: 68a8 22bf a46e 26bf df5e a8be ab7e 60bf
00000140: bd5f 94be 80bd f0be d015 4dbf e2a6 103f
00000150: e92b 00bf b0f8 d6be 0f6b 2f3f 3899 99be
00000160: a67f 85bf d314 d23e ba19 23be 49e5 3dbf
00000170: 283c 0fbf b7ae 153f 931f 8bbf c3ea 2bbf
00000180: 7ddb 1cbd 82a4 23bf 1874 8ebf ca1a 7dbf
00000190: 0b1d 43bf 88d3 78bf 6f60 84be ee77 ec3e
000001a0: 13d1 39bf 6016 c23c 49ae 99be 5359 8d3f
000001b0: 61ac 81bf efeb 153f 5ef0 50be 6bbb 17bf
000001c0: 54b7 c1be 8bae 003f 292d a4bc 4046 6dbf
000001d0: 40c6 5dbf ebfb 42bf e956 1d3f 811a 533e
000001e0: d4c7 a43e 7d7b 533f fb7c 81be 4fd6 f93e
000001f0: 4117 48bf b35e 8b3f d8a4 78bf 0d05 40bf

fc4.weight f4 [4, 128]
0.021549752 0.08767105 0.09995526 -0.08654628 -0.271863 -0.014209929 0.60897803 -0.12398235
0.3262244 1.1213404 1.0440619 0.46285787 0.13568617 0.33666617 0.9583801 1.354726
-0.10088546 1.045668 1.0805691 1.1361425 0.97748065 0.6364925 1.1530645 0.251024
0.9386594 1.1411687 0.6199734 1.6779189 -0.07751307 1.4274167 0.65707046 1.3859185
-0.10398659 0.6749366 -0.17997175 0.63227093 0.4188339 1.0584782 0.28132027 0.47698256
-1.9122307 0.36499473 1.1671791 0.11410633 0.36708087 0.69951475 -0.13097596 0.9966731
0.922 0.32418916 -0.16098288 -1.7789502 0.6672043 0.6305431 0.94787014 -0.0015653423
1.3250111 0.30403632 1.2695707 -0.7737758 0.79540104 0.55223626 0.7119112 0.6168448
0.6469647 0.767379 -3.0581453 1.143273 0.46264827 1.6669285 1.097306 0.6550232
0.19143029 0.1728907 0.9415151 1.44559 0.5315332 0.6131042 0.72044873 0.7098159
1.036269 -0.8034726 0.8075162 1.0917361 0.3945653 -4.7784195 0.99027807 0.4737482
0.13054688 1.0717673 1.3989516 1.0918489 1.1623374 1.0859424 1.2714972 0.83875936
0.9842939 0.78636247 0.6142049 -0.054084145 0.4766893 0.12542419 0.35479948 1.2320435
0.31790718 -0.52406085 0.2964653 1.3917012 -0.08111121 1.0903069 1.1743327 0.48469037
-2.8762162 1.0124438 -0.41967952 0.13884586 0.6442949 0.9512084 1.1290189 1.5735568
1.2029462 1.1035559 1.5170144 1.0568864 0.33360526 1.5944641 -0.2040021 0.62586427
0.12757011 0.16279997 0.028935757 -0.034837734 0.041400976 -0.059232645 0.62146294 -0.81477845
0.45987177 1.2705148 1.1324152 0.55211544 -0.18661377 -0.10695069 1.0763197 0.76664746
0.07739618 1.0347662 1.0990528 1.1393642 1.1028817 0.64637697 1.3783989 0.0906702
0.9920599 0.9005598 0.6253317 1.3244894 0.048346665 0.7079803 0.5491923 1.5955286
0.23036622 0.82290876 0.28196725 0.31804475 0.8136102 1.007325 0.44429016 -0.1655863
-4.394649 1.0490896 -0.39758462 0.14688274 0.4849241 0.40082455 0.09293275 0.7258618
1.0844655 0.37828773 -0.008370778 0.5199186 0.39347428 0.22795603 0.79727465 0.016385263
0.8809667 0.0075611444 1.0681816 -0.7774334 0.67782235 0.9602227 -0.09824612 0.3944283
0.64338756 0.5457631 -3.197757 1.0821157 0.9130504 0.8673083 1.1286763 0.71069056
0.64084345 0.08603526 0.88048553 1.667889 0.3767077 0.5723733 1.0914485 0.5137086
1.3478688 0.45385826 0.5986569 1.0886494 0.63054943 -4.54798 1.2006524 0.7470313
0.09384554 1.1547394 1.4487766 1.1718876 0.9742177 1.0871781 1.070067 0.78357744
0.9076896 0.5291318 1.0768325 -1.0703691 0.7867491 0.029785462 0.6702892 1.2860688
0.80217683 0.026073053 1.0129551 1.3903208 0.25895184 1.1015799 0.55849737 1.4087282
-2.8928018 1.0837361 -0.0031948425 0.9965656 0.4564898 1.2588327 1.1209633 1.7014431
0.67745674 1.1057763 0.83465827 1.0794832 0.595922 1.6703187 1.2418299 0.032550365
00000000: 1b89 b03c e18c b33d 58b5 cc3d 2d3f b1bd
00000010: a131 8bbe c3d0 68bc fce5 1b3f 75ea fdbd
00000020: e206 a73e 1588 8f3f d2a3 853f b5fb ec3e
00000030: 51f1 0a3e 825f ac3e 6658 753f a967 ad3f
00000040: 099d cebd 73d8 853f 1750 8a3f 1e6d 913f
00000050: 2c3c 7a3f 2cf1 223f 9e97 933f 3886 803e
00000060: fc4b 703f d111 923f 94b6 1e3f 0cc6 d63f
00000070: 2cbf 9ebd 97b5 b63f c535 283f c765 b13f
00000080: ecf6 d4bd a5c8 2c3f 844a 38be 82dc 213f
00000090: 6671 d63e 377c 873f 3609 903e 0f37 f43e
000000a0: fac3 f4bf 97e0 ba3e 2066 953f 94b0 e93d
000000b0: 06f2 bb3e 6613 333f 901e 06be f825 7f3f
000000c0: 3108 6c3f 1ffc a53e b2d8 24be a4b4 e3bf
000000d0: e7cd 2a3f 466b 213f 9ea7 723f 2c2c cdba
000000e0: f799 a93f a6aa 9b3e 4b81 a23f 2c16 46bf
000000f0: 679f 4b3f 5b5f 0d3f d03f 363f 8ae9 1d3f
00000100: 7b9f 253f f372 443f a7b8 43c0 c556 923f
00000110: 3ce0 ec3e ea5d d53f 8674 8c3f 9aaf 273f
00000120: 4d06 443e 420a 313e 2207 713f 1809 b93f
00000130: 8f12 083f 66f4 1c3f 546f 383f 7fb6 353f
00000140: 76a4 843f 61b0 4dbf 62b9 4e3f 02be 8b3f
00000150: 7704 ca3e d0e8 98c0 dd82 7d3f 208f f23e
00000160: 15ae 053e ac2f 893f d910 b33f b4c1 8b3f
00000170: 79c7 943f 2900 8b3f 6cc0 a23f efb8 563f
00000180: affa 7b3f 0d4f 493f 883c 1d3f 5687 5dbd
00000190: 9f10 f43e 336f 003e 47a8 b53e 9ab3 9d3f
000001a0: bbc4 a23e da28 06bf 4dca 973e 4423 b23f
000001b0: a21d a6bd 2d8f 8b3f 8950 963f 5629 f83e
000001c0: ed13 38c0 c297 813f 3ce0 d6be 9c2d 0e3e
000001d0: 83f0 243f 6582 733f b183 903f 4f6a c93f
000001e0: 24fa 993f 5241 8d3f 872d c23f 0e48 873f
000001f0: 4fce aa3e 6617 cc3f ede5 50be a438 203f
00000200: bda1 023e 09b5 263e ae0a ed3c 03b2 0ebd
00000210: 1294 293d ee9d 72bd 3218 1f3f 5295 50bf
00000220: 5074 eb3e 3ba0 a23f fbf2 903f 7057 0d3f
00000230: ae17 3fbe f708 dbbd d8c4 893f 0243 443f
00000240: e381 9e3d 3873 843f c3ad 8c3f b0d6 913f
00000250: 3a2b 8d3f f678 253f 606f b03f 4cb1 b93d
00000260: a3f7 7d3f 168b 663f bd15 203f de88 a93f
00000270: 2707 463d 323e 353f de97 0c3f 483a cc3f
00000280: 1fe5 6b3e 26aa 523f 035e 903e c3d6 a23e
00000290: c248 503f 07f0 803f 007a e33e 748f 29be
000002a0: f7a0 8cc0 9148 863f 3690 cbbe 6e68 163e
000002b0: f947 f83e e038 cd3e 8753 be3d 14d2 393f
000002c0: c4cf 8a3f eeae c13e 9625 09bc 6319 053f
000002d0: 7675 c93e 4e6d 693e 311a 4c3f 633a 863c
000002e0: 0987 613f 7ac3 f73b 2dba 883f e005 47bf
000002f0: c485 2d3f 28d1 753f 4335 c9bd 82f2 c93e
00000300: 0cb5 243f 21b7 0b3f 0da8 4cc0 c482 8a3f
00000310: acbd 693f eb07 5e3f 7778 903f d1ef 353f
00000320: 510e 243f 4133 b03d 8067 613f 637d d53f
00000330: d5df c03e 0e87 123f 96b4 8b3f 6882 033f
00000340: f786 ac3f 1c60 e83e 9441 193f dd58 8b3f
00000350: b06b 213f 0d89 91c0 faae 993f 713d 3f3f
00000360: 1732 c03d 80ce 933f 8371 b93f 6a00 963f
00000370: 5566 793f a728 8b3f f5f7 883f 8898 483f
00000380: 585e 683f 2f75 073f a6d5 893f db01 89bf
00000390: 6468 493f a400 f43c 1398 2b3f e79d a43f
000003a0: 765b 4d3f 2897 d53c 83a8 813f 08f6 b13f
000003b0: 5695 843e 9200 8d3f aff9 0e3f 3551 b43f
000003c0: aa23 39c0 ddb7 8a3f 9060 51bb ec1e 7f3f
000003d0: 08b9 e93e 6e21 a13f ba7b 8f3f e3c8 d93f
000003e0: ce6d 2d3f 148a 8d3f 2aac 553f 812c 8a3f
000003f0: 588e 183f 01cd d53f 48f4 9e3f 8853 053d

fc4.bias f4 [4]
1.2134608 1.1508038 1.1232862 1.1628604
00000000: af52 9b3f 8a4d 933f d8c7 8f3f 9cd8 943f

ln1.weight f4 [256]
0.3756339 0.40807799 0.3932861 0.49627045 0.52201945 1.4147542 0.40081546 0.40993717
0.41900268 0.4651059 1.256997 0.4023372 0.538421 0.6584217 0.6343683 0.47844046
0.41773313 1.4080579 0.44882268 0.3080261 0.59288293 0.8394666 0.39728627 0.3759961
0.59322166 1.5126708 0.684405 1.0846763 0.44077715 0.46641105 0.4030103 0.4562289
0.4623648 0.72013724 0.25216097 0.43370765 0.29721314 0.37692636 0.4035962 0.45111015
0.39167762 0.6802086 0.3911303 0.4296326 0.25103658 0.8407949 0.36270005 0.45503783
0.46031025 0.43702075 0.20829746 0.37242526 0.5093409 0.3865842 1.1261983 0.38405895
0.6838476 0.2572793 0.30497506 0.3942212 0.82257026 0.3347043 1.9466908 1.4184344
0.45374987 0.5042584 2.6341217 0.6429575 0.35989794 0.3601745 0.38674223 0.5316521
0.58136845 0.37138486 0.2957351 0.6027472 0.4342947 0.49842384 1.1133369 0.4552869
0.788466 0.20082207 0.88965183 0.41763777 0.620004 0.38121262 0.75035447 0.10074126
0.5295175 0.30398345 0.42131224 1.0628434 0.525274 0.5688715 0.43205556 0.21841772
0.88095295 0.5992635 0.45726636 1.2577791 0.7372088 0.43634936 0.38151422 0.4265733
0.44492754 0.4310786 0.5764272 0.4377954 0.33741853 0.9195681 0.4578355 0.4603208
0.40326554 0.1559208 0.5543457 1.0177438 1.1554946 0.4177672 0.35162383 0.35933042
0.2673848 0.45746425 0.4901188 1.5126112 0.410195 0.41949654 0.41871133 0.96357495
0.30892175 0.44847456 0.24355716 0.3423526 0.46169153 0.37355363 0.402003 0.44025993
1.6528853 0.3628477 0.37452218 0.5011938 0.40729904 0.4218516 0.4435043 0.4723627
0.487309 0.5293961 0.20843878 1.0525526 0.45015776 0.19161385 0.48827922 0.32844412
0.44288442 0.26213896 0.39952627 0.35899812 0.16111065 0.8108047 0.41020542 0.46821815
0.4777366 0.73054767 1.0422146 0.4749303 0.43896 0.44113564 0.47295305 0.38278937
0.3849854 0.5671923 0.44926736 0.13926432 0.17315869 1.0800194 0.48241052 0.35980105
0.7763068 0.23988895 0.45672622 0.631194 0.32743895 0.26398864 0.583279 0.40243697
0.40914536 0.4144316 0.23050351 0.34653905 0.7500564 0.12794416 0.4123986 0.4119299
0.42901012 0.3947628 0.19453937 0.14836788 0.5116998 0.4254994 0.5210385 0.6033995
0.48597014 0.1641139 0.32696578 0.16469328 1.5547616 0.36592105 0.61170053 0.23227105
0.56762487 0.5477842 0.45951894 0.22239424 1.1158167 0.5868914 0.38493004 0.32507464
1.0311599 0.45490462 1.021007 0.27312315 0.54154503 0.34052888 0.2485183 0.80125356
0.6041445 0.43212914 1.1057779 0.23483373 0.35498235 0.92864776 0.51400805 0.30000338
0.42091668 0.34244788 0.37312284 0.34964597 0.21974516 0.45755154 0.39988428 1.935266
0.56780314 0.48343652 0.52091056 0.38193867 0.19575976 0.39244565 0.41089836 0.4303314
0.36923558 0.21522531 0.75351155 0.25133705 0.4390005 0.48389864 0.53835374 0.35008997
00000000: 1653 c03e 99ef d03e cc5c c93e 2917 fe3e
00000010: 11a3 053f aa16 b53f af37 cd3e 49e3 d13e
00000020: 8587 d63e 5c22 ee3e 47e5 a03f 24ff cd3e
00000030: f5d5 093f 538e 283f f665 223f 26f6 f43e
00000040: 1ee1 d53e 3e3b b43f 16cc e53e 99b5 9d3e
00000050: 2dc7 173f 48e7 563f 1b69 cb3e 9082 c03e
00000060: 60dd 173f 329f c13f 2b35 2f3f acd6 8a3f
00000070: 8bad e13e 6ecd ee3e 5e57 ce3e d696 e93e
00000080: 14bb ec3e ea5a 383f 3e1b 813e ee0e de3e
00000090: 522c 983e 7efc c03e 29a4 ce3e e9f7 e63e
000000a0: f889 c83e 2722 2e3f 3b42 c83e cef8 db3e
000000b0: de87 803e 563e 573f d2b3 b93e b8fa e83e
000000c0: c9ad eb3e 2fc1 df3e ee4b 553e 86ae be3e
000000d0: 2a64 023f 5dee c53e 4427 903f 60a3 c43e
000000e0: a310 2f3f 1dba 833e b125 9c3e 5cd7 c93e
000000f0: f793 523f 5d5e ab3e 2a2d f93f 428f b53f
00000100: e751 e83e 1417 013f 7395 2840 dd98 243f
00000110: 8b44 b83e cb68 b83e 1403 c63e 5a1a 083f
00000120: 90d4 143f 2826 be3e 976a 973e a44d 1a3f
00000130: e05b de3e 6931 ff3e d381 8e3f 5d1b e93e
00000140: e8d8 493f 4da4 4d3e 39c0 633f 9ed4 d53e
00000150: 95b8 1e3f 4d2e c33e 3b17 403f 6f51 ce3d
00000160: 758e 073f b8a3 9b3e 3db6 d73e 410b 883f
00000170: 5b78 063f 90a1 113f 6336 dd3e e5a8 5f3e
00000180: 2286 613f 5569 193f d11e ea3e e8fe a03f
00000190: b7b9 3c3f 2f69 df3e d555 c33e d167 da3e
000001a0: 8bcd e33e 56b6 dc3e bc90 133f b826 e03e
000001b0: 1fc2 ac3e d168 6b3f 6a69 ea3e 2baf eb3e
000001c0: d278 ce3e b4a9 1f3e 9ae9 0d3f 6e45 823f
000001d0: 3fe7 933f 95e5 d53e 0a08 b43e 28fa b73e
000001e0: a9e6 883e c138 ea3e daf0 fa3e 3e9d c13f
000001f0: 1405 d23e 40c8 d63e 5561 d63e d9ac 763f
00000200: fe2a 9e3e 759e e53e 0c67 793e d748 af3e
00000210: d562 ec3e 6c42 bf3e 56d3 cd3e c069 e13e
00000220: bf91 d33f 2cc7 b93e 5fc1 bf3e 3d4e 003f
00000230: 8089 d03e effc d73e ff12 e33e 86d9 f13e
00000240: 9180 f93e 8186 073f fa70 553e 0bba 863f
00000250: 147b e63e 6c36 443e bcff f93e d429 a83e
00000260: bfc1 e23e 1437 863e b58e cc3e 9ace b73e
00000270: 31fa 243e e690 4f3f 7206 d23e 4aba ef3e
00000280: e499 f43e 2c05 3b3f 4a67 853f 102a f33e
00000290: 5dbf e03e 88dc e13e e726 f23e f8fc c33e
000002a0: ce1c c53e 8433 113f 5f06 e63e 4e9b 0e3e
000002b0: 8350 313e 133e 8a3f 83fe f63e d837 b83e
000002c0: 0bbc 463f 73a5 753e 05d8 e93e ee95 213f
000002d0: 14a6 a73e 8529 873e c651 153f 380c ce3e
000002e0: 807b d13e 6130 d43e 1d09 6c3e 916d b13e
000002f0: b203 403f cb03 033e e925 d33e 7ae8 d23e
00000300: 37a7 db3e 5a1e ca3e 5435 473e c0ed 173e
00000310: c2fe 023f 0fdb d93e c762 053f 6478 1a3f
00000320: 14d1 f83e 790d 283e 0f68 a73e 5ba5 283e
00000330: 6e02 c73f 015a bb3e 6898 1c3f 76d8 6d3e
00000340: dd4f 113f 963b 0c3f 1146 eb3e 51bb 633e
00000350: 15d3 8e3f 843e 163f 8d15 c53e 2f70 a63e
00000360: 0cfd 833f 42e9 e83e 5bb0 823f ccd6 8b3e
00000370: b2a2 0a3f cd59 ae3e 957b 7e3e f41e 4d3f
00000380: 37a9 1a3f 0840 dd3e 218a 8d3f 4178 703e
00000390: 3fc0 b53e dcbb 6d3f 0896 033f 0b9a 993e
000003a0: 6482 d73e 5455 af3e f509 bf3e cc04 b33e
000003b0: e004 613e 3244 ea3e a2bd cc3e ccb6 f73f
000003c0: 8c5b 113f fe84 f73e 655a 053f 778d c33e
000003d0: 3f75 483e a3ee c83e 4561 d23e 6654 dc3e
000003e0: 720c bd3e 0664 5c3e 22e6 403f 40af 803e
000003f0: acc4 e03e 90c1 f73e 8dd1 093f fe3e b33e
