trained_models/checkpoint_ep2100.pth (torch, 416160 bytes, 14 tensors)

fc1.weight f4 [256, 8]
00000000: bf5d 22bc d5e6 6b3e c5cf c13e 8d80 013f
00000010: 79d4 373e 85f7 27bf 1af5 813e c8dc 5c3e
00000020: 5dfc be3d b772 5c3e c9dc f53e b5cf 243f
00000030: d0d3 ac3d d90c 16bf 29fc 813e 50b0 543e
00000040: cfd9 8abe ebc6 0e3e 18ee 243f 8124 c23e
00000050: 4d82 473d 0fa4 1cbd 14b2 513e b70b 213e
00000060: 6103 bbbe 9c5c d43d 784a a63d 9957 c3be
00000070: 7ba3 fa3c 64e7 11be a8e1 653e ba40 e4bc
00000080: 43a0 89be d7d9 693e 0ea9 f83e 9697 cf3e
00000090: 740f 4f3e f04f 01bf 76db 6e3e e6d6 b43c
000000a0: e6ef 5ebe e081 993e aee3 203f d02c 113f
000000b0: ecc1 d83d 3557 25bf b45a 663e 3412 193e
000000c0: 5bbf a53e d77b 933e c67a 863e b8d2 233f
000000d0: 6b99 a13e a468 b4bf e698 853e 6f38 973e
000000e0: 5c25 16bf 63d9 56ba 852f 583f 48d5 833d
000000f0: 2c0d 083d a6da 873e dbb9 8a3e 904a 5d3d
00000100: 78eb 00be 1553 293e 64c7 163f 05bd b53e
00000110: 5891 0d3e 4da2 10bf 2248 7c3e 5ef1 fa3d
00000120: f3a7 58be cd6a 623e aa44 123f ebe1 eb3e
00000130: 8719 213e 6d2b 09bf c0c0 6e3e 1061 ec3d
00000140: f2ee bd3c cdec 7b3e 65ce 073f 6692 0f3f
00000150: e551 2f3e de7f 63bf bd79 853e 122e 3b3e
00000160: aae4 bcbe e95c 2d3c 6bfc 263f 1b46 ae3e
00000170: aeff b5bc cbab 443f 3c6b 203e 3b34 86bd
00000180: 8bcf 3fbe 2a80 df3d 0744 1c3f 607c 213f
00000190: de45 113e a92b 6abe f4b7 653e e869 c83d
000001a0: 4509 32be 629b ce3c 022e 2f3f 9419 a23e
000001b0: 22b2 b03d a2c5 2a3e 48ed 413e f1bc 293e
000001c0: 5733 e43d 1809 b33e 76be ad3e 9040 2a3f
000001d0: a28d 3c3e 1eba a5bf 766c 883e c46f bf3e
000001e0: 8bde c03d 9945 7f3d 1334 2cbf c0a6 4dbf
000001f0: 150e b23d a962 9fbe c963 1f3f b60e 9e3d
00000200: b5fe f73e 9fdf b33e e3ea 443e c22a e63e
00000210: ea75 843e 0b8c b5bf 2799 863e 6976 4e3e
00000220: 5031 b2be 022a 053e c3e1 193f e54f 113f
00000230: ad07 3e3e 01d9 dabe 00be 733e ee4f 283e
00000240: aac7 aa3d 98d7 973e bba4 a53e c23d 163f
00000250: 573b 933e 98b7 90bf 3cfa 873e 7eb8 633e
00000260: 47f4 52be 2edb e33d 839e 053f d427 5d3f
00000270: 7bf8 cc3d a51a a33e 9f6d eebd 8bfc cb3d
00000280: ae34 5fbe 6d13 1a3e 2197 183f 0c1c c03e
00000290: 2973 e03c 409d b83d 806b 493e cfda 8a3b
000002a0: 2951 e7bd ad6c 603e 15be 003f ace5 9bbe
000002b0: 453c bb3d 8c1d 08bf e4d5 8e3e 4438 4d3e
000002c0: 4ff8 9bbd e9ce 6e3e 919d 1b3f cbba 173f
000002d0: 5744 cb3d 7eeb 03bf 37fd 703e ac51 f13d
000002e0: 1803 aabd af9e 333e d58e e43e f798 d9be
000002f0: a461 0c3e 38ff 16bf 497c b03e a0a8 0f3e
00000300: b1f0 71be 7a01 413e 07bb 1c3f f400 22bc
00000310: 68b1 07bd aa6a d2be c76e ff3e 6bfc bbbd
00000320: ac7d 163f e335 6d3e 0b74 48bf ec6f 4cbe
00000330: 7606 b43e 7d40 fbbe 6a8c 373e 82b4 2e3e
00000340: b25a e73e f348 8f3e c084 dfbf 946d b5bd
00000350: c56f 573e d7b9 e1bd 930b 033f 987e 7d3e
00000360: b183 56be a78a 313e a1b3 2c3f 691a 2c3f
00000370: ed25 223e 3bc0 ddbe 0bce 6d3e 897a 9c3d
00000380: b761 4f3e 5592 843e 29c7 ba3d 735b 8d3e
00000390: 3223 363e e98f b9be 2110 7c3e 13b2 cb3d
000003a0: 6e4c 773e f271 a83e a2da b53e 7512 113f
000003b0: 38fb 243e 5048 85bf 4078 863e bc45 023e
000003c0: e390 24bf 7d82 25bd a43d 753d 947f 05be
000003d0: ac75 a0bc 6c5b 0c40 ca89 c43c fe69 8ebb
000003e0: d209 cbbd 5b87 803e 9fa9 0a3f 85af f23e
000003f0: 5c94 0c3e 09d1 2abf 28b6 753e 4ea0 5c3e
-0.009910046 0.23037274 0.37853828 0.5058678 0.17952146 -0.6561206 0.2538231 0.21568596
0.09325478 0.21528135 0.48020008 0.64379436 0.084388375 -0.58613354 0.25387695 0.20770383
-0.271193 0.13943069 0.644258 0.37918475 0.04870825 -0.038242396 0.20478088 0.15727125
-0.36526015 0.10369226 0.081196725 -0.3815277 0.030595532 -0.14248425 0.22449362 -0.027862895
-0.26880082 0.22837006 0.48566478 0.40545338 0.20220739 -0.505126 0.23325905 0.022075128
-0.21771201 0.299819 0.6284741 0.56709003 0.10583863 -0.6458619 0.22495538 0.1494835
0.32372555 0.2880542 0.26265544 0.63993406 0.3156236 -1.4094434 0.26093215 0.29535243
-0.58650756 -0.00081958453 0.8444751 0.064371645 0.033215687 0.26534003 0.2709492 0.054026186
-0.12589824 0.165356 0.58897996 0.35495773 0.13824975 -0.5649765 0.24636891 0.122530684
-0.21157818 0.22111054 0.57136023 0.460708 0.15732394 -0.5358189 0.23315716 0.11541951
0.023185227 0.24602051 0.5304931 0.5608276 0.17121084 -0.88866985 0.2606944 0.18279293
-0.36893207 0.010581234 0.6522891 0.3403786 -0.022216644 0.76824635 0.15665907 -0.06552931
-0.18731515 0.10913117 0.610413 0.63080406 0.14186808 -0.22868218 0.22433454 0.09785825
-0.17386349 0.025220577 0.6842958 0.3166014 0.08627726 0.16676953 0.18938172 0.16575982
0.11142605 0.34967875 0.33934373 0.66504765 0.18413404 -1.2947423 0.2664525 0.37389958
0.09417447 0.062322233 -0.6726696 -0.80332565 0.08694092 -0.3112996 0.62261635 0.0771765
0.48436514 0.35131547 0.19230227 0.44954497 0.2587121 -1.4183363 0.2628872 0.20162357
-0.34803247 0.13004306 0.6011011 0.56762534 0.18557616 -0.42743686 0.23802948 0.16436741
0.08338864 0.29656672 0.32352242 0.58687985 0.2875621 -1.1306028 0.265581 0.22238347
-0.20600997 0.111257896 0.52194995 0.863889 0.100083314 0.31856266 -0.11642002 0.09960278
-0.2179744 0.15046473 0.59605604 0.37521398 0.027398663 0.09014368 0.19669914 0.00423751
-0.11294777 0.21916457 0.5029004 -0.30448663 0.09142355 -0.53170085 0.2789756 0.20040995
-0.076157205 0.23321117 0.607873 0.592694 0.09925144 -0.5153121 0.23534094 0.11783156
-0.08301371 0.17541002 0.44640222 -0.42499515 0.13709122 -0.5898318 0.34469822 0.14029169
-0.23626973 0.1884822 0.6122288 -0.009887923 -0.033128172 -0.41097003 0.49889204 -0.09179004
0.5878551 0.23165087 -0.7830207 -0.1996457 0.3516118 -0.49072638 0.17924657 0.17061046
0.45186383 0.27985343 -1.7462387 -0.08858791 0.2103873 -0.11021774 0.51189536 0.24755323
-0.20948674 0.17338048 0.6746159 0.672278 0.1583478 -0.43310723 0.2322313 0.07640559
0.20252119 0.25892892 0.09120018 0.27608833 0.17786863 -0.36242607 0.24615528 0.09946074
0.2415025 0.32899433 0.35518366 0.5666879 0.16111457 -1.0412693 0.26263618 0.12721914
-0.6428358 -0.040407646 0.05987324 -0.13036948 -0.01958736 2.19308 0.023991484 -0.0043461313
-0.099139825 0.25103268 0.5416507 0.47399536 0.1372847 -0.6672521 0.23995268 0.21545526

fc1.bias f4 [256]
00000000: 3766 303e 0beb 453e b911 a73d e170 0c3c
00000010: 363c 1a3e ead0 113e 2b1c 9f3e 2c10 8f3a
00000020: b27e 373e 1e86 0c3e 2da0 4f3e 0835 523d
00000030: 7203 e63d 4203 f93c 9e38 9a3e 7c6d 5c3d
00000040: a7b0 ab3e 34e8 063e 59b7 683e 6624 c23d
00000050: 7f50 df3d 5390 003e d7d7 0e3e e558 003e
00000060: 3ee2 b23a 30c3 773e 1d53 663e 3b64 d73d
00000070: 0a25 1f3e b585 8e3e a9a8 b6bd fc86 173e
00000080: 2fda 96bc 4a84 0f3e 6711 063e 6b75 b23d
00000090: 2225 e33d 1385 ff3d ed34 ae3e a615 1e3e
000000a0: c39f 6bbc e693 1c3e e2f2 dc3d 4678 313e
000000b0: 91f3 ac3e 9359 c7bd 609b a33c 14ea 6b3d
000000c0: ba9b a53e da12 033e a54b 033e 8e25 033e
000000d0: 6af6 e43c 69f4 0e3e 9b2f 263e 28b1 703e
000000e0: 3d48 953e 8cc9 263e 52f9 143c 3286 47bc
000000f0: cf83 1b3c 6395 6c3e 403f b73d 9f99 763e
00000100: 6ae7 7e3d 1898 58bc 5e64 3f3e 1440 c83d
00000110: 1a29 423c 40ab 1a3e 3e01 dc3d df22 393e
00000120: 79d1 a23d 24b2 da3d 5599 293e bb8a 8e3e
00000130: f428 313e ddb8 023e 1856 273e fd40 863e
00000140: d56b 333e 55b2 f23d 7e14 033e e07e 623d
00000150: 615e d93d 0174 113e fdef ae3d 7d45 803e
00000160: 1e3b 313e c895 a13e c254 93bd 2c83 3c3e
00000170: 9e00 1b3e ef5d 963d 697b 3b3e 629d 733d
00000180: 3a1f 623e a54b bd3d fa86 7e3e 0720 403e
00000190: b1e0 1f3e fe82 443d 2bca fd3b 55ea f03d
000001a0: d7fa d43d f94d 3c3e bc90 f33d 5302 233e
000001b0: 77ac b13d 6ce0 813c 8bc5 c83d e7ac d8bc
000001c0: 4db2 5a3d bbad 223e 8e31 1d3e a8a5 173e
000001d0: cc46 353e b6cd b53e 76a9 b33d ee2e d23e
000001e0: 5409 4a3e 49f8 1c3e 0f69 91bc 4d4c 41bd
000001f0: b411 263e 7f25 cd3d ea56 cd3e fb8f 3d3e
00000200: 07f1 043e b65f 0b3e 960d f43e 936a 783e
00000210: 58ba f63e 947e 633e ff9d 1d3e 1e2a 933e
00000220: afe6 873e 9a40 1d3e 2f41 6e3e 7b77 003e
00000230: b361 9f3d 1423 363e 5eeb a13e fd4b 6b3e
00000240: aab9 e23d 853d 443e 1d39 fa3d 61e5 093e
00000250: 5553 dc3d 8441 123e 6a78 293e 98a1 b8bd
00000260: 7cf0 3b3e be79 f23d a877 0c3e ca0a 0e3e
00000270: d08c 45bb 9a20 0f3e a362 233e 480c 3f3e
00000280: dbb8 fe3d d21f 883e 872a 433e 8e60 413e
00000290: 4e98 df3d a41b 403e 6769 623e 3ac6 763e
000002a0: 9977 043e c365 4a3e e5a8 343e 6db7 8d3e
000002b0: 46c5 dd3d bd87 1d3e 7c1d 3e3e e989 303e
000002c0: 373e 433e a47a 1a3e d2b5 bcbd 5128 253e
000002d0: 3b7f 173e 95d0 7c3e 937f 2a3e bcbd 383e
000002e0: a12d db3d e027 163e 4a06 283e 534a de3d
000002f0: d1ad 023f 37d9 933e ed96 0f3e 5a93 253e
00000300: eb7d 183d 71a9 5ebd 25fe 823d 8c32 b4bd
00000310: 485d 963e a266 d73d 9883 2b3e 0339 953d
00000320: d4b3 353e 8e7b 423e 37ec 863e ca36 2b3e
00000330: 0e26 823e ac98 3a3e 105b 2b3e 1ba6 d43d
00000340: 8db5 30bf e838 343e e244 733e 1a01 4b3e
00000350: 747b 7f3d 32fe 513d 6ab0 483e c667 903e
00000360: ec8b 473e cc97 be3d 39c2 103e ba46 e6bc
00000370: c56d e43d ee4d 993e 4f67 013e 8748 a93d
00000380: 4f77 543e cd45 493e f0ed 153d 29b1 9b3d
00000390: ce43 46be 599c 4d3d 9115 503e 3079 c1bc
000003a0: a522 2b3f 6a34 283e 6115 fa3d 83ae 483d
000003b0: 8823 233e bd51 fc3c 6015 7b3e ded8 523e
000003c0: 9388 7b3e d012 f83d 38fb e23d 851c b33e
000003d0: ed09 343e 03f6 093e e74e ee3d 3fb3 633e
000003e0: c21f 2c3e f2eb 3d3e 051f 253d 3f2b 0d3e
000003f0: 1a65 b43d 30a4 c53d 765c 543e b621 a03d
0.17226492 0.19327943 0.08157677 0.008571834 0.15062031 0.1423985 0.31076178 0.0010914854
0.17919424 0.13723037 0.20275946 0.051320106 0.11231126 0.030397061 0.3012132 0.05381535
0.33533213 0.13174516 0.22726192 0.09479599 0.10904025 0.12555055 0.13949524 0.1253391
0.0013647748 0.24195552 0.22492643 0.10517164 0.15541473 0.27836385 -0.08918888 0.14797586
-0.018414585 0.14015308 0.13092576 0.08713802 0.11091067 0.12476554 0.34024754 0.15437946
-0.014381352 0.15290794 0.10788514 0.17331037 0.33779576 -0.09733882 0.01997155 0.05759628
0.32345372 0.1280016 0.12821825 0.12807295 0.02794953 0.13960423 0.16229098 0.2350508
0.29156676 0.16287822 0.009092646 -0.012177991 0.009491875 0.23103862 0.08947611 0.2408204
0.062232412 -0.013219856 0.18690631 0.09777847 0.01185062 0.15104389 0.107424244 0.18079709
0.0795011 0.10678509 0.16562398 0.27840218 0.17300779 0.12765832 0.16341436 0.26221457
0.17521603 0.118504204 0.12800786 0.05529678 0.106137045 0.14204408 0.08541868 0.25053015
0.17307708 0.31559587 -0.07193901 0.18409413 0.15136954 0.07342135 0.18308796 0.059476264
0.22082224 0.09242944 0.24856177 0.18762217 0.15613057 0.047976486 0.0077450476 0.11763445
0.103994064 0.18389119 0.1189284 0.15918855 0.08675473 0.015854083 0.09803303 -0.026449634
0.053392697 0.15886585 0.15350935 0.14809287 0.17702788 0.35508507 0.087725565 0.4105143
0.19730121 0.15329088 -0.017750291 -0.047191907 0.1621769 0.100169174 0.40105373 0.18511955
0.1298257 0.1361073 0.47666615 0.24259405 0.48189044 0.22216254 0.15392302 0.2874307
0.26543185 0.15356675 0.23267053 0.12545578 0.077823065 0.17786819 0.31624883 0.22978206
0.11070569 0.19164093 0.12217925 0.13466407 0.10758082 0.14282805 0.1654984 -0.090151966
0.18353456 0.11839627 0.1371752 0.13871303 -0.0030143745 0.1397728 0.15955596 0.18657029
0.12437602 0.26586777 0.19059192 0.18884489 0.10917722 0.18760544 0.2211052 0.24099055
0.12936248 0.19765382 0.17642553 0.27679005 0.108286425 0.15383811 0.18565935 0.17240109
0.19066702 0.15085846 -0.09214367 0.1612866 0.14794628 0.24688943 0.16650228 0.18041128
0.107020624 0.14663649 0.16408649 0.1085402 0.5104647 0.2887666 0.14022417 0.16169491
0.03722946 -0.05436081 0.063961305 -0.087987036 0.29368043 0.105176225 0.16749418 0.07286265
0.1774438 0.18992445 0.26352093 0.16720119 0.25419658 0.18222302 0.16733956 0.103832446
-0.69027025 0.17599833 0.23756745 0.19824639 0.062373593 0.05126781 0.19598547 0.28204173
0.1948697 0.09306297 0.1413659 -0.028109897 0.111537494 0.29942268 0.12637065 0.082657866
0.20748638 0.19655533 0.036603868 0.0760215 -0.19361803 0.050197933 0.20320727 -0.023617357
0.6684974 0.16426244 0.12211109 0.048994552 0.15931523 0.030800695 0.24519873 0.20590541
0.24563818 0.12112963 0.110830724 0.34982696 0.17581911 0.13472752 0.11636143 0.22236346
0.1680899 0.18547037 0.040312786 0.13786028 0.08808346 0.09650457 0.20738396 0.0781893

fc2.weight f4 [256, 256]
00000000: 69f7 a03c 361b 453e b8af 9b3c b02d 71bd
00000010: 5fca 16bc 555d c13c d9b8 a53e 073a 95be
00000020: 1499 753e 699c 233d d068 113d 45e9 c23d
00000030: 3ba0 063e 74ff f7bb b51d 843d 3dce 40bf
00000040: e5f4 823e bde7 09be 0efe b53d eb23 b03e
00000050: cafd 92be af0d c4be 4d34 0d3e cde6 1abe
00000060: cb22 ecbe 8565 70be 5c91 f03e fcb5 c63c
00000070: 79d2 e2bd f5b5 d23c 1748 35be 289b febd
00000080: 6022 523e d5fc 9c3e 5fdb 62be c7cc 33bd
00000090: d40e da3d 1dfc 67bd f774 963f 9f7c b3bd
000000a0: 8d46 4e3e 13f9 57bd 0fa2 93be f644 613e
000000b0: 778a bcbe e011 d5be cffb b1bd 9e08 95bd
000000c0: b29c a6be f3f7 91be 8077 d4bd 8025 3abd
000000d0: 01f1 dabe 08a0 13bd be00 e83d 5dc5 073d
000000e0: c015 d13c b00c d93d 045f dabc b9ce aebe
000000f0: c555 873c 307c e73d 662c 043d 9221 5fbd
00000100: 219b 533c 5823 23be e85b 193e dd58 013e
00000110: f6ae 10bd 054e 45bd 7e4a 803e 9bb9 353e
00000120: 271c b7be e8ce 11be 576d ebbc a3f9 0dbe
00000130: 39df 9b3e aafd c23c b40c 12bd 31b9 79bd
00000140: d27b 90bd 7823 29bd 4158 5abf 05b0 3abf
00000150: 430f f4bd a698 c4bc f9a6 e1bd 9983 183e
00000160: 1c9a 323e 758e c53d 0995 1fbf 1f62 dd3c
00000170: 8670 c0bd deeb c73a 1dcb 0f3d 011b 98bd
00000180: 3f6c 6b3e ad55 e8bd 0b28 33be 8207 813e
00000190: 586a 8b3e 98d1 023f d45b a9bd c460 87bd
000001a0: a44e 8d3d e426 b1bd 4c69 77be d876 5dbe
000001b0: f209 bbbd cffc 88be 95b7 c9be a5ea 02bf
000001c0: 6b57 9b3e a3aa 0dbe c4da 863d e451 373e
000001d0: 8c53 093e fbdb 083f 65a6 e3bd bdd9 0dbe
000001e0: 8e55 a53d 498f 913d d690 f13d bba4 babd
000001f0: 035d 0abe 15c8 84bc a6ed 03bf 006e d33e
00000200: 32bb 2b3d bc21 c03d 1ec6 3bbf 80de 923f
00000210: 6e79 9abb a2bb 803c 93b5 3cbe 3609 673e
00000220: c72c ecbe e9c5 14be e1dc 553f 8dd2 e33d
00000230: 33d1 52bf 0a6d e43d c07f 183f 1999 96bf
00000240: 17b1 e13d 6ddf c7be 8cce 95bc 43f7 453e
00000250: 1ae9 793e 5f88 ad3d b549 42bc 9855 19bf
00000260: c5f9 163e e0ec 2c3e 6915 383d 2e76 c63d
00000270: ab92 5dbd 1389 013d 8218 2dbd 1686 60bc
00000280: 8924 0dbe 89be aa3f 968a b7bd c7c3 7a3f
00000290: 8cea eebd d8c1 f73e 0bc5 613e ddf5 253e
000002a0: c4d8 73be 46fd 0abf 4d82 163c 9b40 353d
000002b0: d276 94bd 8863 0f3e e6fc d9be 994f 05bc
000002c0: 3735 71bd e222 2abf cec7 cb3d 0f66 2cbe
000002d0: b063 283e de77 373f 5c25 49be 3b9f c43e
000002e0: 212f b73e 6cde 9cbb 4afe 073e 378a 0abe
000002f0: aa84 17bf 6a97 663f 33fc a3bd af65 293d
00000300: 050a 2abe a3c0 f6bd 38bb 9abd a718 08be
00000310: 1376 853f 2ffe c3bd 9758 1b3d 0079 a03d
00000320: 30d2 143d 7b85 a0bd 3092 aa3f fc7c 173c
00000330: 79c1 44bf 6739 c53d fd5c 223f 3344 703c
00000340: 456f 93be 4bbd f43c 55cd cf3d 60a5 953d
00000350: c02b a0bd eabb f9bd 8cd0 c0be 9530 f8be
00000360: 12be 543e 4b0b 57bb 142e 413c f34d d7bd
00000370: a7c2 d6be 8b19 52bd 7614 0dbc 53f1 8bbd
00000380: f7db 7c3d cc30 1bbe cf60 943c 2e01 52bc
00000390: acb3 25be 29bc d2bd abd7 083d ec48 bcbd
000003a0: 9eb3 20be b3da 903e 275b 513d 40c8 55be
000003b0: 8547 d3bd 8c00 603d 20d9 b63c 039f 0dbe
000003c0: 316d 3a3f 14c4 033d 4406 b6bd d3fd ce3d
000003d0: 07f8 f23c bd9f 39bb d0c3 9c3e 758b a43e
000003e0: 3c3f d23c b2ed 13be 4d05 e0be a04a 68be
000003f0: aeb9 543d 5d36 78b9 4d53 593d c0dc 5b3c
0.019649224 0.19248661 0.019004688 -0.05888146 -0.0092035225 0.023604074 0.3236759 -0.29145834
0.23984176 0.039944086 0.035500348 0.09517149 0.1314706 -0.007568294 0.06450979 -0.75314695
0.25577465 -0.13467307 0.08886348 0.34402403 -0.2870925 -0.3829169 0.13789482 -0.15127106
-0.46120295 -0.23476227 0.469859 0.024256699 -0.11075301 0.02572153 -0.17703281 -0.124319375
0.20520926 0.30661646 -0.22153996 -0.043896463 0.106473595 -0.05663692 1.1754445 -0.08764004
0.201441 -0.05272777 -0.28834578 0.21998963 -0.3682439 -0.416152 -0.08690607 -0.07277034
-0.32541424 -0.28509483 -0.10374355 -0.04544592 -0.42761996 -0.03604129 0.113282666 0.033147205
0.025523067 0.10598123 -0.026656635 -0.34142092 0.01652039 0.11302984 0.032268904 -0.054475375
0.012915404 -0.15931451 0.14976466 0.12631555 -0.035323106 -0.04817011 0.25056833 0.17746584
-0.35763666 -0.14239085 -0.02873866 -0.1386476 0.30443743 0.023802597 -0.035656646 -0.060967628
-0.07054867 -0.04129359 -0.85290915 -0.72924834 -0.119169734 -0.02399857 -0.11018176 0.1489395
0.174416 0.09646312 -0.62336785 0.027024327 -0.09396462 0.0015252789 0.035105813 -0.074270256
0.22990511 -0.11344466 -0.17495744 0.2520104 0.2722957 0.51101065 -0.08269468 -0.066102535
0.06899765 -0.08649996 -0.24161261 -0.21627367 -0.09132756 -0.26755378 -0.39397874 -0.5113929
0.30340132 -0.13834624 0.06584695 0.17902333 0.13410777 0.53460664 -0.111157216 -0.13852592
0.08072959 0.071074076 0.117952034 -0.09113451 -0.13512044 -0.016208688 -0.515345 0.4129486
0.04192657 0.09381434 -0.7334918 1.1474152 -0.0047141826 0.01571447 -0.1842864 0.22562107
-0.46127912 -0.14528622 0.8354016 0.11124144 -0.8235046 0.1115361 0.5956993 -1.1765472
0.11020105 -0.39037648 -0.018286966 0.19332604 0.24405327 0.08473276 -0.011858393 -0.5989623
0.14743717 0.16887236 0.044942293 0.0969051 -0.05409495 0.031624865 -0.0422597 -0.013703844
-0.13783468 1.3339397 -0.0896198 0.9795498 -0.1166583 0.4839008 0.22047822 0.1620707
-0.23813158 -0.54292715 0.00918634 0.044251066 -0.07249226 0.14002812 -0.4257576 -0.008136653
-0.05888864 -0.66459477 0.09950219 -0.16835807 0.16444278 0.7166728 -0.19643158 0.38402733
0.35778144 -0.004787257 0.13280597 -0.13529287 -0.59186804 0.9007479 -0.080070876 0.04135674
-0.16605385 -0.12048461 -0.075552404 -0.13290654 1.0426658 -0.09569966 0.037926283 0.07835579
0.036333263 -0.078379594 1.3325863 0.009246107 -0.76857716 0.09630089 0.6342314 0.014664697
-0.2879583 0.029875418 0.10146586 0.073069334 -0.07820845 -0.12194045 -0.3765911 -0.48474565
0.20775631 -0.0032813128 0.011790771 -0.105129145 -0.41945383 -0.05129389 -0.008610835 -0.06833138
0.061733212 -0.15155333 0.018112568 -0.012817664 -0.1618182 -0.10289795 0.033408802 -0.09193596
-0.15693519 0.28291854 0.05111232 -0.2087717 -0.10316376 0.05468802 0.02232033 -0.1383019
0.7282286 0.032169417 -0.08887914 0.10107007 0.029659284 -0.0028323971 0.30618143 0.32137647
0.025664918 -0.14446142 -0.43754044 -0.22684717 0.05193489 -0.00023671375 0.053057957 0.01341933

fc2.bias f4 [256]
00000000: 78c4 6c3e 1d35 a23b b4b8 7cbd cb67 313f
00000010: bb7a 3dbe 7274 f0be 702a 8bbd 0799 66bd
00000020: e9ba 07bf dfb0 76bd 49d9 853e 1588 c8bd
00000030: b4ee 71bb df07 dbbd 08a6 05be 1d3d 4c3d
00000040: 3f72 be3d e021 2d3c 75f4 22bf c6f7 92be
00000050: 516c ed3e c591 c53e 7035 39bc ae34 21be
00000060: 8aab cabd 2df4 19be aa96 e5bd 3abd ddbb
00000070: a3fa d63d 0e2e bb3d 445c afbe af5a 88be
00000080: efc4 9bbd a258 09bf 3642 a1bd bf68 a6be
00000090: ca60 4e3a a6d1 0dbf 6c9e 39bd 6f90 cbbd
000000a0: 71e5 19be ed49 83bc 1a1b 953e 366f 07be
000000b0: 9c64 62bc d436 2dbe 263d 83bd 967a 963b
000000c0: 8d64 b3bd c873 a1bd 65e6 55bd cc82 e0be
000000d0: fe38 d8bd fec5 e8be e4bd c5be 737d c0bd
000000e0: 2801 efbe a4d2 e43e bb16 c1bd a34c b1be
000000f0: 9ed2 c5bd ddab 40be bceb 16be c79d c13c
00000100: b695 abbd 574f 80bd 141a 0abf 5921 cdbd
00000110: f793 bcbd 2da9 c93c bfab 17be 8a35 89bd
00000120: 112a 7e3e 21d9 74bd 784a a8bd 3b55 083e
00000130: 4576 32bf 2dd4 17be 98ce 3f3d 3332 c6bd
00000140: 8914 ca3d 7a59 763d 03a9 d93e 4e19 09bd
00000150: b0f9 60be 063b 2bbc 7f62 fdbe 85a5 aa3e
00000160: 38a6 c13d c77e d93d 09f2 0dbe e26e 263d
00000170: 8305 6fbd 2e0f 303d 4d52 b4bd f86b f0bd
00000180: 38d4 04be 484f 333e c985 babe 8a0a c1be
00000190: f644 53be bc77 853e 75cc 8d3d 2be5 1cbd
000001a0: 350f a33e ea3b 93bd b64e 9cbd c3b6 11bd
000001b0: f117 f5be 730a 4b3e 3bcf 11bf e481 ef3d
000001c0: 8201 0a3d ebed 6bbd 80a5 13be d7ef 40bd
000001d0: 1d53 323d 04d4 cb3d 1fcd 1bbe 62b7 01bd
000001e0: 241b 423c ec27 00be 9650 673e fbe3 b5be
000001f0: 0ab8 8d3d 6659 47be dbb9 cebd 5f20 1abb
00000200: f150 38bf 3b08 533e bd12 14be 73d1 62bc
00000210: e2a9 aa3e 9cb1 b9bd 9974 dbbd ce11 e9bd
00000220: d30e c3be 9e47 d6bd 7aa9 29be 54f5 b1bd
00000230: f311 49bd 84b2 05bd 4d5c 5ebc 48f5 3bbd
00000240: 86d8 98bd a830 7e3e 3eaf 34be a5a1 07be
00000250: 77b0 323e 9f40 0cbe 3c75 04be cf01 fcbd
00000260: 9806 24be e057 2cbf 75a3 20be e6f6 543e
00000270: 59cb 25be e1bf 5bbd 1db9 e4bd 7a43 edbe
00000280: 6bb1 98bb 6afa 7ebd 67f6 ef3d 7b29 29be
00000290: 6ae2 81be 19e9 0cbf 4f96 5c3e 3d76 863d
000002a0: a0c4 56bc d821 e93d acdc cb3e e559 913e
000002b0: d59b bb3e a377 50bf 7b98 a8bd 15e6 143e
000002c0: 997b d3bd 6a3d a6bd 377c b5bd 079d c8bc
000002d0: 7b3d a13b 41fe 6a3f 226a a2bd b32f c2be
000002e0: 5ac1 e6bd 7415 2cbd cde3 8e3d d646 c7be
000002f0: 1e87 7d3e 6de4 e7bc 4945 6ebc 509a 793e
00000300: f144 2ebd c850 5d3c a549 8c3e 18dd 67be
00000310: 93e7 143f 6f1a 8b3d 5fcf 423d 99af 32be
00000320: 877c 2e3d 25f7 fcbe 6fd6 46bc d0d5 c5bd
00000330: baf7 3bbd c5d7 e9bd 9603 c7bc 0538 bcbd
00000340: 8c6a 7cbd 5c8b 31be c506 d33c 11dc 273d
00000350: e1e2 acbd c230 7bbd 2758 dabd 5e21 00be
00000360: f0bb 3dbe 3aa6 fbba f5dd 473e 823b efbe
00000370: 70d0 d2bd 68da f9be ca3d f53d 5613 0dbd
00000380: 5c55 fbbd 1eaa 623c 4018 26bf abed edbd
00000390: 747e 91bd 2dc4 b8bd 9e5e acbd 414a 2ebd
000003a0: c8de 0fbe adc9 ac3c e724 1abe 7477 cebd
000003b0: d09a 1e3f 5007 8b3e bda9 be3d 58eb f9bd
000003c0: 6d60 ddbd 5c29 acbd 39dd ffbd 37f8 e9bd
000003d0: a8d4 f63e ed99 c9bd b0be 5f3c ad4a 3abd
000003e0: 7d8d 4abe 48dd 55bf 1efe aabb 870a 713e
000003f0: 3dec 11bd d3ee 4cbd aede b2bd 25f1 0dbe
0.23121822 0.0049501793 -0.061699584 0.69299 -0.18503849 -0.4696384 -0.06795204 -0.056298282
-0.5301958 -0.06022727 0.26142338 -0.097915806 -0.003691596 -0.10694861 -0.13051617 0.04986297
0.092991345 0.010567158 -0.6365426 -0.2870466 0.463717 0.38587776 -0.011304244 -0.15742752
-0.09896 -0.15034552 -0.112103775 -0.0067669423 0.10497024 0.091396436 -0.3425008 -0.26631686
-0.076059215 -0.5365087 -0.07873957 -0.3250179 0.0007872699 -0.55398023 -0.0453171 -0.09939658
-0.15028931 -0.016026461 0.2912224 -0.13226017 -0.013817932 -0.16915447 -0.064081475 0.00459225
-0.08759413 -0.07883412 -0.052221674 -0.4384979 -0.105577454 -0.45463556 -0.38621438 -0.093989275
-0.4668057 0.44691956 -0.094281636 -0.34628782 -0.09659313 -0.1881556 -0.14738363 0.023634804
-0.083781645 -0.06265133 -0.5394604 -0.10016126 -0.092079096 0.024616802 -0.1481161 -0.06699665
0.24820735 -0.059777383 -0.08217329 0.13313763 -0.69711715 -0.14827032 0.046827883 -0.096775435
0.09867198 0.060143925 0.42511758 -0.033471398 -0.21970248 -0.010451084 -0.4948921 0.33329406
0.09455532 0.10619884 -0.1386186 0.04063309 -0.058354866 0.042983226 -0.0880476 -0.117393434
-0.1297158 0.17510712 -0.36430195 -0.37703353 -0.20631775 0.26067913 0.06923763 -0.03830449
0.3184754 -0.07189162 -0.076322004 -0.035574686 -0.47869828 0.19828205 -0.56956834 0.116946965
0.033692844 -0.057599943 -0.14418602 -0.04710373 0.043536294 0.09952548 -0.15214966 -0.031669028
0.011847291 -0.12515229 0.22589335 -0.35525498 0.06919868 -0.19467697 -0.10094043 -0.002351783
-0.71998507 0.20608608 -0.14460273 -0.013843882 0.33332735 -0.090670794 -0.107155986 -0.11380349
-0.38097247 -0.10462879 -0.16568556 -0.08689371 -0.049089383 -0.03264095 -0.013571811 -0.045888215
-0.074631736 0.24823248 -0.17644975 -0.13245256 0.17450128 -0.13696526 -0.12935346 -0.123050325
-0.1601814 -0.67321587 -0.15687354 0.2079731 -0.16190852 -0.053649787 -0.1116812 -0.46340543
-0.0046598217 -0.062250532 0.117169194 -0.1651973 -0.25368053 -0.5504318 0.21541713 0.06565521
-0.0131084025 0.11383408 0.39816797 0.28388897 0.36642328 -0.8143255 -0.08232208 0.14540894
-0.10326309 -0.081171826 -0.08861583 -0.024488939 0.004920659 0.9179421 -0.079303995 -0.37927017
-0.11267348 -0.042012647 0.06977043 -0.3892123 0.24758574 -0.028307164 -0.014542886 0.24375272
-0.042546216 0.013508029 0.27399936 -0.22642934 0.58165854 0.06792151 0.047561046 -0.17449798
0.042599227 -0.49407306 -0.012136086 -0.09659922 -0.045890547 -0.11418108 -0.024293702 -0.091903724
-0.06162505 -0.17338318 0.025760064 0.040981356 -0.08441711 -0.061325796 -0.10661345 -0.12512729
-0.18528724 -0.001919932 0.19518264 -0.46725088 -0.102936625 -0.48799443 0.11974676 -0.03444227
-0.122721404 0.013834504 -0.6488075 -0.11617597 -0.07104197 -0.090217926 -0.08416484 -0.042551283
-0.14049828 0.02109226 -0.1505314 -0.100813776 0.61954975 0.27154016 0.09309719 -0.122030914
-0.108094074 -0.08406326 -0.12493367 -0.11424296 0.4820912 -0.09843812 0.013656303 -0.045481373
-0.19780536 -0.83540773 -0.0052182814 0.23539172 -0.035625685 -0.050032448 -0.08733879 -0.1386152

fc3.weight f4 [128, 256]
00000000: 8979 c73d f9e7 8c3c baf0 a53c 7300 3f3b
00000010: 6185 0dbe 2708 16bf 2c6e 103e 3e22 023d
00000020: da7f 1cbf c10a b2bd c197 a4be 999e 9739
00000030: 87a0 1ebe bfc3 95bc fade a0bd ab7c 993e
00000040: 329d bfbe 3efe a43f c054 1ebf 67e7 12bc
00000050: 6e90 21bf 4457 99be 3144 973d a1cf e5be
00000060: b506 283e acd5 48be 1b06 33be 6718 633c
00000070: 419f 39bc 01a0 1abe 43a5 3dbf 478b 0abe
00000080: 4a81 e5bc c1da c9bd a4e7 b23d 9964 cbbe
00000090: e821 76be e483 e2be 279c d5be dd29 4b3d
000000a0: 6d10 87be 732e 92bd b046 013e 9e48 92be
000000b0: 72ac 2d3f e972 41be 07dc 7a3d 361f 56be
000000c0: d760 203e dffa 3f3e 1b58 25be 59ab 41bf
000000d0: c2f7 6fbe 08bd 103e 157f 21bf 2eb4 b1bd
000000e0: dc16 86bf 1b52 86be a39d cdbd 9422 f2be
000000f0: 7ed0 0fbd a3d7 14bf 2a1a e6be f2b6 0d3e
00000100: ffeb 25bf b086 29be 8f22 8ebf cd11 293e
00000110: 51de debe 06f3 78be 1002 3b3e ae5b 96be
00000120: 929d 213e 9eeb 1bbe 139d 4cbe a116 60bd
00000130: e80d f13e e74c 123e a530 95bd 7b2d a8ba
00000140: 5e6e 623d c54b c03d ffce c6be 373f 8fbe
00000150: 6552 6fbf 891f 2abe 4ff8 8c3c ab57 cc3e
00000160: 1180 1abf 9f5d 133f d372 ec3d 03a0 10bf
00000170: 145e 7abe 22fc cfbe 9acc 983d 3804 2e3d
00000180: 8011 c3bd fee2 d73e 2ed7 3bbd 00dd 1fbf
00000190: 5559 d3be 38fc 08be f9fc 68bd e8f4 2d3e
000001a0: 8a21 82be e539 9dbd f4d2 a1bb 15b4 fd3d
000001b0: cb02 1dc0 72fa 0dbf dfc1 673e 45ca a9be
000001c0: f624 41bf 94c4 033e a6f2 8dbe c782 a5bd
000001d0: 7fc8 d9bd c6cc 0cbf 4644 503e 7b1c 39be
000001e0: 3c09 5a3d 57d0 633b 87d9 d63d e941 26bf
000001f0: df03 0f3e bdf6 26be 844f 1c3e 0d3d 67bf
00000200: ea8b 123d 7fbc 773e ccb6 ffbd 6783 04be
00000210: b38b f53e 49f3 bb3d a21f ae3c 17a9 0bbf
00000220: 0e19 8ebe f542 e23d 04ce 0ebf 39a9 99be
00000230: e2e5 9e3d e547 babd 033e cf3d b0a9 963c
00000240: 7f1e 91bd 334b 9cbe 3162 c9bd dc17 3dbe
00000250: 71ea 43bf e6c0 88bd 6613 253e 6e10 c4bd
00000260: 4a17 ff3c fb02 efbe 3587 c0bc 0024 10be
00000270: cc9b a1bd 1495 aebd 2c88 8bbe 3aa1 a8be
00000280: 8878 1dbd 4117 9abd 4346 12be 0d12 4ebe
00000290: 0916 a6be b553 b93e a9b7 953c f08c 12bd
000002a0: 3c92 e73d b19d a6be 8e64 1bbe c1c0 94be
000002b0: 15d5 2d3f a672 46bf 81c5 033d b01d 27be
000002c0: ca41 d0bb 7848 593e f4d9 d43d 9858 dfbe
000002d0: ece3 563e 2d85 37bf ca7c 7d3d f271 cd3d
000002e0: 09ac ef3d 77b4 6bbd 4ec8 aabd 55b9 d1be
000002f0: 452a c93e 1c89 b73d 0f9d 54be ff57 733d
00000300: a203 0e3a bc4f c43d 57bd 0cbf e19e 08bd
00000310: 8236 5a3e 6dde dbbd 1f77 a3be 2cd4 a5be
00000320: 1cc0 39be 11e5 e8be 66d7 4bbc a43f 5e3d
00000330: 25fe 5fbd 0f4e a83e f5d2 49bd d9c4 90bd
00000340: 8fea ec3d 01ce babe 461a 24bf 5faa 353d
00000350: d5a9 053f c8e4 a6bd fc3f 8f3e f6a1 10bd
00000360: a097 cbbe cb77 28be 4b96 efbe e1cf 9bbf
00000370: 9b71 d43d 3766 12bf fdb3 103e ce47 cbbd
00000380: 2407 00be cc9d 00bd 1830 d2bc 078e 073e
00000390: de63 58bf 0d9c 0a3c 27f6 fbbd 60c7 5b3e
000003a0: 9237 fdbc 7deb 423f eaa0 823e 1d70 313e
000003b0: c3bc bebe 95ae e03e 170a 1a3d a117 34be
000003c0: 272b 723e 27e6 3c3e aeac 18be 4a9c f63d
000003d0: 8938 533e bf44 e5bc 9f80 acbe 5d88 4ebd
000003e0: a166 1a3d ba28 38bf 7039 a9bd e231 8cbd
000003f0: 065c e73d eaa1 183c ebb0 063d 1a6d a1bf
0.09739978 0.017200457 0.020256389 0.0029144555 -0.13820411 -0.5860619 0.14104527 0.031770937
-0.61132586 -0.086934574 -0.3214703 0.0002891913 -0.15490924 -0.018281816 -0.078550294 0.29977927
-0.37424618 1.2890089 -0.6184807 -0.008966303 -0.6311101 -0.2994939 0.07386053 -0.4488497
0.16408809 -0.1961276 -0.17482798 0.013860798 -0.011329473 -0.15100099 -0.74080294 -0.13529693
-0.028015751 -0.09856177 0.08735588 -0.39725187 -0.24036372 -0.4424125 -0.41720697 0.04960047
-0.2637972 -0.07137766 0.12624621 -0.28571028 0.67841256 -0.18891491 0.06124499 -0.20910344
0.15661941 0.18748043 -0.16146891 -0.7565208 -0.23434356 0.1413461 -0.63084537 -0.08676945
-1.0475726 -0.26234517 -0.100398324 -0.47292006 -0.035110943 -0.58141536 -0.44941837 0.1383932
-0.64813226 -0.16555285 -1.1104296 0.16510697 -0.4352899 -0.24311456 0.18262506 -0.2936682
0.15782765 -0.152266 -0.19981794 -0.05470908 0.47080922 0.14287148 -0.07284669 -0.0012830937
0.055281036 0.09389452 -0.388298 -0.27977917 -0.934851 -0.16613592 0.017208247 0.39910635
-0.60351664 0.5756473 0.115453385 -0.5649416 -0.2444995 -0.4062205 0.074609 0.042484492
-0.09524822 0.4216537 -0.04585951 -0.62446594 -0.41279092 -0.13377464 -0.05688188 0.16987956
-0.25416213 -0.07677058 -0.0049384777 0.123878635 -2.4532955 -0.55460274 0.2263255 -0.33162132
-0.7544702 0.12867957 -0.2772419 -0.080815844 -0.10633945 -0.5499996 0.20338544 -0.1807727
0.053231463 0.0034761631 0.10490709 -0.6494432 0.1396632 -0.1630506 0.15264708 -0.9032753
0.035777964 0.24193 -0.124860376 -0.12940751 0.47958145 0.09177262 0.021255318 -0.54554886
-0.2775349 0.11047927 -0.55783105 -0.3001192 0.077586904 -0.09095744 0.1011925 0.01839146
-0.07085895 -0.30526122 -0.09833182 -0.18466133 -0.76529604 -0.066774175 0.16120681 -0.09573446
0.031139035 -0.4668196 -0.023501972 -0.14076233 -0.07891044 -0.08524528 -0.27252328 -0.32935506
-0.038445026 -0.075239666 -0.14284615 -0.20124073 -0.32438686 0.36196676 0.018276053 -0.03577894
0.11307189 -0.32542184 -0.15175077 -0.2905331 0.6790326 -0.7751869 0.032170776 -0.16319919
-0.006355499 0.21219051 0.10393134 -0.4362228 0.20985383 -0.71687585 0.061886586 0.10031499
0.11702735 -0.05754515 -0.08338986 -0.4096171 0.39290062 0.089616984 -0.20763038 0.05941009
0.00054174114 0.095855206 -0.5497641 -0.033354644 0.21309856 -0.10735784 -0.3192682 -0.32388437
-0.1813969 -0.45487264 -0.012441492 0.05425991 -0.05468573 0.32872054 -0.04927345 -0.07068796
0.11568176 -0.36485294 -0.6410259 0.04435193 0.5221227 -0.08149105 0.27978504 -0.035310708
-0.39764118 -0.16451947 -0.46794352 -1.2172815 0.10373231 -0.5718722 0.1413116 -0.09925805
-0.12502724 -0.031400487 -0.025657699 0.13237773 -0.84527385 0.008460057 -0.12302809 0.21462774
-0.030910287 0.76140577 0.25513393 0.17327924 -0.3725339 0.43883196 0.03760728 -0.17587139
0.23649274 0.18447171 -0.14909622 0.120415285 0.20627035 -0.027986882 -0.3369188 -0.050423015
0.03769553 -0.71937144 -0.082629085 -0.06845452 0.11296849 0.009315947 0.032883566 -1.261142

fc3.bias f4 [128]
00000000: e356 bfbe b3c4 1ebf df9b 96be 3099 16bf
00000010: 40f2 3cbf ea53 33bc 83de 00bf 68da fe3d
00000020: 3116 87bc 7034 c2be eb1b 0bbe f943 37bf
00000030: 018d 26bf e2b2 13bf d1f8 86bd 3389 c0be
00000040: 531a 27bf a6b8 0fbf 2a02 ffbe 758d 1fbf
00000050: 9278 663e 219c 24bf 7b2b bd3e 4478 8fbd
00000060: fd2b 223d 0b7f 2fbf 54a4 6a3c e3ec 91bd
00000070: 7ae4 0cbf cd65 c1be 2f7e 763e 21ca ba3d
00000080: 0797 bbbe 6d7b 0b3e db29 333e d90e ab3d
00000090: f3bc 80bc 4a4c e73d fce9 49bf 860b f5be
000000a0: c6e6 6cbe b917 8cbe 8fb9 d5be d0c6 50bf
000000b0: 0051 36bf 3fc0 54bf 78c8 01bf 064b 13bf
000000c0: 420d 25bf b19a 26bf 814b 32be 3ba5 133e
000000d0: 8b62 01bf 8f6b 45bf aebb 23bf a2b3 33bf
000000e0: ee01 2bbe 14ab e6be e8e2 1ebe d92e 1bbf
000000f0: 8f24 4abf b0dd 84be 81d7 24be d2e2 19bf
00000100: bbf6 5a3e 6a7b 28bf 8d50 e13d ae98 7f3e
00000110: d199 2dbc 9730 b5be 3b66 8c3e 0fc8 d2be
00000120: ee4d 33be 4325 41bf 38da 46bb fbfd 33bf
00000130: a33e 2bbf 49f8 29bf c524 9f3e a068 c1be
00000140: 2aee 93bd 727d 23bf 19da 15bf ce42 913e
00000150: 3b83 283e 2bfe 1abe 426a 82be 8916 9ebe
00000160: 8366 553e c517 10bf cade 52bf 557e 99bc
00000170: 35f1 27bf b9e5 9d3e c2f8 24bf 4893 6b3e
00000180: 195c 39bf cd83 37bf 11d9 49bf 032a 303d
00000190: 4a09 c8bd 7f11 053e 6303 8a3e 1bcb 463d
000001a0: 220d 223d 434c 10bf 0eae 0dbf 8f5d 373f
000001b0: 6075 c7bd 98a9 d2be adc0 30bf df33 4b3d
000001c0: 73db 0dbe 18b8 8c3e 0ccd 983e 681e 69bd
000001d0: aa37 fbbe 698a 34bf f926 32bf 8937 29bf
000001e0: 1207 dbbe af1a 2c3f caf7 4abf 939c 32bf
000001f0: 1142 0ebf 408e 4ebe 7722 14be 3b07 8a3f
-0.37370977 -0.6201889 -0.29415795 -0.58827496 -0.73807144 -0.0109453 -0.50339526 0.124440014
-0.016490074 -0.37930632 -0.13584869 -0.71588093 -0.65058905 -0.5769483 -0.06590427 -0.37604675
-0.6527454 -0.56141126 -0.4980634 -0.6232522 0.22506931 -0.64300734 0.36947235 -0.07005361
0.03959273 -0.6855323 0.014321405 -0.07125261 -0.5503613 -0.3777298 0.24071573 0.09120584
-0.36638662 0.13621302 0.17496435 0.08352441 -0.015715098 0.11293848 -0.78872657 -0.47860354
-0.23134908 -0.2736185 -0.41743132 -0.81553364 -0.71217346 -0.83105844 -0.50696516 -0.5753635
-0.64473355 -0.6507979 -0.17411615 0.14418499 -0.5054099 -0.77117246 -0.6395825 -0.7019597
-0.16699955 -0.45052397 -0.15516245 -0.6061836 -0.78962034 -0.25950384 -0.16097833 -0.60111725
0.21383183 -0.65813315 0.11001692 0.24960586 -0.010595755 -0.35388634 0.27421746 -0.41168258
-0.17510197 -0.7544748 -0.003034247 -0.7030942 -0.6689245 -0.6639448 0.3108274 -0.37775135
-0.072231606 -0.6386329 -0.58535916 0.2837128 0.1645631 -0.1513602 -0.25471693 -0.30876568
0.20839886 -0.5628627 -0.823712 -0.018736998 -0.6560243 0.30839327 -0.64442074 0.23005402
-0.72406155 -0.7168549 -0.7884684 0.043008815 -0.09767397 0.12994955 0.2695571 0.04853354
0.039563306 -0.56366366 -0.5534371 0.71627134 -0.097391844 -0.41145015 -0.69044 0.049610015
-0.13853244 0.27484202 0.29843938 -0.056913763 -0.49065906 -0.705237 -0.6959072 -0.66100365
-0.42778832 0.67228216 -0.79284346 -0.69770163 -0.5556956 -0.20171452 -0.14466272 1.0783457

fc4.weight f4 [4, 128]
00000000: c93c 56be 52c1 a53e 3ef9 e83d f540 553d
00000010: c152 8b3e a251 3b3f ed18 e43d acc7 8c3f
00000020: a80b ec3e 2fbe 59be e8fd a43e 9bb6 cc3c
00000030: 17e5 af3d c938 9fbc a689 af3f 7860 7e3d
00000040: df39 34be 5056 0bbd 99b3 7b3e 1ab5 8fbe
00000050: 8a3c 7c3f 1164 663d a3fa 8f3f 3b4c 773f
00000060: 358b 693f bfff 973e 975b 693f 1656 783f
00000070: fa7e 6a3f 2d08 ba3e d2a1 6e3f 3930 c43e
00000080: c67b c03e f7a3 933f 85c8 5a3f 4023 823f
00000090: 5be6 bcbd 5233 7c3f f1cf f03e 75fe cb3e
000000a0: 8da5 103f 624e 9d3e 76db 9f3e 4b46 a63d
000000b0: 51cb 6c3e b5d6 92bd c490 143f b82d 203f
000000c0: dc41 383f c7e7 e03d d02d 873f 191f 633f
000000d0: 04f9 f83e 58b3 fa3d 18d3 043e 2054 843e
000000e0: cd61 8c3e 478d f7be 33dd 343f 1548 1b3e
000000f0: 097b e5bc 0001 0e3f fda3 053f 382d c53d
00000100: 3996 983f 98e9 6b3e 00c6 4d3f c824 9f3f
00000110: d2dc 4e3f 9906 a93e 1bc0 803f 3aa4 023e
00000120: 420e dc3e fd1a 033e c518 1e3f 1aa7 60bd
00000130: dda3 143f bee3 efbd 504f 603f 5916 dc3f
00000140: 2806 7d3f 12b4 d93d 0673 153f d9fb 673f
00000150: 112f 863f 6a8b d73e eabf 9c3f ec16 d43d
00000160: e39d 5d3f f465 473e f695 de3e 6146 2f3d
00000170: e927 c53c ee60 903f 1342 1f3f a019 6f3f
00000180: d7f9 be3d 04b0 62bd 56dd 2dbe ab42 3a3f
00000190: 2170 653f 5804 613f 1493 5b3f edd4 783f
000001a0: c115 873c fcec b2bd 0efe 8fbd 9f62 913f
000001b0: 950b c73d 9b87 80bf f40b 3c3d d0cc 363e
000001c0: 2104 293f 0d66 703f 03a0 843f 1141 5a3f
000001d0: 1c79 ba3d 5ea5 c9bc 212a 0e3e de6d f83d
000001e0: cf9c 7f3d 34ca c33f c7c3 a4bc 7e41 753e
000001f0: 5d7f d93e 8955 d6be f1fb 663f 1115 a23f
00000200: 814d e63e 6483 a1bd 9e1b 2a3f eb49 51be
00000210: f8b3 d8bd 98f3 3f3f 935e a33e e1e1 633f
00000220: 70ee 2b3f 7378 e5be b991 333f 45cc 553d
00000230: 3f18 d9bc acff 823e b70b 853f 95c2 c73e
00000240: 5fa2 663e def7 19bd f327 153c 28f5 923e
00000250: b050 693f 32da e8bc 3570 a33f c366 563f
00000260: be8f 513f 8e22 433e 0719 4d3f 64e5 3e3f
00000270: b746 5ebf 73fa be3e b8f6 743f 6696 753e
00000280: c462 a73e ba14 aa3f bdb9 603f cafc 2d3f
00000290: 2289 07bc 8e4f 6c3f 87a1 303e ac0c e43e
000002a0: 0810 dc3e af69 dd3e 2875 053f f333 a63d
000002b0: 718b 0f3e c364 943d dd09 c23e d2cb 1c3f
000002c0: f7a9 a93e 2a97 c23c 5ad0 653f 8a9c 5e3f
000002d0: e460 20bc 986f a1bd e546 50bd 672c aa3e
000002e0: 0efd 263f be68 1d3e 5db2 343f aa12 a83e
000002f0: 79fb 05bc b8bd 3a3f 58a0 da3e 015e 09bf
00000300: b19d af3f 7b00 8f3e ff9a 4e3f 8e7d 603f
00000310: 904a 493f d0b8 f63e 0676 6e3f 9380 ce3e
00000320: 1bfa 953e fb1a bdbd da47 313f 4520 24bd
00000330: a8b0 3a3f 9212 b33e 9734 763f ed53 d53f
00000340: 299a 563f b71a ea3e e411 e33d b55e 683f
00000350: b940 8c3f 5599 123f 7f6c 273f 2898 bd3d
00000360: d41d 5c3f ec02 833e b53c 96be 04e0 cf3c
00000370: 5760 a93c 30a5 8d3f b319 db3e e0ed 803f
00000380: b233 bc3c 76a9 8e3e 1a41 b23d acdc 5b3f
00000390: f4e6 2d3f 1e09 5e3f c8da 6f3f d6cd 843f
000003a0: 0c63 ed3e 4454 fdbd b0f3 b03e 5847 a33f
000003b0: 9bd0 713e 38c7 963f 0a07 1e3e 22f4 323e
000003c0: 883b 1a3f 7ddb 863f b68d 603f e610 6e3f
000003d0: 211d 823f 0907 41be c912 7ebe 2993 02be
000003e0: d91e c53e 7c47 ce3f 0f92 a63d f88c 023f
000003f0: e96e 933e fc90 e93e c783 3e3f fe2c b93f
-0.20921625 0.32374054 0.11375664 0.0520639 0.27211574 0.73171437 0.11137567 1.0998435
0.46102643 -0.21263956 0.32224965 0.024989417 0.08588617 -0.019436257 1.3713882 0.06210372
-0.17600201 -0.03401786 0.2458023 -0.28067857 0.98529875 0.056247775 1.1248363 0.96600693
0.9122804 0.29687306 0.9115538 0.97006357 0.916 0.36334363 0.9321567 0.3831804
0.37594432 1.1534413 0.8546222 1.0167007 -0.09223624 0.9851581 0.47033647 0.39842573
0.5650261 0.30723864 0.31222123 0.08118876 0.23124434 -0.07169858 0.58033395 0.6256976
0.71975493 0.10981708 1.0560856 0.88719326 0.48627484 0.12241238 0.12971151 0.25845432
0.27418366 -0.48349974 0.70650023 0.15164216 -0.02801277 0.55470276 0.5220335 0.096277654
1.1920844 0.23038328 0.8038025 1.24331 0.80805695 0.33012846 1.0058626 0.1275796
0.42979628 0.12803264 0.61756545 -0.05484686 0.58062536 -0.1171336 0.8762102 1.719432
0.9883752 0.10630049 0.58378637 0.90618664 1.0483114 0.42098552 1.2246068 0.103559345
0.8656904 0.19472486 0.43473786 0.042791728 0.024066882 1.127958 0.62210196 0.93398476
0.09324997 -0.055343643 -0.16978964 0.7275798 0.8962422 0.87897253 0.857713 0.971999
0.016489865 -0.087366074 -0.07030879 1.1358222 0.09719006 -1.0041384 0.045909837 0.17851567
0.66021925 0.9390572 1.0361332 0.85255533 0.09105131 -0.024614986 0.13883258 0.121303305
0.062405404 1.5296082 -0.020112885 0.23950765 0.42479983 -0.41862133 0.9022818 1.2662679
0.44981006 -0.07886389 0.6644839 -0.20438354 -0.10581201 0.7498107 0.31908092 0.8901654
0.671607 -0.44818458 0.7014423 0.05219676 -0.02650082 0.25585687 1.03942 0.39015642
0.22522877 -0.0375899 0.009103763 0.28702664 0.91138744 -0.028424356 1.2768618 0.8375055
0.8185996 0.1905615 0.80116314 0.7456877 -0.8682665 0.37300453 0.9568896 0.23983154
0.3269254 1.3287575 0.87783414 0.6796385 -0.008272441 0.9230889 0.17249118 0.44540918
0.4298098 0.43244693 0.5213189 0.08115377 0.14018036 0.07245781 0.3789815 0.61248505
0.33137485 0.023753721 0.89771044 0.8695761 -0.0097887255 -0.07882613 -0.05084886 0.33237
0.6522988 0.15371987 0.7058466 0.3282674 -0.008177632 0.7294574 0.42700458 -0.53659064
1.3719999 0.27930054 0.80705255 0.8769158 0.786294 0.48187876 0.9314884 0.4033247
0.29292378 -0.09233662 0.6925026 -0.040069837 0.72925806 0.34975106 0.96173996 1.6666237
0.8382898 0.45723507 0.11087397 0.9076951 1.0957252 0.57265216 0.65399927 0.09257537
0.85983014 0.25588167 -0.2934319 0.025375374 0.020675821 1.1066036 0.42793044 1.0072594
0.022973869 0.27863663 0.087038234 0.85883594 0.6793053 0.8673266 0.9369321 1.0375316
0.4636463 -0.12369588 0.3456092 1.2756147 0.23614733 1.1779547 0.15432373 0.17475942
0.6024709 1.0535733 0.87716234 0.92994535 1.016514 -0.1885034 -0.24811853 -0.1275145
0.38500097 1.6115565 0.08133327 0.5099635 0.28795555 0.45618427 0.74419826 1.4466856

fc4.bias f4 [4]
00000000: 2d1c 813f 2385 803f 3afc 6f3f b24d 823f
1.0086724 1.004063 0.9374424 1.0179961

ln1.weight f4 [256]
00000000: 30ba f43e ab00 d73e 7abb 6a3e 5b5e 303f
00000010: 37c3 ce3e b6ad c33e ed65 a63e d7fb e53e
00000020: 42d2 ce3e cb3d dc3e 1da5 dd3e f09f 663e
00000030: b9c2 a43e f40b 073f 2ed0 c03e ac98 823f
00000040: b0bf f63e 1469 a73e 7cb8 e63e 8d1f b33f
00000050: f03d 983e 5334 0a3f e3bb ea3e 9478 273f
00000060: 3991 2b40 0d1f 943f 06d9 e13f 3ce9 dc3e
00000070: db65 3e3f 2edc cb3e 8610 f33b cffc bc3e
00000080: abac 2a3e 954b 0a3f 10dc e43e b0ce a73e
00000090: 2d33 243f 7e04 c53e 83fe 5a3f bebd ea3e
000000a0: 46de 583e cbcd f03e 5e6d de3e 64bc e13e
000000b0: dd49 c33e 8002 c33d b818 bb3e d4ac 9e3e
000000c0: 760f 4f3f c842 a43f 6e07 cb3e 583b 9e3e
000000d0: cfc4 ba3e 5766 ec3e 8707 e53e 1909 3b3f
000000e0: f199 c23e 842d e23e 69d0 3d3e 30fc 393e
000000f0: fe2b a03e e05c e23e 4402 f63e 244d d23e
00000100: 5c78 283e 17e8 0b3d 61f0 d93e 3e81 f53e
00000110: 1265 5f3d af99 d83e 1003 673f 69a1 c43e
00000120: 9a42 fd3e 25af 1b3f cfb5 db3e 0e35 ce3e
00000130: 0417 5a3f 9c8c ce3e 1f3b c33e 726a cc3e
00000140: b5bc b23e 44a1 f43e bd1f c53f a3ff e63e
00000150: 0df6 da3e bdb0 ed3e 9900 a83e abe6 e93e
00000160: 2b05 c03e 09ad ba3e f722 b13f ee00 d43e
00000170: d63f b23e 1fe9 1c3f bf15 eb3e 34ed 8a3e
00000180: 0784 d13e 8b3b 953e c6d8 053f aa5d e13e
00000190: 9351 f93e 6217 6a3f 51eb b53e 3c8e db3e
000001a0: c95a c43e d84e c33e a00c 793e 8ba4 bd3e
000001b0: 43b2 9a3d 43fe 4a3e b756 cb3e e297 233f
000001c0: 7208 683e 3fb9 fd3e 3a16 b43e f4da f73e
000001d0: 0d7e f43e 30d3 6b3f 1dff a53e cd3d 8c3f
000001e0: d8af e43e 172c 203f 1fc1 c83e d176 e43d
000001f0: 9dcc c13e 828d a73e 694d 983f dc88 283f
00000200: 1319 d13e 5918 b83e b474 ae3f 6cd8 843f
00000210: 291a cc3f 9f59 f43e 2637 ea3e dbf9 693f
00000220: e495 233f 4079 e53e 244b 5e3f e039 b93e
00000230: b384 d83e d01f d53e 389a 193f 61d8 873f
00000240: 825b c83e 36a3 0f3f 2f85 ba3e e68b e13e
00000250: c7fd d63e 526a ec3e 0f03 e53e 1f20 e43e
00000260: 8599 d83e 0764 b63e d18c d03e 9c9a ce3e
00000270: 94b2 463e a9a5 db3e 00d7 f03e 1ab2 e33e
00000280: 0b53 b73e 7e78 723f 1223 d13e 15a8 793f
00000290: 5ebb 2f3e fb9f 293f bbda 9c3f 40a1 e53e
000002a0: 97dc 823e ef2d f33e dbfb bd3e b2d7 be3e
000002b0: 5e89 f63e b541 c43e 3f34 cc3e 7fa7 ba3e
000002c0: c7ff ec3e d3cb 0c3f 2b35 9c3d 8ae7 d93e
000002d0: 0629 d63e a3ed 933f 3b6d 983e bfe0 ed3e
000002e0: 38b0 9d3e d0f1 cf3e dd32 da3e a792 ea3e
000002f0: cd3b 623f 15a6 643f da91 d93e dee9 cb3e
00000300: 4a31 8d3e 39cf 013f d123 ae3e 7dc1 b63f
00000310: b350 ce3e 19fe a43e 31ec ff3e 0c49 523e
00000320: 8a73 e73e 4718 d03e a7ba 973f 7739 d13e
00000330: 3526 053f 1a40 bf3f bfe1 743f 2476 c73e
00000340: 419b 363f 6b9d e63e 5de1 993f 200e ee3e
00000350: 975e 883e e50b e83d 556f cf3e 1bfb a23f
00000360: 0eab e63e 1d71 b63e cecf d93e 1801 0c3e
00000370: 220b 9b3e 1404 eb3f be82 f73e 72a8 ca3e
00000380: 2b53 f33e e558 613f b6a1 bc3d 423d cf3e
00000390: ec68 1840 d18d d03e 037f dd3e 4ad6 c13d
000003a0: 11e8 c53f 60b2 d13e abb7 c23e 1243 a63e
000003b0: 9873 db3e ba5b f73e 01f1 ce3e 8e66 e33e
000003c0: 5d07 5b3f 39ca cf3e 7f24 b13e fd5b e83e
000003d0: 8166 f33e cf73 a03e 0761 f23e 2f6d e13e
000003e0: f9d7 ed3e c02e ed3e aa7e ae3e 6249 ad3f
000003f0: 3df6 893e d34f cf3e 3e64 f83e 0886 893e
0.477983 0.41992697 0.22923079 0.68893975 0.40383312 0.38218468 0.32499638 0.449187
0.4039479 0.43015894 0.43290034 0.22521949 0.32179812 0.52752614 0.37658828 1.0202842
0.4819312 0.32697356 0.45062625 1.3994004 0.29734755 0.5398609 0.4584647 0.6541836
2.6807387 1.1571976 1.7644355 0.43146694 0.7437417 0.3981642 0.007417741 0.36911628
0.1666743 0.5402158 0.44699144 0.32774878 0.6414059 0.3847999 0.85544604 0.45847887
0.2117854 0.47032008 0.43442816 0.44089043 0.3814229 0.09521961 0.36542296 0.30991232
0.80882967 1.283288 0.39654106 0.3090465 0.36478278 0.4617183 0.44732305 0.73060757
0.38008073 0.4417535 0.18536533 0.18162608 0.31283563 0.44211483 0.48048604 0.4107448
0.16452163 0.034156885 0.42566207 0.47950166 0.054539748 0.4230475 0.9023905 0.38404396
0.49464875 0.60814124 0.42912146 0.40274853 0.8519137 0.4034165 0.38131043 0.3992496
0.34909597 0.47779286 1.5400311 0.4511691 0.42765847 0.46423903 0.32812956 0.45683798
0.37503943 0.3646014 1.3838795 0.4140696 0.34814328 0.61293215 0.45915028 0.27134097
0.4092104 0.2914699 0.52283895 0.44016773 0.4869505 0.9144193 0.35531095 0.42881954
0.38350514 0.3814609 0.24321222 0.370396 0.07553532 0.19823556 0.39714596 0.6390363
0.22659472 0.49555394 0.35173208 0.48409235 0.4775242 0.9211912 0.32421198 1.095636
0.44665408 0.62567276 0.3920984 0.11155475 0.3785142 0.3272515 1.1898624 0.6583383
0.40839443 0.35956076 1.3629365 1.0378547 1.5945483 0.47724625 0.457452 0.91396874
0.6390059 0.4481907 0.86833405 0.36176968 0.4228874 0.41625834 0.60000944 1.0612909
0.39132315 0.56108415 0.36429736 0.44052047 0.41990492 0.46174866 0.44728896 0.44555756
0.42304626 0.3562319 0.40732434 0.40352333 0.1940406 0.42899826 0.47039032 0.44471818
0.35805544 0.94715106 0.4084707 0.975221 0.17161319 0.66259736 1.2254251 0.44849586
0.25558922 0.47495982 0.37106213 0.37273937 0.48151678 0.3833138 0.3988361 0.36455914
0.46288893 0.5499851 0.076273285 0.42559463 0.41828173 1.1556896 0.29770836 0.4646053
0.30798507 0.40614176 0.4261693 0.45815012 0.883725 0.8931592 0.42494088 0.39826864
0.27576667 0.5070682 0.340117 1.4277798 0.40295944 0.3222511 0.49984887 0.20535678
0.45205337 0.40643522 1.1853837 0.40864155 0.52011424 1.4941437 0.9565696 0.38957322
0.7133065 0.45041975 1.20219 0.46495152 0.26634666 0.11330394 0.40514627 1.2732881
0.4505238 0.35633174 0.42541355 0.13672292 0.3028193 1.836062 0.48341936 0.3958164
0.4752439 0.8802627 0.092105314 0.40476424 2.381404 0.40733197 0.43260965 0.094647005
1.5461446 0.40956402 0.38030753 0.32473046 0.4286163 0.4831217 0.40418246 0.4441418
0.8555811 0.4058397 0.34598157 0.4538268 0.47539142 0.31338355 0.4733965 0.44028613
0.46453837 0.4632473 0.34081012 1.353802 0.26945677 0.4049059 0.4851398 0.2686007
