trained_models/checkpoint_ep300.pth (torch, 416142 bytes, 14 tensors)

fc1.weight f4 [256, 8]
000000 d3 db 8c be 1c c2 2d 3c d5 46 9a 3d 7b f4 87 bc
       -0.27511463 0.010605361 0.075330414 -0.01659607
000010 56 d2 d9 3c 56 a2 eb 3d 53 df e5 3e 46 d1 45 3d
       0.026589554 0.115055725 0.44896945 0.04829528
000020 82 3a c4 bd 9c 67 14 3e 49 3a 9c 3d 04 89 c2 3c
       -0.09581472 0.14492649 0.076283045 0.023746975
000030 1f e6 11 3e d2 89 84 3d 84 a7 67 3e ac 43 d9 bc
       0.1424794 0.064716 0.22622496 -0.026521526
000040 02 0f b1 3c 2f 2f 9a be 70 7e c3 3e f4 7a 47 be
       0.021613602 -0.30114123 0.38182402 -0.19480497
000050 9e d0 a5 3b 09 7b 93 3e 58 fa 14 bd 91 e0 87 3d
       0.0050602695 0.28804806 -0.03637156 0.066346295
000060 38 d8 db bd ed 41 f2 3d 30 0c ac 3d a6 30 30 bc
       -0.107346 0.118289806 0.08400762 -0.010753786
000070 8e 09 0a be 07 17 96 3e 20 a5 83 3e d6 25 b5 bc
       -0.13480207 0.29314443 0.25711918 -0.022112768
000080 58 d5 1b 3e 98 70 d7 be 84 fd c6 3d ed d7 ae bd
       0.15218103 -0.4207809 0.09716323 -0.08537278
000090 49 1f 3b 3e fa 5a d9 3d a7 91 2c 3d 9f 6a 37 3e
       0.18273653 0.106130555 0.042131092 0.17911766
0000a0 82 e2 86 3d e5 d0 8c be a2 08 92 3e 13 56 96 be
       0.06586172 -0.27503124 0.2852221 -0.29362544
0000b0 88 ff 79 3e 4e 89 1b be f8 80 e3 3d b8 13 af 3c
       0.24413884 -0.15189096 0.11108583 0.021371707
0000c0 9e 3e 19 be b7 29 b3 3d 27 ab 60 3e ac 25 ad 3d
       -0.14965293 0.08748191 0.2194029 0.08454451
0000d0 1a 5a 13 3e 06 c2 7e 3c a7 ac 56 3e ee a7 b9 bc
       0.1438984 0.0155491885 0.20964299 -0.022663083
0000e0 09 ea 56 bd 12 ac 4a bc 27 41 8b 3e 45 b1 04 be
       -0.052469287 -0.012370126 0.27198145 -0.12958248
0000f0 79 36 fa 3d 5b 66 41 3d d0 6e f3 3d 2c 81 c9 bd
       0.12217421 0.047216754 0.1188637 -0.09839091
000100 27 67 49 bd 58 1b 40 3e 87 7d db 3d 45 48 8e bd
       -0.04917064 0.18760431 0.10717302 -0.06947378
000110 d1 4f 07 3e e6 08 e3 3d 41 c6 4a 3e 29 62 0d be
       0.13214041 0.110856816 0.1980219 -0.13806976
000120 9a 11 98 bd 31 e0 07 be 00 67 22 3d 40 6e 18 3e
       -0.07425232 -0.13269116 0.03964901 0.14885807
000130 13 76 09 bf 4f 52 b7 3e 18 3d 96 3e 43 54 44 3e
       -0.5369579 0.35804984 0.29343486 0.19172768
000140 12 3d 03 be 48 db 05 3e 7f bf 63 3e 52 0a 74 3c
       -0.12816265 0.1307193 0.22241019 0.014895039
000150 de 1f ee 3c 72 d3 0d 3e 75 1c 40 3e 20 33 7f 3c
       0.02906793 0.13850191 0.18760855 0.015576154
000160 ef 09 a7 bd b3 e5 17 3e e7 9d ca 3d 9a a6 8a 3b
       -0.081561916 0.14833717 0.09893399 0.0042312862
000170 9f d3 ab bb c5 63 45 3e 2e 43 2d 3e fe 12 be bc
       -0.005243733 0.1927634 0.16920158 -0.023202416
000180 0a 18 38 3e ad d0 f0 3c 91 ea 63 be 87 e2 c0 bc
       0.1797792 0.02939638 -0.22257449 -0.023545517
000190 59 05 80 3e b8 77 15 bd 8e 8a 66 3d 0d 2d 37 bb
       0.2500408 -0.036491126 0.05628448 -0.0027950436
0001a0 ff 25 b4 3e af 18 9a bd 25 6a 28 3e d3 4a 5c be
       0.3518524 -0.07524239 0.16446741 -0.21512918
0001b0 99 a9 f3 3e 30 9c fb 3c f0 61 c6 bc 4d f1 d2 3d
       0.4759033 0.030714124 -0.024216622 0.10299931
0001c0 b3 e0 82 be 8c 53 8e 3a 66 1a 68 bd 8c 64 de 3e
       -0.25562057 0.0010858639 -0.0566658 0.43436086
0001d0 75 4a 3e 3e 1d 29 70 be 9d 20 e5 3d 82 6e 8e bd
       0.1858309 -0.23453183 0.11187861 -0.069546714
0001e0 30 15 33 bd a9 65 8f 3d cd c8 40 3e 7d 88 1e 3e
       -0.043721378 0.07001812 0.188266 0.15481754
0001f0 b8 cf 10 3e e3 b1 31 3d 6d 17 c9 3d 0f b7 01 be
       0.14141738 0.043382537 0.09818921 -0.12667488
000200 90 45 2f bd 25 9b 28 3e b9 0f 84 3d 78 97 25 3c
       -0.04279095 0.16465433 0.06448311 0.010106914
000210 a5 43 ce bc 0d 55 4c 3e 00 de 73 3e a9 d3 63 bd
       -0.02517874 0.1995432 0.23815155 -0.055621777
000220 1f d6 56 bc dc 8f c0 be 19 8d a3 3e 09 9d 7a be
       -0.013112574 -0.37609756 0.31943586 -0.24473967
000230 52 e4 93 3e 31 7a a9 3d e7 c9 7a 3e 0f 7f d6 3c
       0.28885132 0.08275259 0.24491082 0.026183633
000240 ad 40 69 bd 36 a3 31 3e 88 b9 bc 3d d1 b1 b3 ba
       -0.056946445 0.17347416 0.09215075 -0.001370961
000250 a0 c1 29 3c 30 78 98 3e 76 cd 8d 3e cb 30 3a be
       0.010361105 0.29779196 0.27695817 -0.18182676
000260 d3 b4 a9 3c 63 2a 3b 3d 07 42 bd bd 88 46 ce be
       0.020716107 0.04569472 -0.09241109 -0.40288186
000270 0e fe c4 3e 38 f0 7a 3e 8f 1f 26 3d af 3a c6 bd
       0.38475078 0.24505699 0.04055744 -0.09679162
000280 b2 c9 42 bd 8f f8 f7 bd 97 1e c1 bd 6f 40 48 3e
       -0.047555633 -0.12107956 -0.09429663 0.1955583
000290 db 83 15 bf f8 1f 0c 3f 5c 44 03 3e 45 1a 07 3e
       -0.5840432 0.5473628 0.12819046 0.13193615
0002a0 7d fe 89 be b5 2d c4 3d a0 a2 cb bd 7f 58 8f 3e
       -0.26951972 0.095790304 -0.09943128 0.27997205
0002b0 1c d6 2e be 91 c7 1c 3e dc 31 8f 3e a1 d6 7b 3c
       -0.17073864 0.15310504 0.27967727 0.015370996
0002c0 6b 57 a6 bd b7 97 87 3e d2 94 37 3e 28 1a c5 bd
       -0.081221424 0.26482937 0.17927864 -0.096241295
0002d0 e5 4b 5e 3e fd 9b c2 bc 75 e4 fa 3c e5 91 32 be
       0.21708639 -0.023756022 0.030626515 -0.17438467
0002e0 85 ea 9e bd 4e 10 0b 3a 75 ff 0f 3e 51 92 07 3e
       -0.07759575 0.0005304859 0.14062293 0.13239409
0002f0 d9 0c 2c bd de 23 71 3e 39 7f 58 3e 69 4f 1b be
       -0.04200444 0.23548838 0.21142282 -0.15167011
000300 7b c2 3f be 7c f8 26 be 2c 5f 4d bd fd bb b1 be
       -0.18726532 -0.16305727 -0.05013959 -0.34713736
000310 fb 2e 2f 3e 2a 6e 9f 3e 5e 1e 62 3c 3e 50 ae 3d
       0.17107765 0.31138736 0.013801185 0.08511399
000320 e5 0c a2 be 2b 3c 51 3d 74 24 3f bd 74 32 d8 3e
       -0.31650463 0.05108277 -0.046665624 0.42225993
000330 03 6f c1 bd e1 6c 14 bd 8e 5b c8 3e 54 ff f0 bd
       -0.09445002 -0.036236648 0.3913235 -0.1176745
000340 f9 f3 df bd 7f 56 93 3e 5e 4f 35 3e e0 76 f6 bb
       -0.10935206 0.2877693 0.17706057 -0.007521495
000350 e1 54 90 3d 51 db 1e 3d 3c 1e 14 3e 1a 4e 3e be
       0.07047439 0.038783375 0.14464658 -0.18584481
000360 55 a3 c8 bd a7 2e 68 3e 01 f3 e3 3d 4d f2 da bb
       -0.09796778 0.22674046 0.11130334 -0.0066817165
000370 34 49 f0 bc e1 ad 54 3e 6b 01 10 3e 93 3a ac bd
       -0.029331781 0.20769455 0.14063041 -0.0840961
000380 3f ba 0a bd 63 1b 74 3e 14 26 db 3d b1 57 c3 bc
       -0.033869024 0.23838572 0.10700622 -0.023845525
000390 60 5f 15 bd d3 84 59 3e d1 74 02 3e 9d c1 0a be
       -0.03646791 0.21242075 0.12739874 -0.1355042
0003a0 c8 7c 92 3d fe 85 42 3d 26 5e c8 3c 3e 26 9c b8
       0.071527064 0.047491066 0.024458956 -7.445783e-05
0003b0 24 fd a3 be 28 93 dd 3c 81 a8 f8 3d 1d 4a a2 3d
       -0.32029068 0.027047709 0.121415146 0.07924292
0003c0 b6 2d 28 be e0 cc 01 3e a7 2c fd bd 29 d8 03 3e
       -0.16423687 0.1267581 -0.123620324 0.12875427
0003d0 0a 2e ab bd 37 53 26 3e d3 1a 2e 3e 09 76 11 3c
       -0.08358391 0.16242681 0.1700242 0.008878239
0003e0 08 45 32 be 56 e4 31 3e eb 7e df 3d b7 fc 56 3c
       -0.17409146 0.1737226 0.109128796 0.013121775
0003f0 4a 1d b4 3d 04 ad 0b 3e e5 f8 76 3e a2 70 3c bd
       0.08794649 0.13640219 0.24118383 -0.046005853

fc1.bias f4 [256]
000000 7c 12 11 3c 8f dc a0 bc c6 0e 36 3d bf c7 81 3b
       0.008854505 -0.01963642 0.044447683 0.003960579
000010 99 5a 9d 3d e8 97 85 bc 65 62 b1 bc e9 a2 74 bd
       0.07683296 -0.016307786 -0.021653363 -0.059725676
000020 bf 98 85 bc 9c 9f cc 3d 10 37 c5 bd 66 78 3e bd
       -0.016308187 0.099913806 -0.09629643 -0.04650154
000030 fa 6f a0 bc 02 b8 b1 3d 24 a0 d1 bd 1d af d6 bd
       -0.019584645 0.08677675 -0.102356225 -0.10482619
000040 85 06 12 bd db 40 51 ba b9 b8 cc bc 8c e0 22 3c
       -0.03565075 -0.00079823815 -0.024990426 0.009941231
000050 27 e1 04 3e 46 f0 41 bd d1 8d 0f be 5c 98 5d bd
       0.12976514 -0.047348283 -0.14018942 -0.05410038
000060 06 84 07 3d 50 39 21 bd 28 d2 40 bd 77 0c 96 bd
       0.03308489 -0.039361298 -0.04707542 -0.07326596
000070 67 3e 95 bd c3 a2 a5 bc f3 a6 d5 bc 03 32 d9 bc
       -0.07287293 -0.020219212 -0.026080584 -0.026513105
000080 97 67 1b bd 97 94 37 bc 33 cc a0 bd a4 8c e0 3d
       -0.037940588 -0.01120486 -0.07851448 0.10964325
000090 be 6a e5 3d 76 c3 a7 3d a7 7d c6 bd ad 5b 81 bd
       0.11202 0.08191578 -0.09691935 -0.06316314
0000a0 f3 13 48 bd 1e cc bb bd d2 20 f2 3c 38 f7 d6 bd
       -0.04884715 -0.09169792 0.029556666 -0.10496372
0000b0 4d ef a5 bd d3 1a 1f 3b ef 9a 31 be 91 e6 c7 bd
       -0.081022836 0.0024277463 -0.17344259 -0.09760774
0000c0 d8 48 6e bd 16 a5 8c bc f4 0f d1 38 46 93 51 3d
       -0.058174938 -0.017168563 9.968868e-05 0.05116584
0000d0 b2 05 fe bc 80 b0 97 bd e0 ea eb 3b 39 46 d2 bc
       -0.031008575 -0.074067116 0.00719963 -0.02566825
0000e0 10 c9 ad bc 29 70 c6 bd d8 bc 9c bd 7e 4d 67 bd
       -0.021214038 -0.096893616 -0.076532066 -0.056470387
0000f0 32 ce 41 3c 9c e6 d2 3c 7d 5f 4b bd a0 95 b2 bb
       0.011828946 0.025744729 -0.04965161 -0.0054499656
000100 ae 8c 85 3d f3 bd 5a bd d9 0b 33 bd f7 0c 3d bd
       0.06520973 -0.053403806 -0.04371247 -0.046154942
000110 f1 47 80 bd fa 93 23 bd 7c 1c 75 3c ea b1 67 bd
       -0.06263722 -0.039936043 0.0149604045 -0.056566156
000120 8e e0 25 be 0e 81 42 3c f9 ba 4e 3e a0 8f 8c bd
       -0.16198942 0.011871589 0.20188512 -0.06863332
000130 4b 41 9d bd a3 2e b2 bc cb e3 80 bd 89 12 c5 bc
       -0.07678469 -0.021750754 -0.06293448 -0.02405669
000140 a4 f7 88 bd 22 b4 29 bd 27 88 58 bd a7 76 1b bc
       -0.06687859 -0.041431554 -0.05286422 -0.009488738
000150 6c 11 13 3d 95 09 ee 3c 0f 08 dc 3b c0 90 01 be
       0.035905287 0.029057303 0.006714828 -0.12652874
000160 05 4c 4e b9 e1 b3 98 bd ff ec 15 be b7 7a 95 bd
       -0.0001967401 -0.07456184 -0.14641188 -0.072987966
000170 95 10 1e bd aa 07 04 be 42 3f e3 bc 14 26 f6 bd
       -0.038590033 -0.12893549 -0.027740125 -0.120189816
000180 82 f7 81 3a 21 00 91 3c 5a 97 5e bd 24 f4 01 bd
       0.0009915682 0.017700257 -0.05434356 -0.03172697
000190 17 18 b5 3c 58 96 25 3d 89 e3 be 3d 19 40 8b bd
       0.022106213 0.040426582 0.09320743 -0.06799335
0001a0 40 32 05 3e d6 8c 9d bd 56 6c 49 bd e9 af a3 bc
       0.1300745 -0.07692878 -0.049175583 -0.019981341
0001b0 5c b5 6a bc b5 50 cb bb 30 71 15 bd c1 b2 d5 bb
       -0.014325466 -0.0062046894 -0.036484897 -0.0065215533
0001c0 93 5a 06 bd e1 bc 4c be c9 be 2e 3e de a6 34 bd
       -0.032801222 -0.19993927 0.17064966 -0.04410445
0001d0 a5 07 9a 3c 3a e1 55 bb 07 99 9d bd 45 dd 5a bd
       0.018802473 -0.0032635466 -0.07695203 -0.053433675
0001e0 e6 d1 4c bd db 17 17 bd 94 c5 a2 bd 42 96 be 3d
       -0.050004862 -0.036887985 -0.07947841 0.09306003
0001f0 f2 80 f2 3d 01 c4 1c bd 6d 22 26 bd a6 06 d5 bd
       0.118410006 -0.03827286 -0.040560175 -0.10401659
000200 ce a8 15 3d 93 a1 5f bd 23 4e a5 ba 95 28 33 bd
       0.036537938 -0.05459745 -0.0012611788 -0.043739874
000210 89 a1 b6 bd 31 0a b0 bc a8 9d 49 bd ec c1 25 bd
       -0.08917529 -0.021489235 -0.04922262 -0.04046814
000220 31 b8 7e bd 40 4e 09 bd bc b2 81 bd a8 76 08 be
       -0.062187377 -0.03352189 -0.06332919 -0.13326514
000230 f9 56 4d bd e2 09 dc bc 67 1f 18 bd 2e a9 91 bd
       -0.05013177 -0.026860181 -0.037139323 -0.071123466
000240 10 36 bc bc 9f 17 28 bc 49 c6 2b bd 77 33 9e bd
       -0.022974998 -0.010259538 -0.041937146 -0.0772466
000250 65 00 71 b9 f9 7d 8b bd cc c6 7f 3d 37 3c 48 3d
       -0.00022983698 -0.06811137 0.062445447 0.04888555
000260 cc 44 56 bd ea 85 92 bd 2e 5f 41 bd 93 ff 6f bd
       -0.052311704 -0.07154448 -0.04720991 -0.058593344
000270 39 4c 84 bd af 9f 9e bd 46 bf b6 bd ee be 0d be
       -0.06459851 -0.07745301 -0.08923201 -0.13842365
000280 aa 09 e8 bd 98 ef 0e bd 4b 5b 22 bd 40 37 8b bd
       -0.11329968 -0.034896463 -0.039637845 -0.067976475
000290 c6 9c 38 be b7 a6 6f bd e2 d1 3a bd 9e 62 59 bd
       -0.18028554 -0.0585086 -0.045610316 -0.053072564
0002a0 bc 7a 8e 3a 1d 95 6e 3c be 25 17 bd 59 06 52 3c
       0.0010870318 0.014561919 -0.036901228 0.012818896
0002b0 eb 36 4c bd 65 c1 5a bd 0a 95 e4 bc 75 8e 65 bd
       -0.04985706 -0.05340709 -0.027903099 -0.05604406
0002c0 9c 86 e1 bc b1 a0 98 bd 0f a6 00 bd d2 56 5c 3d
       -0.027530007 -0.074525245 -0.031408366 0.053793736
0002d0 bf 77 bb bc 7d d1 2a 3d 7a a0 9b 3b 4f 05 80 bd
       -0.022884248 0.04170369 0.004749355 -0.062510125
0002e0 f3 f4 f3 3d bc 98 b7 3d c8 61 00 bd c2 33 c1 bd
       0.11911955 0.08964679 -0.03134325 -0.094337
0002f0 97 7e 51 bd 17 13 f6 bc 56 ca 78 bd 0b 21 34 bd
       -0.051146116 -0.0300384 -0.060739838 -0.043976825
000300 c8 eb 9d 3b 9a e1 61 bc 7a 58 f8 3b d1 80 7d bc
       0.004819367 -0.013786698 0.0075789066 -0.015472607
000310 ec 53 23 bc d0 b5 87 bd 36 d1 95 bd f6 91 07 bd
       -0.009968739 -0.06626475 -0.073152944 -0.033098184
000320 e1 02 fe bd 63 7a 01 3e c1 8e 8a bd e3 64 03 bc
       -0.12402893 0.12644343 -0.067655094 -0.008019659
000330 fe 77 8a bd 77 0d 19 bd 7b 44 06 bd 02 ad 6f bd
       -0.06761168 -0.037366357 -0.03278015 -0.058514602
000340 23 51 c1 bc b0 26 80 bd b9 ec ff 3b 1a 99 f9 bc
       -0.02359826 -0.06257379 0.007810202 -0.030468512
000350 56 20 d0 bc 29 30 0a be 9d 0c 85 bd cd 53 94 bc
       -0.025406044 -0.13494934 -0.064965464 -0.018106366
000360 82 dd 10 3d 8c 82 4c bd 4d ad cf 3d f1 2e a4 bd
       0.035367496 -0.049929187 0.101404764 -0.08016766
000370 08 bb 84 3c 2f cf 18 bd 5d 83 f0 bc 49 c9 e1 3c
       0.016202465 -0.03730696 -0.029359514 0.0275618
000380 1d 3c 37 3e f2 fd 58 bd e9 24 61 bd f9 7e 79 bc
       0.17894025 -0.052976556 -0.05496684 -0.015228027
000390 b2 9b 95 3d 9a 64 43 bd 9f ea 4a bd e3 85 76 bc
       0.07305087 -0.047703363 -0.04954016 -0.0150465695
0003a0 86 dc 06 bd 8d dd 22 3c c2 83 01 3d be 2c 5c bd
       -0.03292515 0.009940517 0.031619795 -0.053753607
0003b0 1a b6 ae 3d d0 c6 43 bd 05 62 af bd 11 6c 93 bd
       0.08530827 -0.047797024 -0.085636176 -0.071983464
0003c0 c7 64 c4 3c df bb 2f be f8 99 2a bd 51 79 ce bd
       0.023973836 -0.17161511 -0.041650742 -0.10081733
0003d0 c2 43 11 bd c7 44 2a bd 36 cf 07 3e 4a 2f 14 3c
       -0.03546501 -0.041569497 0.13262638 0.009044478
0003e0 68 dc 70 3d e1 22 39 bd c7 01 85 3d d9 c7 08 3c
       0.058803946 -0.04519928 0.064944796 0.008348429
0003f0 7b 43 a5 bd 1f 36 1e bd 59 01 de 3d 0e 1b 87 bc
       -0.080695115 -0.038625833 0.10840101 -0.016492393

fc2.weight f4 [256, 256]
000000 36 00 f2 3d 28 eb de bc 6e 5f 22 be 29 97 af bc
       0.118164465 -0.02721174 -0.15856716 -0.021434383
000010 61 c3 ba be 96 14 99 be 36 e5 5a 3e 3c 87 aa bd
       -0.36477187 -0.29898518 0.213765 -0.08326575
000020 65 73 b5 3c 5b 54 a1 bf 6f 18 a4 bd 13 d9 a6 3d
       0.022149751 -1.2603868 -0.08012473 0.08146872
000030 46 b2 a6 bd 94 50 bb bd 02 9c 08 3f 6a 32 45 3e
       -0.08139472 -0.091462284 0.5336305 0.19257513
000040 c3 18 20 3d b0 51 69 bc 43 83 f3 3c a0 9f 31 bd
       0.039086115 -0.014240667 0.029725676 -0.04336512
000050 7d d2 25 bf 99 92 28 3d 2c f2 8b 3e 10 8d e1 be
       -0.64774305 0.04115543 0.273332 -0.44052935
000060 5d 00 83 bc 28 b9 9b 3e d1 43 a2 3d d5 86 d9 3d
       -0.015991384 0.304147 0.07923091 0.1062142
000070 d2 01 15 3e 5d a3 94 be e6 d5 9e 3e 75 77 2b 3d
       0.14551476 -0.29030886 0.31022567 0.04186197
000080 38 88 d8 be ba fb 95 3d 62 8e 1d 3e f4 12 b3 be
       -0.42291427 0.07323404 0.15386346 -0.34975398
000090 b3 64 6d bf 3e 42 b6 be 7c 16 3d bb 7e 80 79 bb
       -0.9273178 -0.35597414 -0.0028852513 -0.0038070972
0000a0 1b 78 59 3d 21 61 58 3d 0f 8c 2e 3c e0 1b 70 3e
       0.053093057 0.052827004 0.01065351 0.23448133
0000b0 7e ce 83 3d 93 c8 e6 be 1f 42 79 3e d6 99 83 3e
       0.0643587 -0.450749 0.2434163 0.25703305
0000c0 8a 66 03 3e d5 16 6d 3d 51 00 d9 3e 80 ea 87 3e
       0.12832084 0.057883102 0.42383054 0.26546097
0000d0 af aa e3 bd f6 79 6e 3d 3a 9c 90 bc 22 89 19 3e
       -0.1111654 0.05822178 -0.01765262 0.14993718
0000e0 26 07 fb 3d e2 6a 56 be 52 ff 0d 3e af 7b e1 3d
       0.12257223 -0.2093921 0.13866928 0.11009919
0000f0 3d 18 84 3d d2 22 81 be fd c3 93 3d 3a 5b fb 3d
       0.064499356 -0.25221878 0.07215116 0.122732595
000100 a5 4f e9 3c 0f 19 34 be 7a e8 24 be 93 88 08 3e
       0.02848036 -0.17587684 -0.16104308 0.13333349
000110 5c 24 06 3d fa 7d 06 be 1e fb 9d be 02 e4 8d 3d
       0.03274952 -0.13133994 -0.3085565 0.06928255
000120 97 d1 96 bd ae c6 bf 3e e1 b6 95 3d 2a ee 75 bd
       -0.07364195 0.37456268 0.07310272 -0.060041584
000130 10 bd cf 3d 73 17 48 3d 46 99 a5 3c 68 a7 a3 3e
       0.10143483 0.048850488 0.020214688 0.31963658
000140 fa aa 07 3e ae 41 c9 3c f9 42 8d 3e 56 cc 3e 3e
       0.13248816 0.024567451 0.2759016 0.18632635
000150 97 09 aa 3d 97 06 da be 4c 08 0a bd e9 af fb 3d
       0.0830261 -0.42583153 -0.03369932 0.122894116
000160 aa 09 7c 3b 95 40 94 3d 63 9a 93 3d b1 c9 7a 3d
       0.0038457909 0.072388805 0.07207181 0.061227504
000170 71 82 b4 3d b3 1e 8f 3c 09 fe c5 3d 9f c9 00 3e
       0.08813942 0.017470693 0.09667594 0.12576912
000180 1b 42 85 bc 81 36 df 3d 7c 97 ee 3c 4f 15 0a 3e
       -0.016266873 0.10899068 0.029124968 0.13484691
000190 92 b5 ad 3e 61 9d 91 bd ff dd 9f be 6e 7d 30 3d
       0.3392759 -0.07110096 -0.31224057 0.04308837
0001a0 0d 9c 23 bf 75 3a de 3d 7d be 4e 3e c3 83 ee 3d
       -0.6390999 0.108509935 0.20189853 0.11646225
0001b0 67 31 cb bd 37 54 66 be 81 49 28 3e d1 16 9e 3e
       -0.09921532 -0.22493063 0.1643429 0.30876783
0001c0 6f cb e1 3d 03 37 2f bd 12 47 2c be 96 87 16 3d
       0.1102513 -0.042777073 -0.16823986 0.0367504
0001d0 4c cd 51 3c d5 09 18 3e 9f 6b 16 3e 18 69 46 bc
       0.012805294 0.148475 0.14689492 -0.012110017
0001e0 b4 aa 85 bd 5d 2c 8b 3d 31 32 93 3d 9e 12 c1 be
       -0.065267 0.06795571 0.071873076 -0.37709516
0001f0 79 17 1d bf b6 d3 1a bf d0 03 49 3e 60 d8 3e 3d
       -0.6136394 -0.60479295 0.1963036 0.04659307
000200 9d 70 81 3e 88 69 f2 bd 54 b2 5c bd 4a 63 04 3d
       0.2528123 -0.11836535 -0.053881004 0.032321252
000210 b4 db a6 3e 04 0c 2f bd 44 d8 01 3f a3 1a b3 3e
       0.32589495 -0.04273607 0.5072062 0.3498126
000220 f8 eb 2c 3e 04 e8 06 3e a9 ce 71 3e 3b 6a 6c 3e
       0.1688689 0.13174444 0.23613991 0.23087399
000230 16 e2 62 bd 4e f5 5a 3e 2d 86 24 3d c1 73 cc 3e
       -0.055391394 0.21382639 0.040167022 0.39932063
000240 dd 64 b6 3e 0d 7b cf bc a3 94 a4 3d 1f 1d 88 3b
       0.35623828 -0.02532723 0.08036163 0.004153862
000250 a8 a9 ae 3e ca ee 1d 3d 8b 1b e5 3c 34 51 93 3e
       0.34113812 0.038557805 0.027967235 0.2877289
000260 89 5c d8 3c 0e 2d 5b bc 32 93 25 3d 8b 47 86 bd
       0.026411312 -0.013377441 0.04042358 -0.065566145
000270 54 e0 eb 3c 28 f0 46 3e 1d 66 a5 3d 45 65 5f 3b
       0.028793491 0.1942755 0.08076117 0.003408746
000280 a4 82 08 3e 1f f2 0d be ff 29 40 3d 09 d3 0f bd
       0.13331085 -0.13861893 0.04691505 -0.03511337
000290 27 27 c8 bd 2c 95 01 bd 1b 60 3c 3e 13 07 17 3d
       -0.09773093 -0.031636402 0.18396036 0.03687198
0002a0 d6 7b 33 bf f1 ab 82 be 19 2e 36 3e b3 58 64 be
       -0.70110834 -0.25521806 0.17791022 -0.22299461
0002b0 28 c5 b5 3d 17 84 28 bd 78 26 06 3e 27 8c f4 3d
       0.08875495 -0.041141596 0.13100612 0.119407944
0002c0 dc 4f 89 be 56 42 e9 3e d4 19 04 be 83 a6 00 be
       -0.2681874 0.45558423 -0.12900478 -0.12563519
0002d0 fb 7f 91 bd 1c 96 86 3e 1b 78 ed 3c d9 eb 99 3d
       -0.071044885 0.262864 0.028987935 0.075156875
0002e0 d8 b3 e3 be 31 39 5e 3e 32 48 c7 bd 33 b7 00 3c
       -0.44473147 0.21701504 -0.09730567 0.007856178
0002f0 ab 3a 0b 3e 92 aa 35 be 1e a3 3c 3e 48 03 80 3c
       0.13596599 -0.17740849 0.184216 0.015626565
000300 8c 74 83 3d 11 b9 23 3d e2 58 ea 3d db 1c b9 bd
       0.06418714 0.039971415 0.11442734 -0.09038707
000310 60 98 88 bd de 32 44 3c 18 39 15 3d 8c ca f1 3d
       -0.06669688 0.011975018 0.036431402 0.11806211
000320 b3 44 c0 3e e7 c7 8e be 9a df 16 3d 1d 60 d1 3e
       0.37552413 -0.27886888 0.036834337 0.4089364
000330 0e b3 31 3e 16 5c ab 3c 37 97 02 bd a9 8f 42 3d
       0.1735346 0.020917933 -0.03188249 0.047500286
000340 cb 8c cc 3b 38 b6 3a 3d 15 69 86 bd ac 62 7e 3d
       0.00624237 0.045583934 -0.065630116 0.06210582
000350 5e 38 e3 3d 8a 31 82 3e 33 f2 84 bd ee 74 05 bd
       0.110947356 0.2542842 -0.06491508 -0.032582216
000360 ca b8 00 3e a2 03 e3 3d 7c 27 f1 be 94 d1 41 3e
       0.12570491 0.11084677 -0.47100437 0.18927604
000370 95 c4 75 be 8e c7 cc 3e 4b ef 7f bd aa 25 c6 3e
       -0.24000771 0.39995998 -0.062484067 0.3870061
000380 36 f5 b9 3d ff dc c4 3e b6 b3 64 3d 0c b1 87 bc
       0.090799734 0.38449857 0.05583545 -0.016563915
000390 85 98 92 3e 52 c0 c4 3e 80 b3 57 3e b9 e6 31 bb
       0.28631988 0.3842798 0.21064568 -0.0027145578
0003a0 a2 dc 0e 3e 65 0b 01 3f 31 f0 19 be c0 95 b0 3e
       0.13951352 0.5040801 -0.15033032 0.3448925
0003b0 61 18 96 be d3 99 75 bd 12 fe 06 3e 96 61 41 3e
       -0.29315475 -0.05996115 0.13182858 0.18884882
0003c0 77 43 0b 3e d3 a8 ab 3e 71 14 5f 3d 5c d8 13 3e
       0.13599955 0.3352724 0.054462854 0.14438003
0003d0 87 56 fd 3d f9 03 66 3d 48 3f 77 bf f7 88 25 3e
       0.123700194 0.056156132 -0.96580935 0.16165529
0003e0 c5 46 30 bf cb 96 68 bd 8c f8 de bd ee cc ed bc
       -0.68857986 -0.056784432 -0.1088725 -0.029028382
0003f0 f5 d6 94 3d 50 37 cb 3c 7c 35 9a bd 04 09 f8 3d
       0.07267562 0.024806648 -0.075297326 0.121110946

fc2.bias f4 [256]
000000 53 7b d9 bd 1e 5d df bd a7 55 45 3d c8 59 98 3e
       -0.10619225 -0.109064326 0.048177388 0.29755998
000010 4a 7b 9b 3e 5a fa 15 3e ce f9 60 3d fd 63 ea bd
       0.303675 0.14646283 0.054925732 -0.114448525
000020 6d c1 65 be 18 a8 b2 3d 13 db c9 3c dc 26 6e 3e
       -0.22437067 0.087234676 0.024640596 0.23257011
000030 a0 68 2c bd 3c db b1 3e e8 db 12 3e d5 b2 c5 3e
       -0.042091966 0.34737575 0.143417 0.38613
000040 a3 fb 10 3d aa 43 ac 3e e0 7c 28 3e 61 d1 4f 3e
       0.03539623 0.33645374 0.16453886 0.20294715
000050 c3 2e ba 3e c8 98 5e 3e 05 a2 53 3e 13 1f 2a 3c
       0.363638 0.21737969 0.20667274 0.010383385
000060 a2 f3 6c bb e9 e9 73 bd 2c f4 35 3e fa 3b 7a 3e
       -0.0036155959 -0.059549246 0.17768925 0.24436942
000070 10 23 32 bd 84 0c c6 3e 64 98 ac 3e b4 66 fb 3d
       -0.04349047 0.38681424 0.33710015 0.122754484
000080 c9 c5 0f 3e 1a 2d f6 3d d4 50 9e 3e b0 85 6e 3e
       0.14040293 0.12020321 0.30921042 0.23293185
000090 f8 2c ac 3d 2a 62 69 be b4 49 94 bc b9 ba 02 3f
       0.084070146 -0.22791353 -0.01810155 0.51066166
0000a0 9e 66 60 3e 1c a4 bb 3e d0 2b 91 3e b5 24 ba 3e
       0.21914145 0.36648643 0.2835374 0.3635613
0000b0 71 e8 b5 3e 28 50 fb 3d f3 8f 69 bd 0d 56 b9 3e
       0.355289 0.12271148 -0.057022046 0.36198464
0000c0 26 9a 44 bd 5a 2a b6 3e 35 f1 a9 bd 7c 1d 9f b8
       -0.04799857 0.35579187 -0.0829796 -7.587203e-05
0000d0 e0 91 a8 3e 33 68 ae 3e fc 6f 02 3e 4c 39 b3 3d
       0.32923794 0.34063873 0.12738031 0.08751163
0000e0 37 78 4b 3e 7a 5b 2c be e0 f1 92 3e cc dd 9e bd
       0.19870077 -0.1683177 0.2870016 -0.07757148
0000f0 aa 51 95 bd 7b 16 0e bd b3 ec 56 3e 7f 9e 1f 3e
       -0.07290967 -0.034689408 0.20988731 0.15587805
000100 75 2d 0f be 20 37 53 bc c3 2f 19 3e 59 ea 7b 3d
       -0.13982184 -0.012891561 0.14959626 0.06150279
000110 24 61 d1 3d 39 08 27 3d 1a 92 72 be 3c 2e 2e be
       0.10223606 0.040779326 -0.23688546 -0.17009825
000120 97 20 62 3e e1 7e 23 be 63 53 9d bb 9f 4b c8 3e
       0.22082745 -0.15966369 -0.0048012002 0.39120194
000130 6a e6 2d 3e 1d 3e 22 bd 1c 2a 80 3d b0 28 df 3d
       0.16982427 -0.039610017 0.06258032 0.108964324
000140 af 34 5d 3e 26 6b 65 3e 0d f2 ae 3e b1 10 9f 3d
       0.21602128 0.22404155 0.34169045 0.077668555
000150 fc 1b 6f 3e 58 9f 96 bc 03 b0 c8 3c 42 51 a0 bc
       0.23350519 -0.018386528 0.024497991 -0.019569997
000160 2a 87 58 3d 6d 89 5f 3e 39 bb c6 3e 7b c6 b7 3e
       0.052863277 0.21829768 0.38814715 0.35893616
000170 23 4e af 3d 92 f5 91 3c ea b7 0c 3e f3 70 7f 3e
       0.08559825 0.017817292 0.13742033 0.2494543
000180 ad 74 76 3e 22 e8 1c be 47 bc e0 bd c3 95 5f 3e
       0.24067946 -0.15322927 -0.10973411 0.21834473
000190 c8 96 d4 3e 88 b1 1d 3e 41 ed ba 3e f2 37 c9 3e
       0.41521287 0.15399754 0.36509135 0.39300495
0001a0 ab a5 4e 3e 1d c8 84 3c 9d 42 d4 bd 8a e9 72 3b
       0.20180385 0.016208703 -0.10364268 0.003706547
0001b0 f0 e6 8d 3e d1 78 88 bd 8b 78 25 be af 15 12 3e
       0.27715254 -0.06663669 -0.16159265 0.14266084
0001c0 86 75 cb 3d 2d 57 0d 3e 61 01 34 3d 0a 30 22 3e
       0.09934525 0.13802786 0.043946628 0.15838638
0001d0 2b 92 55 3e cc dd 16 bd f3 f1 63 3b 19 00 d7 3e
       0.2085654 -0.036832616 0.0034781664 0.41992262
0001e0 63 e4 cd 3d 46 14 93 3e 69 93 df bc cf 55 41 3e
       0.10053327 0.28726405 -0.02729197 0.1888039
0001f0 e4 57 d5 bd 67 a7 3d bd c8 b8 8e 3e a5 80 cd 3e
       -0.104171544 -0.046302225 0.27875352 0.4013721
000200 08 3b 9c 3e 67 f1 5b 3e f3 66 46 3e f5 10 60 be
       0.30513787 0.21478806 0.1937521 -0.21881469
000210 9c 89 c8 bc 74 83 de 3d db 1a 75 3e b3 49 c1 3e
       -0.02447968 0.108649164 0.23936026 0.3775154
000220 d7 5b ff bb 6e d6 13 3e 39 85 bd bd 12 a2 30 3e
       -0.0077929306 0.14437267 -0.09253926 0.17249325
000230 74 04 bd bd cf b5 a7 3d 66 17 7f bd bb eb 33 3e
       -0.09229365 0.08188974 -0.062278174 0.17570393
000240 cd 70 8c be 81 4a a8 3d 85 00 79 3e 25 14 5b 3e
       -0.2742981 0.082173355 0.24316604 0.21394403
000250 c8 f5 52 3e 91 cf b5 3e 1a 3c 24 3d 84 26 f4 bd
       0.2060157 0.35509923 0.04009638 -0.11921409
000260 95 07 8b be b3 b0 07 3a 06 f6 11 3e 48 85 68 bd
       -0.27154222 0.00051761715 0.14254007 -0.056767732
000270 60 3f 9d 3e de 17 b2 3e 38 72 23 3e 6f f6 23 3e
       0.30712414 0.34783834 0.1596154 0.16011976
000280 39 0b a5 3e b9 f8 6f 3e 80 ef c7 3e f1 7c 4f bd
       0.32235125 0.23434724 0.39049911 -0.050656263
000290 5c 42 5e 3e bf 16 25 3e e2 56 9b 3e ae 45 ff 3d
       0.21705002 0.16121958 0.30339724 0.12464462
0002a0 21 4e bd 3e 7a 4b 64 3e b6 c9 74 3e ae 2c 6c 3e
       0.3697367 0.22294417 0.23905072 0.23063919
0002b0 17 5b c6 3e b9 80 93 3d 49 4e 87 be 0d 86 bf 3e
       0.3874137 0.07202286 -0.26426914 0.3740696
0002c0 c1 a3 53 3e 6b df c6 3e 34 66 3b 3e ff 43 4b 3e
       0.20667936 0.3884233 0.18300706 0.19850157
0002d0 54 c4 63 3d 92 a3 b0 3e a1 e5 30 3e 78 ea cc 3e
       0.055607155 0.34499794 0.17275096 0.40022635
0002e0 d5 6b b7 3e e6 24 13 3e d1 ec e6 bc 8b 7b c4 bc
       0.35824457 0.14369544 -0.028189095 -0.023984691
0002f0 61 89 cd bc dc 40 d4 bd b6 03 8f 3d f5 6f c2 3e
       -0.025089921 -0.103639334 0.0698313 0.3797604
000300 8c 32 ee 3d 7a cf 76 3c d5 1d a5 bd 8f 97 62 3e
       0.11630735 0.015064115 -0.08062331 0.22128128
000310 8e a6 83 3d b3 07 d8 3c 52 9b c0 3e 4b 7d 7f be
       0.06428252 0.026370859 0.376185 -0.24950139
000320 88 14 e9 bd a7 8f ad 3e 38 06 c8 3d 6b 9f ad 3d
       -0.11380869 0.3389866 0.09766811 0.08477672
000330 e3 92 bb 3d 07 d6 00 bc 2e d7 39 bd af 52 5e bd
       0.09158876 -0.007863528 -0.045371227 -0.054278072
000340 6e 25 41 be 34 b4 c6 3e 58 b6 cc 3e 5f ab b0 3e
       -0.18861935 0.3880936 0.39982867 0.34505746
000350 ef e5 1e 3c fc ed 62 3e 45 46 78 3e 22 da fb bd
       0.009698375 0.22161096 0.24245556 -0.12297465
000360 9d 90 7d bd fc 73 9a 3d a9 5a c1 3e 71 b1 a6 3d
       -0.061905492 0.075416535 0.3776448 0.08139313
000370 9e 32 42 be 33 16 0a 3d 9e bd ba 3e c4 91 07 3e
       -0.18964621 0.033712577 0.3647279 0.13239199
000380 dd 80 94 be 6e 25 25 3e 29 23 74 3e dc 61 a5 3e
       -0.29004565 0.1612756 0.23841538 0.32301223
000390 56 af 8a 3e 96 62 52 3e 4f 6b 1f 3e 4b 9c 8c 3e
       0.27086896 0.2054542 0.15568279 0.27462992
0003a0 f8 34 95 3d 51 2f c4 3e c9 26 70 bd 86 6b d7 3c
       0.072854936 0.3831735 -0.05863074 0.026296388
0003b0 c0 d1 03 3e 3d c1 cb 3e 3b 76 89 3e d8 3c bf 3e
       0.12872982 0.39795867 0.26848015 0.37351108
0003c0 f7 37 b9 3d db 95 83 3e f5 f5 5e 3e c4 40 86 3d
       0.090438776 0.25700268 0.21773513 0.06555322
0003d0 4a 3a 4a 3d 30 ce c1 3e 04 31 00 3d 9b ac 52 3e
       0.049371995 0.3785262 0.031296745 0.20573656
0003e0 fa 0e 19 3e 45 58 49 3e c3 95 75 3e 71 85 b4 3e
       0.1494712 0.19662578 0.23982911 0.35258058
0003f0 82 5e 43 be 6a 40 10 3e da e3 02 3e d1 c9 bb 3e
       -0.1907902 0.14087072 0.12782231 0.3667741

fc3.weight f4 [128, 256]
000000 d2 f6 c4 be a0 b3 31 be 61 9e 0b be 4b b5 7f be
       -0.3846956 -0.17353678 -0.13634636 -0.24971502
000010 41 19 ea bd b1 05 ed 3d 3c 5a 22 3e a4 1a 8e bc
       -0.11430598 0.11573351 0.15854734 -0.017346688
000020 18 16 c8 be 94 2a c4 be 86 39 f3 3e bc 1e 47 3c
       -0.39079356 -0.38313735 0.47504824 0.012153324
000030 28 09 6b 3e b2 81 cd 3c 49 a6 86 be 8f 68 18 3d
       0.22952712 0.025086258 -0.2629874 0.03720909
000040 8d e7 7c be 72 16 91 3d be 8b 8d 3d 0e 41 0a bf
       -0.24697705 0.07084359 0.06911419 -0.54005516
000050 17 05 00 3e 19 5d 54 3e 92 dd 90 be 29 3f 94 bd
       0.12501942 0.20738639 -0.28294045 -0.07238609
000060 50 10 e9 bd 12 76 75 be 64 8c f4 bd e7 ff d5 3c
       -0.113800645 -0.23970821 -0.1194084 0.026123
000070 1e 40 c9 3e f0 74 6a be 59 b0 ee bd 50 e2 5e be
       0.3930673 -0.2289617 -0.116547294 -0.21766019
000080 4a cf 6d 3e bb ae 0a be 8d 6d 65 be ba 19 a3 be
       0.23223606 -0.13543217 -0.22405072 -0.31855565
000090 2e 33 17 3d a9 ce 38 bf 7d 17 fa bd c6 a9 2a bf
       0.036914043 -0.7219034 -0.12211511 -0.66665304
0000a0 8c d3 53 bd b7 c3 c4 bc 45 ff 97 be 38 bd 3b be
       -0.05171542 -0.024019105 -0.29686943 -0.183339
0000b0 51 1e e2 bd 02 d7 58 bd 79 db b3 3e b3 86 9f bc
       -0.11040939 -0.052939422 0.35128382 -0.01947341
0000c0 30 65 a1 3c 4b fa 24 3d b9 ea 96 be 95 0b 81 3d
       0.01970157 0.04027776 -0.29475954 0.06301037
0000d0 06 18 98 3d f1 9d da 3b 18 e8 bd bd d5 19 32 3e
       0.07426457 0.00667166 -0.09272784 0.17392667
0000e0 cd 5e 14 3d 3c e3 30 3e ba 4f 1d be db 9c 0f bf
       0.03622322 0.17274183 -0.15362445 -0.5609872
0000f0 9f b5 3e 3e df 83 f1 bc 26 30 31 3e 72 ba 93 be
       0.1862397 -0.029481826 0.17303523 -0.28853184
000100 44 e5 96 3e 9b 1c 89 be fa 47 b6 be 00 50 55 bd
       0.2947179 -0.26779637 -0.3560179 -0.052078247
000110 8f 1b b6 be f3 ee ce 3c cd 1d 34 bd 6d b2 f8 be
       -0.355679 0.025260424 -0.043973733 -0.48573628
000120 98 3d 09 3c c9 d4 ab be 66 f6 bc bd fd 92 b9 3d
       0.0083765015 -0.3356078 -0.09226684 0.09061239
000130 6d dd cd be 6e 15 f4 be 67 9f 46 3e 47 c0 85 be
       -0.40207997 -0.476726 0.19396745 -0.26123258
000140 27 43 8e bd 00 c3 c6 3e 4d 90 42 3e 3d 79 22 3e
       -0.06946402 0.38820648 0.19000359 0.15866561
000150 04 0e 9c be 06 38 bf be 6d be 9a bd f8 28 c9 3e
       -0.30479443 -0.3734743 -0.07555852 0.3928907
000160 9a 91 e6 be c0 c9 92 be b3 4e 4c bc eb 2e 93 3d
       -0.4503296 -0.28669548 -0.012469935 0.07186683
000170 2d 87 70 3e d1 d4 0e 3e f7 e4 a0 bd 51 fb 1f 3e
       0.23489065 0.1394837 -0.078561716 0.15623213
000180 8c b1 72 3e 5d 0e c0 3e 01 5c 16 3e cf 2c da be
       0.23700541 0.37510958 0.14683534 -0.4261231
000190 05 1e 1d be 48 1e 66 3d cd 28 a9 bc 51 66 28 bd
       -0.15343483 0.056181222 -0.020649338 -0.0411132
0001a0 28 cd 08 3e 82 25 2b 3e 46 07 f8 3d 4a 45 09 bf
       0.13359511 0.16713527 0.12110762 -0.5362135
0001b0 4e 4c 85 3e 4d 49 88 be 77 e7 ab 3d 02 9b 49 3e
       0.26034778 -0.26618424 0.08393758 0.19688037
0001c0 0f 2c da be 2f d8 e0 3e b3 ef 05 3e 6c f8 38 3e
       -0.4261174 0.43914935 0.13079719 0.18063515
0001d0 88 f6 a9 3d 28 6b 86 be cb c9 d3 3e db 81 8b 3d
       0.08298975 -0.2625363 0.41364893 0.06811877
0001e0 07 57 a9 bd 3e 37 7c be 5d ed 82 be 79 6c 13 be
       -0.08268552 -0.24630448 -0.2557172 -0.14396848
0001f0 aa aa 00 bf 65 6b ce 3c c9 72 10 bd a2 cd f9 3d
       -0.5026041 0.025197694 -0.035265718 0.121974245
000200 1b bb 4b 3e 29 98 49 3e 43 7b 83 3d e7 cf 03 be
       0.19895594 0.1968695 0.06419995 -0.12872277
000210 f6 ff 85 be 16 0a a9 3e 74 1b 6a 3e 6a 60 1d 3d
       -0.26171845 0.33015507 0.22862035 0.038422026
000220 92 0a 71 bf 01 00 b8 be 83 ec 40 3e 42 ee 3a 3e
       -0.94156754 -0.35937503 0.18840222 0.1825495
000230 1e 3a b4 bd 11 83 6f 3c bd cc 55 3c 48 44 d3 be
       -0.088001475 0.014618651 0.013049302 -0.41263032
000240 20 14 15 3e 42 ad 1e bf ca 8a 3d 3e 0c 53 8c 3c
       0.14558458 -0.6198312 0.18509975 0.017129444
000250 79 d4 6b be 1d cd aa bc 7d 13 8d 3d 09 bb 3a 3e
       -0.2303027 -0.020849759 0.06888483 0.18235411
000260 ad 1d 25 be f1 d0 b0 be 61 81 9b 3e 53 ea 15 3e
       -0.16124602 -0.3453441 0.30372146 0.14640169
000270 0f 06 06 3e d2 92 72 3d 49 7b c5 3d 4f 21 1e 3e
       0.13088249 0.05922205 0.096426554 0.15442394
000280 d9 2b eb 3d 56 e8 93 3d f3 ee e6 bd 64 4f 35 be
       0.11482973 0.07222049 -0.11276045 -0.17706066
000290 ba 6d 28 3e c9 32 81 be 1c 5c 3e bd 35 45 2d bf
       0.16448107 -0.25234058 -0.04647456 -0.67683727
0002a0 69 fe e4 bd c5 a0 a2 bc 40 11 fe be 55 24 f7 3d
       -0.111813374 -0.019852052 -0.49622536 0.12067477
0002b0 69 ba 3f bd ae 02 14 3d 5e 85 05 bf 6a 2e b3 bd
       -0.046808634 0.036135368 -0.5215663 -0.08749087
0002c0 5f 4f 74 3e 65 38 36 3e d9 00 82 be 92 8f b6 3e
       0.23858403 0.1779495 -0.25391272 0.3565641
0002d0 5a 50 9a 3e f2 56 a3 3d a3 06 4d be 3c 70 1b be
       0.30139428 0.07975568 -0.20022063 -0.15179533
0002e0 76 8e 4c 3d b4 32 81 bd 29 45 88 3e 33 ab 98 3e
       0.04994055 -0.06308499 0.26615265 0.29818115
0002f0 95 05 2f bf 52 22 a8 be 3a fa d4 3c a6 6b 80 bd
       -0.6836789 -0.32838684 0.025998224 -0.06270532
000300 95 dc 9e 3d 76 3d 94 3e 6d 4e c4 bd c3 0f 1a be
       0.077569164 0.2895314 -0.09585271 -0.15045075
000310 2d 59 4f 3e e8 34 44 be 76 e2 f3 bc a0 26 15 bf
       0.20248862 -0.19160807 -0.02977107 -0.5826206
000320 59 f2 03 be c7 1b a4 3d 69 3b f5 bb 23 58 bf be
       -0.12885417 0.080131106 -0.007483889 -0.3737193
000330 d6 31 f9 bd 4f 13 22 bf 8a 3d 24 3e 60 22 00 3e
       -0.121677086 -0.6331071 0.160391 0.12513113
000340 d6 32 f8 3b 5d 8b 83 3d d2 c9 a4 3d c9 4b af 3b
       0.0075744195 0.06423066 0.08046307 0.0053496105
000350 e3 36 b2 3d ed 32 dc bd 43 7a 22 3e 4f 45 47 be
       0.08701875 -0.10751901 0.15866952 -0.19460033
000360 27 ce dc be 8a c2 54 3e ff c9 12 3e 46 3f 0a bf
       -0.43126032 0.20777336 0.14334868 -0.540028
000370 e1 14 3f 3d de 2a 69 3e 4d ed de 3d d4 8b 5e be
       0.04665077 0.22770259 0.10885105 -0.21733028
000380 d7 31 e6 3e 06 1e 55 3e e1 d5 46 3e d3 72 6c be
       0.449599 0.20812234 0.19417526 -0.23090677
000390 6e 31 a0 b9 86 1d 1f bd 63 7a d2 3d 61 8a e0 3e
       -0.00030554406 -0.038846515 0.1027725 0.43855575
0003a0 d5 46 1c be f5 7b bb bc 7c f1 1f bf b6 1d 8a bd
       -0.15261395 -0.022886256 -0.6247785 -0.06743948
0003b0 63 64 ba 3e 91 2e 07 3e ed 1b 3e 3c f4 f0 bd bc
       0.36404714 0.13201357 0.011603338 -0.023186184
0003c0 50 af 34 bd 64 08 37 3d 6c c9 32 bf 12 2a cc 3e
       -0.044112504 0.044685736 -0.69838595 0.39875847
0003d0 1f 40 e7 be 16 8c 7a bd 96 cd ab bd db 6a 40 be
       -0.45166108 -0.061168753 -0.08388822 -0.18790762
0003e0 ed bf c6 3e d2 90 1c 3e 67 40 4a 3d d0 bf e1 bc
       0.38818303 0.1528962 0.049377825 -0.027557284
0003f0 7a fe 2c bf ea 84 9e be e4 40 46 3f d3 24 1c bd
       -0.675758 -0.3096078 0.77442765 -0.038121056

fc3.bias f4 [128]
000000 f3 2e da 3d 12 f7 a6 bd 93 4e af bd 4a ea 15 3e
       0.10653486 -0.08152594 -0.08559909 0.14640155
000010 16 3c 34 3d bd eb 20 3b 5d 78 68 3d b3 a2 21 3c
       0.044002615 0.0024554573 0.056755412 0.009865451
000020 95 42 e0 3d 42 c1 0b 3c b9 75 1d be 04 0a a9 3c
       0.109501995 0.008529963 -0.15376939 0.020634659
000030 8a f9 2d bd 98 2c 3f 3d fc 4a 51 bd 9f 9b a8 3c
       -0.042474307 0.046673387 -0.0510969 0.020582018
000040 5b 99 88 3d 16 2b 09 3d 8a 36 80 bd 69 d7 6f bd
       0.06669875 0.033488356 -0.062604025 -0.05855504
000050 d6 cf 8c bd 13 bc 76 be 5a af dc bd 22 d2 fc 3d
       -0.06875579 -0.24095182 -0.10775633 0.12344767
000060 f2 02 3c 3e 3f 3a 08 3e 66 80 76 3d 4a 48 f9 bd
       0.18360499 0.13303469 0.060181044 -0.12171991
000070 bb 98 b5 3d 2c 4a df 3d 98 e9 d5 3d 3c 02 20 bd
       0.08867022 0.10902819 0.10444945 -0.03906463
000080 73 1d 78 3e 65 f5 44 bd d4 78 ba bb 3e f1 4a 3e
       0.24229984 -0.04808559 -0.0056906734 0.19818589
000090 5d e2 e6 3c ec 04 b5 3d 1f 16 51 bd 32 92 e2 3d
       0.02818411 0.088388294 -0.051046487 0.11063041
0000a0 98 a8 43 3e ff 98 b3 3d 70 42 54 3d 63 02 a1 3c
       0.19107282 0.08769416 0.051821172 0.019654458
0000b0 a2 fd 9c 3d c4 99 c2 bd ab 7b c0 bd 9e e2 57 be
       0.07665564 -0.09501985 -0.09398588 -0.21082541
0000c0 57 23 85 3c e7 3e 0e 3e 4e 84 29 bd 58 6b 2e 3d
       0.016252203 0.13891183 -0.04138594 0.04258284
0000d0 08 02 71 3e f5 0b eb 3d ee f0 9b 3c 34 63 fc bb
       0.23535931 0.1147689 0.019035783 -0.0077022556
0000e0 f6 b0 51 3e 92 0e 1c 3e cf 65 bd bc ac e9 a3 bd
       0.20477661 0.15239933 -0.023119835 -0.08003554
0000f0 f6 b4 99 3c b4 80 d1 3d ee 34 23 bd 32 03 f4 bd
       0.018763047 0.10229626 -0.0398454 -0.11914672
000100 3e 62 2c 3d 39 d5 12 3d d1 3b 26 bb 7d 0f 6b 3d
       0.04208588 0.035847876 -0.0025365243 0.057387818
000110 fb 29 42 be 16 7e 0f be fd 12 81 bd 9a 93 d1 bc
       -0.18961327 -0.14012942 -0.0630245 -0.025583077
000120 0a cd 1f 3e d4 64 31 3e 99 4b 47 be 35 4e 5f be
       0.1560556 0.17323619 -0.19462432 -0.21807177
000130 a4 0a b1 3d 27 b7 30 3e 80 41 f3 3c 55 f4 93 bd
       0.08644608 0.17257367 0.029694319 -0.07224337
000140 e3 87 88 bd 0b d8 05 be 97 21 0f 3b 1e 36 b3 3d
       -0.06666543 -0.13070695 0.002184009 0.087505564
000150 ba c4 4d 3d 28 7b 3a bc b1 3c bd bd 44 87 e3 bb
       0.05023644 -0.011381902 -0.092400916 -0.006943615
000160 82 8b 86 be fe 3d 98 3c 20 d8 46 3e 07 c8 89 be
       -0.2627831 0.018584248 0.19418383 -0.2691042
000170 4d b1 da bd 7d dd 71 3d 13 08 c7 3c a5 03 12 3d
       -0.10678349 0.05904912 0.024295842 0.035648007
000180 5f 22 9d 3d 92 75 6e bd d1 00 15 3e 79 e3 cb 3d
       0.076725714 -0.058217593 0.14551093 0.09955496
000190 29 ec 8c 3d f4 a1 a3 3d 6b 31 e4 bd 8f 71 75 3c
       0.068809815 0.079898745 -0.11142238 0.014980688
0001a0 3e d6 b9 3c 07 9c 03 be 7a 36 82 be 09 51 0d be
       0.022685166 -0.12852488 -0.25432187 -0.13800444
0001b0 34 43 ac 3d cd 4b ca 3d a8 d8 f3 bc c7 7a 70 3e
       0.084112555 0.09877739 -0.029766396 0.23484336
0001c0 b6 15 50 3d 8c 8b 03 3e 71 0e 39 bd 2b 67 60 bb
       0.050801955 0.12846202 -0.045179788 -0.003424118
0001d0 0d 2d 21 3c a4 b8 8a bd ba b8 77 bd 12 32 a3 3d
       0.009837401 -0.06773499 -0.060478903 0.079685345
0001e0 61 60 92 3d ad 26 4e 3d c3 53 52 3c 06 87 91 bc
       0.07147289 0.050329853 0.012837353 -0.01776458
0001f0 d6 e3 12 3d 01 3d d3 3d af 22 98 3a 4b 06 c8 3d
       0.035861813 0.1031437 0.0011607016 0.09766825

fc4.weight f4 [4, 128]
000000 38 88 da be 38 f4 f1 3e fd 7f 6c 3c 1e ec d3 3e
       -0.42682052 0.47256637 0.014434812 0.4139108
000010 2f 80 f1 3d e4 6b 11 bf d9 3b b3 3e 25 61 80 bd
       0.11792027 -0.56805253 0.35006598 -0.06268529
000020 66 4c 9d bc 2d 89 14 bf 3a ed c2 be 7a db ad 3e
       -0.019201469 -0.58021814 -0.38071615 0.3395651
000030 91 fb 65 be f7 7e c3 3e 7a 27 24 3e c0 21 b2 be
       -0.22459246 0.38182804 0.16030684 -0.34791374
000040 65 41 d3 3e 91 60 42 bc be 32 9e be d1 01 d5 bd
       0.4126083 -0.011863844 -0.30898088 -0.10400737
000050 ed ab 62 be f6 53 a7 be 72 a5 c7 3e f6 c3 50 3e
       -0.22135897 -0.32681245 0.38993412 0.20387253
000060 f5 a7 d8 3e 6b 06 bd 3e 08 0a 82 3c 43 62 69 3e
       0.4231564 0.3691896 0.015873924 0.2279139
000070 17 95 b2 3e 95 73 74 3e ac af cc 3e c9 e9 a3 3e
       0.34879372 0.23872216 0.39977777 0.320143
000080 fe 90 2f 3e d8 c5 f5 bd 90 85 b3 3c 29 4e ff 3d
       0.17145154 -0.12000626 0.021914274 0.1246608
000090 1c 24 68 3e cc 90 49 be d3 bb e1 3c 52 73 98 3e
       0.22670025 -0.19684142 0.027555382 0.29775482
0000a0 da dd d1 3d 3a da 08 3e 53 f7 1b 3e 0b 84 0c 3e
       0.10247393 0.13364497 0.15231065 0.13722245
0000b0 58 bd 5a 3d 11 16 74 be bd cd d1 be e9 2f 07 bd
       0.05340323 -0.23836543 -0.40977278 -0.033004675
0000c0 86 1a 6e 3e cd 17 a1 3e 63 8a 16 be 71 e7 23 bd
       0.23252305 0.3146347 -0.14701228 -0.04001564
0000d0 e3 f1 a7 3e 6c b6 1e 3e 3b 82 f7 be 6a a0 af 3e
       0.32801732 0.15499276 -0.48341545 0.34302074
0000e0 d5 97 c3 3e b8 42 d3 3e 5c 92 91 3e 33 d5 0d 3e
       0.38201776 0.4126184 0.28431976 0.1385086
0000f0 50 a4 e9 3e 9c 2b f3 3d da dd cd be b0 3c d1 be
       0.45633173 0.11873552 -0.40208322 -0.40866613
000100 ee 3b 64 be 63 94 dd 3d 5a f4 c2 3e 0f aa 8e 3d
       -0.22288486 0.10819318 0.3807705 0.0696603
000110 8d db 17 bf f5 aa 99 be ce 3b 85 be a0 aa 41 3e
       -0.5931938 -0.30013242 -0.2602219 0.18912745
000120 3c 1d d0 3e d4 ea 43 bb 68 9a 02 bf 91 a9 80 3e
       0.40647304 -0.0029894607 -0.51016855 0.2512937
000130 18 36 b4 3e cb 00 89 3d ef 17 03 bd 5c d0 18 be
       0.3519752 0.06689604 -0.032005247 -0.14923233
000140 00 f4 90 3d 85 da db be 0d 98 95 3e ed 36 49 3e
       0.07077789 -0.42940155 0.29217568 0.19649859
000150 f6 54 f7 3e 9a eb 36 be 56 34 6a 3e b3 07 b9 bd
       0.48307008 -0.17863312 0.22871527 -0.09034672
000160 a0 2d d6 be 47 f2 5b 3e b0 bf 9d 3e 0b 3f a6 be
       -0.41831684 0.2147914 0.30810308 -0.32469973
000170 a2 a5 73 3d 30 f2 1d bd ce c1 ef 3d c2 1a 60 be
       0.05948413 -0.038561046 0.11706887 -0.21885207
000180 42 72 cf 3e 1d 94 69 be b7 b6 3a 3e aa 16 88 bc
       0.4051686 -0.22810407 0.18233763 -0.01661237
000190 65 4a 3b be 90 11 4d be 15 e6 86 be 8c d8 2b 3c
       -0.18290098 -0.20026231 -0.26347414 0.0104886405
0001a0 73 f7 86 3c 92 07 84 be bd b4 07 3e df 68 d0 be
       0.016475415 -0.25787026 0.1325254 -0.4070501
0001b0 4d 2a 4d 3e 23 e9 52 3e cc a7 1a 3e 7c 57 18 3d
       0.20035668 0.20596747 0.15103072 0.037192807
0001c0 a3 95 84 3e b0 cc ac be 5c 5b 95 be 6d a7 b5 bc
       0.25895414 -0.33749914 -0.29171264 -0.022174561
0001d0 a3 8a 9c 3e 92 98 ad 3c 5f 4b c6 3e 6f 57 f3 bd
       0.3057452 0.021190915 0.3872938 -0.11881911
0001e0 19 a2 20 be fb f7 56 be e8 40 28 3c aa 89 c8 be
       -0.15686835 -0.20993035 0.010269381 -0.3916753
0001f0 e2 4a 00 3e e0 77 79 3e 45 c2 6f 3e a8 b8 86 bd
       0.12528566 0.24362135 0.23413952 -0.06578189
000200 bf e7 9d be 71 7d 19 3f 9a 4e 0d 3e b9 ca a4 3e
       -0.3084087 0.59957033 0.13799515 0.32185915
000210 e7 6d 17 be 64 17 13 bf 37 29 9d 3e 49 64 02 3e
       -0.14788018 -0.57457566 0.30695507 0.12733568
000220 f9 fd 77 3e 3a 3d 04 bf d5 f6 4d be cd ff ed 3e
       0.24217977 -0.51655924 -0.2011369 0.46484223
000230 05 86 a1 3e d7 3f 45 3e 05 3d 0c 3e 42 34 12 3e
       0.3154756 0.19262634 0.13695152 0.14277747
000240 10 94 9e 3e c1 43 38 be fc b5 dd be 4c 78 cc bd
       0.30972338 -0.17994596 -0.43302906 -0.09983882
000250 a5 ad 21 be 0f 50 00 be 11 a1 78 3e f4 d8 1b 3e
       -0.15788896 -0.1253054 0.24280192 0.1521948
000260 ae b9 9e 3e 51 8c b5 3e 28 aa ae 3d 01 02 a0 3d
       0.31001037 0.35458615 0.085285485 0.07812882
000270 38 2f d6 3e 3b e4 96 3e bf cf d9 3e 46 dc a7 3e
       0.418329 0.29471 0.4254131 0.32785243
000280 03 f1 7f 3e 95 93 ab bb e6 4b 1c 3e f0 67 42 3e
       0.24994282 -0.005236099 0.15263328 0.18984962
000290 86 ab 4f 3e 98 63 17 3e b6 9b 27 3e 5e 75 a2 3e
       0.20280275 0.14784086 0.16367993 0.3173017
0002a0 da 58 5e be 6a 8e 25 3e 60 3b 9e 3e 37 62 18 3d
       -0.21713582 0.16167608 0.30904675 0.03720304
0002b0 b7 85 1f 3e 0f 1e d6 3e b9 c9 c0 be c6 a5 dc be
       0.15578352 0.41819808 -0.37653902 -0.43095225
0002c0 79 13 15 3e 4e e8 1e 3e bf 2e 8c 3e 64 ad 22 be
       0.1455821 0.15518305 0.27379414 -0.15886456
0002d0 d9 a6 95 3e 83 06 0a 3e 7e 8a 48 3f dd a6 54 be
       0.29228857 0.13479047 0.7833632 -0.20766778
0002e0 14 34 ac 3d 46 33 00 3f a7 18 a1 3e ed 97 51 be
       0.084083706 0.5007824 0.3146412 -0.20468111
0002f0 67 51 d3 bd 72 43 64 3c 48 f5 c4 bd b8 6d b4 3e
       -0.10318261 0.013932096 -0.09617096 0.3523996
000300 28 5a 6d bd b0 5e 62 3e 03 f6 ae 3e ca 01 81 3e
       -0.057947308 0.22106433 0.34172067 0.25196677
000310 44 9e 83 be 0d 8f 00 bf b9 fb 88 be 9f c4 4b 3e
       -0.25706685 -0.5021828 -0.2675455 0.19899224
000320 f8 85 b9 3e e0 45 45 3e 80 5e d9 3e f9 45 47 3e
       0.36235023 0.19264936 0.4245491 0.19460286
000330 7c 31 c3 3e 7c 33 d1 3e d8 f7 69 bd b7 52 2c be
       0.3812369 0.40859592 -0.057121128 -0.16828428
000340 fe de b3 3e b6 6c 00 bf 3c 5a 65 3e b8 a9 b0 3c
       0.35131067 -0.5016588 0.22397703 0.021565303
000350 3e 24 1e 3f 10 7a 0e be 57 86 46 3e 9b 12 0d 3e
       0.6177405 -0.1391375 0.19387184 0.13776629
000360 84 42 0e bf f9 69 b6 bd c6 29 d6 3d cd b1 95 be
       -0.55570245 -0.089069314 0.104571864 -0.29237214
000370 ae 25 3f be 2f b8 8e bc 19 f2 87 3c bc a2 0f bf
       -0.18666717 -0.01742181 0.016594933 -0.5610769
000380 e3 d8 14 3f 89 8d f4 3c 4a d2 15 3e 21 d6 90 3d
       0.5814344 0.029852645 0.14631 0.07072092
000390 06 1c ce be 70 79 11 3e ad 14 2e be 21 6d 5b 3d
       -0.40255755 0.14206481 -0.17000075 0.05357087
0003a0 26 2c cf 3d 93 1f 5a be db b3 f9 bd e7 4d c0 be
       0.101158425 -0.21301107 -0.12192508 -0.37559435
0003b0 82 0b 85 3e 45 b2 02 3e 46 c5 0a 3f 5e 3d 80 3c
       0.25985342 0.12763317 0.54207265 0.015654262
0003c0 6c 33 3a 3d 42 9a 8e be 18 82 9b be 82 70 66 3e
       0.045459196 -0.27852064 -0.3037269 0.22503856
0003d0 0a 23 c3 3e ba 46 04 bf 28 47 72 3d 01 6e 3d be
       0.3811267 -0.5167042 0.05914989 -0.18498994
0003e0 cd ff 03 be e1 5e 14 be f1 72 a1 be 5b cb e3 be
       -0.12890549 -0.14489318 -0.31533006 -0.44491085
0003f0 41 9f 03 3e 5d 15 64 3e 2b dc e0 3e ae 6a fb bd
       0.1285372 0.22273774 0.43917975 -0.12276207

fc4.bias f4 [4]
000000 0b 98 17 3d 96 04 8f 3d 94 64 39 3d 96 19 fd 3c
       0.037010234 0.069832966 0.045261934 0.03089599
