trained_models/checkpoint_ep3000.pth (torch, 416160 bytes, 14 tensors)

fc1.weight f4 [256, 8]
00000000: b85d 33be 9ebb 6a3e 79b2 d63e ed05 6a3f
00000010: 5458 193e bdf9 01bf dfd6 883e 6460 3e3e
00000020: 4b55 92bd 75f2 5b3e 2d1e 053f 1ce0 843f
00000030: 9c14 633d bc04 e0be c6de 853e 840b 373e
00000040: 76fa dcbe f92a ff3d d957 2f3f 026e 303f
00000050: 4888 f33b 85ee c03d 925b 4c3e 998e ed3d
00000060: b956 fdbe 5852 023e e5e2 123e ac52 163d
00000070: fd8a d63c 037a 343d 11c7 a03e 522d 04bd
00000080: 7b31 debe 9da1 623e eba2 063f 169e 473f
00000090: d24d 2b3e e273 b8be 90ba 753e b46d 52bc
000000a0: 6193 c6be da4a 983e dcd1 2a3f 0e12 743f
000000b0: 9a8e 9a3d 0226 fbbe 6c30 683e 69f2 f33d
000000c0: 1a70 0f3e ec39 9f3e cc38 9c3e 80c3 953f
000000d0: 8b23 9e3e 8d63 9dbf 67b4 933e afc2 933e
000000e0: 6e3c 41bf 709b dcbc f436 603f cdd4 a93e
000000f0: c3bc 9abc 6acf ca3e 4d15 833e 56d4 fb3a
00000100: 43fc 98be ec55 253e ce80 203f 181f 403f
00000110: 1296 d93d ce0a d0be 5a09 813e e764 b93d
00000120: 9651 c2be 802d 5d3e 7452 1c3f b0ea 563f
00000130: b49a fe3d fc30 c5be 69ba 723e 6fc8 a83d
00000140: c840 1dbe 5889 803e 475f 113f 7427 803f
00000150: a7c1 163e 5cb7 38bf a2a6 8a3e 139e 223e
00000160: 2f41 04bf 27b0 94bc de12 323f 695d 0b3f
00000170: cae9 99bd ff28 5d3f 812d 0e3e 9f9e f2bd
00000180: 09aa b0be d312 cc3d 87b7 263f aa79 743f
00000190: a4b8 d73d 3ed2 c2bd c022 623e 0d2f 7b3d
000001a0: 3643 aabe 51d8 113c ff02 3a3f 1093 1b3f
000001b0: dee1 343d 77ec 973e e3eb 393e 2738 fd3d
000001c0: be03 8ebd 11d6 ba3e 48c0 c13e 47af 943f
000001d0: f1b5 2d3e f5a2 8fbf 0a1a 933e 5b03 b83e
000001e0: 1b30 96bd 65f5 1fbc 14ba 41bf 61fb 9fbe
000001f0: f87d 82bc 74d2 87be 8230 353f 1b7b d2bc
00000200: 4028 973e 03e4 c03e e53b 713e 5b8e 813f
00000210: 5c1d 823e 998c 9dbf c851 993e 62c4 493e
00000220: 2aae 02bf 8240 f93d 52dd 233f 37ef 693f
00000230: 315b 193e 06ef 92be 8780 723e b3a3 033e
00000240: e65d bdbd c65e 9d3e f129 ba3e 6d4f 883f
00000250: 9ba2 893e 79d5 76bf cfbb 923e d386 503e
00000260: f172 ffbe b687 043e 55ab 1d3f 01e6 713f
00000270: 8d69 ce3d 31f7 033f bf83 cbbe 856d cd3d
00000280: 96f0 bfbe dc07 093e 3b54 233f cb0f 2c3f
00000290: 0b6d 7dbc 31b0 5c3e d760 443e 8239 1ebd
000002a0: 7420 9abe 6d5d 563e 3a43 093f 7af5 dd3d
000002b0: aef3 593d 7351 b8be 5fac 963e 0717 263e
000002c0: 73e3 78be 7b4b 6b3e 4397 253f 28fa 773f
000002d0: 1502 8b3d b7d1 babe 6c95 723e 9c0f b13d
000002e0: 02eb 8dbe 2f18 273e a967 f23e 2be1 1e3b
000002f0: 3eb5 c33d 8fcb d4be d130 ba3e ba43 ca3d
00000300: 31cf d6be 6cac 2d3e b7c6 1e3f 9881 c33e
00000310: afde aabd 10dd 7ebe 66b6 023f 2a81 11be
00000320: a308 eb3e 90b6 623e f054 9cbf 8d9b 72bd
00000330: 46dc aa3e fc1f ecbe 99bc de3d e65e 1c3e
00000340: 3165 873e 0343 223e b0c1 11c0 fa42 943e
00000350: 969c a83d f9be 69be e2d4 6c3e 24b9 f43d
00000360: 1f17 bfbe 5579 2b3e a296 363f 5495 823f
00000370: d8db ff3d e5c4 93be aead 693e c015 303d
00000380: 5b82 3e3d 1c73 7d3e 3643 0b3e 0d89 2c3f
00000390: 9956 0d3e 1c86 75be 5eb3 873e 8134 743d
000003a0: b17e 833d d5e9 ad3e f232 ca3e e9cb 853f
000003b0: 83ac 113e 8974 5fbf dad4 903e 7bec dd3d
000003c0: ea27 45bf b933 b6bd 72e0 e73d 55ec 51bd
000003d0: 9eb6 b6bd 1a42 0e40 8f43 463b c57f 97bd
000003e0: b16a 8abe fad1 7f3e 48ab 143f 1408 613f
000003f0: a0a5 dc3d be82 02bf aa5b 7d3e 2d5f 3e3e
-0.1751622 0.22923133 0.4193304 0.9141529 0.14975101 -0.50771695 0.26726434 0.18591458
-0.071451746 0.21479209 0.5199917 1.0380893 0.055439577 -0.43753612 0.26146525 0.17875487
-0.43159837 0.12459368 0.6849342 0.6891786 0.0074320175 0.09420494 0.19956806 0.11599464
-0.49480227 0.12726724 0.14344366 0.036699936 0.026189322 0.044061672 0.31401876 -0.032269783
-0.43397126 0.22131963 0.52592343 0.77975595 0.16728905 -0.36025912 0.23996949 -0.012843538
-0.38784316 0.29744607 0.6672647 0.9534005 0.0754673 -0.49052435 0.22674721 0.119114704
0.14007607 0.31098878 0.30512083 1.1700287 0.30886492 -1.2296005 0.28848574 0.2885947
-0.75482833 -0.026929587 0.8758385 0.33170167 -0.018888837 0.3961137 0.2560219 0.0019213061
-0.2987996 0.16146058 0.6269654 0.75047445 0.10624327 -0.40633243 0.25202447 0.09052449
-0.3795287 0.21599388 0.61063313 0.83951855 0.12431851 -0.38513935 0.23703922 0.08241355
-0.15356743 0.25104785 0.56786007 1.001204 0.1472231 -0.72154784 0.27080256 0.15880613
-0.5166196 -0.018150402 0.6956004 0.5443941 -0.07515295 0.8639068 0.13884546 -0.11846661
-0.34504727 0.09964528 0.6512379 0.95498145 0.10533264 -0.09512757 0.22083569 0.061324168
-0.33254403 0.0089016715 0.7266082 0.60771275 0.044160716 0.29672596 0.1815639 0.12364226
-0.069343075 0.36491445 0.3784201 1.161599 0.16963936 -1.1221606 0.28730804 0.3594006
-0.07333394 -0.009763096 -0.7567456 -0.31246474 -0.015929207 -0.2652775 0.7077714 -0.025693467
0.29522896 0.3767396 0.23558004 1.0121568 0.25413024 -1.2308532 0.29945207 0.1970382
-0.51047003 0.12170507 0.64009583 0.9138064 0.14976193 -0.28697985 0.23681842 0.12855415
-0.09246425 0.3073637 0.36360124 1.0649239 0.2688187 -0.96419483 0.28658912 0.20363931
-0.4989238 0.12942395 0.61589557 0.94491583 0.10078726 0.5154906 -0.39748952 0.10030655
-0.3748824 0.13381904 0.638004 0.672116 -0.015467892 0.21551587 0.19177566 -0.038629062
-0.30102885 0.20934077 0.53618205 0.108378366 0.053210907 -0.3599964 0.29428384 0.16219722
-0.24305515 0.22978012 0.6468393 0.96866083 0.067875065 -0.36488125 0.23689812 0.086455554
-0.2771836 0.16317819 0.4734471 0.0024243097 0.095560536 -0.41561553 0.3636537 0.09876199
-0.4195495 0.16960305 0.62021965 0.3818481 -0.08343255 -0.24889016 0.5105957 -0.14209428
0.45905027 0.22139955 -1.2213421 -0.059230376 0.3337118 -0.46118152 0.10875816 0.15270576
0.2644439 0.15845875 -2.2774467 0.2895735 0.082329914 -0.22826757 0.23128083 0.11949375
-0.37322327 0.16745503 0.713236 1.0201821 0.12493104 -0.28861156 0.2282016 0.042989492
0.046511035 0.24750942 0.13599858 0.6739662 0.13802566 -0.2397694 0.26504034 0.059620384
0.06420649 0.33967462 0.39491993 1.0452853 0.14225964 -0.87287194 0.28287393 0.10836121
-0.7701403 -0.08896584 0.113221064 -0.051250774 -0.0892155 2.2227845 0.003025267 -0.07397417
-0.27034524 0.24982443 0.58073854 0.8790295 0.10773778 -0.50980747 0.24741998 0.18590994

fc1.bias f4 [256]
00000000: fbe9 113e 5346 283e 6c12 253d 857f 883b
00000010: 31f5 ec3d 9a6f e53d 4ea6 9b3e fdf2 50bd
00000020: b4b8 163e 8c73 d53d e30f 373e 3acc d3ba
00000030: cb30 9b3d e403 40bc 0dcc 923e ccec 48bd
00000040: 1458 a93e a677 c43d 3d85 553e 8895 c33d
00000050: 3a86 873d 24de b23d 196e dd3d 8ca4 ab3d
00000060: 0974 48bd e86d 653e 0f63 c63d 24f4 923d
00000070: a0b0 ec3d 0dde 843e 63a1 22be e58a f23d
00000080: dbef 9fbd d3bc cc3d 597b cd3d 6763 4a3d
00000090: a6e2 9c3d f418 b93d d0ac cd3e a2c2 fa3d
000000a0: 16a4 90bd 1b2f f93d 4bd6 7f3d ec93 103e
000000b0: 6b49 b23e 16db 2dbe 084c c2bc 85c3 6a3c
000000c0: a49a 9d3e 341c 363d 917f bb3d f337 b73d
000000d0: cc31 8abc 3ae8 dd3d e272 063e 4a66 3c3e
000000e0: df2a 913e 6e6b 093e 2a3a 48bd f4b4 88bd
000000f0: b360 19bd 343a 563e 9b7d 6a3d 0e66 633e
00000100: e066 a23c 94bd 91bd cda3 293e 58b7 833d
00000110: d8d0 14bd fad1 f23d 88bb e93c 45b5 1a3e
00000120: 197e f73c b610 8e3d 8c84 083e 5f3e 873e
00000130: df02 013e 6bea bf3d 33a3 053e 0a35 7d3e
00000140: 62b8 183e 2283 ab3d 6d54 753d fef1 8b3b
00000150: cbbd 923d addb e13d 7233 3b3d a550 6e3e
00000160: 4665 163e 167f 9c3e 7680 c3bd 0249 223e
00000170: 7aa0 ea3d ea00 193d 2a73 1c3e f312 8a3c
00000180: e3fb 513e dc8e 573d 4a2a 643e abf7 253e
00000190: 26ca 033e 386e a93c 21cf 18bd 6de2 a43d
000001a0: 55e3 8c3d c9e5 193e 9ed1 9e3d f707 013e
000001b0: da49 153d 2139 21bd 76eb 5e3d 2f39 52bd
000001c0: b029 203c 36fb 023e 84c1 f53d 2e9f ec3d
000001d0: 1476 183e 9ffd 423e 5e5f 483d ed72 d83e
000001e0: 654b 2e3e d15e 123e 2e4d 7cbd fc57 e5bd
000001f0: bea0 063e b439 7b3d 495b f03e 69ee a83d
00000200: 328d c73d 0be3 cd3d 384e 0c3f 5d58 b83e
00000210: d4de f83e f4e9 483e ef17 023e 30e2 8e3e
00000220: 1ec8 153e a4c9 f73d 5607 ad3e f280 b13d
00000230: 8abf fa3c 30b6 133e 5674 ad3e 8b0f 7e3e
00000240: bf8c 9c3d dce4 1c3e 0129 a33d a686 d43d
00000250: 6643 973d 4efe e33d ce28 083e f38f 31be
00000260: fae9 1b3e 0eed a43d 7ad9 d63d b8c5 da3d
00000270: b707 6ebd c902 df3d 952c 033e 58e4 1d3e
00000280: 9c2c b63d d6c6 b93e c376 273e feb5 953e
00000290: 8f3c 9d3d 64b5 f53d 663e aa3d aa1a 5d3e
000002a0: f3b2 b03d a9bd 213e 19af 133e 87dd 843e
000002b0: 1608 9c3d 8cd6 fc3d 7c98 273e cdd9 113e
000002c0: f334 243e 1de8 e03d f6ed 22be 6234 0a3e
000002d0: 3f3b e13d 01f8 803e 2909 043e 4ad3 203e
000002e0: c2b3 933d 0b1f e93d cfc3 0c3e 525b 973d
000002f0: 0b73 223f a24c c13e ae44 df3d 2775 023e
00000300: efff dcbb b98c c2bd 8433 af3c 1800 e1bd
00000310: 23f2 a73e 42a0 7d3d e048 0a3e d4b5 cd3c
00000320: 0321 1d3e 1a07 283e cfa0 b63e 6065 0d3e
00000330: 89d0 a33d 3c2c 383e 8c66 003e 3c43 8c3d
00000340: 3ea6 48bf b78b 173e a202 093e 2dce 2b3e
00000350: 88b5 903c 40d9 f83b fcf7 2b3e ced2 0d3e
00000360: af52 2e3e 5f1c 5e3d e0dc dc3d f7ec b5bd
00000370: 5d3f 8d3d 9a9a d93e 582d c23d a3a1 3c3d
00000380: b54a 383e ef86 103e 8e18 47bc aa2b 173d
00000390: fbd7 b6be 3561 053c 4028 373e 0e28 9cbd
000003a0: 771b 423f dda6 0a3e 2ca9 b43d 22ff 323b
000003b0: 4684 013e 38c9 69bc a0e6 653e 0234 373e
000003c0: f900 913e e30e b13d 251c 983d 40f7 c23e
000003d0: bae2 1a3e 18b0 c53d 3c10 a43d 24fb 4a3e
000003e0: a22c 103e 64e5 223e 4eed b8bb 13dc 893c
000003f0: 0452 3e3d 9371 813d b28a 3a3e 6b15 133d
0.14249413 0.16433077 0.04030077 0.004165592 0.11570204 0.11202927 0.30400318 -0.05101298
0.14718896 0.104224294 0.17877154 -0.0016158887 0.07577666 -0.011719678 0.28671303 -0.049053952
0.3307501 0.09593134 0.20851608 0.09550005 0.066173986 0.08733776 0.10812015 0.08380994
-0.048938785 0.22405207 0.09686863 0.071754724 0.11557126 0.2595066 -0.15881877 0.11842898
-0.07809421 0.09996953 0.10033292 0.049411204 0.07660417 0.090379626 0.40170908 0.122441545
-0.07062547 0.12167188 0.062460225 0.14118928 0.34821638 -0.16978106 -0.023717895 0.014328842
0.30782044 0.04446049 0.09155191 0.08946218 -0.016869448 0.10835309 0.13129762 0.18398395
0.2835302 0.13419887 -0.048883595 -0.06675139 -0.037445735 0.2092064 0.057248693 0.222069
0.019824445 -0.07116237 0.16566391 0.064314544 -0.03633198 0.11856456 0.028531805 0.15108211
0.030211495 0.06936781 0.13331813 0.26414773 0.12598751 0.093708836 0.13050537 0.24727264
0.14914086 0.08374621 0.059894968 0.004270791 0.071651064 0.11028228 0.04570336 0.23272951
0.1468707 0.3056571 -0.09545986 0.15848163 0.1145639 0.037354387 0.15278307 0.016854739
0.20506243 0.052626476 0.22281757 0.16207759 0.12870082 0.02068244 -0.03730691 0.08051
0.06879298 0.15029062 0.07754825 0.12600695 0.036447383 -0.039361123 0.05442377 -0.051324066
0.009775564 0.12791142 0.11999801 0.115537986 0.14888793 0.19042061 0.048919074 0.4227518
0.17020948 0.14293982 -0.06159704 -0.11198422 0.13147256 0.061334327 0.46944645 0.08248598
0.09743728 0.10053071 0.5480685 0.36004916 0.48607504 0.19620496 0.12704442 0.27906942
0.1462712 0.12099007 0.3379466 0.086671725 0.030608911 0.14424968 0.3387782 0.24810617
0.07644033 0.15321678 0.07966805 0.10377245 0.07385902 0.11132489 0.13296816 -0.17340069
0.15225974 0.08053027 0.10490699 0.10682243 -0.058112826 0.10889203 0.12809975 0.15419137
0.08895227 0.36284512 0.16353898 0.29240412 0.07677566 0.11997488 0.08312683 0.21592203
0.08627882 0.15795006 0.14422263 0.25950262 0.0761873 0.12345609 0.16366762 0.1424324
0.16035824 0.10981772 -0.15911087 0.13496545 0.109976284 0.25189212 0.1289412 0.157056
0.072120205 0.11382874 0.1374657 0.07390465 0.6345679 0.3775378 0.109017715 0.12740003
-0.006744377 -0.09499497 0.02138687 -0.10986346 0.32801923 0.061920412 0.13504362 0.025111116
0.15344624 0.16408959 0.35669562 0.13808203 0.07998759 0.17985624 0.12539119 0.068487614
-0.78378665 0.1479939 0.1337991 0.16777869 0.017664686 0.0075942576 0.16793817 0.13849947
0.17023729 0.054226276 0.10784316 -0.08883088 0.06896851 0.42500764 0.09481305 0.046052586
0.17997248 0.14113973 -0.01215185 0.036906876 -0.35711655 0.008140852 0.17886448 -0.07624827
0.7582316 0.13540216 0.088213295 0.0027312716 0.12648115 -0.014269166 0.22451258 0.17890933
0.28321055 0.086454175 0.07427243 0.38079262 0.15125552 0.09652728 0.08010909 0.19822365
0.14079526 0.15907818 -0.0056435233 0.016828572 0.046464935 0.06320491 0.1821697 0.035909098

fc2.weight f4 [256, 256]
00000000: 69f7 a03c 361b 453e b8af 9b3c bab4 bdbd
00000010: 5fca 16bc 555d c13c d9b8 a53e 073a 95be
00000020: 1499 753e 699c 233d d068 113d 45e9 c23d
00000030: 3ba0 063e 74ff f7bb b51d 843d ec1a 6bbf
00000040: e5f4 823e bde7 09be 0efe b53d e1d6 ea3e
00000050: cafd 92be af0d c4be 4d34 0d3e cde6 1abe
00000060: 9459 e0be 1dcd 99bf 026d 02bf fcb5 c63c
00000070: 6caf e5bd f5b5 d23c 1748 35be 289b febd
00000080: 6022 523e d5fc 9c3e 5fdb 62be c7cc 33bd
00000090: d40e da3d 1dfc 67bd fa86 9d3f 9f7c b3bd
000000a0: 8d46 4e3e 13f9 57bd 0fa2 93be f644 613e
000000b0: 778a bcbe e011 d5be cffb b1bd 9e08 95bd
000000c0: 62fa 5fbe e77b cbbe 8077 d4bd 8025 3abd
000000d0: 01f1 dabe 08a0 13bd be00 e83d 03f6 dd3c
000000e0: c015 d13c b00c d93d 045f dabc b9ce aebe
000000f0: c555 873c 307c e73d 662c 043d 9221 5fbd
00000100: 219b 533c 5823 23be e85b 193e dd58 013e
00000110: f6ae 10bd 054e 45bd f8ec 9a3d 9bb9 353e
00000120: 271c b7be e8ce 11be 576d ebbc a3f9 0dbe
00000130: 906e 9f3e aafd c23c b40c 12bd 31b9 79bd
00000140: d27b 90bd 7823 29bd e2b1 78bf 05b0 3abf
00000150: 430f f4bd a698 c4bc f9a6 e1bd 9983 183e
00000160: 1c9a 323e 758e c53d bda5 0dbf 1f62 dd3c
00000170: 8670 c0bd deeb c73a 1dcb 0f3d 011b 98bd
00000180: 3f6c 6b3e ad55 e8bd 0b28 33be 8207 813e
00000190: 586a 8b3e 429c 033f d45b a9bd c460 87bd
000001a0: a44e 8d3d e426 b1bd 4c69 77be d876 5dbe
000001b0: f209 bbbd cffc 88be 95b7 c9be 135f ffbe
000001c0: 6b57 9b3e a3aa 0dbe c4da 863d e451 373e
000001d0: 8c53 093e 1a0f 163e 65a6 e3bd 77f8 41be
000001e0: 8e55 a53d 17dc 103e d690 f13d bba4 babd
000001f0: 035d 0abe 15c8 84bc 8033 0fbf c73d 033f
00000200: 32bb 2b3d bc21 c03d 7b34 55bf e75b a23f
00000210: ac63 a43c a2bb 803c 93b5 3cbe 1b6d 38be
00000220: 8c0b 9cbf e9c5 14be a96a 5e3f 8dd2 e33d
00000230: 33d1 52bf 0a6d e43d c1ec 043f 1064 82bf
00000240: 17b1 e13d 0cea 13bd 8cce 95bc 43f7 453e
00000250: 1ae9 793e 5f88 ad3d b549 42bc 043b fbbe
00000260: c5f9 163e e0ec 2c3e 6915 383d 2e76 c63d
00000270: ab92 5dbd 1389 013d 8218 2dbd 1686 60bc
00000280: 8924 0dbe 05ab b03f 968a b7bd 703f d43f
00000290: 8cea eebd 9681 133f a884 1bbf ddf5 253e
000002a0: c4d8 73be 46fd 0abf 4d82 163c 9b40 353d
000002b0: d276 94bd 8863 0f3e e6fc d9be 994f 05bc
000002c0: 3735 71bd e222 2abf cec7 cb3d 0f66 2cbe
000002d0: b063 283e 143b 643f 5c25 49be 3b9f c43e
000002e0: 212f b73e 6cde 9cbb 4afe 073e 378a 0abe
000002f0: bd2a 32bf 9751 7c3f 33fc a3bd af65 293d
00000300: 050a 2abe 630a 7bbe 38bb 9abd fe20 36be
00000310: 7742 853f 2ffe c3bd 9758 1b3d 0079 a03d
00000320: 30d2 143d 7b85 a0bd 4bf6 b03f fc7c 173c
00000330: a478 6abf bef8 a23b 9013 4d3f 3344 703c
00000340: fd1f d1be 4bbd f43c 2cfc efbe 60a5 953d
00000350: c02b a0bd eabb f9bd 8cd0 c0be 77db 64bf
00000360: 12be 543e 4b0b 57bb 142e 413c f34d d7bd
00000370: a7c2 d6be 7811 9b3d 7614 0dbc 53f1 8bbd
00000380: f7db 7c3d 977f 5cbe cf60 943c 2e01 52bc
00000390: 6cce 22bd 29bc d2bd abd7 083d ec48 bcbd
000003a0: cb7e 56bc b3da 903e 275b 513d 40c8 55be
000003b0: 8547 d3bd 8c00 603d 20d9 b63c 039f 0dbe
000003c0: b1b9 1e3f 14c4 033d 4406 b6bd 57ab 073e
000003d0: 07f8 f23c bd9f 39bb d0c3 9c3e 758b a43e
000003e0: 3c3f d23c b2ed 13be 4d05 e0be 0d5c a1be
000003f0: aeb9 543d 5d36 78b9 4d53 593d c0dc 5b3c
0.019649224 0.19248661 0.019004688 -0.092629865 -0.0092035225 0.023604074 0.3236759 -0.29145834
0.23984176 0.039944086 0.035500348 0.09517149 0.1314706 -0.007568294 0.06450979 -0.91837955
0.25577465 -0.13467307 0.08886348 0.45867065 -0.2870925 -0.3829169 0.13789482 -0.15127106
-0.43818343 -1.2015721 -0.5094758 0.024256699 -0.112151 0.02572153 -0.17703281 -0.124319375
0.20520926 0.30661646 -0.22153996 -0.043896463 0.106473595 -0.05663692 1.2306817 -0.08764004
0.201441 -0.05272777 -0.28834578 0.21998963 -0.3682439 -0.416152 -0.08690607 -0.07277034
-0.21872857 -0.39742967 -0.10374355 -0.04544592 -0.42761996 -0.03604129 0.113282666 0.027094847
0.025523067 0.10598123 -0.026656635 -0.34142092 0.01652039 0.11302984 0.032268904 -0.054475375
0.012915404 -0.15931451 0.14976466 0.12631555 -0.035323106 -0.04817011 0.075647295 0.17746584
-0.35763666 -0.14239085 -0.02873866 -0.1386476 0.3113904 0.023802597 -0.035656646 -0.060967628
-0.07054867 -0.04129359 -0.9714643 -0.72924834 -0.119169734 -0.02399857 -0.11018176 0.1489395
0.174416 0.09646312 -0.5533102 0.027024327 -0.09396462 0.0015252789 0.035105813 -0.074270256
0.22990511 -0.11344466 -0.17495744 0.2520104 0.2722957 0.51410306 -0.08269468 -0.066102535
0.06899765 -0.08649996 -0.24161261 -0.21627367 -0.09132756 -0.26755378 -0.39397874 -0.49877223
0.30340132 -0.13834624 0.06584695 0.17902333 0.13410777 0.14654198 -0.111157216 -0.18942438
0.08072959 0.14146458 0.117952034 -0.09113451 -0.13512044 -0.016208688 -0.5593796 0.5126614
0.04192657 0.09381434 -0.83283204 1.2684296 0.020067059 0.01571447 -0.1842864 -0.1801037
-1.2191024 -0.14528622 0.868815 0.11124144 -0.8235046 0.1115361 0.5192376 -1.0186787
0.11020105 -0.036111876 -0.018286966 0.19332604 0.24405327 0.08473276 -0.011858393 -0.49068463
0.14743717 0.16887236 0.044942293 0.0969051 -0.05409495 0.031624865 -0.0422597 -0.013703844
-0.13783468 1.3802191 -0.0896198 1.658186 -0.1166583 0.5761961 -0.6074929 0.1620707
-0.23813158 -0.54292715 0.00918634 0.044251066 -0.07249226 0.14002812 -0.4257576 -0.008136653
-0.05888864 -0.66459477 0.09950219 -0.16835807 0.16444278 0.89152646 -0.19643158 0.38402733
0.35778144 -0.004787257 0.13280597 -0.13529287 -0.69596463 0.98561996 -0.080070876 0.04135674
-0.16605385 -0.24515681 -0.075552404 -0.17786023 1.0410908 -0.09569966 0.037926283 0.07835579
0.036333263 -0.078379594 1.3825163 0.009246107 -0.91590333 0.0049735 0.80107975 0.014664697
-0.40844718 0.029875418 -0.4687208 0.073069334 -0.07820845 -0.12194045 -0.3765911 -0.89397377
0.20775631 -0.0032813128 0.011790771 -0.105129145 -0.41945383 0.07571691 -0.008610835 -0.06833138
0.061733212 -0.21533047 0.018112568 -0.012817664 -0.03974764 -0.10289795 0.033408802 -0.09193596
-0.013091753 0.28291854 0.05111232 -0.2087717 -0.10316376 0.05468802 0.02232033 -0.1383019
0.6200209 0.032169417 -0.08887914 0.13248955 0.029659284 -0.0028323971 0.30618143 0.32137647
0.025664918 -0.14446142 -0.43754044 -0.31515542 0.05193489 -0.00023671375 0.053057957 0.01341933

fc2.bias f4 [256]
00000000: 382b 2f3e ef26 0bbd 3424 3ebe 9e76 523f
00000010: 926f 08bf bcb2 efbe bcaf 3dbe 9f83 38be
00000020: ad2d 1bbf ec31 2abe edab 933e 9d51 39be
00000030: 2da0 d5bc 4f76 6bbe 3772 7bbe 6318 a33d
00000040: e87e 5c3e cf89 babc f73b 19bf fe4c a9be
00000050: 263d e43e 3890 a73e 67ae 0dbe d89b 7bbe
00000060: e218 5ebe 8805 89be 47da 56be 0178 13be
00000070: 81f2 013d 3159 853c 36ee 05bf 42d5 f2bd
00000080: a4b8 57be 7b70 21bf b3b2 57be 4092 bfbe
00000090: 8193 bdbd 7e6c 09bf 77aa 18be 0fc4 6bbe
000000a0: 7156 7dbe 9bb1 02be 6b12 4e3e 73d4 b5be
000000b0: 398a ffbd 1d24 96be c4b5 33be dec7 56bd
000000c0: ecb8 61be 8842 46be 2f3d 20be a844 1bbf
000000d0: 5cd2 66be dda4 15bf 1077 15bf 48a3 55be
000000e0: d59a eebe 4efa 163f 72a8 61be fbde a9be
000000f0: d8a3 64be 25e1 8a3d 1852 82be 63bd c7bc
00000100: 4b57 41be d25b a4be 8645 2ebf d062 e4bd
00000110: 599b 32be fda4 273e 3e4a 8dbe 2bad 3dbe
00000120: 8427 293e b04d 67be 60f8 4ebe 84dc ce3c
00000130: b774 45bf 2bd8 89be 805b 31be 9410 62be
00000140: 3495 0e3e b680 0d3e 79e5 bd3e 9f4a 43be
00000150: 3632 63be ec3c fbbd 1168 19bf e5d5 a33e
00000160: 7962 063e 3ffa d53d d934 85be 8fac 063e
00000170: 0261 32be 88ea 863d 9492 56be 9c0e 85be
00000180: 8cce 73be 1c0c b03c 20c2 edbe fd61 1abf
00000190: 0da0 9fbe dde1 4a3e 76dc d83b 9757 dfbd
000001a0: c16c e53e 6103 41be 8a3d 35be 86ee 2dbe
000001b0: 4a0d 0fbf 9958 7d3e 7f28 22bf dd1f a43d
000001c0: 7709 9bbc ffb6 82bd b197 79be 89d2 34be
000001d0: c17f 80bd abf0 0d3d cc32 83be 9513 13be
000001e0: 34dd 76bd 55f1 78be 7bab 873e e19f d4be
000001f0: 8faa 17bd 6272 97be f764 61be 6818 1bbe
00000200: cd79 65bf ecd0 d83d e0ef 8dbe 240a 94bd
00000210: 79c4 793e c9dc 57be 8c83 66be 6423 78be
00000220: ff4a eabe 4a50 6ebe 6d06 93be 2f1f 31be
00000230: 5836 32be a6f5 5fbe f478 09be 0a9d 1fbe
00000240: e33b 22be 2070 953e f0f2 97be 33d0 5dbe
00000250: f3b7 843e 64a4 85be 0599 7dbe 37e3 57be
00000260: 2182 91be 0db5 30bf 258e 82be 782d 5f3e
00000270: c39b 87be 8d8b 18be 8f9c 6ebe b7c3 46bf
00000280: 97a0 f8bd 2106 35be 3d0f 503d 1ec5 85be
00000290: 56d7 14bf f8eb 17bf 0011 163e 85bf 843d
000002a0: e8a4 43be 9b6a 043e d9fc 093f 7f96 8e3e
000002b0: 36a8 ae3e 3cb8 7fbf 5f81 51be 2433 0d3d
000002c0: e5b3 41be f0d5 4cbe 761e 57be 94bd 59bc
000002d0: 816d fbbd 9d29 7e3f 3203 3fbe 4a0f e8be
000002e0: ed52 7abe 3f92 9cbe c6b9 163d eaa2 fbbd
000002f0: e41d 923e 4bac 03be a916 e8bd 48c6 c33e
00000300: 59c2 22be d296 18bd 2aab 973e 8dec 22be
00000310: 7c68 cf3e 724b 0bbd 9d19 403e 992e 96be
00000320: 105f b2bd aa9c 22bf 1d4d d7bd 88f9 4abe
00000330: de58 31be 1c50 5dbe e090 b7bd cb95 5ebe
00000340: 58b5 3dbe 273d 99be bb4a a53d 833b 18bc
00000350: 679e 5ebe 2feb 21be 07cb 6ebe 3920 76be
00000360: 8065 c2be fad6 f2bd 8c63 4b3e 160d fdbe
00000370: ca29 6bbe 908c fcbe 5fdb d13c cd9c 28be
00000380: 4603 86be d540 2bbe 682e 3dbf cdc3 73be
00000390: 369d 083b 6aae 53be e511 38be 0d80 1fbe
000003a0: 82ea 85be 039d 80bd f65d 8ebe 4c3b 5abe
000003b0: 6c95 283f 7332 f53e 4d33 5c3d 28c6 71be
000003c0: a285 72be a5f1 4fbe 8677 78be 265a 74be
000003d0: d831 af3e b8dd 5cbe c297 b4bd d59b 40be
000003e0: a270 9fbe 64ba 83bf e6fc 2dbe 37f1 183e
000003f0: e9a5 f8bd 37e7 27be 112a 42be 3523 91bd
0.1710633 -0.033972677 -0.18568498 0.82212245 -0.5329524 -0.4681605 -0.18524069 -0.1801896
-0.6061657 -0.16620606 0.28842106 -0.18097539 -0.026077354 -0.2299435 -0.24555288 0.07963636
0.21532786 -0.02277079 -0.59857124 -0.33066553 0.44577903 0.32727218 -0.1383606 -0.24571168
-0.2168918 -0.26762033 -0.20981704 -0.14401247 0.03172541 0.016277881 -0.52316606 -0.11857082
-0.21066529 -0.63062257 -0.21064262 -0.37416267 -0.0925665 -0.5368117 -0.14908777 -0.23024009
-0.24740006 -0.12763064 0.20124213 -0.35513648 -0.12477536 -0.29324427 -0.17549807 -0.052436702
-0.22043198 -0.19361317 -0.1564834 -0.60651636 -0.22541183 -0.58454686 -0.583848 -0.20863068
-0.46602502 0.58975685 -0.22036913 -0.33177933 -0.22328126 0.06781224 -0.25453258 -0.024382299
-0.18880956 -0.32101303 -0.68074834 -0.111516595 -0.17442073 0.16371532 -0.27595705 -0.1852309
0.1651898 -0.22588229 -0.20211935 0.025251634 -0.7713122 -0.26922736 -0.1732006 -0.22076637
0.13924104 0.1381863 0.37089136 -0.19071434 -0.22187123 -0.12267479 -0.5992442 0.31999126
0.13123502 0.10448121 -0.26016882 0.13151763 -0.17419818 0.06587702 -0.20954353 -0.2598771
-0.2380926 0.02149015 -0.46437168 -0.6030577 -0.31176797 0.19812723 0.006618078 -0.10905378
0.44809535 -0.18848945 -0.17699257 -0.1698552 -0.5587965 0.24740829 -0.6334304 0.0801389
-0.018925412 -0.0638256 -0.24374272 -0.17658438 -0.06274367 0.034653347 -0.25624692 -0.14362939
-0.06026955 -0.24310811 0.26498017 -0.41528228 -0.03702789 -0.29579455 -0.22011171 -0.15146029
-0.8963898 0.10586724 -0.27722073 -0.07228497 0.24391355 -0.21080317 -0.22511119 -0.2423225
-0.45760342 -0.23272815 -0.2871584 -0.17297052 -0.17403543 -0.21871051 -0.13425046 -0.1558725
-0.15843157 0.29187107 -0.29677534 -0.21661453 0.25921592 -0.26101983 -0.24765404 -0.2108277
-0.28419593 -0.6902626 -0.25499073 0.21794689 -0.26486024 -0.14896984 -0.2330191 -0.7764239
-0.12140005 -0.17678119 0.050795782 -0.2612695 -0.58141077 -0.59344435 0.14654922 0.06481842
-0.19105875 0.12931292 0.5390144 0.27849194 0.3411271 -0.99890494 -0.20459507 0.0344726
-0.1891628 -0.20003486 -0.21007714 -0.013289828 -0.122767456 0.99282247 -0.18653563 -0.45324165
-0.24445696 -0.30580327 0.03679826 -0.12286933 0.2853843 -0.12858693 -0.11332447 0.38237214
-0.1589445 -0.03725321 0.29622775 -0.1591055 0.40509403 -0.034007497 0.1875977 -0.29332426
-0.08709538 -0.635203 -0.10512755 -0.19821751 -0.17319056 -0.2161259 -0.089631796 -0.21736829
-0.18526208 -0.29929468 0.08070894 -0.009291532 -0.21740113 -0.15812372 -0.23319636 -0.2403573
-0.37968063 -0.1185741 0.19862193 -0.49424046 -0.2296516 -0.4932599 0.0256173 -0.16466065
-0.26174372 -0.1672395 -0.73898935 -0.23805161 0.0020845658 -0.20672002 -0.17975576 -0.15576191
-0.26155478 -0.062799476 -0.27806062 -0.21311682 0.65853 0.47890052 0.05375986 -0.23610747
-0.2368379 -0.20307024 -0.24264345 -0.23862514 0.34217715 -0.21568954 -0.08818008 -0.18809445
-0.3114062 -1.0291257 -0.16991004 0.14935766 -0.1214102 -0.16396795 -0.1896136 -0.07086793

fc3.weight f4 [128, 256]
00000000: dc9f c63d f9e7 8c3c baf0 a53c 8d64 803e
00000010: efa5 1e3d 5454 0dbf 2c6e 103e 3e22 023d
00000020: e224 26bf c10a b2bd 32f6 66bd e585 93bd
00000030: 0c49 84bd bfc3 95bc fade a0bd 38c9 113f
00000040: 7482 89bf bbda ee3f db57 d9bf b139 dabd
00000050: 995b 96bf fc00 593e 3144 973d 9361 fcbe
00000060: b506 283e acd5 48be 1b06 33be 65b8 fa3e
00000070: 419f 39bc 01a0 1abe 9c72 24bf ca4d 5fbe
00000080: 4a81 e5bc a53f 17bf 1f07 e43d 9964 cbbe
00000090: e821 76be 2be1 0a3e b526 dfbe dd29 4b3d
000000a0: 2cbe 88be 732e 92bd 1377 483e cbed a3be
000000b0: 72ac 2d3f e972 41be 101e d73e 361f 56be
000000c0: d760 203e dffa 3f3e 9b84 ce3e cea9 97bf
000000d0: c2f7 6fbe b7cd 013d abb4 a2be 2eb4 b1bd
000000e0: dc16 86bf b808 83be 6256 02bf 915e f2be
000000f0: 7ed0 0fbd 1087 e4bf 2a1a e6be a292 ac3e
00000100: 343c dfbe 8912 7a3e ea6f a8bf 7cc9 663c
00000110: 1fb0 0fbf 131c da3b 1002 3b3e b657 a1be
00000120: 929d 213e 3e53 b13e 139d 4cbe a116 60bd
00000130: 4da7 153f e74c 123e 120b 3c3e 7b2d a8ba
00000140: 92e7 b43e bc24 41bd 661f d7be c08e 48bf
00000150: f590 6bbf 891f 2abe a4f9 863c d66a 993e
00000160: 747d 22bf 264e 893f d372 ec3d dfa9 83be
00000170: 145e 7abe c8de 60be 9acc 983d c596 a13d
00000180: 8011 c3bd 35b8 103f 6c36 ebbc af70 88bf
00000190: 30a5 e8be dc42 bbbe 72d2 70be 4371 dcbd
000001a0: 31d5 3a3d bc20 9ebd f4d2 a1bb 15b4 fd3d
000001b0: 7f1f 31c0 562e 8abf 0a20 40bf c7ad 2ebf
000001c0: 5bb4 8fbf f827 a43e a6f2 8dbe c782 a5bd
000001d0: 7fc8 d9bd fd52 16bf 6c03 683e 7b1c 39be
000001e0: 3c09 5a3d 57d0 633b e043 f03f bbf9 8abf
000001f0: df03 0f3e bdf6 26be 844f 1c3e da21 6bbf
00000200: 54ba b93e 7fbc 773e ccb6 ffbd d963 11bf
00000210: b38b f53e 49f3 bb3d a21f ae3c 17a9 0bbf
00000220: 70a2 44bf f542 e23d aabf e8bf 68bb 02bf
00000230: e2e5 9e3d 7b72 363d 033e cf3d b0a9 963c
00000240: 47eb 45bd 4b97 37bb 3162 c9bd dc17 3dbe
00000250: da04 58bf e6c0 88bd 6613 253e 6e10 c4bd
00000260: 4a17 ff3c 3c5c c9be 3587 c0bc cdcc c2be
00000270: cc9b a1bd 1495 aebd 2c88 8bbe d535 89bd
00000280: 71a2 5dbd 4117 9abd 4346 12be 0d12 4ebe
00000290: 12fc ad3c cc75 ba3e e625 e73d 0135 7fbe
000002a0: 1a54 9abe b2de 98bd 181d 11bd 3eec d93d
000002b0: 5e68 403f 858a 2abf 81c5 033d 2a0a 47be
000002c0: bdb5 dfbb 7848 593e f4d9 d43d 68c5 32bf
000002d0: ece3 563e 6248 84bf ca7c 7d3d aeac 1f3e
000002e0: 09ac ef3d 4b28 1b3e 4fec f23e 9705 c6bd
000002f0: 9101 183f 1c89 b73d 0f9d 54be 44c4 bb3c
00000300: a203 0e3a d280 ff3e 52f4 bcbf b2cc 4d3d
00000310: ba60 5a3f 362c 9b3e fc3a a5be fe79 c9be
00000320: 1cc0 39be fe36 20bf fa75 b43e a43f 5e3d
00000330: 6a7d 59bd eb18 ad3e fd3c 1e3f d9c4 90bd
00000340: 8fea ec3d 01ce babe dbd8 8ebf ee4b 293f
00000350: d5a9 053f c8e4 a6bd fc3f 8f3e f6a1 10bd
00000360: 05fa 21bf cb77 28be 25be 04bf 1a9c a7bf
00000370: 9b71 d43d 5a5b 14bf fdb3 103e ce47 cbbd
00000380: a5cc bfbe ea53 93be a769 963e 078e 073e
00000390: 6c68 05c0 0d9c 0a3c 9bec 1dbe 60c7 5b3e
000003a0: 9237 fdbc 7bf8 f03e eaa0 823e 1d70 313e
000003b0: 9590 b8be 7467 563f 0a2e 1c3d a117 34be
000003c0: 272b 723e 27e6 3c3e 284d 34be 4a9c f63d
000003d0: bc5d 283f bf44 e5bc 8943 923e 5d88 4ebd
000003e0: a166 1a3d c779 a0bf e499 42bf 4d34 c9bc
000003f0: 065c e73d eaa1 183c ebb0 063d f531 a5bf
0.096984595 0.017200457 0.020256389 0.25076714 0.038732465 -0.552068 0.14104527 0.031770937
-0.6490003 -0.086934574 -0.056387134 -0.07203273 -0.06459245 -0.018281816 -0.078550294 0.5694766
-1.0742936 1.8660501 -1.6979936 -0.10655535 -1.1746703 0.21191782 0.07386053 -0.49293193
0.16408809 -0.1961276 -0.17482798 0.48968807 -0.011329473 -0.15100099 -0.6423738 -0.21807018
-0.028015751 -0.5908149 0.11134171 -0.39725187 -0.24036372 0.13562457 -0.4358422 0.04960047
-0.2670759 -0.07137766 0.19576673 -0.3201736 0.67841256 -0.18891491 0.42015123 -0.20910344
0.15661941 0.18748043 0.40335545 -1.1848695 -0.23434356 0.031690326 -0.31778464 -0.08676945
-1.0475726 -0.2559259 -0.5091306 -0.47337773 -0.035110943 -1.7853718 -0.44941837 0.33705622
-0.4360062 0.24421133 -1.3159153 0.014086124 -0.56128114 0.0066561787 0.18262506 -0.3151223
0.15782765 0.3463382 -0.19981794 -0.05470908 0.58458406 0.14287148 0.18363598 -0.0012830937
0.35332924 -0.047154173 -0.42016143 -0.7834282 -0.9201806 -0.16613592 0.01647646 0.29964322
-0.63472676 1.0726974 0.115453385 -0.2571554 -0.2444995 -0.21959984 0.074609 0.07890085
-0.09524822 0.5653108 -0.028712474 -1.0659388 -0.45438528 -0.36574447 -0.23517779 -0.107637905
0.04561347 -0.07721087 -0.0049384777 0.123878635 -2.7675474 -1.0795391 -0.7504889 -0.68233913
-1.1226915 0.32061744 -0.2772419 -0.080815844 -0.10633945 -0.5872038 0.22657555 -0.1807727
0.053231463 0.0034761631 1.8770714 -1.0857462 0.1396632 -0.1630506 0.15264708 -0.9184853
0.3627497 0.24193 -0.124860376 -0.5679298 0.47958145 0.09177262 0.021255318 -0.54554886
-0.7681036 0.11047927 -1.8183491 -0.5106721 0.077586904 0.04454277 0.1011925 0.01839146
-0.04832008 -0.0028013762 -0.09833182 -0.18466133 -0.843824 -0.066774175 0.16120681 -0.09573446
0.031139035 -0.39328182 -0.023501972 -0.38046876 -0.07891044 -0.08524528 -0.27252328 -0.06699721
-0.054109994 -0.075239666 -0.14284615 -0.20124073 0.02123836 0.36417997 0.112865254 -0.24922563
-0.3014229 -0.07464351 -0.035428137 0.10640763 0.7515925 -0.66617614 0.032170776 -0.19437471
-0.006827085 0.21219051 0.10393134 -0.6983247 0.20985383 -1.033459 0.061886586 0.15593216
0.11702735 0.1515209 0.47445914 -0.09669035 0.5937739 0.089616984 -0.20763038 0.022920735
0.00054174114 0.4990297 -1.4762061 0.05024404 0.85303843 0.30307168 -0.32271564 -0.39350885
-0.1813969 -0.6258391 0.3524626 0.05425991 -0.05309812 0.33808073 0.6181181 -0.07068796
0.11568176 -0.36485294 -1.1159929 0.66131485 0.5221227 -0.08149105 0.27978504 -0.035310708
-0.63272125 -0.16451947 -0.5185264 -1.3094513 0.10373231 -0.5795189 0.1413116 -0.09925805
-0.3746082 -0.2877496 0.2937748 0.13237773 -2.0844984 0.008460057 -0.15422289 0.21462774
-0.030910287 0.47064576 0.25513393 0.17327924 -0.36047807 0.83751607 0.038129844 -0.17587139
0.23649274 0.18447171 -0.17607558 0.120415285 0.6576803 -0.027986882 0.2856715 -0.050423015
0.03769553 -1.2537163 -0.7601607 -0.024561072 0.11296849 0.009315947 0.032883566 -1.2905871

fc3.bias f4 [128]
00000000: 5732 b8be 5e5e 23bf bd70 e4be add6 20bf
00000010: 0ed7 74bf 035c 33bd b459 0fbf 6086 023e
00000020: fe55 023c a32d e8be cfff aebe c5ef 65bf
00000030: 27b1 3abf 8cd7 13bf a325 f1bc 7b08 c1be
00000040: 3741 29bf 86c8 52bf ce2a fabe 44de 25bf
00000050: b171 983e f297 24bf 811f 0a3f bd48 f9bd
00000060: 42c0 e73d f29f 67bf 527a 28bd 55cf a5bc
00000070: 7367 1dbf 8ad8 dbbe 0d1c 933e e822 333e
00000080: db71 d3be 7039 613e 3792 603e 241f ce3e
00000090: 2c58 863d ff73 c23c 7eba 8dbf ba78 3ebf
000000a0: 5260 b3be e9cf c1be 3a47 e7be 0e93 89bf
000000b0: 2897 43bf 38a9 8abf 4b4d 03bf 0bc3 1abf
000000c0: 2d77 26bf 116f 2dbf cf19 01be 9e0c bf3e
000000d0: 6e1b 01bf 6e14 6fbf 458e 29bf d4fa 57bf
000000e0: 5403 7dbe b548 1dbf 06a6 a2be d73f 4dbf
000000f0: 0d81 65bf d3b1 5bbe 1577 48be c8b2 25bf
00000100: 9975 debd 5dc8 48bf b1b3 253d 5a7a 133e
00000110: 089d 21be 7619 8ebe f974 933e 2f9b c8be
00000120: 5df5 07be 910a 7fbf 6127 933d 818d 3cbf
00000130: d588 27bf a735 4bbf 1b49 c83e c3b8 bcbe
00000140: e0ab 56be 29b5 23bf 9040 0bbf 64f9 f63e
00000150: e9d7 403e db58 9fbe 5aa3 cdbe f855 79be
00000160: 83ae 6c3e 3512 41bf 5cfc 8abf 9b9e d33c
00000170: d5e7 35bf fb85 943e a847 55bf 45e1 893e
00000180: a7b0 64bf c4ac 70bf 1957 77bf 435e 293e
00000190: 0c39 a8bc a432 2b3e 1d2d c23e ef4b 27be
000001a0: eaf7 2b3e c84b 0fbf 3747 26bf 2f21 423f
000001b0: eb33 a0bc db9f fabe 9480 3abf 923c d23d
000001c0: d0ba 27be e0f7 a53e 98ad aa3e ba11 a1bd
000001d0: bbe5 afbe 02e6 7fbf c0f8 81bf 2818 35bf
000001e0: d956 c8be 4240 433f 3b48 8dbf 5a92 57bf
000001f0: 9ec1 1ebf 1567 78be f39e 39be d1a9 9b3f
-0.35975906 -0.6381587 -0.44617262 -0.6282757 -0.9564065 -0.04378892 -0.5599625 0.12746572
0.007955072 -0.45347318 -0.3417954 -0.89818984 -0.72926563 -0.57750773 -0.029436892 -0.37701783
-0.66115135 -0.82337224 -0.48860782 -0.64792275 0.2977424 -0.6429435 0.5395432 -0.12172077
0.11315967 -0.9047843 -0.04113228 -0.020240465 -0.61485976 -0.42938644 0.2873234 0.17493784
-0.41297802 0.21994567 0.21930777 0.40258133 0.06559786 0.023736952 -1.1072538 -0.74402964
-0.35034424 -0.37853935 -0.4517153 -1.0748003 -0.7640252 -1.0832891 -0.51289815 -0.6045386
-0.650256 -0.677476 -0.12607501 0.37314314 -0.5043248 -0.9339055 -0.6623271 -0.8436711
-0.24708301 -0.6143907 -0.3176729 -0.80175537 -0.8965004 -0.21454553 -0.19576676 -0.64725924
-0.10862274 -0.7843073 0.04045457 0.14402142 -0.15782559 -0.277538 0.2880018 -0.39180896
-0.13277192 -0.996255 0.07185245 -0.7365342 -0.65443164 -0.7937874 0.39118275 -0.36859712
-0.20964003 -0.63948303 -0.5439539 0.48237145 0.18832363 -0.3112248 -0.4016369 -0.243492
0.23113446 -0.75418407 -1.0858264 0.025832465 -0.7105687 0.2900847 -0.83312464 0.2692968
-0.8933205 -0.9401362 -0.96617275 0.16539864 -0.020535015 0.16718537 0.37925044 -0.1633756
0.1679379 -0.5597501 -0.64952415 0.75831884 -0.019556006 -0.48950085 -0.72852445 0.10265459
-0.16379857 0.32415676 0.33335567 -0.07864709 -0.34354958 -0.9996034 -1.0154037 -0.70739985
-0.3912876 0.76269925 -1.1037668 -0.8420769 -0.62014186 -0.24258073 -0.1812704 1.2161199

fc4.weight f4 [4, 128]
00000000: d387 3fbf b672 6e3e a271 a53e f540 553d
00000010: c152 8b3e ac95 303f 5158 af3d 1806 953f
00000020: 016c fa3e fdc2 dbbf efd3 b83e 9bb6 cc3c
00000030: 17e5 af3d c938 9fbc 33ef cd3f 0fed 863e
00000040: df39 34be 5056 0bbd 99b3 7b3e 1ab5 8fbe
00000050: 5a9f 873f 99f4 d93c 7f04 963f 0205 883f
00000060: 5890 5f3f bfff 973e 6cc0 703f 33de 843f
00000070: 1c61 4fbf af80 d33e c29f 813f fd27 d03e
00000080: 4b72 993e bcd5 a53f 753d 523f 6884 933f
00000090: 5a03 72bd e1f3 893f f1cf f03e d485 113f
000000a0: 7f77 103f 911e bd3e 02bd cb3e 4b46 a63d
000000b0: 51cb 6c3e b5d6 92bd 91de 833f 11ea 6f3f
000000c0: eec8 333f c7e7 e03d 9358 943f 0851 783f
000000d0: 2a51 a5bf 58b3 fa3d 18d3 043e 2054 843e
000000e0: f98b 013f 32b3 acbe 9b17 4c3f a8b2 823e
000000f0: 097b e5bc 4b90 8e3f 0f7a 333f 382d c53d
00000100: eefe a13f 98e9 6b3e 53b3 573f ddc9 a53f
00000110: 9245 3b3f 856a bf3e 56db 8a3f 3aa4 023e
00000120: 0df6 e63e fd1a 033e 36ea 263f 1aa7 60bd
00000130: c367 793f bee3 efbd 7ed3 743f c3da 0440
00000140: a257 903f f048 053f de05 1a3f 687e 7d3f
00000150: 3c26 8e3f 1393 2e3f 3a94 b63f 2248 b43d
00000160: e845 653f 2649 f43e f695 de3e d5ee 45bc
00000170: e927 c53c 37c5 943f ecc2 343f 1c6d 823f
00000180: d7f9 be3d 04b0 62bd 56dd 2dbe a660 2f3f
00000190: 841f 173f 4e3a 643f 10ea 6b3f d2f0 333f
000001a0: 35ac 3b3d 22ce b6bc 9f7d 83bd cb51 983f
000001b0: 519e f93c 36f1 b0bf f40b 3c3d 10c9 613e
000001c0: 99c6 383f 7c30 813f 04bc 8d3f be6d 623f
000001d0: 11da 693d 5ea5 c9bc 212a 0e3e de6d f83d
000001e0: fc31 9c3f 1e87 c73f c7c3 a4bc 7e41 753e
000001f0: 5d7f d93e a90c 88be a487 4a3f 5ddd a63f
00000200: eb81 183f 1b4e dabb c21b 733f eb49 51be
00000210: f8b3 d8bd 8f33 353f f9f1 fe3e a8ad 823f
00000220: bbf9 383f 2404 b9bf 6bec 423f 45cc 553d
00000230: 3f18 d9bc acff 823e 3811 863f 32d7 ab3e
00000240: 5fa2 663e def7 19bd f327 153c 28f5 923e
00000250: d49d 823f 09d8 b0bb 7d55 a23f 559a 5d3f
00000260: 41f3 593f 8e22 433e 45bf 3e3f 6f74 513f
00000270: a761 12c0 1a76 d33e 1e36 883f 0891 493e
00000280: 1e44 863e 4dfb aa3f a691 6b3f b86c 313f
00000290: d5da 86bc 71c3 413f 87a1 303e 070d 0d3f
000002a0: 92a9 1d3f 4bfd 123f ff04 eb3e f333 a63d
000002b0: 718b 0f3e c364 943d 9655 d33e 75e7 5c3f
000002c0: 8eed 9b3e 2a97 c23c e8a6 683f 697f 773f
000002d0: df73 a2bf 986f a1bd e546 50bd 672c aa3e
000002e0: 6806 2f3f 3369 a33e 1935 153f 62d8 a43e
000002f0: 79fb 05bc 055b 723f 1d5a f13e 015e 09bf
00000300: c9bb a93f 7b00 8f3e d666 2d3f 6b90 773f
00000310: 8655 4a3f 5de2 123f fdf7 843f 9380 ce3e
00000320: 63e8 a03e fb1a bdbd 0de2 4a3f 4520 24bd
00000330: 8626 173f 9212 b33e 906b 883f eb29 b33f
00000340: 642b 633f d053 603e e6a0 07bd 9d95 803f
00000350: ff50 9b3f fffa 203f 2334 323f d344 09bd
00000360: 542a 623f 3481 a93e b53c 96be 57b3 853d
00000370: 5760 a93c 0cdc 903f cb9c 113f e002 8f3f
00000380: b233 bc3c 76a9 8e3e 1a41 b23d 1156 703f
00000390: 9e8f 4a3f 70f2 6f3f f7ec 843f 7e0b 903f
000003a0: 32bc 003f ca75 0bbf f710 713f a8e5 b13f
000003b0: bbd9 733e a354 493f 0a07 1e3e 34cd 1d3e
000003c0: 3360 2b3f 3a27 953f c2ac 7d3f b360 3a3f
000003d0: 5a4e 943f 0907 41be c912 7ebe 2993 02be
000003e0: 8f39 053f ae0e d93f 0f92 a63d f88c 023f
000003f0: e96e 933e 81c6 3f3f c3f2 3b3f 9dba c43f
-0.74816626 0.23285946 0.32313257 0.0520639 0.27211574 0.6897838 0.08561767 1.1642485
0.48910525 -1.7168881 0.36099193 0.024989417 0.08588617 -0.019436257 1.6088623 0.26352736
-0.17600201 -0.03401786 0.2458023 -0.28067857 1.0595505 0.026605891 1.1720122 1.0626528
0.87329626 0.29687306 0.9404361 1.038031 -0.8100755 0.41309115 1.0126879 0.4065551
0.2997001 1.2955852 0.82125026 1.1524782 -0.059085228 1.0777551 0.47033647 0.5684483
0.56432337 0.36937383 0.3979264 0.08118876 0.23124434 -0.07169858 1.0302297 0.9371653
0.7022847 0.10981708 1.1589531 0.96998644 -1.2915394 0.12241238 0.12971151 0.25845432
0.50604206 -0.33730465 0.7972352 0.2552693 -0.02801277 1.1137785 0.7010812 0.096277654
1.2655923 0.23038328 0.84258 1.2952229 0.7315303 0.37385955 1.0848186 0.1275796
0.45109597 0.12803264 0.6520113 -0.05484686 0.9742395 -0.1171336 0.9563521 2.0758522
1.1276743 0.5206442 0.601652 0.99021006 1.1105418 0.6819317 1.4263985 0.08802821
0.89559793 0.47712058 0.43473786 -0.012080868 0.024066882 1.1622685 0.7060993 1.0189548
0.09324997 -0.055343643 -0.16978964 0.6850685 0.59032464 0.89151466 0.92154026 0.7028934
0.045818526 -0.022315089 -0.06420445 1.1899961 0.030470999 -1.3823612 0.045909837 0.22049356
0.72178036 1.0092921 1.1073003 0.88448703 0.05709273 -0.024614986 0.13883258 0.121303305
1.2202754 1.558811 -0.020112885 0.23950765 0.42479983 -0.2657216 0.7911322 1.3036305
0.5957324 -0.006662143 0.9496423 -0.20438354 -0.10581201 0.707818 0.49793985 1.0209246
0.7225606 -1.4454389 0.76141995 0.05219676 -0.02650082 0.25585687 1.0474005 0.33562618
0.22522877 -0.0375899 0.009103763 0.28702664 1.0204415 -0.005396847 1.2682339 0.86563617
0.851368 0.1905615 0.74510604 0.8181829 -2.2872102 0.41301042 1.0641515 0.19684231
0.26223844 1.3357941 0.92019117 0.69306517 -0.01646177 0.75688845 0.17249118 0.55098003
0.6158687 0.57417744 0.4590225 0.08115377 0.14018036 0.07245781 0.41276234 0.86290675
0.30454677 0.023753721 0.9087968 0.9667879 -1.2691611 -0.07882613 -0.05084886 0.33237
0.6836915 0.31916198 0.58284146 0.32196337 -0.008177632 0.94670135 0.47139063 -0.53659064
1.3260432 0.27930054 0.6773504 0.9670474 0.7903675 0.5737665 1.038818 0.4033247
0.31427297 -0.09233662 0.79251176 -0.040069837 0.5904316 0.34975106 1.0657825 1.3997167
0.88738084 0.21906972 -0.03311243 1.0045658 1.2134093 0.6288299 0.69610804 -0.0335129
0.8834584 0.33106387 -0.2934319 0.06528347 0.020675821 1.1317153 0.5687987 1.1172752
0.022973869 0.27863663 0.087038234 0.93881327 0.7912539 0.93729305 1.0384816 1.1253507
0.50287163 -0.54476607 0.9416651 1.389821 0.23813526 0.7864477 0.15432373 0.1541031
0.66943663 1.1652596 0.9909173 0.728038 1.1586411 -0.1885034 -0.24811853 -0.1275145
0.5204095 1.6957605 0.08133327 0.5099635 0.28795555 0.7491227 0.734173 1.536945

fc4.bias f4 [4]
00000000: 6559 8c3f bf2a 8c3f f9f2 843f b7e8 8d3f
1.0964781 1.0950545 1.0386649 1.1086644

ln1.weight f4 [256]
00000000: 30ba f43e ab00 d73e 7abb 6a3e d7af f03e
00000010: 37c3 ce3e b6ad c33e ed65 a63e d7fb e53e
00000020: 42d2 ce3e cb3d dc3e 1da5 dd3e f09f 663e
00000030: b9c2 a43e f40b 073f 2ed0 c03e 4b4a 8d3f
00000040: b0bf f63e 1469 a73e 7cb8 e63e e0b5 bb3f
00000050: f03d 983e 5334 0a3f e3bb ea3e 9478 273f
00000060: 8bd5 2540 090d 973f 199c cd3f 3ce9 dc3e
00000070: 562a 353f 2edc cb3e 8610 f33b cffc bc3e
00000080: abac 2a3e 954b 0a3f 10dc e43e b0ce a73e
00000090: 2d33 243f 7e04 c53e 3bdb 453f bebd ea3e
000000a0: 46de 583e cbcd f03e 5e6d de3e 64bc e13e
000000b0: dd49 c33e 8002 c33d b818 bb3e d4ac 9e3e
000000c0: f742 513f 2c1a a93f 6e07 cb3e 583b 9e3e
000000d0: cfc4 ba3e 5766 ec3e 8707 e53e d8f6 343f
000000e0: f199 c23e 842d e23e 69d0 3d3e 30fc 393e
000000f0: fe2b a03e e05c e23e 4402 f63e 244d d23e
00000100: 5c78 283e 17e8 0b3d 61f0 d93e 3e81 f53e
00000110: 1265 5f3d af99 d83e 4666 633f 69a1 c43e
00000120: 9a42 fd3e 25af 1b3f cfb5 db3e 0e35 ce3e
00000130: 660d 533f 9c8c ce3e 1f3b c33e 726a cc3e
00000140: b5bc b23e 44a1 f43e 54e4 be3f a3ff e63e
00000150: 0df6 da3e bdb0 ed3e 9900 a83e abe6 e93e
00000160: 2b05 c03e 09ad ba3e 1252 903f ee00 d43e
00000170: d63f b23e 1fe9 1c3f bf15 eb3e 34ed 8a3e
00000180: 0784 d13e 8b3b 953e c6d8 053f aa5d e13e
00000190: 9351 f93e b74f 513f 51eb b53e 3c8e db3e
000001a0: c95a c43e d84e c33e a00c 793e 8ba4 bd3e
000001b0: 43b2 9a3d 43fe 4a3e b756 cb3e 68ec 023f
000001c0: 7208 683e 3fb9 fd3e 3a16 b43e f4da f73e
000001d0: 0d7e f43e 4e74 673f 1dff a53e baf4 863f
000001e0: d8af e43e 2066 173f 1fc1 c83e d176 e43d
000001f0: 9dcc c13e 828d a73e a17c 9e3f 53d3 233f
00000200: 1319 d13e 5918 b83e 9453 b83f 56a6 833f
00000210: 412f c03f 9f59 f43e 2637 ea3e 0516 723f
00000220: a3c3 243f 4079 e53e 17d9 543f e039 b93e
00000230: b384 d83e d01f d53e bace f93e 0322 853f
00000240: 825b c83e ef0f 4f3f 2f85 ba3e e68b e13e
00000250: c7fd d63e 526a ec3e 0f03 e53e 4a1f bf3e
00000260: 8599 d83e 0764 b63e d18c d03e 9c9a ce3e
00000270: 94b2 463e a9a5 db3e 00d7 f03e 1ab2 e33e
00000280: 0b53 b73e 0f78 4e3f 1223 d13e bbc7 e63f
00000290: 5ebb 2f3e e12a 333f b316 803f 40a1 e53e
000002a0: 97dc 823e ef2d f33e dbfb bd3e b2d7 be3e
000002b0: 5e89 f63e b541 c43e 3f34 cc3e 7fa7 ba3e
000002c0: c7ff ec3e d3cb 0c3f 2b35 9c3d 8ae7 d93e
000002d0: 0629 d63e 174c 573f 3b6d 983e bfe0 ed3e
000002e0: 38b0 9d3e d0f1 cf3e dd32 da3e a792 ea3e
000002f0: 9ccc 733f ceeb 523f da91 d93e dee9 cb3e
00000300: 4a31 8d3e 78de db3e d123 ae3e c44e 9f3f
00000310: bc1b a73e 19fe a43e 31ec ff3e 0c49 523e
00000320: 8a73 e73e 4718 d03e 4638 913f 7739 d13e
00000330: 3aac c73e 05cf 8f3f b591 6d3f 2476 c73e
00000340: 71d6 cf3e 6b9d e63e 5cfe a03f 200e ee3e
00000350: 975e 883e e50b e83d 556f cf3e ba70 603f
00000360: 0eab e63e 1d71 b63e cecf d93e 1801 0c3e
00000370: 220b 9b3e 5e9f e63f be82 f73e 72a8 ca3e
00000380: 2b53 f33e 753e 3e3f b6a1 bc3d 423d cf3e
00000390: 8e4b 1840 d18d d03e 037f dd3e 4ad6 c13d
000003a0: d8d9 c53f 60b2 d13e abb7 c23e 1243 a63e
000003b0: 9873 db3e ba5b f73e 01f1 ce3e 8e66 e33e
000003c0: f32e 253f 39ca cf3e 7f24 b13e 15f4 cd3e
000003d0: 8166 f33e cf73 a03e 0761 f23e 2f6d e13e
000003e0: f9d7 ed3e c02e ed3e aa7e ae3e 2513 a13f
000003f0: 3df6 893e d34f cf3e 3e64 f83e 0886 893e
0.477983 0.41992697 0.22923079 0.47009155 0.40383312 0.38218468 0.32499638 0.449187
0.4039479 0.43015894 0.43290034 0.22521949 0.32179812 0.52752614 0.37658828 1.1038297
0.4819312 0.32697356 0.45062625 1.4664879 0.29734755 0.5398609 0.4584647 0.6541836
2.5911586 1.1800853 1.6063262 0.43146694 0.70767725 0.3981642 0.007417741 0.36911628
0.1666743 0.5402158 0.44699144 0.32774878 0.6414059 0.3847999 0.77287644 0.45847887
0.2117854 0.47032008 0.43442816 0.44089043 0.3814229 0.09521961 0.36542296 0.30991232
0.81742805 1.3211112 0.39654106 0.3090465 0.36478278 0.4617183 0.44732305 0.70689154
0.38008073 0.4417535 0.18536533 0.18162608 0.31283563 0.44211483 0.48048604 0.4107448
0.16452163 0.034156885 0.42566207 0.47950166 0.054539748 0.4230475 0.8882793 0.38404396
0.49464875 0.60814124 0.42912146 0.40274853 0.8244232 0.4034165 0.38131043 0.3992496
0.34909597 0.47779286 1.491343 0.4511691 0.42765847 0.46423903 0.32812956 0.45683798
0.37503943 0.3646014 1.1275046 0.4140696 0.34814328 0.61293215 0.45915028 0.27134097
0.4092104 0.2914699 0.52283895 0.44016773 0.4869505 0.8176226 0.35531095 0.42881954
0.38350514 0.3814609 0.24321222 0.370396 0.07553532 0.19823556 0.39714596 0.5114198
0.22659472 0.49555394 0.35173208 0.48409235 0.4775242 0.9041184 0.32421198 1.0543435
0.44665408 0.59140205 0.3920984 0.11155475 0.3785142 0.3272515 1.2381784 0.6399433
0.40839443 0.35956076 1.4400506 1.0285137 1.5014421 0.47724625 0.457452 0.9456485
0.6436102 0.4481907 0.8314375 0.36176968 0.4228874 0.41625834 0.48790532 1.0401005
0.39132315 0.8088369 0.36429736 0.44052047 0.41990492 0.46174866 0.44728896 0.3732856
0.42304626 0.3562319 0.40732434 0.40352333 0.1940406 0.42899826 0.47039032 0.44471818
0.35805544 0.80651945 0.4084707 1.8029703 0.17161319 0.69987303 1.0006927 0.44849586
0.25558922 0.47495982 0.37106213 0.37273937 0.48151678 0.3833138 0.3988361 0.36455914
0.46288893 0.5499851 0.076273285 0.42559463 0.41828173 0.8410048 0.29770836 0.4646053
0.30798507 0.40614176 0.4261693 0.45815012 0.95234084 0.8239106 0.42494088 0.39826864
0.27576667 0.42943168 0.340117 1.2445912 0.32638347 0.3222511 0.49984887 0.20535678
0.45205337 0.40643522 1.1345298 0.40864155 0.38998586 1.1235052 0.92800456 0.38957322
0.40593293 0.45041975 1.2577624 0.46495152 0.26634666 0.11330394 0.40514627 0.8767201
0.4505238 0.35633174 0.42541355 0.13672292 0.3028193 1.8017385 0.48341936 0.3958164
0.4752439 0.7431405 0.092105314 0.40476424 2.3796115 0.40733197 0.43260965 0.094647005
1.5457106 0.40956402 0.38030753 0.32473046 0.4286163 0.4831217 0.40418246 0.4441418
0.64524764 0.4058397 0.34598157 0.40225282 0.47539142 0.31338355 0.4733965 0.44028613
0.46453837 0.4632473 0.34081012 1.2583967 0.26945677 0.4049059 0.4851398 0.2686007
