trained_models/checkpoint_ep4900.pth (torch, 416160 bytes, 14 tensors)

fc1.weight f4 [256, 8]
00000000: 1fa3 10bf b2fb 06bd acfc e73e 36a2 683f
00000010: 07a7 fd3c 2221 8abe 2674 a3bc f842 e2bc
00000020: 8aa8 dabe 0e1c a3bc c786 043f d847 ac3f
00000030: 39f5 d6bd 12f8 f9bd cb48 453d 661c ffbd
00000040: 8757 23bf e108 edbd 8a97 4c3f 95fc 473f
00000050: 18cf bdbd a18b f43d 4702 4b3d d971 48be
00000060: e5ac fdbe 7088 963d cdd4 e83e 274d a83f
00000070: 3df5 e1bd 3d5d 7dbe 13f4 003d 0111 00be
00000080: cc73 01bf 5579 e9bc a9de fd3e 5511 7d3f
00000090: 81e7 acbd ef0d 7cbe 996b 3fbc b952 953d
000000a0: 91ca 983f 14a8 173f 47f8 0a3f 38c6 22be
000000b0: b6f1 133f 8326 b7bf f1db 093f 03fe 243f
000000c0: 2683 0fbf 18bb a73b 4dd7 1f3f 1fb2 ed3e
000000d0: 4de6 b1bc d871 3fbe 3a04 d7bc bbd5 17be
000000e0: 7865 0ebf 0e0a af3d ed18 d43e c8c5 913f
000000f0: df2c acbd ba25 b2be 39e5 95ba e9a3 f3bb
00000100: daa8 81be c11e b93c e384 ff3d 7237 063f
00000110: e7c2 1cbe b37b 2cbe 567c 353e e46f 2dbe
00000120: 97de d5be 9ccb bf3d 7651 d83e d342 7b3f
00000130: 6ff8 7cbd cd87 69be 7f0e 013c 6c5c 74be
00000140: 72cd 9e3f da18 1d3f bf55 323e b2a1 11be
00000150: e3a1 183f 52bb c5bf 71cf 203f 1bae 063f
00000160: 0694 22bf 0324 ea3d a648 d53e 1f29 863f
00000170: 4226 c7bd d8ff 96be ac31 113d fec9 0cbe
00000180: e2e2 1bbf 6ffb e2bc 4ebe 1e3f ee84 2a3f
00000190: 225a 7b3d a4cb 3cbe 6746 c2bd 501f 263d
000001a0: 029b 11bf 3078 31bd 3063 983e 6291 493d
000001b0: a802 22be ec02 d1be 645e a53e 084f 40be
000001c0: 2c34 7ebf c80b ccbd 5d5a 5e3f d4d0 1c3f
000001d0: 668a abbe 8a8b 513e 8741 e53d e3c9 91be
000001e0: 0cbd 29bf 9978 eebc dfc5 7f3e 0832 bd3f
000001f0: 4bc4 eabd e215 f4be 7757 8a3e c023 d2bd
00000200: e240 11bf c21c 21ba 4ec1 263f 54f5 843f
00000210: 4956 c4bd cc87 82bc ce1a cc3c 5d4b 85bd
00000220: 2ddf 6d3f 5184 8d3e 94df c33e 1579 993f
00000230: bbbd 9b3e 5949 edbf 3eaf 8fbe 476f b63e
00000240: 3aa7 f63e d24a 19be ec2a c03e 828d 483e
00000250: a218 023e de88 a7be ab99 e4be b6e5 673d
00000260: 732c c4be 57c6 97bc 0a2c b83e 1195 353f
00000270: cd65 12be cacc e0bd 72a6 923d ebc7 cabc
00000280: c137 16bf 168c 2a3d 757d 383f f071 a13f
00000290: 81a6 86bd a606 05be f409 1cbd 0223 ffbd
000002a0: 2537 0bbf b3aa 643c 19bd 103f cf87 983f
000002b0: a97c 41be eb65 8ebd ae95 fa3d a2b2 f0bd
000002c0: 9a02 03bf 05ef 26bd 5156 123f ee10 a13f
000002d0: 8250 e73c fc1a 7abe 2216 9abd 7080 063d
000002e0: b4be 16bf f8a6 ef3d deda e03e 9897 af3f
000002f0: 4042 6fbd 96c2 bbbe 2680 85bc 41d5 bdbd
00000300: 97a2 a9be f5f0 de3d 7ef5 6ebf 8f7e 893f
00000310: 7ea2 d4bd c11b 8abe c3fa bb3a b4eb a2bd
00000320: 1b6a 96bf f311 96be 41a2 8cbf f175 8fbe
00000330: ec43 e7be fed1 db3f 5925 5e3e 1cde 02bf
00000340: 9567 39bf ad48 43be dfb0 223f 6ad2 8b3d
00000350: 20ee a0be 8b0f 4abe 5514 be3e 67cf 9cbe
00000360: 3142 45be fc84 5dbd 0991 5abf 04b3 3f3f
00000370: 2feb 41be 3752 e0be 3a15 fb3e cffd 29be
00000380: d193 1fbf a353 6cbc a925 023f 7782 8f3f
00000390: e716 453b c38d 9abe fb05 fdbc 61ee 763c
000003a0: a011 ffbe e1fc d43c db63 0d3f a894 873f
000003b0: efae 85bd ad8d 31be 5643 c2bc 4290 83bd
000003c0: ab62 f4be e4bc e93c 1051 113f 7c4a 803f
000003d0: 8204 06be 3b67 29be 9954 5dbd 4d44 f13c
000003e0: a5e2 f5be b133 513d a7ed bc3e 1c31 893f
000003f0: daf8 aabd edad a8be a7fd 903c 3e98 b7bb
-0.56498903 -0.03295488 0.4530996 0.90872514 0.030963434 -0.26978403 -0.019952845 -0.027619824
-0.4270671 -0.019910838 0.51768154 1.3459425 -0.10495991 -0.12205519 0.048165124 -0.124565884
-0.6380543 -0.11573959 0.7991873 0.78119785 -0.092680156 0.119406946 0.04956272 -0.1957468
-0.4954597 0.07350242 0.45474854 1.3148545 -0.110331036 -0.24742599 0.031482767 -0.12506486
-0.50567317 -0.028500238 0.4958394 0.9885457 -0.08442593 -0.2461469 -0.011683368 0.07291169
1.1936818 0.5924084 0.5428509 -0.15895927 0.57790697 -1.4308628 0.5385123 0.6445009
-0.5605949 0.005118739 0.624379 0.46424958 -0.021716261 -0.18695772 -0.026247133 -0.14827625
-0.5562358 0.0854684 0.41425267 1.1388483 -0.08406996 -0.34794408 -0.0011436112 -0.007435311
-0.25324136 0.022597672 0.12476518 0.5242835 -0.15308724 -0.16844063 0.17723212 -0.16937214
-0.41771385 0.09365007 0.4224965 0.9814884 -0.061760362 -0.2280571 0.007876991 -0.23863381
1.2406447 0.61366045 0.17415522 -0.14221838 0.5962202 -1.5447791 0.6281653 0.52609414
-0.63507116 0.1143265 0.4165699 1.0481299 -0.09724094 -0.29492068 0.03544776 -0.13748929
-0.6089307 -0.027707784 0.6200913 0.66609085 0.061365254 -0.18437058 -0.094860844 0.040557206
-0.5687715 -0.04332751 0.29763174 0.049210913 -0.15821326 -0.40822542 0.32298577 -0.18780148
-0.9929836 -0.099631846 0.86856633 0.61256146 -0.33504027 0.20463386 0.11194139 -0.2847434
-0.6630409 -0.02911024 0.24977826 1.4780893 -0.11463221 -0.47672945 0.27019855 -0.10260725
-0.5673963 -0.0006145948 0.6513871 1.0387368 -0.0958677 -0.015933894 0.024915125 -0.06508515
0.92918664 0.27640012 0.38256514 1.1990076 0.3041819 -1.8538009 -0.28063387 0.35631773
0.4817446 -0.14969948 0.37532747 0.19585231 0.12704709 -0.3272161 -0.4464849 0.056615554
-0.38315162 -0.018527193 0.359711 0.7093058 -0.14296646 -0.109765604 0.07160653 -0.024753531
-0.58678824 0.041637503 0.7206643 1.2612896 -0.06574727 -0.12990817 -0.03809543 -0.12457849
-0.5438102 0.0139567135 0.5653854 1.1916445 -0.1889521 -0.06953033 0.122355804 -0.117528215
-0.51175845 -0.04075529 0.5716296 1.2583292 0.028236631 -0.24424356 -0.07523753 0.03283733
-0.5888474 0.11701769 0.43916982 1.3718138 -0.05841279 -0.36671895 -0.016296457 -0.092691906
-0.3313186 0.10885803 -0.9334334 1.0741748 -0.103825554 -0.269743 0.0014341701 -0.07955113
-1.1751131 -0.2931057 -1.0987016 -0.2801967 -0.45169008 1.717346 0.21693935 -0.5112016
-0.7242368 -0.19070692 0.63551134 0.06827243 -0.31431675 -0.19732492 0.37124887 -0.30626985
-0.19263531 -0.054081902 -0.85377556 0.7488253 -0.18937372 -0.43812725 0.49039632 -0.16600727
-0.62334925 -0.014424237 0.50838715 1.121169 0.0030073465 -0.3018628 -0.03088664 0.015071482
-0.49818134 0.025999488 0.5523049 1.0592241 -0.065275066 -0.17339201 -0.023713749 -0.06423999
-0.47731528 0.028532453 0.56764317 1.0022731 -0.13087657 -0.16543286 -0.054035757 0.029451514
-0.4802448 0.051074687 0.36900064 1.0718112 -0.08348246 -0.32945195 0.017699076 -0.0056028655

fc1.bias f4 [256]
00000000: 0411 6cbd d6d7 aebd 1556 0fbe d56b b5bd
00000010: c920 d0bc 3cfb 183f a447 6dbd a218 92bd
00000020: c1db 0fbe 9fb0 cabd 1657 143f 89e9 a5bd
00000030: dd00 91bd db7d 4abe 938f adbe 44aa 13be
00000040: f8e1 fdbd f674 cc3e 3c79 983d 08d1 8fbd
00000050: 95a6 b8bd c53f 00be eb50 61bd 7e83 a1bd
00000060: 2ed6 aebd 4140 d6be 59d1 aabe 9ea7 35be
00000070: f226 3bbd f89a 97bd aa65 62bc e837 93bd
00000080: 6809 99bd 7253 f9bd 64f5 93bd 822f 08be
00000090: 0ddf 5b3b 2d12 19bd 7ffc 4abd d83b a6bd
000000a0: e91b 07bd f09b ddbd a9e4 babd 5c8a 9ebd
000000b0: 25db 70be 7878 a2be 0a67 05bc 5cae 82bd
000000c0: bffc f6bd 962b dfbd 3ef7 07bd 2a67 5cbd
000000d0: 815c 7bbe 57e4 74bd 4c68 773e 6b37 b0bd
000000e0: 8d42 a3bd 4915 04be fc0c b2bd abd8 a6bd
000000f0: e792 8ebd 602a e6bd 9061 fe3e 4933 7dbd
00000100: 1ed8 b2bd 5eea 47be 4d98 39bd 79d2 c1bd
00000110: 8a7f 00be 8ad3 95bd abd1 73bd ab66 edbb
00000120: 4c9f a5be 85ef eebb eafa 6bbd a433 85bd
00000130: 4c12 d0bd d5d7 9cbd 90da d5bd 6446 53bd
00000140: 9c32 62be c66b 43bd 54d4 65bd bd12 46bd
00000150: ea84 a4be 8152 e8bc 6961 aebe a20e efbd
00000160: d0ef 88bd da87 92bd ff4a a8bd efcc a3be
00000170: f9a5 8ebd 095f 73bd c71f bdbd 1707 a83d
00000180: 018f 20be 4368 05be a132 d7bd ee32 abbe
00000190: 954a d5bd 98d9 0bbe bbcb 03be e692 7bbd
000001a0: df00 91bd ab35 3cbd 7e0f 85bd 157d 59bd
000001b0: 478e 8cbd deaf 0ebe 5f77 ecbd 9e79 2fbd
000001c0: 00e1 98bd 3c1b d5bd 0b1d f9bd 7d34 0a3f
000001d0: e099 8abd baff 73bb 2488 92bb 2c05 32be
000001e0: acef 69bd cdea 38bd 4356 8cbd a864 943e
000001f0: 1692 b6bb 2b17 c4bd 962e aebd 2487 9cbe
00000200: daef a0bd b50e 3fbd f01a 51bd 453b 22be
00000210: 5636 42be 876b ecbc 6216 babc 1bb3 02bd
00000220: 490b 78be e31d f6bd bf48 9bbe 87d9 32be
00000230: abdd a5bd ee69 bebd 83d1 dcbd 9836 a9bd
00000240: 2cf0 f8bd d261 c2bd da8c c2bd 867d 463d
00000250: 6ef8 41bd 16ac e4bd 2fa6 85bd 5f70 e8bd
00000260: 32aa 53bd d3b7 19bd 93ed 2dbd 14fb 37bd
00000270: fc79 e0bd 71fa 71be f553 8abd c459 b3bd
00000280: 3a28 e6bc 4caf ecbd c831 32be d73f b6bd
00000290: 4649 31be fe0e 39bd 8851 cabd 7bc8 51bd
000002a0: c5d6 b1bd 9b60 2fbe ad4d cabd 0dcc f2bd
000002b0: 6371 8ebe 321e 27be ad71 a5be 809b 59bd
000002c0: 06b0 1abe 2e74 18be d4b3 28be 747f 11be
000002d0: 02e3 80bd 762d 33bd f9a2 0cbe 6753 09be
000002e0: f37e 23bd 1dd7 54bd 0d7b 983d 23e1 94bd
000002f0: 4c8d 0bbe 6f1c 9dbd 4fec 4cbd 2f10 8fbd
00000300: 4cc0 4dbe 240c 64bd 6888 0dbe 2b35 ddbd
00000310: aa3c 7cbd 642d 62bd bd0e 9ebe 7928 30be
00000320: 028b e2bc 9b07 6abd 2970 e3bd eadc b8bd
00000330: c730 6ebe e03f 6dbd 4ca3 54be d482 713c
00000340: 075c 10be 4bc1 b6bd 7b31 a9bd 7ab0 9ebc
00000350: dfee b4be 9916 03be 48c6 93bd 40c2 94bd
00000360: b0ca c8bd dc8b 45be 34bd 0abe 9719 3fbe
00000370: a1a3 1cbe ffb3 9ebd e78a 84be 2161 08be
00000380: 444d e1bd 8789 a9bd 3029 3ebe 4d9d a0bd
00000390: 6893 0abd fad8 80be f7b8 98bd 0a81 30bd
000003a0: 0769 5fbd 810d 11be 9e96 c8bc f40c c4bd
000003b0: bcb6 a3bd 4016 78bd 6ae0 1ebd 4945 3fbe
000003c0: 63d0 c9bd ee13 f5bd 5260 bbbd 2967 9fbd
000003d0: a1dd 9dbd e6ce 6ebd 8142 6abd 8ca2 9cbd
000003e0: 0f57 1cbe 206b a0be e3fb 4dbe 0afb 1bbe
000003f0: 1f7e 8bbd 38d3 ffbd 5955 6dbc df3e b3bd
-0.057633415 -0.08537261 -0.13997681 -0.08858458 -0.025406258 0.59758353 -0.05792965 -0.071336046
-0.14048673 -0.09896969 0.5794538 -0.08101184 -0.07080243 -0.19774573 -0.338986 -0.1442042
-0.12396616 0.39932984 0.074449986 -0.070222914 -0.09016148 -0.12524326 -0.05500881 -0.07886408
-0.08536945 -0.41845897 -0.33362845 -0.17739722 -0.045691438 -0.07402605 -0.013818184 -0.07188398
-0.07472497 -0.12174119 -0.07224539 -0.13299373 0.0033549697 -0.03737085 -0.049557205 -0.08116883
-0.0329856 -0.10820758 -0.09125645 -0.07741234 -0.23521097 -0.31732535 -0.008142242 -0.06380913
-0.12059926 -0.10896985 -0.033194773 -0.053809322 -0.24547006 -0.059788074 0.2416088 -0.0860432
-0.07971678 -0.12898745 -0.08693883 -0.08146795 -0.06961613 -0.11238551 0.4968381 -0.061816487
-0.08732627 -0.19522998 -0.04531126 -0.094639726 -0.12548652 -0.073157385 -0.059526127 -0.007244905
-0.32348096 -0.0072917365 -0.057612337 -0.0650399 -0.1015974 -0.07658354 -0.10442078 -0.0515808
-0.22089618 -0.047710203 -0.056110695 -0.048357714 -0.32132655 -0.028359653 -0.34058693 -0.11672713
-0.066863656 -0.07154818 -0.08217429 -0.3199229 -0.069652505 -0.059416804 -0.09234577 0.08204477
-0.15679552 -0.13028054 -0.105077036 -0.33437294 -0.10414616 -0.13657224 -0.12870686 -0.06141939
-0.07080244 -0.04594962 -0.064970955 -0.053097803 -0.06863075 -0.13934276 -0.11546206 -0.042840593
-0.0746479 -0.10405585 -0.12163743 0.5398634 -0.067676306 -0.0037231282 -0.0044717956 -0.17384785
-0.057113335 -0.0451458 -0.068523906 0.28983045 -0.005571614 -0.095747314 -0.08504979 -0.30571854
-0.07858248 -0.046644885 -0.05105108 -0.15842922 -0.1896604 -0.028859867 -0.022715751 -0.03190909
-0.24223055 -0.12017419 -0.30328938 -0.17465793 -0.080989204 -0.09297548 -0.10782149 -0.08262366
-0.12155184 -0.09491314 -0.094995216 0.048459552 -0.04735606 -0.11165635 -0.06525838 -0.11349558
-0.051675983 -0.037528824 -0.042462897 -0.04491718 -0.10960767 -0.23630692 -0.06754295 -0.08757356
-0.028095353 -0.11556873 -0.17401803 -0.08898895 -0.17313108 -0.045180313 -0.09878832 -0.051216584
-0.08683542 -0.17126696 -0.09878097 -0.11855326 -0.27820882 -0.16320112 -0.3231329 -0.053126812
-0.1510621 -0.14888069 -0.16474849 -0.14208776 -0.06293298 -0.043744527 -0.13734044 -0.13410722
-0.03991599 -0.05196296 0.07445345 -0.07269504 -0.13628119 -0.07671439 -0.05003005 -0.06985509
-0.20092887 -0.05567564 -0.13821566 -0.108011566 -0.06158129 -0.05521907 -0.3087062 -0.17202939
-0.027654175 -0.05713616 -0.11105377 -0.09026511 -0.23260795 -0.057922244 -0.20765418 0.0147406645
-0.14097606 -0.089235865 -0.08261391 -0.01937126 -0.35338494 -0.12801589 -0.072155535 -0.07263613
-0.098042846 -0.19291633 -0.13548738 -0.18662106 -0.15296794 -0.07749175 -0.25887224 -0.13318302
-0.110010654 -0.082781844 -0.185704 -0.07842503 -0.033831984 -0.2516554 -0.07457154 -0.04309181
-0.05454352 -0.14165308 -0.024485882 -0.09572783 -0.07993838 -0.060568094 -0.038788237 -0.18678774
-0.098542 -0.11966692 -0.09149231 -0.07783348 -0.07708288 -0.058302782 -0.05719233 -0.07648191
-0.15267585 -0.3133173 -0.20115618 -0.15232483 -0.06811165 -0.12491459 -0.0144856805 -0.08752226

fc2.weight f4 [256, 256]
00000000: e746 b2bd 9664 10bc b559 3a3c c8f8 233d
00000010: 360e ebb8 44ea 59bf 5859 bfbe a271 343e
00000020: a483 483d ec66 563e fbd3 41bf f75e 393e
00000030: fd6e 793d 1d64 d03e c26e 663f 7b40 9a3e
00000040: 7fe8 30bc 2613 f33e b59d 2b3f 46c2 07bd
00000050: 4407 ee3d 0290 313f 0725 803e 686f 763e
00000060: 7ef9 d53e 1a6e 4dbe c8e3 00bf 3653 ea3d
00000070: df12 803c edf7 3e3d f122 c63d d63a 29bd
00000080: 9824 abbd fcf7 92bc f365 3bbd 6f6f 1c3b
00000090: b905 283f fc7c 8a3e 7eb1 943e baf8 f73d
000000a0: 79a0 c43d 9f41 eebd 7e95 c53e 0639 173e
000000b0: 5f8d 153f 3add d83e 6647 313c 127d 6f3d
000000c0: 69e2 4ebd 9f82 a0bd 872a e03d e318 993e
000000d0: fc34 5b3e c782 f03d 251e c83d 77ff 44bd
000000e0: e9c9 82bd 8a55 ac3d 114f 383e 68df ffbc
000000f0: 1201 1a3f d2da e73b ef3f 223f 0c72 1c3f
00000100: 32df 3bbb 3cc8 9f3e 16ca 213f bd25 f83d
00000110: c9ac 5cbe f922 773d 9d08 523e beab 813e
00000120: e861 183d 573b 7b3f 1660 753c e4cd e83e
00000130: f358 0e3d fa7c 3a3e 499f c03e e939 8fbd
00000140: 4c73 1ebf 8845 21bc 647d a53f 345c a93e
00000150: 5fe7 ccbe 02c9 793e f40b e83e 903b 183e
00000160: eba7 97bc 1fc8 223e 6a4d 053e 4c07 3d3f
00000170: 0442 7bbc 23f2 e73d fc87 4c3e cd94 833e
00000180: 980f 833e 2513 68be be1f da3e 87be 303c
00000190: 3e09 253f c6ce 8c3e 1096 e4bd 0a86 333f
000001a0: 4694 b63d 4795 a13d 9928 863e 6a72 bd3d
000001b0: b3d4 42be 198e 51be bb20 2ebe c75d 313e
000001c0: 7059 0c3e 7870 18be 9451 9e3d 4053 5fbf
000001d0: a0e3 263f 773f 3d3f e11d 763e 47c2 6cbe
000001e0: f30e 0b3e 97f8 833d 6917 9e3c bb37 2140
000001f0: 7ab8 f13d 9a0a 13be b675 6bbe 198e e1bb
00000200: 4646 253f e497 e2bc 1898 1d3f 50e4 adbc
00000210: 7f12 173f 0a04 1a3e b3c7 c73d 03a9 3cbd
00000220: a597 d13f 443c c83e b5f6 603e 3e5a 103e
00000230: 908a 02bd 7a44 1bbd f6c6 863d c800 0c3e
00000240: d36b f63d 20a6 273d 92bd c3bd 6570 1fbf
00000250: beca 073e dd86 db3d 0bf8 813d 4952 ff3d
00000260: 60ea 093e 9bfd 4dbe b051 303d 0526 063d
00000270: d6f9 673c 3e5a 17be ebdf 493e 0c68 803e
00000280: 3ea6 b93d b65a be3e 44b2 d23e 032e 9a3d
00000290: b801 8b3e 7f22 0c3d 6bb1 8a3d 22a4 333e
000002a0: 7aed 493e 1cb1 d93e 02d4 38be c006 9b3d
000002b0: df11 053f 4330 063f 997a ea3e 5323 193e
000002c0: 6281 043e 3f10 143d 08b3 1f3e dc4f b93e
000002d0: 9d44 993d 85a2 d2bd f95e e23e 79fc dabc
000002e0: 1588 ebbd 95e5 b1bd 88e0 1c3f 0112 803e
000002f0: 6e3c 973a fd49 15bd 9808 ac3d 6411 813d
00000300: a70f 473e 67c1 f83d ec58 4c3d 262a 2f3d
00000310: 3da6 c03e 67d0 2b3e 6c8e bdbe 17fd c83e
00000320: 5319 4b3e fe43 283d f126 71bd ab5b 993d
00000330: fc3a b23e 7292 de3e ed25 ef3d 5fb1 e03e
00000340: eb72 d83d 3f7f 3d3d 17cd a83d 3a10 623e
00000350: 28fe 783f 1e0d 0a3f 219f acbd 71b9 a63e
00000360: f20f a8bd 079b 0c3e 2205 4a3e 207d 013f
00000370: ff7f 153f cd74 5c3e ee24 bf3e 9ae5 9b3e
00000380: d992 b03e 7905 83bd 9cc0 b7be c7e9 f4bd
00000390: f7ae 483f cf86 4dbe 1f8b 963d b1fa 3c3d
000003a0: 1d61 493e 3d94 673f 47d6 ba3d 6c06 263f
000003b0: 2e95 a63d ce39 b83c b3d9 50bd ba47 8cbe
000003c0: 5a21 ba3e e341 583d 44bc 843e 0c2f e9bc
000003d0: cb4f e13e c77a db3d 5fc5 893e 607b 3b3c
000003e0: 86c5 c43d 51b4 0a3f 148e 963f b839 ec3d
000003f0: 2b55 17be 1658 11bd e40b f13d f1e4 623d
-0.0870493 -0.008813044 0.011373927 0.04003218 -0.0001120832 -0.85123086 -0.3737285 0.17621472
0.048953667 0.20937699 -0.7571408 0.18102632 0.060896862 0.4070138 0.90012753 0.3012732
-0.010797619 0.47475547 0.67037517 -0.033144258 0.116224796 0.69360363 0.2502825 0.24065936
0.4179191 -0.20061532 -0.50347567 0.114416525 0.015633998 0.04662316 0.09674633 -0.041315876
-0.08356589 -0.017940514 -0.045751523 0.002387013 0.6563373 0.2704848 0.29041666 0.12107988
0.0960092 -0.1163361 0.38590616 0.14767846 0.5841884 0.42356282 0.010820245 0.058468886
-0.05050889 -0.07837414 0.109456114 0.299018 0.2140693 0.11743694 0.097713746 -0.048095193
-0.063861676 0.08414753 0.17998911 -0.031234458 0.60157883 0.007075646 0.63378805 0.6111152
-0.002866697 0.31207454 0.63198984 0.12116573 -0.21550287 0.060336087 0.20511098 0.2532634
0.037202746 0.9813742 0.014976522 0.45469582 0.034752797 0.18211737 0.37621525 -0.06993467
-0.6189468 -0.009843238 1.2928891 0.33078158 -0.40020272 0.24393085 0.4532162 0.14866471
-0.018512687 0.15896653 0.13017812 0.7383926 -0.015335564 0.11325481 0.19973749 0.25699463
0.25597835 -0.22663553 0.42602342 0.010787613 0.6446723 0.27501506 -0.11161435 0.701264
0.08915 0.078898005 0.2620285 0.092503384 -0.19026451 -0.20464362 -0.17004673 0.1732093
0.13705993 -0.14886653 0.077304035 -0.87236404 0.6519108 0.73924965 0.24034835 -0.23120986
0.13579921 0.06443899 0.019298272 2.5190265 0.11802764 -0.14359513 -0.22994122 -0.0068833944
0.64560354 -0.027660318 0.615602 -0.021227032 0.590126 0.15040603 0.097548865 -0.04605962
1.6374403 0.3910848 0.21969111 0.14096925 -0.031870425 -0.0379071 0.065809175 0.13672173
0.120322846 0.040929914 -0.09557642 -0.62280875 0.13260934 0.107190825 0.063461386 0.124668665
0.13468313 -0.20116274 0.043046653 0.032751102 0.014158687 -0.14780518 0.19714324 0.2507938
0.09064911 0.37178582 0.4115163 0.07528307 0.2714975 0.034212586 0.06772121 0.1754308
0.19719496 0.42517936 -0.18049625 0.07569647 0.51980394 0.5241739 0.4579666 0.14954881
0.1293998 0.036148306 0.15595639 0.3619374 0.0748379 -0.102849044 0.44213083 -0.026731716
-0.11500565 -0.086863674 0.6128011 0.25013736 0.0011538395 -0.036447514 0.08400077 0.06302145
0.19439565 0.121462636 0.04988949 0.042764805 0.3762683 0.16778718 -0.37022722 0.39255592
0.19833879 0.041080467 -0.058875028 0.074881874 0.34810627 0.43471104 0.11677156 0.43885323
0.10568794 0.04626393 0.08242243 0.22076502 0.9726281 0.53926265 -0.08428789 0.32563356
-0.08206166 0.13731013 0.1972852 0.5058155 0.5839843 0.21528931 0.37332863 0.3044861
0.34487036 -0.06397528 -0.35889137 -0.11958652 0.78391975 -0.20070957 0.07350754 0.046137515
0.19665952 0.9046057 0.091229014 0.6485355 0.081339225 0.0224885 -0.050988864 -0.27398473
0.3635357 0.05279721 0.25924885 -0.028464817 0.4400619 0.10716777 0.26908395 0.011442989
0.09607987 0.5418139 1.1762109 0.115344465 -0.14778583 -0.035484396 0.11769846 0.055394117

fc2.bias f4 [256]
00000000: fd39 e4be 7c5b fdbe f384 02bf 30a5 00bf
00000010: d02f 5dbf b650 8bbf ec89 41bf 4b31 b73e
00000020: f964 f7be a770 17bf abb3 e53e 6f28 c13e
00000030: 6fe0 4d3f 8ec6 2b3f b819 14bf e055 17bf
00000040: 58f9 b3be 0f97 4bbe 24e9 0fbf 4677 5bbc
00000050: 3907 70bf 5827 bcbe 4497 16bf 1e41 4f3f
00000060: 03fd 983e 9f91 fbbe 00a2 b93f 5ff8 53be
00000070: 2630 a4be a8af 37bf 57aa 103f fd89 253e
00000080: 7dde debe 7df4 f83e 8aeb ccbe 9e38 a73e
00000090: ec7f 93be f198 4c3e 777a 50be bd72 b9be
000000a0: c6d5 1c3e a90d 0abf bee9 0ebf 6eb0 66be
000000b0: 470f 7fbe 4a3c 6e3e 48de ebbe ccbd 4ebf
000000c0: 0116 e8be a118 2b3e d6c4 87be 7bdd 173e
000000d0: 310c 003f e513 27bf 80e0 173f 084a 483f
000000e0: 4f25 b0be 03cf 21bf 2162 f3be 684c b8be
000000f0: 194e d5be 5928 e7be cdb3 c2be a246 bbbd
00000100: 4713 a9be 7ef0 92be d7ae f1be befb b0bf
00000110: ada3 debe e900 01bf 4310 1abf 8f59 e1be
00000120: 9ea0 b4be c3b5 edbe 4388 39bf 4076 a6bd
00000130: 5094 8dbe eded afbe 5610 c7be 6abe bf3e
00000140: f741 203f 6404 f8be b88c 04bf 4ac7 b83e
00000150: 3669 813e 9f2c e6be 7fc6 c93e 2a80 01bf
00000160: e02e fbbe 502f 08bf 43ac 53be b96e c2be
00000170: 16ba e1be 86ee f0be 5f49 33bd 21f0 2abf
00000180: 9f0f 0abf c4c4 f4be cbd8 09bf 0a9e 943e
00000190: 57bd c73d c708 24bd 8f7d 35bf 76e5 a8be
000001a0: c41e 213f df28 dcbe a8da ebbe c394 82be
000001b0: 8cc6 e2be 1fa3 92be 0d36 e4be 0654 9fbd
000001c0: d9a4 32be befd d4be 0c94 45bf 63e2 1ebe
000001d0: 67d2 14bf 22f1 153f 6b08 97be 05e9 5a3e
000001e0: b707 c2be 2ac1 58be 6114 113f 8dd4 fdbe
000001f0: 417d 213f 92ab eabe d44d febe 0620 9d3e
00000200: f45b 61be 40aa dfbe 8cf4 4cbf f3d0 f4be
00000210: 889e d2be 6c70 5abe 6672 fcbe ccd9 d3be
00000220: 5cda c7be fa5b a4bf 056b 76be 6469 5cbe
00000230: 5f6f 103f 3b58 4fbf 2184 393f e758 f1be
00000240: 99db 133f 1b77 d8be 862f 013f 49d9 3dbe
00000250: c7f5 dcbe 1083 b8be b44f 52be c4f2 ffbe
00000260: 0302 f2be d05e 1bbf 9ab7 0b3f 6f29 56bf
00000270: d2b0 823e eaef e5be b763 56bd 8aa0 c5be
00000280: 0a2a c63e b68d 07bf fee0 1dbf 09b7 bdbe
00000290: 0f34 59bf 1e99 e4bd 900e e7be 97ba babe
000002a0: 564f 62be 3901 00bf 3a5b f5be ea2d 12bf
000002b0: 5d63 d3be 445b 3ebf 7f31 adbe 5c00 2a3f
000002c0: e6b9 203f 9d1c 38bf 7b97 35bf e115 05bf
000002d0: 31ae f7be b307 efbe 4602 c83e 4221 c0be
000002e0: 763b 07bf 177c 01bf 9660 52be 214f cd3e
000002f0: 0eb4 9a3e 31f6 d2bc ced6 27bf a7cf 0abf
00000300: 4fcd 963e 7266 48bf 81f2 ecbe fbd9 67be
00000310: fe16 19bf d0e8 21bf 68f5 90bd 750d 05bf
00000320: 21dc 5abd 04c5 8bbe 6ae4 bebe eb28 efbe
00000330: ad4d 903e 3fe2 edbe 482c adbe 6ec9 e1be
00000340: 8984 97be 73f6 0c3e 4db6 0cbf ba61 aabe
00000350: a941 3ebf 47e9 1d3f 75e8 d7be b560 153d
00000360: f9e6 14bf d269 33bf 596b 4cbf 79c5 a0bd
00000370: bccb 2ebf 4603 3fbf e61b 7d3f f326 1cbf
00000380: 4b84 3dbf e630 62bf a4a8 debe d343 d8be
00000390: e9ce 41bf d662 9fbc 4dfd 1abf dde9 bebe
000003a0: e218 cfbe 0345 bfbe 62a2 5cbe 1066 29be
000003b0: c9ab 8fbf 604a 9cbc 868c adbe 1d54 f03e
000003c0: 17cd 46be 1693 34be e4a8 e7be bdf8 d6be
000003d0: 89a7 92bf 2ce5 abbe 7f51 d43e 37e1 babe
000003e0: 748c e5bd 8b20 d5be 958c 82be b508 21be
000003f0: 820b 2abf a4c9 b5be 8b34 333e 8d96 073f
-0.44575492 -0.4948386 -0.50984114 -0.50252056 -0.8640108 -1.0884006 -0.7560108 0.35779795
-0.48319224 -0.5915627 0.44863638 0.3772616 0.80420583 0.67099845 -0.57851744 -0.5911541
-0.35151172 -0.19881843 -0.5621512 -0.013395136 -0.9376102 -0.36748767 -0.58824563 0.80958736
0.29880533 -0.49134538 1.4502563 -0.20700215 -0.32067984 -0.71752405 0.5650992 0.1616592
-0.4352912 0.4862403 -0.40023452 0.32660383 -0.28808534 0.19980218 -0.20359217 -0.3622035
0.15315923 -0.53927094 -0.5582541 -0.2252824 -0.24908172 0.23265186 -0.46068025 -0.8075836
-0.45329288 0.16708614 -0.2651736 0.14830582 0.500186 -0.6526473 0.59326935 0.7823796
-0.34403464 -0.632065 -0.47535804 -0.35995793 -0.41661146 -0.4514797 -0.38027802 -0.091443315
-0.3302252 -0.28699106 -0.47203705 -1.3826826 -0.4348425 -0.50392014 -0.60181063 -0.4401364
-0.3527879 -0.46427736 -0.72473544 -0.08128023 -0.27652216 -0.3436121 -0.3887965 0.37449962
0.62600654 -0.4844085 -0.5177722 0.36089545 0.25275582 -0.44955918 0.39409253 -0.5058619
-0.490592 -0.53197193 -0.20671181 -0.379751 -0.44087285 -0.4705698 -0.043771144 -0.6677266
-0.53930086 -0.4780637 -0.53846425 0.29026824 0.097529106 -0.040047433 -0.7089471 -0.32987565
0.6293757 -0.42999932 -0.4606526 -0.2550412 -0.44292104 -0.28640077 -0.44572487 -0.07779698
-0.17445697 -0.4159984 -0.77179027 -0.15516047 -0.5813355 0.58571064 -0.2949861 0.21377952
-0.3789651 -0.21167436 0.5667172 -0.49576226 0.6308175 -0.45834023 -0.49668753 0.30688494
-0.22007734 -0.43684578 -0.8006065 -0.47815666 -0.41136575 -0.21331948 -0.4930603 -0.41377103
-0.39033782 -1.2840569 -0.24064262 -0.21524578 0.5641994 -0.80994004 0.7246724 -0.4713814
0.57756954 -0.4227837 0.5046314 -0.18539919 -0.43156263 -0.36037493 -0.20538217 -0.49989903
-0.4726716 -0.6069155 0.5457703 -0.8365697 0.25525528 -0.44909602 -0.05234119 -0.38599044
0.38703948 -0.5295061 -0.61671436 -0.37053707 -0.8484506 -0.11162017 -0.45128298 -0.36470482
-0.22100577 -0.50001866 -0.47921163 -0.5710131 -0.41286746 -0.7435801 -0.33826825 0.664068
0.6278366 -0.7191866 -0.70934266 -0.5198651 -0.48375085 -0.46685562 0.39064234 -0.37525374
-0.52825105 -0.5057997 -0.20544657 0.40099433 0.30215496 -0.025752159 -0.6556214 -0.542231
0.29453513 -0.7828132 -0.46278766 -0.22641747 -0.5980071 -0.6324587 -0.070780575 -0.5197366
-0.053432588 -0.27298748 -0.3728364 -0.46710905 0.28184262 -0.46461675 -0.33822846 -0.4409899
-0.29593304 0.13765888 -0.5496567 -0.33277684 -0.7431894 0.6168408 -0.42169538 0.03646918
-0.58164936 -0.70083344 -0.798513 -0.07850165 -0.68279624 -0.7461437 0.98870695 -0.6099693
-0.7402999 -0.88355863 -0.43488038 -0.42239246 -0.75706345 -0.019456308 -0.60542756 -0.372878
-0.40448672 -0.3735734 -0.21546319 -0.1654284 -1.12243 -0.019078434 -0.33896273 0.46939173
-0.19414173 -0.17634234 -0.4524604 -0.41986647 -1.1457378 -0.33573282 0.41468427 -0.3649995
-0.1120843 -0.4162639 -0.2549788 -0.15725978 -0.6642381 -0.35505402 0.17500512 0.529641

fc3.weight f4 [128, 256]
00000000: e9a9 94be 2141 843d bb74 493e 232e 39bf
00000010: 5403 a23e 9862 063f 72e8 8c3f f652 10be
00000020: b070 7e3c 221f e53d e521 acbe 9f72 66be
00000030: ed02 55bf bdca 33bf b660 f93d e708 18be
00000040: 0845 503d d3dc 7a3e 2620 a63e 4e01 c1bf
00000050: 5fa5 0f3c 638a 3dbd 179d 1a3f 9a60 7dbf
00000060: 8a71 37be 5d5b d2bc 1c61 3ebf 796f a73e
00000070: c2ca bb3e a1ac 813c 4690 b5be 22b7 edbe
00000080: b00c 043e 4603 90bf f6b1 0d3f 5164 bbbe
00000090: 2238 923f 134d 803e 038d e9bf a1a8 e9be
000000a0: 26f3 6fbf 7acc 2f3f f976 0dbe 1c31 833f
000000b0: 2497 5f3f 1e18 ecbe 7aef 3e3e 374b bf3e
000000c0: e5f3 a73e 4ab7 2abf 1fcc 25bf 33cd 0ebe
000000d0: c977 a7bf 1812 1cbf 0fde 813f 2bb9 02bf
000000e0: 2eab 763f 6746 b0be babf dc3e 06d4 3d3f
000000f0: d624 ae3b 56a9 89be e6f2 463d 5db3 b9bf
00000100: b9c9 4dc0 00b6 29bd 5068 56be 4051 5cbf
00000110: cb60 683e 8dfe 89be ac66 903d 5e24 52bd
00000120: e301 6b3e e87f 313e 4bdd 603e 2013 abbf
00000130: b619 9b3f 1af2 a33f 34f3 993d c63c 24be
00000140: 485d 3fbe 9346 82be fab9 8dbd 2569 45bf
00000150: 0380 94bd 1648 a9bd da78 23bf b474 94be
00000160: 58aa 263d 4e45 f3be 10a3 293d 7a9a 883e
00000170: eda2 c8bd 7295 3ebe 4a24 1d3f 6bfa 6640
00000180: d832 1abd 7ea4 b5be 1fad 27be 58f8 86bd
00000190: ca41 da3e 6a66 213f 84f9 203e 2808 933e
000001a0: f3e8 b1be 3ee2 6bbd c254 743f b3d1 3b3f
000001b0: 8a6a 2a3d 23d1 72bd e12f 403f 263e ebbc
000001c0: 108f 2a3f c42b 1dbe d5e7 433f b19b d63e
000001d0: d5e6 a33d 9e65 f5be fa1e 853e 5b0b f2bd
000001e0: 460e 393d c07c 873d bb89 8fbe 5fc8 533f
000001f0: 6b56 40be 9e51 abbe e649 0bbe dce3 f5be
00000200: 1c6e 2abb 0457 64be cc53 5ebe 95cd 1c3d
00000210: bd18 a53d 4c14 933f 7732 87bf ff5e d1be
00000220: f123 35be 8b50 9b3e 70e8 84bc ddd1 02bf
00000230: 73f7 89bf be2f 103e 6917 1cbf 2fde 41bf
00000240: 4c48 6ebf 8aca 4d3f 7693 f3be 3a58 d23e
00000250: 8dcc a6bc 6f7e 2d3e 6741 673e dbb4 453e
00000260: 24d5 a8ba 239e e53f ffd0 8d3e 7627 b53e
00000270: 5516 34bf 46f7 b13e c458 2bbf 15f6 bfbc
00000280: 329a 32bd 5a32 9ebd 60a7 013f 59b2 94bd
00000290: 8ff9 293f 4057 d6be 404c 93be b972 d13c
000002a0: 18df 663f 157c 133d a20c 2fbd 34e6 b0bf
000002b0: 67e6 1440 ac0e abbf e071 89bd a7f3 aabe
000002c0: 53cb d6be 041a 293d bdec 843e 8ec3 d9bc
000002d0: d73e 9f3e 6083 363e dedf 2bbe 198e 51be
000002e0: 47e6 ce3e 69dd ecbe 4301 a8be dc7f e4bd
000002f0: 902d b4be afe6 9cbd 0f63 f4bd 2faf 62be
00000300: 7274 3bbf 212d e2be f0dc 83bf b1ee 2abe
00000310: 25ba 153e 91ae 5ebe 1f0a 0a3f eed5 dfbd
00000320: 0a63 223f 95c1 a8bf 27d8 2b3d 4d88 cd3c
00000330: 5b5f 71be 935e 51bf 6bf3 29bd e67b aa3d
00000340: 4410 d63e b86f ad3d 3ac5 863e cf2d 283d
00000350: cefb 033f 895f e23d d541 25bc e6db 433f
00000360: b6b6 50bd 0f50 e43e 412a c93e 3cac 313c
00000370: f2e1 0bbe 5e39 253f ba1e 4cbf 18fb 693e
00000380: 780c 163f 7f9f b73f d640 a13d ffdc 2b3e
00000390: 3940 213f a97b d5bc 190d 81be d863 2fbe
000003a0: b053 10be 8c13 b3be 0ff0 3d3f 3d8e d9bd
000003b0: 26c5 183f d5d8 023e 4b86 d6be 8444 993f
000003c0: 1476 36bf 5b8d 13bf cead 12be 7823 60be
000003d0: f2b9 1e3f c672 263e 638b acbe b012 63be
000003e0: 5d1f 4abf 8364 3e3d 9921 863f b362 173f
000003f0: 047d 7e3e d110 503e 1b05 d43c 4edc dabf
-0.2903588 0.06457735 0.19673435 -0.72336024 0.31643164 0.5249419 1.1008437 -0.14094147
0.0155297965 0.11187579 -0.3361961 -0.22504662 -0.8320759 -0.7023123 0.12176649 -0.14847146
0.050847083 0.244983 0.32446402 -1.5078523 0.008767455 -0.046274554 0.6039595 -0.9897553
-0.17914405 -0.025678331 -0.7436693 0.32702234 0.3667813 0.015829386 -0.35461634 -0.46428782
0.12895465 -1.1250999 0.5534967 -0.36599973 1.142338 0.25058803 -1.8246158 -0.45636466
-0.9373039 0.6867138 -0.13814916 1.0249362 0.8734 -0.4611215 0.1864604 0.37362072
0.32803264 -0.66685927 -0.6476459 -0.13945465 -1.308343 -0.6096511 1.0145892 -0.51063794
0.9635495 -0.34428713 0.43115026 0.7415165 0.00531445 -0.26887006 0.04857149 -1.4507862
-3.2154372 -0.041433334 -0.2093823 -0.8606148 0.22693174 -0.2695202 0.07050833 -0.051304214
0.22949938 0.17333949 0.21959417 -1.3365211 1.2117221 1.2808259 0.075170904 -0.16038808
-0.18687928 -0.2544447 -0.06920238 -0.7711356 -0.07250979 -0.082657024 -0.6385628 -0.28995287
0.040689796 -0.47513813 0.041415274 0.26680356 -0.097967006 -0.18611696 0.613835 3.6090343
-0.037646145 -0.3547706 -0.16374634 -0.065903366 0.42628318 0.63046896 0.15720183 0.2871716
-0.3474804 -0.05758881 0.9544183 0.7336685 0.04160551 -0.05928148 0.7507306 -0.028716158
0.66624546 -0.15348727 0.7652562 0.41915658 0.08003012 -0.4792909 0.26000196 -0.11818572
0.045179628 0.06615591 -0.28034768 0.8272762 -0.18782966 -0.33460706 -0.13602409 -0.48025405
-0.0026005572 -0.22298819 -0.21711653 0.038281996 0.08061359 1.1490569 -1.0562276 -0.4089279
-0.17689492 0.30334887 -0.016224116 -0.51101476 -1.077864 0.14080712 -0.6097322 -0.7572965
-0.93079066 0.80387175 -0.4757344 0.41082937 -0.02036121 0.16942762 0.22583543 0.19307272
-0.0012880904 1.7938884 0.27698514 0.3538167 -0.70346576 0.34758967 -0.6693232 -0.02343277
-0.043604083 -0.077244475 0.5064602 -0.072605796 0.6639642 -0.4186344 -0.28769112 0.0255674
0.90184164 0.036007006 -0.042736657 -1.3820252 2.3265626 -1.3363853 -0.06711173 -0.33389017
-0.41952 0.041284576 0.25961867 -0.026582506 0.3110263 0.17823553 -0.16784617 -0.20464362
0.40410063 -0.46262673 -0.32813463 -0.111572 -0.3519101 -0.07661187 -0.119329564 -0.2213714
-0.73224556 -0.44175056 -1.03018 -0.16692616 0.1462179 -0.2174628 0.53921694 -0.10929476
0.6343237 -1.3184077 0.041954186 0.025089407 -0.23571531 -0.81784934 -0.041491907 0.08324413
0.41809285 0.08468574 0.26322347 0.04105931 0.515561 0.11053378 -0.010086496 0.76507413
-0.050955497 0.4459233 0.3929005 0.0108442865 -0.1366041 0.6454066 -0.79734385 0.22849691
0.58612776 1.4345549 0.078736946 0.16783522 0.6298862 -0.026059942 -0.25205305 -0.17127931
-0.14094424 -0.3497585 0.74194425 -0.10622833 0.59675825 0.12778027 -0.41899332 1.1974034
-0.7127392 -0.57637566 -0.14324114 -0.2188853 0.6200248 0.1625472 -0.33700094 -0.22175097
-0.78954107 0.046482574 1.0479003 0.5913498 0.24852377 0.20318915 0.02588134 -1.7098482

fc3.bias f4 [128]
00000000: 3edb 83be 03e0 76bf d542 09bf 241e 25bf
00000010: d7e3 07bf 0b60 3bbd 47a0 07bf 4bad 1fbf
00000020: 8624 b13e de5c 1a3f 71f3 113f 86b9 5cbf
00000030: 7272 5abf 97fe 35bf 4cb5 b13e 2fd2 e7be
00000040: 1655 70bf 64e3 1ebf f44b fc3e 7a6c e43e
00000050: 5690 e93e aa61 12bf bc3b 8e3f 32bf 30bf
00000060: cb74 9fbe 049d 49bf bf6a 92be 15bf e3be
00000070: eb73 36bf c2a8 4ebe 5ea4 c5be 12f9 82bd
00000080: e7fe c6be 48ab 2cbe 8c50 5fbf b834 f83b
00000090: 5d1d e0be c7af 38be 8a3d e9bd fa3d 84bf
000000a0: c5b6 2dbf 7ddf 40bf a4d1 ddbe 52da 86bf
000000b0: d6e5 bdbe 536a 04bf 5bc4 7abf db00 40bf
000000c0: 1b95 373f 72d6 94be 3317 46bf f610 9dbe
000000d0: 7937 02bf 6aaf f8be c280 58bf 5645 62bf
000000e0: 754c 31bf c3a6 4dbe 2a0e 7bbe 2772 59bf
000000f0: 62b8 f1bd fc08 36bf 4046 713e 1f13 aebe
00000100: 1c5e 49be 2cb4 3bbf 8b5a cebe be5f 0e3f
00000110: 922a 7dbf 2990 cd3d 4aa3 1b3f 058b f9be
00000120: 017a ccbe 893c 00bf a635 543d c374 743d
00000130: 7082 ffbe 3bce 1ebf 749a 87be 0024 50bf
00000140: f6c0 54be e61d 92be 9c15 3cbf bd29 ff3e
00000150: bb2f c3be 4ce6 dfbe de67 1f3f 6679 7dbe
00000160: ad15 73bf 0a09 c13e c6e5 4dbe 7d9e 35bf
00000170: dba0 efbe d75e 043f c93c 76bf 3db1 18bf
00000180: d0af e03c ec29 0bbf 04bc 85bf 23a6 5bbf
00000190: 862e 2ebf 47f7 62bf a32a 5ebe 538e c33e
000001a0: c861 1abf a562 883d 76aa 2bbe 7435 8b3f
000001b0: 82a7 59bf 87c5 0a3f 9b75 45be 77c7 e8be
000001c0: 9473 b9be 9048 eb3e facd 253d 4fed 46bf
000001d0: 9036 49bf bcad 13bf 2b2b 0b3f 276c 323e
000001e0: a9da 913e 05e8 3c3f 5a97 95be 821b d73e
000001f0: 079f 21bf a72a 893f 046a 65bf ba74 2abf
-0.25753206 -0.96435565 -0.536176 -0.64499116 -0.5308203 -0.04574589 -0.5297894 -0.623738
0.34598178 0.60297954 0.5701209 -0.86220586 -0.8533088 -0.710916 0.3470863 -0.45277545
-0.9387983 -0.6206572 0.49276698 0.4461401 0.45617932 -0.57180274 1.111198 -0.6904174
-0.31143793 -0.7875521 -0.28597066 -0.44481722 -0.71270627 -0.20181563 -0.38601965 -0.06395163
-0.3886635 -0.16862214 -0.8723228 0.007574644 -0.43772402 -0.18035804 -0.11388691 -1.0331414
-0.6785701 -0.75341016 -0.43324006 -1.0535376 -0.37089413 -0.5172474 -0.97955865 -0.75001305
0.7171189 -0.2906986 -0.7737915 -0.30677003 -0.50865895 -0.4857133 -0.8457147 -0.8838705
-0.6925729 -0.20083146 -0.24517122 -0.8493981 -0.11802746 -0.7110746 0.23561954 -0.33998963
-0.19664806 -0.73321795 -0.40303454 0.5561484 -0.9889308 0.10037262 0.60796034 -0.48738876
-0.39936832 -0.5009237 0.051808976 0.059681665 -0.49904203 -0.6203343 -0.26485026 -0.8130493
-0.20776734 -0.28538436 -0.73470473 0.4983653 -0.38122353 -0.4373039 0.62267864 -0.24753341
-0.9495495 0.3770221 -0.20107183 -0.7094496 -0.4680241 0.51707214 -0.961865 -0.59645444
0.027427584 -0.5436084 -1.0448003 -0.8580038 -0.6803974 -0.88658565 -0.21695952 0.38194522
-0.6030545 0.0665944 -0.16764244 1.0875688 -0.8502122 0.5420765 -0.19283144 -0.4546468
-0.36220992 0.45953798 0.040479638 -0.77705854 -0.7859888 -0.5768697 0.54362744 0.1742407
0.28487137 0.73791534 -0.29217035 0.42013174 -0.6313328 1.0716141 -0.8961489 -0.6658436

fc4.weight f4 [4, 128]
00000000: dee7 5ebe e18c b33d 61b2 913d 2d3f b1bd
00000010: 7517 babe c3d0 68bc dcac 1d3f 75ea fdbd
00000020: 7bca 533e 06db 8c3f 88e3 823f b5fb ec3e
00000030: 51f1 0a3e 825f ac3e 8b39 723f 2e17 ea3f
00000040: 099d cebd 6f3d c73e 19f6 863f 6e82 8e3f
00000050: 8f6e 773f d580 1f3f 2365 923f 3886 803e
00000060: b6df 4f3f d111 923f 3cd1 1c3f 4553 ea3f
00000070: 2cbf 9ebd 97b5 b63f 7adb 1b3f c13e a43f
00000080: 7bfc 14be ca19 803f 844a 38be 82dc 213f
00000090: 6671 d63e 32fb 943f 1246 a93e 0f37 f43e
000000a0: fac3 f4bf 674e 00bf 2066 953f 94b0 e93d
000000b0: 9802 a93e 71bf 213f 901e 06be b21f 763f
000000c0: be6b 643f 1b3a 913e b2d8 24be a4b4 e3bf
000000d0: 1cfe 463f d866 e23e 1f1b 4d3f f7f9 f43c
000000e0: c130 9c3f a6aa 9b3e 8125 a13f 3e07 16bf
000000f0: 41e3 773f 5b5f 0d3f d03f 363f 8ae9 1d3f
00000100: 1d41 353f c209 533f 3a8a 4dc0 ee0c 8f3f
00000110: 3ce0 ec3e 1e8d a43f ce95 883f a3c3 253f
00000120: b77c 9a3e 420a 313e f70c 5e3f 9749 2c3f
00000130: 9ae2 013f 0c6d 3e3e 546f 383f 7fb6 353f
00000140: f0cc 053f d5ac 67bf 4d91 383f 8cf3 873f
00000150: 78cd f83e f30e 9cc0 2993 763f 967d cb3e
00000160: 15ae 053e 2cf7 853f d948 b03f 452c 813f
00000170: 79c7 943f 6c7a 883f 6cc0 a23f efb8 563f
00000180: 050f 613f 0d4f 493f 883c 1d3f 5687 5dbd
00000190: 9f10 f43e 336f 003e 0929 9d3e 0b6c 9b3f
000001a0: bbc4 a23e 9806 79be 5cb3 303f 3395 af3f
000001b0: a21d a6bd 4d0d 893f 01ed 973f 5629 f83e
000001c0: 385a 3cc0 aeb7 7e3f 8b53 abbe 9c2d 0e3e
000001d0: 5ba6 053f 6582 733f a3d1 8c3f 859b c73f
000001e0: b80f 9b3f 9ceb 893f a38b c33f 3cdd 833f
000001f0: 4fce aa3e 6229 c83f ede5 50be a438 203f
00000200: cb62 443e 09b5 263e 0663 ef39 03b2 0ebd
00000210: 50bc f8bb ee9d 72bd 8862 203f 2f81 58bf
00000220: 9458 213f 29a8 a03f 207e 8e3f 7057 0d3f
00000230: ae17 3fbe f708 dbbd a359 873f 7e8f 353f
00000240: e381 9e3d 2ef4 813e 88ed 893f 27fb 8f3f
00000250: 2c98 8a3f 9c48 273f 7961 ae3f 7a4b ff3d
00000260: 70e8 803f 168b 663f 74ee 443f 8f3c a03f
00000270: 2707 463d 323e 353f 6cee f73e 42ea ae3f
00000280: bca1 7a3e 4175 623f 035e 903e c3d6 a23e
00000290: 85ff 5f3f 3289 af3f bb01 eb3e 748f 29be
000002a0: 6162 8dc0 4958 583f 3690 cbbe 6e68 163e
000002b0: 22d6 e93e 3354 ba3e 8753 be3d 546d 383f
000002c0: 9721 883f 1cce b33e 9625 09bc 6319 053f
000002d0: ff47 843e 20b5 ab3e 3dbe 1a3f 26ce 593d
000002e0: fa46 883f 7ac3 f73b e6de 863f f235 70bf
000002f0: 3519 503f 28d1 753f 4335 c9bd 82f2 c93e
00000300: efbb 273f 782e 173f f487 52c0 18ce 873f
00000310: acbd 693f 8c8f 183f fcc2 8d3f eed8 2e3f
00000320: 6d38 0e3f b2b6 133e d231 4a3f 7586 a83f
00000330: d018 553e ecf1 cbbc 96b4 8b3f 6882 033f
00000340: 174b e73e 1226 233f 4e9c 253f 526a 883f
00000350: b938 293f aec5 93c0 9d39 973f 5bf7 383f
00000360: 1732 c03d 435a 913f 2b82 b83f 7318 7e3f
00000370: 5566 793f 55b8 883f f5f7 883f 8898 483f
00000380: f0c3 743f 2f75 073f a6d5 893f db01 89bf
00000390: 6468 493f a400 f43c 5173 233f 19fe a23f
000003a0: 765b 4d3f 43de 133e 9472 4c3f 79de ae3f
000003b0: 5695 843e bba6 8a3f cc25 033f 3551 b43f
000003c0: 1946 3ec0 1153 883f 0f8c 823e ec1e 7f3f
000003d0: b39f bd3e 6e21 a13f 2fd1 8c3f fabf d83f
000003e0: 4bb4 253f e773 8a3f 0bce 523f 8b23 873f
000003f0: 588e 183f 8f2c d23f 48f4 9e3f 8853 053d
-0.21768138 0.08767105 0.07114101 -0.08654628 -0.3634602 -0.014209929 0.6159189 -0.12398235
0.20682709 1.1004341 1.0225687 0.46285787 0.13568617 0.33666617 0.94619054 1.8288324
-0.10088546 0.38914058 1.0543853 1.1133554 0.96653074 0.6230596 1.1437114 0.251024
0.8120073 1.1411687 0.61256766 1.8306662 -0.07751307 1.4274167 0.6088177 1.2831651
-0.14549439 1.000787 -0.17997175 0.63227093 0.4188339 1.1639159 0.33061272 0.47698256
-1.9122307 -0.5011963 1.1671791 0.11410633 0.3300979 0.6318274 -0.13097596 0.96142113
0.892269 0.28364643 -0.16098288 -1.7789502 0.7773149 0.4421909 0.8011951 0.029904349
1.2202379 0.30403632 1.258957 -0.586048 0.96831137 0.55223626 0.7119112 0.6168448
0.7080248 0.82436764 -3.2115617 1.1175821 0.46264827 1.2855566 1.0670717 0.6475164
0.30173275 0.1728907 0.8673853 0.6729979 0.5073639 0.18596286 0.72044873 0.7098159
0.52265835 -0.90498096 0.7209671 1.06212 0.4859426 -4.876825 0.963183 0.39744252
0.13054688 1.0466056 1.3772231 1.0091635 1.1623374 1.066236 1.2714972 0.83875936
0.87913543 0.78636247 0.6142049 -0.054084145 0.4766893 0.12542419 0.3069537 1.2142347
0.31790718 -0.24318922 0.6902368 1.3717407 -0.08111121 1.0707184 1.1869203 0.48469037
-2.9430065 0.9949902 -0.33462176 0.13884586 0.52206963 0.9512084 1.1001476 1.5594336
1.2114172 1.0775027 1.5276989 1.030189 0.33360526 1.5637629 -0.2040021 0.62586427
0.19178312 0.16279997 0.0004565941 -0.034837734 -0.007590808 -0.059232645 0.62650347 -0.8457212
0.63025784 1.2551318 1.113224 0.55211544 -0.18661377 -0.10695069 1.057423 0.70922077
0.07739618 0.25381607 1.0775614 1.1248521 1.0827689 0.6534517 1.3623496 0.12465568
1.0070934 0.9005598 0.7692635 1.2518481 0.048346665 0.7079803 0.4842409 1.366524
0.2447576 0.88460165 0.28196725 0.31804475 0.87499267 1.3713744 0.45899758 -0.1655863
-4.418259 0.8450971 -0.39758462 0.14688274 0.45671183 0.36392364 0.09293275 0.7204182
1.0635251 0.35118186 -0.008370778 0.5199186 0.2583618 0.33536625 0.6044653 0.053175114
1.064666 0.0075611444 1.0536773 -0.93832314 0.8128846 0.9602227 -0.09824612 0.3944283
0.6552114 0.5905528 -3.289548 1.060977 0.9130504 0.59594035 1.107513 0.6829976
0.5555485 0.14425161 0.7898227 1.3166033 0.20810246 -0.02489563 1.0914485 0.5137086
0.45174477 0.63729966 0.6469163 1.0657446 0.66102177 -4.617881 1.1814457 0.72252434
0.09384554 1.1355671 1.4414724 0.99256057 0.9742177 1.0681254 1.070067 0.78357744
0.95611477 0.5291318 1.0768325 -1.0703691 0.7867491 0.029785462 0.63847834 1.2733794
0.80217683 0.14440255 0.7986233 1.3661643 0.25895184 1.0832132 0.5122955 1.4087282
-2.9730284 1.065035 0.2549748 0.9965656 0.37035903 1.2588327 1.1001338 1.6933587
0.6472823 1.081662 0.82345647 1.0557722 0.595922 1.6419848 1.2418299 0.032550365

fc4.bias f4 [4]
00000000: a605 973f f183 8f3f 29cf 8c3f d5c9 903f
1.1798599 1.121214 1.100072 1.1311594

ln1.weight f4 [256]
00000000: 1653 c03e 99ef d03e 6942 e63e 2917 fe3e
00000010: 11a3 053f 3e3a b73f af37 cd3e 49e3 d13e
00000020: 8587 d63e 5c22 ee3e 340f a83f 24ff cd3e
00000030: f5d5 093f 538e 283f 4878 643f 26f6 f43e
00000040: 1ee1 d53e 6f7f b83f c654 fd3e 99b5 9d3e
00000050: 2f00 1e3f 48e7 563f 1b69 cb3e 9082 c03e
00000060: e93d 1f3f d6cd b83f ed8e 543f acd6 8a3f
00000070: 8bad e13e 6ecd ee3e 5e57 ce3e d696 e93e
00000080: 14bb ec3e ea5a 383f 3e1b 813e ee0e de3e
00000090: 522c 983e 7efc c03e 29a4 ce3e e9f7 e63e
000000a0: f889 c83e 2722 2e3f 3b42 c83e cef8 db3e
000000b0: 0f47 a63e df9d 6a3f d2b3 b93e b8fa e83e
000000c0: c9ad eb3e 2fc1 df3e ee4b 553e 86ae be3e
000000d0: 2a64 023f 5dee c53e e469 943f 60a3 c43e
000000e0: a310 2f3f 1dba 833e b125 9c3e 5cd7 c93e
000000f0: cae0 563f f11a 103f ec3f f13f 1684 0740
00000100: e751 e83e 1417 013f e576 3340 dd98 243f
00000110: 8b44 b83e cb68 b83e 1403 c63e d73a 103f
00000120: ff4f 163f 2826 be3e 976a 973e a44d 1a3f
00000130: e05b de3e 6931 ff3e 5151 903f 5d1b e93e
00000140: e8d8 493f 4da4 4d3e f440 623f 9ed4 d53e
00000150: 4ada 183f 4d2e c33e d4c9 693f 6f51 ce3d
00000160: 758e 073f b8a3 9b3e 3db6 d73e 233e b03f
00000170: 5b78 063f eb24 123f 6336 dd3e e5a8 5f3e
00000180: 2286 613f 5569 193f d11e ea3e 2c2b c23f
00000190: a034 893f 2f69 df3e d555 c33e 2a77 ea3e
000001a0: 8bcd e33e 56b6 dc3e bc90 133f b826 e03e
000001b0: 1fc2 ac3e d168 6b3f 6a69 ea3e 2baf eb3e
000001c0: d278 ce3e b4a9 1f3e 9ae9 0d3f eed5 893f
000001d0: 01e3 983f 95e5 d53e 0a08 b43e 28fa b73e
000001e0: a9e6 883e c138 ea3e daf0 fa3e defa c13f
000001f0: 1405 d23e 40c8 d63e 5561 d63e cb4a 853f
00000200: c482 ad3e 759e e53e 23f6 8c3e d748 af3e
00000210: 1643 fc3e 6c42 bf3e 56d3 cd3e c069 e13e
00000220: 7f03 b33f 2cc7 b93e c56f f03e 3d4e 003f
00000230: 8089 d03e effc d73e ff12 e33e 86d9 f13e
00000240: 9180 f93e 8186 073f fa70 553e 5abd 773f
00000250: 147b e63e 6c36 443e bcff f93e d429 a83e
00000260: bfc1 e23e 1437 863e b58e cc3e 9ace b73e
00000270: 31fa 243e 8ca0 6c3f 7206 d23e 4aba ef3e
00000280: e499 f43e 3523 433f 4a67 853f 102a f33e
00000290: 5dbf e03e 88dc e13e e726 f23e f8fc c33e
000002a0: ce1c c53e a754 193f 5f06 e63e 4e9b 0e3e
000002b0: efe6 503e 133e 8a3f 02b4 343f d837 b83e
000002c0: c3da 4e3f 73a5 753e 05d8 e93e ee95 213f
000002d0: 14a6 a73e 8529 873e 0159 403f 380c ce3e
000002e0: 807b d13e 6130 d43e c641 863e 916d b13e
000002f0: b203 403f cb03 033e e925 d33e 7ae8 d23e
00000300: 3a30 063f 5a1e ca3e 5435 473e c0ed 173e
00000310: c2fe 023f 0fdb d93e 8632 1c3f 6478 1a3f
00000320: 14d1 f83e 790d 283e 0f68 a73e 5ba5 283e
00000330: 43c0 bf3f 015a bb3e 6898 1c3f 76d8 6d3e
00000340: dd4f 113f 963b 0c3f 1146 eb3e 51bb 633e
00000350: 85ab 643f 0bd2 213f 8d15 c53e 2f70 a63e
00000360: 484f a13f 42e9 e83e 5cb4 203f 4582 ac3e
00000370: a925 0f3f cd59 ae3e df82 b23e f41e 4d3f
00000380: 37a9 1a3f 0840 dd3e 218a 8d3f 4178 703e
00000390: 3fc0 b53e 1f54 573f 0896 033f 0b9a 993e
000003a0: 6482 d73e 2a8f e03e f509 bf3e 1148 c33e
000003b0: e004 613e 3244 ea3e a2bd cc3e f52a fe3f
000003c0: d87b 193f fe84 f73e 655a 053f 778d c33e
000003d0: 3f75 483e a3ee c83e 4561 d23e 6654 dc3e
000003e0: 720c bd3e ea0c 8c3e 62e1 663f 40af 803e
000003f0: acc4 e03e 90c1 f73e 8dd1 093f fe3e b33e
0.3756339 0.40807799 0.44972542 0.49627045 0.52201945 1.4314649 0.40081546 0.40993717
0.41900268 0.4651059 1.312964 0.4023372 0.538421 0.6584217 0.89246035 0.47844046
0.41773313 1.441389 0.4947874 0.3080261 0.6171903 0.8394666 0.39728627 0.3759961
0.6220384 1.4437816 0.8303059 1.0846763 0.44077715 0.46641105 0.4030103 0.4562289
0.4623648 0.72013724 0.25216097 0.43370765 0.29721314 0.37692636 0.4035962 0.45111015
0.39167762 0.6802086 0.3911303 0.4296326 0.32476088 0.9164714 0.36270005 0.45503783
0.46031025 0.43702075 0.20829746 0.37242526 0.5093409 0.3865842 1.1594815 0.38405895
0.6838476 0.2572793 0.30497506 0.3942212 0.8393675 0.5629111 1.8847632 2.117437
0.45374987 0.5042584 2.8041317 0.6429575 0.35989794 0.3601745 0.38674223 0.5633978
0.58715814 0.37138486 0.2957351 0.6027472 0.4342947 0.49842384 1.1274816 0.4552869
0.788466 0.20082207 0.8838036 0.41763777 0.5970808 0.38121262 0.9132359 0.10074126
0.5295175 0.30398345 0.42131224 1.3768963 0.525274 0.5708758 0.43205556 0.21841772
0.88095295 0.5992635 0.45726636 1.5169425 1.0719185 0.43634936 0.38151422 0.4579404
0.44492754 0.4310786 0.5764272 0.4377954 0.33741853 0.9195681 0.4578355 0.4603208
0.40326554 0.1559208 0.5543457 1.0768411 1.1944276 0.4177672 0.35162383 0.35933042
0.2673848 0.45746425 0.4901188 1.5154684 0.410195 0.41949654 0.41871133 1.041345
0.3388883 0.44847456 0.27531537 0.3423526 0.49269933 0.37355363 0.402003 0.44025993
1.3985442 0.3628477 0.46960273 0.5011938 0.40729904 0.4218516 0.4435043 0.4723627
0.487309 0.5293961 0.20843878 0.967733 0.45015776 0.19161385 0.48827922 0.32844412
0.44288442 0.26213896 0.39952627 0.35899812 0.16111065 0.92432475 0.41020542 0.46821815
0.4777366 0.76225597 1.0422146 0.4749303 0.43896 0.44113564 0.47295305 0.38278937
0.3849854 0.59894794 0.44926736 0.13926432 0.20400594 1.0800194 0.7058717 0.35980105
0.80802554 0.23988895 0.45672622 0.631194 0.32743895 0.26398864 0.7513581 0.40243697
0.40914536 0.4144316 0.26222056 0.34653905 0.7500564 0.12794416 0.4123986 0.4119299
0.5241734 0.3947628 0.19453937 0.14836788 0.5116998 0.4254994 0.6101459 0.6033995
0.48597014 0.1641139 0.32696578 0.16469328 1.4980549 0.36592105 0.61170053 0.23227105
0.56762487 0.5477842 0.45951894 0.22239424 0.8932422 0.63211125 0.38493004 0.32507464
1.260232 0.45490462 0.62775207 0.33693138 0.5591684 0.34052888 0.34865472 0.80125356
0.6041445 0.43212914 1.1057779 0.23483373 0.35498235 0.84112734 0.51400805 0.30000338
0.42091668 0.43859226 0.37312284 0.3814092 0.21974516 0.45755154 0.39988428 1.985686
0.59954596 0.48343652 0.52091056 0.38193867 0.19575976 0.39244565 0.41089836 0.4303314
0.36923558 0.27353603 0.90187657 0.25133705 0.4390005 0.48389864 0.53835374 0.35008997
