trained_models/checkpoint_ep7200.pth (torch, 416160 bytes, 14 tensors)

fc1.weight f4 [256, 8]
00000000: 555b 963e 8f56 26be fe04 223f 5955 bc3e
00000010: 8eac ad3e f1e0 6abe e618 7ebf afac 8f3e
00000020: 4a68 a83e fd22 42be ad1f 0f3f 9b34 8e3f
00000030: a2fb 0f3e fcbc 1abe be0d 50bf 0acc f73d
00000040: 98ae 693e 89f7 63be 0e7a 853f 75c3 cc3d
00000050: 1ed7 733e b8ef 623e e65a 74bf f149 0a3e
00000060: a19f 863e 6e1b d7bd 93cf f53e 23d5 883f
00000070: 1331 013e 4c07 98be c351 4ebf 1531 e43d
00000080: 06d7 a83e 9b10 28be a27c 263f b7f8 f83e
00000090: 369c 5c3e 0f89 55be a57b 79bf badb be3e
000000a0: a614 8c3f 4596 1f3f 5faf 1b3f 83e4 0ebd
000000b0: ca83 263f d2ca 9fbf 27bb 143f 1690 373f
000000c0: 52e7 a43e d993 c8bd dc71 683f 3be9 91be
000000d0: 781c a33e 0808 96bd 391b 8abf ba9b 443e
000000e0: ddff 793e 3037 a1bd 5863 fa3e 7103 423f
000000f0: a9c8 353e 2f1b bfbe c937 63bf 3920 823e
00000100: bd11 183f 1671 47be ab59 f83d c4b6 6cbd
00000110: 1e01 2f3c 8c1b ccbe ba56 febe 30ea b7bb
00000120: 9d81 d33e 2126 85bd 2975 083f dff0 f43e
00000130: d577 573e 7fc5 7abe 7045 66bf 025e 093d
00000140: ccc8 8e3f 74fd 0f3f 4022 c43d baec 163e
00000150: 398a 103f b5c0 c8bf c9e0 223f 3c2d fd3e
00000160: f0d4 353e 807e 76bd 18e0 fa3e 2bc6 153f
00000170: 6ae1 1c3e 357d afbe 99b7 55bf 3b52 e73d
00000180: 71ff 913e 500a e3bd 1d2a 6e3f 19d9 13bd
00000190: 3fe9 d93e c145 00bd 6391 95bf 1241 cf3e
000001a0: 9df8 023e e029 94be fbc7 363e e299 f0be
000001b0: 283a d2bd 46c9 3cbf a04a 22be ab6a 07be
000001c0: fde0 e8bd 3fa9 63be cf5a 7e3f 3113 8cbb
000001d0: c865 78bd a0d9 0a3e b0f8 1cbf c8ad 29bc
000001e0: d48b 8a3b a09b adbe 2a6e a6bc ac5b aa3f
000001f0: 1af2 96bd 439c 4fbf 6174 c5bd 3aa2 7cbd
00000200: 121e 803e 4347 0cbe 3f2b 513f 2c39 053f
00000210: d1a3 4e3e 30cf 1e3d a819 72bf fa26 6e3e
00000220: c2de 813f 5611 8a3e 5568 993e 3ffa 3c3f
00000230: faa4 a23e 7ea0 efbf 66c1 d6be 7956 bd3e
00000240: 30ff c53f 8740 f6bd d5df 1b3f 3c32 35bf
00000250: 2fb3 0c3f 5e6a 6ebe ee66 c8bf 8955 f53e
00000260: 8adf fb3e be31 34be 3fbc 003f bf24 c33d
00000270: 064e 013e 8ae2 1ebe 5264 55bf 7759 7a3e
00000280: a7c5 323e 1fdd b5bd a0dc 5b3f 080d 653f
00000290: 1936 6f3e 2502 41bd 0aae 81bf 65f5 323e
000002a0: f3d9 613e 24d9 37be 5dec 153f c48d 493f
000002b0: 9448 023d 3837 0bbe c957 35bf d469 d33d
000002c0: 83b5 8a3e 62ed 22be 66e0 383f c41c 743f
000002d0: 08b8 ad3e 2b8b 27be c4b6 86bf 2f12 b03e
000002e0: 92e6 213e 1dd5 55bd 8bc7 f13e 7a26 993f
000002f0: 7e04 403e ea89 cbbe 7160 5ebf 8ee8 1c3e
00000300: 4994 473f b62b ecbd 4d7c 82bf 08a1 413f
00000310: f098 71bb cc99 50bf 4faa d1bd b3a1 a83c
00000320: 46ab 01be 3365 e4bd e213 02c0 8805 a0bf
00000330: 1bc0 76be 4010 d13f 1c1f e3bd 6dd9 99be
00000340: 23e5 9dbd d2c3 cfbe c165 023f e56f ddbe
00000350: 4909 84be e474 04bf ad5b 7b3c 93d5 7fbe
00000360: e426 023f 36e3 c4be e650 90bf bb94 1f3f
00000370: 562e a8be 6f32 9dbf 8a6f 0f3f 3737 9cbe
00000380: dfab 403e 9477 18be 2914 263f 81a5 363f
00000390: c116 9a3e 0fa0 84be f61d 7dbf c942 a03e
000003a0: ff8b a43e 2c09 dcbd 4f82 353f 649a 163f
000003b0: 43ca 713e d996 fabd 7d4b 7dbf afd7 723e
000003c0: 19b2 b63e f1f9 b9bd 1ae1 423f aa66 fa3e
000003d0: e72d 413e 996c adbd 2e31 86bf 84ac b23e
000003e0: 4880 ac3e 7a3b f0bd b0ca e13e 976e 253f
000003f0: e0e4 313e 1aeb bebe 7a87 5bbf 54d1 803e
0.29366556 -0.16243957 0.6328887 0.36783865 0.3392071 -0.22937371 -0.9925674 0.28061435
0.32892066 -0.1895866 0.5590771 1.1109804 0.14060834 -0.15111154 -0.8127097 0.12099464
0.22820508 -0.22262396 1.0427873 0.09998218 0.2381253 0.22161758 -0.954512 0.13504769
0.26293662 -0.10503279 0.4800993 1.0690044 0.12616377 -0.29693067 -0.8059351 0.11142174
0.3297655 -0.16412584 0.65033925 0.48627254 0.21543965 -0.20853065 -0.9745429 0.37277013
1.0943801 0.6233867 0.6081447 -0.034885895 0.65044844 -1.2483771 0.5809807 0.7170423
0.32207733 -0.09793825 0.90798736 -0.28498253 0.31857657 -0.073257506 -1.0789558 0.1920003
0.2441401 -0.07871854 0.48903918 0.757865 0.17752327 -0.37325427 -0.88756996 0.2541521
0.59402066 -0.19476733 0.12126478 -0.057791486 0.010681419 -0.39864767 -0.49675542 -0.005612634
0.41309825 -0.06501413 0.5330377 0.4784002 0.21041806 -0.24489401 -0.89949703 0.03353692
1.1155028 0.56246114 0.09576845 0.14738742 0.5646091 -1.568381 0.63624245 0.49448574
0.1775701 -0.060179234 0.48999095 0.58505505 0.15320364 -0.34275213 -0.8348327 0.11294981
0.285152 -0.11085951 0.9303301 -0.036095712 0.42560765 -0.031316523 -1.1684994 0.40479332
0.12790151 -0.28938198 0.17849724 -0.46992403 -0.10264999 -0.7374462 -0.1584878 -0.13224284
-0.11371038 -0.22232531 0.9935731 -0.0042747487 -0.06064394 0.1355958 -0.61316967 -0.010356374
0.0042280946 -0.33907795 -0.020316202 1.3309226 -0.07370396 -0.8109781 -0.09641338 -0.06167815
0.25022942 -0.13699059 0.81706613 0.5204036 0.20179678 0.03877181 -0.945704 0.23257056
1.0146105 0.2696635 0.29962412 0.73819345 0.31766492 -1.8720853 -0.41944426 0.36980036
1.5468502 -0.12024026 0.60888416 -0.70779777 0.5496091 -0.23282763 -1.5656412 0.4791682
0.49193984 -0.175971 0.5028724 0.09528493 0.1262742 -0.15516105 -0.833562 0.2444819
0.17458211 -0.08880066 0.8588352 0.8947301 0.2336048 -0.047121186 -1.0131238 0.17476423
0.22055797 -0.17953926 0.58563787 0.7873194 0.031807497 -0.13595283 -0.70837075 0.103229195
0.27091607 -0.15910867 0.72217405 0.9535639 0.33929467 -0.16361682 -1.0524526 0.34388873
0.15810612 -0.052205194 0.47222552 1.1964867 0.18751714 -0.39753658 -0.8686591 0.15323088
0.7796064 -0.11531775 -1.0194184 0.7563634 -0.003686484 -0.81484675 -0.10237562 0.020584917
-0.12662992 -0.11152115 -2.0324636 -1.2501688 -0.2409672 1.6333084 -0.11089918 -0.30048695
-0.0770972 -0.40579087 0.50936514 -0.4324943 -0.25788334 -0.5174086 0.015341681 -0.24983816
0.5084059 -0.38454598 -1.1274688 0.6233632 -0.32847852 -1.2281016 0.5602957 -0.30510876
0.18815564 -0.14889365 0.6487451 0.7134629 0.30095485 -0.25903365 -0.9887384 0.31300953
0.3213806 -0.10743937 0.7090196 0.5882933 0.23612313 -0.12235803 -0.9894331 0.2371509
0.35682753 -0.09080876 0.7612473 0.4890645 0.18865167 -0.08467979 -1.0483758 0.34897244
0.3369162 -0.11730094 0.4409995 0.6462187 0.17372465 -0.37288743 -0.85753596 0.25159705

fc1.bias f4 [256]
00000000: db4f 803e 8d0a 243e 7e68 433e bc75 173e
00000010: e585 8c3e 578d 2b3f c691 903e e5d2 423e
00000020: dcb6 be3c fa5d 313e 6e3f 0c3f c07f 2d3e
00000030: e73d 963e 6b98 11be ac47 84bd 6e81 d3bd
00000040: e2dd 313e 2d5c d33e 2f78 fe3e b9cb 4b3e
00000050: 0836 563e 489f c33d d418 833e 7c13 2b3e
00000060: 4df9 713c 46b8 54be c8ec 8dbe 910c a2be
00000070: 3527 813e 25d4 683e 6686 9c3e 21c5 3d3e
00000080: 4078 273e 28e8 2d3e 6293 523e 9324 063e
00000090: ee67 d33e 4b66 9b3e d3fa 5e3e bf8e 4e3e
000000a0: 5e83 8c3e ef6a d7bc 7637 643e 6043 373e
000000b0: f3e4 5d3d 2bb6 8bbe 7848 973e a9c6 883e
000000c0: e9bf 233e abba b93d 86ed 8f3e b7f9 503e
000000d0: 2459 b1be c1ba 5c3e 6e72 9d3e a0f0 4f3e
000000e0: 9249 0e3e f272 323e 148c 453e f5eb 393e
000000f0: 09a4 8d3e ec73 3b3f f2d2 033f 3ee8 3ebe
00000100: e6b1 573e 6404 efbd 1d89 813d 1b5a b1bb
00000110: 9eca 9c3d 4daf 6e3e f409 663e dcd9 9a3e
00000120: 8beb cabe 0a6b cd3e b321 693e ffc7 913e
00000130: efc4 373e de98 473e e994 e83b 7538 7c3e
00000140: fe25 7abe bc62 7d3e 56c2 b0bd 817a 5e3e
00000150: 6b0a e6be acf9 653e 0dfa 8abe 366f 253e
00000160: a05d 823e 5f6a 5e3e 323e 5c3e d4d8 f5bd
00000170: b52d 4e3e 342e 6c3e 485e 423e c5d7 053f
00000180: 3d0a 8a3d d2e5 8f3d 71b9 393e b901 86be
00000190: ab85 38be 8a70 e33d 4510 253e 53fb 9d3e
000001a0: 958a 803e 03e9 683e 6d38 3f3e e8fe 8d3e
000001b0: f277 713e d5ac 123d 6526 2c3e 49e1 823e
000001c0: d288 2d3e ded7 203e f79f e63d 2c53 093f
000001d0: 86c4 20be 972d 943e 9277 933e a163 efbb
000001e0: ecfc 7f3e 0262 963e 5814 823e aed4 e23e
000001f0: 6d5e 973e d06f 473e 0b69 513e 3b83 8fbe
00000200: 8859 9c3e 4888 893e de0a af3e a614 223d
00000210: c2a7 893d 6190 933e 6466 973e eb53 8c3e
00000220: d757 2fbe 844d 9e3d 5543 05bd 0c26 0e3d
00000230: d95d 503e 70aa 483e a25a 4a3e d57d 783e
00000240: 2804 3c3e 6718 393e 6b84 313e 72d7 bfbd
00000250: 8359 423e a069 243e ea5d 5c3e ed98 193e
00000260: 5ea6 953e 00cf 8a3e 8f2d 8b3e 839e 4d3e
00000270: 6663 383e 5a2e d7be 359c 553e 4009 5c3e
00000280: 77b3 8a3e 1e5e 433e c45b 1abe 35c5 5c3e
00000290: d90d a5bd 22ae 8e3e 2d87 223e 3524 933e
000002a0: 0050 803e 28b4 5e3d de0f 483e 80de 103e
000002b0: 9cec b7bd c805 97be 9666 cabd c787 7b3e
000002c0: c9fd f13d cc0d 193e 7963 ddba cda7 d7bc
000002d0: 796d 443e 8f3d 373e 9dd6 b8bd 8677 143e
000002e0: b367 6d3e f810 573e aeb9 083f 0b07 4d3e
000002f0: 6a55 aa3d 833e 5c3e edd5 7a3e 1ce0 613e
00000300: 4800 8d3d 19b2 7b3e 9bc3 303e 6afe 383e
00000310: f698 643e 8027 653e 9bc8 80be c7a8 063e
00000320: 2abf 8f3e 24fd 413e bed0 fc3d 4596 3e3e
00000330: 85b0 4cbe 1c80 623e b23b a8be ebfa f53e
00000340: e53a 043e d543 293e 8c5b 553e 7dc7 963e
00000350: eb22 f0be 404d c73d 89f5 6a3e 158e b63e
00000360: 0655 44be 7d17 b2bd 7579 243d ccfa 1f3e
00000370: f8c6 443e 3d9f 573e 9036 d43d daf2 8d3d
00000380: 1d9c 3ebd 17bb 653e 8740 65bd ffe3 533e
00000390: 4508 633e 70c1 c6be 894e 673e 7bff 783e
000003a0: 68f1 743e cf51 ea3e 6414 8f3e bcf9 343e
000003b0: 11db 4d3e d950 843e 30a9 933e afa9 0cbf
000003c0: 18b5 6b3e d633 073e 05d0 393e 4d2f 4f3e
000003d0: 656d a9bc cad6 783e 7a7e 913e 553d 6e3e
000003e0: 5e46 f33c 58fa f5bd 55b6 2fbe ab40 243d
000003f0: 0f7e 7d3e c99e bd3d e14e 8d3e 602d 6f3e
0.25060925 0.1601965 0.1908283 0.14791006 0.27445903 0.6701254 0.28236216 0.19025762
0.023280554 0.17321005 0.54784286 0.16943264 0.29344103 -0.14218299 -0.06458983 -0.10327421
0.17369798 0.41281262 0.49701068 0.19901933 0.20919049 0.09551865 0.2560488 0.16706651
0.014768911 -0.2077342 -0.27719712 -0.31650212 0.25225225 0.22737177 0.30571288 0.1853223
0.16354465 0.16983092 0.20564035 0.1309989 0.4129023 0.3035148 0.2177537 0.20171641
0.27443975 -0.026296107 0.22286782 0.17896795 0.05417342 -0.2728742 0.29547477 0.26714066
0.15991177 0.09068807 0.28110904 0.20407759 -0.3463832 0.21555616 0.30751365 0.20306635
0.13895252 0.1742666 0.19291717 0.18156417 0.2766421 0.7322376 0.5149375 -0.18643281
0.21063957 -0.11670759 0.063249804 -0.0054123527 0.07655834 0.2330906 0.22464734 0.3024434
-0.3963283 0.40120727 0.22766761 0.28472897 0.17946218 0.19491908 0.0070978296 0.24630912
-0.24428555 0.24744695 -0.08630817 0.21726419 -0.44929823 0.22458524 -0.271439 0.16155705
0.25462055 0.21720265 0.215081 -0.12004247 0.20134623 0.230645 0.18981278 0.52282363
0.06740234 0.070262566 0.18137147 -0.2617319 -0.1801974 0.111054495 0.16119488 0.30855808
0.2510573 0.22745137 0.18673868 0.2773354 0.23580912 0.035809357 0.16811521 0.25562504
0.16946724 0.15707347 0.112609796 0.53642535 -0.15699968 0.28941032 0.28802162 -0.007305578
0.24998826 0.2937165 0.25406146 0.44302887 0.2956423 0.19476247 0.20450227 -0.28029808
0.30537057 0.26861787 0.34187979 0.039570473 0.067214504 0.2882109 0.29570305 0.27407774
-0.17123352 0.07729629 -0.032534916 0.034704253 0.203483 0.19596267 0.19761136 0.24266751
0.1836096 0.18075715 0.1733567 -0.09367265 0.18979459 0.16055918 0.215202 0.14999743
0.2922849 0.27111053 0.27183196 0.20079999 0.18006667 -0.4202755 0.2086037 0.21487904
0.27090046 0.19078872 -0.15074068 0.21559604 -0.08059282 0.27867228 0.15871878 0.2873856
0.25061035 0.05437103 0.19537303 0.14147377 -0.089806765 -0.29496598 -0.09882848 0.24563514
0.11815984 0.1494667 -0.0016890607 -0.02632513 0.19182386 0.17894576 -0.09025309 0.1449872
0.2318409 0.21002567 0.53408325 0.20022218 0.08317073 0.21508221 0.24495669 0.22058147
0.06884819 0.24579658 0.17262118 0.18065801 0.22323975 0.2237835 -0.2515305 0.13150321
0.28075534 0.18944222 0.12344502 0.18612011 -0.19989212 0.22119182 -0.32858044 0.48042998
0.12913091 0.16529782 0.20835704 0.29449072 -0.4690164 0.09731531 0.22945227 0.35655275
-0.19173059 -0.08695886 0.040154893 0.15623015 0.19216526 0.21056838 0.103619695 0.06931086
-0.0465356 0.2243465 -0.05596974 0.20692442 0.22171123 -0.38819456 0.22588553 0.24316208
0.23920214 0.4576554 0.27945244 0.17673391 0.20103098 0.25842932 0.28840017 -0.54946417
0.230183 0.13203368 0.1814576 0.20232888 -0.020682046 0.24300686 0.28416806 0.23265584
0.02969664 -0.1201064 -0.17159398 0.040100735 0.24755119 0.092588015 0.27599242 0.23357153

fc2.weight f4 [256, 256]
00000000: e746 b2bd 9664 10bc 3f2c 403c c8f8 233d
00000010: 360e ebb8 878b 6ebf 5859 bfbe a271 343e
00000020: a483 483d ec66 563e ab86 48bf f75e 393e
00000030: 94ba 723d 1d64 d03e c40b 743f 7b40 9a3e
00000040: 7fe8 30bc 8555 3b3e a0df e9bd 46c2 07bd
00000050: 5259 0f3e 0290 313f 0725 803e 686f 763e
00000060: ac91 693e 609e 07bf 380c debe 3653 ea3d
00000070: df12 803c edf7 3e3d f122 c63d d63a 29bd
00000080: 9824 abbd fcf7 92bc f365 3bbd 6f6f 1c3b
00000090: b905 283f fc7c 8a3e 7eb1 943e baf8 f73d
000000a0: 79a0 c43d 9f41 eebd 7e95 c53e 0639 173e
000000b0: 6624 0f3f 4f3d e43e 6647 313c 127d 6f3d
000000c0: 69e2 4ebd 9f82 a0bd 872a e03d e318 993e
000000d0: fc34 5b3e c782 f03d af04 e73d 77ff 44bd
000000e0: e9c9 82bd 8a55 ac3d 114f 383e 68df ffbc
000000f0: ca47 233f d67d f2be ae23 2d3e d580 3c3f
00000100: 32df 3bbb 3cc8 9f3e b264 7c3f bd25 f83d
00000110: c9ac 5cbe f922 773d 9d08 523e 9cb4 813e
00000120: 1743 2dbb 573b 7b3f 1660 753c 61a1 e83e
00000130: f358 0e3d fa7c 3a3e 6ab1 993e e939 8fbd
00000140: 4c73 1ebf 8845 21bc b13c a63f 345c a93e
00000150: 175c 9fbe 02c9 793e 3ed3 b83e 903b 183e
00000160: eba7 97bc 1fc8 223e 6a4d 053e 139b 3f3f
00000170: 0442 7bbc 6e99 dc3d fc87 4c3e cd94 833e
00000180: 980f 833e 2513 68be be1f da3e 931a ee3a
00000190: b184 233f c6ce 8c3e 1096 e4bd 0a86 333f
000001a0: 4694 b63d 4795 a13d 9928 863e 6a72 bd3d
000001b0: b3d4 42be 198e 51be bb20 2ebe c75d 313e
000001c0: 7059 0c3e 7870 18be 9451 9e3d 0022 58bf
000001d0: d4bd 223f 773f 3d3f e11d 763e 47c2 6cbe
000001e0: f30e 0b3e 97f8 833d 6917 9e3c 43f5 1c40
000001f0: 7ab8 f13d 9a0a 13be b675 6bbe 2702 75b7
00000200: ed6a 2d3f e497 e2bc b497 1d3f 50e4 adbc
00000210: 6611 173f 0a04 1a3e b3c7 c73d 03a9 3cbd
00000220: d130 0f40 443c c83e f968 543e 3e5a 103e
00000230: 908a 02bd 7a44 1bbd f6c6 863d c800 0c3e
00000240: d36b f63d 20a6 273d 92bd c3bd 31b6 2cbf
00000250: beca 073e dd86 db3d 0bf8 813d 4952 ff3d
00000260: 60ea 093e 9bfd 4dbe b051 303d 0526 063d
00000270: d6f9 673c 3e95 a0bd ebdf 493e 0c68 803e
00000280: 3ea6 b93d bd10 be3e 44b2 d23e 032e 9a3d
00000290: b801 8b3e 7f22 0c3d 6bb1 8a3d 22a4 333e
000002a0: 7aed 493e 8b02 da3e 02d4 38be c006 9b3d
000002b0: 2116 053f 4330 063f 495a e73e 5323 193e
000002c0: 2c16 053e 3f10 143d 08b3 1f3e dc4f b93e
000002d0: 9d44 993d 85a2 d2bd 9bd9 023f 79fc dabc
000002e0: 1588 ebbd 95e5 b1bd 4be0 1c3f 0112 803e
000002f0: 6e3c 973a fd49 15bd 9808 ac3d 6411 813d
00000300: 67a4 413e 67c1 f83d ec58 4c3d 262a 2f3d
00000310: 3da6 c03e 67d0 2b3e 8436 c8be 17fd c83e
00000320: 5319 4b3e fe43 283d f126 71bd ab5b 993d
00000330: be1b dc3e 7292 de3e ed25 ef3d 5fb1 e03e
00000340: eb72 d83d 3f7f 3d3d 17cd a83d 3a10 623e
00000350: 30a9 433f 429a 043f 219f acbd 71b9 a63e
00000360: 0012 aebc 079b 0c3e 5997 3a3f 74e2 fc3e
00000370: 705f 213f cd74 5c3e 9a0c ba3e 9ae5 9b3e
00000380: 3e5d 573f 7905 83bd 9cc0 b7be c7e9 f4bd
00000390: f7ae 483f f70e cbbd 1f8b 963d b1fa 3c3d
000003a0: 1d61 493e 3a56 823f 47d6 ba3d 082e 263f
000003b0: 2e95 a63d ce39 b83c b3d9 50bd 7f0f 65be
000003c0: 3ace ad3e e341 583d 44bc 843e 0c2f e9bc
000003d0: cb4f e13e c77a db3d 5fc5 893e 607b 3b3c
000003e0: 86c5 c43d acb7 dd3e 6dee 9a3f b839 ec3d
000003f0: 2b55 17be 1658 11bd e40b f13d f1e4 623d
-0.0870493 -0.008813044 0.011729299 0.04003218 -0.0001120832 -0.9318165 -0.3737285 0.17621472
0.048953667 0.20937699 -0.78330487 0.18102632 0.059259966 0.4070138 0.9533045 0.3012732
-0.010797619 0.18294342 -0.11419606 -0.033144258 0.13998917 0.69360363 0.2502825 0.24065936
0.22809476 -0.52976036 -0.43368697 0.114416525 0.015633998 0.04662316 0.09674633 -0.041315876
-0.08356589 -0.017940514 -0.045751523 0.002387013 0.6563373 0.2704848 0.29041666 0.12107988
0.0960092 -0.1163361 0.38590616 0.14767846 0.55914915 0.44578025 0.010820245 0.058468886
-0.05050889 -0.07837414 0.109456114 0.299018 0.2140693 0.11743694 0.1128019 -0.048095193
-0.063861676 0.08414753 0.17998911 -0.031234458 0.63781416 -0.4736163 0.16908142 0.7363408
-0.002866697 0.31207454 0.9859115 0.12116573 -0.21550287 0.060336087 0.20511098 0.25333107
-0.0026437694 0.9813742 0.014976522 0.45435622 0.034752797 0.18211737 0.3001817 -0.06993467
-0.6189468 -0.009843238 1.2987272 0.33078158 -0.31124946 0.24393085 0.36098665 0.14866471
-0.018512687 0.15896653 0.13017812 0.74846 -0.015335564 0.10771452 0.19973749 0.25699463
0.25597835 -0.22663553 0.42602342 0.0018165879 0.63874346 0.27501506 -0.11161435 0.701264
0.08915 0.078898005 0.2620285 0.092503384 -0.19026451 -0.20464362 -0.17004673 0.1732093
0.13705993 -0.14886653 0.077304035 -0.8442688 0.63570905 0.73924965 0.24034835 -0.23120986
0.13579921 0.06443899 0.019298272 2.4524696 0.11802764 -0.14359513 -0.22994122 -1.4603639e-05
0.6774128 -0.027660318 0.61559606 -0.021227032 0.5901092 0.15040603 0.097548865 -0.04605962
2.2373545 0.3910848 0.20743169 0.14096925 -0.031870425 -0.0379071 0.065809175 0.13672173
0.120322846 0.040929914 -0.09557642 -0.674655 0.13260934 0.107190825 0.063461386 0.124668665
0.13468313 -0.20116274 0.043046653 0.032751102 0.014158687 -0.07840966 0.19714324 0.2507938
0.09064911 0.37122145 0.4115163 0.07528307 0.2714975 0.034212586 0.06772121 0.1754308
0.19719496 0.42580065 -0.18049625 0.07569647 0.5198689 0.5241739 0.4518607 0.14954881
0.12996739 0.036148306 0.15595639 0.3619374 0.0748379 -0.102849044 0.5111329 -0.026731716
-0.11500565 -0.086863674 0.61279744 0.25013736 0.0011538395 -0.036447514 0.08400077 0.06302145
0.18910371 0.121462636 0.04988949 0.042764805 0.3762683 0.16778718 -0.39104092 0.39255592
0.19833879 0.041080467 -0.058875028 0.074881874 0.42989916 0.43471104 0.11677156 0.43885323
0.10568794 0.04626393 0.08242243 0.22076502 0.76430035 0.5179788 -0.08428789 0.32563356
-0.021248817 0.13731013 0.7288719 0.4939152 0.6303625 0.21528931 0.3633774 0.3044861
0.8412665 -0.06397528 -0.35889137 -0.11958652 0.78391975 -0.09914964 0.07350754 0.046137515
0.19665952 1.0182564 0.091229014 0.6491399 0.081339225 0.0224885 -0.050988864 -0.22369193
0.339464 0.05279721 0.25924885 -0.028464817 0.4400619 0.10716777 0.26908395 0.011442989
0.09607987 0.43304193 1.2104012 0.115344465 -0.14778583 -0.035484396 0.11769846 0.055394117

fc2.bias f4 [256]
00000000: 7c21 18bf c24f 30bf 0467 23bf cbc4 7dbf
00000010: 6437 a3bf ff4d 9dbf f7ef 49bf 469b 063e
00000020: 8fda 1dbf c78c 32bf 79cc 0d3f 20bf 093f
00000030: ba69 6c3f 1420 4f3f 13ba 37bf 0336 3dbf
00000040: c79e f4be 220f 63be 36aa 32bf 6847 97bd
00000050: d6f2 89bf 52f5 94be 64cc 2ebf 8a29 3e3f
00000060: a5fc c63e 835c 1fbf cbc8 c73f 7f9f a4be
00000070: 764b ccbe 63b4 5cbf 7e54 2f3f 36ee 8e3e
00000080: 005c 13bf 7f75 193f 3337 17bf dcac ce3e
00000090: 050a aabe 7854 d43e 15d0 0fbe a5f8 d4be
000000a0: a954 973c 0539 1fbf 37a1 31bf 7e83 a1be
000000b0: 20c5 a5be 3822 b63e db77 c1be a733 63bf
000000c0: 0197 00bf 05a5 d13d 2eca bebe 5bf3 623e
000000d0: b3fc 223f c9d4 56bf d954 e63e d99b 633f
000000e0: a586 cdbe a7ab 4abf ea61 0fbf 1462 c4be
000000f0: 9526 0cbf c71c 18bf 31b6 0abf 3982 4abe
00000100: e43e afbe 295e bebe 8ee9 1ebf b06c bcbf
00000110: d820 09bf c1f4 25bf 705a 43bf fb6e 13bf
00000120: 9b43 b2be c53d 19bf 282f 58bf 62f8 0cbe
00000130: 3b6b b2be b8ac dfbe 4ded 03bf 7e20 c03e
00000140: 3bce 393f 3106 1abf bdcd 2bbf 82c8 b83e
00000150: 0c52 1cbd f905 1bbf e542 ef3e 7726 24bf
00000160: 92e5 1fbf c4d6 2ebf 95ff 8fbe b964 e2be
00000170: 0b25 11bf 87cd 1abf a5d7 31be 69a4 38bf
00000180: 8d7c 34bf 70d4 ccbe 626c 2fbf 974f c83e
00000190: f99c 583e 0236 48bc bcec 58bf 9109 edbe
000001a0: 7f45 373f 7a3b 0ebf 46f8 0ebf 9085 09bf
000001b0: ffa6 12bf b2ba a9be 6a35 fdbe e2ad cfbd
000001c0: c1ee 3dbe 39c6 08bf 185f 60bf 97b4 4bbe
000001d0: 2891 3cbf f568 313f 6fe2 d7be 7668 913e
000001e0: 3529 03bf f4f8 87be 7409 2a3f 33ef 17bf
000001f0: f471 393f 4ea2 14bf e16d 22bf e167 9d3e
00000200: bbbd 07be 9e74 12bf a768 79bf 525c 1dbf
00000210: 406a febe 25c7 a6be b761 23bf de7d 09bf
00000220: 4451 06bf 101e afbf 9949 94be 3018 9fbe
00000230: 8152 313f 2a41 59bf 7d10 5c3f a69c 08bf
00000240: 200a 513f 9d70 f5be 958d 1a3f 7866 6bbe
00000250: 9d48 10bf 9f22 fcbe e33d acbe eedd 24bf
00000260: d8bb 1ebf eabd 28bf bd64 233f b5d7 76bf
00000270: 450b b33e 6717 15bf 6777 00bf f24a 04bf
00000280: e74a c63e 6cc7 29bf 0b3e 3dbf 70c0 fbbe
00000290: d27a 82bf d218 cabd b027 05bf 59da efbe
000002a0: 4a32 a9be 182a 27bf 6c74 1cbf d88f 23bf
000002b0: 8d8b c6be 9b36 52bf 9936 f1be 26d7 473f
000002c0: dbdd 353f 5f11 42bf dc37 4bbf 5845 29bf
000002d0: 9112 1dbf a823 1cbf 3ac2 e03e d40e babe
000002e0: b23e 18bf a582 a0bf 2cde 77bd adda 1abd
000002f0: 0808 ed3e 0c58 0fbe 17df 4abf c7f9 2cbf
00000300: 8054 ba3e 3607 25bf 974f 0ebf e59a 76be
00000310: c420 40bf b66c 30bf 2d72 963e abb7 2abf
00000320: 701e 53bd 205d c0be 96a8 f5be 19a1 1abf
00000330: 3217 b53e 199d 19bf d52b e1be 5aac 12bf
00000340: 6fe5 47bf 4187 243c 2ace 2fbf b151 e7be
00000350: 79a6 6abf 5aaa 343f df8f 0fbf cfca 783e
00000360: b4d5 38bf fa27 60bf 41bf 6fbf c1f3 32be
00000370: 64dc 4ebf ceec 22bf 151a 8e3f f03f 3bbf
00000380: 94f0 61bf 0164 6ebf 0bb3 12bf 38e0 0dbf
00000390: 732b 75bf 8709 16bd 2571 4abf 3d47 f5be
000003a0: 45ab 15bf 5542 d9be f87e 87be 72c2 94be
000003b0: 85a4 a5bf 0a35 4c3e b75a d1be abc9 743e
000003c0: 688b 7ebd dd65 d5bd 0b87 15bf 38f4 00bf
000003d0: 0a7f a5bf 2597 edbe bd16 003f 3441 00bf
000003e0: 1f5f 24be f5dd 0abf f71b a0be 073a 7fbe
000003f0: 3e7f 56bf 8b74 8cbe 82dc 58bd 4d8b 663f
-0.59426093 -0.688717 -0.63829064 -0.9912841 -1.2751279 -1.2289428 -0.7888178 0.1314517
-0.6166162 -0.6974606 0.55390126 0.5380726 0.92348826 0.8090832 -0.717683 -0.7391054
-0.47777387 -0.22173741 -0.6979097 -0.073866665 -1.0777233 -0.29093415 -0.68280625 0.74282134
0.38864627 -0.62250537 1.5608152 -0.32152936 -0.39901322 -0.8621275 0.684883 0.27916116
-0.57562256 0.5994491 -0.590686 0.40366256 -0.3321077 0.41470695 -0.14044221 -0.4159595
0.018472986 -0.6219638 -0.6938662 -0.31545633 -0.32376957 0.35572982 -0.37786755 -0.8875069
-0.50230414 0.10236553 -0.37263626 0.22163145 0.6366684 -0.83918434 0.4498661 0.8890968
-0.40141788 -0.7916817 -0.5600878 -0.38356078 -0.5474637 -0.5941891 -0.5418425 -0.19776239
-0.3422767 -0.37181213 -0.62075126 -1.4720669 -0.5356574 -0.6482659 -0.7630987 -0.5759122
-0.34817204 -0.5985988 -0.84446955 -0.13766626 -0.34847435 -0.4368646 -0.5153397 0.3752479
0.7258031 -0.601657 -0.67110807 0.36090475 -0.038164183 -0.6055599 0.46730724 -0.6412119
-0.6245967 -0.68296456 -0.2812468 -0.4421747 -0.5669715 -0.6046986 -0.17367418 -0.7212587
-0.7050255 -0.40005827 -0.68524754 0.39123222 0.2115363 -0.012219908 -0.8473623 -0.4629636
0.7159042 -0.55559504 -0.55847585 -0.53719425 -0.57286066 -0.3315025 -0.49454814 -0.101405874
-0.18548109 -0.53427464 -0.876451 -0.19893108 -0.7365899 0.69300777 -0.42164943 0.2840001
-0.5123475 -0.26557124 0.66420674 -0.59349364 0.72439504 -0.5806016 -0.6344891 0.30743316
-0.1325597 -0.57209194 -0.9742531 -0.61468995 -0.49690437 -0.3257381 -0.63820976 -0.53707683
-0.5246775 -1.3681049 -0.289624 -0.3107314 0.69266516 -0.8486506 0.8596266 -0.53364027
0.81656075 -0.4793748 0.6037229 -0.22988307 -0.563608 -0.49245164 -0.33640966 -0.6440114
-0.62005377 -0.65914786 0.6382559 -0.9642289 0.34969535 -0.58238834 -0.50182194 -0.5167686
0.3872902 -0.6631992 -0.73922795 -0.49170256 -1.0193732 -0.09868015 -0.52013683 -0.46846274
-0.3304618 -0.65298605 -0.61115146 -0.63891363 -0.38778344 -0.8211457 -0.47111967 0.78062665
0.7104165 -0.75807756 -0.7938211 -0.66121435 -0.61356455 -0.6099191 0.43898183 -0.36339438
-0.59470665 -1.253987 -0.060514614 -0.0378062 0.4629519 -0.13998431 -0.7924666 -0.6756863
0.36392593 -0.6446413 -0.55590194 -0.24082525 -0.75049996 -0.6891588 0.29383984 -0.66686505
-0.0515427 -0.3757105 -0.47980183 -0.60402066 0.3536926 -0.60005337 -0.43978754 -0.5729424
-0.7808446 0.010042013 -0.68673956 -0.45179513 -0.9166027 0.70572436 -0.56078905 0.24296115
-0.72201085 -0.87561 -0.93651205 -0.17475797 -0.8080504 -0.63642585 1.110171 -0.73144436
-0.8825772 -0.93121344 -0.5730445 -0.55420256 -0.95769423 -0.03663018 -0.79078895 -0.47905913
-0.5846446 -0.4243342 -0.26464057 -0.290546 -1.2940832 0.19942108 -0.40889522 0.23905055
-0.062144667 -0.104198195 -0.58409184 -0.5037265 -1.2929394 -0.46404377 0.50034696 -0.5009949
-0.16051911 -0.5424493 -0.31271335 -0.2492448 -0.83787906 -0.27432665 -0.052944668 0.90056306

fc3.weight f4 [128, 256]
00000000: e9a9 94be 2141 843d bb74 493e 440d 45bd
00000010: 062d 243f 9862 063f f17c ad3f fbcf 3cbe
00000020: b070 7e3c 221f e53d d3c2 fdbe 8619 a7be
00000030: a3bc 7cbf 9d39 5dbf b660 f93d e708 18be
00000040: 0845 503d d77a 0f3f 2620 a63e 5f1d ccbf
00000050: 5fa5 0f3c 0f9c 973f 179d 1a3f e028 14bf
00000060: d799 afbe 5d5b d2bc 1f75 68bf f14c bd3e
00000070: c2ca bb3e ddac fdbb 89a0 fbbe cfca 27bf
00000080: b00c 043e 3bc1 a9bf f6b1 0d3f 3667 05bf
00000090: 7f48 b83f 1d98 81bf 9c0a 0fc0 a1a8 e9be
000000a0: a812 7fbf e62f 343f f976 0dbe 4cb1 763f
000000b0: ad8f 083f 86b7 0bbf b47c 5e3f 374b bf3e
000000c0: 65b9 fa3e 74ca 84bf cafa b83d 00ed 8dbe
000000d0: 009c b9bf 1812 1cbf df2e 3e3f 74e7 2bbf
000000e0: 1d09 833f 6746 b0be babf dc3e 6d12 433f
000000f0: d624 ae3b 56a9 89be 3e77 1c3f 5c31 cabf
00000100: 42f7 5ec0 00b6 29bd 9e4d 43be bf1d 5dbf
00000110: 833e dc3e 8dfe 89be ac66 903d 5e24 52bd
00000120: 927e 2a3d e87f 313e 4bdd 603e 4515 bdbf
00000130: 5237 723f 615f 863f 34f3 993d 2ce8 79be
00000140: 7ef3 b1be 9346 82be fab9 8dbd c07a 82bf
00000150: 9522 a93d 1648 a9bd 6673 4bbf b474 94be
00000160: 58aa 263d 4e45 f3be 10a3 293d 1a78 793e
00000170: eda2 c8bd 7295 3ebe 4a24 1d3f e5f6 6540
00000180: d832 1abd 95a1 f9be 1fad 27be 3bfa 16be
00000190: 15d8 f03e 39b2 bdbe 84f9 203e 2808 933e
000001a0: 0a5c 01bf 3ee2 6bbd c254 743f ecc1 903f
000001b0: 8a6a 2a3d 23d1 72bd 4afa cd3f 263e ebbc
000001c0: 108f 2a3f c333 0abe d5e7 433f 9796 283f
000001d0: d5e6 a33d 42ae 29bf fa1e 853e 1ac3 88be
000001e0: 460e 393d c07c 873d 1b2e eabe 5fc8 533f
000001f0: fc2d b6be 9e51 abbe e649 0bbe 1393 2bbf
00000200: 641e c53e 0457 64be cc53 5ebe 95cd 1c3d
00000210: df20 583f a3b4 8dbf 541a 97bf ff5e d1be
00000220: f123 35be 6568 fd3d 70e8 84bc 0841 3dbf
00000230: 8399 9abf be2f 103e 7d7f 42bf 2fde 41bf
00000240: b8dd 7ebf 522c 6b3f 3474 28bf 3a58 d23e
00000250: 8dcc a6bc 6f7e 2d3e 6741 673e dbb4 453e
00000260: 24d5 a8ba ea9c d83f bbe1 513e 7627 b53e
00000270: 2368 56bf 46f7 b13e 948a 40bf 15f6 bfbc
00000280: 1ae7 f4bd 5a32 9ebd 60a7 013f 59b2 94bd
00000290: 8ff9 293f 55ee adbe 404c 93be b972 d13c
000002a0: 18df 663f 157c 133d a20c 2fbd ae62 bcbf
000002b0: 4174 1a40 61a9 a2bf e071 89bd 4bae febe
000002c0: 3689 17bf d4e6 723e bdec 843e 8ec3 d9bc
000002d0: d73e 9f3e 6083 363e 66f0 a5be bbe8 0ebf
000002e0: 47e6 ce3e 4159 d7bf 3196 98be 74bd 24bf
000002f0: f589 e2be afe6 9cbd 0f63 f4bd 2faf 62be
00000300: 38f9 1bbf d146 e4be c112 8ebf ee6d 873e
00000310: 25ba 153e 9cbf 3fbe 733d 12bf eed5 dfbd
00000320: 61db 643f ab8d 37bf 27d8 2b3d 4d88 cd3c
00000330: 249b babe 935e 51bf 6bf3 29bd e67b aa3d
00000340: a0aa 813f c747 273e 3ac5 863e cf2d 283d
00000350: cefb 033f 555b 36bd d541 25bc ea5f d93f
00000360: b6b6 50bd 0f50 e43e 412a c93e 3cac 313c
00000370: f2e1 0bbe 787a 0c3f 3d43 7abf 18fb 693e
00000380: 780c 163f 0d1e ae3f d640 a13d ffdc 2b3e
00000390: 3940 213f 1545 8cbe 190d 81be d863 2fbe
000003a0: b053 10be 8c13 b3be 6036 603f 3d8e d9bd
000003b0: 26c5 183f d3f0 303d 911c f6be 6146 6b3f
000003c0: 2d9e 41bf 9d57 1bbf cead 12be b45a 063e
000003d0: f2b9 1e3f c672 263e fd6e ebbe b012 63be
000003e0: 5d1f 4abf 8364 3e3d 0699 b33f b362 173f
000003f0: 047d 7e3e c6fd d03e ab92 153e 0c02 00c0
-0.2903588 0.06457735 0.19673435 -0.048108354 0.641312 0.5249419 1.3553754 -0.18438713
0.0155297965 0.11187579 -0.49562702 -0.3263666 -0.98725337 -0.86416036 0.12176649 -0.14847146
0.050847083 0.56046814 0.32446402 -1.5946463 0.008767455 1.18445 0.6039595 -0.5787487
-0.34297058 -0.025678331 -0.9080371 0.36972764 0.3667813 -0.007741554 -0.49145916 -0.65543836
0.12895465 -1.3262094 0.5534967 -0.5211061 1.4397124 -1.0124546 -2.2350225 -0.45636466
-0.9963784 0.7038559 -0.13814916 0.96364284 0.5334423 -0.5457691 0.8690903 0.37362072
0.4896957 -1.0374284 0.09032209 -0.2771988 -1.4500732 -0.6096511 0.7429027 -0.67150044
1.0237156 -0.34428713 0.43115026 0.7619999 0.00531445 -0.26887006 0.6111945 -1.5796313
-3.4838414 -0.041433334 -0.19072577 -0.86373514 0.43016443 -0.2695202 0.07050833 -0.051304214
0.041624613 0.17333949 0.21959417 -1.4772116 0.9461566 1.0497857 0.075170904 -0.24404973
-0.34756082 -0.2544447 -0.06920238 -1.019371 0.08258549 -0.082657024 -0.7947296 -0.28995287
0.040689796 -0.47513813 0.041415274 0.24362221 -0.097967006 -0.18611696 0.613835 3.5931942
-0.037646145 -0.4875609 -0.16374634 -0.14743893 0.47039858 -0.37050036 0.15720183 0.2871716
-0.50531065 -0.05758881 0.9544183 1.130918 0.04160551 -0.05928148 1.6092007 -0.028716158
0.66624546 -0.13496308 0.7652562 0.6585478 0.08003012 -0.6628152 0.26000196 -0.2671135
0.045179628 0.06615591 -0.457383 0.8272762 -0.35581958 -0.33460706 -0.13602409 -0.6702129
0.3849975 -0.22298819 -0.21711653 0.038281996 0.8442516 -1.1070751 -1.180491 -0.4089279
-0.17689492 0.12373427 -0.016224116 -0.73927355 -1.2078098 0.14080712 -0.7597578 -0.7572965
-0.99557066 0.918645 -0.6580231 0.41082937 -0.02036121 0.16942762 0.22583543 0.19307272
-0.0012880904 1.6922886 0.20496266 0.3538167 -0.8375265 0.34758967 -0.75211453 -0.02343277
-0.119581416 -0.077244475 0.5064602 -0.072605796 0.6639642 -0.33970895 -0.28769112 0.0255674
0.90184164 0.036007006 -0.042736657 -1.4717615 2.4133456 -1.270794 -0.06711173 -0.4974235
-0.5919374 0.23720866 0.25961867 -0.026582506 0.3110263 0.17823553 -0.32409972 -0.5582387
0.40410063 -1.6824113 -0.29802087 -0.6435158 -0.44245878 -0.07661187 -0.119329564 -0.2213714
-0.6092715 -0.4458528 -1.1099473 0.26451057 0.1462179 -0.18725437 -0.57125014 -0.10929476
0.89397246 -0.71700543 0.041954186 0.025089407 -0.36446488 -0.81784934 -0.041491907 0.08324413
1.0130196 0.16335975 0.26322347 0.04105931 0.515561 -0.044520695 -0.010086496 1.6982396
-0.050955497 0.4459233 0.3929005 0.0108442865 -0.1366041 0.5487437 -0.9775885 0.22849691
0.58612776 1.3602921 0.078736946 0.16783522 0.6298862 -0.27396455 -0.25205305 -0.17127931
-0.14094424 -0.3497585 0.8758297 -0.10622833 0.59675825 0.043198418 -0.4806867 0.91904265
-0.7563198 -0.6068056 -0.14324114 0.13120538 0.6200248 0.1625472 -0.45983115 -0.22175097
-0.78954107 0.046482574 1.4031074 0.5913498 0.24852377 0.40818614 0.1460673 -2.000125

fc3.bias f4 [128]
00000000: 8e40 b4be 7807 83bf b069 13bf 8b31 42bf
00000010: eea1 17bf 94e7 0cbd e03a 2cbf 7512 32bf
00000020: 4dac 983e 4f3a 223f d101 293f dac3 73bf
00000030: 9a2c 84bf d83c 6bbf 51ea ce3e 2bef 11bf
00000040: e6eb 87bf 440b 2ebf 1616 0c3f 1c7b f73e
00000050: 69ea 023f 19a2 14bf f71a 9d3f 83ba 4bbf
00000060: 48ec 42be c8e7 5fbf 8b69 c3be c603 11bf
00000070: 904a 6abf 5536 dfbe 125e f7be a8b9 20be
00000080: 4331 e2be 17b5 8dbe 1748 77bf b707 aebc
00000090: 6ccd 02bf 4534 e1be 4a12 c8bd 8519 93bf
000000a0: acda 3fbf ce9f 36bf a336 0cbf f4d3 94bf
000000b0: c854 dfbe 5874 11bf 46d7 87bf 5d33 3abf
000000c0: 1d2f 583f 5c11 afbe bb1c 6bbf bf52 c8be
000000d0: 41af 0ebf 93d9 25bf eb93 7fbf 5edd 8cbf
000000e0: c298 55bf e860 49be c02e 02be 773b 2dbf
000000f0: fd0a 40be 6ef5 63bf 02a0 673e e37f cfbe
00000100: 6325 f2be 9c18 6bbf c1fd d7be d337 253f
00000110: f0b8 8cbf 6e65 5d3d 8c87 303f 9acd b6be
00000120: 134b 0bbf c1fc 12bf d6f2 3d3e 5abf 46be
00000130: 1e58 2fbf 53bc 28bf fec9 a0be 62e4 60bf
00000140: dcb8 a6be 1b0c 07bf 92b2 58bf d837 153f
00000150: 96d6 2cbf 47b3 d5be 2b61 323f 5b47 d4be
00000160: 1a24 8abf 1b23 d73e d133 18be 6d3b 54bf
00000170: f284 09bf f96a 1b3f 11be 8fbf 52b8 32bf
00000180: 2c5d 5fbd 4d74 24bf 5b2f 8cbf ebda 83bf
00000190: 6c1c 4cbf 10f1 7fbf 022e a7be 7e65 f73e
000001a0: 1411 47bf 6de6 bb3c 60ad b0be fe91 8e3f
000001b0: 6ebf 80bf d2fa 193f 62fd 8ebe b73a 25bf
000001c0: b483 bfbe d9d8 043f 4b37 d4bc 82e5 6fbf
000001d0: 5b8f 72bf beaf 4cbf d34f 223f 4c0e 5d3e
000001e0: f678 ab3e 7d8d 593f dbd1 6dbe 60fe 003f
000001f0: 9a83 58bf 6593 8c3f 9018 7ebf 5eb2 45bf
-0.352055 -1.0236654 -0.5758314 -0.75856847 -0.5923146 -0.034400538 -0.67277336 -0.69559413
0.29818955 0.6337022 0.66018397 -0.9522072 -1.0326111 -0.91889715 0.40413144 -0.57005566
-1.0618865 -0.6798594 0.547212 0.48336112 0.5113893 -0.5805984 1.2273854 -0.7958147
-0.19035447 -0.87463045 -0.3816646 -0.5664638 -0.91520023 -0.4359614 -0.48313957 -0.15695822
-0.4417821 -0.27677223 -0.96594375 -0.021243913 -0.510947 -0.4398519 -0.09769113 -1.1492163
-0.7494304 -0.7133759 -0.5477087 -1.1627183 -0.4361937 -0.5681815 -1.0612571 -0.72734624
0.8444689 -0.34192932 -0.91840714 -0.3912563 -0.55736166 -0.64785117 -0.9983508 -1.1005056
-0.83436215 -0.19665873 -0.12713146 -0.6766886 -0.18754192 -0.8904637 0.22619632 -0.40527257
-0.4729415 -0.91834426 -0.42185786 0.64538306 -1.0993938 0.05405181 0.6895683 -0.35703737
-0.5441143 -0.5741692 0.18549666 -0.19408932 -0.6849383 -0.6591236 -0.31404108 -0.87848485
-0.32562912 -0.52752846 -0.84647477 0.58288336 -0.6751493 -0.4173834 0.69679517 -0.4146069
-1.0792267 0.4201897 -0.14863516 -0.82903177 -0.53718483 0.607101 -1.1229879 -0.698125
-0.054532215 -0.6423996 -1.0951952 -1.0301183 -0.7973087 -0.9997721 -0.3265229 0.4831962
-0.77760434 0.022937024 -0.34507275 1.1138303 -1.005842 0.60148346 -0.2792769 -0.64542717
-0.3740517 0.51893383 -0.025905272 -0.93709576 -0.94749993 -0.7995566 0.6340305 0.21587485
0.33490723 0.8498152 -0.23224585 0.50388145 -0.8457581 1.0982481 -0.9925623 -0.7722529

fc4.weight f4 [4, 128]
00000000: 5a99 bb3c e18c b33d 8599 6cc0 2d3f b1bd
00000010: e63f 76be c3d0 68bc 04bb 1e3f 75ea fdbd
00000020: 37b9 0e3e bb04 913f de97 863f b5fb ec3e
00000030: 51f1 0a3e 825f ac3e bb6c 763f a967 ad3f
00000040: 099d cebd f413 983f 0ecf 8b3f 0df0 923f
00000050: e77a 7b3f 190d 293f a143 943f 3886 803e
00000060: 6378 813f d111 923f 3b72 003f f0da b13f
00000070: 2cbf 9ebd 97b5 b63f b574 223f 7aeb ac3f
00000080: ecf6 d4bd 9c3e fa3e 844a 38be 82dc 213f
00000090: 6671 d63e 377c 873f 3aed 9c3e 0f37 f43e
000000a0: fac3 f4bf 2ad6 a93e 2066 953f 94b0 e93d
000000b0: 95e8 bf3e ec19 2f3f 901e 06be ce11 843f
000000c0: 9676 6e3f 56ce a83e b2d8 24be a4b4 e3bf
000000d0: 6b26 2d3f 81c1 473f 8534 743f 9e1f 00be
000000e0: f943 973f a6aa 9b3e 9fa2 a43f f7b4 35bf
000000f0: 08ae 1a3f 5b5f 0d3f 925a 1f3f 8ae9 1d3f
00000100: fe00 263f 7026 173f 53fc 41c0 7c22 943f
00000110: 3ce0 ec3e 1dfa bf3f 25b7 8d3f 1e39 383f
00000120: 28ad 733d 420a 313e 264c 663f 7ddd aa3f
00000130: 8f12 083f c71a 203f 35cb 223f 7fb6 353f
00000140: 76a4 843f 61b0 4dbf 1cb8 503f 2c92 8d3f
00000150: 0eec c83e b41d 98c0 8b13 803f 3c18 fb3e
00000160: 15ae 053e 5236 8a3f 92e8 b43f 0cd5 563f
00000170: dae2 a73f 8a15 8c3f 6cc0 a23f efb8 563f
00000180: 70d2 9e3f 0d4f 493f 883c 1d3f 5687 5dbd
00000190: 9f10 f43e 336f 003e dd0b be3e 5427 9f3f
000001a0: bbc4 a23e 3097 55bf bcf3 823e c406 b43f
000001b0: a21d a6bd d42b 8d3f 5d4b 973f 5629 f83e
000001c0: 8e1b 36c0 7965 823f a9d4 ebbe c65b a63e
000001d0: edb1 2b3f 6582 733f 8fb0 913f a8ad ca3f
000001e0: 9600 9d3f 9b66 8e3f 670b c43f fe95 883f
000001f0: 4fce aa3e d57e cd3f ede5 50be a438 203f
00000200: 4d2d 723d 09b5 263e 3d42 b7c0 03b2 0ebd
00000210: 3038 d2bb ee9d 72bd 915e 1c3f 3723 4abf
00000220: 53bf 0a3f 01eb a23f 80dc 913f 7057 0d3f
00000230: ae17 3fbe f708 dbbd 3fbc 8a3f 5b04 613f
00000240: e381 9e3d 85a1 9f3f 57fc 8d3f 787d 923f
00000250: 603b 8e3f 210c 283f 919e b13f 4cb1 b93d
00000260: 43e0 7a3f 7337 143f 96f5 f33e 4180 a33f
00000270: 2707 463d 323e 353f 6bec 183f 6ee5 c33f
00000280: 1fe5 6b3e b844 293f 035e 903e eb17 a83e
00000290: c248 503f 07f0 803f 4464 f23e 748f 29be
000002a0: d1b0 8bc0 06bd 863f 3690 cbbe 6e68 163e
000002b0: 6cba 003f e906 de3e 8753 be3d 587a 3a3f
000002c0: df40 8c3f 256b cb3e 9625 09bc 6319 053f
000002d0: 886c e53e 7e09 a13e 7ada 603f da51 d3bf
000002e0: c2f3 493f 7ac3 f73b 4e3e 8a3f 8acd 37bf
000002f0: fbde 0d3f 28d1 753f d98c 3ebe d567 f43e
00000300: 2ce5 203f 0d65 ea3e 8cab 47c0 da14 8c3f
00000310: acbd 693f 0ffd 6c3f 78d1 913f 2948 373f
00000320: 4f41 2e3f 4133 b03d c523 5e3f 6bde db3f
00000330: 7fdf 4e3e ff4d 613f b43e 8b3f 6882 033f
00000340: f786 ac3f 1c60 e83e 956d 1a3f fb22 8d3f
00000350: 3022 173f 58f7 8fc0 a87f 9a3f 8abf 423f
00000360: 1732 c03d 5b07 953f 6ec0 b93f 29ad 853f
00000370: 7911 893f a362 8c3f c25b 653f 8898 483f
00000380: 3e4e 243f 2f75 073f a6d5 893f db01 89bf
00000390: 6468 493f a400 f43c 18ea 303f 7ab1 a53f
000003a0: 765b 4d3f 5f30 e8bd 83ad 253f 7daa b23f
000003b0: 0a53 263e be44 8e3f cca7 173f 3551 b43f
000003c0: a77e 38c0 e4da 8b3f bb6b f93c 1d3e a83f
000003d0: 6f15 0c3f 6e21 a13f 2ae5 903f d97b da3f
000003e0: f1a8 333f 109b 8f3f d9b0 583f 7ce8 8b3f
000003f0: 588e 183f a475 d73f 48f4 9e3f 8853 053d
0.022900272 0.08767105 -3.69687 -0.08654628 -0.24047813 -0.014209929 0.62004113 -0.12398235
0.13937841 1.1329569 1.0515096 0.46285787 0.13568617 0.33666617 0.9625966 1.354726
-0.10088546 1.1881089 1.0922563 1.1479508 0.9823441 0.6603561 1.1583139 0.251024
1.0114864 1.1411687 0.501743 1.389494 -0.07751307 1.4274167 0.6345933 1.3509362
-0.10398659 0.48875892 -0.17997175 0.63227093 0.4188339 1.0584782 0.3064974 0.47698256
-1.9122307 0.33171207 1.1671791 0.11410633 0.37482134 0.6839893 -0.13097596 1.0317934
0.931497 0.32969922 -0.16098288 -1.7789502 0.67636746 0.7802964 0.9539264 -0.12512061
1.1817619 0.30403632 1.2862128 -0.70979255 0.604218 0.55223626 0.62247574 0.6168448
0.64845264 0.59043026 -3.0310256 1.1573024 0.46264827 1.4998204 1.1071516 0.71962154
0.059491307 0.1728907 0.89959943 1.3348843 0.5315332 0.6254086 0.6359132 0.7098159
1.036269 -0.8034726 0.8153093 1.1060233 0.39242595 -4.753626 1.0005964 0.49041927
0.13054688 1.0797827 1.4133475 0.83918834 1.3116105 1.0944073 1.2714972 0.83875936
1.240797 0.78636247 0.6142049 -0.054084145 0.4766893 0.12542419 0.37118426 1.2433877
0.31790718 -0.8343382 0.2557658 1.4064565 -0.08111121 1.1029 1.1819874 0.48469037
-2.8454318 1.0187217 -0.46060684 0.32491893 0.6706837 0.9512084 1.1382006 1.5834246
1.2265804 1.1125063 1.531598 1.0670774 0.33360526 1.6054331 -0.2040021 0.62586427
0.059125233 0.16279997 -5.7268357 -0.034837734 -0.0064153895 -0.059232645 0.61081797 -0.78959984
0.5419819 1.2727968 1.1395416 0.55211544 -0.18661377 -0.10695069 1.0838698 0.8789727
0.07739618 1.2471167 1.1092633 1.144454 1.111187 0.6564351 1.3876516 0.0906702
0.97998446 0.5789711 0.47648305 1.2773515 0.048346665 0.7079803 0.59735745 1.5304391
0.23036622 0.6612048 0.28196725 0.32830748 0.8136102 1.007325 0.47342122 -0.1655863
-4.365334 1.0526435 -0.39758462 0.14688274 0.5028446 0.43364647 0.09293275 0.7284293
1.0957297 0.39730182 -0.008370778 0.5199186 0.44809365 0.31452554 0.8783337 -1.6509354
0.7888757 0.0075611444 1.0800264 -0.71798 0.55418366 0.9602227 -0.18608417 0.47735468
0.6284969 0.4578022 -3.1198454 1.0943863 0.9130504 0.92573637 1.139205 0.7159448
0.68068403 0.08603526 0.8677333 1.7177252 0.20202444 0.8800964 1.087851 0.5137086
1.3478688 0.45385826 0.6032346 1.10263 0.5903654 -4.4989433 1.2070208 0.76073515
0.09384554 1.164287 1.451185 1.0443469 1.0708457 1.0967602 0.89593136 0.78357744
0.6418189 0.5291318 1.0768325 -1.0703691 0.7867491 0.029785462 0.691072 1.2944787
0.80217683 -0.11337351 0.6471788 1.3958279 0.16242614 1.1114728 0.5924041 1.4087282
-2.8827302 1.0926175 0.030446878 1.3143955 0.54720205 1.2588327 1.1319935 1.7069045
0.7017966 1.1219196 0.8464485 1.0930324 0.595922 1.6832776 1.2418299 0.032550365

fc4.bias f4 [4]
00000000: a14b 9d3f 089c 943f 4433 923f f95b 963f
1.2288705 1.1610117 1.1421895 1.1746818

ln1.weight f4 [256]
00000000: 1653 c03e 99ef d03e cc5c c93e 2917 fe3e
00000010: 11a3 053f ed94 b43f af37 cd3e 49e3 d13e
00000020: 8587 d63e 5c22 ee3e 8eff 9b3f 24ff cd3e
00000030: 09b7 013f 538e 283f f665 223f 26f6 f43e
00000040: 1ee1 d53e 76f9 b03f c79d ff3e 99b5 9d3e
00000050: 2dc7 173f 48e7 563f 1b69 cb3e 9082 c03e
00000060: 60dd 173f dc92 cb3f 2b35 2f3f acd6 8a3f
00000070: 8bad e13e 6ecd ee3e 5e57 ce3e d696 e93e
00000080: 14bb ec3e ea5a 383f 3e1b 813e ee0e de3e
00000090: 522c 983e 7efc c03e 29a4 ce3e e9f7 e63e
000000a0: f889 c83e 2722 2e3f 3b42 c83e cef8 db3e
000000b0: de87 803e 563e 573f d2b3 b93e b8fa e83e
000000c0: c9ad eb3e 2fc1 df3e ee4b 553e 86ae be3e
000000d0: 2a64 023f 5dee c53e 1507 9a3f 60a3 c43e
000000e0: a310 2f3f 1dba 833e b125 9c3e 5cd7 c93e
000000f0: 489b 4f3f 0e30 b93e ccda fb3f 428f b53f
00000100: e751 e83e 1417 013f 250d 1340 dd98 243f
00000110: 8b44 b83e cb68 b83e 1403 c63e 5a1a 083f
00000120: 90d4 143f 2826 be3e 976a 973e 4d2c 123f
00000130: e05b de3e 6931 ff3e d2fc 873f 5d1b e93e
00000140: e8d8 493f 4da4 4d3e 39c0 633f 9ed4 d53e
00000150: 95b8 1e3f 4d2e c33e 3b17 403f 6f51 ce3d
00000160: 758e 073f b8a3 9b3e 3db6 d73e 410b 883f
00000170: 5b78 063f 90a1 113f 6336 dd3e e5a8 5f3e
00000180: 2286 613f 5569 193f d11e ea3e e8fe a03f
00000190: b7b9 3c3f 2f69 df3e d555 c33e d167 da3e
000001a0: 8bcd e33e 56b6 dc3e bc90 133f b826 e03e
000001b0: 1fc2 ac3e d168 6b3f 6a69 ea3e 2baf eb3e
000001c0: d278 ce3e b4a9 1f3e 9ae9 0d3f 333c 7b3f
000001d0: 3fe7 933f 95e5 d53e 0a08 b43e 28fa b73e
000001e0: a9e6 883e c138 ea3e daf0 fa3e 51d6 c13f
000001f0: 1405 d23e 40c8 d63e 5561 d63e d9ac 763f
00000200: fe2a 9e3e 759e e53e 0c67 793e d748 af3e
00000210: d562 ec3e 6c42 bf3e 56d3 cd3e c069 e13e
00000220: a62d e43f 2cc7 b93e 5fc1 bf3e 3d4e 003f
00000230: 8089 d03e effc d73e ff12 e33e 86d9 f13e
00000240: 9180 f93e 8186 073f fa70 553e ef63 8a3f
00000250: 147b e63e 6c36 443e bcff f93e d429 a83e
00000260: bfc1 e23e 1437 863e b58e cc3e 9ace b73e
00000270: 31fa 243e e690 4f3f 7206 d23e 4aba ef3e
00000280: e499 f43e 2c05 3b3f 4a67 853f 102a f33e
00000290: 5dbf e03e 88dc e13e e726 f23e f8fc c33e
000002a0: ce1c c53e 8433 113f 5f06 e63e 4e9b 0e3e
000002b0: 8350 313e 133e 8a3f 83fe f63e d837 b83e
000002c0: 0bbc 463f 73a5 753e 05d8 e93e ee95 213f
000002d0: 14a6 a73e 8529 873e c651 153f 380c ce3e
000002e0: 807b d13e 6130 d43e 1d09 6c3e 916d b13e
000002f0: b203 403f cb03 033e e925 d33e 7ae8 d23e
00000300: 37a7 db3e 5a1e ca3e 5435 473e c0ed 173e
00000310: c2fe 023f 0fdb d93e c762 053f 6478 1a3f
00000320: 14d1 f83e 790d 283e 0f68 a73e 5ba5 283e
00000330: 6e02 c73f 015a bb3e 6898 1c3f 76d8 6d3e
00000340: dd4f 113f 963b 0c3f 1146 eb3e 51bb 633e
00000350: b26a 8c3f 843e 163f 8d15 c53e 2f70 a63e
00000360: 0cfd 833f 42e9 e83e cdf3 863f ccd6 8b3e
00000370: b2a2 0a3f cd59 ae3e 957b 7e3e f41e 4d3f
00000380: ba8a 623f 0840 dd3e 218a 8d3f 4178 703e
00000390: 3fc0 b53e dcbb 6d3f 0896 033f 0b9a 993e
000003a0: 6482 d73e 5455 af3e f509 bf3e cc04 b33e
000003b0: e004 613e 3244 ea3e a2bd cc3e eb5a f93f
000003c0: ca00 103f fe84 f73e 655a 053f 778d c33e
000003d0: 3f75 483e a3ee c83e 4561 d23e 6654 dc3e
000003e0: 720c bd3e 0664 5c3e 2687 a13f 40af 803e
000003f0: acc4 e03e 90c1 f73e 8dd1 093f fe3e b33e
0.3756339 0.40807799 0.3932861 0.49627045 0.52201945 1.4107949 0.40081546 0.40993717
0.41900268 0.4651059 1.2187364 0.4023372 0.50669914 0.6584217 0.6343683 0.47844046
0.41773313 1.382613 0.49925062 0.3080261 0.59288293 0.8394666 0.39728627 0.3759961
0.59322166 1.5904193 0.684405 1.0846763 0.44077715 0.46641105 0.4030103 0.4562289
0.4623648 0.72013724 0.25216097 0.43370765 0.29721314 0.37692636 0.4035962 0.45111015
0.39167762 0.6802086 0.3911303 0.4296326 0.25103658 0.8407949 0.36270005 0.45503783
0.46031025 0.43702075 0.20829746 0.37242526 0.5093409 0.3865842 1.2033411 0.38405895
0.6838476 0.2572793 0.30497506 0.3942212 0.81096315 0.36169475 1.9676147 1.4184344
0.45374987 0.5042584 2.2976773 0.6429575 0.35989794 0.3601745 0.38674223 0.5316521
0.58136845 0.37138486 0.2957351 0.5709885 0.4342947 0.49842384 1.062403 0.4552869
0.788466 0.20082207 0.88965183 0.41763777 0.620004 0.38121262 0.75035447 0.10074126
0.5295175 0.30398345 0.42131224 1.0628434 0.525274 0.5688715 0.43205556 0.21841772
0.88095295 0.5992635 0.45726636 1.2577791 0.7372088 0.43634936 0.38151422 0.4265733
0.44492754 0.4310786 0.5764272 0.4377954 0.33741853 0.9195681 0.4578355 0.4603208
0.40326554 0.1559208 0.5543457 0.9813873 1.1554946 0.4177672 0.35162383 0.35933042
0.2673848 0.45746425 0.4901188 1.5143529 0.410195 0.41949654 0.41871133 0.96357495
0.30892175 0.44847456 0.24355716 0.3423526 0.46169153 0.37355363 0.402003 0.44025993
1.7826431 0.3628477 0.37452218 0.5011938 0.40729904 0.4218516 0.4435043 0.4723627
0.487309 0.5293961 0.20843878 1.0811747 0.45015776 0.19161385 0.48827922 0.32844412
0.44288442 0.26213896 0.39952627 0.35899812 0.16111065 0.8108047 0.41020542 0.46821815
0.4777366 0.73054767 1.0422146 0.4749303 0.43896 0.44113564 0.47295305 0.38278937
0.3849854 0.5671923 0.44926736 0.13926432 0.17315869 1.0800194 0.48241052 0.35980105
0.7763068 0.23988895 0.45672622 0.631194 0.32743895 0.26398864 0.583279 0.40243697
0.40914536 0.4144316 0.23050351 0.34653905 0.7500564 0.12794416 0.4123986 0.4119299
0.42901012 0.3947628 0.19453937 0.14836788 0.5116998 0.4254994 0.5210385 0.6033995
0.48597014 0.1641139 0.32696578 0.16469328 1.5547616 0.36592105 0.61170053 0.23227105
0.56762487 0.5477842 0.45951894 0.22239424 1.0970061 0.5868914 0.38493004 0.32507464
1.0311599 0.45490462 1.0543152 0.27312315 0.54154503 0.34052888 0.2485183 0.80125356
0.8849293 0.43212914 1.1057779 0.23483373 0.35498235 0.92864776 0.51400805 0.30000338
0.42091668 0.34244788 0.37312284 0.34964597 0.21974516 0.45755154 0.39988428 1.9480871
0.56251204 0.48343652 0.52091056 0.38193867 0.19575976 0.39244565 0.41089836 0.4303314
0.36923558 0.21522531 1.2619369 0.25133705 0.4390005 0.48389864 0.53835374 0.35008997
