trained_models/checkpoint_ep5500.pth (torch, 416160 bytes, 14 tensors)

fc1.weight f4 [256, 8]
000000 68 2d ba be 67 ba 95 bd 54 7f f8 3e df 23 48 3f
       -0.36362767 -0.07310944 0.48534644 0.78179735
000010 4e 6b 10 3d ae a0 d0 be 31 f0 29 be 9b 13 bf bc
       0.035258584 -0.4074759 -0.16595532 -0.023324778
000020 3b 1d 60 be 06 6d 68 bd 3d 9a 0a 3f 98 b1 b6 3f
       -0.2188615 -0.056744598 0.541416 1.4272947
000030 e3 2f d1 bd ee f6 88 be 57 07 c3 bd dd 57 f9 bd
       -0.10214212 -0.26750892 -0.09522884 -0.12174962
000040 8b ba e3 be b1 68 1c be d1 72 57 3f c6 6a 12 3f
       -0.44478258 -0.15274312 0.8415957 0.57194173
000050 a9 c3 a7 bd 77 ac 6d bb 5e 09 c9 bd c4 6c 3d be
       -0.08191616 -0.0036266127 -0.0981624 -0.18498522
000060 16 c0 8f be 1c 58 1c 3d 62 8f f5 3e 14 2c b3 3f
       -0.28076237 0.038169965 0.47960955 1.3997827
000070 c0 c8 d8 bd 43 49 ca be 43 21 de bd 76 f5 f6 bd
       -0.10585165 -0.3950902 -0.10846188 -0.12058537
000080 c2 b7 9c be 3c f0 8c bd 6c 43 06 3f 35 35 64 3f
       -0.30608946 -0.068817586 0.5244663 0.8914369
000090 70 56 a6 bd e8 d3 c4 be 28 91 22 be 92 e3 9b 3d
       -0.081219554 -0.38442922 -0.15875685 0.07611765
0000a0 3b 2e 99 3f 18 b6 18 3f 0f a4 0e 3f 66 32 60 3d
       1.1967233 0.59652853 0.55719084 0.054735564
0000b0 b6 c5 17 3f 92 49 b6 bf a4 f2 0f 3f fd d1 28 3f
       0.5928606 -1.4241202 0.56229615 0.65945417
0000c0 81 45 c3 be 0b 58 27 bd 59 1e 29 3f 6c 50 3e 3e
       -0.38138965 -0.04085545 0.6606193 0.18585366
0000d0 b2 83 90 bc f4 44 9f be c6 dd 39 be b2 a9 13 be
       -0.017640922 -0.31107295 -0.18151006 -0.14420202
0000e0 ff 96 af be 7d d7 48 3d 1c 4c e2 3e 84 7a 91 3f
       -0.34294888 0.04903363 0.44198692 1.1365514
0000f0 dc 79 a1 bd 9e 87 fc be 63 cc 10 be cd eb 10 bb
       -0.07884571 -0.49322218 -0.14140467 -0.0022113204
000100 88 c1 bd bc ef fd 41 bc 8f 23 31 3e 29 b2 b9 3e
       -0.023163572 -0.011840328 0.17298721 0.36268738
000110 eb c2 0c be 12 2d a3 be 4e bb 66 3d 5d 70 1d be
       -0.1374623 -0.31870323 0.05633097 -0.15374894
000120 d7 5b 53 be ce 45 66 3d 09 bc e8 3e ea 2a 68 3f
       -0.20640503 0.056218915 0.4545596 0.9069048
000130 9e d6 62 bd 9d 8d bd be 88 35 08 be cf d3 6d be
       -0.055380456 -0.37022105 -0.1330167 -0.2322533
000140 a2 a9 a0 3f 14 96 16 3f c7 23 1b 3e 80 03 0d be
       1.2551768 0.5882275 0.15150367 -0.13770866
000150 28 19 17 3f 9e b9 ca bf 03 85 23 3f 71 25 05 3f
       0.5902276 -1.5837896 0.63874835 0.52010256
000160 f7 52 d6 be 52 ac a0 3d b6 19 e6 3e 4e e0 80 3f
       -0.41860172 0.078453675 0.4494149 1.0068452
000170 98 e1 b7 bd 42 de e0 be af 49 d3 bd 49 27 05 be
       -0.089785755 -0.4391957 -0.103167884 -0.13003267
000180 10 92 dc be e1 75 95 bd 30 92 27 3f 20 1c d3 3e
       -0.43080187 -0.07297874 0.6545744 0.41232395
000190 ee 5d 81 3d 0b 07 9e be f4 ed 81 be 01 82 2d 3d
       0.06316744 -0.30864748 -0.25376856 0.04236031
0001a0 1e 6d b8 be d9 e8 a3 bd 7b 79 af 3e c4 c9 30 be
       -0.3602075 -0.080033965 0.3427237 -0.17264467
0001b0 de 9b 0e be e7 17 0d bf 1b 4e 53 3e 58 e8 2c be
       -0.13926646 -0.551146 0.20635264 -0.16885507
0001c0 24 a6 3c bf 7c 0b f0 bd 80 16 6e 3f db 33 06 3f
       -0.7369101 -0.117209405 0.9300308 0.52422875
0001d0 40 02 9b be 80 08 6a 3d c3 f2 02 3d 50 42 81 be
       -0.30275154 0.057137012 0.031969797 -0.25245905
0001e0 b9 45 d4 be 1e 01 71 bd 51 dc 8a 3e 08 79 d6 3f
       -0.41459444 -0.058838956 0.27121213 1.6755686
0001f0 8a 1b d7 bd b5 26 25 bf 5a 6c 1b 3e 84 7a be bd
       -0.105032995 -0.6451219 0.15178052 -0.09300712
000200 b7 90 bf be 39 dc 28 bd c2 b8 2e 3f 73 72 70 3f
       -0.37415096 -0.041225646 0.6825067 0.93924636
000210 b6 de bd bd 07 c8 18 be 4f 57 02 be 2c a8 7d bd
       -0.09270994 -0.14920054 -0.12728618 -0.06192796
000220 25 de 6f 3f fe e6 82 3e ab 94 b3 3e e5 81 9d 3f
       0.9369834 0.25566858 0.35074362 1.2305266
000230 d2 c3 96 3e 25 ba f1 bf 41 5d a6 be 55 75 b1 3e
       0.29446274 -1.8884932 -0.32493022 0.3465983
000240 81 b8 2b 3f 3f 86 3e be 0b 12 d7 3e 5d 61 48 be
       0.67078406 -0.18605898 0.42005953 -0.19568391
000250 c9 10 0f 3e 58 99 e2 be 13 ec 16 bf d0 e2 8d 3d
       0.13971247 -0.44257617 -0.5895397 0.06928027
000260 10 66 2f be cd 93 69 bd 4a 4f cd 3e 57 04 0b 3f
       -0.17128778 -0.05702572 0.40099555 0.543035
000270 e1 01 09 be 1b 03 80 be f2 20 87 bd dc 4d 7f bc
       -0.13379623 -0.2500237 -0.06598081 -0.015582528
000280 68 ca cd be 51 23 58 3a fe e3 3d 3f 06 c4 a1 3f
       -0.40193486 0.00082450086 0.74176013 1.2637947
000290 68 ed 87 bd 9f 0f 87 be ba 72 47 be c0 34 00 be
       -0.066370785 -0.26379105 -0.19477358 -0.12520123
0002a0 27 ae aa be b3 9b bd bc 77 09 18 3f a8 b9 98 3f
       -0.33335993 -0.023145532 0.5938944 1.1931658
0002b0 50 e9 3b be 6b 24 5a be 34 16 a1 bc af 8a e5 bd
       -0.1835072 -0.21302955 -0.019663908 -0.112080924
0002c0 e7 d4 a4 be f5 4d a6 bd 9e b5 17 3f 6b 3f a2 3f
       -0.32193682 -0.08120338 0.592615 1.2675604
0002d0 33 87 df 3c 0c 9c c3 be f3 bb 69 be 40 9c 02 3d
       0.027286148 -0.38204992 -0.22825603 0.031887293
0002e0 f6 53 c0 be 9b 18 a8 3d 35 75 ec 3e 5b d5 bf 3f
       -0.37564057 0.08207818 0.46183172 1.4986986
0002f0 73 87 60 bd 2c ce 03 bf 0a cd 20 be 0b 78 b6 bd
       -0.054816674 -0.5148647 -0.15703216 -0.08909615
000300 d3 df 54 3d c7 a3 f1 3d 97 a7 50 bf cc 0f 8f 3f
       0.051971268 0.11798816 -0.8150572 1.1176696
000310 f4 be 55 bd 47 b2 f3 be c6 63 ea bc 4c a7 e4 bc
       -0.05218406 -0.47596952 -0.028612029 -0.027911805
000320 6a c0 4f bf 26 9e 98 be 6f 9a 93 bf be ca 0f bf
       -0.81152976 -0.29808158 -1.1531504 -0.56168735
000330 8d 16 dd be 89 43 cf 3f 16 10 79 3e 07 8f fb be
       -0.43181267 1.6192485 0.24322543 -0.4913256
000340 a2 71 fc be df 5c 53 be fb 52 32 3f 8c e0 fc bd
       -0.49305445 -0.20640896 0.6965787 -0.123475164
000350 bd 0f 8c be bf a9 a9 be 08 0e 92 3e fb f0 87 be
       -0.27355757 -0.33137318 0.2852633 -0.2655104
000360 7b 34 00 3e b0 bd 77 bd 47 09 48 bf af 9d 3c 3f
       0.1252002 -0.060483634 -0.78139156 0.73678106
000370 bd 57 18 be 40 1c 23 bf 67 95 e0 3e f4 69 00 be
       -0.1487722 -0.6371498 0.43863985 -0.12540418
000380 c4 01 d9 be ca 8b 5c bd e1 de 08 3f c5 19 8a 3f
       -0.4238416 -0.05384425 0.53465086 1.0789114
000390 6d 7d ad 3b 11 eb e1 be 1b 0c 37 be 76 33 8e 3c
       0.005294493 -0.44124654 -0.17875712 0.017358523
0003a0 8b 09 9a be c7 59 63 bc 8c a5 14 3f 24 17 7c 3f
       -0.30085406 -0.013876385 0.58065104 0.9847281
0003b0 65 b7 7f bd e9 d3 9e be 8a 3d 31 be 39 7a 7b bd
       -0.062430758 -0.3102105 -0.17308632 -0.061395857
0003c0 70 b4 91 be 34 9c 4a bc 3f bc 18 3f d1 03 65 3f
       -0.28457975 -0.012366343 0.5966224 0.8945895
0003d0 f9 af 03 be 63 5f 99 be 37 e9 52 be ab f3 01 3d
       -0.12860097 -0.29955587 -0.20596777 0.03172652
0003e0 5d 35 87 be d0 e1 6e 3c f0 05 cc 3e 23 7e 85 3f
       -0.264079 0.014580205 0.3984828 1.0429119
0003f0 e4 81 9e bd dc 96 f3 be 0c 58 f6 bd 25 32 fd 39
       -0.077396184 -0.47576034 -0.12028512 0.0004829328

fc1.bias f4 [256]
000000 16 79 5a bd 8b 12 a9 bd d3 50 04 be 91 3f ac bd
       -0.053338133 -0.0825549 -0.12921457 -0.08410562
000010 b6 dc b5 bc 3f cf 1c 3f 81 96 5c bd a5 65 87 bd
       -0.02219997 0.6125373 -0.05385447 -0.06611184
000020 b3 b7 ff bd 4f 9f bd bd 5b ce 12 3f eb a4 96 bd
       -0.1248621 -0.09258901 0.57346123 -0.07355674
000030 80 4f 8d bd 13 17 37 be 6d 07 9d be de d5 09 be
       -0.06899929 -0.17879896 -0.30669728 -0.1346049
000040 4e 6a f7 bd 0c 7b c7 3e 39 69 b2 3d 5c 11 7a bd
       -0.12080823 0.38961065 0.08711476 -0.06105171
000050 f6 ec b9 bd a7 57 f5 bd 50 35 65 bd 31 26 9a bd
       -0.090784 -0.11979609 -0.055959046 -0.07526816
000060 4e 26 0a bd ed 12 cc be fe f2 95 be 34 14 0c be
       -0.033727936 -0.3985819 -0.2928695 -0.13679582
000070 07 c9 31 bd 08 c8 91 bd a0 1e 3d bc 33 c1 86 bd
       -0.043404605 -0.07118231 -0.011542946 -0.065798186
000080 7b 34 90 bd 60 a3 e8 bd 4e 8a 82 bd 73 94 02 be
       -0.0704126 -0.11359286 -0.06374036 -0.12751941
000090 6c 71 1b 3c 9e c2 17 bd 18 d1 39 bd 8c 19 a3 bd
       0.009487491 -0.037050836 -0.045365423 -0.07963857
0000a0 29 e3 e9 bc 13 6a c9 bd ed e9 b8 bd 7a f8 94 bd
       -0.028550701 -0.09834685 -0.09028993 -0.07273956
0000b0 e5 7b 42 be 0b f3 93 be e5 bd 97 bb 34 30 80 bd
       -0.18992575 -0.28896365 -0.0046307915 -0.06259194
0000c0 3b a1 eb bd 5f fe c8 bd 81 b1 e6 bc f3 e2 5a bd
       -0.11505362 -0.098141424 -0.028160812 -0.053439092
0000d0 9d ab 50 be 89 79 5f bd 9c 20 81 3e 03 96 a6 bd
       -0.20377965 -0.054559264 0.2522019 -0.08134081
0000e0 6d 0b 99 bd fa 64 fd bd 7a a3 a4 bd 28 ae 8f bd
       -0.074728824 -0.123727754 -0.08038993 -0.070156395
0000f0 ae fb 8e bd d6 be 4a 3d ad 1c fa 3e 88 3c 3a 3c
       -0.06981598 0.0494984 0.48850003 0.011366971
000100 6f dc ad bd ee b4 33 be 69 f0 91 bd 0b 8d ab bd
       -0.0848931 -0.17549488 -0.07125933 -0.08376511
000110 15 54 e3 bd c7 57 8e bd 62 c9 77 bd 11 f0 14 bc
       -0.11100022 -0.06950336 -0.060494788 -0.009090439
000120 22 b7 88 be 3e 81 db ba 31 ff 4e bd 05 85 7a bd
       -0.2670222 -0.0016746891 -0.05053634 -0.061162014
000130 9a 96 c1 bd 35 24 93 bd ee 61 f4 bd df 40 51 bd
       -0.09452553 -0.0718464 -0.11932741 -0.051087257
000140 7f d2 4d be 7f 9d 2d bd 1d 42 dd bb ff 0f 41 bd
       -0.20099829 -0.042386528 -0.006752266 -0.047134396
000150 28 f7 8a be 77 ad e3 bc 4e 55 9b be 20 a7 d0 bd
       -0.2714169 -0.027792675 -0.3033852 -0.101881266
000160 a5 c8 85 bd 39 7e 86 bd a6 2f 9e bd d7 d0 8e be
       -0.065324105 -0.06567044 -0.07723932 -0.27893707
000170 51 cb 8a bd f7 4d 73 bd 44 b1 b1 bd a4 25 a9 3d
       -0.06777061 -0.059400525 -0.08676389 0.082591325
000180 e0 5f 1a be e8 d2 f9 bd 1c 75 d6 bd 6f e4 96 be
       -0.15075636 -0.1219843 -0.104715556 -0.29471156
000190 1f 52 3f bd eb 2d fd bd f4 24 fa bd ed 3d 86 bd
       -0.046709176 -0.12362274 -0.122140795 -0.0655478
0001a0 b7 ec 92 bd 7c 3e 2f bd 1b 5c 81 bd e4 26 53 bd
       -0.07174056 -0.0427842 -0.06316396 -0.05155076
0001b0 62 02 82 bd 4f 5b 07 be b9 11 e1 bd 66 a6 27 bd
       -0.06348111 -0.13218425 -0.109897085 -0.040930174
0001c0 ce 12 8b bd f8 63 ba bd ee 93 ef bd eb 17 06 3f
       -0.06790696 -0.09101099 -0.11698137 0.52380246
0001d0 45 ad 37 bc 59 93 af bb e8 01 b9 ba 8e d8 25 be
       -0.011210744 -0.0053581414 -0.0014114948 -0.1619589
0001e0 97 7f 4b bd 2b 5c 38 bd 84 f8 89 bd d3 66 b8 3e
       -0.049682226 -0.045009773 -0.06736854 0.3601595
0001f0 30 13 30 bb 72 64 ba bd d2 07 a5 bd 3f 29 8d be
       -0.0026866905 -0.0910119 -0.08058132 -0.2757053
000200 ba 9e 0f bd 1e a7 3d bd 75 cb 48 bd 37 cb 1b be
       -0.035063483 -0.046301953 -0.049022157 -0.15214239
000210 ee 8d 30 be 5d 93 eb bc 60 cf b8 bc 15 c0 fe bc
       -0.17241642 -0.028756792 -0.022559822 -0.031097451
000220 ad 7e 7f be fd 89 ed bd 63 34 8c be 42 0b 24 be
       -0.24950667 -0.11598585 -0.27383718 -0.1601992
000230 8c 1c 9b bd 4b 21 b5 bd e4 aa d3 bd b5 d7 a3 bd
       -0.07573804 -0.08844241 -0.10335329 -0.08000127
000240 e6 13 e7 bd 9d ea bb bd 16 fe ab bd 65 7d c4 3c
       -0.11283092 -0.09175608 -0.083980724 0.023985574
000250 5f 94 2a bd 8d 31 ce bd a1 8a 81 bd e3 19 dd bd
       -0.041645404 -0.10068045 -0.063252695 -0.10795953
000260 74 89 56 bd c4 6d 00 bd 44 6e 2b bd df 34 18 bd
       -0.05237718 -0.03135468 -0.041853204 -0.037159797
000270 fe 22 d5 bd 87 0f 40 be 96 37 82 bd 20 2c ac bd
       -0.10407065 -0.18755923 -0.063582584 -0.08406854
000280 bb 4c dc bc b3 4a de bd 17 0f 24 be 51 04 b2 bd
       -0.026892057 -0.108540915 -0.16021381 -0.086922295
000290 09 4c 20 be 54 08 3d bd fb fd c1 bd f1 61 56 bd
       -0.15654005 -0.04615052 -0.09472271 -0.052339498
0002a0 05 88 a3 bd 65 4b 2c be 87 10 c5 bd 15 0a d6 bd
       -0.07984928 -0.16825636 -0.09622293 -0.10451142
0002b0 44 6b 80 be 9f 22 f2 bd ce 70 8d be 33 db 49 bd
       -0.25081837 -0.1182301 -0.27625126 -0.04928131
0002c0 62 1a 11 be d6 a1 10 be 38 11 18 be 6d fd 09 be
       -0.1417022 -0.14124236 -0.14850318 -0.1347558
0002d0 33 e0 64 bd 9e db 03 bd b2 c8 bf bd 49 8b 01 be
       -0.055877876 -0.032191865 -0.093644515 -0.1265079
0002e0 d4 f5 05 bd 19 2e 3b bd dc 9f 8c 3d 61 bf 93 bd
       -0.032705143 -0.04569826 0.06866428 -0.07214237
0002f0 74 f1 05 be 1a ae 85 bd e2 0a 43 bd 5a b3 86 bd
       -0.13080388 -0.06527348 -0.0476178 -0.06577177
000300 6d cb 14 be f8 fb 53 bd 07 c8 08 be 8c ea c3 bd
       -0.14530726 -0.051753968 -0.13357554 -0.09566221
000310 6e 12 7f bd 06 f6 50 bd 34 61 8d be 93 f2 2b be
       -0.062273435 -0.051015876 -0.27613223 -0.16791753
000320 30 d1 d0 bc 07 e7 36 bd 69 cd d6 bd 13 5d a4 bd
       -0.025490373 -0.04465392 -0.10488398 -0.08025565
000330 9a a2 53 be 92 1f 6e bd f3 90 26 be 9f f7 06 3c
       -0.20667496 -0.058135577 -0.16266231 0.008237748
000340 55 12 05 be a4 92 af bd 43 6a a0 bd 22 39 80 bc
       -0.12995274 -0.08572891 -0.07832768 -0.015652243
000350 b2 03 bf be 2e 81 00 be 78 ea 8b bd e7 6d 98 bd
       -0.37307507 -0.12549278 -0.06831831 -0.07442837
000360 b7 b6 89 bd 53 25 3c be 1f 76 11 be 2a 80 0e be
       -0.06724303 -0.18373613 -0.14205216 -0.13916078
000370 da 8f 0b be ed 2a 91 bd d4 7e 5e be d7 d8 01 be
       -0.13629094 -0.070882656 -0.21728069 -0.12680374
000380 e8 03 d9 bd 22 3c a1 bd 8e 63 33 be 7b 62 90 bd
       -0.10596448 -0.078727975 -0.17518446 -0.07050034
000390 55 4b 08 bd 64 a2 50 be e1 05 94 bd 7b ad 18 bd
       -0.033274967 -0.20374447 -0.07227684 -0.03727482
0003a0 17 80 62 bd df e9 62 bd ed 44 a9 bc 2c 0f c6 bd
       -0.055297937 -0.055398818 -0.02066275 -0.096708626
0003b0 d5 8f 90 bd 4b 53 75 bd a1 3a 20 bd c6 c5 45 be
       -0.07058684 -0.059893887 -0.039118413 -0.19313726
0003c0 b4 15 c0 bd 12 c6 e8 bd be 47 ae bd 48 45 95 bd
       -0.093791395 -0.11365904 -0.085097775 -0.07288605
0003d0 32 ea 43 bd 19 12 5f bd 15 05 4a bd b8 fa 92 bd
       -0.047830768 -0.05446062 -0.049321253 -0.07176727
0003e0 ce 99 0b be 13 c8 7c be d2 36 55 be bf 78 0f be
       -0.1363289 -0.24685697 -0.20821694 -0.14010905
0003f0 72 cc 85 bd 9f 7e ed bd 48 6d 2a bc b0 90 ab bd
       -0.065331355 -0.11596417 -0.010402031 -0.08377206

fc2.weight f4 [256, 256]
000000 e7 46 b2 bd 96 64 10 bc eb b1 41 3c c8 f8 23 3d
       -0.0870493 -0.008813044 0.011822204 0.04003218
000010 36 0e eb b8 48 7c 5e bf 58 59 bf be a2 71 34 3e
       -0.0001120832 -0.8690839 -0.3737285 0.17621472
000020 a4 83 48 3d ec 66 56 3e 96 91 43 bf f7 5e 39 3e
       0.048953667 0.20937699 -0.7639402 0.18102632
000030 fd 6e 79 3d 1d 64 d0 3e d0 08 72 3f 7b 40 9a 3e
       0.060896862 0.4070138 0.94544697 0.3012732
000040 7f e8 30 bc b9 fb b1 3e b5 9d 2b 3f 46 c2 07 bd
       -0.010797619 0.34762362 0.67037517 -0.033144258
000050 44 07 ee 3d 02 90 31 3f 07 25 80 3e 68 6f 76 3e
       0.116224796 0.69360363 0.2502825 0.24065936
000060 34 bc d4 3e a4 4d 1c bf 10 70 e1 be 36 53 ea 3d
       0.41549838 -0.6105597 -0.4403081 0.114416525
000070 df 12 80 3c ed f7 3e 3d f1 22 c6 3d d6 3a 29 bd
       0.015633998 0.04662316 0.09674633 -0.041315876
000080 98 24 ab bd fc f7 92 bc f3 65 3b bd 6f 6f 1c 3b
       -0.08356589 -0.017940514 -0.045751523 0.002387013
000090 b9 05 28 3f fc 7c 8a 3e 7e b1 94 3e ba f8 f7 3d
       0.6563373 0.2704848 0.29041666 0.12107988
0000a0 79 a0 c4 3d 9f 41 ee bd 7e 95 c5 3e 06 39 17 3e
       0.0960092 -0.1163361 0.38590616 0.14767846
0000b0 11 74 15 3f c2 8c e9 3e 66 47 31 3c 12 7d 6f 3d
       0.5838023 0.45615202 0.010820245 0.058468886
0000c0 69 e2 4e bd 9f 82 a0 bd 87 2a e0 3d e3 18 99 3e
       -0.05050889 -0.07837414 0.109456114 0.299018
0000d0 fc 34 5b 3e c7 82 f0 3d ad 45 07 3c 77 ff 44 bd
       0.2140693 0.11743694 0.008256358 -0.048095193
0000e0 e9 c9 82 bd 8a 55 ac 3d 11 4f 38 3e 68 df ff bc
       -0.063861676 0.08414753 0.17998911 -0.031234458
0000f0 12 01 1a 3f 53 8e af 3d 57 62 04 3f 03 33 23 3f
       0.60157883 0.08572068 0.51712555 0.6374971
000100 32 df 3b bb 3c c8 9f 3e 78 e1 81 3f bd 25 f8 3d
       -0.002866697 0.31207454 1.0146933 0.12116573
000110 c9 ac 5c be f9 22 77 3d 9d 08 52 3e 9c b4 81 3e
       -0.21550287 0.060336087 0.20511098 0.25333107
000120 e8 61 18 3d 57 3b 7b 3f 16 60 75 3c e4 cd e8 3e
       0.037202746 0.9813742 0.014976522 0.45469582
000130 f3 58 0e 3d fa 7c 3a 3e 13 31 87 3e e9 39 8f bd
       0.034752797 0.18211737 0.26404628 -0.06993467
000140 4c 73 1e bf 88 45 21 bc 64 7d a5 3f 34 5c a9 3e
       -0.6189468 -0.009843238 1.2928891 0.33078158
000150 24 b4 bc be 02 c9 79 3e 5f 96 d3 3e 90 3b 18 3e
       -0.36856186 0.24393085 0.41325662 0.14866471
000160 eb a7 97 bc 1f c8 22 3e 6a 4d 05 3e e7 fd 3b 3f
       -0.018512687 0.15896653 0.13017812 0.734343
000170 04 42 7b bc 23 f2 e7 3d fc 87 4c 3e cd 94 83 3e
       -0.015335564 0.11325481 0.19973749 0.25699463
000180 98 0f 83 3e 25 13 68 be be 1f da 3e c1 39 28 3d
       0.25597835 -0.22663553 0.42602342 0.041070703
000190 28 b1 34 3f c6 ce 8c 3e 10 96 e4 bd 0a 86 33 3f
       0.7058282 0.27501506 -0.11161435 0.701264
0001a0 46 94 b6 3d 47 95 a1 3d 99 28 86 3e 6a 72 bd 3d
       0.08915 0.078898005 0.2620285 0.092503384
0001b0 b3 d4 42 be 19 8e 51 be bb 20 2e be c7 5d 31 3e
       -0.19026451 -0.20464362 -0.17004673 0.1732093
0001c0 70 59 0c 3e 78 70 18 be 94 51 9e 3d 6b 12 5e bf
       0.13705993 -0.14886653 0.077304035 -0.86746854
0001d0 a0 e3 26 3f 77 3f 3d 3f e1 1d 76 3e 47 c2 6c be
       0.6519108 0.73924965 0.24034835 -0.23120986
0001e0 f3 0e 0b 3e 97 f8 83 3d 69 17 9e 3c 16 45 1f 40
       0.13579921 0.06443899 0.019298272 2.4885917
0001f0 7a b8 f1 3d 9a 0a 13 be b6 75 6b be 1d 36 ba bb
       0.11802764 -0.14359513 -0.22994122 -0.0056827203
000200 18 b7 2a 3f e4 97 e2 bc 18 98 1d 3f 50 e4 ad bc
       0.6668563 -0.027660318 0.615602 -0.021227032
000210 66 11 17 3f 0a 04 1a 3e b3 c7 c7 3d 03 a9 3c bd
       0.5901092 0.15040603 0.097548865 -0.04605962
000220 49 4f ea 3f 44 3c c8 3e f9 68 54 3e 3e 5a 10 3e
       1.8305446 0.3910848 0.20743169 0.14096925
000230 90 8a 02 bd 7a 44 1b bd f6 c6 86 3d c8 00 0c 3e
       -0.031870425 -0.0379071 0.065809175 0.13672173
000240 d3 6b f6 3d 20 a6 27 3d 92 bd c3 bd 6d 7f 24 bf
       0.120322846 0.040929914 -0.09557642 -0.64256936
000250 be ca 07 3e dd 86 db 3d 0b f8 81 3d 49 52 ff 3d
       0.13260934 0.107190825 0.063461386 0.124668665
000260 60 ea 09 3e 9b fd 4d be b0 51 30 3d 05 26 06 3d
       0.13468313 -0.20116274 0.043046653 0.032751102
000270 d6 f9 67 3c 3e 5a 17 be eb df 49 3e 0c 68 80 3e
       0.014158687 -0.14780518 0.19714324 0.2507938
000280 3e a6 b9 3d b6 5a be 3e 44 b2 d2 3e 03 2e 9a 3d
       0.09064911 0.37178582 0.4115163 0.07528307
000290 b8 01 8b 3e 7f 22 0c 3d 6b b1 8a 3d 22 a4 33 3e
       0.2714975 0.034212586 0.06772121 0.1754308
0002a0 7a ed 49 3e 8b 02 da 3e 02 d4 38 be c0 06 9b 3d
       0.19719496 0.42580065 -0.18049625 0.07569647
0002b0 df 11 05 3f 43 30 06 3f a9 14 e7 3e 53 23 19 3e
       0.51980394 0.5241739 0.4513295 0.14954881
0002c0 62 81 04 3e 3f 10 14 3d 08 b3 1f 3e dc 4f b9 3e
       0.1293998 0.036148306 0.15595639 0.3619374
0002d0 9d 44 99 3d 85 a2 d2 bd 7e 9c e9 3e 79 fc da bc
       0.0748379 -0.102849044 0.45627207 -0.026731716
0002e0 15 88 eb bd 95 e5 b1 bd 88 e0 1c 3f 01 12 80 3e
       -0.11500565 -0.086863674 0.6128011 0.25013736
0002f0 6e 3c 97 3a fd 49 15 bd 98 08 ac 3d 64 11 81 3d
       0.0011538395 -0.036447514 0.08400077 0.06302145
000300 ea 77 41 3e 67 c1 f8 3d ec 58 4c 3d 26 2a 2f 3d
       0.188934 0.121462636 0.04988949 0.042764805
000310 3d a6 c0 3e 67 d0 2b 3e e3 0a c8 be 17 fd c8 3e
       0.3762683 0.16778718 -0.39070806 0.39255592
000320 53 19 4b 3e fe 43 28 3d f1 26 71 bd ab 5b 99 3d
       0.19833879 0.041080467 -0.058875028 0.074881874
000330 fc 3a b2 3e 72 92 de 3e ed 25 ef 3d 5f b1 e0 3e
       0.34810627 0.43471104 0.11677156 0.43885323
000340 eb 72 d8 3d 3f 7f 3d 3d 17 cd a8 3d 3a 10 62 3e
       0.10568794 0.04626393 0.08242243 0.22076502
000350 93 67 57 3f 42 9a 04 3f 21 9f ac bd 71 b9 a6 3e
       0.84142417 0.5179788 -0.08428789 0.32563356
000360 70 f3 6b bb 07 9b 0c 3e 22 82 56 3e 74 e2 fc 3e
       -0.0036003254 0.13731013 0.20948079 0.4939152
000370 ff 7f 15 3f cd 74 5c 3e 9e ed be 3e 9a e5 9b 3e
       0.5839843 0.21528931 0.37290663 0.3044861
000380 d9 92 b0 3e 79 05 83 bd 9c c0 b7 be c7 e9 f4 bd
       0.34487036 -0.06397528 -0.35889137 -0.11958652
000390 f7 ae 48 3f cf 86 4d be 1f 8b 96 3d b1 fa 3c 3d
       0.78391975 -0.20070957 0.07350754 0.046137515
0003a0 1d 61 49 3e e9 c0 69 3f 47 d6 ba 3d 08 2e 26 3f
       0.19665952 0.9130998 0.091229014 0.6491399
0003b0 2e 95 a6 3d ce 39 b8 3c b3 d9 50 bd 38 e1 3f be
       0.081339225 0.0224885 -0.050988864 -0.18738258
0003c0 5a 21 ba 3e e3 41 58 3d 44 bc 84 3e 0c 2f e9 bc
       0.3635357 0.05279721 0.25924885 -0.028464817
0003d0 cb 4f e1 3e c7 7a db 3d 5f c5 89 3e 60 7b 3b 3c
       0.4400619 0.10716777 0.26908395 0.011442989
0003e0 86 c5 c4 3d 55 05 f8 3e 3b c1 94 3f b8 39 ec 3d
       0.09607987 0.48441568 1.1621469 0.115344465
0003f0 2b 55 17 be 16 58 11 bd e4 0b f1 3d f1 e4 62 3d
       -0.14778583 -0.035484396 0.11769846 0.055394117

fc2.bias f4 [256]
000000 70 bd 06 bf 3e 76 15 bf 81 fd 15 bf 26 2c 2c bf
       -0.5263281 -0.5838355 -0.5858994 -0.67254865
000010 54 6c 7c bf 80 97 94 bf e9 21 41 bf ac 55 80 3e
       -0.98602796 -1.1608734 -0.7544237 0.25065362
000020 6f 6b 0f bf 56 7b 29 bf 39 ac f3 3e 1b 1b cd 3e
       -0.56023306 -0.6620382 0.47592333 0.40059742
000030 28 2a 57 3f 03 ed 36 3f ff 66 28 bf cb ef 2c bf
       0.840487 0.714554 -0.6578216 -0.67553395
000040 a3 a5 d9 be f9 77 82 be a4 d2 23 bf 77 f2 ec bc
       -0.42509183 -0.25482157 -0.6399329 -0.02892421
000050 c9 44 82 bf b1 3f dc be 76 cf 25 bf 12 35 52 3f
       -1.0177242 -0.43017343 -0.64769685 0.8211223
000060 ce 67 a4 3e 6c e9 11 bf ba 6c bd 3f 0c ac 85 be
       0.32110447 -0.569968 1.4798806 -0.26107824
000070 f0 99 c2 be b6 95 4b bf 81 e7 18 3f f8 ed 57 3e
       -0.3800807 -0.79525316 0.59728247 0.21086872
000080 4b d6 03 bf fb 80 09 3f a8 61 fa be 75 c8 b1 3e
       -0.5149886 0.53712434 -0.4890263 0.3472325
000090 59 36 a7 be 04 fe 9c 3e d3 15 5d be 4e 81 da be
       -0.3265865 0.3066255 -0.21590357 -0.42676777
0000a0 12 c2 37 3e c1 0c 19 bf 7a 7e 22 bf 70 3d 86 be
       0.17945126 -0.59785086 -0.6347424 -0.26218748
0000b0 24 48 ad be 66 d1 66 3e a3 d2 01 bf 58 a9 5d bf
       -0.338441 0.22540817 -0.5071203 -0.86586523
0000c0 00 8c 02 bf 28 38 13 3e 79 a4 c2 be a1 77 29 3e
       -0.50994873 0.1437689 -0.38016108 0.16549541
0000d0 94 fa 0c 3f 86 ad 3d bf d4 48 f1 3e e1 71 50 3f
       0.5506985 -0.740929 0.47125876 0.81423765
0000e0 07 60 c7 be 8e c8 36 bf fb 9c 08 bf c8 f4 cb be
       -0.3894045 -0.7139977 -0.53364533 -0.3983519
0000f0 3e b3 fc be 33 f5 07 bf ba 4d 9e be 5d ce e8 bd
       -0.493555 -0.5310852 -0.30918676 -0.11367486
000100 81 e9 c3 be a8 5a b5 be 91 20 0e bf 70 b3 b9 bf
       -0.38264087 -0.35420728 -0.5551844 -1.4507885
000110 e1 eb f8 be 1f be 15 bf 46 35 2f bf 3a 67 04 bf
       -0.4861746 -0.58493227 -0.68440664 -0.5172001
000120 46 59 ae be 35 14 0b bf 2f 69 4e bf 9c 2d b6 bd
       -0.34052485 -0.5432771 -0.8062925 -0.08895418
000130 82 4d a5 be 7c f6 c3 be 77 91 ed be 33 55 c0 3e
       -0.32285696 -0.3827399 -0.46400043 0.37565002
000140 c0 10 27 3f 26 fc 0f bf 52 b5 19 bf eb ee ae 3e
       0.65259933 -0.56244123 -0.600423 0.34166655
000150 54 3b 20 3e ba d4 07 bf ad b9 d3 3e a8 46 15 bf
       0.15647632 -0.5305897 0.41352597 -0.5831094
000160 3c 5d 11 bf 99 9f 1c bf a4 f4 88 be 45 c2 d8 be
       -0.5678289 -0.61181027 -0.26749146 -0.42335716
000170 ad d6 03 bf 62 07 0d bf 23 f8 ea bd 9c 9f 39 bf
       -0.51499444 -0.5508939 -0.114731096 -0.7250917
000180 6c 3c 1f bf bc 13 e3 be 0c 0c 1e bf e6 45 9c 3e
       -0.6220157 -0.44350994 -0.6173713 0.30522078
000190 2a a3 0c 3e b8 cf a7 bd a7 02 49 bf 6a 37 d0 be
       0.13734117 -0.08193916 -0.7851967 -0.40667278
0001a0 a3 b5 26 3f fc 35 01 bf a7 bc 09 bf 4d 29 ad be
       0.65120906 -0.50473 -0.53803486 -0.33820572
0001b0 58 b7 04 bf 91 fa ab be a4 35 df be 3f eb f6 bd
       -0.5184226 -0.33589604 -0.43595612 -0.120565884
0001c0 c1 7b 54 be 8e f7 fa be 5b b8 55 bf b7 58 46 be
       -0.20750333 -0.49016994 -0.8348443 -0.1936978
0001d0 1c 26 2a bf cd 0c 1d 3f 2f 4a c1 be 2e 27 6d 3e
       -0.664644 0.6134766 -0.3775191 0.23159477
0001e0 d7 58 e9 be 75 86 88 be 8c 27 17 3f ab 51 0e bf
       -0.45575592 -0.26665083 0.5904472 -0.55593365
0001f0 bb 10 28 3f 60 b9 08 bf b6 53 13 bf 9d 06 9f 3e
       0.6565053 -0.5340786 -0.5754961 0.31059733
000200 51 dc 89 be 28 b7 03 bf 35 5e 63 bf 21 a1 0e bf
       -0.269259 -0.5145135 -0.88815624 -0.55714613
000210 d5 7d ee be a0 71 84 be 2a 0f 14 bf a5 49 f9 be
       -0.46580377 -0.2586794 -0.5783564 -0.48689
000220 11 8c ef be e4 37 a3 bf 98 bb 96 be 6e 26 5a be
       -0.4678655 -1.2751431 -0.29439998 -0.21303722
000230 84 82 1c 3f 27 b6 61 bf ed ed 43 3f 73 93 08 bf
       0.6113665 -0.8816857 0.7653492 -0.5334999
000240 7b b7 25 3f 4d 8e f0 be 69 c3 07 3f 55 a5 72 be
       0.64733094 -0.46983567 0.5303255 -0.23695882
000250 6f e2 01 bf c2 53 df be 74 f2 90 be 05 7f 14 bf
       -0.50736135 -0.4361859 -0.28309977 -0.58006316
000260 da de 0c bf 3a fe 24 bf bb 42 0f 3f 05 fc 67 bf
       -0.55027544 -0.6445042 0.559612 -0.90618926
000270 eb f5 96 3e f5 76 06 bf 08 60 75 be bb d5 ec be
       0.29484496 -0.52525264 -0.23962414 -0.46256813
000280 28 d5 d2 3e 51 4c 1b bf e6 60 30 bf dc f3 e5 be
       0.4117825 -0.60663325 -0.68897855 -0.44912612
000290 00 07 6f bf 15 fa e5 bd 25 2f 01 bf 5e 6e de be
       -0.93370056 -0.1122934 -0.5046256 -0.43443578
0002a0 2d 3b 98 be f0 c2 15 bf 24 53 0e bf 28 16 16 bf
       -0.29732648 -0.58500576 -0.5559561 -0.5862756
0002b0 30 14 ed be 1c 58 4c bf 53 78 d4 be 83 16 32 3f
       -0.46304464 -0.79821944 -0.4149805 0.695656
0002c0 39 cc 26 3f ef 07 48 bf 4a 43 45 bf b8 b0 18 bf
       0.6515537 -0.78137106 -0.770558 -0.5964465
0002d0 41 e9 0e bf 36 77 0b bf 27 01 c7 3e e9 98 bc be
       -0.5582467 -0.54478776 0.38868067 -0.3683541
0002e0 eb 0a 15 bf fc 1c 53 bf dc 19 29 be c3 8b 92 3e
       -0.58219784 -0.824661 -0.16513771 0.28622255
0002f0 05 9a ab 3e 8f 1c d9 bd 89 23 3c bf a3 75 1f bf
       0.33515945 -0.1060115 -0.7349172 -0.62288874
000300 13 ec 85 3e 3c 5c 34 bf 1e 1b fa be be b9 92 be
       0.26156673 -0.7045324 -0.48848814 -0.28657335
000310 0d 91 2e bf 54 67 31 bf 45 80 1b 3e ea d2 19 bf
       -0.6819008 -0.6929829 0.1518565 -0.60087454
000320 82 62 ad bd db 3f ab be ee 16 e2 be 04 36 0b bf
       -0.084660545 -0.33447155 -0.4415812 -0.54379296
000330 f0 1a 99 3e 0c a3 0a bf 12 9d d3 be d4 75 04 bf
       0.29903364 -0.5415504 -0.41330773 -0.5174229
000340 e1 35 db be 2b f5 4b 3e 70 38 20 bf 26 6f cf be
       -0.42814544 0.19917743 -0.62586117 -0.40514487
000350 c0 04 55 bf 59 75 21 3f 3c b2 fe be 8c 1b 6a 3d
       -0.8321037 0.63069683 -0.49745357 0.057155177
000360 21 dd 28 bf 3e 40 49 bf 9c 76 60 bf ce 5b 16 be
       -0.65962416 -0.7861365 -0.87680984 -0.14683458
000370 fe e4 42 bf 63 99 3b bf b3 49 83 3f 32 04 2f bf
       -0.76130664 -0.73280925 1.0256866 -0.68365777
000380 b6 92 52 bf cc a9 70 bf 65 f0 02 bf 65 4e ff be
       -0.82255113 -0.9400909 -0.5114806 -0.49864498
000390 9f 94 59 bf 63 ec 78 bc 29 cf 32 bf bd c3 e4 be
       -0.849924 -0.015193078 -0.6984735 -0.44680586
0003a0 94 6f fc be 6a cd dc be f7 83 81 be b6 4f 73 be
       -0.49303877 -0.43125468 -0.25295994 -0.23760876
0003b0 aa b9 99 bf 0a 90 30 3d aa 96 b1 be 98 1e df 3e
       -1.2009785 0.043106116 -0.3468526 0.4357803
0003c0 b3 8d 15 be af 90 1c be d6 d7 07 bf 1a e7 f5 be
       -0.14604835 -0.15289567 -0.53063715 -0.4802788
0003d0 fd f6 9b bf f9 66 d1 be 80 76 e1 3e a7 1d e2 be
       -1.218475 -0.40898874 0.4403572 -0.44163248
0003e0 6a 15 27 be 6d 15 fb be 43 38 98 be 7f 89 68 be
       -0.16316763 -0.49039784 -0.29730424 -0.227087
0003f0 16 4a 40 bf 10 13 b4 be 49 0e bc 3d c5 28 2a 3f
       -0.75113046 -0.35170794 0.09182412 0.6646846

fc3.weight f4 [128, 256]
000000 e9 a9 94 be 21 41 84 3d bb 74 49 3e 3b 27 69 bf
       -0.2903588 0.06457735 0.19673435 -0.91075486
000010 68 5e cf 3e 98 62 06 3f 6b 36 8a 3f 30 95 1c be
       0.40501714 0.5249419 1.0797857 -0.15291286
000020 b0 70 7e 3c 22 1f e5 3d a9 ff b6 be 69 be 3f be
       0.0155297965 0.11187579 -0.35741928 -0.1872498
000030 4a 8b 59 bf 64 f6 39 bf b6 60 f9 3d e7 08 18 be
       -0.84978163 -0.7264159 0.12176649 -0.14847146
000040 08 45 50 3d d3 dc 7a 3e 26 20 a6 3e 49 1a c5 bf
       0.050847083 0.244983 0.32446402 -1.5398647
000050 5f a5 0f 3c 63 8a 3d bd 17 9d 1a 3f df 09 60 bf
       0.008767455 -0.046274554 0.6039595 -0.8751506
000060 4d 38 55 be 5d 5b d2 bc e4 cc 45 bf 79 6f a7 3e
       -0.20822258 -0.025678331 -0.77265763 0.32702234
000070 c2 ca bb 3e ba 4c 71 bb 9e fd bb be 98 6c ff be
       0.3667813 -0.0036819414 -0.36716932 -0.49887538
000080 b0 0c 04 3e 82 d3 94 bf f6 b1 0d 3f 7e 5d c2 be
       0.12895465 -1.1627047 0.5534967 -0.37961954
000090 22 38 92 3f a9 64 7d be dc 05 02 c0 a1 a8 e9 be
       1.142338 -0.2474543 -2.0316076 -0.45636466
0000a0 0d 49 5d bf 7a cc 2f 3f f9 76 0d be 1c 31 83 3f
       -0.8643959 0.6867138 -0.13814916 1.0249362
0000b0 92 63 e1 3e b4 1a ce be 7a ef 3e 3e 37 4b bf 3e
       0.4402128 -0.40254748 0.1864604 0.37362072
0000c0 e5 f3 a7 3e ae 82 31 bf 21 ba ef be 64 9d 24 be
       0.32803264 -0.69340026 -0.46821693 -0.16075665
0000d0 50 c3 aa bf 18 12 1c bf fe 1b 62 3f a8 b2 09 bf
       -1.3340855 -0.6096511 0.8832396 -0.5378823
0000e0 2e ab 76 3f 67 46 b0 be ba bf dc 3e 06 d4 3d 3f
       0.9635495 -0.34428713 0.43115026 0.7415165
0000f0 d6 24 ae 3b 56 a9 89 be 21 91 f0 bd ae cd bf bf
       0.00531445 -0.26887006 -0.11746431 -1.4984643
000100 8d 3e 4a c0 00 b6 29 bd 50 68 56 be 40 51 5c bf
       -3.1600678 -0.041433334 -0.2093823 -0.8606148
000110 cb 60 68 3e 8d fe 89 be ac 66 90 3d 5e 24 52 bd
       0.22693174 -0.2695202 0.07050833 -0.051304214
000120 19 53 5b 3e e8 7f 31 3e 4b dd 60 3e 78 f1 af bf
       0.21418418 0.17333949 0.21959417 -1.3745565
000130 b6 19 9b 3f 1a f2 a3 3f 34 f3 99 3d ad 6e cc bd
       1.2117221 1.2808259 0.075170904 -0.09982047
000140 00 7b 56 be 93 46 82 be fa b9 8d bd 92 60 46 bf
       -0.20945358 -0.2544447 -0.06920238 -0.77491105
000150 c1 f8 8a bd 16 48 a9 bd bc a4 1d bf b4 74 94 be
       -0.06785727 -0.082657024 -0.6157949 -0.28995287
000160 58 aa 26 3d 4e 45 f3 be 10 a3 29 3d 7a 9a 88 3e
       0.040689796 -0.47513813 0.041415274 0.26680356
000170 ed a2 c8 bd 72 95 3e be 4a 24 1d 3f 6b fa 66 40
       -0.097967006 -0.18611696 0.613835 3.6090343
000180 d8 32 1a bd 6d 72 b7 be 1f ad 27 be d3 3b 7e bd
       -0.037646145 -0.35829487 -0.16374634 -0.06206877
000190 27 11 84 3e 6a 66 21 3f 84 f9 20 3e 28 08 93 3e
       0.25794336 0.63046896 0.15720183 0.2871716
0001a0 eb 53 ba be 3e e2 6b bd c2 54 74 3f d4 44 31 3f
       -0.3639215 -0.05758881 0.9544183 0.6924565
0001b0 8a 6a 2a 3d 23 d1 72 bd e2 0f 0e 3f 26 3e eb bc
       0.04160551 -0.05928148 0.55492985 -0.028716158
0001c0 10 8f 2a 3f c4 2b 1d be d5 e7 43 3f b1 9b d6 3e
       0.66624546 -0.15348727 0.7652562 0.41915658
0001d0 d5 e6 a3 3d 9f 3b 02 bf fa 1e 85 3e b1 45 15 be
       0.08003012 -0.50872225 0.26000196 -0.14577366
0001e0 46 0e 39 3d c0 7c 87 3d c5 51 9e be 5f c8 53 3f
       0.045179628 0.06615591 -0.3092176 0.8272762
0001f0 33 c7 52 be 9e 51 ab be e6 49 0b be 32 92 f3 be
       -0.20583801 -0.33460706 -0.13602409 -0.47572476
000200 1c 6e 2a bb 04 57 64 be cc 53 5e be 95 cd 1c 3d
       -0.0026005572 -0.22298819 -0.21711653 0.038281996
000210 19 7f 85 3f 4c 14 93 3f b3 bd 94 bf ff 5e d1 be
       1.0429412 1.1490569 -1.1620392 -0.4089279
000220 f1 23 35 be 6e ea 43 3e 70 e8 84 bc 7b 43 31 bf
       -0.17689492 0.19132397 -0.016224116 -0.6924359
000230 d8 4e 8b bf be 2f 10 3e 05 c7 1f bf 2f de 41 bf
       -1.0883436 0.14080712 -0.62413055 -0.7572965
000240 08 b5 69 bf 8a ca 4d 3f b7 c3 02 bf 3a 58 d2 3e
       -0.91291857 0.80387175 -0.5107989 0.41082937
000250 8d cc a6 bc 6f 7e 2d 3e 67 41 67 3e db b4 45 3e
       -0.02036121 0.16942762 0.22583543 0.19307272
000260 24 d5 a8 ba 8d 4b d4 3f b5 55 8b 3e 76 27 b5 3e
       -0.0012880904 1.6585556 0.27213827 0.3538167
000270 53 ba 37 bf 46 f7 b1 3e d7 eb 67 bf 15 f6 bf bc
       -0.71768683 0.34758967 -0.9059424 -0.02343277
000280 9d 1a 01 bd 5a 32 9e bd 60 a7 01 3f 59 b2 94 bd
       -0.03151952 -0.077244475 0.5064602 -0.072605796
000290 8f f9 29 3f c6 3b f9 be 40 4c 93 be b9 72 d1 3c
       0.6639642 -0.48678416 -0.28769112 0.0255674
0002a0 18 df 66 3f 15 7c 13 3d a2 0c 2f bd 77 91 b1 bf
       0.90184164 0.036007006 -0.042736657 -1.3872517
0002b0 75 67 1b 40 b2 bc b1 bf e0 71 89 bd 58 e2 b6 be
       2.4281895 -1.388571 -0.06711173 -0.35719562
0002c0 39 68 e5 be 04 1a 29 3d bd ec 84 3e 8e c3 d9 bc
       -0.44806078 0.041284576 0.25961867 -0.026582506
0002d0 d7 3e 9f 3e 60 83 36 3e 2c dd 18 be 9c c1 78 be
       0.3110263 0.17823553 -0.1492812 -0.24292606
0002e0 47 e6 ce 3e 68 1a 38 bf 59 14 dd be 5d ef 9e bd
       0.40410063 -0.7191529 -0.43179587 -0.07760499
0002f0 ad 92 aa be af e6 9c bd 0f 63 f4 bd 2f af 62 be
       -0.3331503 -0.07661187 -0.119329564 -0.2213714
000300 93 a0 2d bf 86 95 d1 be f1 1c 89 bf b1 ee 2a be
       -0.6782314 -0.4093439 -1.0711957 -0.16692616
000310 25 ba 15 3e 91 ae 5e be 07 6b b1 bc ee d5 df bd
       0.1462179 -0.2174628 -0.02165748 -0.10929476
000320 0a 63 22 3f b5 af 8d bf 27 d8 2b 3d 4d 88 cd 3c
       0.6343237 -1.1069247 0.041954186 0.025089407
000330 98 24 7f be 93 5e 51 bf 6b f3 29 bd e6 7b aa 3d
       -0.24916303 -0.81784934 -0.041491907 0.08324413
000340 ab ae 21 3f 85 92 55 bd 3a c5 86 3e cf 2d 28 3d
       0.6315715 -0.052141685 0.26322347 0.04105931
000350 ce fb 03 3f 47 35 be 3d d5 41 25 bc 3b bf 14 3f
       0.515561 0.092875056 -0.010086496 0.58104295
000360 b6 b6 50 bd 0f 50 e4 3e 41 2a c9 3e 3c ac 31 3c
       -0.050955497 0.4459233 0.3929005 0.0108442865
000370 f2 e1 0b be f2 86 20 3f d7 a3 53 bf 18 fb 69 3e
       -0.1366041 0.6270591 -0.82671875 0.22849691
000380 78 0c 16 3f 73 3e b6 3f d6 40 a1 3d ff dc 2b 3e
       0.58612776 1.4237808 0.078736946 0.16783522
000390 39 40 21 3f 92 0f b2 bd 19 0d 81 be d8 63 2f be
       0.6298862 -0.08694376 -0.25205305 -0.17127931
0003a0 b0 53 10 be 8c 13 b3 be 0f f0 3d 3f 3d 8e d9 bd
       -0.14094424 -0.3497585 0.74194425 -0.10622833
0003b0 26 c5 18 3f 63 10 c6 3d a5 81 d8 be 39 02 9d 3f
       0.59675825 0.09671094 -0.4228641 1.2266303
0003c0 e3 ce 4b bf f2 27 15 bf ce ad 12 be 78 23 60 be
       -0.7961256 -0.58264077 -0.14324114 -0.2188853
0003d0 f2 b9 1e 3f c6 72 26 3e da a8 a3 be b0 12 63 be
       0.6200248 0.1625472 -0.3196476 -0.22175097
0003e0 5d 1f 4a bf 83 64 3e 3d 99 21 86 3f b3 62 17 3f
       -0.78954107 0.046482574 1.0479003 0.5913498
0003f0 04 7d 7e 3e 40 d5 9f 3e e3 b9 72 3b c1 3f dd bf
       0.24852377 0.31217384 0.0037037067 -1.7285081

fc3.bias f4 [128]
000000 22 5b 8c be 39 39 7f bf fe 4b 0c bf 6d 77 2c bf
       -0.2741328 -0.9969669 -0.54803455 -0.6736973
000010 ed 72 0b bf bc 3f 16 bd f8 ae 0e bf 68 5d 23 bf
       -0.5447224 -0.036681876 -0.5573573 -0.638144
000020 78 ad a6 3e 3f a2 1c 3f a3 d1 1a 3f af 75 67 bf
       0.3255422 0.6118507 0.6047613 -0.90413946
000030 3d 0a 6b bf e0 28 46 bf db ee bb 3e 6b b5 fc be
       -0.918125 -0.7740612 0.3670567 -0.4935716
000040 04 af 7c bf bb 0e 23 bf 06 65 03 3f 97 15 ea 3e
       -0.9870455 -0.6369435 0.51326025 0.45719597
000050 2c 6f f3 3e 65 18 21 bf 31 43 93 3f fc 49 37 bf
       0.47545755 -0.6292785 1.150488 -0.71597266
000060 a1 a4 7c be 4c b5 52 bf b4 84 a8 be db 75 ec be
       -0.24672176 -0.8230789 -0.32913744 -0.46183667
000070 e4 bf 46 bf 56 2a 7e be 65 8a ce be df 29 a3 bd
       -0.7763655 -0.24820837 -0.40339962 -0.07966971
000080 d3 80 ce be f9 68 43 be ab 09 6c bf c0 8c 81 bc
       -0.4033266 -0.19083013 -0.9220225 -0.015814185
000090 a2 5c e8 be e3 9a 69 be cd 4c 09 be 04 fd 89 bf
       -0.45383173 -0.22812991 -0.13408203 -1.0780339
0000a0 38 21 31 bf 54 06 39 bf 18 9e ff be 53 a0 8c bf
       -0.6919131 -0.7227528 -0.49925303 -1.0986427
0000b0 1b 45 c2 be 36 74 06 bf c1 86 82 bf 9a 7f 44 bf
       -0.37943348 -0.52521074 -1.0197374 -0.76757205
0000c0 5f f5 47 3f 1f a1 97 be 52 26 4f bf 82 b0 b0 be
       0.7810878 -0.29615113 -0.8091785 -0.34509665
0000d0 10 3b 07 bf 18 c6 00 bf 2d e8 69 bf 4d c7 67 bf
       -0.528245 -0.5030227 -0.913699 -0.90538484
0000e0 9b 7c 3c bf 2f 8c 46 be c1 2e 52 be 0e 70 56 bf
       -0.7362763 -0.19389413 -0.20525648 -0.8376473
0000f0 4a 7b ec bd ca 28 46 bf 16 1a 5d 3e ce ad da be
       -0.11546953 -0.7740599 0.21591982 -0.42710727
000100 99 d3 5d be 22 20 42 bf 49 77 cf be 06 af 16 3f
       -0.2166275 -0.7583028 -0.40520695 0.58860815
000110 1d 3b 84 bf a9 84 ad 3d 00 38 24 3f fc 81 f0 be
       -1.033054 0.084725685 0.6414795 -0.4697417
000120 92 eb e1 be c8 c4 04 bf c8 e3 cf 3d 99 de af bb
       -0.44125038 -0.51862764 0.10150868 -0.005367112
000130 cc 11 09 bf ad 22 21 bf 1a e7 95 be 01 3e 58 bf
       -0.5354278 -0.62943536 -0.2927788 -0.8446961
000140 15 b7 6b be ac 83 ad be a1 00 44 bf d7 33 08 3f
       -0.23019059 -0.3388952 -0.7656346 0.532041
000150 29 01 d4 be a8 d9 d8 be ea 7f 27 3f f2 23 81 be
       -0.41407135 -0.4235356 0.65429556 -0.25222737
000160 48 71 7f bf 02 5a c9 3e 29 2d 3a be 39 64 3c bf
       -0.9978223 0.39326483 -0.1818129 -0.7359043
000170 77 72 00 bf 87 4b 0c 3f 9f c2 7c bf 95 d7 22 bf
       -0.5017466 0.54802746 -0.9873447 -0.636102
000180 95 f4 c3 3b 9a e6 11 bf 01 52 89 bf b8 9e 6e bf
       0.005980084 -0.56992495 -1.0728151 -0.93210936
000190 89 51 37 bf b7 ab 6d bf 7c bb 66 be 32 e6 d4 3e
       -0.7160879 -0.9284014 -0.22532457 0.41581875
0001a0 c8 5b 2c bf 9d 35 3b 3d 7d ea 7e be 65 f4 8b 3f
       -0.6732755 0.045705426 -0.24894138 1.0933958
0001b0 18 84 62 bf a3 16 10 3f 18 49 45 be d5 f3 fd be
       -0.8848281 0.5628454 -0.19266164 -0.49600092
0001c0 07 be be be d9 f7 f4 3e bf 3a c1 3c 93 ea 51 bf
       -0.37254354 0.47845343 0.023587583 -0.81998557
0001d0 e8 33 50 bf 3d 57 29 bf 52 17 14 3f f9 d7 3f 3e
       -0.813292 -0.6614874 0.57848084 0.18734731
0001e0 76 6c 98 3e ee 0b 48 3f 2a be 8d be 7f c7 e7 3e
       0.2977025 0.78143203 -0.27684146 0.4526939
0001f0 37 95 3c bf 37 dc 89 3f 28 29 70 bf 82 75 35 bf
       -0.73665184 1.0770329 -0.938128 -0.7088243

fc4.weight f4 [4, 128]
000000 56 3e 35 bd e1 8c b3 3d 58 b5 cc 3d 2d 3f b1 bd
       -0.0442489 0.08767105 0.09995526 -0.08654628
000010 4c 4a a2 be c3 d0 68 bc 3c f2 1d 3f 75 ea fd bd
       -0.3169731 -0.014209929 0.61697745 -0.12398235
000020 fa 84 8c 3e 9d 98 8e 3f eb a3 83 3f b5 fb ec 3e
       0.27445203 1.1140324 1.0284399 0.46285787
000030 51 f1 0a 3e 82 5f ac 3e c2 52 72 3f 6a 7b ae 3f
       0.13568617 0.33666617 0.9465753 1.3631413
000040 09 9d ce bd 37 e5 4f 3f cb b0 86 3f 64 28 8f 3f
       -0.10088546 0.8120913 1.0522703 1.1184201
000050 b1 d7 76 3f 24 af 26 3f c3 10 93 3f 38 86 80 3e
       0.9642287 0.65110993 1.148949 0.251024
000060 be ea 44 3f d1 11 92 3f d9 3d e9 3e c1 e0 e5 3f
       0.7692069 1.1411687 0.45555 1.7959214
000070 2c bf 9e bd 97 b5 b6 3f e8 e0 1f 3f da c0 a9 3f
       -0.07751307 1.4274167 0.62452555 1.3261979
000080 ec f6 d4 bd 69 9b 71 3f 84 4a 38 be 82 dc 21 3f
       -0.10398659 0.9437776 -0.17997175 0.63227093
000090 66 71 d6 3e 66 7e 8a 3f 05 d6 ba 3e 0f 37 f4 3e
       0.4188339 1.0819824 0.3649141 0.47698256
0000a0 fa c3 f4 bf 46 1d 9c 3e 20 66 95 3f 94 b0 e9 3d
       -1.9122307 0.30491084 1.1671791 0.11410633
0000b0 66 20 b1 3e 5a 07 2a 3f 90 1e 06 be 87 48 73 3f
       0.3459503 0.6641747 -0.13097596 0.9503254
0000c0 5f 3f 65 3f 6e 6a 9a 3e b2 d8 24 be a4 b4 e3 bf
       0.8954982 0.30159324 -0.16098288 -1.7789502
0000d0 2e 8b 3c 3f c7 9a 8e 3e 38 fb 52 3f 2c 2c cd ba
       0.7364987 0.2785246 0.8241458 -0.0015653423
0000e0 d8 14 94 3f a6 aa 9b 3e 73 61 a1 3f 07 11 50 bf
       1.1568861 0.30403632 1.2607864 -0.8127598
0000f0 2c 8b 79 3f 5b 5f 0d 3f d0 3f 36 3f 8a e9 1d 3f
       0.97477984 0.55223626 0.7119112 0.6168448
000100 90 61 2a 3f fb 6b 41 3f ae 02 4a c0 33 5e 8f 3f
       0.6655512 0.7555539 -3.1564136 1.1200622
000110 3c e0 ec 3e 9e 6e c4 3f 41 11 89 3f f3 94 28 3f
       0.46264827 1.5346258 1.070839 0.6585228
000120 ea e9 d9 3e 42 0a 31 3e 7f 07 7f 3f 8e b5 6a 3f
       0.42561275 0.1728907 0.99620813 0.9168328
000130 8f 12 08 3f 94 fd e0 3e 54 6f 38 3f 7f b6 35 3f
       0.5315332 0.43943465 0.72044873 0.7098159
000140 ae d6 05 3f 28 fa 53 bf d2 16 3e 3f 2d ec 87 3f
       0.522807 -0.82803583 0.7425357 1.061895
000150 66 bc f2 3e 63 fb 99 c0 25 6c 77 3f 93 3c e0 3e
       0.47409362 -4.811937 0.9664939 0.43796214
000160 15 ae 05 3e f1 0c 86 3f 7f 54 b1 3f f7 c3 91 3f
       0.13054688 1.0472699 1.3853911 1.1387929
000170 79 c7 94 3f 0e 3c 89 3f 6c c0 a2 3f ef b8 56 3f
       1.1623374 1.0721452 1.2714972 0.83875936
000180 d5 cb 71 3f 0d 4f 49 3f 88 3c 1d 3f 56 87 5d bd
       0.9445165 0.78636247 0.6142049 -0.054084145
000190 9f 10 f4 3e 33 6f 00 3e fc b7 a6 3e c9 c7 9c 3f
       0.4766893 0.12542419 0.32562244 1.224847
0001a0 bb c4 a2 3e 00 ce f2 be 87 81 b5 3e ba 88 b1 3f
       0.31790718 -0.4742279 0.35450384 1.3869851
0001b0 a2 1d a6 bd a8 c8 88 3f 07 87 95 3f 56 29 f8 3e
       -0.08111121 1.0686235 1.1681832 0.48469037
0001c0 26 1b 39 c0 1d 1f 80 3f a7 fa 84 be 9c 2d 0e 3e
       -2.892282 1.0009495 -0.25972483 0.13884586
0001d0 08 76 0d 3f 65 82 73 3f 55 95 8d 3f 14 64 c9 3f
       0.55258226 0.9512084 1.1061198 1.5733666
0001e0 85 27 99 3f ec 30 8a 3f 58 08 c4 3f 3f 50 84 3f
       1.1965185 1.079618 1.5315046 1.0336989
0001f0 4f ce aa 3e a8 e6 ca 3f ed e5 50 be a4 38 20 3f
       0.33360526 1.5851641 -0.2040021 0.62586427
000200 64 de 70 3e 09 b5 26 3e ae 0a ed 3c 03 b2 0e bd
       0.23522335 0.16279997 0.028935757 -0.034837734
000210 d2 12 9b 3d ee 9d 72 bd 20 04 20 3f 52 95 50 bf
       0.07571949 -0.059232645 0.62506294 -0.81477845
000220 41 29 2a 3f 19 69 a0 3f ef ee 8e 3f 70 57 0d 3f
       0.664692 1.2532073 1.1166667 0.55211544
000230 ae 17 3f be f7 08 db bd 05 b7 87 3f 2b 3b 59 3f
       -0.18661377 -0.10695069 1.0602728 0.8485591
000240 e3 81 9e 3d f6 dd 2e 3f 65 8f 8a 3f 0e 0c 90 3f
       0.07739618 0.68307436 1.082501 1.1253679
000250 d1 00 8b 3f b8 2e 26 3f 14 d7 ae 3f 46 b9 fe 3d
       1.0859624 0.6491504 1.3659387 0.12437682
000260 4f 4c 85 3f 16 8b 66 3f 4b e4 4d 3f a8 c4 9f 3f
       1.0413913 0.9005598 0.8042647 1.248189
000270 27 07 46 3d 32 3e 35 3f 4b 6b 06 3f d7 0c b4 3f
       0.048346665 0.7079803 0.52507466 1.4066418
000280 39 1d 86 3e f6 58 73 3f 03 5e 90 3e c3 d6 a2 3e
       0.2619417 0.9505762 0.28196725 0.31804475
000290 85 ff 5f 3f 49 45 91 3f 9f 06 f4 3e 74 8f 29 be
       0.87499267 1.1349269 0.47661301 -0.1655863
0002a0 f7 a0 8c c0 9d 19 86 3f 36 90 cb be 6e 68 16 3e
       -4.394649 1.0476567 -0.39758462 0.14688274
0002b0 8e 56 f1 3e 01 82 cb 3e 87 53 be 3d 1f 74 3b 3f
       0.47136348 0.39747623 0.09293275 0.7322406
0002c0 0b e5 88 3f 82 e2 ba 3e 96 25 09 bc 63 19 05 3f
       1.0694898 0.36500937 -0.008370778 0.5199186
0002d0 b7 2c c7 3e b5 07 b5 3e 80 84 53 3f 63 3a 86 3c
       0.38901302 0.35357442 0.82624054 0.016385263
0002e0 d0 8d 80 3f 7a c3 f7 3b ba 68 87 3f f6 6d 8c bf
       1.0043278 0.0075611444 1.0578835 -1.0971057
0002f0 ec 4f 41 3f 28 d1 75 3f 43 35 c9 bd 82 f2 c9 3e
       0.75512576 0.9602227 -0.09824612 0.3944283
000300 24 4d 2b 3f bf 79 1a 3f 4e 9e 4f c0 44 7c 88 3f
       0.6691458 0.6034202 -3.2440372 1.0662923
000310 ac bd 69 3f 93 e9 1a 3f b5 58 8e 3f 56 25 31 3f
       0.9130504 0.60512656 1.1120821 0.69197595
000320 81 d0 3f 3f b7 94 fc 3d ad 53 5d 3f dd fe a5 3f
       0.74927527 0.123330526 0.86455804 1.2968403
000330 d5 df c0 3e f4 34 6b 3e 96 b4 8b 3f 68 82 03 3f
       0.3767077 0.22969419 1.0914485 0.5137086
000340 4f 39 60 3f ea 99 45 3f 9b 1b 23 3f d1 34 89 3f
       0.87587446 0.7718798 0.63714 1.0719243
000350 a5 27 2c 3f 3b 66 92 c0 e8 b1 97 3f 12 fa 3a 3f
       0.6724799 -4.5749793 1.1851168 0.73037827
000360 17 32 c0 3d 45 bf 91 3f 8e 94 b8 3f ee 40 ac 3f
       0.09384554 1.1386496 1.4420335 1.3457315
000370 55 66 79 3f 4f 25 89 3f f5 f7 88 3f 88 98 48 3f
       0.9742177 1.0714511 1.070067 0.78357744
000380 2d 82 69 3f 2f 75 07 3f a6 d5 89 3f db 01 89 bf
       0.9121426 0.5291318 1.0768325 -1.0703691
000390 64 68 49 3f a4 00 f4 3c 8e 9e 26 3f 10 4e a3 3f
       0.7867491 0.029785462 0.65085685 1.2758198
0003a0 76 5b 4d 3f bb aa 4a 3e a0 12 3f 3f 57 df ae 3f
       0.80217683 0.19791691 0.74637794 1.3661908
0003b0 56 95 84 3e b8 18 8b 3f 45 cb 08 3f 35 51 b4 3f
       0.25895184 1.0866919 0.53435165 1.4087282
0003c0 08 3c 3b c0 aa a1 88 3f de 46 7c 3e ec 1e 7f 3f
       -2.925539 1.0674336 0.24636409 0.9965656
0003d0 ee 94 e1 3e 6e 21 a1 3f 04 61 8d 3f 0a c6 d8 3f
       0.44058937 1.2588327 1.1045232 1.6935437
0003e0 82 ef 28 3f 4a 56 8b 3f 3a 31 53 3f 94 e9 87 3f
       0.6599046 1.0885708 0.8249699 1.0618157
0003f0 58 8e 18 3f 4e a9 d2 3f 48 f4 9e 3f 88 53 05 3d
       0.595922 1.6457918 1.2418299 0.032550365

fc4.bias f4 [4]
000000 07 0b 98 3f 43 db 90 3f c4 cc 8d 3f bf 65 92 3f
       1.1878365 1.1316913 1.1078115 1.14373
