trained_models/checkpoint_ep9200.pth (torch, 75436 bytes, 6 tensors)

fc1.weight f4 [128, 8]
0	0xbe26400a	-0.16235366
1	0xbe88658e	-0.2663998
2	0x3e4de5d2	0.201072
3	0xbe910469	-0.28323677
4	0xbe2f68a6	-0.17129764
5	0xbd331d58	-0.043729156
6	0x3e1e2d72	0.15447024
7	0x3ea14ebf	0.3150539
8	0x40f83323	7.7562423
9	0x4010586c	2.2553968
10	0x40643940	3.5659943
11	0x40fdf924	7.9366627
12	0x4019c46d	2.4026139
13	0xbed7777e	-0.42083353
14	0x409ff1ed	4.998282
15	0x4001ce05	2.0281994
16	0x40d28304	6.578493
17	0x3ed85871	0.42254975
18	0x3ed84e45	0.42247215
19	0x413ecd91	11.925187
20	0x3e8b43e2	0.27200228
21	0xbfab1204	-1.3364873
22	0x40b0e91f	5.528457
23	0x3e8a756d	0.27042714
24	0x40f4968a	7.6433764
25	0x3f9a4102	1.2051089
26	0x40943e8d	4.6326356
27	0x40f8e336	7.7777357
28	0x3f8803ec	1.0626197
29	0xbf9eb0e9	-1.2397739
30	0x40ad93f6	5.4243116
31	0x3f3ba204	0.7329409
32	0x40c1de0b	6.058355
33	0x3e85c34f	0.2612557
34	0xbffc0d09	-1.9691478
35	0x41496a5a	12.588465
36	0xbd89f2d1	-0.06735767
37	0xbf6a495a	-0.91518176
38	0x40b44487	5.633365
39	0xbd4149cb	-0.047189515
40	0x40f28d65	7.57976
41	0xbd591512	-0.05299861
42	0x409c27f5	4.8798776
43	0x40eb5979	7.354672
44	0x3e8b4a45	0.272051
45	0xbfaedaf1	-1.3660566
46	0x40bb4074	5.851618
47	0x3e89e2cf	0.26930854
48	0x3e497472	0.19673327
49	0xbe1b4cd0	-0.1516602
50	0x3e679102	0.2261391
51	0xbe2264e5	-0.158588
52	0xbea9e25a	-0.33180505
53	0xbe4a5aff	-0.19761275
54	0x3eac4a35	0.33650365
55	0xbe9d9fd9	-0.30786017
56	0xbe62469b	-0.22097246
57	0x3d9deda4	0.07711342
58	0x3e05bf9a	0.13061371
59	0x3d9fa5c0	0.07795286
60	0xbe7423fa	-0.23841849
61	0xbe89824b	-0.26857218
62	0xbe5d2b30	-0.21598506
63	0x3c8404f0	0.016115636
64	0xc0be5214	-5.9475193
65	0x3fc98a5b	1.5745348
66	0xbf8aa19d	-1.083057
67	0xc093f8db	-4.624128
68	0x3f86d21b	1.0532869
69	0x4013f4aa	2.311808
70	0xc0ad7199	-5.420117
71	0x3f986d2a	1.1908314
72	0x40df99c2	6.9875193
73	0x3ea2170a	0.31658202
74	0x402b2e9c	2.6747198
75	0x414e7e87	12.90589
76	0x3e9167aa	0.28399402
77	0xbf878730	-1.0588131
78	0x40b9c914	5.8057957
79	0x3e68be43	0.22728829
80	0x40ef87b1	7.485314
81	0x3ec09df8	0.3762052
82	0x4090441a	4.508313
83	0x4141ba84	12.108036
84	0x3f11b0ca	0.56910384
85	0xbfe0a2fc	-1.7549739
86	0x4092cf96	4.58784
87	0x3de2c29a	0.110722736
88	0xc0cf6d7c	-6.482115
89	0x3faf6df3	1.3705429
90	0xbf6680ad	-0.90040094
91	0xc09e2669	-4.9421887
92	0x3fb5a42d	1.4190727
93	0x402352df	2.551933
94	0xc0b9ec56	-5.8100996
95	0x3f9e3182	1.2358859
96	0x40f40be3	7.626451
97	0x3fad6d0e	1.3548906
98	0x40866607	4.1999545
99	0x41108b47	9.034003
100	0x3fa4bdd5	1.2870432
101	0xbf05b093	-0.52222556
102	0x40b18cf7	5.5484576
103	0x3fa64616	1.2990139
104	0x409665d9	4.6999326
105	0x3e190d4d	0.1494648
106	0x404c3bea	3.1911569
107	0xc10038f0	-8.013901
108	0x3e5142b2	0.20435598
109	0xbf1c16f9	-0.60972553
110	0x40b68dbc	5.7048016
111	0x3d73f021	0.059555177
112	0x40e737b8	7.2255516
113	0x3f50b7e0	0.8153057
114	0x408d3b98	4.4135246
115	0x4108f275	8.559194
116	0x3fbf096b	1.4924749
117	0xbf1bd6b7	-0.60874504
118	0x40a8bca8	5.2730293
119	0x3f6b3ef0	0.9189291
120	0xc0c2a688	-6.0828285
121	0x3fbb7cfc	1.4647517
122	0xbf86ee7b	-1.0541528
123	0xc0964263	-4.695604
124	0x3fc398b0	1.5280972
125	0x40218ccb	2.5242183
126	0xc0b47928	-5.6397896
127	0x3fd2767e	1.6442411
128	0xc0abe2da	-5.371442
129	0x3fd316db	1.649135
130	0xbfba7995	-1.4568354
131	0xc0b39bf2	-5.6127863
132	0x3fb81136	1.4380252
133	0x3ff4a585	1.9113013
134	0xc0b50e31	-5.6579823
135	0x3fda0690	1.7033253
136	0xbe22b9f2	-0.15891245
137	0xbe1059aa	-0.14096704
138	0xbe7a004a	-0.24414173
139	0x3e911b9d	0.2834138
140	0xbe693cf5	-0.2277716
141	0xbe32faaa	-0.17478433
142	0xbdbec214	-0.09314361
143	0x3da025bc	0.07819697
144	0x3db98c1a	0.090599254
145	0xbeb59ca1	-0.3547106
146	0x3cae6a7e	0.021291014
147	0xbe99dec9	-0.30052784
148	0x3dd8831a	0.10571881
149	0xbdeb6db5	-0.11495534
150	0x3e82e364	0.2556411
151	0xbe265c39	-0.16246118
152	0xbe1c966f	-0.15291761
153	0xbe8dff34	-0.27733767
154	0x3e997879	0.29974726
155	0xbdd568ba	-0.10420366
156	0xbea9f2d1	-0.33193067
157	0xbdab1060	-0.08352733
158	0xbdf22f90	-0.11825478
159	0x3e7874f6	0.24263367
160	0x40eb43a3	7.3520064
161	0x3d8b8cd8	0.06813973
162	0x40b4b2b6	5.6468153
163	0x3fd2a2de	1.6455953
164	0x3eda7d7a	0.42673856
165	0xbfcd478d	-1.603746
166	0x40bc6765	5.8876214
167	0x3efec0c9	0.49756458
168	0xbe821fab	-0.25414786
169	0xbc681840	-0.014165938
170	0xbde631a8	-0.1123994
171	0xbeaa7599	-0.33292845
172	0xbe05b3e7	-0.13056909
173	0xbe1364b5	-0.14393885
174	0xbe2a7d62	-0.16649392
175	0x3d7616c8	0.06008032
176	0x40bd664d	5.918738
177	0x3e79dd06	0.2440072
178	0x402f80c9	2.7422354
179	0x4148e4a9	12.555825
180	0x3d5b9a6f	0.053614076
181	0xbf7ec672	-0.99521554
182	0x40b88d79	5.7672696
183	0x3e4a3f67	0.19750749
184	0xc0d466c5	-6.637545
185	0x3ff20d48	1.8910303
186	0xbf85f7ba	-1.0466225
187	0xc09792d0	-4.7366714
188	0x3fc9b7a4	1.5759168
189	0x402067a5	2.506326
190	0xc0c04b3b	-6.0091834
191	0x3fac87c3	1.3478931
192	0x40e13609	7.037846
193	0x3fb257b3	1.3933014
194	0x408d0b0c	4.4075985
195	0x410c9584	8.786503
196	0x3ff0da19	1.8816558
197	0xbe6464a9	-0.22304024
198	0x40a9f684	5.3113422
199	0x3faed46d	1.3658577
200	0x40e92cae	7.286704
201	0x3f131471	0.57453066
202	0x408da076	4.4258375
203	0x411ed5d5	9.927205
204	0x3f1e00d7	0.6172003
205	0xbf91afbb	-1.1381754
206	0x40adfdf1	5.4372487
207	0x3f4a7d41	0.7909737
208	0x40c4608a	6.1367846
209	0x409bccff	4.868774
210	0x40253dd4	2.5818987
211	0x41174b24	9.455845
212	0x409e3a9f	4.944656
213	0x402ea53c	2.728835
214	0x408facfc	4.4898663
215	0x409456e5	4.6356072
216	0x40d5cba7	6.68111
217	0x3f969aa4	1.1765943
218	0x4094ef5b	4.654218
219	0x410c32f8	8.762444
220	0x3fb5093f	1.4143447
221	0xbed448bd	-0.41461745
222	0x40a986ba	5.297696
223	0x3fd02e5e	1.626415
224	0xbe3679a1	-0.17819835
225	0xbe11a95a	-0.14224759
226	0xbdb9a8d8	-0.090654075
227	0x3e65ed3e	0.22453782
228	0xbc1a0b00	-0.009402037
229	0xbea7ad1c	-0.3274926
230	0xbd165e30	-0.036710918
231	0xbea47ed5	-0.32128015
232	0x40c10ec5	6.033053
233	0x3dd9f4dd	0.10642407
234	0x4093be2e	4.6169653
235	0xc0e6f120	-7.216934
236	0x3ed94976	0.4243886
237	0xbf9ff136	-1.2495487
238	0x40bd3a62	5.913377
239	0x3d53cb2a	0.051707424
240	0x40ea2da6	7.3180723
241	0xbce55802	-0.027996067
242	0x40b8d32e	5.775779
243	0x40b3c277	5.6174884
244	0x3eab28bb	0.33429512
245	0xbfa0bb97	-1.2557248
246	0x40bdd0c3	5.9317336
247	0x3dcdc297	0.10046881
248	0x40d1b787	6.5536532
249	0x3dcb2797	0.099196605
250	0x3f14b501	0.5808869
251	0x41463278	12.387321
252	0x3f127591	0.5721064
253	0xbfa331c3	-1.2749561
254	0x40b83036	5.755885
255	0x3ee73c59	0.4516323

fc1.bias f4 [128]
0	0x3ca88e10	0.020575553
1	0x3ff09205	1.8794562
2	0x3d63b21f	0.05558979
3	0x3fac6da2	1.3470957
4	0x3eb367d4	0.35040152
5	0x3eedfd0f	0.4648213
6	0x3d04ba08	0.032403976
7	0xbe4a40e0	-0.1975131
8	0x3fd5a258	1.6690168
9	0xbd7730fb	-0.060349446
10	0x3e0c2e75	0.13689597
11	0x3fe1e7af	1.7648829
12	0x3fa504de	1.289211
13	0xbd357357	-0.04429945
14	0x3fcb2f70	1.5873852
15	0x3f997355	1.1988322
16	0x3fda6001	1.7060548
17	0x3db4ab08	0.08821684
18	0xbd330e23	-0.043714654
19	0xbeaf2777	-0.34209797
20	0x3e9973e2	0.29971224
21	0xbe4da93f	-0.20084094
22	0x3e68a5d2	0.22719505
23	0x3f9987ca	1.1994565
24	0x3fe621f2	1.7979109
25	0x3ef56a6e	0.47932762
26	0x409c1fd1	4.878884
27	0x3fada120	1.3564796
28	0xbdd35938	-0.103197515
29	0x3e5c4e7a	0.21514311
30	0x3ebdf36f	0.37099788
31	0xbd797f12	-0.0609122
32	0x3f8d921f	1.1060218
33	0x3c4b0a53	0.012392598
34	0xbe862142	-0.2619725
35	0x3f885609	1.0651256
36	0x3fcbfe3d	1.5936962
37	0x3f19949d	0.5999239
38	0xbe5a4bf9	-0.21318044
39	0x3e041457	0.12898384
40	0x3f901c8c	1.1258712
41	0x3e361271	0.17780472
42	0x3e9dde5b	0.30833706
43	0x3f99bfcf	1.201166
44	0xbe86bf9c	-0.2631806
45	0x3f6066b4	0.8765671
46	0x3d743c40	0.05962777
47	0x3fad6ede	1.3549459
48	0x3fc66994	1.550097
49	0x3e45ef4a	0.19329563
50	0x3dedcf61	0.1161182
51	0x3d1bf0b0	0.038071334
52	0x3fd3b34e	1.6539094
53	0x3fcb3f57	1.5878705
54	0x3e3234bd	0.1740293
55	0x3fb09ef8	1.3798513
56	0x3cccd559	0.025004076
57	0x3fb9b23e	1.450752
58	0x3fdb4e04	1.7133183
59	0x3fa066fb	1.2531427
60	0x3dd5d5bb	0.104411565
61	0x3fc40768	1.531476
62	0xbea9013a	-0.33008748
63	0x3e5f45fe	0.21804044
64	0x40becb60	5.962326
65	0x3fc598f6	1.5437305
66	0x3e580970	0.2109735
67	0x400b2009	2.1738303
68	0x3d054225	0.032533783
69	0x3f08cf9e	0.534418
70	0x400c60f5	2.1934178
71	0x3f9dfd49	1.2342921
72	0x3f957218	1.1675444
73	0x3f2837a8	0.65709925
74	0x3ebbe5b6	0.36698693
75	0x3e8119ae	0.25214905
76	0x3eb31020	0.3497324
77	0x4003482a	2.0512795
78	0x402763f3	2.6154754
79	0x3f99b1ba	1.2007363
80	0x3faf6882	1.3703768
81	0x3d68b330	0.05681151
82	0xbe408b60	-0.18803167
83	0xbe0a9e69	-0.13536991
84	0x3e0c3a2c	0.13694066
85	0x3e0306d7	0.12795578
86	0x3f8bba6f	1.091627
87	0x3f80e248	1.0069056
88	0x3f96a381	1.1768647
89	0x3ea7fdeb	0.32810912
90	0x3f0d85d0	0.55282307
91	0xbe5b4992	-0.21414784
92	0x3f31c1fa	0.6943661
93	0x3edab2c5	0.42714515
94	0x3e73a04a	0.23791614
95	0x3f8c5adc	1.0965228
96	0x3fd2cb4d	1.6468292
97	0xbdc46d48	-0.09591156
98	0x3f6bfd20	0.92183113
99	0x3ef8c26c	0.48585832
100	0x3e39d0ba	0.18146029
101	0xbe7a217a	-0.24426833
102	0xbe879afd	-0.26485434
103	0x3f9f6a77	1.2454365
104	0x3f694966	0.9112762
105	0x40ba6184	5.824404
106	0x3fdaa8c3	1.7082752
107	0x3f93ddf4	1.155211
108	0xbd44d923	-0.04805864
109	0xbe851891	-0.25995305
110	0xbe2a91e3	-0.16657214
111	0x3f77523a	0.9660984
112	0x3e5ef896	0.21774516
113	0x3fdc8885	1.7229162
114	0x3fb3d5f6	1.4049671
115	0x3e1e2434	0.15443498
116	0xbdac2760	-0.08405948
117	0xbe430c17	-0.1904758
118	0xbe507a55	-0.20359166
119	0xbc7279c0	-0.014799535
120	0x4005c46c	2.0901136
121	0x3f3a4f79	0.72777516
122	0x3d03f864	0.032219306
123	0x3f1f82c5	0.62308913
124	0x3f768992	0.96303666
125	0x3f13e482	0.5777055
126	0x40109c83	2.2595527
127	0x3f5dc807	0.8663334

fc2.weight f4 [128, 128]
0	0xbd82f862	-0.063950315
1	0xbd96f58d	-0.07371054
2	0x3a88b2c0	0.0010429248
3	0xbd7db984	-0.0619445
4	0xbdbda254	-0.09259477
5	0xbd0d9678	-0.034567326
6	0xbd97cf19	-0.074125476
7	0x3da8f783	0.08250334
8	0x3d4d04fe	0.05005359
9	0xbd5ebc42	-0.054378755
10	0xbd00c8a6	-0.031441353
11	0x3d6952c8	0.056963712
12	0x3c5df264	0.01354656
13	0x3d825ca5	0.06365327
14	0xbd60a72f	-0.05484694
15	0x3cf96160	0.03044194
16	0xbda3f96d	-0.080065586
17	0x3d34c076	0.044128858
18	0x3cfc70d0	0.030815512
19	0x3cedf574	0.029047705
20	0x3d0a6a92	0.03379304
21	0x3c1c7e10	0.00955154
22	0x3af54390	0.0018712152
23	0x3bbbf9d9	0.0057365713
24	0xbc454b86	-0.012041932
25	0xbdaaa585	-0.083323516
26	0x3ce2015e	0.027588543
27	0xbd6c5fb6	-0.057708465
28	0xbd4e0c58	-0.05030474
29	0xb91c9400	-0.00014932454
30	0x3d5ceeaa	0.053938545
31	0xbd8f2d5b	-0.06991073
32	0xbd454b83	-0.048167717
33	0x3d1ad2da	0.03779874
34	0xbc845ea8	-0.016158417
35	0xbd521f78	-0.051299542
36	0x3d6de279	0.05807731
37	0x3cfb7e36	0.03069983
38	0xbdaf623b	-0.08563658
39	0xbd54d173	-0.05195756
40	0xbd556ff6	-0.052108727
41	0xbd907ec2	-0.07055427
42	0x3cdaef10	0.026725322
43	0x3d856cd6	0.065148994
44	0xbcd19404	-0.025583275
45	0x3d078a0e	0.033090644
46	0x3d31196d	0.04323714
47	0xbd1d4f16	-0.0384055
48	0x3d676fb3	0.05650301
49	0x3da5d53d	0.080973126
50	0xbcbb1a03	-0.022839552
51	0xbc10bb08	-0.008833654
52	0x3d86686a	0.06562884
53	0xbd45485b	-0.048164707
54	0x3d57a83a	0.052650668
55	0xbb1c51fe	-0.0023852582
56	0x3d371efb	0.04470728
57	0xbd3d6eff	-0.046248432
58	0xbd9669b3	-0.07344379
59	0xbdb51f2c	-0.08843836
60	0xbd213cf4	-0.03936477
61	0xbcce4420	-0.025178969
62	0x3d19cece	0.03755074
63	0x3d4cb566	0.049977683
64	0xbc40ddf4	-0.011771668
65	0x3c8e9682	0.017405752
66	0xbd4f3737	-0.050589766
67	0x3c4ae167	0.012382842
68	0xbc9b2f94	-0.018943585
69	0xbd93f066	-0.07223587
70	0xbd92aeac	-0.07162222
71	0xbd61aef8	-0.055098504
72	0xbd81e2ef	-0.06342112
73	0x3d84d87c	0.064866036
74	0xbbcefbfd	-0.0063166604
75	0x3d24399e	0.04009401
76	0x3d76e1fe	0.060274117
77	0xbd8169d1	-0.06319011
78	0x3d29db56	0.04146894
79	0xbd9ba8a5	-0.07600526
80	0x3d3c0988	0.045907527
81	0x3d35d8a2	0.04439605
82	0xbc403338	-0.0117309615
83	0x3da7fa9b	0.08202096
84	0x3d8f055d	0.06983445
85	0x3d8369b9	0.06416649
86	0x3cee5f3f	0.029098151
87	0x3d4a0eba	0.04933045
88	0xbdbb63fe	-0.09149931
89	0xbdafc6b8	-0.085828245
90	0xbd8591f6	-0.065219805
91	0x3d9214cd	0.07132874
92	0x3d40cf72	0.047072835
93	0xbd21c58a	-0.03949503
94	0xbd62c295	-0.05536135
95	0x3cb26a86	0.02177931
96	0x3c3504df	0.011048525
97	0xbd842172	-0.06451692
98	0x3d1da7ea	0.038490213
99	0xbdbd05da	-0.09229632
100	0x3d4ba72a	0.049719967
101	0xbd97348b	-0.07383069
102	0xbda34b97	-0.07973402
103	0x3d1a3075	0.03764387
104	0xbdc00ea9	-0.09377796
105	0xbd93c0ef	-0.072145335
106	0x3a37f223	0.0007016977
107	0xbdc0478c	-0.093886465
108	0xbc8c5c15	-0.017133752
109	0x3d8a5673	0.0675477
110	0x3c5f2410	0.013619438
111	0x3d26f5fe	0.04076194
112	0xbc9d4f64	-0.019202895
113	0xbc8f1ddc	-0.017470293
114	0xbd125ec0	-0.035734892
115	0x3c6b0248	0.014343806
116	0x3d715082	0.05891467
117	0xbd3e13c3	-0.046405565
118	0xbca811fc	-0.020516388
119	0xbd7b735a	-0.061389305
120	0xbc4ae727	-0.012384213
121	0xbd718bdc	-0.05897127
122	0xbd910ea5	-0.07082871
123	0x3d380ebe	0.044935934
124	0xbd3052aa	-0.043047585
125	0x3d624b89	0.055247817
126	0x3d377589	0.044789825
127	0xbcbbecf6	-0.02294014
128	0x3c881f58	0.016616508
129	0x400702b6	2.1095405
130	0xc0a7f95e	-5.2491903
131	0x3fd3a7fc	1.653564
132	0xc0b8acd5	-5.7710977
133	0xbfaa4e57	-1.3305157
134	0x3dac6241	0.08417178
135	0x3d9a7107	0.075410895
136	0x404ef99f	3.2339857
137	0xc0c5f84d	-6.18656
138	0xc121b534	-10.106739
139	0x405e6d78	3.4754314
140	0x3fda2203	1.704163
141	0xc0bb1434	-5.846216
142	0x3fe3bdb9	1.7792274
143	0x40606a51	3.506489
144	0x403a4f70	2.9110985
145	0xbd575bdb	-0.052577835
146	0xbd516c3c	-0.05112861
147	0xbc6a8648	-0.014314242
148	0xc0ce8ea7	-6.4549136
149	0x3d34f456	0.04417833
150	0xc0d80a46	-6.751254
151	0x4076ff00	3.859314
152	0x40015336	2.0207038
153	0x3f857a47	1.0427941
154	0x40220060	2.531273
155	0x3feb4925	1.8381697
156	0xbc164058	-0.009170614
157	0xc0c17cba	-6.0464754
158	0xc0ad343f	-5.4126277
159	0xc0cba818	-6.3642693
160	0x3fd1415b	1.634807
161	0xc0f0156d	-7.5026155
162	0xbd8e368a	-0.06943996
163	0x3fc724a2	1.5558054
164	0x3fe051de	1.7524984
165	0xbd1b4d9b	-0.037915807
166	0x3cce5ad8	0.025189802
167	0xc0cf74e8	-6.483021
168	0x3fe06480	1.753067
169	0xc0e2ed7c	-7.09149
170	0xc11adab4	-9.678394
171	0x408e9032	4.455102
172	0xbd84f455	-0.06491915
173	0x3fa0f7f4	1.2575669
174	0xc07a790c	-3.913638
175	0x4006e35d	2.1076272
176	0x3fd95dda	1.6981766
177	0xc0f09d79	-7.5192227
178	0xc0c1a57f	-6.051452
179	0xbd71d393	-0.059039664
180	0x405a7f0a	3.4140038
181	0x3feb8eb0	1.840292
182	0xc0f1525e	-7.5413046
183	0x40078255	2.1173298
184	0xbfe8f6cd	-1.8200318
185	0x3fe8134f	1.8130893
186	0x40742a81	3.8150942
187	0x3fcb12a8	1.5865068
188	0xc0b093b0	-5.5180283
189	0x408b708b	4.357488
190	0xbca3b0a7	-0.019981695
191	0x3c445338	0.0119827315
192	0x401e8a7b	2.4772022
193	0x409aeaf6	4.8411818
194	0xc0d5b44b	-6.6782584
195	0x40077170	2.1162987
196	0x3d138adc	0.0360211
197	0xc120568a	-10.021128
198	0x3ffd4a1c	1.9788241
199	0x3fd982f5	1.699309
200	0x3fd47074	1.6596818
201	0x3fb4c264	1.4121823
202	0xc0489365	-3.1339962
203	0xc0c75210	-6.2287674
204	0x3f0f9577	0.5608744
205	0x40013d58	2.0193691
206	0x400f8e7f	2.2430723
207	0x3fc037a6	1.5016983
208	0x405855de	3.380241
209	0x3da4c3e1	0.080451734
210	0x3d357b4e	0.044307046
211	0x3c67cbc8	0.014147706
212	0x3b6ef560	0.0036462173
213	0xc0f648db	-7.6963935
214	0x3fdb13e5	1.7115446
215	0x3fcb978f	1.5905627
216	0x40716c3f	3.7722318
217	0xc1015b6a	-8.084818
218	0xc1219a06	-10.100103
219	0x3b083598	0.0020783897
220	0x3e0f3dee	0.13988468
221	0xc0bf4d24	-5.9781666
222	0xbc6b9130	-0.014377877
223	0x3faedfe8	1.3662081
224	0x404a8023	3.1640708
225	0xbd90467f	-0.07044696
226	0x3f9e14df	1.2350119
227	0xc09b4b61	-4.8529515
228	0xbc97eb38	-0.018544778
229	0xbd843ccb	-0.06456908
230	0x3d6e78bf	0.05822062
231	0x3fcf30f0	1.618681
232	0x3fc0e185	1.5068823
233	0x40287101	2.6318972
234	0x3fe7182d	1.8054253
235	0x3fcb67ec	1.589109
236	0xc0bf517c	-5.978697
237	0xbdb2421f	-0.08704018
238	0x3ebdb4cd	0.37052003
239	0x3fa83f6a	1.3144352
240	0xc11aaf5d	-9.667813
241	0x406ffaec	3.74969
242	0x4051ca04	3.277955
243	0xbd1c856f	-0.03821319
244	0x3d982c83	0.07430365
245	0x3d158d30	0.0365116
246	0xbce70478	-0.028200373
247	0x3db16169	0.08661158
248	0x40082685	2.127351
249	0x3f3973ae	0.7244214
250	0xc0c0ca3c	-6.024687
251	0x3f7ff6f4	0.99986196
252	0x3f87a0a4	1.0595899
253	0xc065f023	-3.5927818
254	0x40126efd	2.2880242
255	0x3fa0c4e9	1.2560092

fc2.bias f4 [128]
0	0xbd66613c	-0.056245074
1	0x3ff96ae1	1.9485742
2	0x3cab48ec	0.020908795
3	0x3f10846b	0.56452054
4	0xbd9cab19	-0.07649822
5	0x3f174521	0.5908986
6	0x3ef56a62	0.47932726
7	0x3f1ef2c8	0.62089205
8	0xbcd31315	-0.025765935
9	0x3b5716d3	0.003282
10	0x3f44ab3d	0.7682379
11	0x3ed44c0b	0.41464266
12	0x3f04fdd0	0.5194979
13	0x3d252658	0.04031977
14	0x3f17d772	0.5931312
15	0xbdb6f6d7	-0.089338
16	0xbde6d1cc	-0.11270484
17	0x3f27e803	0.65588397
18	0x3cd5599d	0.026043708
19	0xbd8ef472	-0.06980218
20	0x3f31a33e	0.6938971
21	0x3f24efa1	0.64428145
22	0x3d613281	0.054979805
23	0xbcd3a5d0	-0.025835901
24	0xbb8d0caf	-0.0043044905
25	0xbd9b966c	-0.0759705
26	0x3ff37b28	1.9021959
27	0x3ffe3987	1.9861306
28	0xbdc573d1	-0.09641231
29	0x3ff8c6ed	1.9435707
30	0x3ca21473	0.019785142
31	0x3f29f2ca	0.6638609
32	0xbd16cf87	-0.036819007
33	0x3f1f11ef	0.6213674
34	0xbc3dfb10	-0.0115955025
35	0xbd9c4a02	-0.07631303
36	0xbd4c7916	-0.049920164
37	0xbd671ea1	-0.056425694
38	0xbdac06c5	-0.08399729
39	0x3f146302	0.57963574
40	0x3f02a856	0.5103811
41	0x3f14e262	0.5815793
42	0x3f33ea17	0.7027907
43	0x3ffe0e7a	1.9848168
44	0x3f15cd1b	0.5851609
45	0x3f321777	0.69567055
46	0x3d4a60ac	0.0494086
47	0x3c72a653	0.014810163
48	0x3e96bd8c	0.29441488
49	0xbc6e40b2	-0.014541792
50	0x3f1d9029	0.61548096
51	0xbdc9e139	-0.09857411
52	0xbda0232f	-0.07819211
53	0x3fe35c55	1.7762552
54	0xbde96aae	-0.11397301
55	0x3e029cd1	0.12755133
56	0x3fff0956	1.9924724
57	0xbda49224	-0.080356866
58	0xbc7e1276	-0.015507331
59	0x3ff021d9	1.876033
60	0x3f1a6bc6	0.603207
61	0x3ce276dc	0.027644567
62	0x3f242d36	0.64131486
63	0x3ff2ffe6	1.8984344
64	0x3ff72858	1.9309187
65	0x3f0f244c	0.5591476
66	0x3f317cf0	0.69331264
67	0x3d9326ed	0.07185159
68	0x3f252122	0.6450368
69	0x3f221b31	0.6332274
70	0xbc7338f5	-0.014845123
71	0x3f139929	0.5765558
72	0xbb564f36	-0.0032701022
73	0xbd8bc4c6	-0.06824641
74	0x3e86578e	0.26238674
75	0xbcaa2cd0	-0.020773321
76	0x3f1e29aa	0.61782324
77	0x3fec26af	1.8449305
78	0xbde7bab7	-0.1131491
79	0x3cb7a3e7	0.022417022
80	0xbde95105	-0.113924064
81	0x3f16c741	0.5889779
82	0xbd934c9b	-0.07192346
83	0xbda49f74	-0.08038226
84	0x3d463802	0.048393257
85	0x3ff6e257	1.9287823
86	0x3ffffd1a	1.9999115
87	0xbbe1f839	-0.0068960455
88	0x400102d2	2.0157971
89	0x3d4322c9	0.047640596
90	0x3c97894c	0.018498085
91	0xbdf48d45	-0.119410075
92	0xbbfcbe80	-0.007713139
93	0xbdb76af6	-0.08955948
94	0xbdf02138	-0.11725086
95	0x3fed3b76	1.8533771
96	0x3f284eb1	0.65745074
97	0xbcb52731	-0.022113414
98	0x3f2deaa1	0.6793614
99	0xbd9e1f28	-0.07720786
100	0x3f366afb	0.7125699
101	0x40020517	2.0315607
102	0x3ff2e8c6	1.8977287
103	0xbd952cf2	-0.07283963
104	0x3c8f6353	0.017503416
105	0xbc14c588	-0.009080298
106	0x3f10dfe5	0.56591636
107	0xbcc7ca6c	-0.024388514
108	0x3f25a138	0.64699125
109	0x3ffe26ff	1.9855651
110	0x3f167113	0.5876629
111	0x3f293605	0.6609805
112	0x3f1e7ec7	0.61912197
113	0x3f2c5503	0.6731722
114	0x3f287aed	0.6581257
115	0xbd281d18	-0.04104337
116	0x3e93602c	0.2878431
117	0x3c1c44d0	0.009537891
118	0x3f1a4db1	0.602748
119	0xbdab6a0f	-0.083698384
120	0xbd988959	-0.07448072
121	0x3fec951c	1.8483005
122	0x3ee63a22	0.44966227
123	0x3f3020ec	0.68800235
124	0x3f2a77b6	0.66588914
125	0x3f1e166b	0.6175296
126	0xbd318b43	-0.0433457
127	0x3f1a6619	0.6031204

fc3.weight f4 [4, 128]
0	0xbd8f8e3f	-0.07009553
1	0xc06d68a9	-3.709513
2	0xbd121c42	-0.03567148
3	0x40bb4c90	5.853096
4	0x3d3a9fdd	0.045562614
5	0x40b8e840	5.778351
6	0x40d3e831	6.6220937
7	0x40b55c7e	5.6675406
8	0x3d487bd7	0.048946228
9	0x3ce66cd6	0.028128069
10	0x40b3f0fe	5.623168
11	0x4101dee4	8.116917
12	0x40c33a1e	6.1008444
13	0x3c28b3b4	0.010296751
14	0x40b2cc2c	5.5874233
15	0xbcecedd6	-0.028922003
16	0x3b6a2820	0.0035729483
17	0x40cd373c	6.4129925
18	0x3d0eb616	0.03484162
19	0x3cca7f28	0.024718836
20	0x40b65391	5.697701
21	0x40b3ab1b	5.614637
22	0xbe4597f1	-0.19296242
23	0x3c836dfb	0.016043654
24	0x3c97fbd8	0.018552706
25	0x3d42cf23	0.047560822
26	0xc04aa138	-3.16609
27	0xc06d9ede	-3.7128215
28	0x3d5ad157	0.0534223
29	0xc06d8724	-3.7113733
30	0x3d674133	0.056458663
31	0x40b6a1e1	5.7072606
32	0x3cc07d21	0.023497166
33	0x40b88307	5.7659945
34	0xbce18b2e	-0.027532186
35	0x3c9ed40c	0.019388221
36	0xbdb16aa5	-0.08662919
37	0x3da1bb33	0.078970335
38	0xbd875f52	-0.06609978
39	0x40b931af	5.787315
40	0x40c1891b	6.0479865
41	0x40b77a95	5.7337136
42	0x40b8ab22	5.77089
43	0xc073913d	-3.8057396
44	0x40c36867	6.1064944
45	0x40aaf2fb	5.3421607
46	0xbd92a6d4	-0.07160726
47	0xbd38d75a	-0.04512725
48	0x40d81d0d	6.753546
49	0x3c305345	0.0107620405
50	0x40bc9820	5.89357
51	0xbdeb952c	-0.11503062
52	0x3d792c66	0.060833357
53	0xc019e7f6	-2.4047828
54	0x3bd5044c	0.0065007564
55	0x40b56b49	5.6693463
56	0xc07523a9	-3.8303015
57	0xb9cad300	-0.0003868565
58	0x3d9ed1aa	0.07754834
59	0xc06c9d7b	-3.6971118
60	0x40bc14b2	5.8775263
61	0xbbeecc7d	-0.0072875605
62	0x40b6b307	5.709354
63	0xc0703510	-3.7532387
64	0xc06d58c0	-3.7085419
65	0x40c0ceb8	6.025234
66	0x40b42524	5.629534
67	0x3aef76d8	0.0018269671
68	0x40b79d88	5.73798
69	0x40b45bbe	5.636199
70	0xbcbca15c	-0.02302616
71	0x40bcdfa6	5.902301
72	0xbc7959c0	-0.015219152
73	0xbd670565	-0.05640163
74	0x40afcf0f	5.4940257
75	0xbd70155b	-0.058614116
76	0x40b42a8a	5.6301928
77	0xc06334f9	-3.5501082
78	0xbb1b9974	-0.0023742588
79	0xbd1e8788	-0.03870347
80	0xbc7467d6	-0.014917335
81	0x40be87b8	5.954067
82	0x3d8fd9a2	0.07023932
83	0xbbd65f96	-0.0065421565
84	0xbd8b39a5	-0.06798104
85	0xc06af910	-3.6714516
86	0xc06ef207	-3.7335222
87	0xbc7794fd	-0.015111205
88	0xc06d8367	-3.7111452
89	0xbccf0b99	-0.025274085
90	0x3da44267	0.08020478
91	0xbd85f94f	-0.065416925
92	0x3db2d9a7	0.0873292
93	0xbda6396a	-0.081164196
94	0xbda4233c	-0.08014533
95	0xc06a04d7	-3.6565454
96	0x40b5d50f	5.682258
97	0xbcd1bb54	-0.02560202
98	0x40b8b8c4	5.7725544
99	0x3d7ba08e	0.061432414
100	0x40b5dde2	5.6833353
101	0xc06a5b84	-3.6618357
102	0xc06f5fd3	-3.7402236
103	0xbd3b96d9	-0.045798156
104	0xbd0f29a7	-0.034951832
105	0xbd9d7c42	-0.07689716
106	0x40b32fe5	5.5995965
107	0xbc2f0a98	-0.010683678
108	0x40b05ea4	5.511553
109	0xc06ff206	-3.749147
110	0x40ba5997	5.8234363
111	0x40b395f6	5.612056
112	0x40ba47c1	5.821259
113	0x40b71b15	5.722056
114	0x40b2ef73	5.5917296
115	0xbc91670c	-0.017749332
116	0x40dd0d48	6.9078712
117	0x3cd43d29	0.02590807
118	0x40b48065	5.640673
119	0xbd1398a0	-0.036034226
120	0x3b7faa7e	0.0039011533
121	0xc0642273	-3.5646026
122	0x40e52b92	7.1615686
123	0x40ba9f4a	5.8319445
124	0x40b5962e	5.6745825
125	0x40b64d2f	5.696922
126	0x3db0c103	0.08630564
127	0x40b51778	5.659115
128	0x3d5842c2	0.05279804
129	0xc0807456	-4.014201
130	0xbd408bf6	-0.047008477
131	0x40beff7e	5.968688
132	0xbd3ea6a5	-0.046545643
133	0x40be578f	5.9481883
134	0x40c4d60d	6.1511292
135	0x40bcc39c	5.898878
136	0x3ca5ca72	0.020238135
137	0x3d5f04f2	0.054448076
138	0x40bf52e5	5.978869
139	0x40f749eb	7.727773
140	0x40c497a7	6.1435122
141	0xbd884210	-0.066532254
142	0x40be5fad	5.949179
143	0xbbc08557	-0.0058752703
144	0x3d5f1936	0.054467402
145	0x40f38823	7.6103683
146	0x3c0821f8	0.00830888
147	0xbd069da5	-0.032865185
148	0x40c1059c	6.0319347
149	0x40c07ff2	6.0156183
150	0xbe76334d	-0.24043007
151	0xbcaf2f2f	-0.021384804
152	0x3d091882	0.033470638
153	0x3d6b88e9	0.057503615
154	0xc045396e	-3.0816302
155	0xc0803396	-4.006297
156	0xbd289697	-0.04115924
157	0xc07b1c74	-3.9236116
158	0xbc1138b5	-0.008863618
159	0x40be6b70	5.950615
160	0x3c25b29b	0.010113384
161	0x40c18728	6.0477486
162	0x3af5bf00	0.0018748939
163	0xbb8fb130	-0.004385136
164	0x3c9fe070	0.0195162
165	0x3ce277ba	0.02764498
166	0x3d822a62	0.0635574
167	0x40bfcda3	5.993852
168	0x40c7120a	6.220952
169	0x40c01eb8	6.00375
170	0x40c2d51a	6.0885134
171	0xc0877169	-4.232594
172	0x40bb6995	5.8566384
173	0x40c33cde	6.10118
174	0xbc2c3639	-0.010510975
175	0x3ab09cc0	0.001347445
176	0x40cf8d36	6.4859877
177	0x3d6ed341	0.058306936
178	0x40c491e3	6.1428084
179	0x3c9f2388	0.019426122
180	0xbdaf62cb	-0.08563765
181	0xbfedf774	-1.8591142
182	0xbdf17699	-0.11790199
183	0x40befb28	5.9681587
184	0xc08a5ecc	-4.324072
185	0x3d9a1d87	0.07525163
186	0xbcfae117	-0.03062491
187	0xc081d2dc	-4.0569897
188	0x40bef723	5.967668
189	0xbcdd0da4	-0.026984043
190	0x40c021da	6.0041323
191	0xc079514e	-3.8955874
192	0xc078383d	-3.8784325
193	0x40c1759f	6.045608
194	0x40bfafc3	5.9902053
195	0xbd5cc678	-0.053900212
196	0x40e65cdb	7.198835
197	0x40be45a4	5.946001
198	0x3d0f4199	0.03497467
199	0x40bd8b59	5.92326
200	0xbd2f4461	-0.04278982
201	0xbd5e43b6	-0.054263793
202	0x40b25b09	5.5736127
203	0x3d3cb844	0.046074167
204	0x40bda739	5.926663
205	0xc0555e3c	-3.3338766
206	0xbd268ae3	-0.040659796
207	0x3c872258	0.016495869
208	0xbd55ec96	-0.05222758
209	0x40bf5dc6	5.980197
210	0x3d112eb0	0.035444915
211	0xbd89f3d0	-0.06735957
212	0xbd1d09dc	-0.03833948
213	0xc07d9032	-3.961926
214	0xc07b9b0f	-3.931339
215	0xbd5e0c2d	-0.05421083
216	0xc084ef2e	-4.1541967
217	0xbd31affe	-0.04338073
218	0x3d1af9ba	0.037835814
219	0xbcb44659	-0.0220062
220	0x3d4f0e8e	0.05055099
221	0xbc8f4c3b	-0.017492404
222	0x3d5a418a	0.05328516
223	0xc05f41e1	-3.488396
224	0x40be8d92	5.9547815
225	0xbbe9b02a	-0.007131596
226	0x40bf10cf	5.970802
227	0xbd61b377	-0.05510279
228	0x40bf78bd	5.9834886
229	0xc072503b	-3.7861469
230	0xc081407d	-4.039122
231	0xbcfac8a8	-0.030613258
232	0xbd5f2d0f	-0.05448633
233	0xbd54a798	-0.051917642
234	0x40bbce16	5.868907
235	0x3a6d9d00	0.00090642273
236	0x40b83df6	5.7575636
237	0xc078a302	-3.8849492
238	0x40c3c96c	6.1183376
239	0x40be89a0	5.9543
240	0x40c17cd7	6.0464892
241	0x40c2481b	6.071302
242	0x40bf031e	5.9691305
243	0xbdb4b920	-0.08824372
244	0x40e35b43	7.1048903
245	0xbc3ff32c	-0.011715692
246	0x40bf4057	5.976604
247	0x3d1f943e	0.038959734
248	0xbd5182f1	-0.051150266
249	0xc062bf03	-3.5429084
250	0x40de0bd6	6.938945
251	0x40c4f2e1	6.1546483
252	0x40c05bb9	6.0111966
253	0x40c00c00	6.001465
254	0xbd77917c	-0.06044148
255	0x40bf3f8a	5.976506

fc3.bias f4 [4]
0	0xbd92fe40	-0.071774006
1	0x3f8ecc83	1.1156162
2	0xbf04eab4	-0.5192063
3	0x3f32dc72	0.6986762
