trained_models/checkpoint_ep8800.pth (torch, 75436 bytes, 6 tensors)

fc1.weight f4 [128, 8]
0	0xbe26400a	-0.16235366
1	0xbe88658e	-0.2663998
2	0x3e4de5d2	0.201072
3	0xbe910469	-0.28323677
4	0xbe2f68a6	-0.17129764
5	0xbd331d58	-0.043729156
6	0x3e1e2d72	0.15447024
7	0x3ea14ebf	0.3150539
8	0x40ea3614	7.3191013
9	0x400c677b	2.193816
10	0x4050bb7e	3.2614436
11	0x40f37bc5	7.6088586
12	0x40160751	2.3441966
13	0xbec6a536	-0.3879792
14	0x40913ecd	4.538916
15	0x3ffc21d1	1.969782
16	0x40c5263a	6.1609163
17	0x3ed310ae	0.41223663
18	0x3e08a19d	0.133429
19	0x41385ae7	11.522193
20	0x3e873269	0.26405647
21	0xbfa30a1a	-1.2737458
22	0x40a223c8	5.066868
23	0x3e8663f4	0.26248133
24	0x40e6a924	7.208147
25	0x3f96e476	1.1788471
26	0x408a29be	4.3175955
27	0x40ee5026	7.4472837
28	0x3f84f212	1.0386374
29	0xbf97b12a	-1.1850941
30	0x409e9f9c	4.9569836
31	0x3f357e5a	0.7089592
32	0x40b4a206	5.6447783
33	0x3e8049c9	0.25056294
34	0xc00fecd6	-2.2488303
35	0x4142f97f	12.185912
36	0xbd9ab3e6	-0.07553844
37	0xbf5b1c1c	-0.85589767
38	0x40a59b39	5.175198
39	0xbd62cbf3	-0.055370282
40	0x40e4c8a0	7.1494904
41	0xbd8514c7	-0.064981036
42	0x4091c8f0	4.5557785
43	0x40ded3c8	6.963352
44	0x3e863787	0.2621424
45	0xbfa7567e	-1.307327
46	0x40ac209c	5.3789806
47	0x3e84d012	0.25939995
48	0x3e497472	0.19673327
49	0xbe1b4cd0	-0.1516602
50	0x3e679102	0.2261391
51	0xbe2264e5	-0.158588
52	0xbea9e25a	-0.33180505
53	0xbe4a5aff	-0.19761275
54	0x3eac4a35	0.33650365
55	0xbe9d9fd9	-0.30786017
56	0xbe62469b	-0.22097246
57	0x3d9deda4	0.07711342
58	0x3e05bf9a	0.13061371
59	0x3d9fa5c0	0.07795286
60	0xbe7423fa	-0.23841849
61	0xbe89824b	-0.26857218
62	0xbe5d2b30	-0.21598506
63	0x3c8404f0	0.016115636
64	0xc0bac848	-5.8369484
65	0x3fbc830a	1.472749
66	0xbf812e60	-1.0092278
67	0xc08c280b	-4.379888
68	0x3f74115b	0.9533898
69	0x400ca559	2.197592
70	0xc0a0aacc	-5.020849
71	0x3f8ba3b8	1.0909338
72	0x40d26ad3	6.57554
73	0x3e9d58cd	0.30731812
74	0x40182763	2.377404
75	0x41481baa	12.506754
76	0x3e8db293	0.27675304
77	0xbf800d2e	-1.0004022
78	0x40ab0903	5.34485
79	0x3e615420	0.22004747
80	0x40e295d0	7.0807877
81	0x3ebab770	0.36468077
82	0x4086cbd7	4.212383
83	0x413b89ac	11.721111
84	0x3f0f2c8e	0.5592736
85	0xbfd9b5c6	-1.7008598
86	0x40846549	4.137364
87	0x3dcea09f	0.1008923
88	0xc0cbecf8	-6.372677
89	0x3fa26a3d	1.2688671
90	0xbf4b8474	-0.7949898
91	0xc0966a84	-4.7005024
92	0x3fa8de04	1.3192754
93	0x401c06aa	2.4379067
94	0xc0ad2541	-5.4107976
95	0x3f916b59	1.1360885
96	0x40e60ea2	7.189286
97	0x3fa90287	1.3203896
98	0x4078ba25	3.8863614
99	0x410b2fd1	8.699174
100	0x3fa0a539	1.2550422
101	0xbef1e9a4	-0.47248566
102	0x40a2a1a1	5.08223
103	0x3fa22d7a	1.2670128
104	0x40894001	4.289063
105	0x3e0f440c	0.13990802
106	0x403739ad	2.8628953
107	0xc0f92a08	-7.786381
108	0x3e4ace14	0.19805175
109	0xbf0c74de	-0.54865825
110	0x40a7aac5	5.239596
111	0x3d5a1d99	0.053250883
112	0x40d945ba	6.7897615
113	0x3f47c2b3	0.7803146
114	0x408337bd	4.100554
115	0x41039fa9	8.22648
116	0x3fbae0ad	1.4599816
117	0xbf0f39f1	-0.55947787
118	0x4099dbae	4.8080664
119	0x3f62ed8a	0.88643706
120	0xc0bf4aaa	-5.9778643
121	0x3fae4fe1	1.3618127
122	0xbf788dc8	-0.9709134
123	0xc08e75b3	-4.4518676
124	0x3fb6ab41	1.4271013
125	0x401a31b1	2.409283
126	0xc0a7a720	-5.239151
127	0x3fc5890f	1.5432452
128	0xc0a799a3	-5.2375045
129	0x3fc6702c	1.5502982
130	0xbfaca7f4	-1.3488755
131	0xc0ab9b26	-5.362689
132	0x3faba30a	1.340913
133	0x3fe62bc0	1.7982101
134	0xc0a7c340	-5.242584
135	0x3fcd9863	1.606213
136	0xbe22b9f2	-0.15891245
137	0xbe1059aa	-0.14096704
138	0xbe7a004a	-0.24414173
139	0x3e911b9d	0.2834138
140	0xbe693cf5	-0.2277716
141	0xbe32faaa	-0.17478433
142	0xbdbec214	-0.09314361
143	0x3da025bc	0.07819697
144	0x3db98c1a	0.090599254
145	0xbeb59ca1	-0.3547106
146	0x3cae6a7e	0.021291014
147	0xbe99dec9	-0.30052784
148	0x3dd8831a	0.10571881
149	0xbdeb6db5	-0.11495534
150	0x3e82e364	0.2556411
151	0xbe265c39	-0.16246118
152	0xbe1c966f	-0.15291761
153	0xbe8dff34	-0.27733767
154	0x3e997879	0.29974726
155	0xbdd568ba	-0.10420366
156	0xbea9f2d1	-0.33193067
157	0xbdab1060	-0.08352733
158	0xbdf22f90	-0.11825478
159	0x3e7874f6	0.24263367
160	0x40ddc228	6.9299507
161	0x3d756189	0.05990747
162	0x40a9c96b	5.305837
163	0x3fb07dd5	1.3788401
164	0x3ed6ee72	0.41978794
165	0xbfc59cc8	-1.5438471
166	0x40ad675e	5.418868
167	0x3efb31c1	0.49061397
168	0xbe821fab	-0.25414786
169	0xbc681840	-0.014165938
170	0xbde631a8	-0.1123994
171	0xbeaa7599	-0.33292845
172	0xbe05b3e7	-0.13056909
173	0xbe1364b5	-0.14393885
174	0xbe2a7d62	-0.16649392
175	0x3d7616c8	0.06008032
176	0x40b03eef	5.5076823
177	0x3e6f85c7	0.23390876
178	0x401c9e91	2.4471781
179	0x41427e0e	12.155775
180	0x3d3ad373	0.04561181
181	0xbf7021fe	-0.9380187
182	0x40a9d9ac	5.3078213
183	0x3e420da3	0.18950514
184	0xc0d14de0	-6.540756
185	0x3fe49cb7	1.7860326
186	0xbf76f96b	-0.9647433
187	0xc08ff697	-4.4988513
188	0x3fbc89d8	1.4729567
189	0x4018f4b9	2.3899367
190	0xc0b37d54	-5.609049
191	0x3f9f59f6	1.2449329
192	0x40d332e7	6.5999637
193	0x3fac2ac3	1.345055
194	0x40832c2e	4.099143
195	0x410748aa	8.45524
196	0x3feb0a50	1.8362522
197	0xbe39f371	-0.18159272
198	0x409b20b3	4.8477416
199	0x3fa904a4	1.3204541
200	0x40db7620	6.8581696
201	0x3f100afc	0.5626676
202	0x40839bf2	4.1127863
203	0x4118aa9d	9.541654
204	0x3f1b89dc	0.6075723
205	0xbf89a538	-1.0753546
206	0x409ef8ba	4.967862
207	0x3f480646	0.7813457
208	0x40b63eff	5.69519
209	0x40943115	4.6309915
210	0x4012e4cf	2.2952154
211	0x4111fb8b	9.123912
212	0x4096c9de	4.712142
213	0x40285555	2.6302083
214	0x40815e35	4.04275
215	0x408ce624	4.4030933
216	0x40c7c613	6.242929
217	0x3f918818	1.1369658
218	0x408aeb15	4.3411965
219	0x4106dd40	8.429016
220	0x3fb04ca3	1.3773388
221	0xbebc5d9d	-0.3679017
222	0x409aa150	4.8321915
223	0x3fcb71c2	1.5894091
224	0xbe3679a1	-0.17819835
225	0xbe11a95a	-0.14224759
226	0xbdb9a8d8	-0.090654075
227	0x3e65ed3e	0.22453782
228	0xbc1a0b00	-0.009402037
229	0xbea7ad1c	-0.3274926
230	0xbd165e30	-0.036710918
231	0xbea47ed5	-0.32128015
232	0x40b3ac1d	5.61476
233	0x3dbe909f	0.09304928
234	0x4088bf58	4.2733574
235	0xc0e1b522	-7.053361
236	0x3ed3bcc3	0.4135495
237	0xbf98d389	-1.1939555
238	0x40ae3bf6	5.4448195
239	0x3d276589	0.040868316
240	0x40dc9061	6.8926244
241	0xbd24ef20	-0.04026711
242	0x40ae0914	5.438608
243	0x40a875f2	5.2643976
244	0x3ea59ab2	0.32344586
245	0xbf9986cd	-1.1994263
246	0x40aec280	5.4612427
247	0x3db78a74	0.08961955
248	0x40c475a7	6.139362
249	0x3db1c000	0.08679199
250	0x3e95f4e4	0.292884
251	0x413fc70a	11.9860935
252	0x3f0fd371	0.5618201
253	0xbf9c29ed	-1.2200295
254	0x40a97806	5.2959013
255	0x3ee1f81d	0.44134608

fc1.bias f4 [128]
0	0x3ca88e10	0.020575553
1	0x3fe917be	1.821037
2	0x3d432656	0.047643982
3	0x3fa95bc8	1.3231134
4	0x3eaf3793	0.34222087
5	0x3ee8ea51	0.4549127
6	0x3d04ba08	0.032403976
7	0xbe4a40e0	-0.1975131
8	0x3fc8d8e6	1.5691192
9	0xbd8a6cd6	-0.0675904
10	0x3e021d77	0.12706552
11	0x3fd52186	1.6650856
12	0x3fa0ec42	1.25721
13	0xbd4f45df	-0.050603744
14	0x3fc706b3	1.554892
15	0x3f8c85e6	1.0978363
16	0x3fcdf1d6	1.6089427
17	0x3db4ab08	0.08821684
18	0xbd330e23	-0.043714654
19	0xbeaf2777	-0.34209797
20	0x3e95e4da	0.29276162
21	0xbe4da93f	-0.20084094
22	0x3e60740e	0.21919271
23	0x3f8c59fe	1.0964963
24	0x3fe05229	1.7525073
25	0x3ef07c6a	0.4696992
26	0x4094af10	4.64637
27	0x3fa8e484	1.3194737
28	0xbdd35938	-0.103197515
29	0x3e513517	0.20430408
30	0x3eb86566	0.3601486
31	0xbd91d096	-0.07119863
32	0x3f8a3552	1.0797522
33	0x3af9477f	0.00190185
34	0xbe862142	-0.2619725
35	0x3f85adc1	1.044365
36	0x3fc80f2d	1.5629631
37	0x3f19ea43	0.6012308
38	0xbe5a4bf9	-0.21318044
39	0x3df3e4c5	0.11908869
40	0x3f8c66c1	1.0968858
41	0x3e2db456	0.16963324
42	0x3e9a2463	0.30105886
43	0x3f8c8f86	1.09813
44	0xbe86bf9c	-0.2631806
45	0x3f5c05fb	0.85946625
46	0x3d4fb001	0.05070496
47	0x3fa8c434	1.3184876
48	0x3fc264a7	1.5186967
49	0x3e3df225	0.18549402
50	0x3ddca104	0.10772899
51	0x3d1bf0b0	0.038071334
52	0x3fc67ebc	1.5507426
53	0x3fc70665	1.5548826
54	0x3e2a2272	0.16614702
55	0x3fab801e	1.3398473
56	0x3c833583	0.016016727
57	0x3fb53ac6	1.4158561
58	0x3fcde968	1.6086855
59	0x3f9d9e2e	1.2313898
60	0x3dc42e7e	0.0957918
61	0x3fb66c56	1.4251812
62	0xbea9013a	-0.33008748
63	0x3e5f45fe	0.21804044
64	0x40b12e2f	5.5368876
65	0x3fb80876	1.4377582
66	0x3e4fc308	0.20289242
67	0x4006e4b3	2.1077087
68	0x3d054225	0.032533783
69	0x3f074246	0.528355
70	0x4008a761	2.135216
71	0x3f9a301a	1.204593
72	0x3f921afc	1.1414485
73	0x3f237823	0.6385519
74	0x3eb6a478	0.35672355
75	0x3e7a0987	0.24417697
76	0x3eaf082a	0.34185916
77	0x3ffff844	1.999764
78	0x40227f00	2.5390015
79	0x3f96dec5	1.1786734
80	0x3fa212cc	1.2661986
81	0x3d68b330	0.05681151
82	0xbe408b60	-0.18803167
83	0xbe0a9e69	-0.13536991
84	0x3e0c3a2c	0.13694066
85	0x3df27360	0.11838412
86	0x3f87e9f7	1.0618275
87	0x3f7b6a6f	0.9820928
88	0x3f8922e6	1.0713775
89	0x3ea24456	0.3169276
90	0x3f0af8fb	0.54286164
91	0xbe5b4992	-0.21414784
92	0x3f31b225	0.6941245
93	0x3ed6fb9a	0.41988832
94	0x3e73a04a	0.23791614
95	0x3f8a260b	1.079286
96	0x3fc5bf36	1.5448978
97	0xbdc46d48	-0.09591156
98	0x3f677164	0.90407395
99	0x3ef4933e	0.47768587
100	0x3e39d0ba	0.18146029
101	0xbe7a217a	-0.24426833
102	0xbe879afd	-0.26485434
103	0x3f9c4847	1.2209557
104	0x3f64aaaf	0.8932294
105	0x40ac91d6	5.3928022
106	0x3fd5db27	1.6707505
107	0x3f90d329	1.1314441
108	0xbd669520	-0.05629456
109	0xbe851891	-0.25995305
110	0xbe286154	-0.16443378
111	0x3f7261bf	0.946804
112	0x3e5895e6	0.21150932
113	0x3fcf03d8	1.6173048
114	0x3fa6fde8	1.3046236
115	0x3e1e2434	0.15443498
116	0xbdac2760	-0.08405948
117	0xbe430c17	-0.1904758
118	0xbe507a55	-0.20359166
119	0xbc7279c0	-0.014799535
120	0x40020ae8	2.0319157
121	0x3f379915	0.7171796
122	0x3cb782de	0.02240127
123	0x3f1d534c	0.61455226
124	0x3f72af9c	0.9479921
125	0x3f11e5c7	0.5699124
126	0x400bba1b	2.183234
127	0x3f5a9b88	0.8539357

fc2.weight f4 [128, 128]
0	0xbd82f862	-0.063950315
1	0xbd96f58d	-0.07371054
2	0x3a88b2c0	0.0010429248
3	0xbd7db984	-0.0619445
4	0xbdbda254	-0.09259477
5	0xbd0d9678	-0.034567326
6	0xbd97cf19	-0.074125476
7	0x3da8f783	0.08250334
8	0x3d4d04fe	0.05005359
9	0xbd5ebc42	-0.054378755
10	0xbd00c8a6	-0.031441353
11	0x3d6952c8	0.056963712
12	0x3c5df264	0.01354656
13	0x3d825ca5	0.06365327
14	0xbd60a72f	-0.05484694
15	0x3cf96160	0.03044194
16	0xbda3f96d	-0.080065586
17	0x3d34c076	0.044128858
18	0x3cfc70d0	0.030815512
19	0x3cedf574	0.029047705
20	0x3d0a6a92	0.03379304
21	0x3c1c7e10	0.00955154
22	0x3af54390	0.0018712152
23	0x3bbbf9d9	0.0057365713
24	0xbc454b86	-0.012041932
25	0xbdaaa585	-0.083323516
26	0x3ce2015e	0.027588543
27	0xbd6c5fb6	-0.057708465
28	0xbd4e0c58	-0.05030474
29	0xb91c9400	-0.00014932454
30	0x3d5ceeaa	0.053938545
31	0xbd8f2d5b	-0.06991073
32	0xbd454b83	-0.048167717
33	0x3d1ad2da	0.03779874
34	0xbc845ea8	-0.016158417
35	0xbd521f78	-0.051299542
36	0x3d6de279	0.05807731
37	0x3cfb7e36	0.03069983
38	0xbdaf623b	-0.08563658
39	0xbd54d173	-0.05195756
40	0xbd556ff6	-0.052108727
41	0xbd907ec2	-0.07055427
42	0x3cdaef10	0.026725322
43	0x3d856cd6	0.065148994
44	0xbcd19404	-0.025583275
45	0x3d078a0e	0.033090644
46	0x3d31196d	0.04323714
47	0xbd1d4f16	-0.0384055
48	0x3d676fb3	0.05650301
49	0x3da5d53d	0.080973126
50	0xbcbb1a03	-0.022839552
51	0xbc10bb08	-0.008833654
52	0x3d86686a	0.06562884
53	0xbd45485b	-0.048164707
54	0x3d57a83a	0.052650668
55	0xbb1c51fe	-0.0023852582
56	0x3d371efb	0.04470728
57	0xbd3d6eff	-0.046248432
58	0xbd9669b3	-0.07344379
59	0xbdb51f2c	-0.08843836
60	0xbd213cf4	-0.03936477
61	0xbcce4420	-0.025178969
62	0x3d19cece	0.03755074
63	0x3d4cb566	0.049977683
64	0xbc40ddf4	-0.011771668
65	0x3c8e9682	0.017405752
66	0xbd4f3737	-0.050589766
67	0x3c4ae167	0.012382842
68	0xbc9b2f94	-0.018943585
69	0xbd93f066	-0.07223587
70	0xbd92aeac	-0.07162222
71	0xbd61aef8	-0.055098504
72	0xbd81e2ef	-0.06342112
73	0x3d84d87c	0.064866036
74	0xbbcefbfd	-0.0063166604
75	0x3d24399e	0.04009401
76	0x3d76e1fe	0.060274117
77	0xbd8169d1	-0.06319011
78	0x3d29db56	0.04146894
79	0xbd9ba8a5	-0.07600526
80	0x3d3c0988	0.045907527
81	0x3d35d8a2	0.04439605
82	0xbc403338	-0.0117309615
83	0x3da7fa9b	0.08202096
84	0x3d8f055d	0.06983445
85	0x3d8369b9	0.06416649
86	0x3cee5f3f	0.029098151
87	0x3d4a0eba	0.04933045
88	0xbdbb63fe	-0.09149931
89	0xbdafc6b8	-0.085828245
90	0xbd8591f6	-0.065219805
91	0x3d9214cd	0.07132874
92	0x3d40cf72	0.047072835
93	0xbd21c58a	-0.03949503
94	0xbd62c295	-0.05536135
95	0x3cb26a86	0.02177931
96	0x3c3504df	0.011048525
97	0xbd842172	-0.06451692
98	0x3d1da7ea	0.038490213
99	0xbdbd05da	-0.09229632
100	0x3d4ba72a	0.049719967
101	0xbd97348b	-0.07383069
102	0xbda34b97	-0.07973402
103	0x3d1a3075	0.03764387
104	0xbdc00ea9	-0.09377796
105	0xbd93c0ef	-0.072145335
106	0x3a37f223	0.0007016977
107	0xbdc0478c	-0.093886465
108	0xbc8c5c15	-0.017133752
109	0x3d8a5673	0.0675477
110	0x3c5f2410	0.013619438
111	0x3d26f5fe	0.04076194
112	0xbc9d4f64	-0.019202895
113	0xbc8f1ddc	-0.017470293
114	0xbd125ec0	-0.035734892
115	0x3c6b0248	0.014343806
116	0x3d715082	0.05891467
117	0xbd3e13c3	-0.046405565
118	0xbca811fc	-0.020516388
119	0xbd7b735a	-0.061389305
120	0xbc4ae727	-0.012384213
121	0xbd718bdc	-0.05897127
122	0xbd910ea5	-0.07082871
123	0x3d380ebe	0.044935934
124	0xbd3052aa	-0.043047585
125	0x3d624b89	0.055247817
126	0x3d377589	0.044789825
127	0xbcbbecf6	-0.02294014
128	0x3c881f58	0.016616508
129	0x3ffd7ea5	1.9804274
130	0xc09bfc00	-4.8745117
131	0x3fc43ae2	1.533047
132	0xc0ad05bb	-5.4069495
133	0xbf8ae30a	-1.0850537
134	0x3dac6241	0.08417178
135	0x3d9a7107	0.075410895
136	0x40459db7	3.0877512
137	0xc0b9fbbe	-5.8119802
138	0xc11b9175	-9.723012
139	0x40552674	3.330472
140	0x3fca253f	1.5792617
141	0xc0b2afe1	-5.5839696
142	0x3fd3c3ed	1.6544167
143	0x405712b2	3.360516
144	0x40311c3e	2.7673488
145	0xbd575bdb	-0.052577835
146	0xbd516c3c	-0.05112861
147	0xbc6a8648	-0.014314242
148	0xc0c33857	-6.1006274
149	0x3d34f456	0.04417833
150	0xc0cc0acf	-6.3763194
151	0x406dab00	3.713562
152	0x3ff242a7	1.8926591
153	0x3f712cca	0.9420897
154	0x40193234	2.3936892
155	0x3fdb13f4	1.7115464
156	0xbc164058	-0.009170614
157	0xc0b88e7e	-5.767394
158	0xc0a10272	-5.0315485
159	0xc0bfbf30	-5.9920883
160	0x3fc188e7	1.5119904
161	0xc0e41e3c	-7.1286907
162	0xbd8e368a	-0.06943996
163	0x3fb7e48a	1.436662
164	0x3fd07e05	1.6288458
165	0xbd29ef2b	-0.041487854
166	0x3cce5ad8	0.025189802
167	0xc0c360d7	-6.1055713
168	0x3fd08351	1.6290075
169	0xc0d6ec55	-6.716349
170	0xc114b46d	-9.294049
171	0x4089eac3	4.3099074
172	0xbd84f455	-0.06491915
173	0x3f923b53	1.1424354
174	0xc062b8f0	-3.5425377
175	0x3ffdac15	1.981814
176	0x3fc95bcf	1.5731143
177	0xc0e6cd06	-7.2125273
178	0xc0b5e5d5	-5.6843057
179	0xbd71d393	-0.059039664
180	0x4051265d	3.2679665
181	0x3fdb8aad	1.7151695
182	0xc0e84fa5	-7.259722
183	0x3ffec3c5	1.9903494
184	0xbfbefac1	-1.4920274
185	0x3fd7f465	1.6871458
186	0x406ad9c6	3.6695418
187	0x3fbbc873	1.4670547
188	0xc0a870e7	-5.263782
189	0x4086db67	4.2142825
190	0xbca3b0a7	-0.019981695
191	0x3c445338	0.0119827315
192	0x4015584a	2.3335137
193	0x40964dbb	4.6969886
194	0xc0c9a3d5	-6.301249
195	0x3ffe3bea	1.9862034
196	0x3d138adc	0.0360211
197	0xc11a375d	-9.638516
198	0x3fecc2da	1.8496964
199	0x3fc9a412	1.5753195
200	0x3fc4d468	1.5377321
201	0x3fa5bd97	1.2948483
202	0xc030ff83	-2.7655952
203	0xc0bb622a	-5.855733
204	0x3eef2f55	0.467158
205	0x3ff21214	1.8911767
206	0x400721d5	2.11144
207	0x3fb0e51e	1.3819921
208	0x404f0305	3.2345593
209	0x3da4c3e1	0.080451734
210	0x3d357b4e	0.044307046
211	0x3c67cbc8	0.014147706
212	0x3b6ef560	0.0036462173
213	0xc0ecf7ed	-7.4052644
214	0x3fcb38d5	1.5876719
215	0x3fbbf92d	1.4685417
216	0x40681f81	3.6269228
217	0xc0f980e2	-7.796983
218	0xc11b7e20	-9.718292
219	0x3b083598	0.0020783897
220	0x3df58208	0.11987692
221	0xc0b39ab9	-5.612637
222	0xbc6b9130	-0.014377877
223	0x3f9ff845	1.2497641
224	0x40412438	3.0178356
225	0xbd90467f	-0.07044696
226	0x3f8f485a	1.1193955
227	0xc08f3842	-4.4756174
228	0xbc97eb38	-0.018544778
229	0xbd843ccb	-0.06456908
230	0x3d6e78bf	0.05822062
231	0x3fbfaa5d	1.4973866
232	0x3fb1d33b	1.3892587
233	0x401f2cc6	2.4871078
234	0x3fd6eb4c	1.6790557
235	0x3fbbe625	1.467961
236	0xc0b37533	-5.6080565
237	0xbdb2421f	-0.08704018
238	0x3ebdb4cd	0.37052003
239	0x3f993d36	1.1971805
240	0xc1148968	-9.283546
241	0x4066b087	3.6045244
242	0x40486d95	3.1316884
243	0xbd1c856f	-0.03821319
244	0x3d982c83	0.07430365
245	0x3d158d30	0.0365116
246	0xbce70478	-0.028200373
247	0x3db16169	0.08661158
248	0x3fffc53f	1.998207
249	0x3f20172e	0.6253537
250	0xc0b51885	-5.659243
251	0x3f670b7d	0.90251905
252	0x3f728099	0.94727474
253	0xc04dfe0a	-3.2186303
254	0x400a099e	2.156837
255	0x3f92c164	1.1465268

fc2.bias f4 [128]
0	0xbd66613c	-0.056245074
1	0x3fe95d68	1.823163
2	0x3cab48ec	0.020908795
3	0x3f0f7341	0.5603524
4	0xbd9cab19	-0.07649822
5	0x3f16375f	0.5867824
6	0x3ef3c489	0.47610882
7	0x3f1dbdf7	0.6161799
8	0xbcd31315	-0.025765935
9	0x3b5716d3	0.003282
10	0x3f435e5f	0.76315874
11	0x3ed2a73f	0.41143224
12	0x3f042cc9	0.51630837
13	0x3d252658	0.04031977
14	0x3f16b4fa	0.588699
15	0xbdb6f6d7	-0.089338
16	0xbde6d1cc	-0.11270484
17	0x3f268228	0.6504235
18	0x3cd5599d	0.026043708
19	0xbd8ef472	-0.06980218
20	0x3f3088bd	0.68958646
21	0x3f23ab91	0.63933665
22	0x3d613281	0.054979805
23	0xbcd3a5d0	-0.025835901
24	0xbb8d0caf	-0.0043044905
25	0xbd9b966c	-0.0759705
26	0x3fe32e03	1.7748417
27	0x3fee355f	1.8610038
28	0xbdc573d1	-0.09641231
29	0x3fe8b17b	1.8179163
30	0x3ca21473	0.019785142
31	0x3f28c2fb	0.65922517
32	0xbd16cf87	-0.036819007
33	0x3f1de882	0.61682904
34	0xbc3dfb10	-0.0115955025
35	0xbd9c4a02	-0.07631303
36	0xbd4c7916	-0.049920164
37	0xbd671ea1	-0.056425694
38	0xbdac06c5	-0.08399729
39	0x3f13482e	0.5753201
40	0x3f01e227	0.50735706
41	0x3f13b31c	0.57695174
42	0x3f32c6a1	0.69834334
43	0x3fee0f37	1.8598393
44	0x3f14ca5b	0.5812127
45	0x3f30b57c	0.69026923
46	0x3d4a60ac	0.0494086
47	0x3c72a653	0.014810163
48	0x3e95d392	0.29262978
49	0xbc6e40b2	-0.014541792
50	0x3f1c7fba	0.61132395
51	0xbdc9e139	-0.09857411
52	0xbda0232f	-0.07819211
53	0x3fd23a7b	1.6424097
54	0xbde96aae	-0.11397301
55	0x3dfd3328	0.12363273
56	0x3fef079b	1.8674196
57	0xbda49224	-0.080356866
58	0xbc7e1276	-0.015507331
59	0x3fe01ab3	1.7508148
60	0x3f194ac7	0.59879726
61	0x3ce276dc	0.027644567
62	0x3f22f8d9	0.6366096
63	0x3fe2f177	1.7729939
64	0x3fe72069	1.8056766
65	0x3f0e587d	0.5560377
66	0x3f303c2d	0.6884182
67	0x3d9326ed	0.07185159
68	0x3f23ae49	0.63937813
69	0x3f20e345	0.62846786
70	0xbc7338f5	-0.014845123
71	0x3f1296a1	0.5726109
72	0xbb564f36	-0.0032701022
73	0xbd8bc4c6	-0.06824641
74	0x3e8410bd	0.2579402
75	0xbcaa2cd0	-0.020773321
76	0x3f1cf0d5	0.6130498
77	0x3fdbf85c	1.7185168
78	0xbde7bab7	-0.1131491
79	0x3cb7a3e7	0.022417022
80	0xbde95105	-0.113924064
81	0x3f15a84f	0.58459944
82	0xbd934c9b	-0.07192346
83	0xbda49f74	-0.08038226
84	0x3d463802	0.048393257
85	0x3fe6d3b8	1.8033361
86	0x3fefed2e	1.8744256
87	0xbbe1f839	-0.0068960455
88	0x3ff2017c	1.8906703
89	0x3d4322c9	0.047640596
90	0x3c97894c	0.018498085
91	0xbdf48d45	-0.119410075
92	0xbbfcbe80	-0.007713139
93	0xbdb76af6	-0.08955948
94	0xbdc2a77d	-0.09504602
95	0x3fdd1be2	1.7274134
96	0x3f270036	0.65234697
97	0xbcb52731	-0.022113414
98	0x3f2ccf84	0.67504144
99	0xbd9e1f28	-0.07720786
100	0x3f354a54	0.7081654
101	0x3ff3f8aa	1.9060261
102	0x3fe2e052	1.7724707
103	0xbd952cf2	-0.07283963
104	0x3c8f6353	0.017503416
105	0xbc14c588	-0.009080298
106	0x3f0fbed3	0.5615055
107	0xbcc7ca6c	-0.024388514
108	0x3f2454c1	0.64191824
109	0x3fee17db	1.860103
110	0x3f156047	0.5835003
111	0x3f27f8f9	0.6561428
112	0x3f1d4d23	0.61445826
113	0x3f2b3e0d	0.66891557
114	0x3f2756a6	0.6536659
115	0xbd281d18	-0.04104337
116	0x3e91db80	0.28487778
117	0x3c1c44d0	0.009537891
118	0x3f1917b3	0.5980179
119	0xbdab6a0f	-0.083698384
120	0xbd988959	-0.07448072
121	0x3fdc6b7d	1.7220303
122	0x3ee51f36	0.44750375
123	0x3f2eef05	0.68333465
124	0x3f294a61	0.6612912
125	0x3f1cf5dd	0.6131266
126	0xbd318b43	-0.0433457
127	0x3f194653	0.5987293

fc3.weight f4 [4, 128]
0	0xbd8f8e3f	-0.07009553
1	0xc0649948	-3.5718555
2	0xbd121c42	-0.03567148
3	0x40ae5c81	5.448792
4	0x3d3a9fdd	0.045562614
5	0x40abfcca	5.374608
6	0x40c6c6ba	6.2117586
7	0x40a88208	5.265873
8	0x3d487bd7	0.048946228
9	0x3ce66cd6	0.028128069
10	0x40a71f22	5.2225504
11	0x40f69b46	7.7064543
12	0x40b63104	5.6934834
13	0x3c28b3b4	0.010296751
14	0x40a5ef40	5.1854553
15	0xbcecedd6	-0.028922003
16	0x3b6a2820	0.0035729483
17	0x40c023a7	6.004352
18	0x3d0eb616	0.03484162
19	0x3cca7f28	0.024718836
20	0x40a96fd5	5.2949014
21	0x40a6d4d3	5.2134795
22	0xbe4597f1	-0.19296242
23	0x3c836dfb	0.016043654
24	0x3c97fbd8	0.018552706
25	0x3d42cf23	0.047560822
26	0xc041baa6	-3.027017
27	0xc064d6cd	-3.5756104
28	0x3d5ad157	0.0534223
29	0xc064b230	-3.5733757
30	0x3d674133	0.056458663
31	0x40a9c3ac	5.3051357
32	0x3cc07d21	0.023497166
33	0x40ab98a1	5.3623815
34	0xbce18b2e	-0.027532186
35	0x3c9ed40c	0.019388221
36	0xbdb16aa5	-0.08662919
37	0x3da1bb33	0.078970335
38	0xbd875f52	-0.06609978
39	0x40ac4689	5.3836102
40	0x40b47be3	5.640123
41	0x40aa97a4	5.331011
42	0x40abc079	5.367245
43	0xc06ac8b5	-3.6685002
44	0x40b66bf1	5.7006764
45	0x409e20ad	4.9414887
46	0xbd92a6d4	-0.07160726
47	0xbd38d75a	-0.04512725
48	0x40cad460	6.3384247
49	0x3c305345	0.0107620405
50	0x40afa36e	5.4887
51	0xbdeb952c	-0.11503062
52	0x3d792c66	0.060833357
53	0xc010ae61	-2.2606432
54	0x3bd5044c	0.0065007564
55	0x40a82fc9	5.255833
56	0xc06c5d7d	-3.693206
57	0xb9cad300	-0.0003868565
58	0x3d9ed1aa	0.07754834
59	0xc063ceea	-3.559504
60	0x40af2513	5.4732757
61	0xbbeecc7d	-0.0072875605
62	0x40a9d378	5.307064
63	0xc0676860	-3.6157455
64	0xc0648eb6	-3.5712104
65	0x40b3c3c7	5.6176486
66	0x40a74c27	5.228046
67	0x3aef76d8	0.0018269671
68	0x40aa96f6	5.330928
69	0x40a783b5	5.2348275
70	0xbcbca15c	-0.02302616
71	0x40afea96	5.497386
72	0xbc7959c0	-0.015219152
73	0xbd670565	-0.05640163
74	0x40a2bfc4	5.085909
75	0xbd70155b	-0.058614116
76	0x40a74f81	5.228455
77	0xc05a557c	-3.4114676
78	0xbb1b9974	-0.0023742588
79	0xbd1e8788	-0.03870347
80	0xbc7467d6	-0.014917335
81	0x40b197d5	5.549784
82	0x3d8fd9a2	0.07023932
83	0xbbd65f96	-0.0065421565
84	0xbd8b39a5	-0.06798104
85	0xc06227df	-3.5336835
86	0xc0661f6b	-3.5956676
87	0xbc7794fd	-0.015111205
88	0xc064b942	-3.5738072
89	0xbccf0b99	-0.025274085
90	0x3da44267	0.08020478
91	0xbd85f94f	-0.065416925
92	0x3db2d9a7	0.0873292
93	0xbda6396a	-0.081164196
94	0xbde53170	-0.1119107
95	0xc0612c5c	-3.5183325
96	0x40a8ff70	5.2811813
97	0xbcd1bb54	-0.02560202
98	0x40abc83b	5.368192
99	0x3d7ba08e	0.061432414
100	0x40a8f2fd	5.2796617
101	0xc0618b40	-3.5241241
102	0xc0669216	-3.6026664
103	0xbd3b96d9	-0.045798156
104	0xbd0f29a7	-0.034951832
105	0xbd9d7c42	-0.07689716
106	0x40a65305	5.197634
107	0xbc2f0a98	-0.010683678
108	0x40a38a04	5.1105976
109	0xc06727e1	-3.611809
110	0x40ad65a4	5.4186573
111	0x40a6bfef	5.2109294
112	0x40ad5d9c	5.417677
113	0x40aa3044	5.318392
114	0x40a61123	5.189592
115	0xbc91670c	-0.017749332
116	0x40cfd5fd	6.4948716
117	0x3cd43d29	0.02590807
118	0x40a7a84b	5.2392936
119	0xbd1398a0	-0.036034226
120	0x3b7faa7e	0.0039011533
121	0xc05b47a5	-3.4262478
122	0x40d80a7c	6.75128
123	0x40adb1cf	5.427955
124	0x40a8b707	5.272342
125	0x40a96dfd	5.2946763
126	0x3db0c103	0.08630564
127	0x40a8387c	5.256895
128	0x3d5842c2	0.05279804
129	0xc077a159	-3.8692229
130	0xbd408bf6	-0.047008477
131	0x40b169bc	5.544157
132	0xbd3ea6a5	-0.046545643
133	0x40b0c612	5.5241785
134	0x40b7104e	5.7207403
135	0x40af434d	5.4769654
136	0x3ca5ca72	0.020238135
137	0x3d5f04f2	0.054448076
138	0x40b1daa7	5.557941
139	0x40e98093	7.296945
140	0x40b6ea25	5.716082
141	0xbd884210	-0.066532254
142	0x40b0dc79	5.526913
143	0xbbc08557	-0.0058752703
144	0x3d5f1936	0.054467402
145	0x40e5cb28	7.1810493
146	0x3c0821f8	0.00830888
147	0xbd069da5	-0.032865185
148	0x40b37bc1	5.6088567
149	0x40b303d5	5.594218
150	0xbe76334d	-0.24043007
151	0xbcaf2f2f	-0.021384804
152	0x3d091882	0.033470638
153	0x3d6b88e9	0.057503615
154	0xc03bde77	-2.9354532
155	0xc07725d6	-3.8616843
156	0xbd289697	-0.04115924
157	0xc071d118	-3.778387
158	0xbc1138b5	-0.008863618
159	0x40b0e720	5.5282135
160	0x3c25b29b	0.010113384
161	0x40b3f6fa	5.6238985
162	0x3af5bf00	0.0018748939
163	0xbb8fb130	-0.004385136
164	0x3c9fe070	0.0195162
165	0x3ce277ba	0.02764498
166	0x3d822a62	0.0635574
167	0x40b23c01	5.5698247
168	0x40b960cd	5.7930665
169	0x40b295e1	5.580796
170	0x40b5455f	5.664718
171	0xc082d01b	-4.0879035
172	0x40adc676	5.430476
173	0x40b5c381	5.680115
174	0xbc2c3639	-0.010510975
175	0x3ab09cc0	0.001347445
176	0x40c1a161	6.0509496
177	0x3d6ed341	0.058306936
178	0x40b6f7da	5.7177553
179	0x3c9f2388	0.019426122
180	0xbdaf62cb	-0.08563765
181	0xbfdabe4d	-1.7089325
182	0xbdf17699	-0.11790199
183	0x40b1159b	5.5338874
184	0xc085be35	-4.1794686
185	0x3d9a1d87	0.07525163
186	0xbcfae117	-0.03062491
187	0xc07a5ec2	-3.9120336
188	0x40b16055	5.5430093
189	0xbcdd0da4	-0.026984043
190	0x40b29c38	5.5815697
191	0xc0701012	-3.7509809
192	0xc06ef63a	-3.7337785
193	0x40b3c54c	5.617834
194	0x40b230df	5.5684657
195	0xbd5cc678	-0.053900212
196	0x40d8ab88	6.770939
197	0x40b0c77a	5.52435
198	0x3d0f4199	0.03497467
199	0x40afeef4	5.497919
200	0xbd2f4461	-0.04278982
201	0xbd5e43b6	-0.054263793
202	0x40a4a4e3	5.145128
203	0x3d3cb844	0.046074167
204	0x40b02566	5.5045652
205	0xc04c1173	-3.188565
206	0xbd268ae3	-0.040659796
207	0x3c872258	0.016495869
208	0xbd55ec96	-0.05222758
209	0x40b1c8ff	5.5557857
210	0x3d112eb0	0.035444915
211	0xbd89f3d0	-0.06735957
212	0xbd1d09dc	-0.03833948
213	0xc07446d9	-3.8168242
214	0xc0725271	-3.7862818
215	0xbd5e0c2d	-0.05421083
216	0xc0804cca	-4.0093737
217	0xbd31affe	-0.04338073
218	0x3d1af9ba	0.037835814
219	0xbcb44659	-0.0220062
220	0x3d4f0e8e	0.05055099
221	0xbc8f4c3b	-0.017492404
222	0x3d653e8b	0.05596785
223	0xc055f9bf	-3.3433683
224	0x40b111e0	5.533432
225	0xbbe9b02a	-0.007131596
226	0x40b17943	5.5460525
227	0xbd61b377	-0.05510279
228	0x40b1e6b0	5.55941
229	0xc06909fb	-3.6412342
230	0xc0793a94	-3.8942003
231	0xbcfac8a8	-0.030613258
232	0xbd5f2d0f	-0.05448633
233	0xbd54a798	-0.051917642
234	0x40ae4a7c	5.4465923
235	0x3a6d9d00	0.00090642273
236	0x40aabe27	5.335712
237	0xc06f639f	-3.7404554
238	0x40b63053	5.693399
239	0x40b10d60	5.5328827
240	0x40b3ec9f	5.6226344
241	0x40b4b711	5.647347
242	0x40b17e53	5.5466704
243	0xbdb4b920	-0.08824372
244	0x40d582b1	6.6722035
245	0xbc3ff32c	-0.011715692
246	0x40b1c20a	5.5549364
247	0x3d1f943e	0.038959734
248	0xbd5182f1	-0.051150266
249	0xc0597245	-3.3975995
250	0x40d04608	6.5085487
251	0x40b75ebf	5.7303157
252	0x40b2d6cf	5.5887218
253	0x40b2870f	5.5789866
254	0xbd77917c	-0.06044148
255	0x40b1babf	5.554046

fc3.bias f4 [4]
0	0xbd8f4ce2	-0.06997086
1	0x3f8af812	1.0856955
2	0xbefaaca6	-0.48959845
3	0x3f2fcdfc	0.6867368
