trained_models/checkpoint_ep700.pth (torch, 416142 bytes, 14 tensors)

fc1.weight f4 [256, 8]
0	0xbe38bff0	-0.18041968
1	0x3d90857d	0.07056711
2	0xbe144314	-0.14478713
3	0x3db26e46	0.08712439
4	0x3d9fa127	0.07794409
5	0x3e0fbc12	0.14036587
6	0x3f20d950	0.6283159
7	0x3d166586	0.036717914
8	0xbdf5a0e6	-0.119935796
9	0x3e867a59	0.2626522
10	0xbd11cf4f	-0.035598096
11	0x3db0b386	0.086279914
12	0x3d160891	0.036629263
13	0x3e3cc19e	0.18433234
14	0x3e996cef	0.29965922
15	0xbd1cb351	-0.038256947
16	0x3d630c2d	0.055431534
17	0xbebffa48	-0.37495637
18	0x3f05426b	0.5205447
19	0xbe9ecf33	-0.31017455
20	0xbe3ac049	-0.18237413
21	0x3eb38870	0.3506503
22	0x3bfd8209	0.0077364487
23	0x3de58f8a	0.112090185
24	0xbdff4ef0	-0.12466228
25	0x3e7a4e2f	0.24443887
26	0xbc284105	-0.010269408
27	0x3d34fa8d	0.044184256
28	0xbe8a752a	-0.27042514
29	0x3ecc1ce7	0.398658
30	0x3ea09864	0.31366265
31	0xbd1c94d1	-0.03822786
32	0x3e3b0460	0.18263388
33	0xbf1aad15	-0.6042035
34	0x3e2ccc31	0.16874768
35	0xbe649b00	-0.22324753
36	0x3e8bb5bc	0.2728709
37	0x3e5a1867	0.21298371
38	0x3e1b1b2c	0.15147084
39	0x3e6109b6	0.2197636
40	0x3d93363f	0.07188081
41	0xbe7ebe4f	-0.24877284
42	0x3eb4b2e7	0.35292742
43	0xbe88ef80	-0.26745224
44	0x3e7fa55a	0.2496542
45	0xbe185b92	-0.14878681
46	0x3ea0667d	0.31328192
47	0x3a9a6efe	0.0011782346
48	0xbe26f786	-0.1630536
49	0x3e5f49af	0.21805452
50	0x3da49f40	0.08038187
51	0x3e12ca0b	0.14334886
52	0x3d3d566d	0.046225
53	0x3e149581	0.14510156
54	0x3e95ba11	0.2924352
55	0xbccf61b4	-0.025315143
56	0xbcb135e4	-0.021632142
57	0x3e2c041b	0.16798441
58	0x3e3df77c	0.18551439
59	0xbd4a7468	-0.04942742
60	0x3cd702f1	0.02624652
61	0x3e479c42	0.19493201
62	0x3e71ae34	0.2360161
63	0xbd8f2ef8	-0.069913805
64	0xbd925925	-0.07145909
65	0x3e9d7ad2	0.30757767
66	0x3c233c17	0.009963057
67	0xbcb3cfcf	-0.021949677
68	0x3c80d3ab	0.015725931
69	0x3e6b6560	0.2298789
70	0x3e8db031	0.27673486
71	0xbe183eee	-0.14867756
72	0xbe13f47c	-0.14448732
73	0xbe42b402	-0.1901398
74	0x3e0f5cbd	0.1400022
75	0x3da1707d	0.078827836
76	0xbf141ce6	-0.57856596
77	0x3f1c01e8	0.6094041
78	0x3eb5b15d	0.3548688
79	0x3e521e43	0.20519356
80	0xbe0d7d5f	-0.13817357
81	0x3e870321	0.26369575
82	0x3dd2d650	0.10294783
83	0x3d7583ba	0.059940077
84	0xbdb77e7b	-0.08959671
85	0x3e865cc4	0.2624265
86	0x3e8bfd52	0.27341706
87	0x3c55655a	0.013024652
88	0xbdca5204	-0.098789245
89	0x3e8b51ec	0.2721094
90	0xbb03ba35	-0.0020100002
91	0x3d6a5fc7	0.057220247
92	0xbe0332b8	-0.12812316
93	0x3e9daf4c	0.30797803
94	0x3e84d7bf	0.2594585
95	0xbd07a43b	-0.033115607
96	0x3e1b72de	0.15180537
97	0x3ddef6d8	0.108869255
98	0xbec192d1	-0.37807325
99	0x3bf19bae	0.007373295
100	0x3e8951f3	0.26820335
101	0x3d32eaf3	0.043681096
102	0x3de0e619	0.10981388
103	0xbd1d3f01	-0.038390163
104	0x3ec63304	0.38710797
105	0xbe328d3f	-0.17436694
106	0x3e42e4f5	0.19032653
107	0xbeabf835	-0.33587804
108	0x3f21f55e	0.63265026
109	0x3d6761fd	0.056489933
110	0x3d9923c9	0.074775286
111	0x3d98dcbd	0.074639775
112	0xbe97a132	-0.2961517
113	0xbd871ec6	-0.065976664
114	0xbe0749e2	-0.13211778
115	0x3f357882	0.70887005
116	0x3eb1dcd9	0.34738806
117	0xbe8f8fae	-0.28039306
118	0x3e82bed0	0.25536203
119	0xbd873c13	-0.06603255
120	0xbcf429e6	-0.029805135
121	0x3e5f1ee2	0.21789125
122	0x3d8f3cba	0.069940045
123	0x3e53a051	0.20666625
124	0x3d8673ab	0.06565031
125	0x3e5147e6	0.20437583
126	0x3e634bd9	0.22196902
127	0xbdc5d126	-0.096590325
128	0xbd79ac69	-0.06095544
129	0x3e91cf98	0.28478694
130	0xbcfa275e	-0.03053635
131	0x3d83b32f	0.06430661
132	0xbe1e0488	-0.15431416
133	0x3e9eec3f	0.31039616
134	0x3e9ab91d	0.30219355
135	0xbd875b4c	-0.0660921
136	0x3d1dbecd	0.03851204
137	0xbee96ab0	-0.4558921
138	0x3ea6bd1a	0.32566148
139	0xbf0016c1	-0.5003472
140	0x3e8fd7f4	0.28094447
141	0x3cf1a111	0.029495748
142	0x3f0da7bc	0.5533407
143	0xbca23613	-0.019801175
144	0xbda5bbce	-0.080924615
145	0x3e92d401	0.2867737
146	0xbc643b56	-0.013930162
147	0x3d3ba138	0.045808047
148	0xbde701d7	-0.11279648
149	0x3ed33c1f	0.41256806
150	0x3ea87840	0.32904243
151	0xbe46b94a	-0.1940662
152	0xbdf2cc09	-0.11855323
153	0xbd8e1152	-0.06936897
154	0xbebcf5a8	-0.3690617
155	0xbf062ee1	-0.5241528
156	0x3f0afb8f	0.542901
157	0x3e999090	0.29993105
158	0x3ea02598	0.31278682
159	0xbe4fd9b5	-0.20297892
160	0xbdc2e558	-0.095164
161	0xbe3bec77	-0.18351923
162	0x3d5f05e2	0.05444897
163	0x3d29a323	0.041415345
164	0xbf1b615e	-0.60695446
165	0x3f46c66c	0.7764652
166	0xbce3f840	-0.027828336
167	0x3e2c1e1d	0.16808362
168	0xbea738f3	-0.32660636
169	0x3e35195b	0.17685454
170	0xbe87282e	-0.26397842
171	0x3ea11635	0.31462255
172	0xbe760d81	-0.24028589
173	0x3ea944e0	0.3306036
174	0x3ec54c8a	0.38534957
175	0x3bd56aae	0.0065129614
176	0xbddabf33	-0.106809996
177	0x3ecd1571	0.4005542
178	0x3d52b262	0.05143965
179	0xbe195a7b	-0.14975922
180	0x3e126dec	0.14299744
181	0x3dea0db5	0.11428396
182	0x3e075fbd	0.13220115
183	0xbe363dc6	-0.17797002
184	0xbcd26715	-0.025683919
185	0x3e0d8896	0.13821635
186	0x3cd4686f	0.025928704
187	0x3dee7852	0.11644043
188	0xbe3c82e7	-0.1840931
189	0x3eb03a1a	0.34419328
190	0x3ead23eb	0.33816466
191	0xbe087769	-0.13326801
192	0xbe93ad8c	-0.28843343
193	0xbe1b0d2f	-0.15141748
194	0xbed0961d	-0.40739527
195	0xbf0f5d34	-0.5600159
196	0x3e118d77	0.14214121
197	0x3eb2bfcd	0.34911957
198	0x3e9ca85d	0.305972
199	0x3d367c2d	0.044552017
200	0xbec34459	-0.38138083
201	0x3de00de7	0.10940152
202	0xbd5b8aca	-0.053599156
203	0x3f02cedc	0.5109689
204	0xbd55f803	-0.052238476
205	0x3e00d116	0.1257976
206	0x3f03f1e4	0.5154097
207	0xbdff48b0	-0.12465036
208	0xbdedf459	-0.11618871
209	0x3ed34abe	0.4126796
210	0x3da2238a	0.07916935
211	0x3cc517d1	0.024059208
212	0xbd79bdb4	-0.06097193
213	0x3e2542be	0.16138741
214	0x3e79887b	0.2436847
215	0xbe3771d0	-0.1791451
216	0xbde3adba	-0.1111712
217	0x3eb27b62	0.3485976
218	0x3c91f838	0.017818555
219	0x3d0a5d5d	0.033780444
220	0xbe24e636	-0.16103444
221	0x3ea5afbc	0.32360637
222	0x3e767bca	0.2407066
223	0xbdb39aee	-0.08769785
224	0xbd3876f6	-0.045035325
225	0x3eb8bbf8	0.3608091
226	0x3cac9952	0.021069203
227	0x3c576d25	0.013148581
228	0xbe300361	-0.17188789
229	0x3ea7bcef	0.32761332
230	0x3e6a9c65	0.22911222
231	0xbe0c8163	-0.13721232
232	0x3dca0767	0.09864693
233	0x3e679b9c	0.22617954
234	0x3aafb1df	0.001340445
235	0x3d85e4d3	0.065377854
236	0xbed48029	-0.41504028
237	0x3e33da07	0.1756364
238	0x3e5733fa	0.21015921
239	0x3dd57435	0.10422555
240	0xbe264e6c	-0.16240853
241	0x3e87d6ac	0.2653097
242	0xbe3b302b	-0.18280093
243	0x3e4d77b9	0.20065202
244	0xbe20d0a6	-0.15704593
245	0x3e9e0dfb	0.3087004
246	0x3e8c1eec	0.27367342
247	0x3cc5eafb	0.024159899
248	0xbe49db9c	-0.1971268
249	0x3e953709	0.2914355
250	0xbb9a6b6d	-0.004712513
251	0x3d894cf0	0.06704128
252	0xbccaa7ef	-0.02473828
253	0x3e82c40b	0.25540194
254	0x3e9f3c52	0.31100708
255	0xbd69e135	-0.05709954

fc1.bias f4 [256]
0	0xbb3265c1	-0.0027221295
1	0xbd008046	-0.03137233
2	0x3db8b6bf	0.09019231
3	0xbc47227f	-0.012154221
4	0x3df0980d	0.117477514
5	0xbd1581da	-0.03650079
6	0xbcc71c24	-0.02430541
7	0xbcfffe27	-0.031249119
8	0xbcdc8096	-0.026916783
9	0x3de832da	0.11337824
10	0xbdca7122	-0.098848596
11	0xbd67134b	-0.056414884
12	0xbd6204f5	-0.05518051
13	0x3d6f46aa	0.058417
14	0xbdca6dea	-0.09884246
15	0xbd991219	-0.07474155
16	0xbd3ce8d7	-0.04612049
17	0xbd3f9f3e	-0.046782725
18	0xbd187f33	-0.03723068
19	0xbdc51c91	-0.09624589
20	0x3e29e512	0.1659129
21	0xbd6638b0	-0.056206405
22	0xbe1339a0	-0.14377451
23	0xbd123849	-0.03569821
24	0xbbf5075f	-0.0074776853
25	0xbd3dcdd4	-0.04633887
26	0xbd2561af	-0.04037636
27	0xbd9d6d14	-0.076868206
28	0xbd98be03	-0.07458117
29	0x3b9c11d4	0.0047628675
30	0xbc30eec8	-0.010799117
31	0xbd1a09e3	-0.037607085
32	0xbc8dad75	-0.017294625
33	0xbcd79fe2	-0.026321355
34	0xbd928b9a	-0.07155533
35	0x3df44b8b	0.11928471
36	0x3dd0738c	0.10178289
37	0x3de69c8f	0.1126033
38	0xbdd2a94a	-0.102861956
39	0xbd61e985	-0.055154342
40	0xbd8181f4	-0.06323615
41	0xbe58112f	-0.21100305
42	0x3d51ce0d	0.051221896
43	0xbe5f595d	-0.21811433
44	0xbd907576	-0.07053654
45	0xbd56f34f	-0.05247813
46	0xbeb61bb3	-0.35568008
47	0xbda3a7c1	-0.07990981
48	0xbd783d16	-0.06060513
49	0xba1d1a4d	-0.0005992994
50	0x3b2a093d	0.0025945448
51	0x3dc2fa69	0.09520418
52	0xbd1470c0	-0.03624034
53	0xbd93a559	-0.07209272
54	0xbc75e9e8	-0.015009381
55	0xbc412be2	-0.011790248
56	0xbce18fa8	-0.027534321
57	0xbe2023ce	-0.15638658
58	0xbd7c40ac	-0.061585113
59	0xbd8adc4f	-0.06780302
60	0x3e0cb7c5	0.13741978
61	0xbce36876	-0.027759772
62	0xbda05d78	-0.07830328
63	0xba662d17	-0.00087805226
64	0x3c84ae71	0.016196461
65	0xbce6945c	-0.028146915
66	0xbd516f75	-0.051131684
67	0xbd4d8c9a	-0.050182916
68	0xbd84ebb1	-0.06490267
69	0xbd2d543e	-0.042316668
70	0x3b96885a	0.004593891
71	0xbd85f7fa	-0.065414384
72	0xbe9362de	-0.28786367
73	0x3aa3c873	0.0012495652
74	0x3e6e0f91	0.23248126
75	0xbd92af26	-0.07162313
76	0xbd8fea39	-0.07027096
77	0xbd07ddcd	-0.03317051
78	0xbd8b5c83	-0.068047546
79	0xbd47e85b	-0.048805576
80	0xbd531894	-0.05153711
81	0xbd6c2409	-0.057651553
82	0xbda4757e	-0.08030222
83	0xbd81ee0f	-0.06344234
84	0x3dfdfbd3	0.12401547
85	0x3cae063e	0.02124321
86	0xbbb2bb1b	-0.0054544336
87	0xbde09862	-0.10966565
88	0x3c24a11e	0.010048179
89	0xbdac9b68	-0.08428079
90	0xbe839678	-0.25700736
91	0xbda3ee4a	-0.080044344
92	0xbd376f25	-0.04478373
93	0xbe83ab04	-0.25716412
94	0xbcd18617	-0.025576634
95	0xbe087c00	-0.13328552
96	0x3d8d6801	0.06904603
97	0x3c90b268	0.017663196
98	0xbd797463	-0.06090201
99	0xbd18dd80	-0.037320614
100	0x3c3b9f68	0.01145158
101	0x3ce2a2ce	0.027665522
102	0x3dfb5361	0.12271763
103	0xbd9e4fcb	-0.07730063
104	0x3e2b8847	0.16751204
105	0xbd9cd1c4	-0.07657197
106	0xbd9d793f	-0.076891415
107	0xbd0c15a0	-0.03420031
108	0xbcfb6c74	-0.030691363
109	0x3b8158dd	0.003947361
110	0x3bee75d3	0.0072772293
111	0x3c81d683	0.015849357
112	0xbd496753	-0.049170803
113	0xbecd6251	-0.40114072
114	0x3e7275cf	0.23677753
115	0xbd592949	-0.05301789
116	0x3a90323a	0.0011001297
117	0xbc0ed5c7	-0.008717961
118	0xbd907355	-0.07053248
119	0xbcec0a8a	-0.02881362
120	0xbd812ae4	-0.06307009
121	0xbd3853d7	-0.04500183
122	0xbda8618e	-0.08221732
123	0x3d32e2cf	0.043673333
124	0x3e174cff	0.14775465
125	0xbd139a6a	-0.036035933
126	0xbd888ce7	-0.066675
127	0xbdd7c52e	-0.10535656
128	0x3a6d1e38	0.00090453355
129	0xbd4720a0	-0.048615098
130	0xbbcb1c94	-0.006198475
131	0xbd1c9750	-0.03823024
132	0xbe42c0b9	-0.1901883
133	0xbd0d709f	-0.034531232
134	0xbd694140	-0.056946993
135	0xbdacca5d	-0.08437035
136	0xbd39154c	-0.045186326
137	0xbd7d7ba1	-0.06188548
138	0x3d69d042	0.057083376
139	0xbe367c99	-0.17820968
140	0xbd52f01d	-0.05149852
141	0xbcecc3e4	-0.028902002
142	0xbd3c072e	-0.045905285
143	0xbd856d7b	-0.06515022
144	0xbc9759a0	-0.018475354
145	0xbc3e77e9	-0.0116252685
146	0xbd4fe7ae	-0.050758056
147	0xbda82e63	-0.082119726
148	0xbd4dec25	-0.050274033
149	0xbd9cc7e7	-0.07655316
150	0xbbc809aa	-0.0061046677
151	0x3de4608b	0.111512266
152	0xbd500204	-0.050783172
153	0xbda3079f	-0.07960438
154	0xbd53c311	-0.0516997
155	0xbd7f55ee	-0.06233781
156	0xbd942020	-0.0723269
157	0xbe5d3d69	-0.21605457
158	0xbdc63b45	-0.096792735
159	0xbdcd963e	-0.10038422
160	0xbe4e878d	-0.20168896
161	0xbd48d5e7	-0.04903212
162	0xbd34d346	-0.0441468
163	0xbd926012	-0.0714723
164	0xbea5ae51	-0.32359555
165	0xbd9250a4	-0.07144287
166	0xbd4ef414	-0.05052574
167	0xbd651fe7	-0.055938628
168	0x3c88c26a	0.016694266
169	0x3b75e7b8	0.0037522148
170	0xbd317da6	-0.04333272
171	0xbca4ff1d	-0.020141179
172	0xbd559f6e	-0.052153997
173	0xbd82dcb8	-0.06389755
174	0xbd32d0cf	-0.043656167
175	0xbcfd7b36	-0.03094254
176	0x3ccade87	0.024764312
177	0xbe6a84e7	-0.2290226
178	0xbd35276d	-0.044227052
179	0x3d2eb159	0.0426496
180	0xbd124bb6	-0.035716735
181	0x3d52a57c	0.05142735
182	0xbc218e40	-0.009860575
183	0xbd1fbcd8	-0.038998455
184	0x3e31d85a	0.17367688
185	0x3dd03cce	0.101678476
186	0xbcc96c9d	-0.024587924
187	0xbdc35a9b	-0.09538766
188	0xbd9c4d0f	-0.07631885
189	0xbd19e179	-0.037568543
190	0xbd35c897	-0.04438075
191	0xbd60b444	-0.054859415
192	0xbbb78ec1	-0.0056017344
193	0xbce093ee	-0.027414288
194	0x3beb9069	0.007188846
195	0xbccac1a9	-0.024750547
196	0xbcd045c4	-0.025423892
197	0xbda316b2	-0.07963313
198	0xbd98ef05	-0.07467464
199	0xbd31159d	-0.043233503
200	0xbe48d162	-0.19611123
201	0x3e349363	0.17634349
202	0xbd97fd71	-0.07421387
203	0x3c80951a	0.015696097
204	0xbd91c82c	-0.07118258
205	0xbd262de8	-0.040571123
206	0xbd40672f	-0.046973404
207	0xbd9261cf	-0.07147562
208	0xbd1ea6c3	-0.038733255
209	0xbd863871	-0.06553734
210	0xbd19b1d4	-0.037523106
211	0xbd5b80d2	-0.05358965
212	0xbcca668d	-0.024707103
213	0xbe806a20	-0.25080967
214	0xbd91ca08	-0.071186125
215	0xbcba53bd	-0.022745008
216	0x3b84144c	0.00403074
217	0xbd6bb1f2	-0.05754275
218	0x3e1b415c	0.15161651
219	0xbdc55e07	-0.09637075
220	0x3c1ab8dc	0.009443488
221	0x3b295a19	0.0025841056
222	0xbd2a0a52	-0.04151375
223	0xbc25353d	-0.010083494
224	0x3e30050f	0.1718943
225	0xbde60291	-0.11230958
226	0xbd8252c2	-0.06363441
227	0xbceb54ba	-0.028726924
228	0xbc870346	-0.016481053
229	0xbdeae757	-0.11469906
230	0xbd3c8b63	-0.046031367
231	0xbdbbd681	-0.09171773
232	0xbd3d63a1	-0.04623759
233	0x3d3a51c4	0.045488134
234	0x3d0e28dc	0.034706935
235	0xbd2b507c	-0.041824803
236	0x3e12bf11	0.14330699
237	0xbd4ca61a	-0.049963094
238	0xbdb80966	-0.089861676
239	0xbd293526	-0.041310452
240	0x3d008460	0.031376243
241	0xbe957e1d	-0.2919778
242	0xbd4b443a	-0.049625613
243	0xbdd82942	-0.10554744
244	0xbd2d2217	-0.04226884
245	0xbd634735	-0.05548783
246	0x3e3380f6	0.17529663
247	0x3d941628	0.072307885
248	0x3db20c85	0.08693794
249	0xbd50974d	-0.05092554
250	0x3d044268	0.032289892
251	0xbbb1c644	-0.0054252464
252	0xbd8f715c	-0.070040435
253	0xbdcb7472	-0.099343196
254	0x3dcaa650	0.09895003
255	0x3ce07cbf	0.027403234

fc2.weight f4 [256, 256]
0	0xbf1057ab	-0.5638377
1	0xbcdeeb28	-0.02721174
2	0xbe3366ba	-0.17519656
3	0xbcaf9729	-0.021434383
4	0xbe9dc7fc	-0.30816638
5	0xbe6ea7f3	-0.23306255
6	0x3e5ae536	0.213765
7	0xbe6118bd	-0.21982093
8	0x3cb57365	0.022149751
9	0xbfc392dd	-1.5279194
10	0xbda4186f	-0.08012473
11	0x3da6d913	0.08146872
12	0x3e7e70d9	0.24847735
13	0xbe783d86	-0.2424222
14	0x3f20ada3	0.6276495
15	0x3df9d2c7	0.12198406
16	0x3d2018c3	0.039086115
17	0x3c28f096	0.010311266
18	0x3cf38343	0.029725676
19	0x3e048927	0.12942944
20	0xbf68a203	-0.9087221
21	0x3f02e213	0.5112621
22	0x3ec7fc8c	0.39059865
23	0xbf0c9e3d	-0.5492895
24	0xbdb4c78a	-0.088271216
25	0x3e8b99ac	0.2726568
26	0x3da243d1	0.07923091
27	0x3dd986d5	0.1062142
28	0x3e1501d2	0.14551476
29	0xbe80f990	-0.251904
30	0x3e7c7b48	0.24656403
31	0x3d2b7775	0.04186197
32	0xbeb60605	-0.35551468
33	0x3d95fbba	0.07323404
34	0x3e1d8e62	0.15386346
35	0xbec72bee	-0.38900703
36	0xbf007221	-0.50174147
37	0xbf1b4a5f	-0.60660356
38	0x3c17aa75	0.009256949
39	0x3cc469c7	0.02397622
40	0x3d59781b	0.053093057
41	0x3e8f2f04	0.27965558
42	0xbf8c42cf	-1.0957888
43	0x3f08c7e0	0.53429985
44	0x3de287b1	0.11061037
45	0xbd1670c8	-0.03672865
46	0x3ee592da	0.448386
47	0x3e0bc883	0.13650708
48	0x3e03668a	0.12832084
49	0x3f131a08	0.57461596
50	0x3ebcc686	0.3687021
51	0x3e8f4743	0.27984056
52	0xbde3aaaf	-0.1111654
53	0x3d6e79f6	0.05822178
54	0xbe727249	-0.23676409
55	0x3e11e934	0.14249116
56	0x3dfb0726	0.12257223
57	0x3d209817	0.039207544
58	0x3d28c500	0.0412035
59	0x3de17baf	0.11009919
60	0x3dad52a3	0.08463027
61	0xbe076a09	-0.13224043
62	0x3db8631a	0.09003277
63	0xbe90bc76	-0.28268784
64	0xbc6caa28	-0.014444865
65	0xbe5a69a5	-0.21329363
66	0xbde7a796	-0.11311261
67	0x3e08827e	0.13331029
68	0x3d06245c	0.03274952
69	0xbe067dfa	-0.13133994
70	0xbe9dfb1e	-0.3085565
71	0x3d8de402	0.06928255
72	0x3da7034d	0.081549264
73	0x3ebfc6ae	0.37456268
74	0x3d8e545e	0.069496855
75	0xbce97f31	-0.028503032
76	0x3e083607	0.1330186
77	0x3d481773	0.048850488
78	0x3ca59946	0.020214688
79	0x3e7823d9	0.24232425
80	0x3d70216e	0.05862563
81	0x3cc941ae	0.024567451
82	0x3e78958f	0.24275802
83	0x3ea0ddea	0.31419307
84	0x3e923108	0.28553033
85	0xbe7b71e6	-0.24555168
86	0xbd0a084c	-0.03369932
87	0x3e748d72	0.23882082
88	0xbdf46c73	-0.119347475
89	0x3d944095	0.072388805
90	0xbe6dd43a	-0.2322549
91	0x3d7ac9b1	0.061227504
92	0x3db48271	0.08813942
93	0x3e17b27e	0.14814183
94	0x3d924c83	0.071435
95	0x3ee71625	0.45134082
96	0xbe009351	-0.12556197
97	0x3f19a575	0.6001809
98	0x3cee977c	0.029124968
99	0x3e0a154f	0.13484691
100	0x3f285d53	0.657674
101	0xbdfd668d	-0.12373076
102	0xbd8a6865	-0.06758193
103	0x3d307d6e	0.04308837
104	0xbf7522ad	-0.95756036
105	0x3dc89c65	0.09795455
106	0x3e901532	0.2814117
107	0x3dee83c3	0.11646225
108	0xbdcb3167	-0.09921532
109	0xbe1feb65	-0.1561714
110	0x3d996fd3	0.07492032
111	0x3e8f0d66	0.2793991
112	0x3e9ec266	0.3100769
113	0x3e11cbd7	0.14237915
114	0x3c8a5b8e	0.01688936
115	0x3d168796	0.0367504
116	0x3c51cd4c	0.012805294
117	0x3e1809d5	0.148475
118	0x3d271a7d	0.040796746
119	0x3e2c1b01	0.16807176
120	0x3dd9eb29	0.10640556
121	0x3dfac3be	0.12244366
122	0x3e2168fc	0.15762705
123	0xbf63e6cc	-0.89024043
124	0xbf307c2d	-0.6893948
125	0xbf11b080	-0.5690994
126	0xbd0bec96	-0.034161173
127	0xbeb8d81c	-0.36102378
128	0x3eed6f9d	0.46374217
129	0xbdab7b48	-0.083731234
130	0xbd5b5755	-0.053550083
131	0x3df69e75	0.12041942
132	0x3f26ca68	0.651526
133	0xbd2f0c04	-0.04273607
134	0x38798e2e	5.949864e-05
135	0x3f149991	0.58046824
136	0x3dfd460e	0.123668775
137	0x3e31bbfd	0.17356868
138	0x3f014bb7	0.50506157
139	0x3e4528db	0.19253866
140	0xbd62e216	-0.055391394
141	0x3e84cd29	0.25937775
142	0x3d24862d	0.040167022
143	0x3ec97427	0.3934643
144	0x3ee2bf06	0.44286364
145	0xbccf7b0d	-0.02532723
146	0x3da494a3	0.08036163
147	0x3b881d1f	0.004153862
148	0x3c96c6ce	0.018405344
149	0x3d1deeca	0.038557805
150	0x3cd5c419	0.026094483
151	0x3ef40f34	0.4766785
152	0x3cd85c89	0.026411312
153	0xbd87c0b4	-0.06628552
154	0x3d259332	0.04042358
155	0xbd86478b	-0.065566145
156	0x3cebe054	0.028793491
157	0xbe893811	-0.26800588
158	0x3da5661d	0.08076117
159	0xbc169103	-0.009189847
160	0xbc026f05	-0.007961039
161	0xbee3fcc0	-0.4452877
162	0x3d4029ff	0.04691505
163	0xbd0fd309	-0.03511337
164	0x3e0c11ef	0.13678716
165	0xbd01952c	-0.031636402
166	0x3c8554ca	0.016275782
167	0x3d170713	0.03687198
168	0xbf3208c6	-0.6954464
169	0xbe47a18e	-0.19495222
170	0x3e362e19	0.17791022
171	0xbd1e43af	-0.038638767
172	0x3db5c528	0.08875495
173	0xbd288417	-0.041141596
174	0x3e062678	0.13100612
175	0x3dbdfc5a	0.09276648
176	0xbe49f499	-0.19722213
177	0x3f16dfa3	0.5893499
178	0xbe0419d4	-0.12900478
179	0xbe00a683	-0.12563519
180	0xbd917ffb	-0.071044885
181	0x3eb52bc4	0.35384953
182	0x3ced781b	0.028987935
183	0xbdc6b0e8	-0.09701711
184	0xbf07312f	-0.52809423
185	0x3ecdf070	0.40222502
186	0xbe111200	-0.14167023
187	0x3c00b733	0.007856178
188	0x3f5a4bbb	0.85271806
189	0xbe35aa92	-0.17740849
190	0x3d8e25df	0.06940817
191	0x3c800348	0.015626565
192	0x3d83748c	0.06418714
193	0x3c1b6e71	0.0094867805
194	0x3f4c264d	0.7974594
195	0xbdb91cdb	-0.09038707
196	0xbd889860	-0.06669688
197	0x3c4432de	0.011975018
198	0x3d153918	0.036431402
199	0x3df1ca8c	0.11806211
200	0x3f0308ab	0.511851
201	0xbe5ca881	-0.21548654
202	0x3d16df9a	0.036834337
203	0x3ea13ade	0.31490225
204	0x3e31b30e	0.1735346
205	0x3d8a5bae	0.06755768
206	0xbd029737	-0.03188249
207	0x3d428fa9	0.047500286
208	0x3bcc8ccb	0.00624237
209	0x3d3ab638	0.045583934
210	0x3ed6bb99	0.4194
211	0x3d7e62ac	0.06210582
212	0x3de3385e	0.110947356
213	0x3efd17d9	0.49432257
214	0xbd84f233	-0.06491508
215	0xbd0574ee	-0.032582216
216	0x3de27426	0.1105731
217	0x3de303a2	0.11084677
218	0xbf4544a7	-0.7705788
219	0x3e5cdb92	0.21568134
220	0xbecdb3b5	-0.40176168
221	0x3e90a49e	0.28250593
222	0xbd7fef4b	-0.062484067
223	0x3f3a4735	0.72764903
224	0x3e2b6416	0.16737399
225	0x3ecb5fad	0.39721432
226	0x3d64b3b6	0.05583545
227	0xbc87b10c	-0.016563915
228	0x3e8b6f1b	0.27233204
229	0x3f25e295	0.6479886
230	0x3e35292f	0.17691492
231	0x3eccda0f	0.40010116
232	0x3e0edca2	0.13951352
233	0x3eaeb095	0.34119096
234	0xbdf892aa	-0.12137349
235	0x3f130c10	0.5744028
236	0xbe817b78	-0.25289512
237	0xbdd5442f	-0.104133956
238	0x3e9e6059	0.30932882
239	0x3e7a3bef	0.24436925
240	0x3cc8e7b4	0.024524547
241	0x3ef3bdbc	0.47605693
242	0x3d5f1471	0.054462854
243	0x3e13d85c	0.14438003
244	0x3dfd5687	0.123700194
245	0x3d6603f9	0.056156132
246	0xbf9dfc3b	-1.23426
247	0x3e5da631	0.21645428
248	0xbed5d80c	-0.41766393
249	0xbd6896cb	-0.056784432
250	0xbea25ac3	-0.3170987
251	0xbcedccee	-0.029028382
252	0x3d952c49	0.07283837
253	0xbf3b7505	-0.7322543
254	0xbe413dd3	-0.1887124
255	0xbf92f5ea	-1.1481297

fc2.bias f4 [256]
0	0xbe149e65	-0.14513548
1	0xbe2831fc	-0.16425318
2	0xbd8b28e5	-0.067949094
3	0x3ee83076	0.45349473
4	0x3f1af1c3	0.6052515
5	0x3e8b29a5	0.2718021
6	0x3e4b6cdb	0.19865744
7	0xbe436657	-0.19082008
8	0xbeb0be06	-0.34519976
9	0x3e8fcf89	0.28088024
10	0x3eb92207	0.36158773
11	0x3e92fbfb	0.2870787
12	0xbdaec845	-0.08534292
13	0x3f200972	0.6251441
14	0x3e464084	0.19360548
15	0x3f189033	0.5959503
16	0xbc086f05	-0.00832725
17	0x3f15a6de	0.58457744
18	0x3e938343	0.28811082
19	0x3e31291f	0.17300843
20	0x3f1c2812	0.6099864
21	0x3eab1237	0.33412334
22	0x3e86d48d	0.26334038
23	0x3e37b90b	0.17941682
24	0x3d605d61	0.054776553
25	0xbe2174b3	-0.15767173
26	0x3e19b9ed	0.15012331
27	0x3f1d7646	0.61508596
28	0x3e1dd596	0.15413508
29	0x3f240abe	0.6407889
30	0x3f16b225	0.58865577
31	0x3e237c0f	0.15965293
32	0x3ef4fc9c	0.47848976
33	0x3eca67ec	0.3953241
34	0x3f04e962	0.51918614
35	0x3ea5a573	0.3235279
36	0x3c8c1497	0.017099662
37	0xbeba2225	-0.36354175
38	0x3e0ab367	0.13544999
39	0x3f4aa2a6	0.7915443
40	0x3f179d08	0.59223986
41	0x3f171e0c	0.5903022
42	0x3f0724d3	0.52790564
43	0x3e979514	0.29605925
44	0x3f076881	0.52893835
45	0x3efc4a88	0.49275613
46	0x3e7c5c58	0.24644601
47	0x3f1f436f	0.6221227
48	0xbe608ad4	-0.21927959
49	0x3f2326e7	0.63731235
50	0xbe413ecf	-0.18871616
51	0xbde48928	-0.11158973
52	0x3f28e686	0.6597675
53	0x3f1c8aee	0.6114949
54	0x3efa842f	0.48928973
55	0x3db51426	0.08841734
56	0x3f06c0fc	0.5263822
57	0xbe10fdb7	-0.14159285
58	0x3ef7b75a	0.48382074
59	0xbdd7bf4d	-0.105345346
60	0xbd39754f	-0.04527789
61	0xbdbef34c	-0.09323749
62	0x3f03a836	0.51428545
63	0x3e7747e1	0.24148513
64	0xbde8e85d	-0.11372445
65	0x3e89b6b0	0.26897192
66	0x3e6bd00a	0.2302858
67	0x3d25e7c2	0.040504225
68	0x3eae05a3	0.33988675
69	0x3e5fb432	0.21846083
70	0xbe942808	-0.2893679
71	0xbe302937	-0.17203222
72	0x3eaf7f0a	0.3427661
73	0xbe1f6213	-0.15564756
74	0xbd04c5b6	-0.032415114
75	0x3f24940b	0.64288396
76	0x3df08188	0.11743456
77	0x3d7a1d6b	0.06106321
78	0x3dc7b836	0.09751932
79	0x3d834c4c	0.06411037
80	0x3eb200f3	0.3476635
81	0x3ee66d43	0.45005235
82	0x3f1fdb95	0.6244443
83	0x3ea30e34	0.31846774
84	0x3ebd6c5b	0.3699673
85	0x3d80e5dc	0.06293842
86	0x3eb37d97	0.35056755
87	0xbda01b2a	-0.07817681
88	0x3e4c15df	0.19930218
89	0x3eb9afe7	0.36267015
90	0x3f17215f	0.59035295
91	0x3f1d9d4d	0.61568147
92	0xbb40c552	-0.0029414487
93	0x3df01468	0.11722642
94	0x3ee70ac9	0.45125416
95	0x3e3e2510	0.18568826
96	0x3e9a95e7	0.3019249
97	0xbd050fab	-0.032485645
98	0xbdbe2061	-0.092835195
99	0x3eb44253	0.3520685
100	0x3f21e3a2	0.63237965
101	0x3e773110	0.2413981
102	0x3f1d38c4	0.6141474
103	0x3f22954d	0.63509065
104	0x3f082b9d	0.5319155
105	0x3dbd95b4	0.09257069
106	0xbd314811	-0.04328162
107	0x3d4c854b	0.049931806
108	0x3f0e5dff	0.55612177
109	0xbda34c39	-0.07973523
110	0xbe48a67c	-0.19594759
111	0x3ee513ba	0.44741613
112	0x3e29c27f	0.165781
113	0x3e8afac7	0.27144453
114	0x3ec82e7b	0.39097962
115	0x3f0588db	0.5216195
116	0x3f121a4c	0.57071376
117	0xbc87dbb5	-0.016584257
118	0x3dfe5f53	0.124205254
119	0x3f29dd94	0.66353726
120	0x3d9fe20e	0.078067884
121	0x3f191dff	0.59811395
122	0xbd282aa5	-0.041056294
123	0x3f04f1ce	0.51931465
124	0xbde24a3f	-0.110493176
125	0x3e2e7ab2	0.17038992
126	0x3f105c90	0.5639124
127	0x3f1ad8ab	0.6048686
128	0x3f1b9e5f	0.6078853
129	0x3eb863a6	0.36013526
130	0x3f0eaf49	0.55736214
131	0xbe9330d3	-0.28748187
132	0x3c883f10	0.016631633
133	0xbc6ea2e7	-0.014565206
134	0x3e1fa478	0.15590084
135	0x3f1e1bb8	0.61761045
136	0xbd0133c2	-0.0315435
137	0x3e6ea06d	0.23303385
138	0xbe169afe	-0.14707562
139	0x3efe1f5d	0.49633303
140	0xbde3f986	-0.11131577
141	0x3e8bcd22	0.2730494
142	0xbd90a045	-0.07061819
143	0x3ed54d30	0.41660452
144	0xbeededb3	-0.46470413
145	0x3ebb90fb	0.3663405
146	0x3f0a6a1e	0.5406817
147	0x3f272bf1	0.65301424
148	0x3eb4ed70	0.353374
149	0x3f16fe7f	0.5898208
150	0x3e5edc56	0.21763739
151	0x3d29efc1	0.041488413
152	0xbe99b6a8	-0.30022168
153	0xbe1b8059	-0.1518568
154	0x3e032a68	0.12809145
155	0xbdf8abf6	-0.12142174
156	0x3f1a6b28	0.6031976
157	0x3ec4d27e	0.38441843
158	0x3e45bd4c	0.19310492
159	0x3e53bfa0	0.20678568
160	0x3f1b7e95	0.60740024
161	0x3e9d7d37	0.30759594
162	0x3f1d68ef	0.6148824
163	0x3defe0b9	0.11712784
164	0x3e56bb7e	0.2096996
165	0x3e457799	0.19283904
166	0x3f0d68dc	0.5523813
167	0x3eaf6dcc	0.34263456
168	0x3f1ae683	0.6050798
169	0x3ef76993	0.48322734
170	0x3e9ad2ff	0.30239102
171	0x3f12fb2a	0.57414496
172	0x3f211351	0.629201
173	0x3d9beb7f	0.07613277
174	0xbe950e52	-0.29112488
175	0x3f1be964	0.60903
176	0x3f038604	0.51376367
177	0x3f20f2e1	0.62870604
178	0x3ef3cbb1	0.47616342
179	0x3ebbeede	0.3670568
180	0x3d989bf9	0.074516244
181	0x3f1ec06e	0.62012374
182	0x3ebb5215	0.3658606
183	0x3f213f75	0.6298745
184	0x3f19faf3	0.60148543
185	0x3de69f0b	0.11260804
186	0xbd2ae182	-0.041718967
187	0x3eae835a	0.34084588
188	0x3c73cd7b	0.014880533
189	0xbe40cb6a	-0.18827596
190	0x3eec6143	0.46167955
191	0x3f1d0619	0.6133743
192	0x3e7fc2e2	0.24976686
193	0x3ce0fb43	0.02746356
194	0x3d0c3e70	0.034239233
195	0x3f0e44f9	0.55573994
196	0x3dcae925	0.0990775
197	0x3dcf9bdc	0.1013715
198	0x3f197974	0.5995095
199	0xbe440927	-0.19144116
200	0xbe7d3662	-0.24727777
201	0x3f1c67ed	0.6109608
202	0x3d3cbafa	0.046076752
203	0x3d810324	0.06299427
204	0x3ee1c6df	0.4409704
205	0xbe24580a	-0.16049209
206	0xbe103406	-0.14082345
207	0xbe562664	-0.20913082
208	0xbe7b2a95	-0.24527963
209	0x3f1fe01c	0.6245134
210	0x3f24bdd4	0.64352155
211	0x3f13cbeb	0.5773303
212	0x3e704cba	0.23466769
213	0x3f08720f	0.5329904
214	0x3eaf8d76	0.34287614
215	0xbe0923cc	-0.13392562
216	0x3d09de9a	0.033659555
217	0x3dedf0a8	0.11618167
218	0x3f1f4578	0.62215376
219	0x3e07b0fb	0.13251106
220	0xbe5661bc	-0.2093572
221	0x3dcbf152	0.099581376
222	0x3f1da957	0.6158652
223	0x3ed9e7b7	0.42559597
224	0xbecccd7e	-0.40000528
225	0x3eb96000	0.36206055
226	0x3f083f5d	0.53221685
227	0x3f11e41e	0.56988704
228	0x3f01973b	0.50621384
229	0x3eb579f5	0.35444608
230	0x3e76174d	0.24032326
231	0x3f130fc5	0.5744594
232	0x3e2a8cc5	0.16655262
233	0x3f1a6e97	0.60324997
234	0x3d5ddb2e	0.054164104
235	0x3db4335b	0.08798858
236	0x3ef02261	0.4690123
237	0x3f229434	0.6350739
238	0x3ee63a7d	0.44966498
239	0x3f1e03cd	0.6172455
240	0x3db1f753	0.086897515
241	0x3f06cbed	0.52654916
242	0x3e967320	0.29384708
243	0x3d8da746	0.069166705
244	0x3e387307	0.1801263
245	0x3f1b4006	0.60644567
246	0x3d9f48a5	0.07777528
247	0x3e8d6e5b	0.27623257
248	0x3ef895ca	0.4855178
249	0x3f1e5661	0.61850554
250	0x3eda1f88	0.4260218
251	0x3f18f11a	0.5974289
252	0xbe48fcf7	-0.19627748
253	0x3e8a8765	0.27056423
254	0x3e9f0ecd	0.3106598
255	0x3f207372	0.62676156

fc3.weight f4 [128, 256]
0	0xbea2314b	-0.31678233
1	0x3f02a20d	0.5102852
2	0xbf85848c	-1.0431075
3	0xbf11b7ac	-0.56920886
4	0xbe26085b	-0.16214125
5	0x3ee2cb33	0.44295654
6	0x3d58d029	0.052932892
7	0xbccbdab5	-0.024884561
8	0xbf8739b9	-1.056449
9	0xbf52ec80	-0.8239212
10	0x3ed5c367	0.41750643
11	0xbed05aa6	-0.4069416
12	0x3deca877	0.115555696
13	0x3c858845	0.01630033
14	0xbda4a5a4	-0.08039406
15	0x3d18688f	0.03720909
16	0xbef86edc	-0.4852208
17	0x3de4f75c	0.111799926
18	0x3e2462f6	0.16053376
19	0xbf1f14d8	-0.6214118
20	0x3e000517	0.12501942
21	0xbd271ea1	-0.040800694
22	0xbf2ca44d	-0.67438203
23	0xbc1e457e	-0.009660123
24	0xbf3829b1	-0.71938616
25	0xbf12dcd7	-0.57368225
26	0xbeb17807	-0.34661886
27	0x3de83fd3	0.113402985
28	0xbe3d27a0	-0.18472147
29	0xbe6a74f0	-0.2289617
30	0xbe0ab144	-0.13544184
31	0xbe1353db	-0.14387457
32	0x3dd73cc8	0.1050964
33	0xbdd1d486	-0.10245614
34	0xbe7859e2	-0.24253038
35	0xbf3255d5	-0.6966222
36	0x3e267abb	0.16257755
37	0xbf951104	-1.1645818
38	0x3dc7c233	0.097538374
39	0xbf6c7c13	-0.9237682
40	0xbd8fa0f8	-0.07013124
41	0xbcc4c3b7	-0.024019105
42	0xbf081364	-0.5315459
43	0xbe043a71	-0.12912919
44	0xbdbeb015	-0.09310929
45	0x3de5d5d9	0.11222429
46	0x3edb654c	0.4285072
47	0xbc9f86b3	-0.01947341
48	0x3e13767e	0.1440067
49	0x3d37a656	0.044836365
50	0xbe5a92d8	-0.21345079
51	0x3df3fcfa	0.11913486
52	0x3f63585a	0.8880669
53	0x3bda9df1	0.00667166
54	0xbd429a25	-0.047510285
55	0x3ea45839	0.3209856
56	0xbebe206b	-0.37134108
57	0xbeb10401	-0.34573367
58	0xbf2074d4	-0.62678266
59	0xbf024d20	-0.50898933
60	0x3f528cb8	0.8224597
61	0xbc8862a5	-0.0166486
62	0x3eec98c6	0.46210307
63	0x3dc9a794	0.09846416
64	0x3d2fb4f7	0.04289719
65	0xbede703a	-0.43444997
66	0xbf2af559	-0.6678062
67	0xbe710ac2	-0.2353926
68	0xbfb16d14	-1.3861413
69	0xbe0634a5	-0.1310602
70	0x3e911aa1	0.2834063
71	0xbeb97f4a	-0.36229926
72	0xbeae0603	-0.33988962
73	0xbe795236	-0.24347767
74	0xbda5f9ed	-0.0810431
75	0x3db992fd	0.09061239
76	0xbf62afbe	-0.8854941
77	0xbe38d71d	-0.18050809
78	0x3dc10fee	0.094268665
79	0xbf7af36c	-0.9802768
80	0xbe018fce	-0.12652513
81	0x3f255744	0.6458628
82	0x3e42904d	0.19000359
83	0x3eab1b94	0.33419478
84	0xbf2dca79	-0.67887074
85	0xbf01a032	-0.50635064
86	0xbc7f09de	-0.015566317
87	0x3ed7c307	0.42140982
88	0xbf283291	-0.6570216
89	0xbf80e5ec	-1.0070167
90	0xbe6945aa	-0.22780481
91	0x3d932eeb	0.07186683
92	0x3ef1b115	0.47205415
93	0x3ea76dbb	0.32700905
94	0xbe765299	-0.24054946
95	0xbe13ecf5	-0.1444586
96	0xbea06d9c	-0.31333625
97	0x3dcf27b1	0.101149924
98	0xbefb6b75	-0.4910542
99	0xbfddcf2f	-1.7328852
100	0xbe1d1e05	-0.15343483
101	0x3e3af7af	0.18258546
102	0xbca928cd	-0.020649338
103	0xbd286651	-0.0411132
104	0x3e0084f9	0.12550725
105	0xbc533366	-0.012890672
106	0xbf0850ca	-0.53248274
107	0xbf2761a1	-0.65383345
108	0x3e8d5c7b	0.2760962
109	0xbdcfdcd3	-0.10149541
110	0x3ee7612e	0.4519133
111	0x3ed68266	0.4189636
112	0xbf08679a	-0.53283083
113	0x3efda095	0.49536577
114	0x3e5b64b5	0.21425135
115	0x3e2dd2cd	0.16974945
116	0xbe1c264e	-0.15248987
117	0x3e51d3e9	0.20490994
118	0x3ed25bcd	0.41085663
119	0x3d8b81db	0.06811877
120	0xbee29650	-0.44255304
121	0xbe88beeb	-0.2670816
122	0xbe513027	-0.20428525
123	0xbde8f2a8	-0.11374408
124	0xbfb14b9e	-1.3851202
125	0xbe4d0eb1	-0.20025136
126	0xbca568dd	-0.020191604
127	0x3df9cda2	0.121974245
128	0x3e4bbb1b	0.19895594
129	0x3e9374e0	0.28800106
130	0x3d5bc12b	0.053651016
131	0x3c36b0d8	0.011150561
132	0xbddbf2e9	-0.10739691
133	0xbd132764	-0.035926238
134	0xbf64c793	-0.89367026
135	0x3d1d606a	0.038422026
136	0xbf50c2e3	-0.81547374
137	0x3e0c2c24	0.13688713
138	0x3f1233b4	0.5711014
139	0x3eec3a23	0.46138105
140	0x3d41c512	0.04730708
141	0xbf099541	-0.5374337
142	0x3e44a119	0.19202079
143	0xbfba77c6	-1.4567802
144	0x3f240c43	0.6408121
145	0xbf398e4c	-0.7248275
146	0x3e52c580	0.20583153
147	0xbd7b9173	-0.061418008
148	0xbf46c871	-0.776496
149	0xbcaacd1d	-0.020849759
150	0x3dd614d9	0.10453195
151	0x3dcdf15d	0.10055802
152	0xbc1ab167	-0.00944171
153	0xbdeb92e5	-0.11502627
154	0x3eb3578b	0.35027727
155	0x3f243a95	0.6415189
156	0x3cad17d0	0.021129519
157	0xbf61dd5d	-0.882284
158	0xbf093ed0	-0.5361147
159	0xbe9dbff0	-0.308105
160	0x3de9a0d9	0.114076324
161	0x3e68e478	0.22743404
162	0xbde6eef3	-0.11276045
163	0x3e4fb755	0.2028478
164	0x3ecf1d9c	0.40452278
165	0xbf3a243c	-0.7271154
166	0xbd3e5c1c	-0.04647456
167	0xbf808958	-1.0041914
168	0xbde4fe69	-0.111813374
169	0xbf1c0944	-0.6095164
170	0xbee39d46	-0.44455928
171	0x3e347a8a	0.1762487
172	0xbd3fba69	-0.046808634
173	0xbe0a6a1e	-0.13517043
174	0xbee4a3cf	-0.44656226
175	0xbdb32e6a	-0.08749087
176	0x3ea16e18	0.31529307
177	0x3e363865	0.1779495
178	0xbddf2757	-0.10896175
179	0xbe1ed570	-0.15511107
180	0xbe8b5522	-0.2721339
181	0x3da356f2	0.07975568
182	0xbe97963a	-0.296068
183	0xbe1b703c	-0.15179533
184	0x3d4c8e76	0.04994055
185	0xbe0a73b6	-0.13520703
186	0x3f0b6d65	0.544638
187	0x3cdf16e6	0.027232599
188	0xbe908725	-0.28228107
189	0xbefa328c	-0.4886669
190	0x3dddd454	0.10831514
191	0xbd806ba6	-0.06270532
192	0x3e5d4ce9	0.2161137
193	0x3dc8ed75	0.09810916
194	0xbf0b0a2b	-0.5431239
195	0xbe2e8047	-0.17041121
196	0x3e892a1b	0.26789936
197	0xbe5d1bc7	-0.21592627
198	0xbcf3e276	-0.02977107
199	0xbe977ecb	-0.29588923
200	0xbe0e3b6a	-0.13889852
201	0x3da41bc7	0.080131106
202	0x3d69ecde	0.05711066
203	0xbe0f1257	-0.1397184
204	0xbe3b9f22	-0.18322423
205	0xbf38b5d2	-0.72152436
206	0x3daa6dcf	0.083217256
207	0x3f15642b	0.5835597
208	0x3ec84036	0.3911149
209	0x3d838b5d	0.06423066
210	0x3da4c9d2	0.08046307
211	0x3baf4bc9	0.0053496105
212	0x3ba96b7b	0.0051702834
213	0xbd4f753a	-0.050648905
214	0x3f14326c	0.5788944
215	0xbf2f4ae1	-0.6847363
216	0xbe648010	-0.22314477
217	0x3eb4fc3e	0.35348696
218	0x3e12c9ff	0.14334868
219	0x3b9bccf7	0.0047546583
220	0x3e34bdd8	0.17650545
221	0xbea378c0	-0.31928062
222	0x3ddeed4d	0.10885105
223	0xbf458fc7	-0.7717251
224	0x3f5adb17	0.85490555
225	0x3f093d4f	0.53609174
226	0x3e46d5e1	0.19417526
227	0xbe6c72d3	-0.23090677
228	0xbe0203ac	-0.12696713
229	0xbe0683f4	-0.13136274
230	0x3dfbec89	0.12300975
231	0x3ee3a981	0.4446526
232	0xbc8cecba	-0.017202724
233	0xbcbb7bf5	-0.022886256
234	0xbf46bc9d	-0.7763155
235	0x3d37e3ac	0.04489486
236	0x3eb394a8	0.35074353
237	0x3e072e91	0.13201357
238	0xbe94337a	-0.28945524
239	0xbcbdf0f4	-0.023186184
240	0x3c5ba2cd	0.013405514
241	0x3d6cb687	0.05779126
242	0xbf1bef10	-0.60911655
243	0xbe0461d1	-0.12927939
244	0xbe8e1f57	-0.27758285
245	0xbd7a8c16	-0.061168753
246	0xbd6a3da8	-0.057187706
247	0x3e26cad7	0.16288315
248	0x3ec53e18	0.38523936
249	0x3e41602b	0.18884341
250	0xbe364c31	-0.17802502
251	0xbce1bfd0	-0.027557284
252	0xbf07cae1	-0.53043944
253	0xbf333c88	-0.7001424
254	0x3f8af1df	1.0855063
255	0xbd1c24d3	-0.038121056

fc3.bias f4 [128]
0	0x3dfb7974	0.12279025
1	0xbe11f8cb	-0.14255063
2	0xbc5f5866	-0.013631916
3	0x3e390e2a	0.1807181
4	0x3da43f69	0.08019907
5	0xbe085b97	-0.13316189
6	0x3d636510	0.055516303
7	0xbd822e22	-0.063564554
8	0x3ea4d260	0.32191753
9	0xbd53e725	-0.05173411
10	0xbe11933e	-0.14216325
11	0x3ec3037f	0.38088605
12	0xbdf607c6	-0.120132014
13	0x3e6f6f66	0.23382339
14	0x3d63fbfc	0.055660233
15	0xbb8117f2	-0.003939622
16	0x3e1988e2	0.14993623
17	0x3e124da3	0.14287429
18	0xbe2e8a8f	-0.17045043
19	0xbdfd4c26	-0.1236804
20	0xbdd84585	-0.10560135
21	0xbdd9d1d1	-0.106357224
22	0xbc75aba9	-0.01499454
23	0x3dce0fd4	0.10061613
24	0x3dce3ebc	0.100705594
25	0x3db4fabd	0.08836887
26	0xbcaebb43	-0.021329528
27	0xbdb61217	-0.08890169
28	0x3eaaf657	0.33391067
29	0x3da01b5d	0.07817719
30	0xbd47f0b7	-0.048813548
31	0xbd8d0b17	-0.06886881
32	0x3dfd7107	0.12375074
33	0x3d0d4762	0.034491904
34	0xbdfe14c0	-0.124063015
35	0x3e6bd798	0.23031461
36	0xbd1573a6	-0.036487244
37	0xbd89c2e4	-0.067266256
38	0xbd2fc8ee	-0.04291623
39	0x3e33c157	0.17554222
40	0x3e84c88e	0.2593426
41	0x3e93044a	0.2871421
42	0xbce0243c	-0.027361028
43	0x3e81b3a0	0.25332355
44	0x3d3f3239	0.046678755
45	0xbe0209bd	-0.12699027
46	0x3db33ccc	0.087518305
47	0xbea8fefc	-0.33007038
48	0x3e04deaf	0.12975572
49	0x3d1c16bb	0.038107615
50	0xbe3b353a	-0.18282023
51	0xbd514f80	-0.051101208
52	0x3e196fcd	0.14984055
53	0x3d8f43b6	0.06995337
54	0x3e7491f3	0.238838
55	0xbd876843	-0.06611683
56	0x3da7f585	0.08201126
57	0x3d156c1c	0.036480054
58	0xbe310c87	-0.17289935
59	0xbe0ee063	-0.13952784
60	0xbc5bad07	-0.013407952
61	0x3ce38bca	0.027776618
62	0x3e0597dd	0.13046212
63	0xbca760f4	-0.020431973
64	0x3c422a9f	0.011850982
65	0x3d919c75	0.0710992
66	0xbc0c4d62	-0.008563371
67	0x3eff7325	0.49892536
68	0xbe83c54c	-0.25736463
69	0xbca5af08	-0.020225063
70	0xbe07dade	-0.13267085
71	0x3c1043b3	0.008805203
72	0x3e535d11	0.20640971
73	0x3ed1a832	0.40948635
74	0xbe125e84	-0.14293867
75	0x3dea52c0	0.114415646
76	0x3eafea66	0.3435852
77	0x3e8fe654	0.28105414
78	0x3d25083e	0.040291063
79	0xbcd9cc67	-0.026586724
80	0xbd7a58b9	-0.06111977
81	0xbe1f1296	-0.15534434
82	0x3ddff57f	0.109354965
83	0x3e3d0390	0.1845839
84	0x3e93789c	0.28802955
85	0xbdc9f648	-0.098614275
86	0xbcdcc688	-0.026950136
87	0xbb052685	-0.002031715
88	0xbe9aaaa4	-0.30208313
89	0x3d81bb41	0.06334544
90	0x3e4fa85c	0.20279068
91	0xbe9e7b89	-0.30953625
92	0x3e097c69	0.13426365
93	0x3e0538c8	0.13009942
94	0xbc1e172f	-0.009649082
95	0xbe4c6c44	-0.19963175
96	0x3db77647	0.089581065
97	0xbe3b0a49	-0.18265642
98	0x3b0600ad	0.002044718
99	0x3d4fb872	0.05071301
100	0x3e1c8ef8	0.15288913
101	0x3e247857	0.16061531
102	0xbe32330c	-0.17402285
103	0x39f86c4b	0.0004738293
104	0xbcb8f407	-0.022577299
105	0xbe8a5b5c	-0.27022827
106	0xbe824812	-0.2544561
107	0xbdf66ce0	-0.12032485
108	0x3e207fdc	0.15673774
109	0x3dcf4670	0.10120857
110	0xbe0788cc	-0.13235778
111	0x3e84d875	0.25946394
112	0x3d78084d	0.06055479
113	0x3e803aa8	0.2504475
114	0xbe2f113a	-0.17096415
115	0x3d3b76b9	0.04576752
116	0xbcf98a2b	-0.030461391
117	0xbed3f5af	-0.4139838
118	0x3d157a00	0.0364933
119	0x3e4ca426	0.19984493
120	0x3e0a09d2	0.13480309
121	0xbde35c3d	-0.111015774
122	0x3df5fe23	0.12011363
123	0xbe3876ac	-0.1801402
124	0xbb141268	-0.0022593979
125	0x3de0cd19	0.10976619
126	0x3d29e151	0.041474644
127	0x3e418d5f	0.18901585

fc4.weight f4 [4, 128]
0	0xbf4adc7b	-0.79242676
1	0x3f1650fe	0.58717334
2	0x3ef0e0b1	0.47046426
3	0x3f2990ac	0.66236377
4	0x3f2c389f	0.67273897
5	0xbf46329c	-0.77420974
6	0x3f077cd6	0.5292486
7	0xbe931462	-0.28726488
8	0x3de6ea09	0.112751074
9	0xbf09e443	-0.53863925
10	0xbf6203d3	-0.88287085
11	0x3f1da069	0.6157289
12	0xbdc80e60	-0.09768367
13	0x3f3c7a98	0.73624563
14	0x3e2b5103	0.16730122
15	0xbefc08b5	-0.49225393
16	0x3f15a54e	0.5845536
17	0x3ee47c24	0.44625962
18	0xbf0be4cc	-0.5464599
19	0xbeab18c6	-0.33417338
20	0xbf77f58d	-0.96859056
21	0xbf39929a	-0.7248932
22	0x3efea295	0.49733415
23	0x3e714c5e	0.23564288
24	0x3ec1dabe	0.378622
25	0x3f471f01	0.77781683
26	0x3d64f3ad	0.05589645
27	0x3ef297d7	0.4738147
28	0x3f35e049	0.71045357
29	0x3eaf753b	0.34269127
30	0x3f00beb1	0.5029097
31	0x3da7d6fe	0.081953034
32	0x3e341146	0.17584714
33	0xbdf5c5d8	-0.12000626
34	0x3e8c9b80	0.27462387
35	0xbdcfbdfb	-0.10143658
36	0xbdf8b9fa	-0.12144847
37	0xbe90d2d3	-0.28285846
38	0x3e890f95	0.267697
39	0x3ecb359d	0.3968934
40	0xbea3c78e	-0.31988186
41	0x3f3489ae	0.7052258
42	0x3e54f7a6	0.20797595
43	0x3e82b819	0.2553108
44	0xbe222263	-0.1583343
45	0xbeb0aaa3	-0.34505185
46	0xbec5a5e4	-0.38603127
47	0x3ef7e36f	0.48415706
48	0x3ee4ea5d	0.44710055
49	0x3edade11	0.42747548
50	0x3ec25bdb	0.37960705
51	0x3dd471dc	0.103732795
52	0x3f12756f	0.5721044
53	0x3e8c868c	0.274464
54	0xbcc5c242	-0.02414048
55	0x3f5d4b8e	0.8644341
56	0x3ed1883e	0.40924257
57	0x3f35d22d	0.7102383
58	0x3f112037	0.5668978
59	0x3e71047a	0.23536864
60	0x3f061aa3	0.52384394
61	0x3ebe6879	0.3718908
62	0x3e6d91e2	0.23200181
63	0xbd518412	-0.051151343
64	0xbf0acdb9	-0.5422016
65	0x3dec4a3c	0.115375966
66	0x3f5c0dfa	0.85958827
67	0x3f47442d	0.77838403
68	0xbeebc666	-0.46049803
69	0xbecf972b	-0.4054502
70	0xbe91b994	-0.28461897
71	0xbd7aa9e8	-0.06119719
72	0x3f046055	0.5170949
73	0x3ebd63ae	0.36990112
74	0x3ee5fa52	0.44917542
75	0x3ef36299	0.47536162
76	0x3f19c5a6	0.6006721
77	0x3eb81f5c	0.35961425
78	0xbd0317ef	-0.032005247
79	0xbea1b094	-0.3158003
80	0x3d8c8243	0.06860783
81	0xbf3a070f	-0.7266702
82	0x3e1c2b2b	0.15250842
83	0x3ed77588	0.42081857
84	0x3f177f50	0.5917864
85	0xbf31fc57	-0.69525665
86	0x3f5704ac	0.83991504
87	0x3e5ad2b4	0.2136944
88	0xbc85e0bc	-0.016342513
89	0x3de14409	0.10999305
90	0x3e8386e7	0.2568886
91	0xbdb83c20	-0.08995843
92	0x3d759312	0.05995471
93	0xbd1df230	-0.038561046
94	0x3f41cc21	0.757021
95	0xbf8e22ee	-1.110441
96	0x3f43ca68	0.7648072
97	0xbf1715a2	-0.59017384
98	0x3dc946d3	0.09827962
99	0xbee856ec	-0.45378816
100	0xbf347168	-0.70485544
101	0x3f725d8e	0.94674003
102	0xbf67c9bf	-0.90542215
103	0x3f636eb0	0.8884077
104	0xbd5f56de	-0.054526202
105	0xbecbd891	-0.39813665
106	0x3ef64f5c	0.4810742
107	0xbe3f685b	-0.18692152
108	0xbdc3ca69	-0.09560091
109	0x3eefb256	0.46815747
110	0x3e857fb2	0.26073986
111	0x3bb6b06a	0.0055752294
112	0x3f4509e8	0.7696824
113	0xbef6ff32	-0.48241574
114	0xbe9bcb07	-0.30428335
115	0x3e21c64b	0.15798299
116	0x3f15032b	0.5820796
117	0xbecf3099	-0.40466765
118	0x3eb583af	0.3545203
119	0x3daa4eb1	0.083157904
120	0x3cbc3b00	0.022977352
121	0xbf25dad8	-0.64787054
122	0xbd99a27b	-0.07501694
123	0x3d3dbb3a	0.04632113
124	0xbe4e5329	-0.2014891
125	0x3e9fad33	0.31186828
126	0x3f233522	0.6375295
127	0xbd90f314	-0.070776135
128	0xbdf77651	-0.12083114
129	0x3f497f0b	0.7870948
130	0x3e618f01	0.22027208
131	0x3edfbd41	0.43699077
132	0xbe9fa5a1	-0.31181052
133	0xbf4e947b	-0.80695313
134	0x3ef944e6	0.48685378
135	0x3d377e56	0.044798218
136	0x3f0f7d61	0.5605069
137	0xbfa8f888	-1.3200846
138	0xbca7f227	-0.02050121
139	0x3f10c7fb	0.56555146
140	0x3f135653	0.57553595
141	0x3ed32cf4	0.41245234
142	0x3bef1ce6	0.007297146
143	0x3d5e566c	0.054281637
144	0x3f05f4fc	0.5232694
145	0xbe38f20a	-0.1806108
146	0xbf07368c	-0.52817607
147	0xbe69e33b	-0.22840588
148	0xbdc40715	-0.09571663
149	0x3e333e0f	0.17504142
150	0x3f215cb1	0.6303206
151	0x3e80d385	0.25161377
152	0x3f18ca1d	0.596834
153	0x3f4475e2	0.76742375
154	0x3e1d261a	0.15346566
155	0x3e8e66ac	0.27812707
156	0x3eb1e426	0.34744376
157	0x3ebd6e05	0.36998
158	0x3f20ed90	0.6286249
159	0x3eb9a143	0.36255845
160	0x3e8fad7a	0.2806204
161	0x3cd6cd3d	0.026220912
162	0x3eaacec3	0.33360872
163	0xbd0d20a0	-0.03445494
164	0x3f0e7d91	0.5566035
165	0x3d867d2a	0.06566842
166	0x3ec08f47	0.37609312
167	0x3ed1d826	0.4098522
168	0x3ce09708	0.027415767
169	0x3eb01b92	0.34396034
170	0x3f2403fd	0.64068586
171	0x3e48b730	0.1960113
172	0x3e864c69	0.2623017
173	0x3f4e30f3	0.8054344
174	0xbefa7462	-0.48916918
175	0xbf65eb92	-0.89812577
176	0x3dffa3d6	0.12482421
177	0xbc787262	-0.01516399
178	0x3f56f193	0.83962363
179	0xbe8f29c1	-0.27961543
180	0x3eedb4a4	0.4642688
181	0x3e24a762	0.16079476
182	0x3f6e50d9	0.93092114
183	0x3c9ff59b	0.019526294
184	0x3f0b86e1	0.54502684
185	0x3f3fa1e6	0.7485641
186	0x3e174985	0.14774139
187	0xbeaab969	-0.33344582
188	0x3ebb2dc6	0.3655836
189	0x3ec709a6	0.3887455
190	0xbd69075e	-0.05689179
191	0x3e7f61e5	0.24939688
192	0xbdc6a141	-0.096987255
193	0xbd98171d	-0.074262835
194	0x3ed69823	0.41912946
195	0x3ed2ca4d	0.41169968
196	0xbe7d33ef	-0.24726842
197	0xbf118c6b	-0.56854886
198	0xbec421b9	-0.38306978
199	0x3f4b724e	0.7947129
200	0x3e9ffc41	0.31247142
201	0x3e5677c3	0.20944123
202	0x3f059393	0.52178305
203	0x3eb6069b	0.35551915
204	0x3f130bf7	0.5744013
205	0x3f4b4255	0.7939809
206	0xbd69f7d8	-0.057121128
207	0xbe8bd118	-0.27307963
208	0x3f38b710	0.7215433
209	0xbf43f70b	-0.7654883
210	0x3e8c70a3	0.27429685
211	0x3e8d3f0a	0.27587157
212	0x3ebe65f4	0.3718716
213	0xbf45dfb1	-0.7729445
214	0x3f1325fb	0.5747983
215	0x3e883daf	0.2660956
216	0xbf408797	-0.75206894
217	0xbc089f79	-0.0083388025
218	0x3ebb14d4	0.36539328
219	0xbe9ad8f4	-0.30243647
220	0xbe15dd57	-0.14635216
221	0x3cd8aa58	0.026448414
222	0xbf3050c0	-0.68873215
223	0xbf7c8e3a	-0.9865452
224	0x3ec2263e	0.379198
225	0xbd6bc1f4	-0.057558015
226	0x3ef0b71b	0.47014698
227	0x3e6a24e8	0.22865641
228	0xbf31a8b9	-0.69398075
229	0x3f0260a1	0.50928694
230	0x3d881396	0.06644361
231	0x3f3b5666	0.7317871
232	0x3e25f2a0	0.16205835
233	0xbe5e1f7f	-0.21691702
234	0xbe15165c	-0.1455931
235	0xbefad12c	-0.4898771
236	0x3f26d6ee	0.65171707
237	0xbc912dfb	-0.01772212
238	0x3f8f92e5	1.1216704
239	0xbd4aff37	-0.049559798
240	0x3ece690b	0.40314516
241	0xbe9e630c	-0.30934942
242	0xbefd7ca1	-0.49509147
243	0x3e8b6f52	0.27233368
244	0x3f20a6c5	0.6275447
245	0xbf48f963	-0.78505534
246	0x3d8f3ac5	0.06993631
247	0xbed4c97b	-0.41559967
248	0xbe60c13d	-0.21948715
249	0xbe8971dc	-0.2684468
250	0xbee6c581	-0.4507256
251	0xbf8c1c85	-1.0946203
252	0x3d30d38a	0.04317049
253	0x3e71e3a4	0.23621994
254	0x3f1d79b7	0.6151385
255	0xbed627c6	-0.4182722

fc4.bias f4 [4]
0	0x3dd1fb78	0.10253042
1	0x3dca0558	0.098643005
2	0x3c9640de	0.018341478
3	0x3cc29f2a	0.023757536

ln1.weight f4 [256]
0	0x3f030e40	0.5119362
1	0x3ebcade8	0.3685143
2	0x3f7e13dd	0.9924906
3	0x3e89ce63	0.26915273
4	0x3f81b4b2	1.0133269
5	0x3f756da8	0.9587045
6	0x3ec0d0ad	0.37659207
7	0x3ef035fd	0.4691619
8	0x3eaefbe0	0.3417654
9	0x3f62eb59	0.8864036
10	0x3ee2e2f2	0.4431377
11	0x3eddc72c	0.4331602
12	0x3f0e6e0b	0.5563666
13	0x3f69fed2	0.9140445
14	0x3fa481e3	1.2852138
15	0x3ef7d756	0.48406476
16	0x3eb86d49	0.36020878
17	0x3f82405b	1.017589
18	0x3e708790	0.23489213
19	0x3f46f660	0.7771969
20	0x3f9f1c51	1.2430516
21	0x3f1bc353	0.60844916
22	0x3f222c06	0.63348424
23	0x3f165b94	0.5873349
24	0x3f14634d	0.5796402
25	0x3f209da2	0.6274053
26	0x3ea9b1fb	0.331436
27	0x3f0fdeea	0.56199515
28	0x3f162ea0	0.58664894
29	0x3ed9bdcf	0.42527625
30	0x3ed1dc77	0.40988514
31	0x3e88b28a	0.26698714
32	0x3ee8875a	0.45415765
33	0x3ed0261e	0.4065408
34	0x3ef3db44	0.47628224
35	0x40651018	3.5791073
36	0x3f6c9df6	0.9242853
37	0x3fb0c08b	1.380876
38	0x3f0b48ec	0.54408145
39	0x3ed51fb3	0.41625747
40	0x3ece7552	0.40323883
41	0x3f164286	0.58695257
42	0x3f95e933	1.1711792
43	0x3f6e4968	0.9308076
44	0x3f0b35cb	0.54378957
45	0x401354d1	2.3020518
46	0x3f7d8efc	0.990463
47	0x3f102862	0.5631162
48	0x3f158363	0.58403605
49	0x3f676a1a	0.90396273
50	0x3f982bd0	1.188837
51	0x40094813	2.145024
52	0x3ef0aaa4	0.47005188
53	0x3f02fc48	0.511662
54	0x3f1e5d41	0.61861044
55	0x3f0d75bb	0.5525777
56	0x3ea13109	0.31482723
57	0x3f38aac5	0.72135574
58	0x3f1ba608	0.6080022
59	0x3f064158	0.52443457
60	0x3f996630	1.198431
61	0x40012074	2.0176058
62	0x3f0185c4	0.50594735
63	0x3f23175d	0.63707525
64	0x3fe02908	1.7512522
65	0x3f402803	0.75061053
66	0x3f015135	0.5051454
67	0x3ee85588	0.45377755
68	0x3ef9ea11	0.4881139
69	0x3efdc6f8	0.49565864
70	0x3ea7a30c	0.32741582
71	0x3ed90ec7	0.42394087
72	0x3f48ac79	0.7838817
73	0x3e798a5d	0.24369188
74	0x3ea7273e	0.32647127
75	0x3f0375b2	0.51351464
76	0x3f11c89f	0.5694675
77	0x3e9c4b86	0.3052637
78	0x3efeeed9	0.497916
79	0x3fe5d661	1.7956048
80	0x3f061f73	0.5239174
81	0x3ecf2335	0.40456548
82	0x3f7922d2	0.97318757
83	0x3f8e77b3	1.1130279
84	0x3f4655d7	0.7747473
85	0x3f967010	1.1752949
86	0x3ea62367	0.32448885
87	0x3fd75348	1.682229
88	0x3f70f22b	0.9411952
89	0x3eeaf17d	0.45887366
90	0x3fcb8dff	1.5902709
91	0x3eed1f85	0.4631311
92	0x3eb55fd4	0.35424674
93	0x3fb0bdd7	1.3807935
94	0x3f0cbb7a	0.54973567
95	0x3f95057d	1.16423
96	0x40042d1a	2.0652528
97	0x3f6c080f	0.92199796
98	0x3eefd35b	0.4684094
99	0x3e911355	0.28335062
100	0x3f285730	0.6575804
101	0x3ee3e161	0.44507888
102	0x3f6a2125	0.91456825
103	0x3ec46caa	0.38364154
104	0x3fa23796	1.2673213
105	0x3f063e57	0.52438873
106	0x3f0d82af	0.5527753
107	0x3e9659a2	0.2936526
108	0x3f009936	0.5023378
109	0x3f15aaf9	0.5846401
110	0x3ef71bd8	0.4826343
111	0x4003ff33	2.0624511
112	0x3f73c570	0.9522314
113	0x3fa0cdf8	1.2562857
114	0x3fb5c30f	1.4200152
115	0x3ec32a75	0.3811833
116	0x3eba028e	0.36330074
117	0x3ee5d8bd	0.4489192
118	0x3f217cc6	0.63081014
119	0x3e97b8ca	0.2963317
120	0x3ed2458a	0.4106868
121	0x3ed516b4	0.41618884
122	0x3f2ec057	0.6826224
123	0x3f6b0df4	0.91818166
124	0x3fb13e41	1.3847123
125	0x3ef758bc	0.48309886
126	0x3f357781	0.70885473
127	0x3f4b3c47	0.7938885
128	0x3f6f2d42	0.9342843
129	0x3f1e45f8	0.61825514
130	0x3ee07ab5	0.43843618
131	0x3f284097	0.65723556
132	0x3fb0f252	1.382395
133	0x3ed320da	0.41236
134	0x3f4c66ae	0.79844177
135	0x3f269001	0.6506348
136	0x3eeda5b4	0.46415484
137	0x3f3a3625	0.7273887
138	0x3f59f0a5	0.8513282
139	0x3f989144	1.1919332
140	0x3ef0ec45	0.4705526
141	0x3f564ce2	0.83711064
142	0x3efea199	0.49732664
143	0x3eee89d1	0.4658952
144	0x3fd9bc21	1.7010537
145	0x3ecd281e	0.4006967
146	0x3ee0222d	0.43776074
147	0x3efd2677	0.4944341
148	0x3f95bac8	1.1697626
149	0x3efa1e2f	0.48851153
150	0x3e9055dc	0.28190506
151	0x3f88768d	1.0661179
152	0x3f021bac	0.50823474
153	0x3f12365c	0.57114196
154	0x3e72bad5	0.23704083
155	0x3efca408	0.49343896
156	0x3ed0b4eb	0.4076303
157	0x3f9b7061	1.214367
158	0x3ee4113e	0.44544405
159	0x3ed6875a	0.4190014
160	0x3fc24d1b	1.5179781
161	0x3f089fe3	0.5336897
162	0x3ef5a9f7	0.47981235
163	0x3eec4f45	0.46154228
164	0x3f4a5546	0.79036367
165	0x3ed21eb7	0.4103906
166	0x3f081ff3	0.5317375
167	0x3ee5bd1d	0.44870844
168	0x3e9bddae	0.30442566
169	0x3eba81eb	0.36427245
170	0x3ed4f990	0.4159665
171	0x3fd0db90	1.6317005
172	0x3e9f8cea	0.31162196
173	0x3eea3939	0.45746782
174	0x3e93ddec	0.2888025
175	0x3eeebae8	0.46626973
176	0x3ea2dacb	0.3180755
177	0x3f89aba6	1.0755508
178	0x3eec4028	0.46142697
179	0x3ea7613b	0.32691368
180	0x3ec74901	0.38922885
181	0x3f9fc5ec	1.2482276
182	0x3ea5a512	0.323525
183	0x3f1e5ee0	0.6186352
184	0x3f9b75f0	1.2145367
185	0x3ec09552	0.37613922
186	0x3edaef84	0.4276086
187	0x3f0ae0dd	0.54249364
188	0x3f9b40d2	1.2129157
189	0x3f04a15c	0.51808715
190	0x3eecd8aa	0.46259052
191	0x3f04ba78	0.5184703
192	0x3e8f0656	0.2793452
193	0x3efc2671	0.49248078
194	0x3f17ac95	0.59247714
195	0x3ec2b1ba	0.3802622
196	0x3ec558f1	0.3854442
197	0x3ec68758	0.38775134
198	0x3ee7efe1	0.453002
199	0x3ee84563	0.45365438
200	0x3f967c42	1.175667
201	0x3fa697bb	1.3015054
202	0x3eeffa95	0.46870866
203	0x3f3e72c8	0.7439389
204	0x3f0a4fd7	0.54028076
205	0x3f22c1a8	0.63576746
206	0x3eaf36bb	0.34221444
207	0x3eac9028	0.33703732
208	0x3e8aa08b	0.2707561
209	0x3ed6c199	0.41944578
210	0x3fc07d6a	1.5038273
211	0x3ebcc7bb	0.36871132
212	0x3e94415b	0.28956112
213	0x3f9fc20a	1.2481091
214	0x3edfeae1	0.43733886
215	0x3f1d4bc2	0.6144372
216	0x3f8b8fbb	1.0903238
217	0x3f15c380	0.58501434
218	0x3faeabed	1.3646218
219	0x3f0a07cb	0.5391814
220	0x3f04d172	0.5188209
221	0x3f19d862	0.600958
222	0x3edb32ae	0.42812103
223	0x3f312750	0.6920061
224	0x3eb01b07	0.3439562
225	0x3faf8af1	1.3714277
226	0x3ed07607	0.40715048
227	0x3e91ddcc	0.2848953
228	0x3e92a728	0.28643155
229	0x3fc25cf6	1.518462
230	0x3ec624f6	0.38700074
231	0x3ec26db2	0.37974316
232	0x3ede3c37	0.43405315
233	0x3ede5291	0.43422368
234	0x3f8f2938	1.1184454
235	0x3f1a2936	0.6021913
236	0x3fe9a5c9	1.8253719
237	0x3ef191b3	0.47181472
238	0x3f9c4809	1.2209483
239	0x3f8d2836	1.1027896
240	0x402c3f12	2.6913495
241	0x3f8ef024	1.1167035
242	0x3edad049	0.42737034
243	0x3f0792b3	0.5295822
244	0x3ed933bb	0.4242228
245	0x3ee12880	0.43976212
246	0x3f72daca	0.94865096
247	0x40008eeb	2.008723
248	0x4029acd5	2.6511738
249	0x3edd41d5	0.43214288
250	0x3f1a9b20	0.6039295
251	0x3ead8508	0.33890557
252	0x3f113a4c	0.5672958
253	0x3f7acf53	0.979726
254	0x3fb4298d	1.407518
255	0x3fb885fa	1.4415886
