trained_models/checkpoint_ep9800.pth (torch, 75436 bytes, 6 tensors)

fc1.weight f4 [128, 8]
0	0xbe26400a	-0.16235366
1	0xbe88658e	-0.2663998
2	0x3e4de5d2	0.201072
3	0xbe910469	-0.28323677
4	0xbe2f68a6	-0.17129764
5	0xbd331d58	-0.043729156
6	0x3e1e2d72	0.15447024
7	0x3ea14ebf	0.3150539
8	0x41077273	8.465442
9	0x40169467	2.3528078
10	0x408493f2	4.1430597
11	0x4107e0a2	8.492342
12	0x401f9e39	2.4940321
13	0xbef585d0	-0.47953653
14	0x40b7e2ac	5.74642
15	0x4007a7d1	2.1196177
16	0x40e86c94	7.263254
17	0x3ee364d1	0.44412854
18	0x3f7bb341	0.98320395
19	0x4148f865	12.560643
20	0x3e93f282	0.28895956
21	0xbfb8383f	-1.4392165
22	0x40c8c428	6.273945
23	0x3e93240d	0.28738442
24	0x41058f39	8.347466
25	0x3f9fad69	1.2474796
26	0x40a72368	5.223072
27	0x41056aaf	8.338546
28	0x3f8cdace	1.1004274
29	0xbfaa7be3	-1.3319057
30	0x40c5de75	6.1834054
31	0x3f454fb9	0.7707477
32	0x40d75e25	6.7302423
33	0x3e906a4d	0.282061
34	0xbfb5b191	-1.4194814
35	0x41539a97	13.225242
36	0xbd51b4a5	-0.051197667
37	0xbf812fe2	-1.0092738
38	0x40cbf70e	6.373908
39	0xbcfe3193	-0.031029498
40	0x41046ab3	8.27605
41	0xbcff0aa8	-0.031133011
42	0x40af69d8	5.4816704
43	0x40ff3256	7.9748945
44	0x3e945c8e	0.28976864
45	0xbfbb7f41	-1.464821
46	0x40d3a01d	6.613295
47	0x3e92f51e	0.28702635
48	0x3e497472	0.19673327
49	0xbe1b4cd0	-0.1516602
50	0x3e679102	0.2261391
51	0xbe2264e5	-0.158588
52	0xbea9e25a	-0.33180505
53	0xbe4a5aff	-0.19761275
54	0x3eac4a35	0.33650365
55	0xbe9d9fd9	-0.30786017
56	0xbe62469b	-0.22097246
57	0x3d9deda4	0.07711342
58	0x3e05bf9a	0.13061371
59	0x3d9fa5c0	0.07795286
60	0xbe7423fa	-0.23841849
61	0xbe89824b	-0.26857218
62	0xbe5d2b30	-0.21598506
63	0x3c8404f0	0.016115636
64	0xc0c308e1	-6.094834
65	0x3fdfb915	1.7478358
66	0xbf9f2e11	-1.2435933
67	0xc0a1d249	-5.0569196
68	0x3f9ca771	1.2238599
69	0x40203b0c	2.503604
70	0xc0c2075e	-6.0633993
71	0x3fae4280	1.3614044
72	0x40f4f400	7.654785
73	0x3eabceb9	0.33556154
74	0x404f7822	3.2417073
75	0x4158a3ed	13.540021
76	0x3e9915dd	0.29899493
77	0xbf9358ad	-1.1511437
78	0x40d19e33	6.5505614
79	0x3e781ab7	0.24228941
80	0x41024212	8.14113
81	0x3ec866a6	0.39140815
82	0x40a25b07	5.0736117
83	0x414b7791	12.716691
84	0x3f14b5c4	0.5808985
85	0xbfec8a9d	-1.8479801
86	0x40aa2919	5.317517
87	0x3dfaea3a	0.122517064
88	0xc0d4202a	-6.6289263
89	0x3fc58d06	1.5433662
90	0xbf8ca22c	-1.0986991
91	0xc0abe141	-5.371247
92	0x3fcb6ac8	1.5891962
93	0x402f90a7	2.7432039
94	0xc0ce905d	-6.4551225
95	0x3fb3f81c	1.4060092
96	0x41055afc	8.334713
97	0x3fb482a9	1.4102374
98	0x40994288	4.7893715
99	0x4119898e	9.596083
100	0x3fab31f0	1.3374615
101	0xbf1b5ad0	-0.60685444
102	0x40c9ce39	6.3064237
103	0x3facba30	1.349432
104	0x40abea1c	5.372328
105	0x3e2f941e	0.17146346
106	0x4071be9d	3.777259
107	0xc10525ab	-8.321696
108	0x3e61c3ba	0.2204732
109	0xbf348edf	-0.70530504
110	0x40ce9c03	6.4565444
111	0x3d9af9fb	0.07567211
112	0x40fdcfdd	7.931624
113	0x3f5f043e	0.8711585
114	0x40a00d69	5.001637
115	0x4111f8b7	9.123221
116	0x3fc58dff	1.5433959
117	0xbf3159a9	-0.69277436
118	0x40c0ef99	6.0292478
119	0x3f784827	0.96985096
120	0xc0c72047	-6.22269
121	0x3fd1d680	1.6393585
122	0xbf9b9afb	-1.2156671
123	0xc0a41349	-5.127354
124	0x3fd996b8	1.6999121
125	0x402ddf85	2.7167675
126	0xc0c90fb4	-6.283167
127	0x3fe87486	1.816056
128	0xc0b1ac01	-5.5522466
129	0x3fe8c96f	1.8186473
130	0xbfd3d3ab	-1.6548971
131	0xc0c193a8	-6.0492744
132	0x3fcd7297	1.6050595
133	0x40068572	2.1018949
134	0xc0ca50b3	-6.322351
135	0x3fef67f1	1.8703595
136	0xbe22b9f2	-0.15891245
137	0xbe1059aa	-0.14096704
138	0xbe7a004a	-0.24414173
139	0x3e911b9d	0.2834138
140	0xbe693cf5	-0.2277716
141	0xbe32faaa	-0.17478433
142	0xbdbec214	-0.09314361
143	0x3da025bc	0.07819697
144	0x3db98c1a	0.090599254
145	0xbeb59ca1	-0.3547106
146	0x3cae6a7e	0.021291014
147	0xbe99dec9	-0.30052784
148	0x3dd8831a	0.10571881
149	0xbdeb6db5	-0.11495534
150	0x3e82e364	0.2556411
151	0xbe265c39	-0.16246118
152	0xbe1c966f	-0.15291761
153	0xbe8dff34	-0.27733767
154	0x3e997879	0.29974726
155	0xbdd568ba	-0.10420366
156	0xbea9f2d1	-0.33193067
157	0xbdab1060	-0.08352733
158	0xbdf22f90	-0.11825478
159	0x3e7874f6	0.24263367
160	0x410087aa	8.033121
161	0x3db24408	0.08704382
162	0x40c83a8a	6.257146
163	0x40072370	2.111538
164	0x3ee2b53f	0.44278905
165	0xbfd974bd	-1.6988751
166	0x40d49d6d	6.644217
167	0x3f037c46	0.513615
168	0xbe821fab	-0.25414786
169	0xbc681840	-0.014165938
170	0xbde631a8	-0.1123994
171	0xbeaa7599	-0.33292845
172	0xbe05b3e7	-0.13056909
173	0xbe1364b5	-0.14393885
174	0xbe2a7d62	-0.16649392
175	0x3d7616c8	0.06008032
176	0x40d2e591	6.5905232
177	0x3e86d03b	0.26330742
178	0x4053a068	3.3066654
179	0x415308cc	13.189648
180	0x3d8ccc10	0.06874859
181	0xbf8b78a5	-1.0896193
182	0x40d05183	6.50995
183	0x3e59bed9	0.21264209
184	0xc0d89a45	-6.7688317
185	0x40045350	2.067585
186	0xbf997e1c	-1.199161
187	0xc0a55f0b	-5.167852
188	0x3fdff1e3	1.7495693
189	0x402ccff0	2.7001915
190	0xc0d4e413	-6.652841
191	0x3fc2c203	1.5215458
192	0x40f7f32a	7.748433
193	0x3fbc2f62	1.470196
194	0x409fb5b7	4.990932
195	0x41156355	9.336751
196	0x3ff9fe4c	1.953073
197	0xbe96f469	-0.29483345
198	0x40c21b9a	6.0658693
199	0x3fb7f8a0	1.4372749
200	0x40ff74c3	7.983003
201	0x3f186564	0.5952971
202	0x40a079c3	5.0148635
203	0x4128bc7c	10.546017
204	0x3f222f3d	0.6335333
205	0xbf9f029a	-1.2422669
206	0x40c64d0a	6.196904
207	0x3f4eaba6	0.80730665
208	0x40db5644	6.8542805
209	0x40a7bdc9	5.241917
210	0x4048bf9f	3.1366956
211	0x41203fc2	10.015566
212	0x40a9dc77	5.308162
213	0x4037cfd1	2.872059
214	0x40a6fae1	5.218125
215	0x409ff8bd	4.9991136
216	0x40ec83bb	7.3910804
217	0x3f9eaf7b	1.2397302
218	0x40a7c927	5.2433047
219	0x41152a63	9.322848
220	0x3fbc762c	1.4723563
221	0xbefd4f2d	-0.4947447
222	0x40c1c1b1	6.054894
223	0x3fd79b4b	1.6844267
224	0xbe3679a1	-0.17819835
225	0xbe11a95a	-0.14224759
226	0xbdb9a8d8	-0.090654075
227	0x3e65ed3e	0.22453782
228	0xbc1a0b00	-0.009402037
229	0xbea7ad1c	-0.3274926
230	0xbd165e30	-0.036710918
231	0xbea47ed5	-0.32128015
232	0x40d6c686	6.711734
233	0x3dfc5ef7	0.123228006
234	0x40a73675	5.2253976
235	0xc0ec5468	-7.3853035
236	0x3edf6686	0.43632907
237	0xbfacc4fa	-1.3497612
238	0x40d56fa9	6.6698804
239	0x3d825a1e	0.06364845
240	0x41000c56	8.003012
241	0xbc4357ae	-0.01192276
242	0x40cc3c96	6.3823957
243	0x40c653e9	6.197743
244	0x3eb1c8e7	0.3472359
245	0xbfad44d2	-1.3536627
246	0x40d617c7	6.6904025
247	0x3de84322	0.113409296
248	0x40e736f3	7.2254577
249	0x3df074df	0.117410414
250	0x3f91e6a0	1.1398506
251	0x4150537f	13.020385
252	0x3f1613a1	0.586237
253	0xbfaf3ed4	-1.3691049
254	0x40cff986	6.4992094
255	0x3eee7884	0.4657632

fc1.bias f4 [128]
0	0x3ca88e10	0.020575553
1	0x3ffc459d	1.9708744
2	0x3d949384	0.07254699
3	0x3fb14484	1.3849034
4	0x3ebbadeb	0.36656126
5	0x3ef70f58	0.48253894
6	0x3d04ba08	0.032403976
7	0xbe4a40e0	-0.1975131
8	0x3feb77ae	1.8395898
9	0xbd39bf40	-0.045348406
10	0x3e184242	0.14869025
11	0x3ff7ae4a	1.9350064
12	0x3fab78f8	1.3396292
13	0xbce6debe	-0.028182384
14	0x3fd1b404	1.6383061
15	0x3faf715d	1.3706471
16	0x3fefc162	1.8730891
17	0x3db4ab08	0.08821684
18	0xbd330e23	-0.043714654
19	0xbeaf2777	-0.34209797
20	0x3ea1aba7	0.31576273
21	0xbe4da93f	-0.20084094
22	0x3e782544	0.24232966
23	0x3fafc209	1.373109
24	0x3fef4625	1.8693281
25	0x3efdc74f	0.49566123
26	0x40a7c1a9	5.24239
27	0x3fb50e0d	1.4144913
28	0xbdd35938	-0.103197515
29	0x3e6888c9	0.2270843
30	0x3ec4939b	0.38393864
31	0xbd3f9dd7	-0.046781387
32	0x3f92fb70	1.1482983
33	0x3cbec81b	0.023288777
34	0xbe862142	-0.2619725
35	0x3f8cac65	1.0990111
36	0x3fd22c5d	1.6419789
37	0x3f19564d	0.5989731
38	0xbe5a4bf9	-0.21318044
39	0x3e14964c	0.14510459
40	0x3f95feb6	1.1718357
41	0x3e46b3c7	0.19404517
42	0x3ea51d08	0.32248712
43	0x3fafe26d	1.3740975
44	0xbe86bf9c	-0.2631806
45	0x3f677d26	0.90425336
46	0x3d98ba9a	0.074574664
47	0x3fb4bf9d	1.4120976
48	0x3fccba84	1.599442
49	0x3e5637c6	0.20919713
50	0x3e0712a4	0.13190705
51	0x3d1bf0b0	0.038071334
52	0x3fea047a	1.8282616
53	0x3fd1f491	1.6402761
54	0x3e436246	0.19080457
55	0x3fb8a462	1.4425166
56	0x3d2ca4d3	0.042149376
57	0x3fc0b702	1.505585
58	0x3ff1c118	1.8887053
59	0x3fa4cf5f	1.2875785
60	0x3df10095	0.11767689
61	0x3fdad616	1.7096584
62	0xbea9013a	-0.33008748
63	0x3e5f45fe	0.21804044
64	0x40d467c3	6.637666
65	0x3fdc4c9b	1.7210878
66	0x3e68b2af	0.22724412
67	0x4011bd70	2.2771873
68	0x3d054225	0.032533783
69	0x3f0cbe57	0.54977936
70	0x40122f1f	2.284126
71	0x3fa3fcbf	1.2811507
72	0x3f9ab90e	1.2087724
73	0x3f2ff9c0	0.68740463
74	0x3ec4f072	0.38464695
75	0x3e894c3d	0.26815978
76	0x3eba3a8c	0.36372793
77	0x400873e4	2.1320734
78	0x402f075d	2.7348244
79	0x3f9e3006	1.2358406
80	0x3fc5f43d	1.5465161
81	0x3d68b330	0.05681151
82	0xbe408b60	-0.18803167
83	0xbe0a9e69	-0.13536991
84	0x3e0c3a2c	0.13694066
85	0x3e12dff1	0.1434324
86	0x3f91b434	1.1383119
87	0x3f85fbe6	1.0467498
88	0x3fad4fea	1.3540013
89	0x3ead8062	0.3388701
90	0x3f101c68	0.56293344
91	0xbe5b4992	-0.21414784
92	0x3f320dea	0.6955248
93	0x3ee3184e	0.4435448
94	0x3e73a04a	0.23791614
95	0x3f900136	1.125037
96	0x3fe90298	1.8203917
97	0xbdc46d48	-0.09591156
98	0x3f733948	0.9500928
99	0x3f001b54	0.500417
100	0x3e39d0ba	0.18146029
101	0xbe7a217a	-0.24426833
102	0xbe879afd	-0.26485434
103	0x3fa4611f	1.2842139
104	0x3f70e7f3	0.94103926
105	0x40d0d142	6.525544
106	0x3fe23725	1.7673079
107	0x3f98b1c0	1.1929245
108	0xbd05b6da	-0.032645084
109	0xbe851891	-0.25995305
110	0xbe2ecbd7	-0.17069946
111	0x3f7f2e06	0.996796
112	0x3e6d78a7	0.23190556
113	0x3ff3378e	1.9001329
114	0x3fc9b801	1.5759279
115	0x3e1e2434	0.15443498
116	0xbdac2760	-0.08405948
117	0xbe430c17	-0.1904758
118	0xbe507a55	-0.20359166
119	0xbc7279c0	-0.014799535
120	0x400b98ef	2.1812093
121	0x3f3ebe05	0.74508697
122	0x3d34e3ce	0.044162564
123	0x3f2349bc	0.63784385
124	0x3f7cb968	0.9872041
125	0x3f178519	0.59187466
126	0x40183bfc	2.3786612
127	0x3f63098c	0.8868644

fc2.weight f4 [128, 128]
0	0xbd82f862	-0.063950315
1	0xbd96f58d	-0.07371054
2	0x3a88b2c0	0.0010429248
3	0xbd7db984	-0.0619445
4	0xbdbda254	-0.09259477
5	0xbd0d9678	-0.034567326
6	0xbd97cf19	-0.074125476
7	0x3da8f783	0.08250334
8	0x3d4d04fe	0.05005359
9	0xbd5ebc42	-0.054378755
10	0xbd00c8a6	-0.031441353
11	0x3d6952c8	0.056963712
12	0x3c5df264	0.01354656
13	0x3d825ca5	0.06365327
14	0xbd60a72f	-0.05484694
15	0x3cf96160	0.03044194
16	0xbda3f96d	-0.080065586
17	0x3d34c076	0.044128858
18	0x3cfc70d0	0.030815512
19	0x3cedf574	0.029047705
20	0x3d0a6a92	0.03379304
21	0x3c1c7e10	0.00955154
22	0x3af54390	0.0018712152
23	0x3bbbf9d9	0.0057365713
24	0xbc454b86	-0.012041932
25	0xbdaaa585	-0.083323516
26	0x3ce2015e	0.027588543
27	0xbd6c5fb6	-0.057708465
28	0xbd4e0c58	-0.05030474
29	0xb91c9400	-0.00014932454
30	0x3d5ceeaa	0.053938545
31	0xbd8f2d5b	-0.06991073
32	0xbd454b83	-0.048167717
33	0x3d1ad2da	0.03779874
34	0xbc845ea8	-0.016158417
35	0xbd521f78	-0.051299542
36	0x3d6de279	0.05807731
37	0x3cfb7e36	0.03069983
38	0xbdaf623b	-0.08563658
39	0xbd54d173	-0.05195756
40	0xbd556ff6	-0.052108727
41	0xbd907ec2	-0.07055427
42	0x3cdaef10	0.026725322
43	0x3d856cd6	0.065148994
44	0xbcd19404	-0.025583275
45	0x3d078a0e	0.033090644
46	0x3d31196d	0.04323714
47	0xbd1d4f16	-0.0384055
48	0x3d676fb3	0.05650301
49	0x3da5d53d	0.080973126
50	0xbcbb1a03	-0.022839552
51	0xbc10bb08	-0.008833654
52	0x3d86686a	0.06562884
53	0xbd45485b	-0.048164707
54	0x3d57a83a	0.052650668
55	0xbb1c51fe	-0.0023852582
56	0x3d371efb	0.04470728
57	0xbd3d6eff	-0.046248432
58	0xbd9669b3	-0.07344379
59	0xbdb51f2c	-0.08843836
60	0xbd213cf4	-0.03936477
61	0xbcce4420	-0.025178969
62	0x3d19cece	0.03755074
63	0x3d4cb566	0.049977683
64	0xbc40ddf4	-0.011771668
65	0x3c8e9682	0.017405752
66	0xbd4f3737	-0.050589766
67	0x3c4ae167	0.012382842
68	0xbc9b2f94	-0.018943585
69	0xbd93f066	-0.07223587
70	0xbd92aeac	-0.07162222
71	0xbd61aef8	-0.055098504
72	0xbd81e2ef	-0.06342112
73	0x3d84d87c	0.064866036
74	0xbbcefbfd	-0.0063166604
75	0x3d24399e	0.04009401
76	0x3d76e1fe	0.060274117
77	0xbd8169d1	-0.06319011
78	0x3d29db56	0.04146894
79	0xbd9ba8a5	-0.07600526
80	0x3d3c0988	0.045907527
81	0x3d35d8a2	0.04439605
82	0xbc403338	-0.0117309615
83	0x3da7fa9b	0.08202096
84	0x3d8f055d	0.06983445
85	0x3d8369b9	0.06416649
86	0x3cee5f3f	0.029098151
87	0x3d4a0eba	0.04933045
88	0xbdbb63fe	-0.09149931
89	0xbdafc6b8	-0.085828245
90	0xbd8591f6	-0.065219805
91	0x3d9214cd	0.07132874
92	0x3d40cf72	0.047072835
93	0xbd21c58a	-0.03949503
94	0xbd62c295	-0.05536135
95	0x3cb26a86	0.02177931
96	0x3c3504df	0.011048525
97	0xbd842172	-0.06451692
98	0x3d1da7ea	0.038490213
99	0xbdbd05da	-0.09229632
100	0x3d4ba72a	0.049719967
101	0xbd97348b	-0.07383069
102	0xbda34b97	-0.07973402
103	0x3d1a3075	0.03764387
104	0xbdc00ea9	-0.09377796
105	0xbd93c0ef	-0.072145335
106	0x3a37f223	0.0007016977
107	0xbdc0478c	-0.093886465
108	0xbc8c5c15	-0.017133752
109	0x3d8a5673	0.0675477
110	0x3c5f2410	0.013619438
111	0x3d26f5fe	0.04076194
112	0xbc9d4f64	-0.019202895
113	0xbc8f1ddc	-0.017470293
114	0xbd125ec0	-0.035734892
115	0x3c6b0248	0.014343806
116	0x3d715082	0.05891467
117	0xbd3e13c3	-0.046405565
118	0xbca811fc	-0.020516388
119	0xbd7b735a	-0.061389305
120	0xbc4ae727	-0.012384213
121	0xbd718bdc	-0.05897127
122	0xbd910ea5	-0.07082871
123	0x3d380ebe	0.044935934
124	0xbd3052aa	-0.043047585
125	0x3d624b89	0.055247817
126	0x3d377589	0.044789825
127	0xbcbbecf6	-0.02294014
128	0x3c881f58	0.016616508
129	0x4014c1f2	2.3243375
130	0xc0bac498	-5.8364983
131	0x3fed6229	1.8545581
132	0xc0cb037c	-6.3441753
133	0xbfe4e345	-1.7881857
134	0x3dac6241	0.08417178
135	0x3d9a7107	0.075410895
136	0x405e82d8	3.476736
137	0xc0d8a8de	-6.7706137
138	0xc12b23ee	-10.696272
139	0x406dd597	3.7161615
140	0x3ff4bb44	1.9119649
141	0xc0c82365	-6.2543206
142	0x3ffe53a4	1.9869275
143	0x406fea87	3.7486894
144	0x40499d35	3.1502202
145	0xbd575bdb	-0.052577835
146	0xbd516c3c	-0.05112861
147	0xbc6a8648	-0.014314242
148	0xc0e01a22	-7.00319
149	0x3d34f456	0.04417833
150	0xc0eab856	-7.335002
151	0x40833b4f	4.10099
152	0x400ef4ae	2.233684
153	0x3f9af1f6	1.2105091
154	0x40309a86	2.7594314
155	0x40031e3c	2.0487204
156	0xbc164058	-0.009170614
157	0xc0cf3eb5	-6.4764047
158	0xc0c01ae7	-6.003284
159	0xc0de5092	-6.9473352
160	0x3feb6b57	1.8392133
161	0xc1015680	-8.083618
162	0xbd8e368a	-0.06943996
163	0x3fe08d27	1.7543076
164	0x3ffaaf0e	1.9584672
165	0xbd7f150f	-0.062275942
166	0x3cce5ad8	0.025189802
167	0xc0e230a2	-7.0684366
168	0x3ffaccc1	1.9593736
169	0xc0f58725	-7.672747
170	0xc1245400	-10.270508
171	0x40964409	4.695805
172	0xbd84f455	-0.06491915
173	0x3fb9906b	1.4497198
174	0xc08fc610	-4.4929276
175	0x40144a9b	2.3170536
176	0x3ff3fe04	1.9061894
177	0xc0ffc71c	-7.9930553
178	0xc0d41f76	-6.6288404
179	0xbd71d393	-0.059039664
180	0x4069ffe7	3.656244
181	0x40031986	2.0484328
182	0xc0ff2c42	-7.9741526
183	0x4015075b	2.328574
184	0xc017289b	-2.3618534
185	0x40017079	2.0224898
186	0x4081ce0b	4.0564017
187	0x3fe49173	1.7856888
188	0xc0bd5db2	-5.9176874
189	0x40930aaa	4.595052
190	0xbca3b0a7	-0.019981695
191	0x3c445338	0.0119827315
192	0x402dc4c4	2.7151346
193	0x40a2911e	5.0802145
194	0xc0e86cf7	-7.2633014
195	0x4015499d	2.332618
196	0x3d138adc	0.0360211
197	0xc129cba0	-10.612213
198	0x400c6499	2.19364
199	0x3ff3ed77	1.9056844
200	0x3fee737d	1.8628994
201	0x3fcdccac	1.6078086
202	0xc06daa09	-3.7135031
203	0xc0da02aa	-6.812825
204	0x3f3792ba	0.7170826
205	0x400ee555	2.2327473
206	0x401d8c6e	2.4616961
207	0x3fd9c395	1.7012812
208	0x4067ce2e	3.6219592
209	0x3da4c3e1	0.080451734
210	0x3d357b4e	0.044307046
211	0x3c67cbc8	0.014147706
212	0x3b6ef560	0.0036462173
213	0xc10251dd	-8.144986
214	0x3ff5795f	1.9177665
215	0x3fe5986e	1.7937143
216	0x40806b81	4.013123
217	0xc10874f5	-8.528554
218	0xc12b0578	-10.688835
219	0x3b083598	0.0020783897
220	0x3e1cd0ec	0.15314072
221	0xc0d1c6f6	-6.555537
222	0xbc6b9130	-0.014377877
223	0x3fc7b567	1.5602235
224	0x405a08cb	3.4067867
225	0xbd90467f	-0.07044696
226	0x3fb6c60a	1.4279187
227	0xc0ae1fe0	-5.441391
228	0xbc97eb38	-0.018544778
229	0xbd843ccb	-0.06456908
230	0x3d6e78bf	0.05822062
231	0x3fe90f55	1.8207804
232	0x3fd9f292	1.7027152
233	0x4037d1f9	2.8721907
234	0x4000fe9b	2.01554
235	0x3fe53dd9	1.79095
236	0xc0d1ebd6	-6.5600386
237	0xbdb2421f	-0.08704018
238	0x3ebdb4cd	0.37052003
239	0x3fc14b69	1.5101138
240	0xc1242909	-10.260018
241	0x407f625f	3.990379
242	0x40615471	3.520779
243	0xbd1c856f	-0.03821319
244	0x3d982c83	0.07430365
245	0x3d158d30	0.0365116
246	0xbce70478	-0.028200373
247	0x3db16169	0.08661158
248	0x4015e6c1	2.342209
249	0x3f645dc4	0.89205575
250	0xc0d31d47	-6.597324
251	0x3f94b4ee	1.1617715
252	0x3f9fa31a	1.247165
253	0xc085a754	-4.176676
254	0x402063a5	2.5060818
255	0x3fb818e5	1.4382597

fc2.bias f4 [128]
0	0xbd66613c	-0.056245074
1	0x400a0b2a	2.1569314
2	0x3cab48ec	0.020908795
3	0x3f121f50	0.5707903
4	0xbd9cab19	-0.07649822
5	0x3f18e59a	0.59725344
6	0x3ef80c7c	0.48447025
7	0x3f20ccf8	0.6281276
8	0xbcd31315	-0.025765935
9	0x3b5716d3	0.003282
10	0x3f469c13	0.775819
11	0x3ed6d458	0.4195888
12	0x3f0651d5	0.52468616
13	0x3d252658	0.04031977
14	0x3f199810	0.59997654
15	0xbdb6f6d7	-0.089338
16	0xbde6d1cc	-0.11270484
17	0x3f29d401	0.6633912
18	0x3cd5599d	0.026043708
19	0xbd8ef472	-0.06980218
20	0x3f335a81	0.70059973
21	0x3f26c619	0.65146023
22	0x3d613281	0.054979805
23	0xbcd3a5d0	-0.025835901
24	0xbb8d0caf	-0.0043044905
25	0xbd9b966c	-0.0759705
26	0x400737e2	2.1127858
27	0x400c6bd1	2.1940806
28	0xbdc573d1	-0.09641231
29	0x4009bd85	2.1521924
30	0x3ca21473	0.019785142
31	0x3f2bc52c	0.67097735
32	0xbd16cf87	-0.036819007
33	0x3f20cb4c	0.62810206
34	0xbc3dfb10	-0.0115955025
35	0xbd9c4a02	-0.07631303
36	0xbd4c7916	-0.049920164
37	0xbd671ea1	-0.056425694
38	0xbdac06c5	-0.08399729
39	0x3f160b22	0.5861074
40	0x3f03ede5	0.51534873
41	0x3f16accd	0.58857423
42	0x3f359aa8	0.7093911
43	0x400c53a1	2.1926043
44	0x3f1755d7	0.59115356
45	0x3f340f21	0.70335585
46	0x3d4a60ac	0.0494086
47	0x3c72a653	0.014810163
48	0x3e987c40	0.29782295
49	0xbc6e40b2	-0.014541792
50	0x3f1f26e2	0.62168705
51	0xbdc9e139	-0.09857411
52	0xbda0232f	-0.07819211
53	0x3fff98ca	1.9968503
54	0xbde96aae	-0.11397301
55	0x3e09635e	0.13416812
56	0x400cd16a	2.2002816
57	0xbda49224	-0.080356866
58	0xbc7e1276	-0.015507331
59	0x4005619b	2.0840824
60	0x3f1c1088	0.60962725
61	0x3ce276dc	0.027644567
62	0x3f260588	0.6485219
63	0x4006d71c	2.1068792
64	0x4008e5ba	2.1390214
65	0x3f104b23	0.5636465
66	0x3f335cd1	0.700635
67	0x3d9326ed	0.07185159
68	0x3f27285c	0.6529596
69	0x3f23f0bd	0.6403921
70	0xbc7338f5	-0.014845123
71	0x3f152943	0.58266085
72	0xbb564f36	-0.0032701022
73	0xbd8bc4c6	-0.06824641
74	0x3e89d9d8	0.26924014
75	0xbcaa2cd0	-0.020773321
76	0x3f200353	0.6250507
77	0x4003791f	2.0542676
78	0xbde7bab7	-0.1131491
79	0x3cb7a3e7	0.022417022
80	0xbde95105	-0.113924064
81	0x3f18636d	0.5952671
82	0xbd934c9b	-0.07192346
83	0xbda49f74	-0.08038226
84	0x3d463802	0.048393257
85	0x4008c690	2.1371193
86	0x400d53c3	2.2082374
87	0xbbe1f839	-0.0068960455
88	0x400e5035	2.2236454
89	0x3d4322c9	0.047640596
90	0x3c97894c	0.018498085
91	0xbdf48d45	-0.119410075
92	0xbbfcbe80	-0.007713139
93	0xbdb76af6	-0.08955948
94	0xbdf02138	-0.11725086
95	0x4003fc24	2.0622644
96	0x3f2a4b79	0.6652141
97	0xbcb52731	-0.022113414
98	0x3f2f80f9	0.6855617
99	0xbd9e1f28	-0.07720786
100	0x3f3817af	0.7191114
101	0x400f5d8d	2.240085
102	0x4006c699	2.1058714
103	0xbd952cf2	-0.07283963
104	0x3c8f6353	0.017503416
105	0xbc14c588	-0.009080298
106	0x3f12a0ed	0.57276803
107	0xbcc7ca6c	-0.024388514
108	0x3f277f78	0.65428877
109	0x400c6a7d	2.1939995
110	0x3f180507	0.5938267
111	0x3f2b1ad3	0.66837806
112	0x3f2042bf	0.62601846
113	0x3f2df46d	0.6795109
114	0x3f2a3c8d	0.66498643
115	0xbd281d18	-0.04104337
116	0x3e95ca9b	0.29256138
117	0x3c1c44d0	0.009537891
118	0x3f1c1a81	0.6097794
119	0xbdab6a0f	-0.083698384
120	0xbd988959	-0.07448072
121	0x4003b0c3	2.0576637
122	0x3ee823c3	0.45339784
123	0x3f31e4ac	0.6948955
124	0x3f2c3cdc	0.67280364
125	0x3f1fd5c0	0.6243553
126	0xbd318b43	-0.0433457
127	0x3f1c23e7	0.6099228

fc3.weight f4 [4, 128]
0	0xbd8f8e3f	-0.07009553
1	0xc07b875c	-3.9301367
2	0xbd121c42	-0.03567148
3	0x40d05aba	6.511075
4	0x3d3a9fdd	0.045562614
5	0x40cdefeb	6.435537
6	0x40e9360b	7.287847
7	0x40ca4e67	6.3220706
8	0x3d487bd7	0.048946228
9	0x3ce66cd6	0.028128069
10	0x40c8d85d	6.2764115
11	0x410c876a	8.78306
12	0x40d868b3	6.7627807
13	0x3c28b3b4	0.010296751
14	0x40c7c17c	6.2423687
15	0xbcecedd6	-0.028922003
16	0x3b6a2820	0.0035729483
17	0x40e27989	7.077336
18	0x3d0eb616	0.03484162
19	0x3cca7f28	0.024718836
20	0x40cb5190	6.3537064
21	0x40c89843	6.2685866
22	0xbe4597f1	-0.19296242
23	0x3c836dfb	0.016043654
24	0x3c97fbd8	0.018552706
25	0x3d42cf23	0.047560822
26	0xc058e0b8	-3.3887157
27	0xc07bb34b	-3.9328182
28	0x3d5ad157	0.0534223
29	0xc07badef	-3.932491
30	0x3d674133	0.056458663
31	0x40cb9895	6.3623757
32	0x3cc07d21	0.023497166
33	0x40cd8a35	6.423121
34	0xbce18b2e	-0.027532186
35	0x3c9ed40c	0.019388221
36	0xbdb16aa5	-0.08662919
37	0x3da1bb33	0.078970335
38	0xbd875f52	-0.06609978
39	0x40ce39c7	6.444553
40	0x40d6bd53	6.710611
41	0x40cc77f6	6.3896437
42	0x40cdb29e	6.428054
43	0xc080d319	-4.0257688
44	0x40d886e4	6.766466
45	0x40bfdb83	5.995546
46	0xbd92a6d4	-0.07160726
47	0xbd38d75a	-0.04512725
48	0x40ed9c72	7.4253473
49	0x3c305345	0.0107620405
50	0x40d1ac8d	6.5523133
51	0xbdeb952c	-0.11503062
52	0x3d792c66	0.060833357
53	0xc0289ef2	-2.6347013
54	0x3bd5044c	0.0065007564
55	0x40cae4b3	6.3404174
56	0xc0819aaf	-4.0501323
57	0xb9cad300	-0.0003868565
58	0x3d9ed1aa	0.07754834
59	0xc07abae6	-3.9176574
60	0x40d122a9	6.535481
61	0xbbeecc7d	-0.0072875605
62	0x40cbac2f	6.3647685
63	0xc07e4ff3	-3.9736297
64	0xc07b7031	-3.9287226
65	0x40d5ff00	6.687378
66	0x40c915c3	6.2839065
67	0x3aef76d8	0.0018269671
68	0x40ccceca	6.400243
69	0x40c94ae2	6.290391
70	0xbcbca15c	-0.02302616
71	0x40d1f46f	6.561088
72	0xbc7959c0	-0.015219152
73	0xbd670565	-0.05640163
74	0x40c508f7	6.1573443
75	0xbd70155b	-0.058614116
76	0x40c91d81	6.2848516
77	0xc0716a26	-3.7721038
78	0xbb1b9974	-0.0023742588
79	0xbd1e8788	-0.03870347
80	0xbc7467d6	-0.014917335
81	0x40d395bd	6.6120286
82	0x3d8fd9a2	0.07023932
83	0xbbd65f96	-0.0065421565
84	0xbd8b39a5	-0.06798104
85	0xc0791a46	-3.8922286
86	0xc07d156d	-3.9544327
87	0xbc7794fd	-0.015111205
88	0xc07b9aa0	-3.9313126
89	0xbccf0b99	-0.025274085
90	0x3da44267	0.08020478
91	0xbd85f94f	-0.065416925
92	0x3db2d9a7	0.0873292
93	0xbda6396a	-0.081164196
94	0xbda4233c	-0.08014533
95	0xc0783060	-3.8779526
96	0x40cac1b6	6.3361464
97	0xbcd1bb54	-0.02560202
98	0x40cdc79c	6.4306164
99	0x3d7ba08e	0.061432414
100	0x40cae50b	6.3404593
101	0xc0787b97	-3.8825433
102	0xc07d7c3f	-3.9607084
103	0xbd3b96d9	-0.045798156
104	0xbd0f29a7	-0.034951832
105	0xbd9d7c42	-0.07689716
106	0x40c82527	6.254535
107	0xbc2f0a98	-0.010683678
108	0x40c548ff	6.1651607
109	0xc07e0972	-3.9693265
110	0x40cf6d1d	6.4820695
111	0x40c8827a	6.2659273
112	0x40cf4ea7	6.478351
113	0x40cc22a0	6.3792267
114	0x40c7e6a5	6.246905
115	0xbc91670c	-0.017749332
116	0x40f2792d	7.577292
117	0x3cd43d29	0.02590807
118	0x40c96f6e	6.2948523
119	0xbd1398a0	-0.036034226
120	0x3b7faa7e	0.0039011533
121	0xc072517f	-3.7862241
122	0x40fa79da	7.8273745
123	0x40cfaad9	6.4896054
124	0x40ca8ec6	6.3299284
125	0x40cb45b1	6.3522573
126	0x3db0c103	0.08630564
127	0x40ca0f93	6.314401
128	0x3d5842c2	0.05279804
129	0xc08836f9	-4.2567105
130	0xbd408bf6	-0.047008477
131	0x40d57fc3	6.671846
132	0xbd3ea6a5	-0.046545643
133	0x40d4d0f5	6.6505075
134	0x40db9bba	6.8627596
135	0x40d324d0	6.5982437
136	0x3ca5ca72	0.020238135
137	0x3d5f04f2	0.054448076
138	0x40d5a8c4	6.6768513
139	0x410708c8	8.439644
140	0x40db3b13	6.850961
141	0xbd884210	-0.066532254
142	0x40d4c51a	6.6490602
143	0xbbc08557	-0.0058752703
144	0x3d5f1936	0.054467402
145	0x410520c9	8.320504
146	0x3c0821f8	0.00830888
147	0xbd069da5	-0.032865185
148	0x40d77445	6.732943
149	0x40d6dbaf	6.714317
150	0xbe76334d	-0.24043007
151	0xbcaf2f2f	-0.021384804
152	0x3d091882	0.033470638
153	0x3d6b88e9	0.057503615
154	0xc054df75	-3.3261387
155	0xc087f18d	-4.248236
156	0xbd289697	-0.04115924
157	0xc0855422	-4.16652
158	0xbc1138b5	-0.008863618
159	0x40d4d221	6.6506505
160	0x3c25b29b	0.010113384
161	0x40d7ffd7	6.7499804
162	0x3af5bf00	0.0018748939
163	0xbb8fb130	-0.004385136
164	0x3c9fe070	0.0195162
165	0x3ce277ba	0.02764498
166	0x3d822a62	0.0635574
167	0x40d647f4	6.6962833
168	0x40ddbb7a	6.9291353
169	0x40d68cbc	6.7046795
170	0x40d94d95	6.7907205
171	0xc08f3037	-4.4746356
172	0x40d1fcb2	6.5620966
173	0x40d993a0	6.7992706
174	0xbc2c3639	-0.010510975
175	0x3ab09cc0	0.001347445
176	0x40e689c4	7.204317
177	0x3d6ed341	0.058306936
178	0x40db18d3	6.8467803
179	0x3c9f2388	0.019426122
180	0xbdaf62cb	-0.08563765
181	0xc00705be	-2.1097255
182	0xbdf17699	-0.11790199
183	0x40d5e898	6.684643
184	0xc0921c68	-4.5659676
185	0x3d9a1d87	0.07525163
186	0xbcfae117	-0.03062491
187	0xc089952f	-4.299461
188	0x40d5783d	6.6709275
189	0xbcdd0da4	-0.026984043
190	0x40d68aea	6.7044573
191	0xc0846694	-4.1375217
192	0xc083dab0	-4.1204453
193	0x40d81b32	6.7533197
194	0x40d60f6a	6.6893816
195	0xbd5cc678	-0.053900212
196	0x40fd04fb	7.906858
197	0x40d4a3eb	6.6450095
198	0x3d0f4199	0.03497467
199	0x40d41456	6.6274824
200	0xbd2f4461	-0.04278982
201	0xbd5e43b6	-0.054263793
202	0x40c907eb	6.2822165
203	0x3d3cb844	0.046074167
204	0x40d40a63	6.626268
205	0xc064ed1e	-3.5769725
206	0xbd268ae3	-0.040659796
207	0x3c872258	0.016495869
208	0xbd55ec96	-0.05222758
209	0x40d5dd55	6.683268
210	0x3d112eb0	0.035444915
211	0xbd89f3d0	-0.06735957
212	0xbd1d09dc	-0.03833948
213	0xc0868c54	-4.20463
214	0xc0859152	-4.1739893
215	0xbd5e0c2d	-0.05421083
216	0xc08cafd1	-4.396462
217	0xbd31affe	-0.04338073
218	0x3d1af9ba	0.037835814
219	0xbcb44659	-0.0220062
220	0x3d4f0e8e	0.05055099
221	0xbc8f4c3b	-0.017492404
222	0x3d5a418a	0.05328516
223	0xc06ec92b	-3.7310283
224	0x40d4e8f6	6.6534376
225	0xbbe9b02a	-0.007131596
226	0x40d5930e	6.674201
227	0xbd61b377	-0.05510279
228	0x40d5f2d0	6.68589
229	0xc080ea15	-4.0285745
230	0xc0890254	-4.281534
231	0xbcfac8a8	-0.030613258
232	0xbd5f2d0f	-0.05448633
233	0xbd54a798	-0.051917642
234	0x40d233c1	6.5688176
235	0x3a6d9d00	0.00090642273
236	0x40ce9a47	6.4563327
237	0xc0840de8	-4.1266975
238	0x40da4f61	6.82219
239	0x40d4e504	6.652956
240	0x40d7f555	6.7486978
241	0x40d8c1cf	6.7736583
242	0x40d56acb	6.6692863
243	0xbdb4b920	-0.08824372
244	0x40fa3e4a	7.8201036
245	0xbc3ff32c	-0.011715692
246	0x40d59e99	6.67561
247	0x3d1f943e	0.038959734
248	0xbd5182f1	-0.051150266
249	0xc0724d79	-3.7859786
250	0x40f4d070	7.650444
251	0x40db710c	6.8575497
252	0x40d6c439	6.711453
253	0x40d67454	6.7017
254	0xbd77917c	-0.06044148
255	0x40d5a793	6.676706

fc3.bias f4 [4]
0	0xbd899e7a	-0.0671968
1	0x3f93fa14	1.1560693
2	0xbf0ff0e3	-0.5622694
3	0x3f37dc59	0.718206
