trained_models/checkpoint_ep100.pth (torch, 416142 bytes, 14 tensors)

fc1.weight f4 [256, 8]
000000 79 82 36 be 2b 47 5b bc d0 2a 5b 3a f5 e4 10 be
       -0.17823209 -0.013383667 0.00083605666 -0.1414984
000010 02 6e a7 3d bb 84 b0 3d 3b b0 b8 3e 54 37 66 3d
       0.08175279 0.08619066 0.36071953 0.05620511
000020 ea 28 47 3c 86 c1 14 3d a6 fa 58 3d ee eb 0a bc
       0.012155751 0.03631737 0.052973412 -0.008479102
000030 54 b8 4f 3e 9e f8 35 bd 55 fb fd 3b 26 e1 36 3d
       0.2028516 -0.044426553 0.0077509084 0.044648312
000040 40 dc 7b 3d 4e ce 4d be fa b8 80 3e 09 48 ea bd
       0.061489344 -0.2009823 0.25141126 -0.11439521
000050 60 26 83 ba 1c c4 37 3e 68 ec 06 3d 0c 9e 3b 3d
       -0.0010005943 0.17945904 0.0329403 0.045805022
000060 cb 42 b1 bc b4 39 28 bc 3d 7f 62 3d e5 74 fb bc
       -0.021638295 -0.010267664 0.055297125 -0.030695388
000070 d5 66 38 bd f5 66 29 3e 36 5d 07 3d b9 8e 0d 3d
       -0.045019943 0.16543181 0.033047877 0.03455994
000080 21 60 f1 3d 9a c5 6b be a8 5d b2 3b 3b 8f 61 bd
       0.11785913 -0.23024598 0.0054432936 -0.055068236
000090 c5 2e 14 3e e4 e3 dc 3d b2 52 a4 bd 29 b5 f8 3d
       0.14470966 0.10785654 -0.080235854 0.121439286
0000a0 8a 1b 6b 3d 71 d0 ea bd bd 10 04 3e ae ce d0 bd
       0.05739931 -0.11465538 0.1289701 -0.10195671
0000b0 aa fa 09 3e 9f 5b bb bc 00 9f db bc 47 60 f3 3c
       0.13474527 -0.022870837 -0.026809216 0.029708995
0000c0 10 ec 80 bd e0 7c 50 bd d8 9e 46 3e 8d 02 dc 3c
       -0.06295025 -0.05090034 0.19396532 0.026856685
0000d0 aa ea 21 3e 7a 4b e4 bd 6e ce bc 3c 4c 5f 1a 3d
       0.15812173 -0.111472085 0.023047652 0.03768854
0000e0 d7 66 8f bb 26 75 9d bd bf 53 3a 3e 5e 43 de bd
       -0.004376273 -0.0768836 0.18196009 -0.10852693
0000f0 df 92 bc 3d 6c 7b 65 3d 0e 2b 38 3d 68 e8 61 bd
       0.09207701 0.056025907 0.044962935 -0.05515328
000100 63 15 79 3d bd 2e ba 3d 71 7f bb 3d e8 dc ab bd
       0.06081141 0.09090946 0.09155167 -0.08391744
000110 b4 d0 58 3e 1f fb ed 3b f9 60 ae bc ee bc 82 bd
       0.21173364 0.007262602 -0.021286475 -0.06383692
000120 b3 c5 64 bd 02 e7 b9 bd 2a 31 0b 3e 47 98 00 3e
       -0.055852603 -0.09077264 0.13592973 0.12558089
000130 0b 5d b7 be 92 fb 13 3e 8d 6c 40 3e 24 33 10 3e
       -0.35813174 0.14451435 0.18791409 0.14082009
000140 3e d6 70 bd 7a c0 35 bc 8d d3 49 3e a7 13 0c bd
       -0.058798067 -0.011093253 0.19709606 -0.03419843
000150 9c 8d 67 3d 0d f4 1d 3c 26 a2 61 3c a7 bf 84 3d
       0.056531534 0.009640706 0.013771569 0.06481867
000160 24 83 d3 bc 62 dd 80 3c 2a 55 85 3d 61 5f c5 bc
       -0.025819369 0.015730564 0.065103844 -0.024093332
000170 42 b6 44 3d df 91 9b 3d e4 f2 8e 3b 98 c8 a6 3c
       0.048025377 0.07596182 0.004362451 0.020359322
000180 69 f0 00 3e aa a2 c3 bc a2 5d dd bd b3 2f cc bd
       0.12591709 -0.023881275 -0.10808875 -0.099700354
000190 ef 10 5d 3e 0d 55 d0 bc ab e4 cd bb 9d a0 de 3c
       0.21588491 -0.02543118 -0.006283363 0.027176196
0001a0 6d b7 8d 3e d4 21 90 bd 52 60 bf 3d f6 91 14 be
       0.27679005 -0.07037702 0.093445435 -0.14508805
0001b0 38 af 94 3e 68 dc 60 3c f1 49 b4 3d 53 ed 5c 3d
       0.2903993 0.013724424 0.08803166 0.053937268
0001c0 9e ed 73 be af 61 41 3d 41 82 a8 bc b0 01 91 3e
       -0.23821113 0.0472123 -0.020569922 0.283216
0001d0 a2 30 a7 3d b6 5a 9c bd 0f 03 c1 3d a2 8d f9 bc
       0.08163573 -0.07634489 0.094244115 -0.030463044
0001e0 b1 b9 bd 3b f1 65 28 bd a5 0b 25 3e 44 fc 36 3e
       0.0057899584 -0.041112844 0.16117723 0.17869669
0001f0 91 05 52 3d 69 7d 82 bd 11 2d 87 bd c2 4a a1 bd
       0.05127484 -0.06371576 -0.066003926 -0.07875587
000200 b1 42 4b 3d 0b 02 4f 3d 33 e0 13 3d a5 06 cf bb
       0.04962415 0.050539058 0.036102485 -0.0063179308
000210 87 10 66 3d 7f f2 a9 3d 97 0f c1 3c 29 46 6d 3b
       0.056168105 0.082982056 0.023567004 0.0036205149
000220 09 9b 6a 3d 98 71 69 be 5f ca 49 3e 0f 17 ab bd
       0.05727676 -0.22797239 0.19706105 -0.083540075
000230 2e 79 44 3e 92 b0 6d 3d ad fe b9 3d 26 90 c2 3c
       0.19186851 0.05802972 0.09081779 0.023750376
000240 38 fc 78 3d c1 df b9 3d e9 20 95 3d 2f 2f 30 bc
       0.06078741 0.09075881 0.07281668 -0.010753437
000250 d2 f1 d4 3d f5 e5 4d 3e 9b 11 41 3d 0c 32 db bd
       0.10397686 0.20107253 0.04713593 -0.10702905
000260 80 00 ae 3d 29 45 11 3d 39 3b b4 bd 2d e6 90 be
       0.08496189 0.035466347 -0.08800358 -0.2830061
000270 b8 59 87 3e 35 2d 27 3e 23 c2 e8 3c 84 e0 be bd
       0.26435637 0.16325839 0.028412884 -0.09320167
000280 f8 68 80 3c 08 c1 93 bd 3b 93 c7 bc 93 5f 13 3e
       0.015675053 -0.07214552 -0.024362197 0.14391927
000290 35 55 e9 be 08 79 6f 3e 1f 12 35 3c 52 df b6 3d
       -0.4557282 0.23386014 0.011051684 0.08929314
0002a0 fd c4 5c be ab 07 f2 ba 05 69 b9 bd 5d 16 44 3e
       -0.2155952 -0.001846542 -0.09053234 0.19149156
0002b0 f5 b9 bd bd 95 c5 d8 3d 64 01 57 3e 3d bb cb 3c
       -0.09263984 0.10584561 0.20996624 0.024869556
0002c0 f0 19 03 bd 8c 25 e7 3d e3 4d 03 3e f5 5a b4 bd
       -0.032007158 0.112864584 0.1282268 -0.08806411
0002d0 16 38 27 3e 6f 7e 45 bd b0 ab 47 3d 8f f2 79 bd
       0.16329989 -0.04821628 0.04874772 -0.061022338
0002e0 3b cb c5 bc 84 7e f3 bd 06 b4 f1 3d 66 ee 35 3e
       -0.02414476 -0.11889365 0.11801915 0.17766723
0002f0 f8 a0 1a be 0a 30 cc 3d a4 5a ad 3c 19 f7 e9 bd
       -0.15100467 0.099701 0.021161385 -0.11424083
000300 c1 19 8d bd 0b a6 cf bd be 00 10 bd 54 f9 37 be
       -0.06889678 -0.10139092 -0.035156958 -0.17966205
000310 63 1a b3 3d 1a aa 69 3e 66 93 3d be b9 d8 b1 3d
       0.08745267 0.22818795 -0.1851326 0.08683915
000320 82 ac 78 be 73 86 3b bb 45 63 36 bd 2c ba 87 3e
       -0.24284557 -0.0028614074 -0.044528265 0.26509225
000330 49 88 c7 3b 7d 80 3b 3d 79 0e a8 3e aa d4 e4 bd
       0.0060892445 0.045776833 0.32823542 -0.11173375
000340 ef 07 e2 bc 45 ab 46 3e 19 ab 46 3e de 62 45 3c
       -0.027591674 0.19401272 0.19401206 0.012047498
000350 98 49 0b 3e a5 02 06 bc 15 da d9 3c 1f 95 cc bd
       0.13602293 -0.008179341 0.026593247 -0.0998938
000360 3a 4f ed bc 1d 8e ce 3d a4 85 ba 3d 1b 30 5c bd
       -0.028968442 0.100857 0.09107521 -0.053756814
000370 5f e6 cb 3c fd a5 c8 3d 9c 85 dd bc cb 0d 06 bd
       0.024890123 0.09797285 -0.027041249 -0.032727998
000380 bf 88 c0 3c 1d 3d e3 3d 0b fd a9 3d a2 ea c2 bc
       0.023502706 0.11095641 0.08300217 -0.023793522
000390 4b 14 c4 3c 48 a7 c2 3d 63 3c 76 bb bb ff bb bd
       0.023935458 0.095045626 -0.0037572614 -0.09179636
0003a0 7a 7f 01 3e 32 a1 90 bd 3a 2c b4 39 a2 9d 81 bc
       0.12646285 -0.070619956 0.00034365227 -0.015822235
0003b0 50 04 c6 be 34 34 07 be 71 1f 2c 3e bd 62 eb 3d
       -0.38675165 -0.13203508 0.16808869 0.11493442
0003c0 76 1c 34 be 7a be d1 3c 75 7c aa bd 41 16 35 3e
       -0.17588982 0.025603522 -0.083245195 0.1768427
0003d0 a0 09 23 bd 8c 43 e6 3d e3 23 c2 3c 08 e0 e0 3c
       -0.0398041 0.11243352 0.023698753 0.027450576
0003e0 f3 13 53 bd 5e f3 ac 3d 7c 03 c0 3d 26 e7 1a bc
       -0.051532697 0.08444856 0.093756646 -0.009454524
0003f0 1e bd 28 3e 2d b9 1c 3d 2d c6 88 3c c4 85 0d 3d
       0.16478392 0.038262535 0.01669606 0.034551397

fc1.bias f4 [256]
000000 c9 54 89 3c da 14 53 3d 06 d6 c3 3c d4 5a 78 3d
       0.016764062 0.051533557 0.023905765 0.060633495
000010 7a e8 9c 3c fe 96 02 bc 9b 82 1e 3d 0c 12 87 bc
       0.019153822 -0.00797057 0.038698774 -0.016488098
000020 ca 42 6d 3d 69 bb 48 3d b1 bb 40 bd 98 a5 40 bb
       0.057925023 0.049006853 -0.047053996 -0.0029395577
000030 a1 2b 2a 3c 99 7a 1a 3d 75 95 81 bd 5b 17 69 bd
       0.0103863785 0.037714574 -0.06327335 -0.05690704
000040 ea 43 c1 3c b4 c8 53 bb 1c 02 4c 3d 14 b2 5d 3c
       0.023591954 -0.0032315673 0.0498067 0.013531227
000050 26 6d b2 3d c0 08 1b bd da c4 db bc f4 91 88 bc
       0.08712225 -0.03785014 -0.026827265 -0.016671158
000060 88 94 0e 3d 31 e4 08 bd 93 3d 1f 3d 8e 63 b3 bc
       0.03480962 -0.033420745 0.03887708 -0.021898057
000070 e7 ec ee bc c3 80 7d 3c e2 07 f6 bb aa 5d 5d 3d
       -0.029165698 0.015472594 -0.007508264 0.054044403
000080 95 e6 aa 3b 2d 5f 1e 3d 36 85 23 bd 8b 58 91 3d
       0.005215476 0.038664985 -0.03992196 0.07096966
000090 00 0c 9a 3d 8c 5a 72 3d 30 11 47 bd b9 55 0b bd
       0.0752182 0.059168383 -0.048600376 -0.0340173
0000a0 14 41 8e 3b df fd 11 bd 9d f2 26 3d fd 67 ac bc
       0.004341254 -0.0356425 0.040758718 -0.02104568
0000b0 d6 33 ed bc a6 78 91 3b f0 fe 54 bd c3 11 bf bc
       -0.028955381 0.0044394312 -0.05200094 -0.0233239
0000c0 a7 7d 63 bc ff f9 a5 3b 33 4e d8 bb 70 4a cb 3b
       -0.013884938 0.0050652022 -0.006601119 0.006203942
0000d0 8c 09 4b ba c0 9c 13 bd 0f df 3c 3d ce 24 99 3c
       -0.0007745258 -0.03603816 0.046111163 0.018694308
0000e0 6f 2a 5d 3d 25 51 f0 bb e1 63 61 bc df c2 4d bc
       0.053995546 -0.007333892 -0.013756723 -0.012558668
0000f0 79 7e c2 bb 56 d7 1b 3d ce 5d 92 3c 83 0a dd 3a
       -0.005935487 0.038047157 0.017866995 0.0016864095
000100 7f c7 2c 3d 00 0c 8f 3a 51 de 90 ba 27 7f 37 3b
       0.04218244 0.001091361 -0.0011052584 0.0027999373
000110 0c 0b fc bc 2a 0a bf bb 01 ee a4 3d ae 24 74 3b
       -0.030766986 -0.005830069 0.08053208 0.0037253308
000120 46 75 25 bd 00 34 dd 3d 1a 56 26 3e 33 35 23 bd
       -0.040395044 0.10800934 0.16243783 -0.039845657
000130 55 46 64 bd e9 31 6f 3d 62 57 46 bc 36 12 19 3d
       -0.055731136 0.058397207 -0.012105795 0.037370883
000140 56 e0 c0 bc 52 e7 0c bc 21 b1 9f bb 9d 49 16 3c
       -0.023544472 -0.008600073 -0.0048734103 0.009172824
000150 a0 63 5f 3d 12 74 d9 3c aa b7 90 3d 66 ec 78 bd
       0.05453837 0.026544604 0.07066281 -0.060772322
000160 ee 6e 01 3c fc 7d c6 bc 49 4f 5c 37 cd 35 bd bc
       0.007899983 -0.024229996 1.3131482e-05 -0.023096943
000170 67 78 6c 3c 22 c8 8a bc 9a 35 f2 3c 56 38 7f bd
       0.014433003 -0.016941134 0.029566575 -0.062309586
000180 8e a9 44 bd 25 dd 7d 3c a7 7c 1e bc a9 04 04 3d
       -0.048013262 0.0154946195 -0.009673274 0.032231007
000190 02 d6 02 3d 4f b0 02 3d 68 ef 6a 3d 3d 0c c5 bc
       0.031942375 0.031906422 0.05735722 -0.024053687
0001a0 7b 7d 93 3d f2 a3 1d bd c9 6a 19 bd 10 32 6a 3d
       0.07201668 -0.03848643 -0.037455354 0.05717665
0001b0 8e ab dd 3b 9a 86 1e 3b c0 65 a5 3c fb 72 e9 3b
       0.0067648357 0.0024189116 0.02019012 0.0071243024
0001c0 df dd 78 bc 6f 71 43 bd 7d aa c1 3d 68 06 cf 3b
       -0.015189617 -0.0477156 0.09456346 0.0063179024
0001d0 75 e2 8c 3d 35 b8 1d 3d 68 21 9a bc de 0a 45 bc
       0.06879131 0.03850575 -0.018814757 -0.012026517
0001e0 f3 cc ab bb 72 57 04 b9 5f 7f 27 bc 5f 6f 8f 3d
       -0.0052429377 -0.00012621077 -0.010223239 0.07003664
0001f0 2d bf 8c 3d ee ee 3b bc e9 69 42 bb 36 0e c6 bc
       0.068724014 -0.0114705395 -0.0029665178 -0.024176698
000200 08 d5 7e bc 7f 33 51 bb 55 c1 c1 3c 76 48 f3 3b
       -0.01555372 -0.0031921563 0.023651758 0.0074244095
000210 8b 16 81 bc 14 0e 0f 3d db 67 99 bc 76 41 5f bc
       -0.01575782 0.034925535 -0.01872628 -0.013626447
000220 ad b3 45 bd 89 c5 5d 3c 05 65 8a bc fc 04 1d bd
       -0.048267055 0.013535866 -0.016893873 -0.03833483
000230 b2 da 92 bc 93 70 81 bc 1c 26 26 3c ac a4 08 bd
       -0.017926548 -0.01580075 0.010140922 -0.03336017
000240 ad a6 9d 3a 70 59 2a 3d 84 ca c5 ba 20 3b fc bc
       0.0012027823 0.0415892 -0.0015090262 -0.030789912
000250 83 bf c3 3c 07 5f db bc 4b 8e ce 3d 88 6e 34 bc
       0.02389503 -0.026778711 0.10085734 -0.011012681
000260 12 76 a6 bc 95 94 ca bc c6 f4 00 3d ca 02 c8 bc
       -0.020319972 -0.024729053 0.031483434 -0.024415392
000270 e9 11 a9 bc bf 31 f3 bb 1a 02 03 bd 42 b8 d9 bc
       -0.020638423 -0.0074217017 -0.031984426 -0.026577119
000280 d4 67 1b bd b2 84 b5 3b 8e a5 0c bc ea e0 aa bc
       -0.037940815 0.0055395 -0.008584393 -0.0208592
000290 f6 62 ba bc 77 14 40 bc 3d e0 79 3b 5f 49 ac bd
       -0.022752266 -0.011723629 0.0038128041 -0.08412432
0002a0 88 3c d1 3c d1 ba 4c 3d 57 3e 74 b9 12 d0 ae 3c
       0.025541559 0.04998285 -0.00023292877 0.02133945
0002b0 92 e9 b0 3c 9a 1d 87 bc 4a 6f 30 3d c4 51 20 bd
       0.02159575 -0.016493607 0.043074884 -0.039140478
0002c0 87 39 51 3c d4 b3 4b bd a5 62 75 bb 5c 5c f2 3d
       0.012770063 -0.049732044 -0.003744283 0.118340224
0002d0 ce 29 19 3d b3 2e 3c 3b ef 3c af 3d a7 32 23 bd
       0.037393384 0.0028714358 0.08556544 -0.039843228
0002e0 87 87 a1 3d 5f 0e a5 3d ad f7 c6 bc 3c 35 23 bd
       0.07887178 0.08059382 -0.024288023 -0.03984569
0002f0 6d 2f a4 bc 48 a4 1b 3c 21 c9 5a bd e9 84 84 bb
       -0.020042146 0.009499617 -0.053414468 -0.0040441644
000300 19 be ad 3d 4e c3 0d 3c bb c9 c5 3c e7 31 29 3d
       0.08483524 0.008652521 0.024144044 0.041307356
000310 e9 56 1d 3d 5a 59 2a bc 26 e3 0b bd 06 3f 1a ba
       0.038412962 -0.01039728 -0.034152173 -0.0005884025
000320 76 f8 2b bd c5 79 b3 3d 38 fb 25 bd 3b 84 b3 bc
       -0.041984998 0.0876346 -0.040522784 -0.021913638
000330 f1 48 00 bd 51 48 a4 bc d0 31 df 3c b1 e9 18 bb
       -0.031319562 -0.020054014 0.027245432 -0.002333265
000340 9b 5b 61 3d fd ed bc bc 2a bd 07 3d fe 5f 27 bb
       0.055019002 -0.0230627 0.033139385 -0.0025539394
000350 f0 e4 5b 3d 30 8f 15 bd ed 23 9e bc c8 2c a5 3c
       0.05368513 -0.036513507 -0.01930424 0.020162955
000360 e5 30 d4 3c 2d fd 45 bc 5f 54 93 3d 22 69 5b bd
       0.025902221 -0.012084288 0.07193827 -0.05356706
000370 73 e4 9f 3c 8c 94 08 bd 05 1c df 3c 9c 90 82 3d
       0.019518113 -0.03334479 0.02723504 0.06375238
000380 71 27 00 3e fa 95 60 bc 51 48 13 bb eb 0c 71 3d
       0.12515046 -0.013707632 -0.0022473524 0.05885021
000390 1c 2a bc 3d af 9d 52 3c 3b 3b 3f bb 36 2c 36 3c
       0.09187719 0.0128549775 -0.0029179591 0.011118939
0003a0 9f 70 df 3b 15 21 21 3c 0a 16 fc 3b e0 30 79 bc
       0.0068188454 0.0098345475 0.007693057 -0.015209407
0003b0 89 e2 86 3d 0c 61 12 bd 1f fb 5c bd be 8e fc bc
       0.06586177 -0.035737082 -0.053950425 -0.030829784
0003c0 b0 2b 18 bc 51 80 99 bd b5 e8 9f 3b 7c 7b 63 bd
       -0.00928776 -0.074951775 0.0048800358 -0.055537686
0003d0 e7 f8 fe 3b 98 b4 0d 3c 50 93 82 3d 7e 78 a5 3c
       0.0077811363 0.008649014 0.06375754 0.020199057
0003e0 a3 7d f7 3c 03 8c 8b bc 27 e9 36 3d d1 a0 6e 3d
       0.030211275 -0.017034536 0.044655945 0.058258835
0003f0 94 d3 4f bd 88 37 eb bc 12 41 99 3d 74 8e 3f bc
       -0.050738886 -0.028713003 0.07483114 -0.011691678

fc2.weight f4 [256, 256]
000000 10 44 41 3e b8 b9 de bc 69 07 4c be 20 33 d6 39
       0.1887362 -0.027188167 -0.19924702 0.00040855352
000010 67 a0 85 be e7 0c fc bd 6e 80 ee 3d 56 ab 32 3d
       -0.2609894 -0.123071484 0.1164559 0.04362043
000020 65 73 b5 3c 12 f6 40 bf 2e 17 a0 bd a7 3f a2 3d
       0.022149751 -0.75375473 -0.07816921 0.07922297
000030 f9 f2 01 3d 0e c0 23 bc b2 ea c8 3e c7 18 99 3d
       0.031725857 -0.00999452 0.39241558 0.07475429
000040 e2 5e 18 3d e2 d2 3b bd 43 83 f3 3c 03 37 86 3b
       0.037199862 -0.04585541 0.029725676 0.0040959134
000050 b1 2d 4e bf 7e 00 1a 3e 56 d1 3e 3e f7 3c 0f bf
       -0.8053847 0.1503925 0.18634543 -0.559524
000060 88 ad 8c be 79 fa b8 3e 22 23 08 3e 9b c0 f1 3c
       -0.27476144 0.36128595 0.13294652 0.029510787
000070 e1 5b 57 3d a2 93 b3 be 3d 8c 1c bd 75 77 2b 3d
       0.052577857 -0.35073572 -0.03821968 0.04186197
000080 cc 12 12 bf dc 2e c1 3d d5 2b c3 3d a2 28 9c bc
       -0.5705993 0.09432766 0.09529845 -0.019062344
000090 ed c5 11 bf a1 8c 2e be c4 f0 ac 3d 46 d6 d9 3d
       -0.56942636 -0.17045833 0.0844436 0.106365725
0000a0 2c 64 6a 3c 12 1e 3c 3e 19 b9 7f bd 1d 9a 02 3e
       0.014306109 0.18370846 -0.062432382 0.12754102
0000b0 fb 17 ed 3c 69 de b0 be 97 6c 47 3e 07 95 c7 3d
       0.028942099 -0.34544685 0.19475017 0.097452216
0000c0 f4 dd c1 3d 26 55 84 bb 03 9d b3 3e fd 4b 6d 3e
       0.09466162 -0.004038471 0.35080728 0.23173518
0000d0 a6 85 52 be 93 4f d2 3d 75 f6 0c be cb a4 69 3e
       -0.20558795 0.10269084 -0.13765891 0.2281677
0000e0 26 07 fb 3d c3 98 9c 3c 00 2a 03 3d cb 35 8c 3d
       0.12257223 0.019115811 0.032022476 0.06846198
0000f0 c5 f2 be bd 8f 1b 96 be 11 c7 2c be 35 9f 0c 3e
       -0.09323648 -0.293179 -0.16872813 0.13732608
000100 b8 c6 fe bd f0 46 98 be bb fe b2 bd e6 9a 06 3e
       -0.12440246 -0.2974162 -0.08739992 0.13145027
000110 48 56 3e bb 44 36 40 bd 8c 88 60 be 62 6c 2e bd
       -0.0029043127 -0.04692675 -0.21927088 -0.04258383
000120 71 0a ef 3d 15 ef 38 3e 7c a5 0f 3d 83 f8 50 3d
       0.116719134 0.18059953 0.035069928 0.05101825
000130 74 71 d2 3d 73 17 48 3d de 60 26 3d 95 d6 98 3e
       0.10275546 0.048850488 0.040619723 0.29851213
000140 d8 1c 3d 3c d8 ee 34 3b f2 9a 40 3e 1a f0 81 3e
       0.011542521 0.0027608182 0.18809107 0.25378495
000150 c6 da 61 3d 30 10 4a be 09 69 93 bb 61 64 c4 3d
       0.05514028 -0.19732738 -0.004498605 0.09589458
000160 75 08 3a bd 2e a3 5c 3d 83 c0 c1 3d 41 03 98 3c
       -0.04541822 0.053866558 0.09460547 0.01855624
000170 fb b7 85 3d 2c 4d bd bc 23 a1 30 3d c7 3b 9b 3d
       0.06529232 -0.023108087 0.043122422 0.07579761
000180 57 56 87 be f3 0a 8f be b0 aa 9e 3d ee cb d1 3d
       -0.2643306 -0.2793804 0.077474 0.102439746
000190 52 79 81 be 08 3a fa bc 08 4c 39 be fb e0 7e 3d
       -0.25287873 -0.03054525 -0.1809541 0.062226277
0001a0 37 99 9d be 0e d8 a8 3d 48 83 32 3e c3 83 ee 3d
       -0.30780956 0.08244334 0.17432892 0.11646225
0001b0 9e 6e f8 bd ee 31 42 be 6a 43 8d bd b9 fa 76 3e
       -0.121304736 -0.18964359 -0.06897624 0.2411908
0001c0 d2 44 8a 3d 9a 8a 48 3d 63 0b 19 be 33 cb 9c 3d
       0.06751408 0.048960306 -0.1494575 0.07655945
0001d0 fc c7 f8 3d 95 a1 2e 3d 75 04 4e 3e 43 d0 02 3d
       0.12147519 0.042634565 0.20118888 0.031936895
0001e0 73 76 f8 3d f2 67 96 3d 72 e8 11 3e e3 db 57 be
       0.121319674 0.07344045 0.14248827 -0.21079974
0001f0 20 9d b3 be 7e ad 25 bf f1 ff 0f 3d 77 74 18 bd
       -0.35080814 -0.64717853 0.035156194 -0.037220445
000200 e4 43 d1 3c 85 82 7e be 7e 35 25 be c0 c7 b8 bc
       0.025545068 -0.24854477 -0.16133687 -0.022556186
000210 5c ad 1f 3e 05 45 77 ba 9b 53 f5 3e 38 9f 2d ba
       0.15593475 -0.0009432587 0.47915348 -0.0006623152
000220 85 2f 90 3e 37 89 9e 3d 6d 8c b2 3b 0e 45 76 3d
       0.28161255 0.077410154 0.005448869 0.06012445
000230 b9 ab bf bc b2 68 2a 3e 95 f2 91 bc 14 82 86 3e
       -0.023397313 0.166415 -0.017815867 0.26271117
000240 27 91 07 bc 76 bc b4 bd fc b9 92 3c 94 43 c6 bd
       -0.008274353 -0.088250086 0.01791095 -0.09680858
000250 bc 08 86 3e 7e 1a c6 bb 9f 18 c2 3d b9 51 1d 3e
       0.2617854 -0.0060456386 0.09477352 0.15363206
000260 fe ec a2 3d 9f 9e 9a 3c 32 93 25 3d d2 92 1e 3d
       0.07955359 0.018874465 0.04042358 0.038714238
000270 05 a6 bd 3c ea ca 9e 3d 3f f8 ab 3d 9b e6 fc 3c
       0.023150453 0.077535465 0.083969586 0.03087168
000280 45 f3 6a 39 e1 70 4a be fd 8a 54 3d 50 f6 69 bc
       0.00022406604 -0.19769622 0.051890362 -0.014279917
000290 8d cf 61 3c 11 3b bf bc b6 07 f1 3c 16 ee 05 3e
       0.013782394 -0.023343595 0.029422622 0.13079104
0002a0 05 d9 2b bf 35 19 d1 bd a1 c2 da 3d 5a ca fb be
       -0.6712802 -0.10209886 0.10681654 -0.4917782
0002b0 c2 cf c7 3d 5c 43 77 3c 4d 70 02 3e e8 68 30 3e
       0.097564235 0.015091743 0.12738152 0.17227519
0002c0 05 95 11 bf b4 d5 4b 3e b8 1e 93 bd 9d 03 3f bd
       -0.5686801 0.1990574 -0.071835935 -0.046634305
0002d0 86 76 85 bc 49 74 2c 3e 34 97 59 bd 33 f1 9c bb
       -0.016291868 0.16841234 -0.053122714 -0.0047894954
0002e0 b3 75 97 be 00 4e 3e 3e 0a 52 6e bc c5 6f 5a 3d
       -0.29581985 0.18584442 -0.014545927 0.053329248
0002f0 3d 00 40 3e ff cb 2e be 6e 31 66 bd 49 69 df bc
       0.18750091 -0.17070006 -0.056199484 -0.027271884
000300 8c 74 83 3d 06 3d 1d be 3b e5 4a be 8d ac 82 bd
       0.06418714 -0.1535531 -0.19814007 -0.06380568
000310 b7 9e 03 be ec c5 19 3d da 5b 99 3d 27 6c c9 3d
       -0.12853514 0.03754227 0.074882224 0.098350815
000320 02 1a 7f 3e 47 52 62 be 5b 90 d7 3c ff da 87 3d
       0.24912265 -0.22101699 0.026313951 0.06633567
000330 00 1e 30 3d fb 6e a9 bd ef 62 85 bd 80 74 c0 3d
       0.04299736 -0.08273121 -0.06513011 0.093972206
000340 58 8b b1 3c 0b 25 19 3d 8a ac c0 bd 4f 6c 7e 3d
       0.02167289 0.037388843 -0.09407909 0.06211501
000350 47 38 e3 3d ae be 5a 3e ef 6d 92 bd 0f 4a 9f 3d
       0.110947184 0.21361801 -0.071498744 0.077777974
000360 c3 05 c2 bd 09 2b 0c 3e ba d5 89 be 87 d2 ba 3d
       -0.09473755 0.13688292 -0.26920873 0.09122186
000370 89 42 79 be 0b 08 04 3e 47 69 4d bd 0d d7 36 be
       -0.24341787 0.12893693 -0.05014923 -0.17855473
000380 30 c2 f0 3d 08 c4 a7 3e 96 c6 82 3d 93 8a 14 bc
       0.11755788 0.32766747 0.063855335 -0.009066242
000390 44 6a 35 3e 03 78 84 3e 7c a4 11 3e 61 21 4c bd
       0.17716318 0.25872812 0.14222902 -0.04983652
0003a0 28 3e c5 3d 36 65 6d bd f3 16 28 bd 88 32 26 3d
       0.09630996 -0.05795785 -0.04103751 0.040575534
0003b0 1a df 98 be ca 0a 20 3e ac 08 cf 3d f3 df 87 3c
       -0.29857713 0.15629116 0.10109076 0.01658628
0003c0 7f 7d e5 3d 07 d9 4e 3e fa 52 ed 3c 0c e5 83 3c
       0.11205577 0.20199977 0.02897023 0.016100429
0003d0 e5 94 46 3e 7e 1e 8d 3d 65 e3 53 bf 00 24 32 be
       0.19392736 0.068905815 -0.8276885 -0.17396545
0003e0 4e e7 18 be 10 20 9d bc 51 91 82 bd 7d 5f 5c 3c
       -0.14931986 -0.019180328 -0.06375373 0.013450501
0003f0 8a b2 13 3e e6 23 ae bc 33 d8 ab bd 1f a3 76 bd
       0.14423576 -0.021257352 -0.08390846 -0.06021416

fc2.bias f4 [256]
000000 0a 8f 29 bd f0 de 27 bd 63 a0 a5 bb c3 fc 0c 3e
       -0.04139618 -0.040984094 -0.00505452 0.13768296
000010 e9 a5 41 3c 96 15 fb bc f8 db af 3c 4f 2d 7c bd
       0.011819341 -0.030649941 0.021467194 -0.061566647
000020 e3 fd 35 be 03 8d 63 3c 7b fc 84 bc 8a 28 e1 3d
       -0.17772631 0.0138886 -0.016233673 0.1099406
000030 b7 dd e4 3c 8c 37 4b 3b 2d 75 88 3d dc 8f e5 3d
       0.027937753 0.003100845 0.066629745 0.112090796
000040 4e ce 6e 3d 4c b6 59 3c 7f 04 54 3b 2c 69 9c 3d
       0.058302216 0.013288092 0.0032351313 0.076372474
000050 1f 59 4f 3d 29 a9 16 3e 14 cc 73 3d ae b1 a2 bb
       0.050622102 0.14712967 0.059520796 -0.0049650287
000060 c8 47 18 bd 93 9d 96 bc 8b a0 65 3d e7 8e be 3d
       -0.03717783 -0.018385684 0.05606131 0.093046
000070 71 bd 8d bc 6f d8 a6 3d 89 fc d9 3c 6a 5e 85 3c
       -0.017302247 0.0814675 0.026609676 0.016280372
000080 77 64 a5 bb 7c 1f 30 3d 2a 8a 0a 3e 0f 96 c2 3d
       -0.0050473767 0.042998776 0.13529268 0.09501278
000090 7f 20 a9 3c d2 6b 7a bd 92 6b 67 bd 1c 6b 35 3e
       0.020645378 -0.06113798 -0.05649907 0.1771664
0000a0 be d4 b8 bb b6 52 a5 3d ce a3 e0 3d 95 f4 11 3e
       -0.005640595 0.080724165 0.10968743 0.14253457
0000b0 a9 b6 1f 3e ec 9f 0e 3c ba 48 6f bd 69 85 01 3e
       0.15597023 0.0087051205 -0.058418967 0.12648548
0000c0 20 d1 cf 3b 67 f3 11 3b a8 4b 89 bc 8b 99 8b bc
       0.0063420683 0.0022270323 -0.016759709 -0.017040988
0000d0 a0 a5 0d 3e 93 8e 28 3d 9a c2 9b 3c 44 2d 24 3d
       0.13832712 0.041151594 0.019013692 0.04008223
0000e0 c4 9b 35 3c b6 ce e2 bd 0f 7a 86 3d fb ec 93 bc
       0.011084501 -0.11074583 0.065662496 -0.018057337
0000f0 4b 8c 94 bc ce 5f 06 3c 3e 03 ac bc d0 8c a4 3d
       -0.018133303 0.008201553 -0.02099764 0.0803467
000100 8e 2c 8e bd aa 76 96 bd 77 c8 8d 3d 21 e3 f6 3c
       -0.06942092 -0.07346852 0.06923001 0.0301376
000110 32 9b 1d 3d 29 ed 76 3d a4 35 1a be 98 86 93 bc
       0.038478084 0.060284767 -0.15059525 -0.018008515
000120 79 6f 78 3d 60 87 be bd 02 6c d9 bc ce 64 d1 3d
       0.060653184 -0.093031645 -0.02654076 0.10224305
000130 ff db bd 3d d8 ba b2 bb 26 de bd 3d 4e d9 11 3d
       0.092704765 -0.0054544024 0.09270887 0.03560763
000140 ba 2e 87 3d af 62 0f bb 71 03 62 3d 8b b9 27 bb
       0.06600709 -0.0021878888 0.055179063 -0.002559277
000150 49 43 a2 3d e5 a9 9e 3b 6e 2c 6b bd 3e 72 ab bc
       0.0792299 0.0048420304 -0.05741542 -0.020928498
000160 e5 fd e7 3a ad 6a 74 3d 3b 13 41 3e 67 e3 2c 3c
       0.0017699568 0.059672046 0.18854992 0.010552264
000170 ff e8 3d 3c 66 17 99 bc 65 a9 99 3c f3 31 f2 3d
       0.011591195 -0.018687915 0.018757531 0.11825933
000180 e6 1b a9 3d 25 b3 ac bd 29 24 c1 bc 07 af 92 3d
       0.08257274 -0.084326066 -0.023576813 0.0716229
000190 cd a0 0e 3e 88 bf a9 3d b3 9e 04 3d 61 63 ca 3d
       0.13928528 0.08288485 0.03237791 0.09882236
0001a0 84 2c b7 bd a3 3f 57 bd 13 a0 92 3a 3c 05 ef 3b
       -0.089440376 -0.052550923 0.0011186622 0.007294325
0001b0 70 78 d1 bc d1 4e a0 bd af 6e cf bd 14 88 df 3c
       -0.025570124 -0.07827533 -0.10128533 0.027286567
0001c0 f6 73 28 bd e1 7a 0b 3d e0 76 5a 3c 45 fe 47 3d
       -0.041126214 0.034052733 0.013334006 0.048826475
0001d0 5b 15 a0 3d e2 af 75 bd bf bc c7 3b 29 24 0c 3e
       0.07816573 -0.059982188 0.0060954983 0.13685669
0001e0 38 f7 7c 3d 09 a1 e6 3b b2 ed e9 3b 0e ff f6 bc
       0.061759204 0.00703824 0.007138931 -0.030150916
0001f0 38 81 94 bd ab fb bc bd 5b da c4 bb 32 c5 15 3e
       -0.07251209 -0.09227689 -0.0060074753 0.14626005
000200 e2 88 a1 3c 22 3a ad 3d f6 a2 06 3d 0c 42 db bd
       0.019718591 0.084583536 0.032870255 -0.10705957
000210 1f 4f 1a bd 50 cf 0c 3d 98 d6 d7 3d 5f a8 22 3d
       -0.037673112 0.034377396 0.105389774 0.039711352
000220 aa d3 34 3d b1 b8 23 3d 6a 73 4a bd 08 bf 8f 3d
       0.04414717 0.039971057 -0.049426474 0.07018858
000230 18 12 9a bd de 37 86 3d 6e 6f e4 bc aa 3a 7e 3d
       -0.07522982 0.065536246 -0.027885165 0.062067665
000240 84 80 38 be 1e 38 d2 3c e8 61 ac bc 1f b2 5c 3d
       -0.18017775 0.025661524 -0.02104278 0.053880807
000250 6e 9b c8 3d 55 72 c6 3c f5 a5 6e bc 9d 88 02 bd
       0.09795271 0.02422444 -0.014565934 -0.031868566
000260 97 93 1e be ba c8 24 bd a6 b1 f3 bc a4 54 45 3c
       -0.15485989 -0.04023049 -0.029747795 0.012044106
000270 70 30 98 3d 56 15 07 3e 0b e2 fb 3c 24 a1 d2 bc
       0.07431114 0.13191733 0.030747434 -0.025711603
000280 60 98 9b 3c c6 16 85 3d 47 ba b5 3d 77 c7 ac bb
       0.018993556 0.06498484 0.0887342 -0.0052728015
000290 60 b0 ed 3d 35 32 b0 3b 58 e9 80 bb 79 66 c7 ba
       0.116059065 0.005377079 -0.0039340667 -0.0015213034
0002a0 3f 0e 80 3d fd 92 81 3d c7 59 a2 3d a3 64 77 3c
       0.06252717 0.06326864 0.0792728 0.015099677
0002b0 2e a2 87 3d b5 59 cd 3c f8 2b f9 bd c8 51 83 3d
       0.0662273 0.02506719 -0.121665895 0.06412083
0002c0 c3 b7 2a 3d 9d 95 2b 3d 4e 5f 79 bb 3c 70 06 3d
       0.041679155 0.04189073 -0.003805119 0.03282188
0002d0 21 61 88 3d e0 2d 08 bc 12 db 69 3c fe 3c e2 3d
       0.06659151 -0.008311719 0.014273422 0.110467896
0002e0 a8 eb b1 3c 21 43 0f bd 40 58 1a bd d8 21 59 bd
       0.021718815 -0.03497613 -0.037681818 -0.05301079
0002f0 2c c4 45 bd 65 be 47 bd 81 8b 83 3c 47 d5 80 3d
       -0.048282787 -0.04876556 0.016057732 0.062906794
000300 73 4f c1 3c 91 24 86 b8 1d 35 5c bd 5a 2f 00 3c
       0.023597455 -6.396429e-05 -0.05376159 0.0078237895
000310 d3 c5 56 bc cd ab bb bc b8 9c ba 3d 01 2f 89 bd
       -0.013108688 -0.02290907 0.09111923 -0.066984184
000320 71 38 9c bd 02 f3 a2 3c 17 ef 0d 3c d0 9b 4d 3b
       -0.07627953 0.019891266 0.0086629605 0.003137339
000330 0b 4b 75 bc c2 fb 36 3d 6d 96 a0 bd 33 3a 50 bb
       -0.014971505 0.04467369 -0.078411914 -0.003177297
000340 30 16 8e bd 2a 96 9f 3d 8c 7c ae 3d 2a bb 96 3c
       -0.06937826 0.077923134 0.08519849 0.018399794
000350 ce 66 f0 bc 4a 70 b6 bc 14 46 8d 3d e1 31 39 bd
       -0.029345896 -0.02227034 0.06898132 -0.045213584
000360 20 11 3d bd ae 5d 1b bc 91 09 93 3d 71 b4 14 bc
       -0.04615891 -0.009482784 0.07179559 -0.009076224
000370 38 40 94 bd db 06 13 bd d1 f8 22 3d 98 5c 63 bc
       -0.07238811 -0.03589521 0.03978807 -0.013877057
000380 d3 86 52 be fa d4 54 3d 03 cf 87 3b 36 23 a0 3d
       -0.20559244 0.051960923 0.0041445508 0.07819216
000390 e3 74 ae 3d f0 2d 6e 3b 65 9e 18 3d 47 b0 03 bc
       0.08518388 0.00363433 0.03726043 -0.008037633
0003a0 f9 e9 4f bd bd b4 cf 3d c2 41 98 3c a1 38 49 3a
       -0.050760243 0.10141895 0.018586043 0.000767598
0003b0 a0 5c 75 bc c4 c4 e2 3d 5c 35 c1 3d 00 a5 63 3d
       -0.014975697 0.11072686 0.094340056 0.055577278
0003c0 99 ef 7d 3d 1c 17 dc 3d de b3 a3 3d b9 52 b8 3c
       0.061996076 0.10746595 0.07993291 0.022500383
0003d0 03 b3 8e 3c 4a 37 9e 3d c4 18 33 bc bb 4a 93 3d
       0.017419344 0.07725389 -0.010931198 0.07191988
0003e0 8d 77 2b 3d 2c d0 cf 3d 71 e8 37 3d 61 62 24 3d
       0.04186206 0.101471275 0.044899408 0.040132884
0003f0 d6 a8 98 bd d8 44 a4 bc 38 7c 42 3d 7e 16 41 3d
       -0.07454078 -0.020052359 0.047481745 0.04714059

fc3.weight f4 [128, 256]
000000 8d 4b 1a be b9 7d 94 be e3 ac e1 bc db 5f b7 bd
       -0.15067883 -0.2900217 -0.02754826 -0.0895383
000010 12 86 95 3c cb 68 51 bd a1 1d 9f 3e fb 62 8f 3d
       0.018252406 -0.05112533 0.31077293 0.07001301
000020 2b 56 80 bd 77 34 dc bc f1 3d 68 3d a9 ad 71 bd
       -0.06266435 -0.026880486 0.056699697 -0.059003506
000030 06 ec 0a bd 8b 69 98 3d d6 3f 0f be 8f 68 18 3d
       -0.033916496 0.07442006 -0.13989195 0.03720909
000040 b4 cc b8 be 68 ae c6 3c a5 08 ad 3d d6 0d 82 bd
       -0.36093676 0.024253085 0.084489144 -0.06350295
000050 11 15 ae 3d 21 7c 22 3e 1e 0d 38 3d ee 1d a7 bd
       0.08500112 0.15867664 0.044934385 -0.081600055
000060 f6 cf 82 bd 53 f3 ce bd 07 95 4e bc e3 27 b4 bc
       -0.06387322 -0.10105004 -0.012608773 -0.021991676
000070 1b 00 24 bd ad ca fe bd 7b 9e a8 bc 8c da e8 bd
       -0.040039163 -0.12441001 -0.020583382 -0.113698095
000080 37 fb 9e bc df 37 b4 3d 3e 44 96 3d a4 00 85 be
       -0.019406898 0.08799719 0.07337235 -0.2597705
000090 37 0f ab 3d e6 0d 89 bf 5e e7 7f be 79 7c 5e bd
       0.083525114 -1.0707366 -0.24990603 -0.054317925
0000a0 32 07 81 bd d2 ea bf bc 9b bc fe bd 92 26 26 be
       -0.063002005 -0.0234274 -0.124383174 -0.16225651
0000b0 f2 f4 49 3d 24 12 43 bd c7 69 71 3e c7 c0 76 bc
       0.049305864 -0.047624722 0.23575507 -0.01506061
0000c0 72 8e f4 3c a8 7c ae 3d 79 64 a8 be 53 48 c9 bd
       0.02985308 0.0851987 -0.32889155 -0.09828248
0000d0 85 65 8a bc 9b 81 b1 3c 33 8a eb 3d 6d 9e 3a 3e
       -0.016894111 0.021668246 0.11500969 0.18224497
0000e0 45 db 15 bd 82 ae d5 3d 41 c0 bb bc 95 7c a8 bd
       -0.036586065 0.10433675 -0.022918822 -0.08226887
0000f0 ae 43 06 3c 1d a2 11 be e3 5f 5f 3d 70 1c 2a be
       0.008194847 -0.14221998 0.054534804 -0.1661241
000100 b1 82 4c be 48 78 81 be 3d 4e 27 3d 8e 92 5a bd
       -0.1997173 -0.2528708 0.0408461 -0.05336242
000110 90 e3 8f bc cc f3 6b bd 4b 54 8e bc 64 5c 41 bf
       -0.017564565 -0.05760555 -0.017374178 -0.755316
000120 fc 05 3b 3e 90 d8 27 be 48 a4 08 be 80 9a 11 3d
       0.18264002 -0.16391206 -0.13343918 0.035547733
000130 75 52 c0 be e9 9d 47 be 19 f6 c1 3d 3b 12 b4 bd
       -0.3756291 -0.19493832 0.094707675 -0.0879254
000140 54 aa a6 bd a2 2c 08 bd 01 2d f3 3c 73 5b 94 bd
       -0.08137956 -0.03324569 0.029684545 -0.07244005
000150 05 f6 0a be 57 7c 65 be 01 77 f3 bd 3b 0f 6d 3e
       -0.13570412 -0.22410713 -0.118879326 0.23150341
000160 f2 9c 30 3d 4e d8 14 bd 9d cc 8e 3d 4f 2c 4b bc
       0.043118425 -0.036339097 0.06972621 -0.012400701
000170 a8 8b 35 3e 51 fb a0 3d 67 4d 57 bc a7 d3 e7 bd
       0.17729056 0.07860435 -0.013141013 -0.11319666
000180 8d 3f 52 bd e8 32 ee 3d 40 ce 15 bd 63 3d a6 3d
       -0.051330138 0.11630803 -0.03657365 0.08117177
000190 9f 38 1d be 6a 2c ad 3d be 9a 1a bd 39 af ed 3c
       -0.1535363 0.08455737 -0.03774523 0.029014217
0001a0 11 3f ad bc ea ef dd bc cb d7 50 3d 39 14 2b bf
       -0.021148236 -0.027091939 0.050987046 -0.6682773
0001b0 a2 c4 90 3d fb 8f 9d be d0 5d 46 3d 66 69 e1 3d
       0.07068755 -0.3077391 0.04842931 0.11006431
0001c0 2d bb 9a be 5d c5 87 3e 87 a3 39 3e 87 57 62 3d
       -0.3022093 0.26517764 0.18128787 0.055259254
0001d0 8c 5e d1 3d 8e 93 74 be 11 c5 11 3e d7 b5 64 3d
       0.102231115 -0.23884413 0.14235331 0.05583748
0001e0 bb 6e 9d 3c 59 40 96 be 6a 7d bc be db 51 b3 3c
       0.01921784 -0.29345968 -0.36814433 0.021889618
0001f0 19 5c 6e bd 35 35 93 be 4d 02 16 3c a2 cd f9 3d
       -0.0581933 -0.2875153 0.009155822 0.121974245
000200 ac 6d 17 3e d7 b2 e1 bd 52 01 03 3e 8c 14 2a 3e
       0.1478793 -0.11020439 0.12793472 0.166094
000210 75 8a 0d be b0 e6 68 3d ed 0b 71 3d 78 85 97 bc
       -0.13822348 0.056860626 0.058849264 -0.01849626
000220 e4 cd 1a bf dc a3 c4 bc 48 39 44 3e e5 73 08 3e
       -0.60470414 -0.024003915 0.19162476 0.1332546
000230 ed 24 56 be cb ac 0f 3e 28 a1 c0 3c 5c 57 5e bc
       -0.20912524 0.14030759 0.023514345 -0.013570633
000240 8f d3 73 be 20 bf 0a 3d 0f 03 0a bc 87 40 77 3d
       -0.23811172 0.033873677 -0.008423581 0.060364272
000250 8a 8d 85 be e5 a3 c8 3c c2 78 cd bd 4f 1d a2 3d
       -0.26084548 0.024492214 -0.10032798 0.079157464
000260 6f 81 50 be 98 a8 19 3e 83 ed 19 bd f3 94 b8 3e
       -0.20361875 0.1500572 -0.037580024 0.3605114
000270 f1 10 16 3c ad 09 d9 bb aa 23 e6 bc 10 73 0b bc
       0.009159313 -0.006623468 -0.028093178 -0.00851132
000280 c0 b5 73 bd 45 11 00 be f3 ee e6 bd 03 d6 9e 3b
       -0.059499502 -0.12506588 -0.11276045 0.0048472895
000290 be 33 d3 3d 61 74 2c be 45 df 39 bd 2b 92 9f be
       0.103126034 -0.1684127 -0.045378942 -0.31166205
0002a0 b2 48 e8 bd 8a fe 2d bd 7e 9e 9c bd a9 01 ca 3d
       -0.113419905 -0.042479075 -0.076474175 0.09863598
0002b0 20 23 98 bc 19 43 26 be c3 62 d4 be fc 68 b8 bd
       -0.018571436 -0.16236533 -0.414816 -0.09004399
0002c0 8c b9 9b 3c 7f 04 f4 3d 06 d3 68 3d eb e6 ae bc
       0.019009374 0.1191492 0.056841873 -0.021350345
0002d0 b3 c6 92 3e 0d 65 a2 ba 2e bd 05 bd 39 a8 1c be
       0.2866722 -0.0012389735 -0.03265112 -0.15298547
0002e0 12 14 0f 3d 54 3e 90 bd 79 94 d3 3d 99 e3 82 3e
       0.03493125 -0.07043138 0.10331053 0.25564268
0002f0 ca 5f a5 be e5 d2 c0 be 0a 4d f8 3d e3 ee 39 bd
       -0.32299644 -0.376609 0.12124069 -0.045393836
000300 17 33 56 bd 9f d5 37 3e 9b 4c aa 3d f7 7f 54 be
       -0.052294817 0.17952584 0.083153926 -0.2075194
000310 04 ee c1 3d 87 47 cf 3d 73 17 d8 bd 10 49 50 bf
       0.09469226 0.10121065 -0.105513476 -0.81361485
000320 32 3f 84 be 77 bf 59 3d 1e 75 d5 bd 68 e9 82 be
       -0.25829464 0.05316111 -0.10422729 -0.255687
000330 e0 81 ad 3c 2f 9f 19 be 16 26 c2 bd a2 03 a3 bd
       0.021180093 -0.1500213 -0.094799206 -0.07959677
000340 2d bd 68 be ee 2c 86 3d e7 97 87 3d 2d 96 4b 3d
       -0.22728415 0.065515384 0.0662077 0.049703766
000350 62 13 0a be a0 25 89 3b 80 4f b2 3c 76 51 63 3d
       -0.13483956 0.0041853935 0.021766424 0.05549761
000360 aa c3 0a bf 02 8d c1 3d 19 0c 9c 3d e0 13 a1 be
       -0.5420481 0.09450723 0.07619495 -0.31460476
000370 0e ec 40 3d a8 77 65 be a8 f9 65 3d c2 a0 49 3e
       0.04710012 -0.22408926 0.056146294 0.1969023
000380 69 9f c2 3d 05 4f e7 3d 5e 90 36 3e 6d 71 5a be
       0.09503061 0.11294369 0.17828509 -0.21332331
000390 81 a9 f7 3d 34 94 7c bd 7a d4 f3 bd 59 22 e8 3d
       0.12092877 -0.061664775 -0.11905761 0.11334676
0003a0 ff 58 25 ba f5 7b bb bc 7e 13 9b be 7e 85 8f be
       -0.0006307512 -0.022886256 -0.3028831 -0.28031534
0003b0 cc af a1 3d b5 bb e5 3d 20 14 e9 3d 01 9a e9 3b
       0.07894859 0.11217443 0.11380792 0.0071289544
0003c0 87 8a a7 bd f0 f1 5a 3d e6 69 e1 be 01 ef 14 3d
       -0.08180719 0.053453386 -0.44026107 0.036360744
0003d0 c3 ee 0a bf e7 99 35 bd db d7 83 3d 1b da 8b bc
       -0.5427057 -0.044336226 0.064376555 -0.017071774
0003e0 61 bd 53 3d c9 63 df 3d 3e ef 93 bd dc 8f 83 bd
       0.051694278 0.109077044 -0.07223366 -0.064239234
0003f0 e9 40 1c bf 37 4a 03 3e c4 b2 4e bd 61 31 f3 bc
       -0.61036545 0.1282128 -0.050463453 -0.029686632

fc3.bias f4 [128]
000000 6d fa 14 3d b8 0a 58 3b 1f 38 9d bd d1 06 a9 3c
       0.036371637 0.0032965373 -0.0767672 0.020633133
000010 ac 49 2c bd 23 e9 d7 bc a8 cd 37 3d ca bb 89 3c
       -0.042062446 -0.026356285 0.044873863 0.016813178
000020 19 13 84 3b 24 44 5c bc 4e 82 e2 bd 81 78 92 bc
       0.004030597 -0.01344398 -0.1106001 -0.017879726
000030 58 88 c7 3b 76 29 85 3c ee e7 58 3c 90 50 3f 3d
       0.0060892515 0.016255122 0.01323889 0.04670769
000040 c1 40 b3 3c 16 a0 01 bd 90 6d 7b bd a1 fb 94 bd
       0.021881463 -0.03164681 -0.061383784 -0.07274557
000050 07 10 5c bc 34 dc 4a be 76 71 81 3c bb f1 f7 3d
       -0.013431556 -0.19810563 0.015801173 0.12106653
000060 74 76 85 3d 0d 3e 07 3d 99 9e dd 3d 4e 8d b7 bb
       0.06516734 0.03301816 0.10821266 -0.0056015616
000070 5b 91 09 3d 5d bc e8 3d 8a 78 7b bd d8 b2 ef ba
       0.033585887 0.113640524 -0.061394252 -0.0018287553
000080 8c 7a 2d 3e 8d e7 f4 ba 89 d9 b8 3d d6 a6 31 3e
       0.16941279 -0.001868473 0.090258665 0.17348799
000090 36 40 52 3c 5f 1e 14 bd a2 56 ae 3d f0 99 14 3e
       0.012832692 -0.036161777 0.08512618 0.14511847
0000a0 68 be 9d 3d d3 2e a3 3d c2 cd 1d 3d e4 83 fe 3d
       0.07702333 0.079679154 0.038526304 0.124275
0000b0 9a a4 b3 3d 86 7a 08 be e4 d9 8f bd 80 75 1e be
       0.0877163 -0.13327989 -0.07023981 -0.1547451
0000c0 46 ff fa 3c a3 df 52 3d a5 ea 66 3d 29 fe f9 bc
       0.030639302 0.051482808 0.05637612 -0.0305167
0000d0 7f 36 a6 3d 1e f8 d0 3d e5 2e aa bd 0c b8 d7 3c
       0.08115863 0.102035746 -0.08309726 0.026332878
0000e0 c5 5a 13 3d 10 03 b4 3c 58 ae 66 3d 62 54 82 bd
       0.035975236 0.021974117 0.05631861 -0.06363751
0000f0 32 31 27 bd f0 c5 38 bb 07 a4 e8 3c 61 e1 4b be
       -0.0408184 -0.0028194152 0.028398527 -0.19910194
000100 54 20 40 bd 7c ed 07 3b 37 ae c9 3b fd 83 ca 3b
       -0.04690583 0.0020740917 0.006154801 0.006180285
000110 8f 85 e0 bd 7f 2d a9 bc 32 55 7e bd 64 46 95 3c
       -0.10962974 -0.020651577 -0.062092967 0.018222041
000120 b6 fd ce 3b b1 f8 10 3d be 47 08 be 8c 1d 0c be
       0.006316866 0.03539342 -0.13308617 -0.13683146
000130 8e 11 69 3b 0e f7 e6 3c 91 42 ac 3d b8 82 02 bd
       0.0035563442 0.028193977 0.08411134 -0.031862944
000140 00 96 0c be 43 0a ec 3b d4 de 03 3d 29 3e e8 3c
       -0.13729095 0.0072033717 0.032194927 0.028349953
000150 ec 0e db bc f5 70 1b 3d ba f8 1b 3c 3d 11 09 3d
       -0.026740514 0.03794952 0.00951975 0.033463705
000160 39 81 17 be 20 6e 85 bc b9 1c b5 3d de f2 0d be
       -0.14795388 -0.016287863 0.08843369 -0.13862178
000170 4c 66 20 bd 96 c1 4b 3d b3 6b 2b 3d 30 3d 0f 3c
       -0.039160058 0.049745165 0.041850757 0.008742616
000180 d7 38 0d 3d a6 4a 28 3b 39 e4 aa 3d 66 ac 15 bc
       0.034478035 0.002567926 0.08344311 -0.009135341
000190 7e 24 35 3c e6 64 2a 3d 15 26 b5 bd 53 ef 89 bc
       0.011056064 0.04160013 -0.08845154 -0.016837751
0001a0 da f5 c2 3d a6 99 82 bd 77 9e 03 bd 0d 8b 02 bd
       0.09519549 -0.06376962 -0.032133546 -0.03187089
0001b0 22 7d b4 3c 84 2a c6 3d 98 a8 b3 3c 3e d9 f3 3d
       0.022032324 0.09676078 0.021930978 0.1190667
0001c0 ca ee 8f bc 6c f2 62 bd a5 e1 ce bd 56 a5 56 bc
       -0.017569918 -0.055406973 -0.10101632 -0.013100943
0001d0 e6 d9 25 bc 01 9c fc bd bb bc 79 3d ac fd ed bc
       -0.010122752 -0.12334443 0.060971003 -0.029051624
0001e0 04 6f 7a bd f2 d5 ca 3c f9 04 51 bd 76 47 13 be
       -0.06114103 0.02476022 -0.051030133 -0.14382729
0001f0 31 b6 a7 3d 9f 31 93 3d c1 cb 3a bd 17 f3 f2 bc
       0.08189047 0.07187199 -0.04560447 -0.02965693

fc4.weight f4 [4, 128]
000000 42 c2 c9 be e2 e5 05 3f d0 e9 a7 be aa e7 11 3e
       -0.3940602 0.523039 -0.32795572 0.14248529
000010 91 c5 98 bc 6d 75 25 be f5 a7 68 3e 4f 6f 52 bd
       -0.018648895 -0.16158076 0.2272032 -0.051375683
000020 e9 0f 13 3d fd 30 2a be ab f4 60 be 8c f5 30 3e
       0.035903845 -0.1662025 -0.21968333 0.17281169
000030 5a 5d 1a bd 89 a7 96 3c 3b 07 42 bc 04 fc 00 be
       -0.037686683 0.018390434 -0.011842544 -0.12596136
000040 3d e6 69 3e 08 33 9b bc e6 cc 80 be e0 5f da bd
       0.22841735 -0.018945232 -0.25156325 -0.10662818
000050 5d 3a 33 bc a3 60 d5 bc 6d 91 97 bc db 46 2c 3e
       -0.010939208 -0.026047057 -0.018501962 0.16823904
000060 cc 73 97 3e 42 fd a6 3d 98 ec a6 3d 39 23 f2 bc
       0.29580534 0.08153774 0.081505954 -0.029557811
000070 00 2d 8a 3d 27 9d 1f 3e 8d 78 d0 3d 24 d8 d5 3d
       0.06746864 0.15587293 0.10179243 0.10441616
000080 2f ba 81 3d b1 c0 3b bd 6d 97 b8 3d ea 3d 8a 3d
       0.0633434 -0.04583806 0.09013257 0.067500904
000090 b1 42 88 3e 21 d7 a7 3b 38 3d 15 3d ef d7 2f 3e
       0.26613382 0.005122081 0.036435336 0.17172216
0000a0 1c b7 0c bb 20 b4 50 3d e8 da fd 3d 9d 9d 9c 3d
       -0.0021471446 0.05095303 0.12395269 0.0764725
0000b0 fe ed 87 3d 72 88 60 be f5 ad ac bd ba 54 c4 3d
       0.0663719 -0.2192705 -0.08431617 0.09586473
0000c0 8a 8f 34 3d 67 7e a3 3d 05 dc ae 3c ab 0f cf bd
       0.044082202 0.07983094 0.021345148 -0.1011041
0000d0 ef b8 b9 3d 7c 39 9f 3d 92 f8 33 be 2c 95 91 3d
       0.090684764 0.07774636 -0.17575291 0.071085304
0000e0 52 73 98 3d de 39 b8 3d 00 c5 6a 3a 51 11 06 3e
       0.074438706 0.08995412 0.0008955747 0.13092543
0000f0 58 37 8c 3d 49 7c a3 bd 76 06 c0 3d 72 ce a2 be
       0.068464935 -0.0798269 0.09376232 -0.3179813
000100 de 02 62 be 0c dd 74 bd ea 95 01 be 20 ff a2 bb
       -0.22071406 -0.05978112 -0.12654844 -0.004974261
000110 13 95 d2 be 4f 85 43 be 26 5c 33 be 77 8e 7e bc
       -0.4112936 -0.19093822 -0.1751562 -0.015536896
000120 47 bd 90 3e 77 ff 9c 3d 13 9a ba be 6b 05 0b be
       0.28269407 0.076659136 -0.36445674 -0.13576286
000130 c8 28 28 3e 4a 36 da 3d 50 02 57 bb 70 53 91 3c
       0.16421807 0.10654886 -0.0032807775 0.017739981
000140 53 29 94 bc 67 2d 8d be 33 5b 7b 3e cd 92 f9 3d
       -0.018086111 -0.27573702 0.24546508 0.12186203
000150 ca e2 a4 3d 13 c7 ca 3c 01 18 03 bb 44 c1 4d bd
       0.08051069 0.02475313 -0.002000332 -0.05023314
000160 30 7d 83 be e3 90 c1 3c 0d f0 a7 3c ed df 0e be
       -0.25681448 0.023628658 0.020500207 -0.13952608
000170 76 78 0c 3d 30 c1 db bd 2c f1 d8 bc e8 61 12 bb
       0.034294568 -0.10730207 -0.026482187 -0.0022336189
000180 bf f3 1c 3d 89 2e 12 bd 40 5b cc 3d d2 88 2b bd
       0.038318392 -0.03568891 0.09978342 -0.04187853
000190 a1 d6 9e bd 63 39 84 3c 81 f9 3d 3e f9 c2 1e be
       -0.07755781 0.016140645 0.1855221 -0.15504064
0001a0 b5 96 58 3d 78 7a b7 bd 3b 98 28 3b d8 70 ad be
       0.0528781 -0.08958906 0.0025725502 -0.33875155
0001b0 f1 74 84 3d cc ad fc 3d 5d bc c5 3c 80 4c 56 3d
       0.06467617 0.123378366 0.02413767 0.05231905
0001c0 91 c7 69 3b a1 f8 18 be c6 19 7f bd ed 72 98 3b
       0.003567193 -0.14938594 -0.06228044 0.004652372
0001d0 b6 94 63 3e b8 da 24 3e 95 5a 73 3e cb bd 1b bd
       0.22224697 0.1609906 0.23765023 -0.038022798
0001e0 27 4b e8 bd c3 2b 8f bd e9 3e d3 3d 83 4b 06 bd
       -0.11342459 -0.06990769 0.103147335 -0.032786857
0001f0 f5 1e bc bc e6 57 d6 3c 68 7c 03 3e 46 30 92 3d
       -0.02296398 0.02616496 0.12840426 0.07138114
000200 4b 3f 9e be a4 b2 5e 3e 81 45 7a 3d 8f 3b a1 3e
       -0.30907664 0.21747833 0.06110144 0.31490752
000210 e7 03 d1 bd fd 84 6d be 21 0e 35 3e 07 5b 18 3d
       -0.102058224 -0.23195262 0.17681171 0.037196185
000220 51 6c 0e 3d 4a 86 15 be bb 8f 2b be 33 8f 43 3e
       0.034771267 -0.14602008 -0.16754048 0.19097595
000230 c9 15 78 3c c4 7a 17 3d 1d 6b 46 3d 6d aa 85 3b
       0.015141913 0.036982313 0.048441995 0.004079154
000240 e5 56 26 3e 78 a7 d0 3b b1 2d 98 be 37 06 59 bd
       0.16244085 0.00636762 -0.2972236 -0.052984443
000250 c8 93 97 bb 59 6f 30 be 0a be 01 3d 68 fb 1a 3e
       -0.004625771 -0.17229976 0.031675376 0.15134966
000260 23 31 0c 3e 61 93 05 3d 9d db f9 3d e1 ee dc 3c
       0.13690619 0.032611255 0.12200091 0.026969375
000270 c2 4b 17 3d eb 9f 2a 3e da eb 01 3e 08 87 3a 3e
       0.036937483 0.16662566 0.12687626 0.18215573
000280 b2 e2 d7 3d 63 43 1f bc dc 9d 84 3d 56 e6 b3 3d
       0.105412856 -0.009720656 0.06475422 0.087841675
000290 18 46 2b bd bd 83 24 bd c5 d4 fd 3c 72 61 32 3e
       -0.041814893 -0.040164698 0.030985245 0.17419985
0002a0 84 ef 95 bd da 05 1c 3d 07 f3 34 bc 2b 0f 83 3d
       -0.073210746 0.038091518 -0.01104427 0.063993774
0002b0 b9 31 80 3d e8 28 c3 3d f2 ac dd bd 26 e6 59 be
       0.06259484 0.095292866 -0.10824002 -0.21279201
0002c0 77 ad cb 3c d1 70 37 3d df fb fc 3c a1 c1 77 bd
       0.024862988 0.044785324 0.03088182 -0.060487393
0002d0 74 8b 73 3d ed ad bf 3d 20 ca 12 3e cc 5b 50 3d
       0.059459165 0.093593456 0.14334917 0.050868794
0002e0 e1 f8 81 3c a9 87 7e 3e 19 51 2a 3d d9 7e f5 bd
       0.015865745 0.24856438 0.041581247 -0.11987085
0002f0 19 4b 2e 3d 53 43 88 3d 31 95 10 be 96 41 ba 3d
       0.042552087 0.06653466 -0.14119412 0.09094541
000300 8c a9 7e bd d1 c8 f0 bb 65 28 0c 3e 1f aa 8a 3d
       -0.06217341 -0.007348158 0.13687284 0.06770729
000310 5d 07 60 be 6d 0e 82 be 80 47 2a be a6 27 4f 3d
       -0.21877809 -0.2540163 -0.16628838 0.05057492
000320 4f fd 83 3e d2 9b 8c 3d 51 f0 45 3e ba 42 00 3e
       0.25779197 0.06865658 0.19329955 0.12525454
000330 1d a1 14 3e 15 32 0e 39 fc 34 99 3c cc 9d 8c bc
       0.14514585 0.00013560832 0.018702023 -0.017165087
000340 e0 01 38 bd 79 fb 90 be e4 f4 31 3e 71 36 3f 3d
       -0.044923663 -0.28316858 0.17378575 0.04668278
000350 eb 94 87 3e 15 20 77 3c 8a a3 41 3d d1 9f 1a 3d
       0.26480803 0.015083333 0.047275104 0.03775007
000360 ff 90 c6 be 2a 07 0c bd 74 97 07 3c 4b 5c 0b be
       -0.38782498 -0.03418652 0.008275855 -0.13609426
000370 de dc a5 bd a3 7d 47 bc 2d 09 1d 3d da e5 7d bd
       -0.08098768 -0.01217595 0.03833883 -0.06198678
000380 c2 d2 6c 3e 95 73 47 bd eb 81 3a 3d 59 b5 e2 3d
       0.23127273 -0.048694212 0.045534056 0.110697456
000390 11 6d be bd ce 65 ac 3c b6 53 0d be 7f fc aa 3c
       -0.092981465 0.021044638 -0.13801464 0.020872353
0003a0 ba 6c f8 3d 53 79 e6 bd 3d f4 6f bb 2c d1 b7 3d
       0.12130113 -0.112536095 -0.0036614083 0.08975443
0003b0 c2 2a d8 3c 8d 90 e4 3d ab 5d ba 3c 38 70 06 bb
       0.026387576 0.111603834 0.022749742 -0.0020513665
0003c0 dc 63 d4 3c 56 ed 16 be ee 64 33 be 73 e7 1a 3d
       0.025926523 -0.14738974 -0.1751897 0.037818383
0003d0 57 d4 87 3e 81 f9 e4 bd 1b 77 b3 bd 62 a1 99 bc
       0.2652919 -0.111804016 -0.08762952 -0.018753711
0003e0 e9 c8 b9 bd a4 e0 0c bb bb d0 11 bd 2f 20 9e bd
       -0.09071524 -0.00214962 -0.03559945 -0.07720982
0003f0 f7 af 71 3d f7 4b 37 3d 65 91 a3 3d 36 ad 94 bd
       0.059005704 0.04475018 0.07986716 -0.072596

fc4.bias f4 [4]
000000 26 52 17 3c 5d 86 eb 3c e2 29 81 3b 9c ee 4d 3c
       0.009235894 0.028750593 0.0039417604 0.012569096
