ai_model_ep200.pth (torch, 75342 bytes, 6 tensors)

fc1.weight f4 [128, 8]
-0.0056147277 -0.26231524 0.2551511 0.03814411 -0.016116831 -0.18708016 -0.084971875 0.27675
-0.14591238 0.008405123 -0.15513763 0.21007709 0.15553208 0.09653496 -0.0922683 0.09071753
-1.1560581 0.10726252 0.0020899582 0.009258978 0.021541655 0.32834324 -0.16839768 -0.16627604
-0.40342146 0.23266947 -0.0005791797 -0.07452989 -0.20632085 0.2676026 0.35177222 0.19510199
0.23145773 -0.5961792 0.22247577 -0.072831005 -0.57304597 -0.21293552 0.18254668 0.26141962
-0.43688914 0.06764909 -0.033763383 -0.23432371 -0.1447786 0.09344864 -0.33742386 0.10422909
-0.48985538 0.23243849 -0.09787998 0.10613127 0.1829696 -0.13613309 0.1796194 0.09245272
-0.5007937 0.24502432 -0.29307777 -0.13992618 0.09105389 0.013117928 0.15871319 0.16089095
-0.6148085 -0.17820714 0.072807804 0.094942205 0.21069834 0.46784422 0.13717431 0.15570223
-0.6712621 0.0854965 -0.17214994 -0.070399195 0.21314876 0.098468766 -0.20579296 0.3419511
-0.18147203 0.4075 -0.5283449 0.15667 0.0797836 -0.1521849 0.40637544 -0.4199852
-0.5122785 -0.18197395 0.017314777 0.19454685 0.42228746 0.29840562 0.31616792 0.3198171
0.3862822 -0.38110307 -0.03820319 -0.20742606 0.31665167 -0.8757865 0.26544645 0.075269654
-0.41951808 0.18672374 -0.08218048 0.016875694 -0.18980153 -0.07697452 -0.15839705 -0.05478166
-0.46798098 0.0008712 -0.040064454 -0.69543225 -0.08370577 -0.0546061 -0.25219864 0.17997395
-0.04912393 0.17861019 0.35344353 -0.015335016 -0.23189594 -0.2999159 0.07246769 0.19173509
-0.055509835 -0.21455447 -0.053415656 0.21236172 -0.25931987 0.060466975 0.07576755 -0.29301676
-0.11849406 0.0192736 0.027701974 0.032851785 0.2966798 -0.08412189 -0.030422078 -0.2716981
-0.24659847 -0.1119771 -0.0041487813 -0.27709284 -0.3330628 -0.2820281 0.10447723 -0.31040543
-0.5314804 0.17228666 0.041107215 0.10055917 -0.036648493 0.49531722 -0.2108414 -0.14961533
-0.41792125 -0.2071793 0.2105625 -0.20111768 0.43365133 0.107987866 0.090603806 0.1792811
-0.48594064 0.05540441 -0.23560588 0.17616579 0.016743219 -0.26378682 0.276226 0.32712364
-0.9661162 0.26530135 0.011398038 0.07166003 -0.013707292 0.1558491 -0.15511847 0.4890915
-0.003711301 -0.07471831 0.025884852 -0.3381056 0.13471669 -0.32162672 0.37521383 -0.17152305
-0.32032716 0.20183785 -0.17191036 -0.23568214 0.38492653 0.12781417 0.0005849411 0.23133962
-1.1802619 0.517281 -0.060445815 -0.051996857 -0.4016975 0.3976896 0.1704447 0.10867321
-0.07479671 0.24087116 -0.13786036 0.18226948 -0.11373204 -0.25232226 -0.15195371 -0.20063645
1.0311437 0.5010214 -0.017782893 0.24582504 0.19958042 0.005174887 0.22730838 -0.06390277
-0.5370124 0.25049976 -0.2282083 0.07683057 0.08464532 -0.34568924 -0.12108361 -0.30654398
-0.114082806 0.6518939 -0.008613799 0.65670043 -0.1828399 -0.3161887 -0.14621209 -0.17380482
0.05813178 -0.076257505 -0.14062962 0.09684366 0.06916192 0.35696977 0.08485857 -0.28952193
-0.07851223 -0.019429449 -0.076142035 -0.0005162898 0.38580748 -0.25862533 0.10448415 0.006169503
00000000: c0fb b7bb 2f4e 86be 2aa3 823e 003d 1c3d
00000010: 7207 84bc f191 3fbe bc05 aebd 2db2 8d3e
00000020: 0e6a 15be a4b5 093c 66dc 1ebe 731e 573e
00000030: cd43 1f3e 1fb4 c53d 2af7 bcbd 1dca b93d
00000040: b6f9 93bf 74ac db3d aef7 083b f8b2 173c
00000050: 2078 b03c 9b1c a83e 7170 2cbe 4444 2abe
00000060: 428d cebe e840 6e3e 17d4 17ba 21a3 98bd
00000070: c645 53be 3503 893e 7d1b b43e d1c8 473e
00000080: 4103 6d3e 339f 18bf b0d0 633e 6c28 95bd
00000090: 24b3 12bf c50b 5abe 84ed 3a3e cbd8 853e
000000a0: efaf dfbe 9b8b 8a3d 794b 0abd 8ef2 6fbe
000000b0: d740 14be 0062 bf3d d2c2 acbe 1076 d53d
000000c0: 53ce fabe 5b04 6e3e 4d75 c8bd 5a5b d93d
000000d0: 625c 3b3e 7966 0bbe 26ee 373e da57 bd3d
000000e0: 0434 00bf a8e7 7a3e 4a0e 96be cf48 0fbe
000000f0: 767a ba3d 94ec 563c b685 223e 99c0 243e
00000100: 1764 1dbf ef7b 36be 421c 953d 0f71 c23d
00000110: 4ec1 573e 4789 ef3e 6c77 0c3e 6870 1f3e
00000120: d5d7 2bbf ca18 af3d 1348 30be 742d 90bd
00000130: ab43 5a3e fea9 c93d 64bb 52be 3714 af3e
00000140: ced3 39be d7a3 d03e 9d41 07bf 1a6e 203e
00000150: 9665 a33d 5cd6 1bbe 7110 d03e 4d08 d7be
00000160: af24 03bf 6157 3abe b8d7 8d3c 4a37 473e
00000170: 1036 d83e 9fc8 983e c3e0 a13e 11bf a33e
00000180: c8c6 c53e f11f c3be f37a 1cbd 7f67 54be
00000190: 2b20 a23e 8b33 60bf 99e8 873e fa26 9a3d
000001a0: 13cb d6be 8234 3f3e 3d4e a8bd e53e 8a3c
000001b0: 555b 42be d1a4 9dbd d632 22be bc62 60bd
000001c0: 349b efbe 3e61 643a a01a 24bd d907 32bf
000001d0: ee6d abbd a5aa 5fbd 2e20 81be 174b 383e
000001e0: 2d36 49bd 97e5 363e 8df6 b43e b83f 7bbc
000001f0: 2176 6dbe 948e 99be f169 943d 3456 443e
00000200: 485e 63bd 2bb4 5bbe 60ca 5abd 5a75 593e
00000210: 93c5 84be 38ac 773d 042c 9b3d 4b06 96be
00000220: 04ad f2bd abe3 9d3c 40ef e23c 988f 063d
00000230: 6ae6 973e 1948 acbd b937 f9bc 031c 8bbe
00000240: 4f84 7cbe 4054 e5bd 80f2 87bb 1ddf 8dbe
00000250: 3587 aabe fd65 90be 28f8 d53d 76ed 9ebe
00000260: 190f 08bf ea6b 303e 0a60 283d f7f1 cd3d
00000270: bb1c 16bd 389a fd3e cfe6 57be c334 19be
00000280: c6f9 d5be cf26 54be b29d 573e cbf1 4dbe
00000290: 8c07 de3e be28 dd3d 7d8e b93d 7795 373e
000002a0: 36cd f8be bcef 623d ab42 71be ce64 343e
000002b0: 1329 893c 110f 87be 7f6d 8d3e c07c a73e
000002c0: 6453 77bf 94d5 873e d6be 3a3c 7ec2 923d
000002d0: 8d94 60bc e896 1f3e 60d7 1ebe 336a fa3e
000002e0: 4c39 73bb ea05 99bd 780c d43c 2d1c adbe
000002f0: 2cf3 093e 42ac a4be 071c c03e bda3 2fbe
00000300: ec01 a4be 95ae 4e3e 4509 30be a956 71be
00000310: 1715 c53e b8e1 023e bc56 193a 4be4 6c3e
00000320: d212 97bf 876c 043f 0896 77bd a8fa 54bd
00000330: 4bab cdbe f99d cb3e 0e89 2e3e 0f90 de3d
00000340: 042f 99bd eea6 763e 442b 0dbe daa4 3a3e
00000350: 58ec e8bd 6230 81be c199 1bbe a473 4dbe
00000360: 84fc 833f f042 003f 6ead 91bc 8fb9 7b3e
00000370: cf5e 4c3e 1992 a93b 87c3 683e 75df 82bd
00000380: a579 09bf 8141 803e 70af 69be 5959 9d3d
00000390: 875a ad3d 2efe b0be affa f7bd 55f3 9cbe
000003a0: 3fa4 e9bd 85e2 263f e420 0dbc 851d 283f
000003b0: 623a 3bbe 7ce3 a1be 9fb8 15be e4f9 31be
000003c0: 971b 6e3d e52c 9cbd 3601 10be f855 c63d
000003d0: c4a4 8d3d bec4 b63e 54ca ad3d 383c 94be
000003e0: 05cb a0bd 822a 9fbc 5bf0 9bbd 9f57 07ba
000003f0: 8f88 c53e 8a6a 84be c9fb d53d 8b29 ca3b

fc1.bias f4 [128]
0.59358853 0.20429067 -0.3249993 0.5718937 -0.32249922 0.5893219 0.23409054 0.33352095
0.054341838 0.22976686 -0.15767315 0.24795969 -0.3720265 0.52341014 -0.12524216 0.4854217
0.0075776577 0.38002077 -0.323801 0.14221238 0.4399591 0.46888006 -0.16414554 -0.24756396
0.5576914 0.10350568 -0.33664435 -0.25629288 0.03440734 -0.73984 0.1744751 0.3057748
0.06334793 -0.11279683 0.34643236 -0.26728743 0.1991702 0.32014903 -0.31092244 0.29549775
0.41501415 0.13939017 0.14035726 0.6055124 0.42394838 -0.2599154 -0.30517676 -0.09505494
0.2790775 0.17669095 0.5671539 0.23814848 0.39044002 0.049641818 0.4931816 0.4920199
-0.059992373 0.4878287 -0.14712024 -0.19261502 0.05295625 0.022384947 0.16112937 0.21814786
-0.24269584 0.57379115 0.50374705 0.035667542 -0.41288975 0.28227228 0.45713437 0.61407113
0.25757524 0.5959225 0.33999458 0.4685417 -0.30737892 0.33264488 -0.19277993 0.35724047
-0.24320814 0.013084049 0.37543377 -0.36050695 -0.10979513 0.19086237 0.22147198 0.032193474
0.059150044 0.53131366 0.3362223 -0.19103163 0.30532733 -0.13321503 0.5398024 0.47475573
0.48877528 0.16420095 0.5999106 -0.33485195 0.54545534 -0.3541298 -0.086605065 0.1410438
-0.22676091 0.19089943 -0.15410794 0.560026 0.35256287 -0.32067055 -0.120029345 0.14832921
-0.3478013 -0.21614665 0.37812093 -0.21585393 -0.43383536 -0.32605976 0.4469061 0.11129837
0.25501254 -0.3004276 0.22732715 -0.2748929 0.66288096 0.61893284 -0.19089451 0.45377445
00000000: 6bf5 173f 9331 513e 4f66 a6be a067 123f
00000010: 9e1e a5be cddd 163f 6eb5 6f3e 42c3 aa3e
00000020: 8c95 5e3d 0148 6b3e 1275 21be 25e9 7d3e
00000030: 427a bebe 35fe 053f 7b3f 00be 3189 f83e
00000040: 004e f83b 1592 c23e 3fc9 a5be 1fa0 113e
00000050: 5242 e13e 0c11 f03e c515 28be 6881 7dbe
00000060: ddc4 0e3f c9fa d33d a65c acbe d238 83be
00000070: b6ee 0c3d 2766 3dbf 9aa9 323e 848e 9c3e
00000080: 8fbc 813d 0602 e7bd 955f b13e e6d9 88be
00000090: 46f3 4b3e 93ea a33e 3a31 9fbe 7b4b 973e
000000a0: bc7c d43e 4cbc 0e3e d0b9 0f3e dc02 1b3f
000000b0: c30f d93e a213 85be 2140 9cbe 2aac c2bd
000000c0: 3fe3 8e3e 79ee 343e ff30 113f 32dd 733e
000000d0: c1e7 c73e 3855 4b3d 4c82 fc3e 08ea fb3e
000000e0: 90ba 75bd afc4 f93e b0a6 16be df3c 45be
000000f0: a7e8 583d a360 b73c 19ff 243e 2762 5f3e
00000100: 4285 78be fae3 123f 91f5 003f 2118 123d
00000110: 4966 d3be fe85 903e 840d ea3e c433 1d3f
00000120: e7e0 833e 618e 183f c513 ae3e b3e4 ef3e
00000130: c560 9dbe 6e50 aa3e 1a68 45be 39e8 b63e
00000140: 8e0b 79be 7b5e 563c db38 c03e 5e94 b8be
00000150: 45dc e0bd 6d71 433e 8dc9 623e 4edd 033d
00000160: 5147 723d 2c04 083f 5425 ac3e cc9d 43be
00000170: dd53 9c3e 8569 08be 7d30 0a3f 2f13 f33e
00000180: c140 fa3e 4b24 283e be93 193f b771 abbe
00000190: f6a2 0b3f 8050 b5be ff5d b1bd c96d 103e
000001a0: 0334 68be 247b 433e 79ce 1dbe dd5d 0f3f
000001b0: 1f83 b43e ee2e a4be f2d1 f5bd 9de3 173e
000001c0: 0313 b2be 8c55 5dbe 1199 c13e d008 5dbe
000001d0: ab1f debe 4ef1 a6be e0d0 e43e 66f0 e33d
000001e0: 0191 823e a5d1 99be 73c8 683e c3be 8cbe
000001f0: 91b2 293f 6272 1e3f da79 43be 2055 e83e

fc2.weight f4 [128, 128]
0.1453577 -0.0654735 -0.48196575 0.11361499 -0.37378138 0.16663106 0.024053095 0.046446286
-0.09881259 -0.037589096 -0.30410445 0.1331507 0.586507 0.12994312 -0.033903338 0.03158878
-0.028357673 0.03292018 -0.05885959 -0.2609384 0.060147006 0.12620237 -0.80431324 -0.06661791
0.0071897698 -0.9090125 -0.045490198 -0.39235348 0.068973914 -0.852016 -0.11499575 -0.023609346
0.08688923 0.065340094 0.099198446 -0.06230481 0.051946647 0.11555589 -0.49196875 0.23462875
0.11611076 -0.012491198 0.2838438 0.25149953 0.03828292 -0.06286741 -0.037740827 -0.039226096
0.08472935 0.11709358 0.16582179 0.042325675 0.090833694 0.032930836 0.051107157 0.05742365
-0.64428115 0.090439536 -0.403681 0.001793669 -0.10147054 0.101057164 0.14146537 0.2657329
0.016503938 0.27319625 0.14141576 -0.033284836 0.690117 0.14623876 0.14900617 0.1434368
0.12048179 0.14162923 0.17088486 0.23638174 -0.42676947 0.22772749 -0.084260054 -0.016489485
-0.36318675 0.5192745 0.113718264 -0.051085465 0.06306287 0.0036389248 0.08861112 -0.027278936
0.021291455 0.11394384 0.2564796 0.05108079 0.100725204 2.2359092 0.10362015 0.16914853
0.12767327 -0.15653965 0.2309284 -0.009647099 0.06096223 -0.14172037 -0.8226677 0.122747086
0.021820664 0.13794865 -0.027234206 0.18561804 -0.38527563 -0.25479516 -0.483442 0.09937529
0.13027416 0.027610116 0.044742007 -0.2597604 -0.27223513 -0.02509763 0.15310423 0.1276617
0.10985765 0.063811995 0.124613374 -0.041479062 1.2646022 1.2297561 -0.03991755 0.22191444
-0.0019213444 -0.07822687 0.042800535 -0.058784556 0.028186798 -0.037087742 -0.08186645 -0.034446772
-0.02873939 -0.10828257 0.05337939 -0.05566758 -0.07949262 -0.037602957 0.044297446 0.018367436
-0.007722661 -0.11328344 -0.02982957 0.03205573 0.04748633 -0.038217667 -0.08235027 -0.04894799
-0.01630207 -0.10256356 0.044452004 0.018118815 -0.039481167 0.031233298 -0.03564657 0.062227946
0.002418149 -0.07358119 -0.03403567 0.07213754 0.04873621 -0.0014824718 0.0066345064 0.018964954
-0.03049194 -0.065709524 -0.11251925 -0.03139249 -0.08955878 -0.054762296 -0.07057655 -0.08145999
-0.07657126 -0.10823321 -0.09765137 -0.113787085 0.0048659686 -0.0038846433 0.020981207 0.056521643
-0.008060763 0.03147958 0.051732272 -0.07492837 -0.003073622 0.031799383 -0.036690082 -0.019763002
-0.07226346 -0.017729383 -0.052562695 0.04246659 -0.034883033 -0.10028259 -0.0023169317 -0.027736565
-0.10974101 -0.041772306 0.0317675 -0.05223003 -0.06956132 0.04537759 0.027803957 -0.032783214
0.038290776 0.028748063 -0.06463881 -0.023385696 -0.09126779 -0.009370994 -0.07328305 -0.096720874
0.027441233 -0.06538476 0.060557086 0.06386625 -0.0031962385 0.023679994 0.030161874 0.008407214
-0.019804442 0.0033108224 0.06008225 -0.009612843 -0.085377246 -0.05026201 -0.021171847 -0.020795343
0.039644055 0.0021838269 0.050678544 0.028424049 -0.10887798 0.023782898 -0.06859529 -0.073688924
-0.051491145 -0.041483644 -0.028932827 -0.089537784 -0.0338615 -0.008271962 0.0017297615 0.04038239
-0.09405525 -0.030592352 0.017161565 -0.06985293 0.050386604 -0.0765628 0.036969595 -0.028184287
00000000: a6d8 143e f816 86bd 37c4 f6be faae e83d
00000010: 4660 bfbe 55a1 2a3e ff0a c53c 763e 3e3d
00000020: 415e cabd 06f7 19bd 94b3 9bbe a858 083e
00000030: 5325 163f cf0f 053e 3ade 0abd 3d63 013d
00000040: 5a4e e8bc 50d7 063d c116 71bd b899 85be
00000050: b55c 763d 323b 013e 79e7 4dbf f96e 88bd
00000060: 2998 eb3b 0bb5 68bf ee53 3abd 8ee2 c8be
00000070: 3242 8d3d b81d 5abf e482 ebbd 6368 c1bc
00000080: fbf2 b13d 07d1 853d 8e28 cb3d 5433 7fbd
00000090: 02c6 543d 91a8 ec3d 54e3 fbbe 8542 703e
000000a0: 7acb ed3d e2a7 4cbc f953 913e 8cc4 803e
000000b0: 8dce 1c3d a1c0 80bd 2096 1abd 8bab 20bd
000000c0: 9586 ad3d c2ce ef3d 30cd 293e b05d 2d3d
000000d0: 0407 ba3d 7ce2 063d bd55 513d 1035 6b3d
000000e0: 9cef 24bf 5d38 b93d 47af cebe 8b19 eb3a
000000f0: c9cf cfbd 0ff7 ce3d 4cdc 103e 250e 883e
00000100: 4433 873c 61e0 8b3e 4bcf 103e ae55 08bd
00000110: 82ab 303f 9dbf 153e 1395 183e 19e1 123e
00000120: 28bf f63d 4107 113e 71fc 2e3e 0e0e 723e
00000130: 8781 dabe 6531 693e 8990 acbd f514 87bc
00000140: 9df3 b9be 2cef 043f 1fe5 e83d fe3e 51bd
00000150: 1b27 813d 077b 6e3b bf79 b53d 1378 dfbc
00000160: 6b6b ae3c 635b e93d 4b51 833e 173a 513d
00000170: 0449 ce3d 2319 0f40 cd36 d43d 4635 2d3e
00000180: c8bc 023e ee4b 20be 7f78 6c3e de0e 1ebc
00000190: 88b3 793d 251f 11be 5a9a 52bf d362 fb3d
000001a0: 40c1 b23c 6942 0d3e 451a dfbc a812 3e3e
000001b0: d942 c5be 8374 82be b685 f7be 4685 cb3d
000001c0: 9766 053e 9c2e e23c 6543 373d 51ff 84be
000001d0: 6762 8bbe 8c99 cdbc 5bc7 1c3e c0b9 023e
000001e0: 0cfd e03d ddaf 823d 4c35 ff3d f3e5 29bd
000001f0: 7cde a13f a668 9d3f 9680 23bd 8a3d 633e
00000200: 9fd5 fbba 6935 a0bd 9d4f 2f3d 13c8 70bd
00000210: 00e8 e63c 51e9 17bd 99a9 a7bd 0f18 0dbd
00000220: df6e ebbc 41c3 ddbd 59a4 5a3d b003 64bd
00000230: 07cd a2bd 8f05 1abd 3d71 353d 4e77 963c
00000240: 600e fdbb 2601 e8bd 245d f4bc de4c 033d
00000250: 0781 423d 218a 1cbd 42a7 a8bd b07d 48bd
00000260: eb8b 85bc d80c d2bd 4e13 363d e96d 943c
00000270: 01b7 21bd f9dc ff3c 2302 12bd bbe2 7e3d
00000280: cf79 1e3b bcb1 96bd fd68 0bbd d9bc 933d
00000290: 9f9f 473d 804f c2ba 4666 d93b 645c 9b3c
000002a0: 3cca f9bc b792 86bd 7e70 e6bd 6995 00bd
000002b0: 986a b7bd 6e4e 60bd 708a 90bd 7fd4 a6bd
000002c0: 65d1 9cbd 60a9 ddbd 71fd c7bd 3409 e9bd
000002d0: b472 9f3b 8095 7ebb c8e0 ab3c 3d83 673d
000002e0: 4a11 04bc bbf0 003d 38e5 533d 0c74 99bd
000002f0: d26e 49bb 1240 023d 5748 16bd 05e6 a1bc
00000300: ddfe 93bd 363d 91bc fb4b 57bd 72f1 2d3d
00000310: 83e1 0ebd f560 cdbd aad7 17bb cb37 e3bc
00000320: e5bf e0bd 7019 2bbd a31e 023d 28ef 55bd
00000330: 2a76 8ebd dadd 393d 20c5 e33c b147 06bd
00000340: cad6 1c3d 0f81 eb3c 5a61 84bd 5c93 bfbc
00000350: 9bea babd cc88 19bc 6c15 96bd 9815 c6bd
00000360: 70cc e03c 72e8 85bd b50a 783d 4fcc 823d
00000370: fc77 51bb 8cfc c13c 0916 f73c 69be 093c
00000380: ed3c a2bc 62fa 583b ce18 763d 307f 1dbc
00000390: 44da aebd 8adf 4dbd 9570 adbc ff5a aabc
000003a0: ce61 223d 891e 0f3b 4e94 4f3d 8dd9 e83c
000003b0: 6bfb debd 5ad4 c23c b07b 8cbd 38ea 96bd
000003c0: 61e8 52bd c1ea 29bd 8904 edbc 965f b7bd
000003d0: 5bb2 0abd 2087 07bc 2ab9 e23a 0168 253d
000003e0: 0aa0 c0bd d09c fabc 6996 8c3c 0e0f 8fbd
000003f0: 2f62 4e3d f5cc 9cbd 6e6d 173d bce2 e6bc

fc2.bias f4 [128]
0.2315536 0.008861771 0.04457599 -0.033122294 -0.08148927 -0.07734493 0.20558691 -0.07551139
0.24675839 0.027018942 -0.08681943 -0.06443439 -0.09731923 -0.03977168 -0.063583754 -0.07681898
0.32727978 -0.042534966 0.011224793 0.40261254 -0.116145775 -0.066108756 0.27054164 -0.08060298
-0.08380758 -0.08023204 0.18905899 0.31449357 -0.0075709918 0.26909193 -0.03737188 -0.11885625
-0.067397796 -0.07417667 -0.103812225 0.008481157 -0.054512005 0.014853766 0.050879046 -0.016215755
-0.077071935 0.33515668 0.35034272 0.048356816 -0.0023681251 0.34486684 -0.08712729 0.40097946
0.020480251 -0.034173857 -0.03564073 0.05740368 0.073533826 0.3268164 0.17205049 0.20037565
0.3753285 0.33115786 -0.08433738 -0.03560455 -0.08333152 0.030607875 0.037075166 0.27016488
0.29481304 -0.11062654 0.06113642 -0.06891154 0.008696185 0.03600167 -0.0103781 0.30522686
0.31413656 0.35776976 0.2166067 0.06147466 0.27435136 0.26593626 -0.008383225 0.29172763
-0.10017489 0.031006224 0.35120618 0.15798084 0.19322668 0.3644716 0.19714333 -0.016274327
0.2747518 0.034331407 0.31346962 -0.042605523 -0.043410126 -0.094973914 0.010264798 0.35708648
0.03130859 0.256849 0.36752605 -0.11723136 0.02396749 -0.10663586 0.23949979 0.046884805
0.28810513 0.028491149 -0.038299512 0.33246648 0.021438261 0.002627045 -0.092906505 0.08820898
0.30257952 0.35639802 0.29660222 0.24914284 0.34088027 0.39345852 -0.026392028 0.04130709
0.25618714 0.05302962 0.30152357 0.31140605 0.35311544 0.26726595 0.3668032 -0.035152234
00000000: 631c 6d3e f630 113c 5095 363d 3eab 07bd
00000010: d9e3 a6bd 0567 9ebd 6085 523e b7a5 9abd
00000020: 3bae 7c3e d456 dd3c 63ce b1bd 2df6 83bd
00000030: 4e4f c7bd a1e7 22bd 3338 82bd 4553 9dbd
00000040: 3791 a73e 2539 2ebd 32e8 373c 3b23 ce3e
00000050: d6dd edbd 0764 87bd 6f84 8a3e 2d13 a5bd
00000060: 4fa3 abbd b250 a4bd ae98 413e 4d05 a13e
00000070: 1516 f8bb 6bc6 893e 4213 19bd e86a f3bd
00000080: db07 8abd f0e9 97bd 819b d4bd 8df4 0a3c
00000090: fb47 5fbd 365d 733c 8c66 503d e7d6 84bc
000000a0: e4d7 9dbd a899 ab3e 1f60 b33e cc11 463d
000000b0: 8c32 1bbb 6392 b03e cb6f b2bd 2e4d cd3e
000000c0: 33c6 a73c e3f9 0bbd 04fc 11bd 1f20 6b3d
000000d0: e798 963d 7b54 a73e 012e 303e 462f 4d3e
000000e0: 0f2b c03e 868d a93e 14b9 acbd 14d6 11bd
000000f0: b7a9 aabd 5ebd fa3c 21dc 173d 0d53 8a3e
00000100: bcf1 963e 2b90 e2bd 2f6a 7a3d 7e21 8dbd
00000110: 727a 0e3c 7d76 133d e808 2abc b246 9c3e
00000120: 82d6 a03e 992d b73e 26ce 5d3e dacc 7b3d
00000130: c877 8c3e cc28 883e cb59 09bc 535d 953e
00000140: 7e28 cdbd c400 fe3c 4cd1 b33e bbc5 213e
00000150: 37dd 453e 069c ba3e f1df 493e bd51 85bc
00000160: 45ac 8c3e 179f 0c3d 177f a03e 2183 2ebd
00000170: d1ce 31bd af81 c2bd af2d 283c 0ad4 b63e
00000180: 703d 003d b681 833e 602c bc3e ff16 f0bd
00000190: 7857 c43c e763 dabd 6f3f 753e 480a 403d
000001a0: 8482 933e 4566 e93c f3df 1cbd 0c39 aa3e
000001b0: 4b9f af3c 802a 2c3b c445 bebd e9a6 b43d
000001c0: b4eb 9a3e cd79 b63e 3fdc 973e 4d1f 7f3e
000001d0: dc87 ae3e 6573 c93e 1834 d8bc a031 293d
000001e0: f62a 833e 9635 593d 4c61 9a3e 9d70 9f3e
000001f0: 8ccb b43e 15d7 883e a1cd bb3e cafb 0fbd

fc3.weight f4 [4, 128]
0.29411122 -0.06451517 -0.015244444 -0.022651657 -0.051847972 -0.044990063 0.25989664 -0.051266618
0.5191342 -0.06707891 0.08734978 -0.07755945 -0.02957799 0.02192558 0.04111081 -0.0057820636
0.2569431 0.02714043 0.077477634 0.2670071 -0.02235005 -0.0080635175 0.3127169 0.0014330178
-0.075646974 -0.0151325995 0.2608369 0.282669 0.013143561 0.22301544 -0.07210259 -0.024589753
-0.024157695 -0.0051019266 0.045755316 -0.0693823 0.04803359 0.045114838 0.013230701 -0.014676453
-0.019960813 0.23676886 0.24228296 0.067052126 0.06867323 0.27115467 -0.07699857 0.2436694
0.08479195 0.031076059 -0.076160304 0.037093546 0.0775034 0.29101834 0.35600734 0.3700824
0.29464412 0.25546625 0.07643459 -0.017337278 0.011036315 0.058546945 -0.0212076 0.32805404
0.25051343 0.005864472 0.07441393 -0.06520571 -0.045158383 0.15047866 0.030472592 0.24273807
0.37257123 0.19490778 0.354656 -0.010352025 0.21871002 0.26581252 -0.080630004 0.2389564
0.027731288 0.06858587 0.25670385 -0.57441664 0.320434 0.32382727 0.30190995 -0.013395653
0.29414356 -0.040893607 0.2934415 -0.051015727 0.084493004 -0.040422276 -0.0457015 0.35120705
0.06962075 0.23942076 0.34620574 0.025250837 -0.002751972 0.052156232 0.26702246 0.055627752
0.24827051 0.045994975 -0.06857004 0.44087327 0.007398103 -0.077251375 -0.079005726 -0.67868507
0.24893594 0.33163348 0.2547901 0.35973418 0.27875948 0.2135406 0.038336866 -0.06267827
0.32738498 0.07139767 0.29691646 0.29541332 0.31763244 0.28514895 0.2847141 0.0022438804
0.23002312 0.023524435 0.053639207 0.044786554 0.06439694 0.03044825 0.33256906 -0.07147097
0.34029686 -0.042287122 -0.019412352 -0.07514214 -0.01627606 0.047244925 0.016166804 0.015663702
0.26821232 -0.05670968 0.007864974 0.32712474 0.02736266 -0.024099305 0.23915587 -0.05655445
-0.041901134 -0.04353449 0.18920234 0.265512 -0.012471666 0.31197074 -0.08160466 -0.031865884
0.019905284 -0.08487136 -0.014242713 -0.022118991 -0.038614254 0.015606038 0.090401776 0.05975659
-0.015093133 0.24068475 0.31633538 0.03154565 -0.008780886 0.29575798 -0.009632789 0.313946
0.054495435 -0.02735417 0.04778987 -0.0043331035 -0.093729496 0.30007535 0.3383734 0.337647
0.28217748 0.2836609 0.022680134 0.078802906 0.052336484 0.009261759 -0.030137526 0.30793476
0.29198277 0.0638231 0.013026739 -0.01949184 -0.014597649 -0.12208937 -0.02088292 0.3134691
0.2479948 0.29222742 0.28084064 0.11254817 0.26518074 0.309515 -0.044778194 0.28702393
-0.059233595 0.058004513 0.2651308 -0.7524819 0.40070862 0.27194172 0.27417988 0.011739002
0.34187976 0.003453874 0.34474248 -0.016336225 0.04964342 -0.03553031 -0.014983578 0.2898426
0.0005271295 0.2784334 0.27136865 0.06636646 0.01994511 0.003448366 0.25924534 -0.011354074
0.3027854 0.006096385 -0.02586065 0.5031094 -0.017484825 -0.007965967 -0.039583772 -0.6523188
0.20998071 0.26958835 0.2638181 0.2800205 0.30593336 0.3196414 -0.02015166 0.08505062
0.29179156 0.05224348 0.30909956 0.2853014 0.32105127 0.23881216 0.30450293 0.017052073
00000000: bf95 963e 8820 84bd d5c3 79bc f88f b9bc
00000010: 8a5e 54bd 8047 38bd 2c11 853e f2fc 51bd
00000020: fbe5 043f ab60 89bd 71e4 b23d 7dd7 9ebd
00000030: 8a4d f2bc 469d b33c cf63 283d 7777 bdbb
00000040: 0c8e 833e 9b55 de3c 98ac 9e3d 28b5 883e
00000050: 7417 b7bc d81c 04bc 6e1c a03e 19d4 bb3a
00000060: cdec 9abd b9ee 77bc 6a8c 853e feb9 903e
00000070: 1758 573c 295e 643e 86aa 93bd 7370 c9bc
00000080: 5ce6 c5bc 102e a7bb ed69 3b3d 4f18 8ebd
00000090: dfbe 443d 56ca 383d 95c5 583c 8175 70bc
000000a0: dc84 a3bc 8973 723e 0619 783e a052 893d
000000b0: 8da4 8c3d c9d4 8a3e 6db1 9dbd 7984 793e
000000c0: 67a7 ad3d 3893 fe3c eff9 9bbd 67ef 173d
000000d0: 1aba 9e3d 5b00 953e 9846 b63e 717b bd3e
000000e0: 98db 963e 79cc 823e bd89 9c3d e806 8ebc
000000f0: a9d1 343c ecce 6f3d 90bb adbc b3f6 a73e
00000100: 4c43 803e c22a c03b 5566 983d 928a 85bd
00000110: fff7 38bd 1417 1a3e a8a1 f93c 5490 783e
00000120: a8c1 be3e e895 473e 7995 b53e 8a9b 29bc
00000130: 85f5 5f3e 9418 883e 5821 a5bd fdb0 743e
00000140: ba2c e33c c076 8c3d b06e 833e f80c 13bf
00000150: ed0f a43e b0cc a53e f193 9a3e 7179 5bbc
00000160: fc99 963e 0e80 27bd f73d 963e def5 50bd
00000170: ab0a ad3d d491 25bd 7f31 3bbd 69d1 b33e
00000180: 5395 8e3d b72a 753e e141 b13e d8da ce3c
00000190: 6e5a 34bb c6a1 553d 2bb7 883e edd9 633d
000001a0: a03a 7e3e 3a65 3c3d 736e 8cbd 24ba e13e
000001b0: c96b f23b f835 9ebd c1cd a1bd 4ebe 2dbf
000001c0: 10e9 7e3e ddcb a93e d973 823e 142f b83e
000001d0: 90b9 8e3e 63aa 5a3e 1e07 1d3d 775d 80bd
000001e0: 019f a73e f138 923d 6f05 983e 6a40 973e
000001f0: b8a0 a23e 0bff 913e 0cc6 913e 110e 133b
00000200: 2e8b 6b3e 51b6 c03c c9b4 5b3d 1b72 373d
00000210: 8be2 833d 9c6e f93c 7e46 aa3e 5f5f 92bd
00000220: 643b ae3e 4335 2dbd a706 9fbc 1fe4 99bd
00000230: 5f55 85bc e583 413d 3f70 843c 2a51 803c
00000240: 2053 893e 6948 68bd 18dc 003c e57c a73e
00000250: a827 e03c e86b c5bc 47e5 743e a4a5 67bd
00000260: 86a0 2bbd 3951 32bd 42be 413e 30f1 873e
00000270: f555 4cbc a1ba 9f3e 5820 a7bd cd85 02bd
00000280: 6810 a33c 09d1 adbd 455a 69bc e332 b5bc
00000290: fb29 1ebd 78b0 7f3c 9124 b93d 53c3 743d
000002a0: 3049 77bc 1076 763e b6f6 a13e 0336 013d
000002b0: b5dd 0fbc 976d 973e d8d2 1dbc 88bd a03e
000002c0: 9b36 5f3d da15 e0bc 50bf 433d b5fc 8dbb
000002d0: 40f5 bfbd 7aa3 993e 473f ad3e 11e0 ac3e
000002e0: 9179 903e 003c 913e b0cb b93c 6b63 a13d
000002f0: c85e 563d a2be 173c f9e2 f6bc a0a9 9d3e
00000300: c47e 953e afb5 823d 1a6e 553c 5aad 9fbc
00000310: fa2a 6fbc fe09 fabd a812 abbc 067f a03e
00000320: 59f2 7d3e d59e 953e 58ca 8f3e a87f e63d
00000330: c5c5 873e c078 9e3e 5769 37bd cdf4 923e
00000340: ed9e 72bd 2496 6d3d 39bf 873e a7a2 40bf
00000350: ae29 cd3e f23b 8b3e 4e61 8c3e f154 403c
00000360: dd0a af3e 645a 623b 1682 b03e 8cd3 85bc
00000370: e656 4b3d 3b88 11bd ae7d 75bc 4066 943e
00000380: 102f 0a3a d38e 8e3e d5f0 8a3e 23eb 873d
00000390: ed63 a33c fbfd 613b cebb 843e 7006 3abc
000003a0: b006 9b3e 2fc4 c73b b7d9 d3bc c7cb 003f
000003b0: 563c 8fbc b083 02bc 9822 22bd 5dfe 26bf
000003c0: 2f05 573e 7c07 8a3e 2a13 873e d95e 8f3e
000003d0: 4ca3 9c3e 0aa8 a33e 1815 a5bc 052f ae3d
000003e0: b465 953e 42fd 553d 4c42 9e3e 0613 923e
000003f0: d560 a43e 2d8b 743e cfe7 9b3e cab0 8b3c

fc3.bias f4 [4]
0.24193545 0.39409238 0.3868983 0.21567966
00000000: edbd 773e 7ac6 c93e 8917 c63e 21db 5c3e
