checkpoint_level1_ep900.pth (torch, 227726 bytes, 18 tensors)

fc1.weight f4 [128, 10]
0	0x3e8a701f	0.27038667
1	0x3c22ddab	0.009940545
2	0xbf94109c	-1.1567569
3	0x3f165693	0.5872585
4	0x3c04c34e	0.008103205
5	0xbe808a6c	-0.25105608
6	0xbef54aa5	-0.47908512
7	0xbebe05e4	-0.3711387
8	0xbd31f2f0	-0.043444574
9	0xbee3fffc	-0.44531238
10	0xbf3e9063	-0.74439067
11	0x3ba34a32	0.00498321
12	0x3db8d377	0.09024709
13	0xbdbe4440	-0.092903614
14	0x3daf8dff	0.085720055
15	0x3e289fab	0.16467158
16	0x3e685f5a	0.22692624
17	0xbd9f57d9	-0.077804275
18	0x3d436110	0.047699988
19	0xbe029224	-0.1275106
20	0xbe259ac6	-0.16172323
21	0x3dac7ce6	0.0842226
22	0x3b302bec	0.0026881648
23	0xbd40818f	-0.046998557
24	0x3de5ff6c	0.112303585
25	0x3df51e78	0.11968702
26	0x3e6dd331	0.23225094
27	0xbe98b28b	-0.29823717
28	0xbe7b4199	-0.24536742
29	0xbe35705c	-0.17718643
30	0xbe4bacfd	-0.19890209
31	0xbde9a6c9	-0.11408765
32	0x3e256770	0.1615274
33	0x3e288013	0.16455106
34	0xbf06136a	-0.52373374
35	0xbe738e6a	-0.23784795
36	0x3e25821a	0.16162911
37	0xbe89b1b8	-0.268934
38	0x3e1825c6	0.1485816
39	0xbeb183bb	-0.34670815
40	0xbf80478b	-1.0021833
41	0x3ecc701a	0.39929277
42	0x3eb7f22e	0.35926956
43	0xbcd7ae24	-0.026328154
44	0xbdf53a8d	-0.11974058
45	0x3edd72c2	0.43251616
46	0x3f119111	0.5686198
47	0x3d6d633c	0.057955965
48	0x3dfe32f0	0.12412059
49	0x3d55f9d4	0.052240208
50	0xc006d92b	-2.107005
51	0xbdfa423e	-0.12219666
52	0x3d55985e	0.05214726
53	0x3b80d17a	0.0039312216
54	0xbe86d773	-0.2633625
55	0xbed1dc91	-0.4098859
56	0x3f2478f0	0.64247036
57	0x3cfe6175	0.03105233
58	0x3e3fe16e	0.18738338
59	0x3f0a72f8	0.5408168
60	0xbe9f599b	-0.3112305
61	0xbe1d3a39	-0.15354241
62	0xbe6fdede	-0.23424861
63	0xbdedea00	-0.116168976
64	0x3e2ac240	0.16675663
65	0x3e89338f	0.2679715
66	0xbd008310	-0.03137499
67	0xbcee6c70	-0.029104441
68	0xbd4c5158	-0.049882263
69	0xbe7c76f5	-0.24654754
70	0x3f5a10ee	0.8518208
71	0x3d5d8ba0	0.054088235
72	0xbed7294d	-0.42023697
73	0xbd91c94b	-0.07118472
74	0xbf5c3d70	-0.86031246
75	0xbea3bb08	-0.3197863
76	0xbf15f6b7	-0.5857958
77	0x3c7fef9c	0.015621092
78	0x3ded40a0	0.11584592
79	0xbe867883	-0.26263818
80	0xbe95e958	-0.2927959
81	0xbd9c2ce7	-0.07625752
82	0xbe17b5bf	-0.14815424
83	0xbe3b3d9c	-0.18285221
84	0xbeb0214a	-0.34400398
85	0xbc9fce0a	-0.019507427
86	0x3e0c2154	0.13684589
87	0xbe936b8f	-0.28792998
88	0x3dfc6328	0.123236
89	0xbeeb8bce	-0.460051
90	0x3ea39607	0.319504
91	0x3e04a92b	0.12955157
92	0xbe022255	-0.12708409
93	0x3e22e0d5	0.15906079
94	0xbefb3634	-0.4906479
95	0x3e247dd5	0.16063626
96	0xbe5c231e	-0.21497771
97	0x3dd39d5c	0.10332748
98	0xbe4a8838	-0.19778526
99	0xbec918aa	-0.3927663
100	0xbe576516	-0.21034655
101	0xbdfd5f90	-0.12371743
102	0xbe1d1b15	-0.15342362
103	0x3e7bf82d	0.2460639
104	0xbe7abf3d	-0.24487014
105	0xbe228bcc	-0.15873641
106	0x3e385126	0.17999706
107	0xbea3fc9c	-0.32028663
108	0xbd6151d8	-0.055009693
109	0xbe79f0ba	-0.24408236
110	0x3ece0b94	0.40243208
111	0xbe8a35fa	-0.26994306
112	0xbea7e15a	-0.32789117
113	0xbe19108a	-0.14947715
114	0xbedb1f3e	-0.42797273
115	0xbd2fbf3a	-0.042906977
116	0x3d11d73a	0.035605647
117	0xbe1cac39	-0.15300073
118	0x3e25948c	0.16169947
119	0xbeebb080	-0.46033096
120	0xbf31b345	-0.6941417
121	0x3da8846c	0.082283825
122	0x3eaa2abd	0.33235732
123	0xbecca52b	-0.39969763
124	0xbf4e1ec7	-0.8051571
125	0x3e79f7ac	0.24410886
126	0x3eec0cb1	0.46103433
127	0x3e243326	0.16035137
128	0xbc7d3500	-0.015454531
129	0x3e023b80	0.1271801
130	0x3e2e814a	0.17041507
131	0x3db62ec4	0.088956386
132	0xbcbd4d20	-0.023108065
133	0x3db4dea0	0.08831525
134	0xbe5c79c8	-0.21530831
135	0xbe234a42	-0.15946296
136	0xbe847ee6	-0.25878066
137	0xbe9964eb	-0.29959807
138	0x3e839c09	0.25704983
139	0xbe7e12e7	-0.24811898
140	0x3e9b1a51	0.30293515
141	0x3ed89bfa	0.423065
142	0xbfb80d56	-1.437907
143	0x3f4606e8	0.7735429
144	0x3ee21365	0.44155422
145	0x3dee3365	0.116308965
146	0xbdb7dd84	-0.089777976
147	0xbd38db1f	-0.045130845
148	0xbd654f38	-0.055983752
149	0xbe8442bb	-0.2583216
150	0xbf013080	-0.5046463
151	0x3e4af922	0.19821599
152	0x3f448b49	0.7677503
153	0x3e020fbc	0.12701315
154	0x3edea874	0.43487895
155	0xbf0e3ee1	-0.55564696
156	0x3bc7d597	0.00609846
157	0xbdcc9e3c	-0.09991118
158	0xbdff2b96	-0.12459485
159	0x3e0f5d29	0.14000382
160	0xbe158226	-0.14600429
161	0xbe007836	-0.12545857
162	0xbf5626eb	-0.83653134
163	0x3e823684	0.25432217
164	0xbf22069c	-0.63291335
165	0xbbca011e	-0.006164684
166	0xbeccfffa	-0.40039045
167	0xbebef376	-0.3729512
168	0xbe4ec436	-0.20192036
169	0xbed132b3	-0.40858993
170	0xbe1a2078	-0.15051448
171	0xbe6d310c	-0.23163241
172	0xbe249742	-0.16073325
173	0x3d8e7c6d	0.06957326
174	0xbebdff89	-0.3710902
175	0xbdc5ebd8	-0.09664124
176	0x3e4b8f85	0.19878967
177	0x3e0d258e	0.13783857
178	0x3df1a3c0	0.11798811
179	0x3d8468f2	0.06465329
180	0xbec828eb	-0.39093718
181	0xbe8fcbad	-0.2808508
182	0x3ddfc4f8	0.10926241
183	0x3dc4f73c	0.09617469
184	0x3e3c01de	0.18360087
185	0xbe7cc9ec	-0.24686402
186	0x3d6fcc01	0.058544163
187	0xbe91e48a	-0.28494674
188	0xbe97e67b	-0.2966803
189	0x3e48ebb2	0.1962116
190	0xbe974b19	-0.29549482
191	0xbdd22cfb	-0.102624856
192	0x3e051ae6	0.12998542
193	0xbe07dcca	-0.13267818
194	0x3e27c07c	0.1638202
195	0xbe3d375d	-0.1847815
196	0xbe841929	-0.25800446
197	0x3e80e343	0.25173387
198	0x3e88de95	0.26732317
199	0xbe8680a6	-0.26270026
200	0xbc98e0e0	-0.018661916
201	0x3da58e50	0.080837846
202	0xba853200	-0.0010161996
203	0x3e95b7d1	0.29241803
204	0x3e885201	0.26625064
205	0xbd2c29c8	-0.042032033
206	0xbe0220d1	-0.12707831
207	0xbe7cee50	-0.24700284
208	0x3e85310f	0.2601399
209	0xbd22bfc0	-0.03973365
210	0x3f1d34f0	0.614089
211	0xbee7af1f	-0.45250794
212	0xbe9ee1cd	-0.31031647
213	0xbe0a0302	-0.1347771
214	0xbe5ca37a	-0.21546736
215	0x3d868639	0.0656857
216	0xbe162c41	-0.14665319
217	0x3d948dda	0.072536185
218	0xbe920546	-0.28519648
219	0xbe4ca214	-0.19983703
220	0x3dc9afde	0.09847997
221	0xbe4ccc5c	-0.19999832
222	0xbfb031b0	-1.3765163
223	0xbe98a27a	-0.2981146
224	0xbf362dcb	-0.71163625
225	0x3e2e1e8e	0.17003843
226	0xbb370b0f	-0.0027930175
227	0xbf4518d0	-0.76990986
228	0xbdde4222	-0.108524576
229	0xbe959d5c	-0.29221618
230	0x3f93f5eb	1.1559423
231	0xbeb8f0c0	-0.36121178
232	0xbea803ee	-0.32815498
233	0x3c561a53	0.0130678
234	0xbe3b1810	-0.18270898
235	0xbe1eb879	-0.15500058
236	0xbe9bcc89	-0.30429485
237	0xbe00f2b9	-0.12592591
238	0x3e28a7c0	0.16470242
239	0xbedb4910	-0.4282918
240	0xbf580d3d	-0.843952
241	0xbdc5db9d	-0.096610285
242	0x3ea29b66	0.31759185
243	0xbed3417b	-0.41260895
244	0xbe9ecb44	-0.31014454
245	0x3f3ae8ba	0.7301136
246	0x3e87b04d	0.26501694
247	0xbb9076d3	-0.004408696
248	0x3e90c2c1	0.28273585
249	0xbe1aaee4	-0.15105778
250	0xbe8384d1	-0.25687268
251	0xbe07dfae	-0.13268921
252	0xbe29a7d5	-0.16567929
253	0xbd86ff89	-0.06591708
254	0x3e15f22d	0.14643164
255	0xbe367131	-0.17816617

fc1.bias f4 [128]
0	0xbeb447e1	-0.3521109
1	0xbe68a1f3	-0.22718029
2	0xbe55dc76	-0.2088488
3	0x3e028283	0.12745099
4	0x3eae28bc	0.34015453
5	0x3eed3d79	0.46335962
6	0xbe4c3e7c	-0.19945711
7	0xbf0b314a	-0.54372084
8	0x3d89eab9	0.06734223
9	0xbe9f3c67	-0.3110077
10	0xbdf2d401	-0.11856843
11	0xbdc68b89	-0.09694583
12	0x3ead6c78	0.33871818
13	0x3c9c0f90	0.01905039
14	0xbec0f835	-0.37689367
15	0xbe8d9099	-0.27649382
16	0xbcfa74af	-0.030573217
17	0xbe87b385	-0.2650415
18	0xbde4fc96	-0.111809894
19	0xbea53fac	-0.3227514
20	0xbe98b277	-0.29823658
21	0xbe276b01	-0.16349413
22	0xbf0528ff	-0.5201568
23	0xbc3fa8b7	-0.01169794
24	0xbed91d0c	-0.42404974
25	0xbe8dd6a3	-0.27702817
26	0xbe315022	-0.17315724
27	0xbe607700	-0.21920395
28	0xbe992e97	-0.29918358
29	0xbe10c4ef	-0.14137624
30	0xbe499ecd	-0.19689484
31	0x3eb4d3f6	0.35317963
32	0x3e818d7f	0.25303265
33	0x3e355310	0.17707467
34	0xbe6e235c	-0.23255676
35	0xbd706be2	-0.058696635
36	0xbc8cb8a9	-0.017177897
37	0x3d67c470	0.05658382
38	0x3e987267	0.29774782
39	0xbe52de9b	-0.2059273
40	0x3e2b5a7c	0.16733736
41	0xbc5bc390	-0.013413325
42	0xbd09d9a3	-0.03365482
43	0xbe349804	-0.17636114
44	0xbd42cb71	-0.047557298
45	0xbe9d4e0f	-0.30723616
46	0xbe2219e0	-0.15830183
47	0xbe828694	-0.254933
48	0x3da29941	0.07939387
49	0xbf05f02b	-0.5231959
50	0xbe8f1379	-0.27944544
51	0xbe67aa82	-0.22623637
52	0xbb67b8e2	-0.0035358001
53	0x3f211557	0.62923187
54	0xbe69fe32	-0.22850874
55	0x3edfb27e	0.43690866
56	0x3e0ce11e	0.1375775
57	0xbef798e4	-0.48358834
58	0x3e5f0d24	0.21782357
59	0xbe2e7c0d	-0.17039509
60	0xbea7c097	-0.32764122
61	0xbef114f6	-0.47086304
62	0xbe5fcceb	-0.21855514
63	0xbe882f83	-0.2659875
64	0xbe827a45	-0.2548391
65	0x3e8dfe40	0.2773304
66	0x3c5d0526	0.013489997
67	0xbdb4b1c3	-0.08822968
68	0xbefbce50	-0.4918084
69	0xbdc78b72	-0.09743394
70	0xbd11611f	-0.035493013
71	0xbe3fd72b	-0.18734424
72	0xbe923acc	-0.28560483
73	0x3e65b6cb	0.22433011
74	0xbe5aa315	-0.21351273
75	0x3ee17811	0.44036916
76	0xbe8e1186	-0.27747744
77	0x3ce12efb	0.027488222
78	0x3ed5c869	0.41754463
79	0xbd460181	-0.048341278
80	0xbd52fd83	-0.0515113
81	0x3ea7b0cc	0.32752073
82	0xbd14d494	-0.036335543
83	0xbc977db8	-0.018492565
84	0xbb4cb87d	-0.0031237893
85	0xbe6d5d8e	-0.2318022
86	0xbe832184	-0.25611508
87	0xbdf1e15e	-0.118105635
88	0xbe9090ed	-0.2823557
89	0xbe90ec90	-0.28305483
90	0xbe4f7678	-0.20260036
91	0xbe53834a	-0.20655552
92	0xbe22a4ed	-0.15883227
93	0x3e9aa5f7	0.30204746
94	0xbdfc6706	-0.12324338
95	0xbf0653ef	-0.5247182
96	0x3d41dbd8	0.0473288
97	0x3e25692a	0.16153398
98	0xbe773d7a	-0.24144545
99	0x3f2962df	0.6616649
100	0x3d903490	0.070412755
101	0x3efdfca5	0.49606815
102	0x3ea5b061	0.3236113
103	0xbe13e2f5	-0.14442046
104	0x3dbb0065	0.091309346
105	0x3f1eb19a	0.6198975
106	0xbeaa89a1	-0.33308128
107	0xbef14d11	-0.4712911
108	0xbdabad6a	-0.083826855
109	0xbe5ba253	-0.2144864
110	0x3e0a05bf	0.13478754
111	0xbdf0d3bb	-0.117591344
112	0xbe471df9	-0.19445027
113	0xbe1ef132	-0.15521696
114	0xbeee08e4	-0.46491158
115	0x3ea7be40	0.32762337
116	0xbda24421	-0.07923151
117	0x3f5f1c52	0.8715259
118	0xbec56a67	-0.3855774
119	0xbe698e35	-0.22808154
120	0xbe633adb	-0.2219042
121	0xbf0be2e1	-0.54643065
122	0xbdc1b3e7	-0.09458142
123	0x3cd96948	0.02653946
124	0xbe91a9b1	-0.28449777
125	0xbe3b156e	-0.18269894
126	0x3c4c0094	0.01245131
127	0xbd6fd14a	-0.058549203

fc2.weight f4 [128, 128]
0	0x3e587a90	0.21140504
1	0x3ddc2bad	0.10750518
2	0x3da39ae9	0.07988531
3	0xbe3d6fb1	-0.18499638
4	0x3ed3b19a	0.41346437
5	0x3fabdd27	1.3426865
6	0xbd5e390a	-0.054253615
7	0x3d954ee3	0.07290437
8	0x3c991ab2	0.018689487
9	0x3defd518	0.11710566
10	0xbdace2fc	-0.08441731
11	0xbe64fb43	-0.22361474
12	0x3e923b1e	0.28560728
13	0xbb84e8a0	-0.0040560514
14	0xbcc56a18	-0.024098441
15	0xbdcf503c	-0.10122725
16	0xbd0687b7	-0.03284427
17	0xbc9b5609	-0.018961923
18	0xbd3e58f9	-0.04647157
19	0xbc064945	-0.00819618
20	0xbd572325	-0.05252375
21	0x3cc1a1bf	0.023636697
22	0x3dc7265e	0.09724115
23	0xbeae083c	-0.33990657
24	0x3e0f4ad6	0.13993391
25	0xbd320209	-0.043458972
26	0x3d56c506	0.05243399
27	0x3d80c2cd	0.06287155
28	0x3d219fea	0.039459147
29	0xbd0b1baa	-0.03396193
30	0xbebb8db5	-0.3663155
31	0xbf020e29	-0.50802857
32	0x3e199fb6	0.15002331
33	0x3d6cf8c4	0.05785443
34	0xbd022a85	-0.03177883
35	0x3d5c627b	0.053804856
36	0x3e1721b7	0.14758955
37	0xbd4b5bb3	-0.049647998
38	0x3f84795e	1.0349538
39	0xbc2f622d	-0.010704559
40	0x3f89cadb	1.0765032
41	0x3f070569	0.5274263
42	0x3ca37330	0.019952387
43	0x3edfd184	0.43714535
44	0xbd8b8a9e	-0.068135485
45	0x3c83cd7c	0.016089194
46	0x3d0c32b6	0.03422805
47	0x3e7532ad	0.23945113
48	0x3e3c50b2	0.18390158
49	0x3ec6c7ca	0.38824302
50	0xbe9c5d85	-0.305401
51	0x3ce3b657	0.027796907
52	0x3de146f7	0.109998636
53	0x3da6579b	0.08122178
54	0x3f3aa184	0.72902703
55	0xbd44e796	-0.04807242
56	0x3e216abc	0.15763372
57	0xbdf46a6e	-0.11934362
58	0x3fcdd524	1.608067
59	0x3c7629f8	0.015024655
60	0x3f2e852b	0.6817195
61	0xbda0c686	-0.07850365
62	0xbdcfa1cf	-0.101382844
63	0xbf0314c9	-0.5120359
64	0xbd0afa78	-0.033930272
65	0x406681e5	3.6016781
66	0x3d6d683e	0.05796074
67	0x3dfe37dd	0.12412999
68	0x3e09cfab	0.13458125
69	0x3d6374cf	0.05553132
70	0xbf53527e	-0.8254775
71	0xbebf8cfb	-0.37412247
72	0x3c3ef571	0.0116551975
73	0x3d7e31c9	0.062059198
74	0xbd11d434	-0.035602763
75	0x3ed6d859	0.41961935
76	0x3c310fa1	0.010806949
77	0x3d25fd4a	0.04052476
78	0x3e9fada5	0.31187168
79	0xbd8b55c1	-0.06803466
80	0x3d9b2f68	0.075774014
81	0x3e398b5c	0.18119568
82	0x3d21d70c	0.039511725
83	0x3f1fa474	0.6236031
84	0xbd00b486	-0.03142216
85	0xbcb39096	-0.02191953
86	0xbec5850e	-0.38578075
87	0x3c837100	0.016045094
88	0xbdab5bc5	-0.08367113
89	0x3d8dd2c2	0.069249645
90	0xbdb3c243	-0.08777287
91	0x3cf4db8c	0.029889844
92	0x3d06dda6	0.032926224
93	0x3fb2ec27	1.3978318
94	0x3deda171	0.11603058
95	0x3efb3a4a	0.4906791
96	0xbd0b05b9	-0.033941004
97	0xbefdc50b	-0.49564394
98	0xbd21155f	-0.03932702
99	0x3e13f78d	0.14449902
100	0x3c7f650e	0.015588058
101	0x3fe8c487	1.8184975
102	0x3d458731	0.04822463
103	0xbcf1a23f	-0.02949631
104	0x3d055884	0.03255512
105	0x3e54e9c9	0.20792307
106	0xbd7052c7	-0.058672693
107	0x3e8c6d5e	0.2742719
108	0xbb50c700	-0.0031856894
109	0xbd4b1724	-0.049582615
110	0xbf57872c	-0.8419063
111	0x3f429c51	0.7601977
112	0x3f596ebc	0.8493459
113	0x3e170677	0.1474856
114	0xbe7c2f20	-0.24627352
115	0x3e8dcba4	0.27694428
116	0x3db5c41b	0.08875295
117	0x4069b6f5	3.6517918
118	0xbdfabedc	-0.12243435
119	0x3c1a42fe	0.009415386
120	0xbda034f7	-0.07822602
121	0xbcb99732	-0.022655103
122	0x3c55cb77	0.013048998
123	0xbd46ec0b	-0.048564952
124	0x3d6a8bfa	0.0572624
125	0xbbbaed57	-0.0057045626
126	0xbc3d4e26	-0.011554277
127	0x3d9e23bb	0.07721659
128	0xbc5ea91d	-0.013590124
129	0xbd63156c	-0.05544035
130	0xbda4f5b5	-0.080546774
131	0xbe0b656a	-0.13612905
132	0x3e8b1edc	0.2717198
133	0x3f711a4b	0.94180745
134	0x3c471418	0.012150787
135	0xbdb4a412	-0.088203564
136	0x3d2c09c5	0.042001504
137	0x3d5ba92a	0.053628124
138	0xbd80a040	-0.06280565
139	0x3e16bc83	0.14720349
140	0xbea93bfe	-0.33053583
141	0x3abb5300	0.0014291704
142	0x3f3e8b4b	0.74431294
143	0xc0425c39	-3.0368788
144	0x3e9e2bd7	0.30892822
145	0xbb6d8535	-0.0036242728
146	0x3ce9791f	0.028500138
147	0xbca0b2c8	-0.0196165
148	0xbd88efde	-0.06686376
149	0x3d201545	0.039082784
150	0xbdc9f09a	-0.09860344
151	0x3eec651a	0.46170884
152	0xc00b8921	-2.1802447
153	0xbc45518e	-0.01204337
154	0x3d998127	0.07495337
155	0x3c5de990	0.013544455
156	0x3d2603d2	0.040530987
157	0xbd7a0148	-0.06103638
158	0xbea2c785	-0.31792846
159	0xbfd099fb	-1.6296991
160	0xbf26dcda	-0.6518074
161	0xbbda22d0	-0.006656982
162	0x3d891651	0.0669371
163	0xbf90e47d	-1.1319729
164	0x3f59c362	0.85063756
165	0xbd8406ad	-0.06446586
166	0x3f3d7b6e	0.74016464
167	0x3d65f16b	0.056138437
168	0x3db64568	0.08899957
169	0xbfbbc12e	-1.4668329
170	0xbc4a2560	-0.012338012
171	0xbe68458f	-0.22682784
172	0x3dac0609	0.083995886
173	0xbc5a2a38	-0.01331573
174	0x3ba5d1fb	0.005060432
175	0x3eabe8cc	0.33576047
176	0x3e62db03	0.22153859
177	0xbead7445	-0.3387777
178	0xc04c06d4	-3.1879168
179	0x3da9ce73	0.0829133
180	0x3c55bf31	0.013046072
181	0xbfb9b16b	-1.4507269
182	0xbfe6ea64	-1.804028
183	0xbf86508f	-1.0493335
184	0xbd8a8009	-0.06762702
185	0x3ef973b1	0.48721078
186	0xc0040ff7	-2.0634744
187	0xbd8610ac	-0.06546149
188	0xbf3d630e	-0.7397927
189	0x3f26f107	0.6521153
190	0x3d234ba2	0.03986705
191	0xbf3d5d14	-0.7397015
192	0xbd6afa7a	-0.05736778
193	0xbe8c148f	-0.27359435
194	0xbd72965a	-0.059225418
195	0xbd481566	-0.048848532
196	0xbda3fc33	-0.080070876
197	0xbe606497	-0.21913372
198	0xbee0da46	-0.4391653
199	0xbe8ad4cb	-0.27115473
200	0x3d9bf451	0.07614959
201	0xbca7a03c	-0.020462148
202	0x3dccfc75	0.1000909
203	0x3e4548ee	0.19266102
204	0x3cf93c30	0.030424207
205	0x3e9b8c31	0.30380395
206	0xbf3162fe	-0.69291675
207	0x3d0705a2	0.032964356
208	0xbf04ea9b	-0.5192048
209	0xc13df63f	-11.872619
210	0x3de1ebed	0.110313274
211	0xbeb60dda	-0.35557443
212	0x3b416d1d	0.00295145
213	0xbec70b14	-0.3887564
214	0xbe8fc6db	-0.28081402
215	0xbafe77c0	-0.001941435
216	0x3f101d39	0.5629459
217	0xbcc2ef35	-0.023795703
218	0xbec943db	-0.39309582
219	0xbe0417be	-0.12899682
220	0xbd91ed8b	-0.07125386
221	0xbf37d220	-0.71805
222	0x3dfc733d	0.123266675
223	0xbf0f3c4f	-0.559514
224	0x3da55ded	0.080745555
225	0x3f259f1f	0.64695925
226	0x3cd35a60	0.02579993
227	0xbecb7619	-0.3973854
228	0xbddfe7f6	-0.10932915
229	0x3f9ae044	1.209969
230	0x3de167d7	0.11006134
231	0xbc9f2e20	-0.019431174
232	0xbc8b2d21	-0.016989293
233	0xbf8557b5	-1.0417391
234	0xbd9488ec	-0.07252678
235	0xbecb651c	-0.39725578
236	0x3d7d519e	0.061845414
237	0xbee407b3	-0.44537124
238	0x3ed8f0cd	0.42371216
239	0x3f6bd54c	0.9212234
240	0xbff32af3	-1.8997482
241	0x3d799b6d	0.06093924
242	0x3dafd8a2	0.08586241
243	0xbc47eb0b	-0.012202035
244	0xbe31a4f7	-0.17348085
245	0x3da6f474	0.081520945
246	0xbddc9b35	-0.10771791
247	0x3c2218cb	0.009893606
248	0x3ebf03d2	0.37307602
249	0xbeb08b3b	-0.34481224
250	0x3e51fcad	0.20506544
251	0x3efcea80	0.4939766
252	0x3ca4f060	0.020134151
253	0xbd6b33a4	-0.057422295
254	0xbd152872	-0.036415525
255	0xbda64812	-0.08119215

fc2.bias f4 [128]
0	0x3f1e4ca8	0.6183572
1	0x3d8faf8b	0.07015904
2	0x3dfebbd8	0.12438172
3	0xbdab14de	-0.083535895
4	0xbd530ba5	-0.051524777
5	0x3e8df171	0.27723268
6	0xbd8d360d	-0.06895075
7	0x3f393855	0.7235158
8	0xbc336b58	-0.010950886
9	0xbd8a7284	-0.06760123
10	0x3c8a435a	0.016877819
11	0xbd2a013b	-0.04150508
12	0xbc6c80a1	-0.014434964
13	0xbdc11542	-0.09427883
14	0x3c3499df	0.011023014
15	0xbcdd1d20	-0.026991427
16	0xbdcc363f	-0.09971284
17	0xbca183ba	-0.019716132
18	0xbc3d09eb	-0.011538009
19	0xbdba438d	-0.090949155
20	0x3c59f226	0.013302362
21	0x3f066bd7	0.525083
22	0xbe3db25a	-0.18525067
23	0xbdadf376	-0.08493702
24	0xbdf3360e	-0.118755445
25	0x3f38ed57	0.7223715
26	0x3d179a41	0.037012342
27	0xbcaffc1c	-0.02148252
28	0xbd725058	-0.059158653
29	0xbd8e96c8	-0.06962353
30	0xbde31db9	-0.110896535
31	0x3f1505d5	0.58212024
32	0xbdc8b058	-0.0979926
33	0xbd48481e	-0.0488969
34	0xbd5323ee	-0.051547937
35	0x3cd6b13e	0.026207563
36	0xbdbef324	-0.09323719
37	0xbab733b1	-0.0013977197
38	0xbe112a7b	-0.14176361
39	0x3f296252	0.6616565
40	0xbd8dcde2	-0.06924035
41	0xbca1176f	-0.019664494
42	0xbdd6a481	-0.104805954
43	0xbe80aa5a	-0.25129968
44	0xbd32d040	-0.043655634
45	0xbc840a66	-0.01611824
46	0x3d004103	0.031312
47	0xbcb85dc7	-0.022505654
48	0x3f1610f0	0.58619595
49	0x3f32c6d8	0.6983466
50	0xbc14f487	-0.009091503
51	0xbb599d16	-0.0033205203
52	0x3d134f28	0.03596416
53	0xbd693a88	-0.056940585
54	0xbd5c40aa	-0.053772606
55	0xbd2bc8d1	-0.04193956
56	0xbdb1b989	-0.08677966
57	0xbde5e64a	-0.11225565
58	0xbd206b7b	-0.039165
59	0xbdc80100	-0.09765816
60	0xbdddfc68	-0.10839158
61	0x3ef1d495	0.472325
62	0xbb55cf2e	-0.003262471
63	0xbd746f2d	-0.059676338
64	0x3f3cc3d9	0.7373634
65	0xbd644a2e	-0.055734806
66	0xbda104a0	-0.0786221
67	0x3d16c9ad	0.036813427
68	0xbdd32bae	-0.103110656
69	0x3dba936e	0.09110151
70	0x3c18c078	0.009323232
71	0x3c62eab9	0.013849908
72	0xbc339db0	-0.010962889
73	0x3eb787db	0.35845837
74	0x3f169609	0.58822685
75	0xbd86c7dd	-0.0658109
76	0xbdb6b746	-0.089216754
77	0x3f07ff8b	0.531243
78	0x3efa1531	0.48844293
79	0x3c0ed693	0.008718151
80	0xbc2bd0e3	-0.010486814
81	0x3f364b83	0.7120897
82	0x3e9264cc	0.28592527
83	0xbea22896	-0.3167159
84	0xbd9b0c80	-0.075707436
85	0xbbfb8ee0	-0.007676944
86	0xbe7c3a47	-0.24631606
87	0xbcea5666	-0.028605651
88	0xbd872757	-0.065993
89	0x3e4ffe1e	0.20311782
90	0xbe6e3ebb	-0.23266117
91	0xbcf9558b	-0.030436298
92	0xbe414422	-0.18873647
93	0xbd5203be	-0.0512731
94	0xbdc5821c	-0.09643957
95	0x3f283aae	0.6571454
96	0x3f30e97a	0.69106257
97	0xbdb64436	-0.08899729
98	0xbd9cb657	-0.07651966
99	0xbcbeb2d0	-0.023278624
100	0x3f2aac01	0.6666871
101	0x3f1b3751	0.6063128
102	0xbd835024	-0.0641177
103	0x3e08b1ad	0.13349028
104	0xbdbe65bc	-0.09296748
105	0xbe0d56fc	-0.13802713
106	0xbd960510	-0.07325184
107	0xbe30456e	-0.17213985
108	0xbea1c496	-0.31595296
109	0x3e471e0b	0.19445054
110	0xbdaa9596	-0.083293125
111	0xbdb1e86f	-0.08686911
112	0x3cc42a51	0.02394596
113	0xbda22021	-0.07916284
114	0xbc976e74	-0.018485285
115	0x3f17eed4	0.593488
116	0xba9d863f	-0.0012018158
117	0x3f1ba4f1	0.60798556
118	0xbdbe3b63	-0.09288671
119	0x3f15308f	0.5827722
120	0xbd3ac287	-0.045595672
121	0xbda26597	-0.07929533
122	0xbde6be8b	-0.11266812
123	0xbc5426bb	-0.012948687
124	0x3f07a4aa	0.5298563
125	0x3d5584ab	0.052128475
126	0xbdf06b84	-0.11739257
127	0x3dcb5460	0.09928203

fc3.weight f4 [3, 128]
0	0x3f07a65b	0.52988213
1	0xbedc35ad	-0.430097
2	0xbe41cb8b	-0.18925302
3	0x3d4ee63d	0.05051254
4	0x3c9b3590	0.018946439
5	0x3f78e51c	0.97224593
6	0x3c8109ab	0.01575168
7	0x3f0da057	0.55322784
8	0xbd7448d2	-0.05963976
9	0xbca4826e	-0.020081725
10	0xba440004	-0.0007476809
11	0x3cd1c60f	0.025607137
12	0xbceafc2e	-0.028684702
13	0x3bb59df8	0.005542513
14	0xbd41fd86	-0.04736092
15	0x3c5d17d0	0.013494447
16	0xbd4b4c55	-0.049633343
17	0xbd482d82	-0.048871525
18	0x3d211f03	0.039336216
19	0xbd13f1d1	-0.036119286
20	0x3c1389b2	0.009004997
21	0x3f14d0d0	0.5813112
22	0xbf56d45d	-0.8391779
23	0xbd51916d	-0.05116408
24	0xbd50d451	-0.05098373
25	0x3f104c59	0.563665
26	0xbd728972	-0.05921311
27	0x3c1d400a	0.009597788
28	0xbd55a405	-0.052158374
29	0x3d152293	0.036409926
30	0xbbc1c933	-0.0059138774
31	0x3ee93fb7	0.45556423
32	0xbcff07ba	-0.031131614
33	0x3d1a9f10	0.03774935
34	0xbe97cfd4	-0.29650748
35	0x3c7aacf0	0.015300021
36	0xbbaaba13	-0.00521017
37	0x3c90f63e	0.017695542
38	0xbd16a9be	-0.036782973
39	0x3f1e7eb0	0.6191206
40	0xbc3a9748	-0.011388607
41	0x3ccf8735	0.025333026
42	0x3d87a3e3	0.06623056
43	0x3ef86dc4	0.48521245
44	0xbd5f812e	-0.054566555
45	0x3d3c5cb6	0.045986854
46	0xbb1c92d3	-0.0023891225
47	0x3d45af57	0.04826292
48	0x3f08a98b	0.533837
49	0x3f16004d	0.5859421
50	0xbb20f475	-0.002455977
51	0x3d72a1cd	0.059236336
52	0x3bad08d1	0.005280592
53	0x3c9354e8	0.017984822
54	0xbd0ea197	-0.034822073
55	0x3c830c6d	0.015997136
56	0x3a2b3193	0.00065305195
57	0x3f98bf1b	1.1933321
58	0xbfbf1102	-1.4927065
59	0xbefd726f	-0.49501368
60	0xbd1cc0fa	-0.038269974
61	0x3f4cb540	0.79964066
62	0x3d306372	0.04306359
63	0xbc9eeb7f	-0.019399403
64	0x3f09289a	0.5357758
65	0x3d9222ca	0.07135542
66	0x3eb2a0c7	0.34888288
67	0xbc2a10a1	-0.010379941
68	0x3cbfcb16	0.023412269
69	0x3cd3fc17	0.025877042
70	0x3da27e0f	0.079342
71	0xbcc6e3c9	-0.024278538
72	0x3cc867d6	0.024463575
73	0x3f6fa621	0.9361287
74	0x3ee15400	0.440094
75	0xbcd16a0e	-0.025563266
76	0x3c63075a	0.013856733
77	0x3f6b8bd9	0.92010266
78	0x3f86ae94	1.0522027
79	0xbbe0fb42	-0.0068658898
80	0x3d3a461b	0.045477014
81	0x3f19c9ef	0.6007375
82	0x3ef8eb0b	0.48616824
83	0xbf85524a	-1.0415738
84	0xbbd569d9	-0.006512862
85	0x3d4205e7	0.04736891
86	0xbfcf156b	-1.6178411
87	0xbea03c7e	-0.31296152
88	0x3d9932f2	0.0748042
89	0x3f8ba5c9	1.0909969
90	0xbee5bbe8	-0.44869924
91	0x3ea0a8a0	0.3137865
92	0xbf1e5e1e	-0.6186236
93	0x3cde1f01	0.027114393
94	0xbccb8bdc	-0.024846964
95	0x3ef359da	0.4752949
96	0x3f099a31	0.537509
97	0x3c34f158	0.011043869
98	0xbea14264	-0.31495965
99	0x3d283bf2	0.041072793
100	0x3f04e3fa	0.51910365
101	0x3f824143	1.0176166
102	0x3d135aa3	0.03597511
103	0xbf7ecd70	-0.9953222
104	0x3d1909fc	0.037363037
105	0xbecc0867	-0.3985016
106	0xbd8fa932	-0.07014693
107	0xbf37c561	-0.7178555
108	0xbebebc84	-0.372532
109	0xbeb09553	-0.34488925
110	0x3cc252cc	0.023721121
111	0xbe1a4b68	-0.15067828
112	0x3fa920b9	1.3213111
113	0xbf4581eb	-0.77151364
114	0x3d78e566	0.060765646
115	0x3ed79118	0.42102885
116	0x3cec9fa1	0.02888471
117	0x3ee34437	0.4438798
118	0xbc8fb5a4	-0.017542668
119	0x3f04da59	0.5189567
120	0x3c587639	0.01321178
121	0xbda8561b	-0.08219548
122	0x3c8ca1c4	0.01716698
123	0xbd43310f	-0.047654208
124	0x3f1df30c	0.61698985
125	0x3cd15fdc	0.025558405
126	0xbedb2eee	-0.42809242
127	0x404477b0	3.0698051
128	0x3f0a432e	0.5400876
129	0x3f2be4fd	0.67146283
130	0x3fff32b9	1.9937354
131	0xbd7e7cc3	-0.0621307
132	0x3b8d5dea	0.004314174
133	0x3f7ef443	0.99591464
134	0x3cd37d9a	0.025816727
135	0x3f02b2b9	0.5105396
136	0xbbb63730	-0.005560778
137	0x3d882f2f	0.066496246
138	0xbd342b1d	-0.04398643
139	0x3b26e2b0	0.0025464706
140	0x3be080e0	0.0068513006
141	0xbca11ef2	-0.019668076
142	0xbd53f6b5	-0.05174895
143	0xbd51f627	-0.05126014
144	0xbd214726	-0.039374493
145	0x3d2d92ae	0.042376213
146	0x3cc67984	0.024227865
147	0xbedda8ad	-0.43292752
148	0x3cc849b4	0.024449207
149	0x3f9bff17	1.2187222
150	0x3e8d2c98	0.27573085
151	0xbd77c113	-0.060486864
152	0x3e32f064	0.17474514
153	0x3f11752f	0.5681943
154	0xbd1a793a	-0.037713267
155	0x3b2332af	0.0024902036
156	0xbce7b737	-0.028285606
157	0x3c978643	0.018496638
158	0xbc5da778	-0.013528697
159	0x3f03e894	0.5152676
160	0xbcec37a3	-0.028835123
161	0xbd36a119	-0.04458723
162	0xbd513ab5	-0.051081378
163	0xbcf43c80	-0.029814005
164	0x3d6e78f7	0.05822083
165	0xbcb3d482	-0.021951918
166	0xbc824365	-0.015901277
167	0x3f00ff5c	0.5038965
168	0x3bd3cb7c	0.006463466
169	0xbc08981f	-0.00833705
170	0xbd39eefb	-0.045393925
171	0xbbd838f4	-0.006598586
172	0x3c29f331	0.010372923
173	0xbd60e1e5	-0.05490293
174	0x3c0859ab	0.00832216
175	0x3d16ef66	0.036849402
176	0x3f02e2ce	0.51127326
177	0x3f07635f	0.52886003
178	0x3b3bf3f5	0.0028679345
179	0x3cc0bf46	0.023528706
180	0x3c34af72	0.011028158
181	0x3c4f8612	0.012666242
182	0x3dd3ff57	0.103514366
183	0xbb8f8f5e	-0.0043811044
184	0xbdb3baa4	-0.08775833
185	0xbe21aca4	-0.15788513
186	0xc00461b4	-2.0684633
187	0xbea4d3ad	-0.32192746
188	0x3d88835c	0.0666568
189	0x3f39a162	0.72511876
190	0x3c91984b	0.017772814
191	0xbc83c208	-0.016083732
192	0x3f1033da	0.5632912
193	0x3e0b50e3	0.13605075
194	0xbd7fdfdc	-0.06246935
195	0xbd236ee1	-0.039900664
196	0xbd0fa048	-0.035064965
197	0xbcca3f70	-0.024688452
198	0x3d208d1d	0.039197076
199	0x3cc35f90	0.023849279
200	0xbccad9a7	-0.024761988
201	0x3edfaac0	0.4368496
202	0x3f02a656	0.5103506
203	0x3d22b416	0.039722525
204	0xbc73b435	-0.014874508
205	0x3f4ad9b8	0.7923846
206	0x3f718275	0.94339687
207	0xbcb11ab4	-0.021619178
208	0xbd0fe509	-0.035130534
209	0x3f131faa	0.5747019
210	0x3fbe0db0	1.4847927
211	0xbf82bdfa	-1.0214226
212	0xbd392808	-0.045204192
213	0x3eb2fb95	0.34957567
214	0xbfe1e913	-1.7649254
215	0x3d7ab6ea	0.061209597
216	0xbc1f09d2	-0.009706931
217	0x3f19f03b	0.6013219
218	0x3de1e5f2	0.11030187
219	0xbecd7a8e	-0.40132564
220	0xbe59772c	-0.21236867
221	0x3bfd1c00	0.007724285
222	0xbc0dc972	-0.008653985
223	0x3f14597c	0.5794904
224	0x3f074f1d	0.5285509
225	0x3d27af42	0.040938623
226	0xbdcb61de	-0.09930776
227	0xbd4fc405	-0.05072405
228	0x3f0544c7	0.5205807
229	0x3f9c00a5	1.2187697
230	0xbd4a2fe1	-0.049362067
231	0xbfff425c	-1.9942126
232	0xbc5156dd	-0.0127770575
233	0x3efd6aa4	0.49495423
234	0x3c5366aa	0.012902895
235	0xbd074a09	-0.03302959
236	0x3e692463	0.22767787
237	0x3f7491fd	0.9553526
238	0xbc188475	-0.009308924
239	0x3d5035c2	0.050832517
240	0x3fba3224	1.4546552
241	0xbd60fae0	-0.054926753
242	0xbd316435	-0.043308455
243	0x3f057102	0.5212556
244	0x3d2305be	0.039800398
245	0x3f036b7d	0.5133589
246	0xbcfb24aa	-0.030657131
247	0x3efea159	0.49732473
248	0xbd3271ab	-0.043565433
249	0x3cc4ef08	0.02403976
250	0x3d0623c2	0.032748945
251	0xbc61fd09	-0.013793238
252	0x3edc423f	0.43019292
253	0x3d4b4831	0.049629394
254	0xbeb10b7e	-0.3457908
255	0x40272005	2.6113293

fc3.bias f4 [3]
0	0x3e5d5e8d	0.216181
1	0x3f399ece	0.7250794
2	0x3ed348e2	0.41266543

exp_avg f4 [128, 10]
0	0xb910fa75	-0.00013826213
1	0xb9f8597f	-0.00047368926
2	0x3953d5d7	0.0002020219
3	0xb986543a	-0.00025621225
4	0xb8561e1b	-5.1049614e-05
5	0x00000004	6e-45
6	0xb39fd786	-7.443218e-08
7	0xb9a54691	-0.00031523829
8	0x00000000	0.0
9	0xb9a54f57	-0.00031530365
10	0x00000004	6e-45
11	0x00000004	6e-45
12	0x00000004	6e-45
13	0x80000004	-6e-45
14	0x00000004	6e-45
15	0x00000004	6e-45
16	0x00000000	0.0
17	0x00000004	6e-45
18	0x00000000	0.0
19	0x00000004	6e-45
20	0x00000004	6e-45
21	0x00000004	6e-45
22	0x80000004	-6e-45
23	0x00000004	6e-45
24	0x00000004	6e-45
25	0x00000004	6e-45
26	0x00000004	6e-45
27	0x00000004	6e-45
28	0x00000000	0.0
29	0x00000004	6e-45
30	0x00000004	6e-45
31	0x00000004	6e-45
32	0x00000004	6e-45
33	0x00000004	6e-45
34	0x00000004	6e-45
35	0x00000004	6e-45
36	0x00000004	6e-45
37	0x00000004	6e-45
38	0x00000000	0.0
39	0x00000004	6e-45
40	0xb79e5ea9	-1.8879147e-05
41	0x3ba9e1ea	0.0051844018
42	0x3c70bab8	0.014692955
43	0xbc7fc430	-0.01561074
44	0x3b06d86b	0.0020575773
45	0xbc658131	-0.014007852
46	0x3ba5afc7	0.0050563547
47	0x3b0d2281	0.0021535459
48	0x00000000	0.0
49	0x3be4af80	0.006978929
50	0xbcd4bce6	-0.02596898
51	0xbd5e7bc5	-0.054317255
52	0xbc3f8903	-0.011690381
53	0xbdccf572	-0.100077525
54	0x3ae9ba79	0.0017832062
55	0xbdd205cc	-0.10255012
56	0x3c3ff50e	0.01171614
57	0xbd917a2c	-0.071033806
58	0x00000000	0.0
59	0xbd748af0	-0.059702814
60	0x00000000	0.0
61	0x00000000	0.0
62	0x00000000	0.0
63	0x00000000	0.0
64	0x00000000	0.0
65	0x00000000	0.0
66	0x00000000	0.0
67	0x00000000	0.0
68	0x00000000	0.0
69	0x00000000	0.0
70	0x00000004	6e-45
71	0x00000004	6e-45
72	0x80000004	-6e-45
73	0x80000004	-6e-45
74	0x00000004	6e-45
75	0x00000004	6e-45
76	0x00000004	6e-45
77	0x00000004	6e-45
78	0x00000000	0.0
79	0x00000004	6e-45
80	0x00000004	6e-45
81	0x00000004	6e-45
82	0x00000004	6e-45
83	0x80000004	-6e-45
84	0x00000004	6e-45
85	0x00000004	6e-45
86	0x00000004	6e-45
87	0x00000004	6e-45
88	0x00000000	0.0
89	0x00000004	6e-45
90	0x00000004	6e-45
91	0x00000004	6e-45
92	0x80000004	-6e-45
93	0x00000004	6e-45
94	0x00000004	6e-45
95	0x00000004	6e-45
96	0x00000000	0.0
97	0x00000004	6e-45
98	0x00000000	0.0
99	0x00000004	6e-45
100	0x00000004	6e-45
101	0x00000004	6e-45
102	0x80000004	-6e-45
103	0x00000004	6e-45
104	0x00000004	6e-45
105	0x00000000	0.0
106	0x00000004	6e-45
107	0x00000004	6e-45
108	0x00000000	0.0
109	0x00000004	6e-45
110	0x00000004	6e-45
111	0x00000004	6e-45
112	0x80000004	-6e-45
113	0x80000004	-6e-45
114	0x00000004	6e-45
115	0x00000004	6e-45
116	0x00000004	6e-45
117	0x00000004	6e-45
118	0x00000000	0.0
119	0x00000004	6e-45
120	0xba6fbf80	-0.0009145662
121	0x3b070a17	0.002060538
122	0x3c3e6652	0.011621075
123	0xbc92c2c3	-0.017915135
124	0x3accdf2c	0.0015630475
125	0xbc5eaad6	-0.013590535
126	0x3baea086	0.0053291945
127	0xbb1c3b5f	-0.00238391
128	0x00000000	0.0
129	0x3b30f8ea	0.0027003833
130	0x00000000	0.0
131	0x00000000	0.0
132	0x00000000	0.0
133	0x00000000	0.0
134	0x00000000	0.0
135	0x00000000	0.0
136	0x00000000	0.0
137	0x00000000	0.0
138	0x00000000	0.0
139	0x00000000	0.0
140	0x3a2f0949	0.0006677104
141	0x3ad3485a	0.0016119585
142	0xb9ee6910	-0.00045473175
143	0x3a718391	0.00092130253
144	0x38879c46	6.46641e-05
145	0x2e594d05	4.9408495e-11
146	0xb391d40f	-6.790662e-08
147	0x3a817732	0.0009877442
148	0x00000000	0.0
149	0x3a81752e	0.0009876841
150	0x39d09101	0.00039780888
151	0x3b899b5c	0.0041994285
152	0x3bb4c57f	0.0055167074
153	0xba9a56d9	-0.001177515
154	0x3a925f86	0.0011167384
155	0x3b1d38a0	0.002399005
156	0x3b1033d4	0.0022003548
157	0x3b3794d3	0.002801229
158	0x00000000	0.0
159	0x3b9f288c	0.0048571285
160	0xb0716ccd	-8.7829904e-10
161	0xb10c7656	-2.0439948e-09
162	0x312a41dc	2.4775693e-09
163	0xb12a41dc	-2.4775693e-09
164	0xae935ec2	-6.7016184e-11
165	0x80000004	-6e-45
166	0x00000004	6e-45
167	0xb12a41dc	-2.4775693e-09
168	0x00000000	0.0
169	0xb12a41dc	-2.4775693e-09
170	0x00000004	6e-45
171	0x00000004	6e-45
172	0x80000004	-6e-45
173	0x00000004	6e-45
174	0x00000004	6e-45
175	0x00000004	6e-45
176	0x00000004	6e-45
177	0x00000004	6e-45
178	0x00000000	0.0
179	0x00000004	6e-45
180	0x00000004	6e-45
181	0x00000004	6e-45
182	0x00000004	6e-45
183	0x00000004	6e-45
184	0x00000004	6e-45
185	0x00000004	6e-45
186	0x00000004	6e-45
187	0x00000004	6e-45
188	0x00000000	0.0
189	0x00000004	6e-45
190	0x00000004	6e-45
191	0x00000004	6e-45
192	0x80000004	-6e-45
193	0x80000004	-6e-45
194	0x00000004	6e-45
195	0x00000000	0.0
196	0x00000000	0.0
197	0x00000004	6e-45
198	0x00000000	0.0
199	0x00000004	6e-45
200	0x00000000	0.0
201	0x00000000	0.0
202	0x00000000	0.0
203	0x00000000	0.0
204	0x00000000	0.0
205	0x00000000	0.0
206	0x00000000	0.0
207	0x00000000	0.0
208	0x00000000	0.0
209	0x00000000	0.0
210	0x00000004	6e-45
211	0x00000004	6e-45
212	0x80000004	-6e-45
213	0x80000004	-6e-45
214	0x00000004	6e-45
215	0x00000004	6e-45
216	0x00000000	0.0
217	0x00000004	6e-45
218	0x00000000	0.0
219	0x00000004	6e-45
220	0x00000004	6e-45
221	0x00000004	6e-45
222	0x80000004	-6e-45
223	0x00000004	6e-45
224	0x00000004	6e-45
225	0x00000004	6e-45
226	0x00000004	6e-45
227	0x00000004	6e-45
228	0x00000000	0.0
229	0x00000004	6e-45
230	0x00000004	6e-45
231	0x00000004	6e-45
232	0x80000004	-6e-45
233	0x80000004	-6e-45
234	0x00000004	6e-45
235	0x00000004	6e-45
236	0x00000004	6e-45
237	0x00000004	6e-45
238	0x00000000	0.0
239	0x00000004	6e-45
240	0x3b8db29f	0.004324272
241	0x3c2a265a	0.01038512
242	0x3c453b07	0.012037999
243	0xbc957cdc	-0.018248014
244	0x399c9a69	0.00029869683
245	0x3a88429c	0.0010395828
246	0x3c2ebe7a	0.01066553
247	0x3b0965c8	0.0020965207
248	0x00000000	0.0
249	0x3c476685	0.012170439
250	0x00000004	6e-45
251	0x00000004	6e-45
252	0x80000004	-6e-45
253	0x80000004	-6e-45
254	0x00000004	6e-45
255	0x00000004	6e-45

exp_avg_sq f4 [128, 10]
0	0x3521000b	5.9977236e-07
1	0x369b80bf	4.634348e-06
2	0x3623f932	2.4433944e-06
3	0x3655267f	3.176188e-06
4	0x330fa91f	3.3448597e-08
5	0x0022d645	3.199272e-39
6	0x35bb87aa	1.3972069e-06
7	0x363f83aa	2.8537856e-06
8	0x00000000	0.0
9	0x36920e88	4.3528307e-06
10	0x000001f4	7e-43
11	0x000001f4	7e-43
12	0x000001f4	7e-43
13	0x000001f4	7e-43
14	0x000001f4	7e-43
15	0x000001f4	7e-43
16	0x00000000	0.0
17	0x000001f4	7e-43
18	0x00000000	0.0
19	0x000001f4	7e-43
20	0x000001f4	7e-43
21	0x000001f4	7e-43
22	0x000001f4	7e-43
23	0x000001f4	7e-43
24	0x000001f4	7e-43
25	0x000001f4	7e-43
26	0x000001f4	7e-43
27	0x000001f4	7e-43
28	0x00000000	0.0
29	0x000001f4	7e-43
30	0x000001f4	7e-43
31	0x000001f4	7e-43
32	0x000001f4	7e-43
33	0x000001f4	7e-43
34	0x000001f4	7e-43
35	0x000001f4	7e-43
36	0x000001f4	7e-43
37	0x000001f4	7e-43
38	0x00000000	0.0
39	0x000001f4	7e-43
40	0x3b4b7d11	0.0031049887
41	0x3d482c73	0.048870515
42	0x3d67a132	0.056550212
43	0x3c1df7d7	0.009641609
44	0x3ab687a9	0.0013925928
45	0x3d36042c	0.044437572
46	0x3bb6099e	0.0055553457
47	0x3d41f5d2	0.047353573
48	0x00000000	0.0
49	0x3d7fb061	0.062424067
50	0x3d7dd4ff	0.061970707
51	0x3f69d225	0.9133628
52	0x3f85f5d9	1.0465652
53	0x3e34d0b4	0.17657739
54	0x3ccd3c06	0.025053035
55	0x3f565146	0.83717763
56	0x3e2880aa	0.16455331
57	0x3f4a7936	0.79091203
58	0x00000000	0.0
59	0x3f95bd3b	1.1698374
60	0x00000000	0.0
61	0x00000000	0.0
62	0x00000000	0.0
63	0x00000000	0.0
64	0x00000000	0.0
65	0x00000000	0.0
66	0x00000000	0.0
67	0x00000000	0.0
68	0x00000000	0.0
69	0x00000000	0.0
70	0x000001f4	7e-43
71	0x000001f4	7e-43
72	0x000001f4	7e-43
73	0x000001f4	7e-43
74	0x000001f4	7e-43
75	0x000001f4	7e-43
76	0x000001f4	7e-43
77	0x000001f4	7e-43
78	0x00000000	0.0
79	0x000001f4	7e-43
80	0x000001f4	7e-43
81	0x000001f4	7e-43
82	0x000001f4	7e-43
83	0x000001f4	7e-43
84	0x000001f4	7e-43
85	0x000001f4	7e-43
86	0x000001f4	7e-43
87	0x000001f4	7e-43
88	0x00000000	0.0
89	0x000001f4	7e-43
90	0x000001f4	7e-43
91	0x000001f4	7e-43
92	0x000001f4	7e-43
93	0x000001f4	7e-43
94	0x000001f4	7e-43
95	0x000001f4	7e-43
96	0x00000000	0.0
97	0x000001f4	7e-43
98	0x00000000	0.0
99	0x000001f4	7e-43
100	0x000001f4	7e-43
101	0x000001f4	7e-43
102	0x000001f4	7e-43
103	0x000001f4	7e-43
104	0x000001f4	7e-43
105	0x00000000	0.0
106	0x000001f4	7e-43
107	0x000001f4	7e-43
108	0x00000000	0.0
109	0x000001f4	7e-43
110	0x000001f4	7e-43
111	0x000001f4	7e-43
112	0x000001f4	7e-43
113	0x000001f4	7e-43
114	0x000001f4	7e-43
115	0x000001f4	7e-43
116	0x000001f4	7e-43
117	0x000001f4	7e-43
118	0x00000000	0.0
119	0x000001f4	7e-43
120	0x3b52c887	0.003216298
121	0x3d414a5b	0.04719005
122	0x3d60db26	0.054896496
123	0x3c02d358	0.007984959
124	0x3a9a8dd6	0.0011791538
125	0x3d3a3a59	0.0454658
126	0x3bbc1815	0.0057401755
127	0x3d367394	0.044543818
128	0x00000000	0.0
129	0x3d75b724	0.05998911
130	0x00000000	0.0
131	0x00000000	0.0
132	0x00000000	0.0
133	0x00000000	0.0
134	0x00000000	0.0
135	0x00000000	0.0
136	0x00000000	0.0
137	0x00000000	0.0
138	0x00000000	0.0
139	0x00000000	0.0
140	0x37845263	1.577399e-05
141	0x3933e090	0.00017154426
142	0x376d8856	1.4158044e-05
143	0x389f0301	7.58227e-05
144	0x362a7d2b	2.5404831e-06
145	0x3620e5f4	2.3975708e-06
146	0x36fe8f24	7.5864536e-06
147	0x38a360cf	7.790478e-05
148	0x00000000	0.0
149	0x38b616c6	8.682678e-05
150	0x37b9d57d	2.2153132e-05
151	0x39af3826	0.00033420435
152	0x39e01ed9	0.00042747593
153	0x397c631b	0.00024069512
154	0x37984b75	1.815495e-05
155	0x3917d997	0.0001448154
156	0x3827256c	3.9850755e-05
157	0x39d1f5b1	0.0004004664
158	0x00000000	0.0
159	0x39f642e2	0.00046970608
160	0x36113b84	2.1641326e-06
161	0x373e38c4	1.1338099e-05
162	0x378e29a5	1.6947111e-05
163	0x37315dd5	1.0571869e-05
164	0x3249eb0e	1.1753185e-08
165	0x000001f4	7e-43
166	0x343a2602	1.7336427e-07
167	0x378cba27	1.6775984e-05
168	0x00000000	0.0
169	0x378e29a5	1.6947111e-05
170	0x000001f4	7e-43
171	0x000001f4	7e-43
172	0x000001f4	7e-43
173	0x000001f4	7e-43
174	0x000001f4	7e-43
175	0x000001f4	7e-43
176	0x000001f4	7e-43
177	0x000001f4	7e-43
178	0x00000000	0.0
179	0x000001f4	7e-43
180	0x000001f4	7e-43
181	0x000001f4	7e-43
182	0x000001f4	7e-43
183	0x000001f4	7e-43
184	0x000001f4	7e-43
185	0x000001f4	7e-43
186	0x000001f4	7e-43
187	0x000001f4	7e-43
188	0x00000000	0.0
189	0x000001f4	7e-43
190	0x000001f4	7e-43
191	0x000001f4	7e-43
192	0x000001f4	7e-43
193	0x000001f4	7e-43
194	0x000001f4	7e-43
195	0x00000000	0.0
196	0x00000000	0.0
197	0x000001f4	7e-43
198	0x00000000	0.0
199	0x000001f4	7e-43
200	0x00000000	0.0
201	0x00000000	0.0
202	0x00000000	0.0
203	0x00000000	0.0
204	0x00000000	0.0
205	0x00000000	0.0
206	0x00000000	0.0
207	0x00000000	0.0
208	0x00000000	0.0
209	0x00000000	0.0
210	0x000001f4	7e-43
211	0x000001f4	7e-43
212	0x000001f4	7e-43
213	0x000001f4	7e-43
214	0x000001f4	7e-43
215	0x000001f4	7e-43
216	0x00000000	0.0
217	0x000001f4	7e-43
218	0x00000000	0.0
219	0x000001f4	7e-43
220	0x33c627e6	9.227351e-08
221	0x350d0c4d	5.2544493e-07
222	0x35424464	7.2370153e-07
223	0x35401090	7.1549675e-07
224	0x30246576	5.9807037e-10
225	0x330cf37a	3.281773e-08
226	0x3548dfe0	7.4831587e-07
227	0x322bc465	9.998165e-09
228	0x00000000	0.0
229	0x3548dfe0	7.4831587e-07
230	0x000001f4	7e-43
231	0x000001f4	7e-43
232	0x000001f4	7e-43
233	0x000001f4	7e-43
234	0x000001f4	7e-43
235	0x000001f4	7e-43
236	0x000001f4	7e-43
237	0x000001f4	7e-43
238	0x00000000	0.0
239	0x000001f4	7e-43
240	0x389bf4b4	7.4365555e-05
241	0x3a2b3988	0.0006531705
242	0x3a2b9266	0.00065449474
243	0x3afe276b	0.001939041
244	0x3797c16c	1.8090672e-05
245	0x398f2857	0.0002730514
246	0x3a06eb70	0.0005146777
247	0x399eb570	0.0003027129
248	0x00000000	0.0
249	0x3a61e585	0.000861727
250	0x000001f4	7e-43
251	0x000001f4	7e-43
252	0x000001f4	7e-43
253	0x000001f4	7e-43
254	0x000001f4	7e-43
255	0x000001f4	7e-43

exp_avg f4 [128]
0	0xb9a54f57	-0.00031530365
1	0x00000004	6e-45
2	0x00000004	6e-45
3	0x00000004	6e-45
4	0x3be4af8d	0.006978935
5	0xbd748af3	-0.059702825
6	0x00000000	0.0
7	0x00000004	6e-45
8	0x00000004	6e-45
9	0x00000004	6e-45
10	0x00000004	6e-45
11	0x00000004	6e-45
12	0x3b30f8cd	0.0027003766
13	0x00000000	0.0
14	0x3a81752e	0.0009876841
15	0x3b9f288b	0.004857128
16	0xb12a41dc	-2.4775693e-09
17	0x00000004	6e-45
18	0x00000004	6e-45
19	0x00000004	6e-45
20	0x00000000	0.0
21	0x00000004	6e-45
22	0x00000004	6e-45
23	0x00000004	6e-45
24	0x3c476686	0.01217044
25	0x00000004	6e-45
26	0x00000000	0.0
27	0x00000000	0.0
28	0x00000000	0.0
29	0x00000000	0.0
30	0x3c10cd35	0.008837988
31	0xbd4c91f6	-0.049943887
32	0xbb1f9317	-0.0024349147
33	0x00000004	6e-45
34	0x00000004	6e-45
35	0xbca9cd74	-0.02072785
36	0xb80e3259	-3.3902328e-05
37	0x00000000	0.0
38	0xbd2d344d	-0.042286206
39	0x00000004	6e-45
40	0x3c131447	0.008977002
41	0x00000004	6e-45
42	0x00000004	6e-45
43	0x00000004	6e-45
44	0x00000004	6e-45
45	0x00000000	0.0
46	0x00000004	6e-45
47	0xbaab523a	-0.001307077
48	0x00000004	6e-45
49	0x00000004	6e-45
50	0xbc319e52	-0.010840969
51	0x00000004	6e-45
52	0x00000004	6e-45
53	0xbbf7a2f6	-0.0075572683
54	0x00000004	6e-45
55	0xbc3d7c87	-0.011565334
56	0xbb9eee7f	-0.0048502083
57	0x00000004	6e-45
58	0x3bcb0f22	0.0061968723
59	0x00000000	0.0
60	0x3d86de6e	0.06585394
61	0x39e329b1	0.00043327876
62	0x00000004	6e-45
63	0xbcddb783	-0.027065044
64	0x00000004	6e-45
65	0xbe354527	-0.17702161
66	0x00000004	6e-45
67	0x00000004	6e-45
68	0x00000004	6e-45
69	0x00000004	6e-45
70	0x3c948812	0.01813129
71	0xb20a89b7	-8.06397e-09
72	0x00000004	6e-45
73	0x3c29a9d3	0.010355431
74	0x00000004	6e-45
75	0xba58fd59	-0.0008277498
76	0x00000004	6e-45
77	0x00000004	6e-45
78	0xbd4b58b4	-0.04964514
79	0x00000004	6e-45
80	0x3c120096	0.0089112725
81	0xbb2ce497	-0.0026381367
82	0x00000004	6e-45
83	0x00000004	6e-45
84	0x00000004	6e-45
85	0x00000004	6e-45
86	0x00000004	6e-45
87	0x00000000	0.0
88	0x00000004	6e-45
89	0x00000004	6e-45
90	0x3d7a9a8c	0.061182544
91	0x00000004	6e-45
92	0x00000004	6e-45
93	0xba928be0	-0.0011180602
94	0x00000004	6e-45
95	0x00000004	6e-45
96	0x00000000	0.0
97	0xbd2e35f3	-0.04253192
98	0x00000004	6e-45
99	0xbc7da5e6	-0.015481448
100	0x00000004	6e-45
101	0xbcea4977	-0.028599484
102	0x3ad9210a	0.0016565633
103	0x00000004	6e-45
104	0x00000004	6e-45
105	0xbc896f11	-0.016776593
106	0x00000004	6e-45
107	0x00000004	6e-45
108	0x00000000	0.0
109	0x00000004	6e-45
110	0x3cc8c2db	0.024506977
111	0xba234124	-0.0006227663
112	0x00000004	6e-45
113	0x00000004	6e-45
114	0xbc2a140b	-0.010380755
115	0xba9121af	-0.001107266
116	0x00000004	6e-45
117	0xbe3ac784	-0.18240172
118	0xbc981a46	-0.018567216
119	0x00000004	6e-45
120	0x00000004	6e-45
121	0x00000004	6e-45
122	0x00000004	6e-45
123	0xbb8d27cf	-0.004307724
124	0x00000000	0.0
125	0x00000004	6e-45
126	0x00000004	6e-45
127	0x00000004	6e-45

exp_avg_sq f4 [128]
0	0x36920e88	4.3528307e-06
1	0x000001f4	7e-43
2	0x000001f4	7e-43
3	0x000001f4	7e-43
4	0x3d7fb061	0.062424067
5	0x3f95bd3b	1.1698374
6	0x00000000	0.0
7	0x000001f4	7e-43
8	0x000001f4	7e-43
9	0x000001f4	7e-43
10	0x000001f4	7e-43
11	0x000001f4	7e-43
12	0x3d75b724	0.05998911
13	0x00000000	0.0
14	0x38b616c6	8.682678e-05
15	0x39f642e2	0.00046970608
16	0x378e29a5	1.6947111e-05
17	0x000001f4	7e-43
18	0x000001f4	7e-43
19	0x000001f4	7e-43
20	0x00000000	0.0
21	0x000001f4	7e-43
22	0x3548dfe0	7.4831587e-07
23	0x000001f4	7e-43
24	0x3a61e586	0.00086172705
25	0x000001f4	7e-43
26	0x00000000	0.0
27	0x00000000	0.0
28	0x00000000	0.0
29	0x00000000	0.0
30	0x3e0f4b99	0.13993682
31	0x3cad627c	0.021165125
32	0x3c4451eb	0.011982421
33	0x000001f4	7e-43
34	0x000001f4	7e-43
35	0x3d924f24	0.07144001
36	0x3584a0eb	9.8816e-07
37	0x00000000	0.0
38	0x3fe73ebf	1.8066024
39	0x000001f4	7e-43
40	0x3de842a9	0.113408394
41	0x000001f4	7e-43
42	0x000001f4	7e-43
43	0x000001f4	7e-43
44	0x000001f4	7e-43
45	0x00000000	0.0
46	0x000001f4	7e-43
47	0x381142c0	3.463286e-05
48	0x000001f4	7e-43
49	0x000001f4	7e-43
50	0x3c96da11	0.018414529
51	0x000001f4	7e-43
52	0x000001f4	7e-43
53	0x3b598df2	0.0033196178
54	0x0addea09	2.136956e-32
55	0x3b182190	0.0023213364
56	0x3bf61d29	0.0075108004
57	0x000001f4	7e-43
58	0x3fd82557	1.6886395
59	0x00000000	0.0
60	0x3d30a34d	0.043124486
61	0x3a35059f	0.00069054397
62	0x000001f4	7e-43
63	0x3dcdbf71	0.1004628
64	0x000001f4	7e-43
65	0x3ea22632	0.31669766
66	0x000001f4	7e-43
67	0x000001f4	7e-43
68	0x000001f4	7e-43
69	0x000001f4	7e-43
70	0x3e7ded50	0.24797559
71	0x391a0da4	0.00014691666
72	0x000001f4	7e-43
73	0x3a9a7f9a	0.0011787296
74	0x000001f4	7e-43
75	0x3da77b8c	0.081778616
76	0x000001f4	7e-43
77	0x32705af2	1.3990517e-08
78	0x3f0e2b61	0.5553494
79	0x000001f4	7e-43
80	0x3b866ee4	0.0041025747
81	0x3a58f138	0.00082756905
82	0x000001f4	7e-43
83	0x000001f4	7e-43
84	0x000001f4	7e-43
85	0x000001f4	7e-43
86	0x000001f4	7e-43
87	0x00000000	0.0
88	0x350fc5f5	5.3559717e-07
89	0x000001f4	7e-43
90	0x3d5900e5	0.05297937
91	0x000001f4	7e-43
92	0x000001f4	7e-43
93	0x3e89b190	0.26893282
94	0x000001f4	7e-43
95	0x000001f4	7e-43
96	0x00000000	0.0
97	0x3db762a7	0.08954363
98	0x000001f4	7e-43
99	0x3c2f9323	0.0107162325
100	0x000001f4	7e-43
101	0x3eb18c8b	0.34677538
102	0x3ce84d63	0.028357213
103	0x000001f4	7e-43
104	0x000001f4	7e-43
105	0x3bf64c33	0.007516408
106	0x000001f4	7e-43
107	0x000001f4	7e-43
108	0x00000000	0.0
109	0x000001f4	7e-43
110	0x3c3f52cd	0.011677456
111	0x3ddfdfdc	0.1093137
112	0x0b2db317	3.345332e-32
113	0x000001f4	7e-43
114	0x3b7f5c9d	0.0038965114
115	0x3c3b6bd6	0.011439284
116	0x000001f4	7e-43
117	0x3eab0500	0.33402252
118	0x3ced01d2	0.028931532
119	0x000001f4	7e-43
120	0x000001f4	7e-43
121	0x000001f4	7e-43
122	0x000001f4	7e-43
123	0x3c117693	0.008878368
124	0x00000000	0.0
125	0x000001f4	7e-43
126	0x000001f4	7e-43
127	0x000001f4	7e-43

exp_avg f4 [128, 128]
0	0x37aaae09	2.034662e-05
1	0x80000004	-6e-45
2	0x00000004	6e-45
3	0x80000004	-6e-45
4	0xb81a32be	-3.676372e-05
5	0x3ada9957	0.0016677779
6	0x00000000	0.0
7	0x00000004	6e-45
8	0x00000004	6e-45
9	0x00000004	6e-45
10	0x80000004	-6e-45
11	0x80000004	-6e-45
12	0x3a492ec0	0.0007674508
13	0x00000000	0.0
14	0xb92d963a	-0.0001655453
15	0x3af74097	0.0018863854
16	0x2d95d996	1.7035966e-11
17	0x80000004	-6e-45
18	0x00000004	6e-45
19	0x00000004	6e-45
20	0x00000000	0.0
21	0x80000004	-6e-45
22	0x80000004	-6e-45
23	0x80000004	-6e-45
24	0xb94ca043	-0.00019514658
25	0x80000004	-6e-45
26	0x00000000	0.0
27	0x00000000	0.0
28	0x00000000	0.0
29	0x00000000	0.0
30	0x39d4bd15	0.00040576668
31	0x39c1a117	0.0003693185
32	0x3a2fc804	0.0006705525
33	0x00000004	6e-45
34	0x80000004	-6e-45
35	0xb80874ab	-3.2533582e-05
36	0x34d02533	3.8770085e-07
37	0x00000000	0.0
38	0xba694be6	-0.00088995544
39	0x80000004	-6e-45
40	0xb93d9ef5	-0.0001808366
41	0x00000004	6e-45
42	0x00000004	6e-45
43	0x00000004	6e-45
44	0x00000004	6e-45
45	0x00000000	0.0
46	0x80000004	-6e-45
47	0x376ea2cc	1.422381e-05
48	0x80000004	-6e-45
49	0x00000004	6e-45
50	0x3b8fd30e	0.0043891734
51	0x80000004	-6e-45
52	0x80000004	-6e-45
53	0x3aeb01fe	0.0017929671
54	0x00000004	6e-45
55	0x3aee391c	0.0018174979
56	0x3acb8d07	0.00155297
57	0x80000004	-6e-45
58	0xb9dc78e7	-0.0004205175
59	0x00000000	0.0
60	0x3b54803d	0.0032425069
61	0x3725a80e	9.873895e-06
62	0x80000004	-6e-45
63	0x3ad2f7fd	0.0016095635
64	0x80000004	-6e-45
65	0xba3063f0	-0.0006728759
66	0x80000004	-6e-45
67	0x00000004	6e-45
68	0x80000004	-6e-45
69	0x00000004	6e-45
70	0xba31bd2d	-0.00067802035
71	0x2e60d847	5.1123796e-11
72	0x80000004	-6e-45
73	0x39232634	0.00015559123
74	0x00000004	6e-45
75	0xbadb3560	-0.0016724281
76	0x00000004	6e-45
77	0x00000004	6e-45
78	0x399aa388	0.0002949501
79	0x00000004	6e-45
80	0xb9eb4050	-0.0004487061
81	0x3ba4d6ae	0.0050304746
82	0x80000004	-6e-45
83	0x00000004	6e-45
84	0x00000004	6e-45
85	0x00000004	6e-45
86	0x80000004	-6e-45
87	0x00000000	0.0
88	0x00000004	6e-45
89	0x00000004	6e-45
90	0x3b3303d3	0.0027315512
91	0x00000004	6e-45
92	0x00000004	6e-45
93	0x37064be4	8.004692e-06
94	0x80000004	-6e-45
95	0x00000004	6e-45
96	0x00000000	0.0
97	0x3ab31419	0.0013662606
98	0x00000004	6e-45
99	0x3a772a24	0.00094285817
100	0x00000004	6e-45
101	0x3b0a9285	0.0021144461
102	0x39550fec	0.00020319194
103	0x00000004	6e-45
104	0x80000004	-6e-45
105	0x3a91591b	0.0011089178
106	0x00000004	6e-45
107	0x00000004	6e-45
108	0x00000000	0.0
109	0x80000004	-6e-45
110	0xba87c403	-0.0010358099
111	0xba13b753	-0.00056349224
112	0x00000004	6e-45
113	0x80000004	-6e-45
114	0xb8991e14	-7.301211e-05
115	0xb9ef0a21	-0.0004559318
116	0x00000004	6e-45
117	0xba133fb5	-0.0005617098
118	0x3aabf7aa	0.0013120074
119	0x80000004	-6e-45
120	0x80000004	-6e-45
121	0x80000004	-6e-45
122	0x00000004	6e-45
123	0x3a83efe4	0.0010066
124	0x00000000	0.0
125	0x00000004	6e-45
126	0x80000004	-6e-45
127	0x80000004	-6e-45
128	0xafacc421	-3.1425976e-10
129	0x00000004	6e-45
130	0x80000004	-6e-45
131	0x80000004	-6e-45
132	0xb94760a8	-0.00019014126
133	0xb8859dc8	-6.371323e-05
134	0x00000000	0.0
135	0x00000004	6e-45
136	0x80000004	-6e-45
137	0x00000004	6e-45
138	0x00000004	6e-45
139	0x80000004	-6e-45
140	0xb8eede90	-0.0001139018
141	0x00000000	0.0
142	0xb0fb5c35	-1.828886e-09
143	0x00000004	6e-45
144	0x80000004	-6e-45
145	0x80000004	-6e-45
146	0x00000004	6e-45
147	0x00000004	6e-45
148	0x00000000	0.0
149	0x80000004	-6e-45
150	0x80000004	-6e-45
151	0x80000004	-6e-45
152	0x8036c193	-5.028558e-39
153	0x00000004	6e-45
154	0x00000000	0.0
155	0x00000000	0.0
156	0x00000000	0.0
157	0x00000000	0.0
158	0x80000004	-6e-45
159	0x00000004	6e-45
160	0xb89bcc5b	-7.42904e-05
161	0x00000000	0.0
162	0x80000004	-6e-45
163	0xb7994867	-1.8272736e-05
164	0xaec91927	-9.14489e-11
165	0x00000000	0.0
166	0xb0d55acd	-1.5523597e-09
167	0x80000004	-6e-45
168	0xafc9b8af	-3.6692913e-10
169	0x00000004	6e-45
170	0x00000004	6e-45
171	0x00000004	6e-45
172	0x00000000	0.0
173	0x00000000	0.0
174	0x80000004	-6e-45
175	0xb001a316	-4.7161686e-10
176	0x80000004	-6e-45
177	0x00000004	6e-45
178	0x00000004	6e-45
179	0x00000000	0.0
180	0x80000004	-6e-45
181	0xafe9cea8	-4.252929e-10
182	0x00000004	6e-45
183	0xb01f35ec	-5.792049e-10
184	0xb73e6a83	-1.1349682e-05
185	0x80000004	-6e-45
186	0x00000004	6e-45
187	0x00000000	0.0
188	0xaf2cb071	-1.5705993e-10
189	0xb75bebf9	-1.3108359e-05
190	0x80000004	-6e-45
191	0xaffd8395	-4.6113927e-10
192	0x00000000	0.0
193	0x00000004	6e-45
194	0x80000004	-6e-45
195	0x00000004	6e-45
196	0x80000004	-6e-45
197	0x00000004	6e-45
198	0x00000004	6e-45
199	0x00000004	6e-45
200	0x00000000	0.0
201	0xb8c165fc	-9.221953e-05
202	0x80000004	-6e-45
203	0xb983c88e	-0.00025135692
204	0x00000004	6e-45
205	0x00000004	6e-45
206	0xafad9986	-3.1577602e-10
207	0x00000004	6e-45
208	0x00000004	6e-45
209	0x80000004	-6e-45
210	0x80000004	-6e-45
211	0x00000004	6e-45
212	0x80000004	-6e-45
213	0x00000004	6e-45
214	0x00000004	6e-45
215	0x00000000	0.0
216	0x80000004	-6e-45
217	0x00000004	6e-45
218	0xb8a7d285	-8.002393e-05
219	0x00000004	6e-45
220	0x00000000	0.0
221	0xb0c858fe	-1.4577208e-09
222	0x00000004	6e-45
223	0x00000004	6e-45
224	0x00000000	0.0
225	0xb128f1f9	-2.4584763e-09
226	0x00000000	0.0
227	0xb0a03cb7	-1.1658788e-09
228	0x00000004	6e-45
229	0x00000004	6e-45
230	0x00000004	6e-45
231	0x00000004	6e-45
232	0x80000004	-6e-45
233	0xb04798bc	-7.2612827e-10
234	0x80000004	-6e-45
235	0x00000004	6e-45
236	0x00000000	0.0
237	0x80000004	-6e-45
238	0xb0abef86	-1.2509964e-09
239	0x00000004	6e-45
240	0x00000004	6e-45
241	0x80000004	-6e-45
242	0x00000004	6e-45
243	0xb8bf9dfc	-9.1370166e-05
244	0x00000004	6e-45
245	0x00000004	6e-45
246	0x00000004	6e-45
247	0x80000004	-6e-45
248	0x00000004	6e-45
249	0x80000004	-6e-45
250	0x00000004	6e-45
251	0xb063946d	-8.2793045e-10
252	0x00000000	0.0
253	0x00000004	6e-45
254	0x80000004	-6e-45
255	0x00000004	6e-45
