trainer/trained_agents/level3/checkpoint_ep400.pth (torch, 227210 bytes, 18 tensors)

fc1.weight f4 [128, 10]
-0.6444208 0.091376625 -0.17589527 0.24202606 0.19586413 0.14715622 0.1053131 0.11356998
0.12519412 -0.18425277 -0.3796842 -0.1254381 0.64873487 0.23970214 -0.011530636 0.169433
-0.24375564 0.14398095 -0.589471 0.029883936 0.26912147 0.03496163 0.06705984 -0.12589815
-0.36192572 0.007891904 0.18704006 -0.1912523 -0.034286037 -0.11658275 0.11470542 0.11123817
-0.49494785 -0.15310246 -0.33843842 -0.1898701 -0.3135309 -0.18683021 -0.09974621 -0.20732756
1.2484407 -0.093053766 0.48168087 0.4477252 -0.0973322 -0.67104083 0.115930766 -0.055313732
0.17195188 0.5675694 -0.14533491 -0.14929155 0.83847857 -0.16896154 0.30994493 0.3954407
0.30265445 -0.18756798 -0.057874527 -0.3542423 0.27967143 0.06513277 -0.69330144 -0.18024532
-0.007574854 0.08611308 -0.27526322 0.14508554 0.32764342 -0.30527455 -0.09845692 -0.29358026
-0.30639133 -0.25585914 -0.1312262 -0.1990287 -0.16034436 -0.08240266 -0.30951416 0.013045788
-0.31819594 -0.34738925 -0.22532153 -0.46219242 0.10411159 -0.45242843 0.15587349 0.10592673
0.27939436 -0.7015021 -1.7389326 -0.19631746 0.272956 0.078917906 0.27137715 0.03981559
0.20854637 0.21765317 0.1393596 0.010609357 0.38807517 0.020237425 -0.6131229 0.1853162
-0.026510566 -0.44611573 0.09773704 -0.04536222 -0.27768466 0.3444481 -0.97720075 0.07932736
0.29533523 -0.406443 0.25192818 0.37758422 0.19658804 0.042772476 -0.21527167 -0.08387945
-1.8299916 -0.2610952 -0.47118852 -0.4298421 -0.037286654 -0.10243658 0.15558356 -0.01203102
0.022013595 0.287104 -0.6721616 0.16956691 -0.0463501 -0.2734364 -0.06805082 0.09327703
0.21985804 0.1847426 -0.56089 -0.2401711 -0.15784179 -0.3446549 -0.114113465 -0.3625638
-0.04600287 -0.19475877 -0.27279198 -0.2904319 0.11222181 -0.39817816 0.4090008 0.18557304
-0.30402452 0.7247844 -0.30637503 0.24480735 -0.17404276 -0.06669115 -0.2678517 -0.2670054
-0.68316 0.21064319 0.52761495 -0.043217525 0.38185868 -0.017446589 -0.10057437 0.20573102
0.27935222 -0.37763906 1.6028537 0.26535782 0.09146276 -0.09676149 0.043430932 0.11872791
-0.30312133 -0.13933189 -0.16856447 -1.3072925 1.6023321 0.14569077 -0.0060069747 -0.143785
-0.08907038 0.27942696 0.23866658 0.24049374 -0.37350485 -0.5909723 -0.12720917 -0.135894
-0.07572415 -0.0732788 -0.29043323 -0.08429749 0.29175255 -0.047385156 0.1668294 0.21618699
-13.649681 -0.1640273 -0.104784004 -0.09755243 -0.11447106 0.11647579 -0.13461494 0.15983349
-0.10975916 0.6132922 -0.7082054 0.31911016 0.53960884 0.0355434 0.0039267866 -0.04253233
0.27635768 -0.21604097 0.01911936 -0.094419636 -0.014117282 -0.35631812 -0.044361573 -0.39412856
-0.32395434 0.124076724 -0.17054 -0.103590555 -0.004900863 -0.32811165 1.3988559 0.23586498
-0.16360506 0.34449673 -0.444515 -0.26859272 0.00465471 0.006854357 0.066002764 -0.03188607
-0.6901574 -0.18202639 -0.22338083 0.37049577 -0.040632103 0.36204708 0.07331707 -0.0613271
0.56198114 0.14341027 -0.17606296 0.25175375 -0.16892509 0.011206159 -0.0828871 -0.2802354
00000000: c3f8 24bf ab23 bb3d e41d 34be aed5 773e
00000010: 9b90 483e 1fb0 163e 65ae d73d 6197 e83d
00000020: e332 003e c2ac 3cbe f865 c2be d872 00be
00000030: 7d13 263f 7a74 753e feea 3cbc d87f 2d3e
00000040: 149b 79be be6f 133e 92e7 16bf 28cf f43c
00000050: 4aca 893e ed33 0f3d ab56 893d 72eb 00be
00000060: 544e b9be 0b4d 013c 6e87 3f3e a5d7 43be
00000070: 846f 0cbd f0c2 eebd adea ea3d d6d0 e33d
00000080: ce69 fdbe e4c6 1cbe cd47 adbe 4f6d 42be
00000090: 1f87 a0be 6b50 3fbe be47 ccbd ad4d 54be
000000a0: e8cc 9f3f f992 bebd e09e f63e 3d3c e53e
000000b0: 1b56 c7bd 55c9 2bbf 1c6d ed3d a790 62bd
000000c0: 2714 303e 3a4c 113f add2 14be e2df 18be
000000d0: 88a6 563f 4104 2dbe 1ab1 9e3e 3477 ca3e
000000e0: 86f5 9a3e d211 40be d70d 6dbd 3f5f b5be
000000f0: 1831 8f3e 5464 853d 347c 31bf 3b92 38be
00000100: 7b36 f8bb 0e5c b03d 4def 8cbe 4e91 143e
00000110: e1c0 a73e f24c 9cbe c8a3 c9bd 2750 96be
00000120: 53df 9cbe f8ff 82be 2960 06be 2ece 4bbe
00000130: 5031 24be bac2 a8bd a478 9ebe 00be 553c
00000140: 94ea a2be 01dd b1be b0ba 66be 7ca4 ecbe
00000150: 7538 d53d b3a4 e7be 4d9d 1f3e 1df0 d83d
00000160: c70c 8f3e a495 33bf 5895 debf 7207 49be
00000170: e4c0 8b3e b69f a13d f2f1 8a3e ac15 233d
00000180: 2e8d 553e 79e0 5e3e 48b4 0e3e ded2 2d3c
00000190: cab1 c63e f5c8 a53c 9ff5 1cbf 88c3 3d3e
000001a0: b02c d9bc 4869 e4be 5b2a c83d bccd 39bd
000001b0: af2c 8ebe 805b b03e d429 7abf 6276 a23d
000001c0: 2e36 973e 4c19 d0be bbfc 803e b852 c13e
000001d0: 604e 493e 3132 2f3d 2d70 5cbe fdc8 abbd
000001e0: 2a3d eabf 45ae 85be 9f3f f1be 4414 dcbe
000001f0: e4b9 18bd 45ca d1bd 4c51 1f3e c11d 45bc
00000200: db55 b43c 4cff 923e c812 2cbf f3a2 2d3e
00000210: 9ad9 3dbd dbff 8bbe 3a5e 8bbd 0708 bf3d
00000220: 7722 613e 2a2d 3d3e 7d96 0fbf 6aef 75be
00000230: 47a1 21be 9b76 b0be 52b4 e9bd f6a1 b9be
00000240: 816d 3cbd d86e 47be 64ab 8bbe 7db3 94be
00000250: 8cd4 e53d 02de cbbe 8e68 d13e dc06 3e3e
00000260: 1aa9 9bbe 788b 393f 30dd 9cbe c7ae 7a3e
00000270: 4438 32be 5f95 88bd dc23 89be efb4 88be
00000280: 93e3 2ebf d9b2 573e c611 073f dc04 31bd
00000290: fb82 c33e 26ec 8ebc eff9 cdbd 27ab 523e
000002a0: 4107 8f3e e859 c1be 4f2a cd3f fbdc 873e
000002b0: d450 bb3d e32a c6bd a2e4 313d 9e27 f33d
000002c0: b832 9bbe 05ad 0ebe 2a9c 2cbe 5c55 a7bf
000002d0: 3819 cd3f f62f 153e 28d6 c4bb 603c 13be
000002e0: 886a b6bd 0d11 8f3e 0365 743e fe43 763e
000002f0: 073c bfbe f649 17bf 1f43 02be cc27 0bbe
00000300: 4315 9bbd 3213 96bd aab3 94be 2aa4 acbd
00000310: 9760 953e f016 42bd 54d5 2a3e 1f60 5d3e
00000320: 1865 5ac1 c6f6 27be ff98 d6bd 92c9 c7bd
00000330: ce6f eabd dc8a ee3d 80d8 09be 64ab 233e
00000340: 69c9 e0bd b800 1d3f f34c 35bf 6862 a33e
00000350: ce23 0a3f f595 113d 46ac 803b 6136 2ebd
00000360: c17e 8d3e d839 5dbe 34a0 9c3c 155f c1bd
00000370: 2c4c 67bc 546f b6be 7bb4 35bd 38cb c9be
00000380: 58dd a5be f01b fe3d 0aa2 2ebe 4927 d4bd
00000390: 6b97 a0bb 40fe a7be b60d b33f 9786 713e
000003a0: 1688 27be e061 b03e 7897 e3be fc84 89be
000003b0: 8a86 983b 849a e03b 752c 873d f89a 02bd
000003c0: 28ae 30bf 2065 3abe f2bd 64be 9fb1 bd3e
000003d0: d96d 26bd 3c5e b93e 4327 963d 2032 7bbd
000003e0: ffdd 0f3f 24da 123e d949 34be dee5 803e
000003f0: b3fa 2cbe 0a9a 373c b6c0 a9bd 047b 8fbe

fc1.bias f4 [128]
0.076401986 0.044598024 0.036678396 0.046714064 -0.012773136 0.08572546 -0.18920876 -0.035234094
-0.45941067 -0.0931329 -0.37837172 0.27174744 -0.13232574 0.059019394 -0.21616228 -0.011690784
-0.20864603 0.11978933 -0.11962814 -0.07399384 -0.32429644 0.25146267 -0.2076246 -0.1950348
-0.19900829 -0.3068483 -0.45827654 -0.054625418 0.061690032 -0.22426549 0.11947158 0.0584535
-0.11226243 -0.20470965 -0.4214487 0.29724085 -0.18774125 0.31444824 0.15581568 -0.1971113
-0.36495656 -0.018687427 0.044750564 -0.27348217 -0.120681085 -0.06295223 -0.22328933 0.20756403
-0.30492812 0.13189499 -0.2744077 -0.2480248 -0.06710056 0.14900126 0.23558061 0.2366699
-0.046838738 -0.22921725 -0.21828088 -0.25226685 0.10562558 -0.28684017 0.20858656 -0.028985295
-0.14823681 -0.03607932 -0.17263599 0.0015199232 -0.15668271 0.24364378 0.2969206 0.15273917
-0.1771909 -0.0925166 -0.2385798 -0.032321125 0.13578734 -0.10630235 -0.36929858 -0.37168834
-0.05763973 -0.10625801 0.09764314 -0.023919512 -0.14245005 0.15222195 0.051467713 0.23753
0.22090966 -0.15189688 0.01742522 -0.16266915 -0.3143697 0.22997236 -0.23229156 -0.1877354
-0.019221073 -0.016951084 0.0012438974 -0.20062412 -0.021230305 0.12438733 0.1373363 0.12809101
0.28276926 0.08981472 -0.2476698 -0.263786 0.10145956 0.014221434 0.16588192 -0.15464811
0.19837226 -0.06735785 0.24944067 0.16534565 0.16647461 0.29129067 0.17336588 -0.23566046
0.09416367 0.118994415 -0.015197672 -0.16824436 -0.21676189 -0.29145423 -0.11299368 0.021662513
00000000: a578 9c3d 6bac 363d 163c 163d 3f57 3f3d
00000010: 6a46 51bc d490 af3d f1bf 41be a051 10bd
00000020: e037 ebbe 76bc bebd f0b9 c1be 7b22 8b3e
00000030: 6680 07be 52be 713d a559 5dbe b48a 3fbc
00000040: 4ea7 55be 1c54 f53d 99ff f4bd 158a 97bd
00000050: 2f0a a6be b7bf 803e 8b9b 54be 34b7 47be
00000060: d4c8 4bbe 381b 9dbe 39a3 eabe e7be 5fbd
00000070: b0ae 7c3d daa5 65be 84ad f43d f06c 6f3d
00000080: d8e9 e5bd 689f 51be 20c8 d7be f42f 983e
00000090: 3e3f 40be 5cff a03e 258e 1f3e 8bd7 49be
000000a0: 96db babe 6016 99bc 5e4c 373d db05 8cbe
000000b0: a527 f7bd 19ed 80bd f5a5 64be aa8b 543e
000000c0: 8a1f 9cbe 7b0f 073e 2b7f 8cbe 37fa 7dbe
000000d0: 056c 89bd c993 183e 0b3c 713e 9859 723e
000000e0: fad9 3fbd edb7 6abe 0685 5fbe 1f29 81be
000000f0: 3952 d83d b7dc 92be b797 553e 9272 edbc
00000100: 64cb 17be e9c7 13bd 7dc7 30be 2938 c73a
00000110: 6f71 20be c17d 793e fa05 983e a867 1c3e
00000120: 8871 35be 5879 bdbd 434e 74be 2863 04bd
00000130: d60b 0b3e 0cb5 d9bd b414 bdbe ef4d bebe
00000140: a317 6cbd cd9d d9bd 20f9 c73d daf2 c3bc
00000150: 6dde 11be 12e0 1b3e cfcf 523d 103b 733e
00000160: 2436 623e db8a 1bbe 56bf 8e3c be92 26be
00000170: 11f5 a0be e07d 6b3e d7dd 6dbe b53d 40be
00000180: 8375 9dbc 00dd 8abc 450a a33a 6970 4dbe
00000190: 2deb adbc c9be fe3d e3a1 0c3e 4a2a 033e
000001a0: 22c7 903e c8f0 b73d 279d 7dbe f50e 87be
000001b0: 08ca cf3d 0401 693c f3dc 293e 135c 1ebe
000001c0: 1922 4b3e eaf2 89bd 606d 7f3e 5f50 293e
000001d0: 5278 2a3e 0d24 953e d386 313e fa50 71be
000001e0: e2d8 c03d 58b3 f33d a8ff 78bc 4048 2cbe
000001f0: d4f6 5dbe 7d39 95be 3b69 e7bd 9575 b13c

fc2.weight f4 [128, 128]
-0.027236843 -0.004010601 0.04734504 0.015402728 -0.017043956 -1.1898277 -0.013297459 0.06468114
0.07741574 0.027229004 -0.03127245 0.027277634 -0.16184095 -0.054711077 -0.18765704 -0.046121027
0.023572864 0.059606764 -0.009455927 0.028555727 -1.6412566 -0.0114959115 -0.1065545 0.00026786566
0.058592554 -0.049167123 -0.0685668 0.015313683 -0.05863897 0.18426375 -0.05413016 0.09318787
-0.12637046 -0.019700743 -0.09073525 0.13642457 -0.09262843 0.07225313 -0.08389653 -0.071574606
-0.34748465 0.023840452 0.14939426 -0.09968702 -0.016512632 -0.18120724 0.04361439 0.014564759
0.08694417 0.059711568 0.0012413076 -0.02440519 0.0811477 -0.1042815 0.0012512187 0.060391154
0.08297589 -0.036160823 -0.050216958 -0.04693981 -0.602809 0.019797966 0.104625836 -0.008722349
-0.070628904 0.045674738 -0.10276445 -0.07773702 -0.01899554 0.043093868 -0.028028596 -0.5847058
-0.0063345963 0.02348494 -0.315329 -0.037152827 -0.0035199656 -0.071086146 0.018207317 -0.076031335
-0.010748947 -0.056696314 0.059149925 -0.08589405 0.055384424 -0.008053941 -0.15600313 -0.07975489
0.060754344 -0.08563527 -0.046705306 -0.13248429 0.029480508 -0.08039252 -0.021164756 -0.075354844
-0.21154249 0.067555495 -0.079449706 -0.49184814 -0.021318339 -0.08415714 0.10096273 -0.15225463
0.01581453 -0.13549276 0.03927814 0.028237766 0.0052364757 -0.21333319 0.14030163 -0.6086553
0.039060257 0.0712953 -0.12792881 -0.1503705 -1.3943055 0.19984043 -0.06793784 0.11644906
-1.4665225 0.008252752 0.0022312135 -0.106553055 -0.00089909765 0.034433838 -0.0051236977 0.037528157
-0.054209504 -0.033898175 0.081223816 -1.1431427 -0.123778164 0.09326438 -0.062161874 -0.025960583
0.13151783 0.016263181 -0.13745028 -0.010186455 0.28366673 -0.17380337 -0.19570284 -0.18335916
0.16661365 -0.5666291 -0.023555696 -0.09479297 -0.00037221034 0.027802303 -0.25987783 0.35609868
-0.04866481 0.0498092 -0.20233051 -0.40507993 -2.3692584 -0.0044287266 0.16131912 -0.10335744
-0.10950849 0.08270651 0.2009988 -0.8232006 -0.50191456 -0.37842184 -0.016235515 -0.10388496
-0.03347335 0.22926538 0.02252205 0.02698808 -0.036433216 -0.7229009 0.08590024 -0.2533251
-0.0749179 0.29886144 0.018280944 -0.121591106 -0.2392134 -1.1128595 -0.4004834 -0.071019195
0.003324006 -0.041477848 0.20486556 0.06635975 0.059861984 -0.08770628 -0.356584 -0.3400429
-0.06971859 -0.03623331 0.057940874 -0.18904552 0.07002938 -0.6795489 0.08400922 -0.18633921
0.15063408 0.19242099 0.27268538 0.055155925 0.02196423 -0.042475425 0.05813541 -0.1420706
-0.19870493 -0.014930436 0.005853594 -0.09719223 0.3735164 0.27649155 -0.006047086 -0.28256375
-0.5489737 -0.17114955 0.06594024 -0.07894361 0.07395416 -0.9650973 -0.24257888 -0.06647208
-0.052525233 -0.024526326 0.019756293 0.22230645 0.019152518 0.01756981 -0.09696987 -0.21558958
-0.03149355 0.08581534 -0.09353948 -0.057293307 0.08444636 -0.07134904 -0.24965337 0.085884444
-0.01637205 0.039721645 -0.054780114 -0.0077095875 0.5131136 -1.5496793 -0.37218636 0.13804516
-0.46685869 -0.00035896734 -0.972434 -1.6612188 0.0106676305 -0.042690594 0.05161537 0.17247246
00000000: cd1f dfbc 5c6b 83bb dfec 413d b95b 7c3c
00000010: c49f 8bbc 464c 98bf 96dd 59bc 8c77 843d
00000020: 258c 9e3d 5c0f df3c 8a17 00bd 5875 df3c
00000030: a2b9 25be b918 60bd 2b29 40be 67e9 3cbd
00000040: e11b c13c 3926 743d 08ed 1abc b3ed e93c
00000050: b214 d2bf 5959 3cbc 3f39 dabd 5270 8c39
00000060: bffe 6f3d 7763 49bd c06c 8cbd 3ee6 7a3c
00000070: 6b2f 70bd a3af 3c3e 96b7 5dbd 48d9 be3d
00000080: 4267 01be 7463 a1bc 67d3 b9bd e2b2 0b3e
00000090: f9b3 bdbd 73f9 933d f2d1 abbd b595 92bd
000000a0: 82e9 b1be 0d4d c33c cffa 183e b528 ccbd
000000b0: 8045 87bc 648e 39be 01a5 323d 07a1 6e3c
000000c0: c90f b23d 1e94 743d 5fb3 a23a 65ed c7bc
000000d0: c430 a63d 8a91 d5bd efff a33a b75c 773d
000000e0: 43ef a93d 5f1d 14bd 4cb0 4dbd f543 40bd
000000f0: b151 1abf 582f a23c 1246 d63d 2fe8 0ebc
00000100: e3a5 90bd 6f15 3b3d 2b76 d2bd 9634 9fbd
00000110: 899c 9bbc 3283 303d 3a9c e5bc 48af 15bf
00000120: 7292 cfbb 7d63 c03c cd72 a1be 902d 18bd
00000130: 39af 66bb 9d95 91bd 8327 953c 51b6 9bbd
00000140: 5a1c 30bc 653a 68bd 3147 723d 38e9 afbd
00000150: c7da 623d adf4 03bc 49bf 1fbe 8856 a3bd
00000160: 8cd9 783d 8b61 afbd 104e 3fbd f6a9 07be
00000170: 1b81 f13c d5a4 a4bd b661 adbc a453 9abd
00000180: 989e 58be 895a 8a3d 87b6 a2bd 85d3 fbbe
00000190: cca3 aebc 945a acbd 8cc5 ce3d a3e8 1bbe
000001a0: 798d 813c 9dbe 0abe 1de2 203d e352 e73c
000001b0: be96 ab3b 0474 5abe 3bab 0f3e d5d0 1bbf
000001c0: a6fd 1f3d 4503 923d c5ff 02be b9fa 19be
000001d0: 9a78 b2bf f8a2 4c3e ff22 8bbd d87c ee3d
000001e0: 02b7 bbbf 8d36 073c 8d39 123b 7d38 dabd
000001f0: 6cb1 6bba 7f0a 0d3d b1e4 a7bb 20b7 193d
00000200: c90a 5ebd d0d8 0abd ac58 a63d 8052 92bf
00000210: 687f fdbd 6501 bf3d 739d 7ebd 4aab d4bc
00000220: 9cac 063e 5d3a 853c c4bf 0cbe 17e5 26bc
00000230: c43c 913e 83f9 31be 5366 48be 81c2 3bbe
00000240: c59c 2a3e 9b0e 11bf e0f7 c0bc d122 c2bd
00000250: 3a25 c3b9 a8c1 e33c b50e 85be 9152 b63e
00000260: c054 47bd bb04 4c3d bb2f 4fbe a366 cfbe
00000270: eea1 17c0 da1e 91bb d730 253e 11ad d3bd
00000280: fd45 e0bd 0862 a93d a1d2 4d3e 46bd 52bf
00000290: 797d 00bf 82c0 c1be 5800 85bc a3c1 d4bd
000002a0: 5a1b 09bd 8bc4 6a3e 2a80 b83c 1b16 dd3c
000002b0: ff3a 15bd 0910 39bf 77ec af3d d4b3 81be
000002c0: 8e6e 99bd 5e04 993e ebc1 953c c204 f9bd
000002d0: 5cf4 74be 2e72 8ebf 290c cdbe 8372 91bd
000002e0: 91d7 593b ade4 29bd 47c8 513e 9fe7 873d
000002f0: d731 753d 5a9f b3bd 2e92 b6be 1a1a aebe
00000300: 9fc8 8ebd 6169 14bd 6953 6d3d 2695 41be
00000310: 906b 8f3d ebf6 2dbf 070d ac3d b5cf 3ebe
00000320: d23f 1a3e 020a 453e 6b9d 8b3e 2eeb 613d
00000330: 54ee b33c b6fa 2dbd 651f 6e3d f57a 11be
00000340: 4e79 4bbe ca9e 74bc 81cf bf3b b80c c7bd
00000350: 8b3d bf3e 4d90 8d3e a226 c6bb 32ac 90be
00000360: 8a89 0cbf d441 2fbe ad0b 873d 30ad a1bd
00000370: 4775 973d 9e10 77bf 9966 78be 8422 88bd
00000380: b324 57bd 6feb c8bc f3d7 a13c 4da4 633e
00000390: bee5 9c3c 90ee 8f3c 2498 c6bd 84c3 5cbe
000003a0: 61ff 00bd f4bf af3d a091 bfbd 63ac 6abd
000003b0: 37f2 ac3d 721f 92bd 22a5 7fbe 2fe4 af3d
000003c0: ad1e 86bc 2ab3 223d 1d61 60bd b5a0 fcbb
000003d0: 6a5b 033f e45b c6bf 368f bebe b65b 0d3e
000003e0: 1a08 efbe c833 bcb9 6ff1 78bf d1a2 d4bf
000003f0: 49c7 2e3c 55dc 2ebd a36a 533d 9f9c 303e

fc2.bias f4 [128]
-0.10023965 0.06422246 -0.080396906 0.46521592 -0.0065311207 0.35426223 0.25385922 -0.0041479585
0.33037624 -0.058960676 -0.06960664 -0.09511439 -0.11415461 -0.10996368 0.03477856 0.41951072
0.012116798 -0.09678783 -0.09969031 -0.05893955 -0.12971292 -0.0022960373 -0.03036764 0.47837877
-0.0410314 0.08531325 -0.11799006 0.21139495 0.02677762 -0.06094063 0.37811393 0.11276308
-0.14961286 -0.015292992 0.052938573 0.19528419 -0.12857632 -0.054546423 0.08827008 0.0031276005
-0.10335847 -0.116155736 0.12579668 0.099133916 0.21711583 0.2825051 -0.06536338 0.0812581
0.3634227 0.052085064 -0.11462947 0.08621536 0.013200957 -0.10127833 -0.0618363 0.03819424
-0.05102448 -0.07384834 -0.097152114 0.34029493 0.15111783 -0.044352774 0.3055883 0.02925964
-0.13535927 0.07844735 0.1124012 0.16636857 0.0072412393 -0.05361192 -0.07088867 -0.056448918
-0.12356342 0.3513562 0.42226797 0.052789375 -0.010521341 -0.010521858 0.31934056 -0.026573366
-0.07493428 0.14958173 -0.07116893 0.11074058 0.025270922 -0.12593068 -0.041291144 0.29584828
-0.0013898567 -0.09840413 0.18076295 0.035587683 0.0050251307 -0.0773971 0.15167384 0.28615448
0.009659873 -0.12195201 -0.02960126 0.17243735 0.21151417 0.05981343 0.00012083083 0.22867921
-0.0425654 0.08200684 0.29823232 -0.091422446 0.38271672 -0.06672367 0.103733666 0.20322578
-0.055601764 0.01959723 0.08387667 -0.10311201 -0.04006825 -0.043587584 -0.0042111026 -0.08001286
0.21765038 0.17112228 -0.04100712 -0.04546564 -0.07058975 0.07084676 -0.09996562 0.033718187
00000000: 724a cdbd 1187 833d 22a7 a4bd c830 ee3e
00000010: 0303 d6bb dc61 b53e d6f9 813e 99eb 87bb
00000020: 1327 a93e c080 71bd ed8d 8ebd 55cb c2bd
00000030: e4c9 e9bd a334 e1bd f773 0e3d 1cca d63e
00000040: 8985 463c b338 c6bd 6f2a ccbd 996a 71bd
00000050: 77d3 04be 1d79 16bb 8fc5 f8bc 10ee f43e
00000060: 8b10 28bd b7b8 ae3d c6a4 f1bd eb77 583e
00000070: bd5c db3c e29c 79bd 2698 c13e 54f0 e63d
00000080: 1d34 19be 758f 7abc 1ed6 583d 94f8 473e
00000090: 83a9 03be 126c 5fbd f2c6 b43d 6ef8 4c3b
000000a0: 9bad d3bd 0fe3 edbd d8d0 003e b906 cb3d
000000b0: 9d53 5e3e 82a4 903e 3cdd 85bd a66a a63d
000000c0: 8a12 ba3e 2657 553d dbc2 eabd ae91 b03d
000000d0: d448 583c 036b cfbd 0f48 7dbd 9071 1c3d
000000e0: 0cff 50bd cc3d 97bd b0f7 c6bd 233b ae3e
000000f0: a2be 1a3e 41ab 35bd 1276 9c3e eab1 ef3c
00000100: 9f9b 0abe 01a9 a03d 9a32 e63d 865c 2a3e
00000110: eb47 ed3b 2c98 5bbd 142e 91bd fb36 67bd
00000120: d10e fdbd f6e4 b33e 8233 d83e ac39 583d
00000130: b461 2cbc df63 2cbc 9b80 a33e 63b0 d9bc
00000140: 2577 99bd f42b 193e 04c1 91bd f5cb e23d
00000150: f704 cf3c f9f3 00be e720 29bd 6d79 973e
00000160: da2b b6ba 1b88 c9bd ec19 393e 64c4 113d
00000170: daa9 a43b 5f82 9ebd 6350 1b3e d782 923e
00000180: 7244 1e3c fac1 f9bd 577e f2bc 6b93 303e
00000190: 2c97 583e edfe 743d 8f66 fd38 e22a 6a3e
000001a0: 0f59 2ebd 34f3 a73d e8b1 983e b13b bbbd
000001b0: 72f3 c33e 6ba6 88bd 5172 d43d 6b1a 503e
000001c0: adbe 63bd 5f8a a03c 88c7 ab3d 642c d3bd
000001d0: 9b1e 24bd e588 32bd 4afd 89bb c8dd a3bd
000001e0: bedf 5e3e ae3a 2f3e 15f7 27bd 2e3a 3abd
000001f0: 5c91 90bd 1b18 913d c6ba ccbd 151c 0a3d

fc3.weight f4 [3, 128]
-0.052792028 0.18258035 0.05784418 0.2504599 0.048919033 0.22876708 0.15164946 -0.18737349
0.12412938 -0.012752467 0.0496326 0.008033892 0.076034956 0.057246324 0.28084463 0.32164216
0.06936431 0.10881268 -0.088333696 -0.07910787 -6.0006136e-05 0.012853776 -0.19493859 0.41201764
0.037582118 0.6488446 -0.012756722 -0.05841946 -0.03326972 0.08272605 0.15227164 -0.13110812
1.79927 0.0016414046 1.1696543 0.012466225 -0.40492144 -0.012706374 -0.100094795 0.05234972
-0.037905537 0.017140355 -0.36339498 -0.6132057 -0.45073944 0.40848964 -0.031882994 0.4841668
0.16567616 0.031177523 0.01305291 0.39040688 -0.08826473 -0.042412713 -0.12994443 0.06298001
0.0023906475 -0.29870343 -0.025827441 0.21402434 0.04305161 -1.0189785 0.36966684 0.015623815
0.06850927 -0.40050608 -0.35929316 0.4241297 -0.37611514 -0.013088886 -0.07403409 0.03470871
-0.01705869 0.4036983 0.37793273 0.053838063 0.044574726 0.050395582 0.4089853 0.036658507
-0.23390889 0.07240842 0.27963474 -0.013906429 0.008818569 -0.044887237 -0.0021308053 0.27031437
0.014236055 0.06574964 0.37178153 -0.035164535 -0.061756928 0.07470298 -0.020148996 0.008556386
0.036594402 -0.015653143 0.061119355 0.45922166 0.17854077 0.37976342 -0.0076539903 -0.04033687
0.034671564 -0.28781143 -0.19439287 -0.03363505 0.24725209 0.013823675 0.11152162 0.3583108
-0.3921176 -0.06408284 0.528665 -0.0374097 -0.20685473 0.0687442 -0.0055649 -0.0768267
-0.45545936 0.08780114 -0.09369584 -0.105759464 -0.03781573 -0.34513906 -0.046874173 -0.04666274
0.005043607 0.21651974 -0.02819729 0.33358788 -0.04384075 0.2738969 0.28510946 0.109860875
0.18369661 -0.015911356 -0.05578472 0.0029946493 0.044340592 -0.03286298 -0.14646874 0.30712223
0.056216873 -0.80046326 -0.0037446853 -0.06597682 -0.04459054 0.022454847 0.2625697 0.40500996
-0.042607386 0.66671264 0.024023721 0.13633439 0.039985985 0.057451032 0.24910684 0.18286368
1.5023246 0.062688455 0.12749045 0.12709044 -0.58036995 -0.10713738 -0.3151604 0.04965298
0.0019949062 0.06730793 -0.22712289 0.10441665 -0.27150154 0.3766433 -0.005126321 -0.05798257
0.30980885 0.030509098 0.01513753 0.09412807 0.056451123 0.0014205828 0.11145967 0.041929428
-0.075808346 -0.45001993 0.085814424 0.28824708 0.056891434 0.5540468 0.4115742 -0.061560825
0.074524045 -0.11298749 0.09320193 0.35397935 -0.6125735 -0.03712737 -0.0017546372 -0.023126582
-0.0129834255 0.29184175 0.29670307 -0.039170098 -0.00969779 0.008631553 0.43593082 -0.027785772
-0.6264945 0.5599939 -0.20960169 0.21271801 0.0154508455 -0.051457882 0.27861175 0.29989588
-0.06999644 0.02347462 0.4558259 -0.020304423 0.034926 0.056727614 0.09693035 0.45193455
-0.07152749 -0.042424586 0.065828584 0.34986472 0.15716577 -0.03429 0.017404113 0.090727724
0.020211607 -0.45477808 -0.44941562 -0.062165275 0.26522413 -0.016095586 0.038763843 0.19318733
-0.004473108 0.06627105 0.02113596 0.05518568 0.079295315 0.0037785196 -0.026294228 0.11734654
-0.33081746 0.13788155 0.022397121 0.13088891 -0.010743379 -0.21323994 0.022590425 -0.42267457
00000000: 743c 58bd 58f6 3a3e 05ee 6c3d 483c 803e
00000010: 535f 483d eb41 6a3e ff49 1b3e d6de 3fbe
00000020: 8b37 fe3d b9ef 50bc 8e4b 4b3d 96a0 033c
00000030: 37b8 9b3d 1f7b 6a3d deca 8f3e 48ae a43e
00000040: e00e 8e3d 2fd9 de3d 4ce8 b4bd 4f03 a2bd
00000050: 19af 7bb8 a598 523c fb9d 47be faf3 d23e
00000060: b5ef 193d ae1a 263f 9201 51bc 3e49 6fbd
00000070: d445 08bd 466c a93d 19ed 1b3e 3541 06be
00000080: 7b4e e63f 6624 d73a 3bb7 953f 233f 4c3c
00000090: dd51 cfbe 652e 50bc 80fe ccbd a96c 563d
000000a0: d642 1bbd ee69 8c3c e80e babe 0cfb 1cbf
000000b0: 52c7 e6be 8e25 d13e be97 02bd b6e4 f73e
000000c0: 03a7 293e 0168 ff3c dfdb 553c 69e3 c73e
000000d0: 24c4 b4bd f4b8 2dbd 2710 05be aafb 803d
000000e0: 69ac 1c3b a8ef 98be 1294 d3bc 3229 5b3e
000000f0: e356 303d e36d 82bf f944 bd3e 08fb 7f3c
00000100: 974e 8c3d 220f cdbe 46f5 b7be 8727 d93e
00000110: 2a92 c0be c472 56bc 2f9f 97bd b82a 0e3d
00000120: aabe 8bbc 8bb1 ce3e 6680 c13e 4d85 5c3d
00000130: fd93 363d 996b 4e3d 8566 d13e 3b27 163d
00000140: d085 6fbe de4a 943d 492c 8f3e cad7 63bc
00000150: c27b 103c aedb 37bd fba4 0bbb a566 8a3e
00000160: 583e 693c bfa7 863d 265a be3e b008 10bd
00000170: d5f4 7cbd e0fd 983d 820f a5bc 1630 0c3c
00000180: 03e4 153d 053b 80bc 4a58 7a3d 1a1f eb3e
00000190: 64d3 363e 5a70 c23e 53ce fabb 4638 25bd
000001a0: c503 0e3d 055c 93be ed0e 47be e8c4 09bd
000001b0: a72f 7d3e b27c 623c 7265 e43d 8374 b73e
000001c0: a3c3 c8be dd3d 83bd 9756 073f ea3a 19bd
000001d0: bad1 53be c2c9 8c3d c459 b6bb 5157 9dbd
000001e0: f831 e9be 16d1 b33d 9be3 bfbd 6b98 d8bd
000001f0: abe4 1abd 11b6 b0be 22ff 3fbd 6e21 3fbd
00000200: d844 a53b 5ab7 5d3e 01fe e6bc 08cc aa3e
00000210: 5c92 33bd 373c 8c3e def9 913e bdfe e03d
00000220: f71a 3c3e 8858 82bc 857e 64bd e141 443b
00000230: 7b9e 353d 559b 06bd e7fb 15be 203f 9d3e
00000240: aa43 663d 29eb 4cbf 6569 75bb db1e 87bd
00000250: 92a4 36bd 3af3 b73c 896f 863e 775d cf3e
00000260: 1585 2ebd aead 2a3f 65cd c43c 3e9b 0b3e
00000270: 58c8 233d c651 6b3d dd15 7f3e 9e40 3b3e
00000280: 2c4c c03f ce62 803d db8c 023e ff23 023e
00000290: 2093 14bf d86a dbbd b45c a1be ec60 4b3d
000002a0: f9bc 023b bdd8 893d e792 68be 66d8 d53d
000002b0: 4002 8bbe 64d7 c03e b3fa a7bb 227f 6dbd
000002c0: 449f 9e3e 37ee f93c 6703 783c 38c6 c03d
000002d0: 4b39 673d d932 ba3a f844 e43d 31be 2b3d
000002e0: 6841 9bbd 0369 e6be 79bf af3d 1f95 933e
000002f0: fe06 693d 03d6 0d3f dbb9 d23e 3427 7cbd
00000300: 10a0 983d fc65 e7bd a7e0 be3d c83c b53e
00000310: 9ed1 1cbf de12 18bd dbfb e5ba f573 bdbc
00000320: 6fb8 54bc 486c 953e 77e9 973e d370 20bd
00000330: 7be3 1ebc 5b6b 0d3c 5332 df3e fd9e e3bc
00000340: f261 20bf c35b 0f3f d3a1 56be c0d2 593e
00000350: 8b25 7d3c 80c5 52bd 33a6 8e3e f48b 993e
00000360: 4b5a 8fbd d94d c03c 0362 e93e 7655 a6bc
00000370: 910e 0f3d 375b 683d 6b83 c63d f763 e73e
00000380: 017d 92bd 67c5 2dbd 23d1 863d 7821 b33e
00000390: 10f0 203e ac73 0cbd 1293 8e3c 75cf b93d
000003a0: d092 a53c acd8 e8be ce19 e6be 04a1 7ebd
000003b0: 75cb 873e e4da 83bc d6c6 1e3d e6d2 453e
000003c0: 2693 92bb 1eb9 873d 5225 ad3c 610a 623d
000003d0: 9565 a23d 0aa1 773b fe66 d7bc 6253 f03d
000003e0: e860 a9be d230 0d3e 2b7a b73c be07 063e
000003f0: ff04 30bc 925b 5abe 8e0f b93c cd68 d8be

fc3.bias f4 [3]
0.13348578 0.22006297 0.19082288
00000000: 7fb0 083e 3058 613e 1367 433e

exp_avg f4 [128, 10]
-2.6361522e-05 -0.0024705783 -0.0023423976 -0.0009244259 -0.0019624308 -0.0017379675 0.0 -0.0029920642
0.001744114 -0.0023199704 -2.001081e-05 0.0009942504 -0.0009745282 0.0007624277 0.00076136814 0.0010520155
0.0 0.0011245778 -2.507373e-05 0.0003069481 6e-45 6e-45 6e-45 -6e-45
6e-45 6e-45 0.0 6e-45 6e-45 6e-45 6e-45 6e-45
-6e-45 6e-45 6e-45 6e-45 0.0 6e-45 6e-45 6e-45
0.000327002 0.005402209 0.0057729846 -0.0008594952 0.004307754 0.00028707585 0.0 0.0068853805
-0.00068625587 0.006320096 0.00017513147 0.001507747 0.0009281201 0.0032788676 0.0009899685 0.0006969602
0.0 0.0016952596 0.00015533411 0.0013947581 2.1609474e-05 0.00015669042 0.00034966817 -0.00021806716
0.00010770089 -0.00013118442 0.0 0.00018755365 0.00039573922 3.5878465e-06 6e-45 6e-45
-6e-45 -6e-45 6e-45 0.0 0.0 6e-45 6e-45 6e-45
-6.857733e-05 -0.00075256376 -0.00082143495 0.002061071 -0.0005256942 6e-45 0.0 -0.00087221724
-0.00087221724 -0.00014435498 -0.00029152515 -0.005673191 -0.002956341 0.0027328033 -0.0043646023 -0.0023530526
0.0 -0.006925534 -0.0007793029 -0.0044465563 -4.360065e-05 -0.00046445848 0.0003890175 -0.00055312616
-0.00033909324 6e-45 0.0 -0.0005623114 -0.00042109736 -0.0002168006 -0.00034415585 -0.0069125206
-0.006932603 0.005626572 -0.0052600587 -0.0027626976 0.0 -0.008336532 -0.00096384203 -0.004608788
-3.677084e-05 -0.00038963818 -0.00023885221 0.00082407426 -0.00028472563 2.8608838e-18 0.0 -0.00047234766
-0.00038264657 -0.00015523608 -0.00019752281 -0.0042304685 -0.0037883879 0.004230454 -0.003043317 -0.0028003205
0.0 -0.0048168125 -0.0011178969 -0.0012664556 6e-45 6e-45 6e-45 -6e-45
6e-45 0.0 0.0 6e-45 6e-45 6e-45 -0.0001315925 -0.00019527132
-0.0005129189 -0.0009716594 -6.65311e-05 0.00063948706 0.0 -0.0002533856 -0.00012910108 -0.00053550774
-7.007042e-05 -0.0018312078 -0.0033774718 0.0032501337 -0.0014620713 -0.0001907012 0.0 -0.0022886961
2.3566135e-05 -0.0019506823 -7.998322e-05 0.0036472005 0.008011152 -0.013358024 0.002848737 -0.0017791763
0.0 0.0042038993 -0.006478279 0.002337802 -0.00019281935 -0.0009596299 -0.0010850285 -0.00050204596
-0.000588788 -0.0010038811 0.0 -0.0011110221 -0.0023009535 0.000237987 6e-45 6e-45
-6e-45 -6e-45 6e-45 -6e-45 0.0 6e-45 6e-45 6e-45
4.0638047e-06 -0.0026541343 0.0017065812 -0.0004984357 -0.00203398 -0.0030624643 0.0 -0.0030624643
0.0 -0.0014862381 -9.5681105e-05 -0.00109632 -0.00029543668 0.00079637853 -0.0007840961 -0.000616504
0.0 -0.0012936093 -0.0015139262 -0.00051189837 6e-45 6e-45 6e-45 -6e-45
6e-45 6e-45 0.0 6e-45 6e-45 6e-45 -0.00070328143 -0.003562936
-0.004025802 -0.005210817 -0.0022689227 -6e-45 0.0 -0.0042389603 -0.00037440646 -0.003914781
7.797338e-05 0.00073899835 0.0002993057 0.000520214 0.00051179226 0.00072352914 0.0 0.00086217653
0.0010385148 0.0001028563 0.0 0.0 0.0 0.0 0.0 0.0
00000000: f022 ddb7 6de9 21bb e982 19bb 2c55 72ba
00000010: 209c 00bb 83cc e3ba 0000 0000 8216 44bb
00000020: c19a e43a a50a 18bb e3dc a7b7 8251 823a
00000030: 7b77 7fba a8dd 473a 8d96 473a c8e3 893a
00000040: 0000 0000 9266 933a 6d55 d2b7 e0ed a039
00000050: 0400 0000 0400 0000 0400 0000 0400 0080
00000060: 0400 0000 0400 0000 0000 0000 0400 0000
00000070: 0400 0000 0400 0000 0400 0000 0400 0000
00000080: 0400 0080 0400 0000 0400 0000 0400 0000
00000090: 0000 0000 0400 0000 0400 0000 0400 0000
000000a0: 7771 ab39 0305 b13b 4e2b bd3b bf4f 61ba
000000b0: 0f28 8d3b ab82 9639 0000 0000 c29e e13b
000000c0: dae5 33ba cf18 cf3b 7fa3 3739 989f c53a
000000d0: 164d 733a 45e2 563b d5c1 813a 35b4 363a
000000e0: 0000 0000 7933 de3a 2fe1 2239 51d0 b63a
000000f0: fe45 b537 444d 2439 ab53 b739 f5a8 64b9
00000100: 7add e138 8d8e 09b9 0000 0000 0daa 4439
00000110: 387b cf39 bcc6 7036 0400 0000 0400 0000
00000120: 0400 0080 0400 0080 0400 0000 0000 0000
00000130: 0000 0000 0400 0000 0400 0000 0400 0000
00000140: 2cd1 8fb8 b347 45ba 9155 57ba 0913 073b
00000150: bece 09ba 0400 0000 0000 0000 82a5 64ba
00000160: 82a5 64ba ff5d 17b9 d8d7 98b9 2de6 b9bb
00000170: 2cbf 41bb d518 333b f004 8fbb ac35 1abb
00000180: 0000 0000 97ef e2bb 224a 4cba 6bb4 91bb
00000190: d7df 36b8 9082 f3b9 0cf5 cb39 abff 10ba
000001a0: 53c8 b1b9 0400 0000 0000 0000 1468 13ba
000001b0: bbc6 dcb9 f854 63b9 d16f b4b9 6d82 e2bb
000001c0: e42a e3bb 1b5f b83b 925c acbb 600e 35bb
000001d0: 0000 0000 f395 08bc 58aa 7cba 5105 97bb
000001e0: 643a 1ab8 5a48 ccb9 6774 7ab9 b006 583a
000001f0: 3a47 95b9 9118 5322 0000 0000 6ea5 f7b9
00000200: f49d c8b9 dec6 22b9 201e 4fb9 be9f 8abb
00000210: 9a46 78bb 9f9f 8a3b 6372 47bb 9585 37bb
00000220: 0000 0000 5ad6 9dbb 6586 92ba 33ff a5ba
00000230: 0400 0000 0400 0000 0400 0000 0400 0080
00000240: 0400 0000 0000 0000 0000 0000 0400 0000
00000250: 0400 0000 0400 0000 18fc 09b9 bfc1 4cb9
00000260: 6875 06ba f5b6 7eba 9d86 8bb8 40a3 273a
00000270: 0000 0000 d7d8 84b9 4f5f 07b9 5161 0cba
00000280: c5f2 92b8 2305 f0ba 9358 5dbb 3200 553b
00000290: f9a2 bfba f7f6 47b9 0000 0000 f3fd 15bb
000002a0: e4af c537 09ae ffba aabc a7b8 df05 6f3b
000002b0: 3541 033c 9ddb 5abc e0b1 3a3b 4033 e9ba
000002c0: 0000 0000 ddc0 893b be47 d4bb cf35 193b
000002d0: 8d2f 4ab9 ac8f 7bba 8437 8eba bc9b 03ba
000002e0: e558 1aba a994 83ba 0000 0000 b79f 91ba
000002f0: 98cb 16bb 268c 7939 0400 0000 0400 0000
00000300: 0400 0080 0400 0080 0400 0000 0400 0080
00000310: 0000 0000 0400 0000 0400 0000 0400 0000
00000320: d15b 8836 fcf0 2dbb 5daf df3a 74a9 02ba
00000330: 864c 05bb a0b3 48bb 0000 0000 a0b3 48bb
00000340: 0000 0000 e0cd c2ba 67a8 c8b8 65b2 8fba
00000350: d7e4 9ab9 0fc4 503a cc8b 4dba e29c 21ba
00000360: 0000 0000 538e a9ba ef6e c6ba eb30 06ba
00000370: 0400 0000 0400 0000 0400 0000 0400 0080
00000380: 0400 0000 0400 0000 0000 0000 0400 0000
00000390: 0400 0000 0400 0000 6b5c 38ba 2680 69bb
000003a0: e0ea 83bb 80bf aabb 35b2 14bb 0400 0080
000003b0: 0000 0000 fae6 8abb fc4b c4b9 9047 80bb
000003c0: a485 a338 57b9 413a 22ec 9c39 f85e 083a
000003d0: cc29 063a 38ab 3d3a 0000 0000 b003 623a
000003e0: c61e 883a 8eb4 d738 0000 0000 0000 0000
000003f0: 0000 0000 0000 0000 0000 0000 0000 0000

exp_avg_sq f4 [128, 10]
6.416583e-06 0.0009310994 0.00039214327 0.0002852472 0.00048761023 0.0009869619 0.0 0.0012905891
0.00038879184 0.0003798696 1.9976562e-07 4.3658827e-05 1.7694196e-05 1.1511391e-05 2.3448769e-05 4.7036316e-05
0.0 5.987562e-05 1.8374629e-05 1.4240342e-05 4.9455878e-27 5.5587813e-25 4.2372426e-25 3.042362e-24
2.8738913e-25 8.146114e-28 0.0 7.9268003e-25 7.9216855e-25 2.1584305e-26 1.2187776e-18 2.0327682e-16
2.1190677e-16 2.6920303e-16 1.0417597e-16 3.8887246e-17 0.0 2.7626612e-16 2.4174797e-16 1.9321485e-17
4.14277e-05 0.0024399299 0.0026106278 0.0020478154 0.0013343242 7.4872028e-06 0.0 0.0039179605
0.00010581149 0.0036048684 1.1361225e-05 0.00062660075 0.0007879863 0.0006239585 0.00033846038 2.7979959e-05
0.0 0.0010027133 3.2811862e-05 0.0009405766 1.228625e-07 1.9936377e-05 1.5106211e-06 1.2986313e-06
9.949384e-06 2.6359206e-05 0.0 2.657282e-05 2.4735897e-05 1.2725433e-06 1.1946795e-18 1.2327755e-16
2.1843215e-17 2.3759094e-16 7.151437e-17 0.0 0.0 1.9710064e-16 9.611349e-18 1.8512764e-16
7.030411e-08 7.4886166e-06 7.560547e-06 3.676779e-05 3.927762e-06 5.998055e-21 0.0 1.0877694e-05
1.0877694e-05 2.7372968e-07 8.195938e-06 0.00080069865 0.0005052927 0.00051628484 0.00042298515 0.0005549931
0.0 0.0011609752 0.00025263944 0.00059629336 1.00423264e-07 6.1466176e-06 8.584018e-07 8.696019e-06
3.3151252e-06 1.8113189e-25 0.0 9.696411e-06 5.2991567e-07 9.175556e-06 1.858682e-05 0.0021441942
0.0013993039 0.000902957 0.0011399308 0.0017923604 0.0 0.0030697766 0.0006006056 0.0013802241
2.4115205e-09 2.764832e-07 1.3098426e-07 1.4528815e-06 1.4436982e-07 3.6189857e-10 0.0 3.9716872e-07
3.355732e-07 6.368447e-08 1.5908712e-06 0.00041960497 0.00018361356 9.9785604e-05 0.00022730257 0.0004116638
0.0 0.0005783799 2.5448986e-05 0.00013633043 5.1081e-21 5.8790084e-19 2.9953797e-19 3.2424233e-18
3.0416307e-19 0.0 0.0 8.371364e-19 8.371364e-19 2.3562925e-20 1.2211965e-06 7.172317e-05
4.9334678e-05 0.00010430956 3.7896087e-05 3.6694637e-06 0.0 0.000111498695 1.3532813e-05 9.0967544e-05
6.407341e-06 0.00065300876 0.00041985052 0.00036260198 0.00034411257 0.0004833807 0.0 0.0009408396
0.00025644983 0.0004370946 9.436953e-05 0.015311829 0.0070746155 0.0025534318 0.0077139693 0.01721229
0.0 0.0206011 0.0149897775 0.0009752975 2.255581e-06 0.0003886553 0.0001127262 6.8032946e-06
0.0001943208 0.00051586214 0.0 0.0005174149 0.0005183041 2.4933779e-05 2.4334669e-33 2.9507377e-31
4.1758061e-32 4.208571e-31 1.6937135e-31 4.090672e-32 0.0 4.603623e-31 1.4867976e-31 2.9589765e-31
3.8815276e-10 0.00025931702 8.2018436e-05 2.933838e-06 0.00015166265 0.00034524442 0.0 0.00034524442
0.0 7.893348e-05 3.5987998e-07 7.704305e-05 2.3357186e-05 1.4279853e-05 4.039804e-05 8.631749e-05
0.0 0.000104397506 4.443319e-05 1.5939646e-05 2.1278186e-19 2.551139e-17 1.1412601e-17 1.5447623e-16
1.2980073e-17 3.8726356e-32 0.0 3.56345e-17 3.56345e-17 1.0427143e-18 3.4761055e-05 0.0018696139
0.0017134834 0.0028677995 0.0009904846 5.207992e-16 0.0 0.0029537233 9.821465e-05 0.0028027382
9.225573e-07 9.817204e-05 2.6404381e-05 5.4982072e-05 5.0061793e-05 7.8523284e-05 0.0 0.00013822183
9.8073666e-05 4.2584084e-05 0.0 0.0 0.0 0.0 0.0 0.0
00000000: 074e d736 0615 743a 9498 cd39 3b8d 9539
00000010: f0a5 ff39 f25c 813a 0000 0000 fc28 a93a
00000020: c2d6 cb39 3c29 c739 287f 5634 4f1e 3738
00000030: ff6d 9437 0c21 4137 d9b3 c437 dc48 4538
00000040: 0000 0000 f522 7b38 3723 9a37 cee9 6e37
00000050: 38ea c313 3409 2c17 e522 0317 3064 6b18
00000060: a0e2 b116 9014 8112 0000 0000 9552 7517
00000070: 0f2a 7517 b7c2 d514 1edc b321 ba5c 6a25
00000080: d74f 7425 5b2f 9b25 a336 f024 f555 3324
00000090: 0000 0000 af41 9f25 b45b 8b25 9135 b223
000000a0: a7c2 2d38 3be7 1f3b 1117 2b3b a434 063b
000000b0: 7ee4 ae3a 953a fb36 0000 0000 3c62 803b
000000c0: 1ce7 dd38 a83f 6c3b 179c 3e37 7742 243a
000000d0: de90 4e3a 2591 233a 6273 b139 81b6 ea37
000000e0: 0000 0000 7a6d 833a 789f 0938 0791 763a
000000f0: 30ec 0334 0b3d a737 8cc0 ca35 a24c ae35
00000100: 47ec 2637 f71d dd37 0000 0000 b2e8 de37
00000110: ef7f cf37 41cc aa35 b74d b021 1c21 0e25
00000120: d577 c923 3cf6 8825 a2e6 a424 0000 0000
00000130: 0000 0000 d73d 6325 504c 3123 0970 5525
00000140: 18fa 9633 ba46 fb36 9bb0 fd36 1d37 1a38
00000150: 38cb 8336 a199 e21d 0000 0000 577f 3637
00000160: 577f 3637 1ff5 9234 4981 0937 fae5 513a
00000170: 9e75 043a 4a57 073a 1bc4 dd39 f57c 113a
00000180: 0000 0000 dd2b 983a b174 8439 9250 1c3a
00000190: 46a8 d733 0b3f ce36 ec6c 6635 1ee5 1137
000001a0: 6b79 5e36 fd3a 6016 0000 0000 c5ad 2237
000001b0: 873f 0e35 b7f0 1937 e4ea 9b37 9c85 0c3b
000001c0: d968 b73a 6bb4 6c3a bb69 953a a3ed ea3a
000001d0: 0000 0000 4e2e 493b f671 1d3a a3e8 b43a
000001e0: ebb7 2531 906f 9434 aea4 0c34 a100 c335
000001f0: 1304 1b34 b2f4 c62f 0000 0000 743a d534
00000200: d428 b434 e8c2 8833 eb85 d535 6dfe db39
00000210: 6488 4039 fd43 d138 1258 6e39 94d4 d739
00000220: 0000 0000 6b9e 173a 487b d537 ecf3 0e39
00000230: 83fa c01d 8884 2d21 e6d0 b020 a53f 6f22
00000240: d38b b320 0000 0000 0000 0000 3d14 7721
00000250: 3d14 7721 a88b de1e fee7 a335 156a 9638
00000260: b5ec 4e38 c5c0 da38 9df2 1e38 e840 7636
00000270: 0000 0000 68d4 e938 fd0a 6337 d4c5 be38
00000280: a4fe d636 ad2e 2b3a 621f dc39 9d1b be39
00000290: 026a b439 426e fd39 0000 0000 ada2 763a
000002a0: 1d74 8639 d829 e539 41e8 c538 77de 7a3c
000002b0: 2dd2 e73b 7a57 273b 77c5 fc3b ca00 8d3c
000002c0: 0000 0000 a3c3 a83c af97 753c 1bab 7f3a
000002d0: 965e 1736 6ec4 cb39 6b67 ec38 db47 e436
000002e0: 98c2 4b39 ec3a 073a 0000 0000 20a3 073a
000002f0: cdde 073a e228 d137 1e2a 4a09 8a83 bf0c
00000300: fcd1 580b 7193 080d 49db 5b0c 5c66 540b
00000310: 0000 0000 6765 150d 53ff 400c 6e0c c00c
00000320: a563 d52f f1f4 8739 5001 ac38 f4e2 4436
00000330: a207 1f39 ec01 b539 0000 0000 ec01 b539
00000340: 0000 0000 1789 a538 8735 c134 2c92 a138
00000350: 2def c337 8093 6f37 1171 2938 5905 b538
00000360: 0000 0000 fcef da38 c65d 3a38 21b6 8537
00000370: 5f35 7b20 114d eb23 7c86 5223 5619 3225
00000380: a970 6f23 2814 490b 0000 0000 cb55 2424
00000390: cb55 2424 a2e0 9921 66cc 1138 d50d f53a
000003a0: f696 e03a b1f1 3b3b 26d3 813a 331c 1626
000003b0: 0000 0000 4193 413b 97f8 cd38 25ae 373b
000003c0: a8a5 7735 b6e1 cd38 fa7e dd37 8d9c 6638
000003d0: 71f9 5138 deac a438 0000 0000 a4ef 1039
000003e0: e6ac cd38 509c 3238 0000 0000 0000 0000
000003f0: 0000 0000 0000 0000 0000 0000 0000 0000

exp_avg f4 [128]
-0.0029920666 0.0011245781 6e-45 6e-45 0.0068853823 0.0016952613 0.0001875536 6e-45
-0.00087221724 -0.006925536 -0.0005623114 -0.008336529 -0.00047234766 -0.0048168134 6e-45 -0.0002533855
-0.002288698 0.004203895 -0.0011110217 6e-45 -0.0030624643 -0.0012936089 6e-45 -0.004238959
0.00086217694 0.0 6e-45 0.00032017753 -0.0021699246 -0.00042179128 0.0037317353 6e-45
-3.2300827e-06 0.0 6e-45 0.0053921673 4.5273104e-05 -0.00635095 -0.003445735 6e-45
-0.00017634325 -0.00024038389 6e-45 6e-45 6e-45 0.0005141344 6e-45 -0.00074602774
0.0 0.0031158095 6e-45 6e-45 6e-45 -0.0028417 -0.003148453 0.0
6e-45 -0.00013521018 0.004017036 0.0 2.8094732e-05 0.0 -0.003374036 -0.0047506858
6e-45 0.0 6e-45 1.8093608e-24 -0.0023306403 -0.003264562 -0.010061916 0.0012538579
-0.0046080537 -0.0022871036 -0.0003976359 0.0 6e-45 0.0 6e-45 6e-45
6e-45 6e-45 -0.00077403156 0.0071234065 0.0008715408 7.509332e-05 -0.0036286109 -9.052621e-05
-0.0009323638 6e-45 0.000510358 6e-45 0.0 0.0002029424 0.0076649007 0.0
6e-45 6e-45 0.0 0.00027729032 6e-45 -0.0008692048 0.0019877283 -0.004534474
0.0 -0.00055099797 6e-45 0.0 -0.0035010853 0.010553271 -0.00041405146 -0.004023699
6e-45 0.0 6e-45 -0.0029690613 -0.005475205 -0.019485159 -0.0038114262 0.004629622
-0.05774287 -0.0044118045 -7.388799e-05 -0.0010184629 0.0 6e-45 6e-45 -0.0022541746
00000000: 8c16 44bb 9466 933a 0400 0000 0400 0000
00000010: c69e e13b 8833 de3a 09aa 4439 0400 0000
00000020: 82a5 64ba 9bef e2bb 1468 13ba f095 08bc
00000030: 6ea5 f7b9 5cd6 9dbb 0400 0000 d3d8 84b9
00000040: fbfd 15bb d4c0 893b b49f 91ba 0400 0000
00000050: a0b3 48bb 508e a9ba 0400 0000 f7e6 8abb
00000060: b703 623a 0000 0000 0400 0000 80dd a739
00000070: 4b35 0ebb de23 ddb9 2190 743b 0400 0000
00000080: 66c4 58b6 0000 0000 0400 0000 c7b0 b03b
00000090: a0e3 3d38 a11b d0bb d7d1 61bb 0400 0000
000000a0: c8e8 38b9 8f0f 7cb9 0400 0000 0400 0000
000000b0: 0400 0000 fac6 063a 0400 0000 1391 43ba
000000c0: 0000 0000 9c32 4c3b 0400 0000 0400 0000
000000d0: 0400 0000 d13b 3abb 4756 4ebb 0000 0000
000000e0: 0400 0000 35c7 0db9 57a1 833b 0000 0000
000000f0: faac eb37 0000 0000 ee1e 5dbb a4ab 9bbb
00000100: 0400 0000 0000 0000 0400 0000 15fe 0b18
00000110: a8bd 18bb 43f2 55bb bcda 24bc 7d58 a43a
00000120: 28ff 96bb 3be3 15bb c979 d0b9 0000 0000
00000130: 0400 0000 0000 0000 0400 0000 0400 0000
00000140: 0400 0000 0400 0000 61e8 4aba 776b e93b
00000150: 1d78 643a 6b7b 9d38 fdcd 6dbb e4d8 bdb8
00000160: e069 74ba 0400 0000 8cc9 053a 0400 0000
00000170: 0000 0000 f0cc 5439 d929 fb3b 0000 0000
00000180: 0400 0000 0400 0000 0000 0000 4761 9139
00000190: 0400 0000 59db 63ba 8c44 023b ed95 94bb
000001a0: 0000 0000 d970 10ba 0400 0000 0000 0000
000001b0: 7772 65bb a0e7 2c3c 0c15 d9b9 3cd9 83bb
000001c0: 0400 0000 0000 0000 0400 0000 9594 42bb
000001d0: 5969 b3bb 579f 9fbc 1fc9 79bb 16b4 973b
000001e0: ca83 6cbd e690 90bb 50f4 9ab8 f27d 85ba
000001f0: 0000 0000 0400 0000 0400 0000 c6ba 13bb

exp_avg_sq f4 [128]
0.0012905892 5.987562e-05 7.9268003e-25 2.7626612e-16 0.003917961 0.0010027133 2.6572818e-05 1.9710064e-16
1.0877695e-05 0.0011609754 9.696411e-06 0.0030697763 3.9716872e-07 0.00057837984 8.371364e-19 0.00011149869
0.0009408397 0.0206011 0.000517415 4.603623e-31 0.0003452444 0.0001043975 3.56345e-17 0.0029537233
0.00013822186 0.0 4.836109e-13 6.1913393e-06 3.987124e-05 4.986936e-05 0.00015998929 3.3266225e-21
2.6349898e-07 0.0 1.6306535e-14 0.00056752237 1.0726216e-06 0.0001977764 0.000751224 5.075955e-22
1.8310677e-05 2.4224195e-05 2.0661316e-23 6.67816e-10 1.3246609e-28 7.344278e-05 4.3408367e-21 0.000184992
0.0 0.0015515096 3.186534e-30 5.190341e-16 5.529358e-26 0.0006420003 0.00069737324 0.0
3.1363082e-37 1.214535e-06 0.00071242364 0.0 4.3344582e-05 0.0 0.00020174598 0.000114396185
2.155361e-33 0.0 1.3649808e-32 1.6386464e-07 2.932515e-05 0.00015428598 0.0039575575 4.1621697e-06
0.0004970293 0.00026389357 0.000104398365 0.0 9.5399354e-32 0.0 1.1009869e-22 5.330642e-14
4.8474638e-21 6.087041e-31 7.841798e-05 0.004924559 0.0020137397 3.172429e-06 0.0015994897 4.765249e-06
5.806976e-06 5.1291832e-27 0.00010660844 3.3221125e-32 0.0 2.5439103e-06 0.0018762781 0.0
4.6378416e-18 2.972605e-35 0.0 3.0136827e-05 1.2415924e-35 1.6576383e-05 0.00039601006 0.0006247616
0.0 1.27820385e-05 2.0723386e-17 0.0 0.000727942 0.007904796 9.78417e-06 0.00054335175
6.777726e-32 0.0 3.274878e-30 0.00018916224 0.00029168697 0.021230718 0.00037884203 0.0020684057
0.17189191 0.0017205989 5.5796595e-06 5.4041757e-05 0.0 2.1041415e-32 1.3413693e-33 0.00089821685
00000000: fd28 a93a f522 7b38 9552 7517 af41 9f25
00000010: 3d62 803b 7a6d 833a b1e8 de37 d73d 6325
00000020: 587f 3637 df2b 983a c5ad 2237 4d2e 493b
00000030: 743a d534 6a9e 173a 3d14 7721 67d4 e938
00000040: afa2 763a a3c3 a83c 22a3 073a 6765 150d
00000050: eb01 b539 fbef da38 cb55 2424 4193 413b
00000060: a6ef 1039 0000 0000 d71f 082b 33bf cf36
00000070: 6b3b 2738 d12a 5138 ccc2 2739 3d5a 7b1d
00000080: 0677 8d34 0000 0000 4fe0 9228 c8c5 143a
00000090: fff6 8f35 3362 4f39 caed 443a 4d69 191c
000000a0: e199 9937 1035 cb37 f1d2 c719 6091 3730
000000b0: b4eb 2711 4b05 9a38 fffd a31d 69fa 4139
000000c0: 0000 0000 065c cb3a dc42 810e f599 1526
000000d0: 78e6 8815 e94b 283a edcf 363a 0000 0000
000000e0: 3272 d502 1b03 a335 f1c1 3a3a 0000 0000
000000f0: e4cc 3538 0000 0000 c68b 5339 fce7 ef38
00000100: 750f 3309 0000 0000 6abf 8d0a c5f2 2f34
00000110: 48ff f537 d4c7 2139 66ae 813b c4a8 8b36
00000120: 124b 023a 325b 8a39 72f0 da38 0000 0000
00000130: bfab f70b 0000 0000 e519 051b 1e12 7029
00000140: cb21 b71d 2889 450d 5574 a438 325e a13b
00000150: f2f8 033b eae5 5436 f8a5 d13a 2de5 9f36
00000160: 8bd9 c236 1930 cb13 f892 df38 737e 2c0b
00000170: 0000 0000 0cb8 2a36 72ed f53a 0000 0000
00000180: 2d1b ab22 010d 1e06 0000 0000 58ce fc37
00000190: 5c07 8405 830d 8b37 929f cf39 0bc7 233a
000001a0: 0000 0000 7072 5637 b623 bf23 0000 0000
000001b0: 5cd3 3e3a 1e83 013c b126 2437 b86f 0e3a
000001c0: b7f5 af0b 0000 0000 47d8 840e da59 4639
000001d0: 90ed 9839 0bec ad3c 519f c639 178e 073b
000001e0: 6f04 303e b885 e13a e938 bb36 e5aa 6238
000001f0: 0000 0000 ad81 da0a 8adf de08 5076 6b3a

exp_avg f4 [128, 128]
6e-45 6e-45 6e-45 -6e-45 6e-45 -6e-45 6e-45 0.0
6e-45 6e-45 6e-45 6e-45 -6e-45 6e-45 6e-45 6e-45
6e-45 6e-45 6e-45 6e-45 -6e-45 6e-45 6e-45 6e-45
6e-45 0.0 0.0 6e-45 6e-45 6e-45 6e-45 6e-45
6e-45 0.0 6e-45 6e-45 -6e-45 6e-45 6e-45 6e-45
6e-45 6e-45 -6e-45 6e-45 6e-45 6e-45 6e-45 6e-45
0.0 6e-45 6e-45 6e-45 6e-45 6e-45 6e-45 0.0
6e-45 6e-45 6e-45 0.0 6e-45 0.0 6e-45 6e-45
6e-45 0.0 6e-45 -6e-45 -6e-45 6e-45 6e-45 6e-45
6e-45 6e-45 6e-45 0.0 6e-45 0.0 6e-45 6e-45
6e-45 6e-45 6e-45 -6e-45 6e-45 6e-45 6e-45 6e-45
6e-45 -6e-45 6e-45 6e-45 0.0 6e-45 0.0 0.0
6e-45 0.0 0.0 6e-45 0.0 6e-45 6e-45 6e-45
0.0 6e-45 6e-45 0.0 6e-45 6e-45 6e-45 -6e-45
6e-45 0.0 -6e-45 6e-45 -6e-45 6e-45 6e-45 6e-45
6e-45 6e-45 6e-45 6e-45 0.0 0.0 0.0 6e-45
7.497882e-05 -0.00029811388 6e-45 -6e-45 -0.00023480556 -0.00049072184 8.358349e-06 0.0
-8.839592e-05 -0.00012660245 -6e-45 -0.0006741145 -1.0191455e-05 -0.00014218088 -6e-45 1.5767493e-05
-0.00044488223 -7.4460775e-05 -8.2523e-05 6e-45 6e-45 -0.00040293203 -6e-45 8.333781e-06
0.00012195847 0.0 -6e-45 -1.2284916e-05 4.6191988e-07 2.0392918e-06 7.498545e-05 -6e-45
6e-45 0.0 -6e-45 -5.7362275e-05 6e-45 -1.1853247e-05 -2.4074385e-05 6e-45
6e-45 -0.00012452924 -6e-45 6e-45 6e-45 -6.3286286e-08 -6e-45 2.112759e-06
0.0 -8.877166e-05 6e-45 6e-45 -6e-45 6e-45 2.7960266e-05 0.0
0.0 -6e-45 -4.0224295e-09 0.0 -0.00037860862 0.0 -0.00014960888 -1.3521932e-05
0.0 0.0 0.0 6e-45 -8.2783656e-05 -1.1808593e-05 -0.0004917207 -8.81533e-08
-2.6982305e-05 -0.00052195124 -0.0002690894 0.0 0.0 0.0 6e-45 6e-45
-6e-45 0.0 -7.061879e-05 -4.4695364e-05 5.0347226e-10 -1.6522441e-05 -0.0006197378 6e-45
-3.335566e-07 6e-45 -0.00041430036 -6e-45 0.0 2.9099514e-10 -0.00058227463 0.0
-6e-45 0.0 0.0 -5.0293504e-05 0.0 -3.5568403e-06 -0.00012616621 -0.00027911598
0.0 -8.8715584e-05 6e-45 0.0 -0.0002212616 -2.4349942e-05 -7.746905e-05 -0.00013170882
-6e-45 0.0 -6e-45 -0.00020130012 6e-45 1.8934317e-06 -8.694253e-05 -9.682533e-05
-1.8323727e-06 5.8100304e-05 1.3568952e-10 -1.576222e-16 0.0 0.0 0.0 -0.00018469192
00000000: 0400 0000 0400 0000 0400 0000 0400 0080
00000010: 0400 0000 0400 0080 0400 0000 0000 0000
00000020: 0400 0000 0400 0000 0400 0000 0400 0000
00000030: 0400 0080 0400 0000 0400 0000 0400 0000
00000040: 0400 0000 0400 0000 0400 0000 0400 0000
00000050: 0400 0080 0400 0000 0400 0000 0400 0000
00000060: 0400 0000 0000 0000 0000 0000 0400 0000
00000070: 0400 0000 0400 0000 0400 0000 0400 0000
00000080: 0400 0000 0000 0000 0400 0000 0400 0000
00000090: 0400 0080 0400 0000 0400 0000 0400 0000
000000a0: 0400 0000 0400 0000 0400 0080 0400 0000
000000b0: 0400 0000 0400 0000 0400 0000 0400 0000
000000c0: 0000 0000 0400 0000 0400 0000 0400 0000
000000d0: 0400 0000 0400 0000 0400 0000 0000 0000
000000e0: 0400 0000 0400 0000 0400 0000 0000 0000
000000f0: 0400 0000 0000 0000 0400 0000 0400 0000
00000100: 0400 0000 0000 0000 0400 0000 0400 0080
00000110: 0400 0080 0400 0000 0400 0000 0400 0000
00000120: 0400 0000 0400 0000 0400 0000 0000 0000
00000130: 0400 0000 0000 0000 0400 0000 0400 0000
00000140: 0400 0000 0400 0000 0400 0000 0400 0080
00000150: 0400 0000 0400 0000 0400 0000 0400 0000
00000160: 0400 0000 0400 0080 0400 0000 0400 0000
00000170: 0000 0000 0400 0000 0000 0000 0000 0000
00000180: 0400 0000 0000 0000 0000 0000 0400 0000
00000190: 0000 0000 0400 0000 0400 0000 0400 0000
000001a0: 0000 0000 0400 0000 0400 0000 0000 0000
000001b0: 0400 0000 0400 0000 0400 0000 0400 0080
000001c0: 0400 0000 0000 0000 0400 0080 0400 0000
000001d0: 0400 0080 0400 0000 0400 0000 0400 0000
000001e0: 0400 0000 0400 0000 0400 0000 0400 0000
000001f0: 0000 0000 0000 0000 0000 0000 0400 0000
00000200: f33d 9d38 2b4c 9cb9 0400 0000 0400 0080
00000210: 2336 76b9 c9a3 00ba d63a 0c37 0000 0000
00000220: 3361 b9b8 96c0 04b9 0400 0080 0fb7 30ba
00000230: f7fb 2ab7 6416 15b9 0400 0080 6f44 8437
00000240: 153f e9b9 d327 9cb8 3310 adb8 0400 0000
00000250: 0400 0000 9f40 d3b9 0400 0080 51d1 0b37
00000260: f4c3 ff38 0000 0000 0400 0080 501b 4eb7
00000270: c9fd f734 c4da 0836 8241 9d38 0400 0080
00000280: 0400 0000 0000 0000 0400 0080 4698 70b8
00000290: 0400 0000 4fdd 46b7 59f3 c9b7 0400 0000
000002a0: 0400 0000 1094 02b9 0400 0080 0400 0000
000002b0: 0400 0000 01e8 87b3 0400 0080 ecc8 0d36
000002c0: 0000 0000 ec2a bab8 0400 0000 0400 0000
000002d0: 0400 0080 0400 0000 378c ea37 0000 0000
000002e0: 0000 0000 0400 0080 aa35 8ab1 0000 0000
000002f0: fd7f c6b9 0000 0000 54e0 1cb9 41dc 62b7
00000300: 0000 0000 0000 0000 0000 0000 0400 0000
00000310: 239c adb8 851d 46b7 d1e6 00ba ca4e bdb3
00000320: 0f58 e2b7 8ed3 08ba 9114 8db9 0000 0000
00000330: 0000 0000 0000 0000 0400 0000 0400 0000
00000340: 0400 0080 0000 0000 2d19 94b8 4877 3bb8
00000350: b664 0a30 ac99 8ab7 e675 22ba 0400 0000
00000360: ac13 b3b4 0400 0000 7436 d9b9 0400 0080
00000370: 0000 0000 edf9 9f2f caa3 18ba 0000 0000
00000380: 0400 0080 0000 0000 0000 0000 3df2 52b8
00000390: 0000 0000 0db2 6eb6 7c4b 04b9 5056 92b9
000003a0: 0000 0000 d10c bab8 0400 0000 0000 0000
000003b0: 7502 68b9 1a43 ccb7 e176 a2b8 511b 0ab9
000003c0: 0400 0080 0000 0000 0400 0080 1714 53b9
000003d0: 0400 0000 d121 fe35 ea54 b6b8 b40e cbb8
000003e0: d9ef f5b5 bab0 7338 3431 152f ddb9 35a5
000003f0: 0000 0000 0000 0000 0000 0000 dca9 41b9
