trainer/trained_agents/level3/checkpoint_ep200.pth (torch, 227210 bytes, 18 tensors)

fc1.weight f4 [128, 10]
00000000: 30a7 b2be 0c2a 9c3d 814c 69be ff7e 3f3e
00000010: 40de 1d3e 4376 e23d 65ae d73d e675 c63d
00000020: a8fb 293e 4fb6 56be 5597 05bf 97d4 e9bd
00000030: 2b02 1e3f 49ae c9bd bfb8 8e3c e495 053e
00000040: 149b 79be 43c4 253e 00bb 08bf 6930 a43c
00000050: 4aca 893e ed33 0f3d ab56 893d 72eb 00be
00000060: 544e b9be 0b4d 013c 6e87 3f3e a5d7 43be
00000070: 846f 0cbd f0c2 eebd adea ea3d d6d0 e33d
00000080: ce69 fdbe e4c6 1cbe cd47 adbe 4f6d 42be
00000090: 1f87 a0be 6b50 3fbe be47 ccbd ad4d 54be
000000a0: 0bef 6f3f 19b1 f6bd acaa dd3e 04b8 f43e
000000b0: 6877 a8bd ead4 29bf 1c6d ed3d d4fb a1bd
000000c0: f28e 6a3e a841 eb3e 93ea b53d 6c5d e6bd
000000d0: 20ca 653f 2c67 efbd d889 9a3e 3fd4 b03e
000000e0: 86f5 9a3e 765b 2ebe 6699 4bbd 3376 a6be
000000f0: 7749 4e3e 94db 723d 4f85 4fbf a556 29be
00000100: 871e 15bb 634c 873d 4def 8cbe 5044 133e
00000110: 8e3f 993e 1076 4abe c8a3 c9bd 2750 96be
00000120: 53df 9cbe f8ff 82be 2960 06be 2ece 4bbe
00000130: 5031 24be bac2 a8bd a478 9ebe 00be 553c
00000140: 15b5 81be f384 a2be 0f3d 9dbe 41eb bbbe
00000150: 6bcc 183e b3a4 e7be 4d9d 1f3e 10d5 1c3e
00000160: 313b a73e 4aab 30bf ddc1 adbf bb1a 33be
00000170: 4132 a93e 592e 663d 5c2c 843e 543d 4ebc
00000180: 2e8d 553e f178 753e 6ca7 133e 2c62 7f3d
00000190: 0566 e33e 0402 153d 446c 15bf 1f08 d83d
000001a0: 8771 95bc 4869 e4be 5b2a c83d 12f9 00bd
000001b0: 12f1 3bbe 9fe3 9e3e 56c4 33bf eac1 853d
000001c0: ecd6 a03e 7f38 e4be 6305 583e 7c8b a63e
000001d0: 604e 493e afb0 e03c c520 5cbe 794e 23bd
000001e0: 751c f1bf 456d 93be b81e 04bf c651 b9be
000001f0: 5be0 80bd bbcf 0dbc 4c51 1f3e cbd2 1fbd
00000200: 5014 053d a230 083e 9f04 acbe 4d9b 223e
00000210: d51a 6bbd 9b90 16be 02ba abbd f89e 87b8
00000220: 7722 613e bfd2 453e 415e e2be cce2 acbd
00000230: 47a1 21be 9b76 b0be 52b4 e9bd f6a1 b9be
00000240: 816d 3cbd d86e 47be 64ab 8bbe 7db3 94be
00000250: 8cd4 e53d 02de cbbe 2744 463d 7985 283e
00000260: 62ae 97be 2ec5 2c3f 739f 8bbe a0c4 a43e
00000270: 4438 32be afb7 9bbd febc 85be 4689 82be
00000280: 88b2 c1be 0e18 603e a4c1 0f3f 79aa 11bd
00000290: 8247 bb3e 527e 50bd eff9 cdbd 8960 5d3e
000002a0: 1bf4 943e 7ee3 aebe 47bc b53f e180 683e
000002b0: a99b 273c 8735 1fbe b8a5 263c 2dca 0a3e
000002c0: b832 9bbe 0e64 3ebe a0b8 06be 3af2 8ebf
000002d0: ed9a c53f 02ce e23d 7c4c 373c c994 8abe
000002e0: dd70 f3bd 8211 753e 0365 743e ff66 553e
000002f0: 6ff2 aebe b057 1bbf 1f43 02be cc27 0bbe
00000300: 4315 9bbd 3213 96bd aab3 94be 2aa4 acbd
00000310: 9760 953e f016 42bd 54d5 2a3e 1f60 5d3e
00000320: b431 39c1 8d73 28be 70e1 fbbd e468 63bd
00000330: 78ec f0bd 6c91 ed3d 80d8 09be 972e 233e
00000340: 69c9 e0bd 5ae5 173f 0d28 efbe 1c22 a93e
00000350: 79fc 0b3f 29cb ae3c 866f f33b 6e16 99bd
00000360: c17e 8d3e 5f57 49be dc04 85bb 4b59 a5bd
00000370: 2c4c 67bc 546f b6be 7bb4 35bd 38cb c9be
00000380: 58dd a5be f01b fe3d 0aa2 2ebe 4927 d4bd
00000390: 6b97 a0bb 40fe a7be dc3e 923f 75cc 5e3e
000003a0: fa84 2ebe 51cf a73e e21f ccbe fc84 89be
000003b0: 8a86 983b be50 803c d0d3 143e 0afd f9bc
000003c0: f7fa d9be 933c 38be 5d49 4ebe 32e1 d33e
000003d0: 5329 79bd 4cc6 b43e 4327 963d 619c 5dbd
000003e0: 5690 043f d06d b03d d949 34be dee5 803e
000003f0: b3fa 2cbe 0a9a 373c b6c0 a9bd 047b 8fbe
-0.3489318 0.07625207 -0.2278309 0.18700789 0.15416813 0.11057713 0.1053131 0.09690456
0.16599905 -0.20967983 -0.5218404 -0.114175014 0.6172206 -0.098476954 0.017422078 0.1304546
-0.24375564 0.16188149 -0.5341034 0.020042615 0.26912147 0.03496163 0.06705984 -0.12589815
-0.36192572 0.007891904 0.18704006 -0.1912523 -0.034286037 -0.11658275 0.11470542 0.11123817
-0.49494785 -0.15310246 -0.33843842 -0.1898701 -0.3135309 -0.18683021 -0.09974621 -0.20732756
0.93724126 -0.120454974 0.43294275 0.47796643 -0.082259 -0.66340506 0.115930766 -0.079093605
0.22906092 0.4594853 0.08882632 -0.112482876 0.89761543 -0.116896 0.3018329 0.3453693
0.30265445 -0.17027077 -0.04970684 -0.32512054 0.20145212 0.059291437 -0.8106279 -0.16536959
-0.0022753791 0.066063665 -0.27526322 0.14381528 0.299313 -0.197716 -0.09845692 -0.29358026
-0.30639133 -0.25585914 -0.1312262 -0.1990287 -0.16034436 -0.08240266 -0.30951416 0.013045788
-0.25333467 -0.31742057 -0.30710647 -0.36702922 0.1492173 -0.45242843 0.15587349 0.15315652
0.32662347 -0.69011366 -1.3574787 -0.17490666 0.33046153 0.056196544 0.25815094 -0.012587864
0.20854637 0.23971917 0.14419335 0.062349483 0.44413772 0.036378875 -0.58368325 0.10548424
-0.01824261 -0.44611573 0.09773704 -0.031487532 -0.1835368 0.31033036 -0.7022146 0.06531127
0.31413972 -0.44574353 0.21095805 0.32528293 0.19658804 0.027428 -0.21496876 -0.03986976
-1.8836809 -0.28794304 -0.51609373 -0.361952 -0.062927924 -0.008655484 0.15558356 -0.039019387
0.032490075 0.13299802 -0.33597276 0.15879555 -0.057398636 -0.147036 -0.083850875 -6.466912e-05
0.21985804 0.19318675 -0.44212535 -0.084416956 -0.15784179 -0.3446549 -0.114113465 -0.3625638
-0.04600287 -0.19475877 -0.27279198 -0.2904319 0.11222181 -0.39817816 0.04840484 0.16457166
-0.2962523 0.6748837 -0.27270088 0.32181263 -0.17404276 -0.07603394 -0.26120752 -0.25495356
-0.3783152 0.21884176 0.5615485 -0.035562966 0.36577994 -0.05090172 -0.10057437 0.21618856
0.29092488 -0.34157938 1.4198083 0.22705413 0.010229983 -0.15547763 0.010171346 0.13553686
-0.30312133 -0.18592855 -0.13156366 -1.1167672 1.5437905 0.11074449 0.011187669 -0.2706664
-0.11886761 0.2393246 0.23866658 0.20840071 -0.34169337 -0.60680676 -0.12720917 -0.135894
-0.07572415 -0.0732788 -0.29043323 -0.08429749 0.29175255 -0.047385156 0.1668294 0.21618699
-11.574635 -0.16450329 -0.12298858 -0.055519953 -0.11763853 0.11600003 -0.13461494 0.15935741
-0.10975916 0.5933434 -0.46710244 0.33033836 0.5468212 0.021337109 0.007429066 -0.07474981
0.27635768 -0.19662236 -0.004059417 -0.08073672 -0.014117282 -0.35631812 -0.044361573 -0.39412856
-0.32395434 0.124076724 -0.17054 -0.103590555 -0.004900863 -0.32811165 1.1425433 0.21757682
-0.17042914 0.32775357 -0.39868075 -0.26859272 0.00465471 0.0156635 0.14533925 -0.030516166
-0.42574283 -0.17991857 -0.20145173 0.41382748 -0.060830425 0.35307539 0.07331707 -0.054104213
0.5178274 0.08614695 -0.17606296 0.25175375 -0.16892509 0.011206159 -0.0828871 -0.2802354

fc1.bias f4 [128]
00000000: 64ae 743d f3fe 7f3d 163c 163d 3f57 3f3d
00000010: c8b8 15bd 72fd d23d ef0c 43be a051 10bd
00000020: 7709 d3be fb8b 91bd 6a9f babe 5047 833e
00000030: 3923 23be 1f2a 8a3d a559 5dbe 6d4e acbc
00000040: f1f1 4abe 09e6 953d b35c 1bbe 158a 97bd
00000050: 7148 a6be 39b1 8a3e 8b9b 54be cfb1 3ebe
00000060: 1f63 44be 381b 9dbe 503a dbbe c198 26bd
00000070: e5e6 4a3d ac3d 87be 0beb ec3d f06c 6f3d
00000080: 190e 40bd 689f 51be a20c d5be ed35 923e
00000090: 3199 1fbe 1792 a43e 173f 1c3e 8bd7 49be
000000a0: a900 bfbe a689 2ebd 5e4c 373d 94fc 3dbe
000000b0: a527 f7bd ae28 8abd f5a5 64be fe9f 363e
000000c0: 8a1f 9cbe 9e37 bd3d 2b7f 8cbe 37fa 7dbe
000000d0: 056c 89bd 871e 203e 988c 463e 9859 723e
000000e0: fad9 3fbd 7b91 4ebe ccb1 55be 1f29 81be
000000f0: 53f8 f03d b7dc 92be a561 2e3e 96a4 f8bc
00000100: 64cb 17be e9c7 13bd 7dc7 30be a83a ee3d
00000110: a01e d7bd 3eff 653e 8375 9b3e 5713 1d3e
00000120: 3e3e 24be 707b afbd 8da6 57be 2863 04bd
00000130: d60b 0b3e 0cb5 d9bd b414 bdbe e514 a6be
00000140: a317 6cbd cd9d d9bd 071e f13d 962e 63bd
00000150: 912e 19be e87f 533e b045 543d 311e 863e
00000160: 9734 543e db8a 1bbe 9417 d03c be92 26be
00000170: 11f5 a0be 6c74 633e 20e2 83be b53d 40be
00000180: 8375 9dbc 00dd 8abc 450a a33a a8e5 32be
00000190: 2deb adbc 6f95 d03d 52c4 d13d 4ee7 053e
000001a0: 22c7 903e 5e0e 253e 279d 7dbe f50e 87be
000001b0: d04e e63d c50a 38bd c382 2e3e c27b 05be
000001c0: 1922 4b3e eaf2 89bd 606d 7f3e 45cd 0d3e
000001d0: 0b7a 263e 9fa8 853e f3a3 4a3e ad50 70be
000001e0: cb3f cf3d a1f5 d03d b9c1 c1bc 16de 24be
000001f0: d4f6 5dbe 7d39 95be 3b69 e7bd 5ef0 b9ba
0.059736624 0.062498998 0.036678396 0.046714064 -0.036553174 0.10302247 -0.19047903 -0.035234094
-0.4121816 -0.07106777 -0.36449748 0.25640345 -0.15931405 0.06746315 -0.21616228 -0.02103349
-0.19818856 0.07319266 -0.1517208 -0.07399384 -0.32477143 0.27088335 -0.2076246 -0.18622516
-0.19178437 -0.3068483 -0.42817926 -0.04067302 0.049536604 -0.2641424 0.115682684 0.0584535
-0.046888445 -0.20470965 -0.416112 0.28556767 -0.15585782 0.32142708 0.15258442 -0.1971113
-0.3730519 -0.04261174 0.044750564 -0.18553382 -0.120681085 -0.0674604 -0.22328933 0.1783447
-0.30492812 0.09239124 -0.2744077 -0.2480248 -0.06710056 0.15636645 0.1938957 0.2366699
-0.046838738 -0.20172684 -0.20868605 -0.25226685 0.11766114 -0.28684017 0.17029436 -0.030351918
-0.14823681 -0.03607932 -0.17263599 0.116322815 -0.10503888 0.22460648 0.30363092 0.15339409
-0.16039369 -0.08568466 -0.21059628 -0.032321125 0.13578734 -0.10630235 -0.36929858 -0.32437816
-0.05763973 -0.10625801 0.117733054 -0.05546435 -0.1495917 0.20654261 0.05182427 0.2619491
0.20723186 -0.15189688 0.025401868 -0.16266915 -0.3143697 0.2221238 -0.25758457 -0.1877354
-0.019221073 -0.016951084 0.0012438974 -0.1747042 -0.021230305 0.10184752 0.10242523 0.13076517
0.28276926 0.16118762 -0.2476698 -0.263786 0.11245501 -0.044932146 0.17042069 -0.13035491
0.19837226 -0.06735785 0.24944067 0.13847835 0.16257493 0.2610521 0.19789104 -0.23468275
0.101195894 0.102031 -0.023651944 -0.16100344 -0.21676189 -0.29145423 -0.11299368 -0.0014186015

fc2.weight f4 [128, 128]
00000000: cd1f dfbc 5c6b 83bb dfec 413d b95b 7c3c
00000010: c49f 8bbc 464c 98bf 96dd 59bc 8c77 843d
00000020: 258c 9e3d 5c0f df3c 8a17 00bd 5875 df3c
00000030: a2b9 25be b918 60bd 2b29 40be 67e9 3cbd
00000040: e11b c13c 3926 743d 08ed 1abc b3ed e93c
00000050: b214 d2bf 5959 3cbc 3f39 dabd 5270 8c39
00000060: bffe 6f3d 7763 49bd c06c 8cbd 3ee6 7a3c
00000070: 6b2f 70bd a3af 3c3e 96b7 5dbd 48d9 be3d
00000080: 4267 01be 7463 a1bc 67d3 b9bd e2b2 0b3e
00000090: f9b3 bdbd 73f9 933d f2d1 abbd b595 92bd
000000a0: 82e9 b1be 0d4d c33c cffa 183e b528 ccbd
000000b0: 8045 87bc 648e 39be 01a5 323d 07a1 6e3c
000000c0: c90f b23d 1e94 743d 5fb3 a23a 65ed c7bc
000000d0: c430 a63d 8a91 d5bd efff a33a b75c 773d
000000e0: 43ef a93d 5f1d 14bd 4cb0 4dbd f543 40bd
000000f0: b151 1abf 582f a23c 1246 d63d 2fe8 0ebc
00000100: e3a5 90bd 6f15 3b3d 2b76 d2bd 9634 9fbd
00000110: 899c 9bbc 3283 303d 3a9c e5bc 48af 15bf
00000120: 7292 cfbb 7d63 c03c cd72 a1be 902d 18bd
00000130: 39af 66bb 9d95 91bd 8327 953c 51b6 9bbd
00000140: 5a1c 30bc 653a 68bd 3147 723d 38e9 afbd
00000150: c7da 623d adf4 03bc 49bf 1fbe 8856 a3bd
00000160: 8cd9 783d 8b61 afbd 104e 3fbd f6a9 07be
00000170: 1b81 f13c d5a4 a4bd b661 adbc a453 9abd
00000180: 989e 58be 895a 8a3d 87b6 a2bd 85d3 fbbe
00000190: cca3 aebc 945a acbd 8cc5 ce3d a3e8 1bbe
000001a0: 798d 813c 9dbe 0abe 1de2 203d e352 e73c
000001b0: be96 ab3b 0474 5abe 3bab 0f3e d5d0 1bbf
000001c0: a6fd 1f3d 4503 923d c5ff 02be b9fa 19be
000001d0: 9a78 b2bf f8a2 4c3e ff22 8bbd d87c ee3d
000001e0: 02b7 bbbf 8d36 073c 8d39 123b 7d38 dabd
000001f0: 6cb1 6bba 7f0a 0d3d b1e4 a7bb 20b7 193d
00000200: c639 e3bc 575a e2bd ac58 a63d 8052 92bf
00000210: a371 4abe e0b6 823d ce6c be3d 4aab d4bc
00000220: 1e0b 1b3e 02d3 b7bd c4bf 0cbe 5311 b7bc
00000230: b61f 8c3d 3527 27be 5366 48be e977 2bbe
00000240: 731a 253e c2ed 43be f508 2b3e d122 c2bd
00000250: 3a25 c3b9 df93 123c b50e 85be bfa8 263e
00000260: 499c b9bc bb04 4c3d b011 debd aac7 82be
00000270: af06 0bc0 324e 26be 05cf 683e 11ad d3bd
00000280: fd45 e0bd 0862 a93d 190e 4e3e ff40 9abe
00000290: 797d 00bf b4f9 85be e30a 88be a3c1 d4bd
000002a0: 5a1b 09bd cf0a b03e 2a80 b83c 2039 003c
000002b0: ff3a 15bd f348 35bf 77ec af3d d03b 9abe
000002c0: 8e6e 99bd feab 063e ebc1 953c c204 f9bd
000002d0: 5cf4 74be 3ab1 59bf 2aea 9ebe 8372 91bd
000002e0: 91d7 593b 14db ca3d 0cbd e43d 9fe7 873d
000002f0: b77f 8bbd 5a9f b3bd 0f5b adbe 126e 76be
00000300: 9fc8 8ebd 6169 14bd 6953 6d3d ae71 21be
00000310: ed21 9c3d 94a0 91be bd80 883d 7f28 2ebe
00000320: 7c59 6d3d 2b76 3c3e a6fb 7b3e 2eeb 613d
00000330: 54ee b33c b6fa 2dbd 651f 6e3d f57a 11be
00000340: 4e79 4bbe ca9e 74bc a0f3 5f3a 8837 87be
00000350: 1803 723e 458b 733e 04a0 a0bb fdb2 8fbe
00000360: 6c86 b1be d441 2fbe 3319 6c3d 30ad a1bd
00000370: 4775 973d d75b f7be b52f 8cbe 8422 88bd
00000380: b324 57bd 6feb c8bc f3d7 a13c ef14 5d3e
00000390: bee5 9c3c fea0 4bbe bc1c 72be f9a4 78be
000003a0: 61ff 00bd ff4f 78bc a091 bfbd 63ac 6abd
000003b0: 12a9 db3d adce aebe 8f00 d4bd 66da cdbd
000003c0: ad1e 86bc 2ab3 223d 1d61 60bd 6310 1bbe
000003d0: 9b7a f23e e1ee c2bf 4bc2 6dbe 5220 9f3d
000003e0: 17d0 fabd 5446 253b 741d 16bf 9245 e9bf
000003f0: 49c7 2e3c 55dc 2ebd a36a 533d 506c 5e3e
-0.027236843 -0.004010601 0.04734504 0.015402728 -0.017043956 -1.1898277 -0.013297459 0.06468114
0.07741574 0.027229004 -0.03127245 0.027277634 -0.16184095 -0.054711077 -0.18765704 -0.046121027
0.023572864 0.059606764 -0.009455927 0.028555727 -1.6412566 -0.0114959115 -0.1065545 0.00026786566
0.058592554 -0.049167123 -0.0685668 0.015313683 -0.05863897 0.18426375 -0.05413016 0.09318787
-0.12637046 -0.019700743 -0.09073525 0.13642457 -0.09262843 0.07225313 -0.08389653 -0.071574606
-0.34748465 0.023840452 0.14939426 -0.09968702 -0.016512632 -0.18120724 0.04361439 0.014564759
0.08694417 0.059711568 0.0012413076 -0.02440519 0.0811477 -0.1042815 0.0012512187 0.060391154
0.08297589 -0.036160823 -0.050216958 -0.04693981 -0.602809 0.019797966 0.104625836 -0.008722349
-0.070628904 0.045674738 -0.10276445 -0.07773702 -0.01899554 0.043093868 -0.028028596 -0.5847058
-0.0063345963 0.02348494 -0.315329 -0.037152827 -0.0035199656 -0.071086146 0.018207317 -0.076031335
-0.010748947 -0.056696314 0.059149925 -0.08589405 0.055384424 -0.008053941 -0.15600313 -0.07975489
0.060754344 -0.08563527 -0.046705306 -0.13248429 0.029480508 -0.08039252 -0.021164756 -0.075354844
-0.21154249 0.067555495 -0.079449706 -0.49184814 -0.021318339 -0.08415714 0.10096273 -0.15225463
0.01581453 -0.13549276 0.03927814 0.028237766 0.0052364757 -0.21333319 0.14030163 -0.6086553
0.039060257 0.0712953 -0.12792881 -0.1503705 -1.3943055 0.19984043 -0.06793784 0.11644906
-1.4665225 0.008252752 0.0022312135 -0.106553055 -0.00089909765 0.034433838 -0.0051236977 0.037528157
-0.02773751 -0.11052387 0.081223816 -1.1431427 -0.19769911 0.06382537 0.092980966 -0.025960583
0.1514096 -0.089757934 -0.13745028 -0.022347128 0.06841986 -0.1632355 -0.19570284 -0.16744961
0.16123371 -0.19133666 0.16702636 -0.09479297 -0.00037221034 0.008946388 -0.25987783 0.16275309
-0.02265753 0.0498092 -0.108432174 -0.25542957 -2.172283 -0.16240767 0.22735222 -0.10335744
-0.10950849 0.08270651 0.20122565 -0.30127713 -0.50191456 -0.2616707 -0.26570806 -0.10388496
-0.03347335 0.34383246 0.02252205 0.00782612 -0.036433216 -0.70814437 0.08590024 -0.30123758
-0.0749179 0.13151547 0.018280944 -0.121591106 -0.2392134 -0.8503605 -0.31038028 -0.071019195
0.003324006 0.09905067 0.1116887 0.06635975 -0.06811469 -0.08770628 -0.33858535 -0.24065426
-0.06971859 -0.03623331 0.057940874 -0.15766022 0.07623658 -0.28442824 0.0666518 -0.17007636
0.057946667 0.18404453 0.24607715 0.055155925 0.02196423 -0.042475425 0.05813541 -0.1420706
-0.19870493 -0.014930436 0.0008543078 -0.26409554 0.23633993 0.23783596 -0.004901888 -0.28066245
-0.34672868 -0.17114955 0.05764122 -0.07894361 0.07395416 -0.48312256 -0.27380148 -0.06647208
-0.052525233 -0.024526326 0.019756293 0.21590017 0.019152518 -0.19885632 -0.23643774 -0.24281682
-0.03149355 -0.015155791 -0.09353948 -0.057293307 0.10725607 -0.34142056 -0.10351669 -0.10051422
-0.01637205 0.039721645 -0.054780114 -0.1514297 0.47359166 -1.522915 -0.23218648 0.077698365
-0.12246721 0.002521892 -0.5863869 -1.8224356 0.0106676305 -0.042690594 0.05161537 0.21721005

fc2.bias f4 [128]
00000000: 724a cdbd 5259 b73d 22a7 a4bd 97dc da3e
00000010: 0303 d6bb 5daa af3e e9b2 7e3e 8e5c 2e3b
00000020: 49ea 943e c080 71bd ed8d 8ebd 55cb c2bd
00000030: e4c9 e9bd a334 e1bd 7eb6 553c c157 d13e
00000040: 8985 463c 84d9 b0bd f94a 8bbd 996a 71bd
00000050: 6e7f c9bd 1d79 16bb 8fc5 f8bc 4800 e83e
00000060: 8b10 28bd 2aff 183e c6a4 f1bd 0fbe 423e
00000070: bd5c db3c e29c 79bd abf6 bb3e d2d3 bb3d
00000080: 68fb b9bd 2efe 423c 34ad 1c3d bf1f 3f3e
00000090: 3777 19be 126c 5fbd 66c0 89ba 6ef8 4c3b
000000a0: 9bad d3bd 0fe3 edbd 1242 0c3d 94ba 963c
000000b0: 4d2b a03d 7491 463e 3cdd 85bd eee7 ae3d
000000c0: 37a8 b53e 9ac0 8c3d dbc2 eabd ef44 a03d
000000d0: d448 583c 036b cfbd aa43 4abd 9071 1c3d
000000e0: 0cff 50bd d4cf 00be b0f7 c6bd 6f2e a13e
000000f0: d08e 1d3e 3eb8 d7bc 4592 a33e eab1 ef3c
00000100: 9f9b 0abe f76f 483d 0a3d f93d 2367 053e
00000110: 298a e1bd 2c98 5bbd 142e 91bd fb36 67bd
00000120: d10e fdbd 1cec aa3e cbe7 cf3e ac39 583d
00000130: b461 2cbc df63 2cbc dcd0 8b3e 63b0 d9bc
00000140: 3d84 80bd fba0 213e 95f8 96bd 2ed3 f63d
00000150: f704 cf3c f9f3 00be fec4 f0bc b46e 893e
00000160: da2b b6ba d361 89bd 5448 263e 64c4 113d
00000170: daa9 a43b 5f82 9ebd bbbf 2f3e cac4 843e
00000180: 7244 1e3c fac1 f9bd 577e f2bc 2e58 583e
00000190: abae 483e 0e02 8c3d 8f66 fd38 beae 523e
000001a0: f869 34bc 1dc4 73bd cfba 1b3e b13b bbbd
000001b0: 2124 b33e 6ba6 88bd 9056 e33d a9f1 413e
000001c0: e545 89bd 5f8a a03c a4a7 c93d 642c d3bd
000001d0: 82f5 19bd e588 32bd 4afd 89bb 00b0 45bd
000001e0: 48ba 8b3d 7480 293e 15f7 27bd 2a1e 53bd
000001f0: 5c91 90bd 5c4a 34bd c6ba ccbd 21e5 0d3d
-0.10023965 0.089525834 -0.080396906 0.42746422 -0.0065311207 0.34309664 0.24872936 0.002660546
0.29084995 -0.058960676 -0.06960664 -0.09511439 -0.11415461 -0.10996368 0.013043998 0.40887263
0.012116798 -0.08635238 -0.06801409 -0.05893955 -0.098387584 -0.0022960373 -0.03036764 0.45312715
-0.0410314 0.14941087 -0.11799006 0.19017814 0.02677762 -0.06094063 0.3671163 0.09171261
-0.09081155 0.0119014215 0.038251117 0.18664454 -0.14986883 -0.054546423 -0.001050961 0.0031276005
-0.10335847 -0.116155736 0.034242697 0.018399514 0.07820759 0.19391423 -0.06536338 0.08540331
0.354799 0.06872673 -0.11462947 0.07825648 0.013200957 -0.10127833 -0.049380936 0.03819424
-0.05102448 -0.1257928 -0.097152114 0.3148074 0.1538651 -0.02633297 0.31947532 0.02925964
-0.13535927 0.048934903 0.121698454 0.13027625 -0.1101268 -0.05361192 -0.07088867 -0.056448918
-0.12356342 0.33383262 0.40606532 0.052789375 -0.010521341 -0.010521858 0.27307785 -0.026573366
-0.062752225 0.15784065 -0.07371632 0.12051998 0.025270922 -0.12593068 -0.029390808 0.26842272
-0.0013898567 -0.067081116 0.16238528 0.035587683 0.0050251307 -0.0773971 0.17162983 0.25931388
0.009659873 -0.12195201 -0.02960126 0.21127388 0.1959788 0.068363294 0.00012083083 0.20574471
-0.011011593 -0.0595132 0.1520798 -0.091422446 0.34988502 -0.06672367 0.11100495 0.18939842
-0.067027844 0.01959723 0.09846428 -0.10311201 -0.03758765 -0.043587584 -0.0042111026 -0.04826355
0.0682264 0.16552907 -0.04100712 -0.05154244 -0.07058975 -0.044016227 -0.09996562 0.034642342

fc3.weight f4 [3, 128]
00000000: 743c 58bd 45f2 413e 05ee 6c3d 46c7 5f3e
00000010: 535f 483d a940 3c3e 2663 e53d 9188 4abe
00000020: 1b08 083e b9ef 50bc 8e4b 4b3d 96a0 033c
00000030: 37b8 9b3d 1f7b 6a3d f06e 853e 2fb5 8a3e
00000040: e00e 8e3d a372 b93d 4ce8 b4bd 4f03 a2bd
00000050: 19af 7bb8 a598 523c fb9d 47be 38a3 b93e
00000060: b5ef 193d 61d7 233e 9201 51bc 7eca 86bd
00000070: d445 08bd 466c a93d 0ac6 fd3d c9de 12be
00000080: 6cdd 983f 5603 003d 8ef0 ad3f d15e af3c
00000090: 15f4 8cbe 652e 50bc 0a42 c23d a96c 563d
000000a0: d642 1bbd ee69 8c3c 2a55 1bbe 47fb 08bf
000000b0: 3742 a5be 76aa 903e be97 02bd 0ef2 063f
000000c0: a7e0 073e 93c8 543d dfdb 553c 7ab2 de3e
000000d0: 24c4 b4bd f4b8 2dbd 6cd2 0bbe aafb 803d
000000e0: 69ac 1c3b fc7e 80be 1294 d3bc 07ad 423e
000000f0: 776e d53b 9eed 7cbf bc50 983e 08fb 7f3c
00000100: 974e 8c3d 0ea7 5cbe ab80 a7be 75f2 bb3e
00000110: 8ceb 29be c472 56bc 2f9f 97bd b82a 0e3d
00000120: aabe 8bbc 7fc6 b73e 39d7 b43e 4d85 5c3d
00000130: fd93 363d 996b 4e3d 9862 a03e 3b27 163d
00000140: 5fed 81be 4b66 773e 2778 bb3e 183a f93c
00000150: c27b 103c aedb 37bd 9aaa 0bbc d616 3c3e
00000160: 583e 693c bfa7 863d 6712 8f3e b008 10bd
00000170: d5f4 7cbd e0fd 983d 9f3b 41bd 07ba f03d
00000180: 03e4 153d 053b 80bc 4a58 7a3d 2f17 c73e
00000190: 0321 0e3e d53f e83e 53ce fabb 4b66 6cbd
000001a0: c503 0e3d ce17 debd 6c21 9cbc e8c4 09bd
000001b0: 9ccc 4d3e b27c 623c 1836 fa3d ba7c ae3e
000001c0: 94ff 97be dd3d 83bd e435 083f ea3a 19bd
000001d0: 0797 0ebe c2c9 8c3d c459 b6bb 5157 9dbd
000001e0: 39ad 9dbe 4b47 a63d 9be3 bfbd a9ec 09be
000001f0: abe4 1abd 4e76 3fbe 22ff 3fbd 5cf2 66bd
00000200: d844 a53b e73a 803e 01fe e6bc 5d74 9c3e
00000210: 5c92 33bd aa49 833e e43d 913e 131f 743d
00000220: 9894 143e 8858 82bc 857e 64bd e141 443b
00000230: 7b9e 353d 559b 06bd c414 9cbd 2b92 8e3e
00000240: aa43 663d c01b 4bbf cf03 11bd db1e 87bd
00000250: 92a4 36bd 3af3 b73c 896f 863e 75f2 bb3e
00000260: 1585 2ebd 6a9b a43e 65cd c43c bffc 0f3e
00000270: 58c8 233d c651 6b3d 9918 803e 90e4 0a3e
00000280: 9b4d 453f ce62 803d 641e 893e 79f8 f93d
00000290: 6dd0 14bf d86a dbbd f187 4fbe ec60 4b3d
000002a0: f9bc 023b bdd8 893d 9932 8e3c d0e8 123e
000002b0: 0fb8 5ebc 3b65 cd3e b3fa a7bb 2ac1 2fbd
000002c0: b36b 9b3e 9d55 7dbb 6703 783c 3e5f ae3d
000002d0: 4b39 673d d932 ba3a 7c5e 883d 31be 2b3d
000002e0: 6841 9bbd 9daa afbd 79bf af3d c45f 753e
000002f0: 1e45 9f3d 9a03 f63e 2f7e ba3e 3427 7cbd
00000300: 10a0 983d db9b 223e b987 be3d 4a47 de3d
00000310: 7d2d cebe de12 18bd dbfb e5ba f573 bdbc
00000320: 6fb8 54bc e6a8 863e 0f10 8e3e d370 20bd
00000330: 7be3 1ebc 5b6b 0d3c 8842 d43e fd9e e3bc
00000340: 7c36 13bf 4849 cf3e d00a 7dbe cf8a 293e
00000350: 8b25 7d3c 80c5 52bd 6b12 393e 561f 8a3e
00000360: 4b5a 8fbd bdf8 e5bb 74f2 d03e 7655 a6bc
00000370: 910e 0f3d 375b 683d 11d5 a03d 3238 9c3e
00000380: 017d 92bd 67c5 2dbd 23d1 863d 525f 933e
00000390: b503 1f3e 8f9b 4ebd 1293 8e3c 1489 c83d
000003a0: 35a8 dcbb 7fd9 53be 47f7 7dbe 04a1 7ebd
000003b0: ee0b 7a3e e4da 83bc ab94 b73c 2c22 053e
000003c0: 865c 04be 1eb9 873d f4e0 ee3c 610a 623d
000003d0: 0f75 593d 0aa1 773b fe66 d7bc 2c3f 183e
000003e0: 276d 8cbd 696d 0e3e 2b7a b73c 839c 993d
000003f0: ff04 30bc 1315 20bc 8e0f b93c eb6a d4be
-0.052792028 0.18940075 0.05784418 0.2185336 0.048919033 0.18384041 0.11200552 -0.19778658
0.13284342 -0.012752467 0.0496326 0.008033892 0.076034956 0.057246324 0.260612 0.27091357
0.06936431 0.09055068 -0.088333696 -0.07910787 -6.0006136e-05 0.012853776 -0.19493859 0.3625734
0.037582118 0.1600013 -0.012756722 -0.06581591 -0.03326972 0.08272605 0.123912886 -0.14342798
1.1942573 0.03125318 1.3589036 0.021407517 -0.2752997 -0.012706374 0.09485252 0.05234972
-0.037905537 0.017140355 -0.15169206 -0.5350842 -0.3227708 0.2825505 -0.031882994 0.52713096
0.13269292 0.051949095 0.01305291 0.43495542 -0.08826473 -0.042412713 -0.13654488 0.06298001
0.0023906475 -0.2509688 -0.025827441 0.19011317 0.0065134126 -0.98800075 0.29749095 0.015623815
0.06850927 -0.21548101 -0.32715353 0.36708418 -0.1659376 -0.013088886 -0.07403409 0.03470871
-0.01705869 0.35893628 0.35320452 0.053838063 0.044574726 0.050395582 0.3132522 0.036658507
-0.25376412 0.24160115 0.36615106 0.03042321 0.008818569 -0.044887237 -0.008524561 0.18368086
0.014236055 0.06574964 0.27943727 -0.035164535 -0.061756928 0.07470298 -0.047176 0.11754232
0.036594402 -0.015653143 0.061119355 0.38884875 0.1387978 0.453612 -0.0076539903 -0.05771474
0.034671564 -0.10844384 -0.019058906 -0.03363505 0.20097584 0.013823675 0.12217349 0.34079534
-0.29687178 -0.06408284 0.5320723 -0.0374097 -0.139248 0.0687442 -0.0055649 -0.0768267
-0.3079622 0.08119067 -0.09369584 -0.13469185 -0.03781573 -0.18697473 -0.046874173 -0.056383476
0.005043607 0.2504494 -0.02819729 0.30557528 -0.04384075 0.2564214 0.2836753 0.059599947
0.14509809 -0.015911356 -0.05578472 0.0029946493 0.044340592 -0.03286298 -0.07621148 0.27845892
0.056216873 -0.7933922 -0.035404023 -0.06597682 -0.04459054 0.022454847 0.2625697 0.36708418
-0.042607386 0.32149822 0.024023721 0.14061259 0.039985985 0.057451032 0.25018767 0.13563752
0.7707154 0.062688455 0.26781 0.122055955 -0.5813053 -0.10713738 -0.20266701 0.04965298
0.0019949062 0.06730793 0.017358111 0.14346623 -0.013593688 0.40116295 -0.005126321 -0.042908825
0.30355605 -0.0038655766 0.01513753 0.0851426 0.056451123 0.0014205828 0.066586465 0.041929428
-0.075808346 -0.08577464 0.085814424 0.23962313 0.07776855 0.48049623 0.36424395 -0.061560825
0.074524045 0.15879767 0.09303231 0.10853441 -0.4026908 -0.03712737 -0.0017546372 -0.023126582
-0.0129834255 0.26300734 0.27746627 -0.039170098 -0.00969779 0.008631553 0.4145701 -0.027785772
-0.5750501 0.40485597 -0.24711156 0.16556858 0.0154508455 -0.051457882 0.18073432 0.26977032
-0.06999644 -0.0070181773 0.40809977 -0.020304423 0.034926 0.056727614 0.07853139 0.30511624
-0.07152749 -0.042424586 0.065828584 0.2878366 0.15528758 -0.05044132 0.017404113 0.097917706
-0.006733919 -0.20688437 -0.2480136 -0.062165275 0.24418613 -0.016095586 0.022409758 0.13001317
-0.1292592 0.06627105 0.02916 0.05518568 0.05309015 0.0037785196 -0.026294228 0.14867848
-0.06856757 0.13908924 0.022397121 0.07500555 -0.010743379 -0.0097706495 0.022590425 -0.41487822

fc3.bias f4 [3]
00000000: 9950 523e 24d5 993e 1877 8a3e
0.20538558 0.30045426 0.27043986

exp_avg f4 [128, 10]
00000000: 68d7 9439 9d0a b23a c9d0 ba3a 3997 3b3b
00000010: 1c22 883a 0606 8eba 0000 0000 a530 f93a
00000020: 85dd 5bba a851 353b 44a5 1138 42c4 91b9
00000030: 432e 003a 0aa2 543a dfc5 5bb9 444e 3aba
00000040: 0000 0000 752f 90b9 d7f8 bfb9 1897 c039
00000050: 0400 0000 0400 0000 0400 0000 0400 0080
00000060: 0400 0000 0400 0000 0000 0000 0400 0000
00000070: 0400 0000 0400 0000 0400 0000 0400 0000
00000080: 0400 0080 0400 0000 0400 0000 0400 0000
00000090: 0000 0000 0400 0000 0400 0000 0400 0000
000000a0: 3131 5fba ccbb b0bb f8de 8bbb 4564 bfbb
000000b0: 3ef4 81bb 0400 0000 0000 0000 37b9 e4bb
000000c0: cf73 dbb9 f5ad dfbb 45f5 dbb8 fae9 01ba
000000d0: 7bff 58ba 3c0c 33ba 5c53 b6b9 21dc 3339
000000e0: 0000 0000 43aa 29ba 2ed7 1d39 1d5f 87ba
000000f0: 4423 b2b7 abb4 c2b9 028a 8138 5bd9 d1b9
00000100: d17a 89b9 6043 beb9 0000 0000 d519 dcb9
00000110: 8144 85b9 71a8 f1b8 0400 0000 0400 0000
00000120: 0400 0080 0400 0080 0400 0000 0000 0000
00000130: 0000 0000 0400 0000 0400 0000 0400 0000
00000140: 4e08 63b8 4aa2 0fba e3fc 10ba 762d 983a
00000150: 7761 d1b9 0400 0000 0000 0000 c376 2eba
00000160: c376 2eba 64e0 d7b8 57b1 8939 c44b bf3a
00000170: 8ae8 873a 6374 5b3b 6487 8f3a 172b a4b9
00000180: 0000 0000 ea7a 003b 5a05 43ba bd76 323b
00000190: ff16 50b6 2287 16b8 0210 4438 968d 68b8
000001a0: 262c d4b7 0400 0000 0000 0000 5514 2fb8
000001b0: 482e 82b8 9fea 1f37 e1c1 6c39 33aa 583a
000001c0: cbaf 223a c408 bc3b fca3 2b3a af68 6dba
000001d0: 0000 0000 a864 a43a 2fc5 2dbb 48d8 743b
000001e0: 0ac3 32b5 78b1 fab6 9ee5 dc33 574f 9a37
000001f0: 3034 b3b6 0400 0000 0000 0000 031e 14b7
00000200: 2d27 14b7 e301 d3b5 7685 3739 d4ef 813a
00000210: fba9 513a abf8 4a3b 945f 3f3a e9fc 0538
00000220: 0000 0000 343c ab3a 438a 38ba 6b28 0c3b
00000230: 0400 0000 0400 0000 0400 0000 0400 0080
00000240: 0400 0000 0000 0000 0000 0000 0400 0000
00000250: 0400 0000 0400 0000 0d54 f2b8 3dcb 46ba
00000260: 22f1 a7b9 6268 5eba 77e5 0eba 1504 d9b8
00000270: 0000 0000 d4f7 7aba aa65 80b9 fd52 2eba
00000280: 5062 4e39 d324 cb39 dd8b d439 e7a0 783b
00000290: 40e1 a639 4bbc 9dba 0000 0000 eedd 3a3a
000002a0: 225a 6bba b970 ff3a 48f1 9a39 58bd 333b
000002b0: 52d3 293b 37d9 80bb a66a ff3a 2553 793a
000002c0: 0000 0000 bf24 573b bf24 573b 9161 ce39
000002d0: 6c55 5738 ffb5 493a 0f66 c4b7 0ae3 0339
000002e0: 20bf 0f3a a29f 733a 0000 0000 3d53 683a
000002f0: f049 d739 06bb 6639 0400 0000 0400 0000
00000300: 0400 0080 0400 0080 0400 0000 0400 0080
00000310: 0000 0000 0400 0000 0400 0000 0400 0000
00000320: a1dd 9d36 6a0c 9f3b 08db eaba c70a 5d3a
00000330: 4f29 733b 7984 b73b 0000 0000 7984 b73b
00000340: 0000 0000 87f1 2e3b 5de2 0f39 964d 7339
00000350: 9547 133a 5baf f33a 47b7 2e39 55b6 3fba
00000360: 0000 0000 a571 d839 c49d f6b8 b3e0 883a
00000370: 0400 0000 0400 0000 0400 0000 0400 0080
00000380: 0400 0000 0400 0000 0000 0000 0400 0000
00000390: 0400 0000 0400 0000 e798 3fba a3a6 a5bb
000003a0: 753b 8dbb 87dc cbbb bb94 70bb 0400 0080
000003b0: 0000 0000 0577 d1bb 7060 18b9 b994 cbbb
000003c0: 04bf d336 bb05 e8b8 6f72 0eb9 9e52 4f39
000003d0: b29f 5ab8 d9ed 6ab9 0000 0000 8b07 93b8
000003e0: bd89 dcb9 451c 9838 0000 0000 0000 0000
000003f0: 0000 0000 0000 0000 0000 0000 0000 0000
0.0002838925 0.0013583485 0.0014252897 0.0028624071 0.0010386142 -0.0010835535 0.0 0.001901169
-0.0008387196 0.002766708 3.472461e-05 -0.0002780278 0.0004889706 0.0008111304 -0.0002095918 -0.00071069994
0.0 -0.0002750118 -0.0003661576 0.00036733667 6e-45 6e-45 6e-45 -6e-45
6e-45 6e-45 0.0 6e-45 6e-45 6e-45 6e-45 6e-45
-6e-45 6e-45 6e-45 6e-45 0.0 6e-45 6e-45 6e-45
-0.0008514105 -0.005393481 -0.0042685233 -0.0058408105 -0.0039658835 6e-45 0.0 -0.006980087
-0.0004185722 -0.006826157 -0.00010488419 -0.00049558247 -0.00082778157 -0.0006830131 -0.00034775853 0.00017152775
0.0 -0.00064722094 0.00015052847 -0.0010328029 -2.1235675e-05 -0.00037137172 6.176905e-05 -0.0004002553
-0.00026222182 -0.00036289822 0.0 -0.00041980916 -0.00025418776 -0.0001152315 6e-45 6e-45
-6e-45 -6e-45 6e-45 0.0 0.0 6e-45 6e-45 6e-45
-5.412875e-05 -0.00054792 -0.0005530847 0.0011610228 -0.00039936203 6e-45 0.0 -0.000665527
-0.000665527 -0.00010293795 0.00026262805 0.0014594723 0.0010368985 0.003348612 0.0010950384 -0.00031312622
0.0 0.0019604512 -0.0007439457 0.0027231418 -3.10078e-06 -3.588864e-05 4.674495e-05 -5.5444973e-05
-2.5292928e-05 6e-45 0.0 -4.1742187e-05 -6.2075036e-05 9.5317655e-06 0.0002257894 0.0008265108
0.0006206005 0.0057383496 0.0006547568 -0.00090564316 0.0 0.0012542205 -0.0026515236 0.003736036
-6.6593987e-07 -7.4712407e-06 1.02863154e-07 1.8395176e-05 -5.340691e-06 6e-45 0.0 -8.828475e-06
-8.830609e-06 -1.5721274e-06 0.00017501958 0.0009913393 0.00079980463 0.0030970972 0.0007300314 3.1945212e-05
0.0 0.0013064207 -0.00070396456 0.0021386396 6e-45 6e-45 6e-45 -6e-45
6e-45 0.0 0.0 6e-45 6e-45 6e-45 -0.00011555115 -0.00075833854
-0.0003203238 -0.0008484182 -0.0005451063 -0.00010348127 0.0 -0.00095736724 -0.00024489808 -0.00066499395
0.00019682315 0.00038746613 0.00040539997 0.0037937702 0.00031829812 -0.0012034265 0.0 0.0007128407
-0.00089779694 0.001948855 0.00029552937 0.002742609 0.002591331 -0.003932144 0.001948674 0.00095109857
0.0 0.00328283 0.00328283 0.00039364074 5.133955e-05 0.0007694661 -2.3412545e-05 0.00012577712
0.0005483497 0.00092935015 0.0 0.0008862501 0.00041063083 0.00022004181 6e-45 6e-45
-6e-45 -6e-45 6e-45 -6e-45 0.0 6e-45 6e-45 6e-45
4.7047656e-06 0.004853775 -0.001791806 0.0008432087 0.003710348 0.005600509 0.0 0.005600509
0.0 0.0026694254 0.0001372187 0.00023203189 0.00056182715 0.0018591689 0.00016662209 -0.00073132414
0.0 0.00041283402 -0.0001175958 0.0010442942 6e-45 6e-45 6e-45 -6e-45
6e-45 6e-45 0.0 6e-45 6e-45 6e-45 -0.0007308856 -0.005055265
-0.0043100663 -0.0062213573 -0.0036709744 -6e-45 0.0 -0.006392362 -0.00014531775 -0.0062127975
6.310527e-06 -0.000110636895 -0.00013584805 0.00019771836 -5.2123978e-05 -0.00022404584 0.0 -7.010911e-05
-0.00042064293 7.2531904e-05 0.0 0.0 0.0 0.0 0.0 0.0

exp_avg_sq f4 [128, 10]
00000000: 1e6b a535 ed8e 7b39 8e28 4038 43ec 7a38
00000010: ad2a 0439 f7a3 8d39 0000 0000 f9b0 ab39
00000020: 214e c738 634e 9338 aefd d033 8d69 ce37
00000030: 90ac 1737 2fff c736 3f05 6137 4572 eb37
00000040: 0000 0000 ca32 0d38 de66 0237 fbdc 1a37
00000050: d47b 341e 527c 9e21 5d9d 7121 cfd9 d822
00000060: c2df 2321 bfd3 ed1c 0000 0000 f4ff e121
00000070: 9cda e121 7fec 441f 99b1 252c 2ae7 d72f
00000080: 9511 e12f 50f6 0e30 064b 5d2f de35 a52e
00000090: 0000 0000 74b6 1230 d761 0030 4e2c 242e
000000a0: fb09 9536 c9fa 8e39 33ec 7c39 2e35 a539
000000b0: 83d4 1a39 129c f530 0000 0000 f075 e239
000000c0: 837a 3e38 ceaa c339 e44f 6134 9760 1438
000000d0: 2e24 de36 7ac3 4137 3517 9e37 3ab4 1938
000000e0: 0000 0000 137a 4d38 1665 2a37 d270 8137
000000f0: 4959 ae32 1230 9136 a13e 9f34 8981 5235
00000100: 1781 1536 8640 b936 0000 0000 e400 c236
00000110: 0c6f 7736 eab3 e634 fd6a 222c 3fef 822f
00000120: 6e99 392e 6359 fc2f 97e9 172f 0000 0000
00000130: 0000 0000 c557 d12f 7155 a32d 4ba0 c42f
00000140: c9fc c532 d024 2536 bc04 0236 f933 4337
00000150: 0386 ae35 b2c0 5028 0000 0000 d277 7136
00000160: d277 7136 ba4f c633 e4cc 3f35 80eb d738
00000170: 5b63 0a38 2b6f 5838 45c7 6638 95ca b738
00000180: 0000 0000 2667 1839 efd4 f437 6733 6438
00000190: be75 0732 ed89 1935 9c8f 3c34 14fd 5535
000001a0: 302a a634 a691 ce20 0000 0000 85d7 6d35
000001b0: f39a 4934 0562 3c35 d5d5 2836 52f0 023a
000001c0: f06b 0f39 26b6 1c39 505d 8b39 da12 023a
000001d0: 0000 0000 96cd 343a 6e0c 0d39 c1af 3839
000001e0: c8da 6d30 f213 2234 9ca1 5f33 3362 1335
000001f0: 989e ad33 b4b8 9e33 0000 0000 2151 6034
00000200: ff3b 1934 4175 d832 8d44 e834 2665 7638
00000210: 1155 e737 f486 2538 3118 0638 a3e5 2638
00000220: 0000 0000 3866 b138 c100 6e36 e625 2b38
00000230: 54c7 3128 c8d9 9f2b 8be3 222b ba67 dc2c
00000240: 7c67 252b 0000 0000 0000 0000 6d9e e32b
00000250: 6d9e e32b 8b04 4d29 de77 3d34 e6d4 7f37
00000260: d446 9a36 d53a 7237 c878 0837 283b f936
00000270: 0000 0000 0ec8 bc37 4c1c fd35 bf49 6d37
00000280: 285d a535 3dd8 8039 f0a5 7938 b5e0 8e38
00000290: 5301 0839 fbf0 8339 0000 0000 c3b2 b039
000002a0: bd49 d038 8c7a 8d38 8f0d 3b36 238f 8b39
000002b0: c49f 8238 8bd6 1e39 cade 0539 26ab 9d39
000002c0: 0000 0000 7772 bc39 e048 b839 e24f df36
000002d0: 8e0b 3434 213d 2e38 6194 9e36 3e08 5135
000002e0: aea3 b737 cc58 6438 0000 0000 373b 6838
000002f0: 8fe9 9237 0cc3 c236 d13d ba13 f66d 3017
00000300: 0ebe c715 17a3 7b17 268a ca16 91ab c315
00000310: 0000 0000 19a1 8917 c8cb b116 03ec 3017
00000320: 316b 8630 3192 443a 31b3 8939 a4a9 0b37
00000330: ebe7 e539 6eda 823a 0000 0000 6eda 823a
00000340: 0000 0000 3926 6f39 a721 b934 c1cd a138
00000350: af34 8337 ea03 a637 d217 2d38 03e8 ac38
00000360: 0000 0000 1ea1 dd38 1880 de37 595e bd37
00000370: 326c e72a 7dc4 582e 7bf1 c12d 2f12 a42f
00000380: a694 dc2d a53d b915 0000 0000 2e64 972e
00000390: 2e64 972e e4c1 0d2c e10e fd35 fd56 e338
000003a0: 7f25 8c38 3b1b 2e39 88ab 7238 8249 8a30
000003b0: 0000 0000 7332 3339 48ea 0a37 a6c5 2939
000003c0: 433a 6934 8205 ef37 71d0 d736 54b5 3337
000003d0: 5e83 7137 8fcc f337 0000 0000 975a 2338
000003e0: 7eb8 0a38 7a2d b436 0000 0000 0000 0000
000003f0: 0000 0000 0000 0000 0000 0000 0000 0000
1.2324633e-06 0.0002399047 4.5814137e-05 5.982468e-05 0.00012604399 0.0002701578 0.0 0.00032747517
9.503612e-05 7.024107e-05 9.731899e-08 2.4606265e-05 9.040479e-06 5.9603694e-06 1.34122665e-05 2.8067394e-05
0.0 3.366432e-05 7.772554e-06 9.230566e-06 9.554728e-21 1.0739404e-18 8.1862245e-19 5.877753e-18
5.552269e-19 1.573808e-21 0.0 1.5314343e-18 1.5304458e-18 4.170024e-20 2.3546497e-12 3.9272524e-10
4.0939754e-10 5.200933e-10 2.0126487e-10 7.5129e-11 0.0 5.337377e-10 4.670517e-10 3.7328633e-11
4.441708e-06 0.000272712 0.00024120584 0.00031510874 0.00014765751 1.7870454e-09 0.0 0.0004319395
4.5413628e-05 0.00037320558 2.0983822e-07 3.5375906e-05 6.6203274e-06 1.1549209e-05 1.8845874e-05 3.664589e-05
0.0 4.89895e-05 1.01563255e-05 1.5430534e-05 2.0296868e-08 4.326933e-06 2.9661626e-07 7.8419595e-07
2.227787e-06 5.520941e-06 0.0 5.781754e-06 3.6870506e-06 4.2971743e-07 2.3080975e-12 2.3816857e-10
4.2200403e-11 4.5902046e-10 1.3816358e-10 0.0 0.0 3.8079243e-10 1.8568898e-11 3.5766087e-10
2.3048772e-08 2.4608344e-06 1.9374265e-06 1.1635007e-05 1.3003013e-06 1.1588104e-14 0.0 3.5981543e-06
3.5981543e-06 9.234596e-08 7.14512e-07 0.00010295864 3.2994296e-05 5.1601946e-05 5.5021857e-05 8.763854e-05
0.0 0.00014534275 2.9186222e-05 5.440731e-05 7.884806e-09 5.719765e-07 1.7561109e-07 7.971696e-07
3.0950605e-07 3.499414e-19 0.0 8.8603e-07 1.8775954e-07 7.0178095e-07 2.5158417e-06 0.0004994917
0.00013677753 0.00014945175 0.0002658167 0.00049619155 0.0 0.000689709 0.00013451438 0.00017613081
8.6531005e-10 1.5094682e-07 5.2068216e-08 5.4904666e-07 8.084788e-08 7.3910456e-08 0.0 2.089114e-07
1.4271062e-07 2.519903e-08 4.3263245e-07 5.8745172e-05 2.7576958e-05 3.946475e-05 3.197062e-05 3.979135e-05
0.0 8.4590574e-05 3.5465202e-06 4.0804873e-05 9.868696e-15 1.1358076e-12 5.786974e-13 6.264292e-12
5.876339e-13 0.0 0.0 1.6173292e-12 1.6173292e-12 4.5523084e-14 1.7645604e-07 1.5248754e-05
4.597803e-06 1.4438022e-05 8.134353e-06 7.427665e-06 0.0 2.2504504e-05 1.8858204e-06 1.4143471e-05
1.232057e-06 0.00024575173 5.9520768e-05 6.8129426e-05 0.00012970464 0.00025165812 0.0 0.00033702524
9.931948e-05 6.74623e-05 2.7873064e-06 0.0002661879 6.228642e-05 0.00015147978 0.00012766864 0.0003007289
0.0 0.00035943437 0.0003514951 6.6552175e-06 1.676801e-07 4.1541763e-05 4.7260405e-06 7.787056e-07
2.189152e-05 5.4442135e-05 0.0 5.536826e-05 1.7513315e-05 5.804357e-06 4.7013957e-27 5.7007457e-25
8.0675313e-26 8.130832e-25 3.2722044e-25 7.9030557e-26 0.0 8.894084e-25 2.8724496e-25 5.7166556e-25
9.780249e-10 0.0007498591 0.00026264184 8.324543e-06 0.00043851076 0.000998331 0.0 0.000998331
0.0 0.00022807055 3.448342e-07 7.715403e-05 1.564095e-05 1.9790565e-05 4.12686e-05 8.244815e-05
0.0 0.000105681116 2.652411e-05 2.257449e-05 4.1108919e-13 4.928723e-11 2.2048799e-11 2.9844346e-10
2.5077117e-11 7.481816e-26 0.0 6.8844805e-11 6.8844805e-11 2.0144936e-12 1.8854299e-06 0.00010840406
6.6827044e-05 0.00016604077 5.7857047e-05 1.0061714e-09 0.0 0.00017089564 8.279989e-06 0.00016190726
2.1721011e-07 2.8493585e-05 6.431765e-06 1.071145e-05 1.4395306e-05 2.9063112e-05 0.0 3.8946597e-05
3.3073586e-05 5.369712e-06 0.0 0.0 0.0 0.0 0.0 0.0

exp_avg f4 [128]
00000000: a630 f93a 772f 90b9 0400 0000 0400 0000
00000010: 37b9 e4bb 47aa 29ba d519 dcb9 0400 0000
00000020: c376 2eba e97a 003b 5514 2fb8 a664 a43a
00000030: 031e 14b7 393c ab3a 0400 0000 d2f7 7aba
00000040: e9dd 3a3a bf24 573b 3a53 683a 0400 0000
00000050: 7984 b73b bd71 d839 0400 0000 0577 d1bb
00000060: 8b07 93b8 0000 0000 3d11 c5b8 63b2 1bba
00000070: a885 8f3a a1d0 aab9 e909 e2b6 0400 0000
00000080: d307 45b9 0000 0000 c46f 9734 59d3 c63a
00000090: 3efb ec37 7cff 8aba cce0 9f3a 0400 0000
000000a0: b6b7 8bba a2f2 d1ba 0400 0000 fc71 6d39
000000b0: 0400 0000 f0ec 6c3a 0400 0000 b79a 1fba
000000c0: 0000 0000 30ec 99bb 0400 0000 0400 0000
000000d0: 0400 0000 c2aa f03a d312 db3a 0000 0000
000000e0: 0400 0000 b4ce a2b8 e1ab 6abb 0000 0000
000000f0: 9cbb fab8 0000 0000 b236 b0ba 979d 213a
00000100: 0400 0000 0000 0000 0400 0000 425a f8b9
00000110: 3d7a 16ba 917e 00bb f0bc 043b 620c 19ba
00000120: 274f 873a 264b 69ba de63 653a 0000 0000
00000130: 0400 0000 0000 0000 0400 0000 fb99 5837
00000140: 0400 0000 0400 0000 f093 aa39 897a f5bb
00000150: fd4e 94bb f5cb 91b9 04ce 7f39 a6b0 f039
00000160: bf7c 52b9 0400 0000 d057 3838 0400 0000
00000170: 0000 0000 0d5c bdb9 1e21 95bb 0000 0000
00000180: 0400 0000 0400 0000 0000 0000 1436 3a39
00000190: 0400 0000 cb17 81b9 6ecc 1fbb a42f 273b
000001a0: 0000 0000 1fcd 8f3a 0400 0000 0000 0000
000001b0: 7e00 c03a b927 39bc ab57 88ba 235e 1f3a
000001c0: 0400 0000 0000 0000 0400 0000 812a 103b
000001d0: c78f 8e3b 9608 35bc 7aef 913a 0327 8cbb
000001e0: 8c28 253d 6206 163b 2d1b 89b9 3564 06bb
000001f0: 0000 0000 0400 0000 0400 0000 aec8 daba
0.0019011691 -0.00027501184 6e-45 6e-45 -0.006980087 -0.00064722117 -0.00041980916 6e-45
-0.000665527 0.001960451 -4.1742187e-05 0.0012542203 -8.828475e-06 0.0013064212 6e-45 -0.0009573671
0.0007128404 0.00328283 0.00088624994 6e-45 0.005600509 0.00041283472 6e-45 -0.006392362
-7.010911e-05 0.0 -9.396903e-05 -0.00059393625 0.0010949867 -0.00032580367 -6.7364786e-06 6e-45
-0.00018790299 0.0 2.8207262e-07 0.0015169188 2.8250386e-05 -0.0010604705 0.0012197732 6e-45
-0.0010659609 -0.0016017745 6e-45 0.00022644544 6e-45 0.0009037992 6e-45 -0.0006088423
0.0 -0.004697345 6e-45 6e-45 6e-45 0.0018361437 0.0016713984 0.0
6e-45 -7.7632634e-05 -0.0035808014 0.0 -0.00011955874 0.0 -0.0013444035 0.00061651453
6e-45 0.0 6e-45 -0.00047369493 -0.0005740261 -0.001960669 0.0020254217 -0.0005838332
0.0010323272 -0.00088994426 0.0008750538 0.0 6e-45 0.0 6e-45 1.2910455e-05
6e-45 6e-45 0.0003253515 -0.007491414 -0.0045260177 -0.00027808515 0.00024395442 0.0004590798
-0.00020073632 6e-45 4.39508e-05 6e-45 0.0 -0.00036117472 -0.004551067 0.0
6e-45 6e-45 0.0 0.00017758488 6e-45 -0.00024622525 -0.0024383324 0.0025510574
0.0 0.0010971165 6e-45 0.0 0.0014648584 -0.0113009745 -0.0010402104 0.0006079396
6e-45 0.0 6e-45 0.002199799 0.0043506357 -0.01104941 0.0011133992 -0.0042771115
0.04032187 0.0022891988 -0.00026150924 -0.0020506505 0.0 6e-45 6e-45 -0.0016691887

exp_avg_sq f4 [128]
00000000: fab0 ab39 cb32 0d38 f4ff e121 74b6 1230
00000010: f075 e239 137a 4d38 e500 c236 c557 d12f
00000020: d177 7136 2867 1839 85d7 6d35 97cd 343a
00000030: 2151 6034 3866 b138 6d9e e32b 0cc8 bc37
00000040: c4b2 b039 7772 bc39 373b 6838 19a1 8917
00000050: 6eda 823a 1fa1 dd38 2e64 972e 7332 3339
00000060: 975a 2338 0000 0000 7939 af34 e932 b536
00000070: 5680 6d38 c08e 5637 8581 9338 428e e727
00000080: 9e78 1436 0000 0000 f038 f632 f422 d839
00000090: b85e 7435 82d6 ad39 0f91 9737 ff53 8d26
000000a0: cb47 cc37 9309 2437 b515 3824 a09d a135
000000b0: c7b1 9a1b 4dbe b938 4c13 1728 39fd 5938
000000c0: 0000 0000 000e 3239 f028 ee18 6fd1 8930
000000d0: 1a3c fc1f 0cf4 5038 6448 aa39 0000 0000
000000e0: 54a2 440d 4c0f c735 219a c438 0000 0000
000000f0: 9555 c236 0000 0000 d9a4 1d38 97c8 0a39
00000100: ebf4 a413 0000 0000 3d95 0215 5648 c136
00000110: 47a9 ca36 1c0f 4d37 9c94 8c3a 95b0 bd35
00000120: 6880 cc37 e92c 1239 6251 eb37 0000 0000
00000130: c129 6416 0000 0000 233c 7525 7e04 c932
00000140: 27b5 2828 12fa b517 2800 8238 372c 123a
00000150: 9f2a 1439 3950 5136 dc36 cd39 d7f7 2f37
00000160: 8968 c137 292f 3b1e d4d9 fa38 53e8 9e15
00000170: 0000 0000 8856 4236 05de b539 0000 0000
00000180: 0aa1 1d2d 2b9a 9110 0000 0000 d454 7f36
00000190: 7842 f30f 10a1 6f36 046c 3738 ecf8 ae39
000001a0: 0000 0000 502c 3f37 a015 302e 0000 0000
000001b0: f430 c639 0cea 903a b24a 9a37 23ac ea37
000001c0: ce19 2216 0000 0000 3cc3 f418 ac5e 5838
000001d0: 5eb5 673a 8588 e33a c5a3 a639 81d8 4439
000001e0: 6dc9 0b3c 919c d839 33c6 3836 0ee9 2f38
000001f0: 0000 0000 c24b 4915 af51 4d13 b63e a839
0.0003274752 3.3664324e-05 1.5314343e-18 5.337377e-10 0.0004319395 4.89895e-05 5.7817547e-06 3.8079243e-10
3.598154e-06 0.00014534278 8.8603e-07 0.00068970904 2.089114e-07 8.4590574e-05 1.6173292e-12 2.25045e-05
0.00033702527 0.00035943437 5.536826e-05 8.894084e-25 0.000998331 0.00010568112 6.8844805e-11 0.00017089564
3.8946597e-05 0.0 3.2638107e-07 5.400147e-06 5.6624725e-05 1.2788631e-05 7.033631e-05 6.4269616e-15
2.2123927e-06 0.0 2.8664061e-08 0.00041224773 9.103492e-07 0.00033156952 1.806815e-05 9.806608e-16
2.4352126e-05 9.777391e-06 3.9917027e-17 1.204131e-06 2.559205e-22 8.856934e-05 8.386368e-15 5.1972664e-05
0.0 0.00016980618 6.1562894e-24 1.0027587e-09 1.0682558e-19 4.981835e-05 0.00032478862 0.0
6.059256e-31 1.4831107e-06 9.374717e-05 0.0 5.7916136e-06 0.0 3.7585243e-05 0.00013235431
4.1640928e-27 0.0 2.637102e-26 5.7602692e-06 6.0397756e-06 1.222247e-05 0.0010725441 1.413299e-06
2.4378489e-05 0.00013940375 2.805208e-05 0.0 1.8430869e-25 0.0 2.1270738e-16 2.3401522e-08
9.3651546e-15 1.1759977e-24 6.198912e-05 0.00055760465 0.00014130257 3.1190123e-06 0.0003914152 1.0488518e-05
2.305607e-05 9.90945e-21 0.000119615026 6.4182235e-26 0.0 2.895862e-06 0.00034688428 0.0
8.960175e-12 5.742995e-29 0.0 3.8047338e-06 2.3987253e-29 3.5707526e-06 4.3731197e-05 0.00033373327
0.0 1.13948045e-05 4.0036974e-11 0.0 0.00037801976 0.001105608 1.8393013e-05 2.7975131e-05
1.3094398e-25 0.0 6.326966e-24 5.1586583e-05 0.00088389765 0.0017359412 0.00031784005 0.0001877267
0.00853191 0.00041315382 2.7533504e-06 4.19403e-05 0.0 4.065139e-26 2.591491e-27 0.0003209018

exp_avg f4 [128, 128]
00000000: 0400 0000 0400 0000 0400 0000 0400 0080
00000010: 0400 0000 0400 0080 0400 0000 0000 0000
00000020: 0400 0000 0400 0000 0400 0000 0400 0000
00000030: 0400 0080 0400 0000 0400 0000 0400 0000
00000040: 0400 0000 0400 0000 0400 0000 0400 0000
00000050: 0400 0080 0400 0000 0400 0000 0400 0000
00000060: 0400 0000 0000 0000 0000 0000 0400 0000
00000070: 0400 0000 0400 0000 0400 0000 0400 0000
00000080: 0400 0000 0000 0000 0400 0000 0400 0000
00000090: 0400 0080 0400 0000 0400 0000 0400 0000
000000a0: 0400 0000 0400 0000 0400 0080 0400 0000
000000b0: 0400 0000 0400 0000 0400 0000 0400 0000
000000c0: 0000 0000 0400 0000 0400 0000 0400 0000
000000d0: 0400 0000 0400 0000 0400 0000 0000 0000
000000e0: 0400 0000 0400 0000 0400 0000 0000 0000
000000f0: 0400 0000 0000 0000 0400 0000 0400 0000
00000100: 0400 0000 0000 0000 0400 0000 0400 0080
00000110: 0400 0080 0400 0000 0400 0000 0400 0000
00000120: 0400 0000 0400 0000 0400 0000 0000 0000
00000130: 0400 0000 0000 0000 0400 0000 0400 0000
00000140: 0400 0000 0400 0000 0400 0000 0400 0080
00000150: 0400 0000 0400 0000 0400 0000 0400 0000
00000160: 0400 0000 0400 0080 0400 0000 0400 0000
00000170: 0000 0000 0400 0000 0000 0000 0000 0000
00000180: 0400 0000 0000 0000 0000 0000 0400 0000
00000190: 0000 0000 0400 0000 0400 0000 0400 0000
000001a0: 0000 0000 0400 0000 0400 0000 0000 0000
000001b0: 0400 0000 0400 0000 0400 0000 0400 0080
000001c0: 0400 0000 0000 0000 0400 0080 0400 0000
000001d0: 0400 0080 0400 0000 0400 0000 0400 0000
000001e0: 0400 0000 0400 0000 0400 0000 0400 0000
000001f0: 0000 0000 0000 0000 0000 0000 0400 0000
00000200: 5d3a 94b7 135a 2db8 0400 0000 0400 0080
00000210: ae9d f838 acc2 9cb9 f70d 96b8 0000 0000
00000220: 2cfc 4fb8 9ce2 f0b8 0400 0080 5236 f4b9
00000230: 66e8 c4b4 df87 4e35 0400 0080 d110 0e38
00000240: 0b2a bdb9 a955 83b8 84fb 96b8 0400 0000
00000250: 0400 0000 a4b7 3fb9 0400 0080 602e 4e38
00000260: 4915 34b8 0000 0000 5539 4cb7 d376 83b6
00000270: d9ba 5fb5 8488 d637 1c70 0cb9 0400 0080
00000280: 0400 0000 0000 0000 8956 af34 a54e 98b8
00000290: 0400 0000 26ba a8b6 2398 d1b6 0400 0000
000002a0: 0400 0000 b190 adb8 0400 0080 90f4 1fb9
000002b0: 0400 0000 72d3 eab3 0400 0080 c457 3d37
000002c0: 0000 0000 d643 6638 0400 0000 0400 0000
000002d0: 0400 0080 0e9d 98b7 1a20 a337 0000 0000
000002e0: 0000 0000 f866 a1b3 c401 ba37 0000 0000
000002f0: 5bcc 58b9 0000 0000 f9eb 3ab9 3b3f bab6
00000300: 0000 0000 0000 0000 0000 0000 d216 5bb8
00000310: a64e 49b8 b0c4 cab7 a300 bab9 0400 0080
00000320: ace9 c9b8 fe4d 92b9 c97d 9ab9 0000 0000
00000330: 0000 0000 0000 0000 0400 0000 0400 0000
00000340: 0400 0080 0000 0000 1967 5cb8 204d f037
00000350: 4937 8d35 f3bb a8b8 3aa1 c5b9 258d 119c
00000360: 284d 48b6 0400 0000 0627 31b9 0400 0080
00000370: 0000 0000 3838 ccb5 7ce6 65b9 0000 0000
00000380: 0400 0080 0000 0000 0000 0000 e0a2 24b9
00000390: 0000 0000 9803 d0b5 91df 5f38 b01b a5b7
000003a0: 0000 0000 ba08 10b9 0400 0000 0000 0000
000003b0: e35c f6b8 b4a9 afb5 b1fd f7b8 0610 e237
000003c0: 0400 0080 0000 0000 0400 0080 850b 3538
000003d0: 0400 0080 387d 8037 b32b b4b8 e302 3238
000003e0: 1adb 4aae c017 7336 ef39 a0b5 454c 38b1
000003f0: 0000 0000 0000 0000 0000 0000 4572 75b9
6e-45 6e-45 6e-45 -6e-45 6e-45 -6e-45 6e-45 0.0
6e-45 6e-45 6e-45 6e-45 -6e-45 6e-45 6e-45 6e-45
6e-45 6e-45 6e-45 6e-45 -6e-45 6e-45 6e-45 6e-45
6e-45 0.0 0.0 6e-45 6e-45 6e-45 6e-45 6e-45
6e-45 0.0 6e-45 6e-45 -6e-45 6e-45 6e-45 6e-45
6e-45 6e-45 -6e-45 6e-45 6e-45 6e-45 6e-45 6e-45
0.0 6e-45 6e-45 6e-45 6e-45 6e-45 6e-45 0.0
6e-45 6e-45 6e-45 0.0 6e-45 0.0 6e-45 6e-45
6e-45 0.0 6e-45 -6e-45 -6e-45 6e-45 6e-45 6e-45
6e-45 6e-45 6e-45 0.0 6e-45 0.0 6e-45 6e-45
6e-45 6e-45 6e-45 -6e-45 6e-45 6e-45 6e-45 6e-45
6e-45 -6e-45 6e-45 6e-45 0.0 6e-45 0.0 0.0
6e-45 0.0 0.0 6e-45 0.0 6e-45 6e-45 6e-45
0.0 6e-45 6e-45 0.0 6e-45 6e-45 6e-45 -6e-45
6e-45 0.0 -6e-45 6e-45 -6e-45 6e-45 6e-45 6e-45
6e-45 6e-45 6e-45 6e-45 0.0 0.0 0.0 6e-45
-1.7670152e-05 -4.1330302e-05 6e-45 -6e-45 0.00011854932 -0.0002989968 -7.1551585e-05 0.0
-4.95875e-05 -0.00011486301 -6e-45 -0.00046579778 -3.6676937e-07 7.69387e-07 -6e-45 3.38711e-05
-0.00036080214 -6.262522e-05 -7.199406e-05 6e-45 6e-45 -0.00018283591 -6e-45 4.9157417e-05
-4.2935168e-05 0.0 -1.2172696e-05 -3.917937e-06 -8.334587e-07 2.5574358e-05 -0.00013393204 -6e-45
6e-45 0.0 3.2659253e-07 -7.2625735e-05 6e-45 -5.0284607e-06 -6.2463964e-06 6e-45
6e-45 -8.276234e-05 -6e-45 -0.00015254528 6e-45 -1.0934936e-07 -6e-45 1.1285712e-05
0.0 5.489945e-05 6e-45 6e-45 -6e-45 -1.8192946e-05 1.9446063e-05 0.0
0.0 -7.5158766e-08 2.217375e-05 0.0 -0.00020675494 0.0 -0.00017826249 -5.550593e-06
0.0 0.0 0.0 -5.2234922e-05 -4.799538e-05 -2.4171866e-05 -0.0003547716 -6e-45
-9.627952e-05 -0.000279054 -0.00029466886 0.0 0.0 0.0 6e-45 6e-45
-6e-45 0.0 -5.2548105e-05 2.8646144e-05 1.0521409e-06 -8.0458725e-05 -0.0003769489 -4.81589e-22
-2.9847233e-06 6e-45 -0.00016894573 -6e-45 0.0 -1.5215546e-06 -0.00021925004 0.0
-6e-45 0.0 0.0 -0.00015700934 0.0 -1.5498254e-06 5.3375556e-05 -1.9682426e-05
0.0 -0.00013736161 6e-45 0.0 -0.000117474956 -1.3087906e-06 -0.000118251315 2.6948761e-05
-6e-45 0.0 -6e-45 4.316449e-05 -6e-45 1.5317099e-05 -8.5912085e-05 4.2441196e-05
-4.6124084e-11 3.6223646e-06 -1.193779e-06 -2.6818878e-09 0.0 0.0 0.0 -0.0002340759
